Results/Models/LR_DCN_model_iter_id_2_epoch_100_lr_0.0001.pth (torch, 828130 bytes, 16 tensors)

shared1.weight f4 [200, 17]
-0.1780784 -0.10202446 -0.0825156 0.022740658 0.09237305 -0.05742429 0.080548264 -0.15889657
-0.021314658 0.102669865 -0.1341462 -0.04780135 0.01513907 0.15603827 0.103018485 0.19482695
0.14096388 -0.034405116 0.0578406 0.09227123 0.008886894 -0.06806564 0.20460667 -0.10573984
0.1041573 0.15215547 -0.07282768 0.11416113 0.15187563 0.021295555 0.1294425 -0.20792976
-0.15147999 0.20296706 0.08866406 0.022389488 0.0884981 0.04893701 0.09244713 0.015175779
0.056152143 -0.017232984 0.003718333 -0.10957808 -0.088064104 -0.038306918 0.055432897 0.050424878
0.03666679 0.064629346 -0.05488047 0.023435585 -0.035403654 -0.0053286687 -0.19401225 -0.030033056
-0.011055114 0.16341716 0.008325504 -0.028812815 -0.0003885151 0.12393553 0.12497776 -0.088128835
0.1432571 -0.045488004 -0.062310807 0.045327533 -0.050927594 -0.017811293 0.00046069518 0.06157389
-0.11103432 -0.026007298 -0.043175224 0.015588372 0.0106182145 0.010013344 -0.012514758 0.08397922
-0.12052682 -0.09211715 0.008628578 -0.08152983 -0.10729112 -0.11845005 -0.061986208 -0.046710555
-0.16686264 0.16097546 -0.053358536 -0.06294292 -0.03725763 0.0142462095 -0.07870258 0.019456578
0.114181794 0.05861871 -0.00839662 -0.113511935 -0.13576008 -0.032767627 -0.16627528 0.15253662
-0.037446663 0.052693527 0.16452354 0.093639396 -0.11403659 0.11629115 0.034692533 0.020845938
-0.13167647 0.11077163 0.009843435 0.17179203 0.018999873 0.15220723 0.2133545 0.09052081
0.062009238 -0.06285577 0.1291376 0.047943633 -0.06029992 -0.023219883 0.05535032 -0.06784803
-0.09485179 -0.17149833 -0.03693776 -0.08154537 -0.20897077 -0.070880204 0.028856728 -0.17405964
0.118292324 0.06517674 -0.029531237 0.13066253 -0.07206213 -0.064668335 0.11313763 0.08533424
-0.1741137 0.10618466 -0.07543334 0.032236554 -0.0054800753 -0.1637311 -0.010414452 -0.03899871
-0.119960435 0.058243267 0.047506347 -0.041588146 -0.028262828 -0.014442739 0.25120717 -0.08787164
0.0684223 0.0899097 -0.010518645 0.09939004 0.14383338 -0.056346092 -0.043449227 -0.015210582
-0.078935914 0.00827227 0.18858331 -0.13869894 0.04337102 0.15666987 -0.13682349 -0.09170715
-0.05123935 -0.103161685 -0.09657027 -0.0598289 0.09161852 -0.084616624 0.04124932 0.10633397
0.025247332 -0.054851245 0.010140611 0.004260891 0.13804092 0.17859402 0.21718054 -0.04524955
-0.21265312 -0.099218056 0.12568517 0.0032509326 -0.1177684 -0.07863682 0.06447552 -0.022238087
-0.16003083 0.094027765 0.07228195 0.2543037 0.048323575 -0.10957525 -0.0029170308 -0.040307283
-0.08499991 0.13964559 0.11966344 0.10824299 -0.11252676 0.092359506 -0.13142987 0.03944952
-0.021727089 -0.18903096 0.048001684 0.037872545 0.07409895 -0.07584037 -0.10230592 -0.14754054
-0.09409285 -0.0519203 0.015617448 -0.0060185436 -0.14151491 0.15800096 0.011378066 -0.12349424
0.04202612 0.11950654 0.078142785 0.16703372 -0.07190511 0.0015817372 -0.11183997 -0.13408634
0.054404933 0.09343644 -0.020588314 -0.18490621 0.054715082 0.047778673 -0.17619555 0.13533811
0.03357031 0.12543039 -0.10777438 -0.12570429 0.13852629 -0.043738414 0.045180667 -0.046264347
00000000: 2f5a 36be 33f2 d0bd f0fd a8bd 9e4a ba3c
00000010: 152e bd3d bb35 6bbd 7df6 a43d c8b5 22be
00000020: 149c aebc 9444 d23d 9f5d 09be 59cb 43bd
00000030: dd09 783c 7fc8 1f3e 5bfb d23d b780 473e
00000040: d658 103e 61ec 0cbd 44ea 6c3d b3f8 bc3d
00000050: 569a 113c 0066 8bbd 6984 513e 218e d8bd
00000060: 6c50 d53d a5ce 1b3e ae26 95bd 4fcd e93d
00000070: 4985 1b3e 0474 ae3c 938c 043e 8aeb 54be
00000080: 921d 1bbe 99d6 4f3e 8195 b53d 296a b73c
00000090: 7e3e b53d 2d72 483d ec54 bd3d d5a3 783c
000000a0: caff 653d 302c 8dbc 47af 733b 796a e0bd
000000b0: f45a b4bd b7e7 1cbd 9b0d 633d 518a 4e3d
000000c0: ea2f 163d 645c 843d 58ca 60bd fcfb bf3c
000000d0: 6c03 11bd 1d9c aebb 26ab 46be e207 f6bc
000000e0: 8220 35bc d456 273e b267 083c da08 ecbc
000000f0: 9db1 cbb9 e9d1 fd3d 57f4 ff3d e47c b4bd
00000100: fdb1 123e a151 3abd 9e39 7fbd 5da9 393d
00000110: 7499 50bd fde8 91bc 7689 f139 e734 7c3d
00000120: f665 e3bd 420d d5bc 81d8 30bd 5f66 7f3c
00000130: 05f8 2d3c 020f 243c b30a 4dbc 4cfd ab3d
00000140: c4d6 f6bd eba7 bcbd e15e 0d3c 1df9 a6bd
00000150: 72bb dbbd f195 f2bd 40e5 7dbd 9153 3fbd
00000160: 0ade 2abe c0d6 243e 7b8e 5abd 38e8 80bd
00000170: 759b 18bd ef68 693c d12e a1bd 6763 9f3c
00000180: 25d8 e93d 2c1a 703d fa91 09bc f278 e8bd
00000190: b104 0bbe 5937 06bd 1144 2abe 8f32 1c3e
000001a0: ac61 19bd 2bd5 573d dc78 283e 03c6 bf3d
000001b0: 048c e9bd 0e2a ee3d c219 0e3d 1ac5 aa3c
000001c0: 32d6 06be 3ddc e23d 5c46 213c 40ea 2f3e
000001d0: 9fa5 9b3c 36dc 1b3e 9a79 5a3e f962 b93d
000001e0: 66fd 7d3d 87ba 80bd a63c 043e 8b60 443d
000001f0: 0dfd 76bd a037 bebc 04b7 623d e8f3 8abd
00000200: a841 c2bd 429d 2fbe 0c4c 17bd 4201 a7bd
00000210: 6ffc 55be a429 91bd f264 ec3c b13c 32be
00000220: 3f43 f23d 627b 853d 7eeb f1bc 66cc 053e
00000230: 4f95 93bd d570 84bd b4b4 e73d b8c3 ae3d
00000240: dd4a 32be 5877 d93d cc7c 9abd 7a0a 043d
00000250: 3492 b3bb 20a9 27be 61a1 2abc 1dbd 1fbd
00000260: d1ad f5bd 7e90 6e3d 0496 423d 5558 2abd
00000270: 7287 e7bc 3da1 6cbc 3a9e 803e 0cf6 b3bd
00000280: fe20 8c3d 9422 b83d 6556 2cbc 018d cb3d
00000290: 0f49 133e 29cb 66bd d1f7 31bd ce35 79bc
000002a0: 27a9 a1bd 6a88 073c fc1b 413e 1807 0ebe
000002b0: d0a5 313d 116e 203e 751b 0cbe f5d0 bbbd
000002c0: 5ae0 51bd 6f46 d3bd a2c6 c5bd 260f 75bd
000002d0: 7ea2 bb3d 7b4b adbd 0cf5 283d a0c5 d93d
000002e0: 7ed3 ce3c b3ab 60bd ce24 263c f29e 8b3b
000002f0: 995a 0d3e 5ae1 363e 9364 5e3e 9857 39bd
00000300: bdc1 59be d632 cbbd 9db3 003e 990d 553b
00000310: 8f30 f1bd 570c a1bd be0b 843d a62c b6bc
00000320: 1fdf 23be a191 c03d 8f08 943d 1834 823e
00000330: f1ee 453d fd68 e0bd a82b 3fbb 4019 25bd
00000340: 6f14 aebd 41ff 0e3e 1b12 f53d 80ae dd3d
00000350: 6e74 e6bd fb26 bd3d 8d95 06be d295 213d
00000360: 02fd b1bc 5591 41be 6a9d 443d 3e20 1b3d
00000370: 31c1 973d 3252 9bbd c485 d1bd de14 17be
00000380: c1b3 c0bd 61aa 54bd 53e0 7f3c 3437 c5bb
00000390: 49e9 10be 01cb 213e 116b 3a3c 8cea fcbd
000003a0: 9523 2c3d d8bf f43d 5309 a03d e30a 2b3e
000003b0: fc42 93bd 4b52 cf3a 5b0c e5bd ee4d 09be
000003c0: b5d7 5e3d 9b5b bf3d d3a8 a8bc 0e58 3dbe
000003d0: ec1c 603d 92b3 433d 9b6c 34be 1396 0a3e
000003e0: 0581 093d d370 003e d0b8 dcbd a0b8 00be
000003f0: d6d9 0d3e 0d27 33bd 5d0f 393d af7f 3dbd

shared1.bias f4 [200]
-0.115263745 -0.2654161 -0.058670186 0.07263008 -0.15081783 -0.11556728 -0.08101763 0.15047319
0.09847254 -0.17168078 -0.024503514 -0.06116002 -0.26256365 -0.21580951 0.0943954 0.03703372
0.08748696 0.11739513 -0.16225232 0.17727187 -0.079035945 -0.27385247 -0.119145624 -0.11798322
-0.17936455 -0.2792371 -0.029779788 -0.16636574 0.08598255 -0.03592592 0.04328529 0.02806432
0.051628206 -0.07606919 -0.04525694 -0.09254737 0.2412732 0.13632445 -0.15677088 0.07164188
-0.17471077 -0.2044271 0.17754135 -0.08049305 0.0854925 0.13048232 -0.015874403 0.1502441
-0.22705065 0.17457461 -0.2900327 0.08581475 0.049024984 0.07528971 0.04448098 0.035610516
0.13841501 0.08640967 0.012230843 0.1369163 -0.21016961 0.09302186 -0.23170683 -0.10478398
-0.08827433 0.0054922034 -0.09740644 -0.14078073 -0.1437094 0.09038254 0.037266802 0.054361686
-0.06965453 -0.041938867 0.10403742 -0.06230223 -0.20368369 0.08762195 -0.1681725 0.13110636
-0.17532848 -0.15246327 0.038767394 -0.21944305 0.08511961 -0.116554245 -0.25507137 0.11752058
0.100074224 0.12376185 -0.031023577 -0.00085640384 0.110599786 -0.26252586 0.15842217 -0.27079633
-0.0587029 -0.15460388 -0.2063291 0.010788733 -0.05986289 0.17173198 -0.2031505 0.18081819
-0.11180141 -0.1469144 -0.19910812 -0.25577626 -0.15714034 0.10598261 -0.0650699 -0.19791545
-0.13203321 -0.04732023 -0.011485779 -0.2466457 -0.086778276 -0.1668753 -0.17280093 -0.043656763
0.058035325 -0.13464232 -0.22021922 0.12044869 -0.24783202 0.024680447 -0.017778937 -0.15668146
-0.18187332 -0.021686396 -0.054290265 -0.0396697 -0.082481496 0.13222204 -0.11818753 -0.15070978
0.052949756 0.110407725 0.0052421605 -0.023599189 -0.10946547 -0.066916265 -0.26237556 0.17993578
-0.047148794 0.013725496 0.13153403 0.052831583 0.13024157 0.003688363 -0.11584478 -0.058734342
-0.11725543 -0.11956725 -0.20357767 -0.21570688 -0.14190692 -0.037807453 -0.27665818 -0.10762106
-0.14845724 0.24396542 -0.11005649 0.005585565 -0.036253937 -0.29895473 0.112662554 0.0297866
-0.027268838 -0.077266715 -0.21418369 -0.027371539 -0.07227234 0.17159845 -0.25133854 -0.094565615
-0.013477567 0.2132062 0.14685197 -0.08031189 -0.22146629 0.1823908 -0.2548936 0.09221722
-0.14726071 -0.038015157 -0.20913611 -0.11062459 -0.01732686 -0.0005032568 0.029216714 -0.104778506
-0.01670381 0.067599796 0.0314789 -0.20634995 0.08090888 -0.2294719 -0.24931552 -0.22659975
00000000: 660f ecbd 9ee4 87be 2650 70bd 14bf 943d
00000010: fd6f 1abe 8aae ecbd 92ec a5bd a515 1a3e
00000020: f9ab c93d 16cd 2fbe 98bb c8bc ee82 7abd
00000030: be6e 86be 2bfd 5cbe 6052 c13d acb0 173d
00000040: 5d2c b33d dc6c f03d 7925 26be c286 353e
00000050: 99dd a1bd 6436 8cbe 9f02 f4bd 30a1 f1bd
00000060: 57ab 37be 2af8 8ebe bef4 f3bc c85b 2abe
00000070: 9f17 b03d 0f27 13bd eb4b 313d 25e7 e53c
00000080: 1978 533d 2aca 9bbd 575f 39bd 7a89 bdbd
00000090: 5210 773e a398 0b3e 8c88 20be fab8 923d
000000a0: 61e7 32be 5655 51be 66cd 353e 8ad9 a4bd
000000b0: b116 af3d 289d 053e 090b 82bc 97d9 193e
000000c0: f77f 68be b0c3 323e 2b7f 94be a5bf af3d
000000d0: 6cce 483d 7e31 9a3d b031 363d 55dc 113d
000000e0: aabc 0d3e 8ef7 b03d e063 483c c933 0c3e
000000f0: b436 57be 3f82 be3d 8e44 6dbe fc98 d6bd
00000100: 2cc9 b4bd f1f7 b33b 077d c7bd d328 10be
00000110: 8f28 13be 7b1a b93d 13a5 183d 5caa 5e3d
00000120: 09a7 8ebd 17c8 2bbd 9211 d53d a030 7fbd
00000130: 7592 50be 2373 b33d 6935 2cbe bf40 063e
00000140: 4f89 33be 551f 1cbe 8fca 1e3d aeb5 60be
00000150: 3153 ae3d feb3 eebd b798 82be a1ae f03d
00000160: b7f3 cc3d da76 fd3d 2825 febc 4a80 60ba
00000170: 2482 e23d ca69 86be 6c39 223e d1a5 8abe
00000180: 7472 70bd 7b50 1ebe f047 53be 3ac3 303c
00000190: ca32 75bd 82da 2f3e af06 50be 6728 393e
000001a0: 23f8 e4bd ba70 16be 00e3 4bbe 1bf5 82be
000001b0: 66e9 20be 690d d93d 5e43 85bd 59aa 4abe
000001c0: b733 07be dcd2 41bd d92e 3cbc b190 7cbe
000001d0: cfb8 b1bd 5ce1 2abe baf2 30be 6fd1 32bd
000001e0: 73b6 6d3d addf 09be 2681 61be cead f63d
000001f0: adc7 7dbe a62e ca3c 22a5 91bc 1b71 20be
00000200: 003d 3abe aba7 b1bc 785f 5ebd b27c 22bd
00000210: 0fec a8bd 3765 073e 4e0c f2bd aa53 1abe
00000220: d8e1 583d 721d e23d 6ec6 ab3b 1653 c1bc
00000230: 6f2f e0bd 650b 89bd 1756 86be 1641 383e
00000240: 181f 41bd e7e0 603c dbb0 063e ee65 583d
00000250: 0c5e 053e 76b8 713b 0740 edbd 6c93 70bd
00000260: 9d23 f0bd addf f4bd aa76 50be 44e2 5cbe
00000270: 0c50 11be fddb 1abd 24a6 8dbe 6e68 dcbd
00000280: 2d05 18be 12d2 793e 4c65 e1bd 1e07 b73b
00000290: 027f 14bd 9810 99be a0bb e63d 0703 f43c
000002a0: e662 dfbc 033e 9ebd f852 5bbe 473a e0bc
000002b0: 8503 94bd 81b7 2f3e 72af 80be 9eab c1bd
000002c0: 03d1 5cbc ba52 5a3e 5d60 163e 8f7a a4bd
000002d0: 0fc8 62be a7c4 3a3e 6a81 82be 62dc bc3d
000002e0: 83cb 16be c8b5 1bbd c727 56be 258f e2bd
000002f0: 0ff1 8dbc feec 03ba e457 ef3c 1d96 d6bd
00000300: 6ed6 88bc c371 8a3d 05f0 003d 674d 53be
00000310: 8eb3 a53d affa 6abe 914c 7fbe c409 68be

shared2.weight f4 [200, 200]
0.13789493 -0.061196197 0.08942491 -0.03315943 -0.074439116 -0.077615775 0.10030409 0.020746162
-0.094442405 -0.03986135 0.0031407794 -0.14191659 -0.049406316 0.029467301 0.07984501 -0.0051486352
-0.17762308 0.10201268 -0.051733743 -0.05049949 0.029339794 0.09574906 0.14337322 -0.017972246
-0.14964125 -0.0024632874 -0.07364594 -0.04503245 -0.0031740859 0.0015621036 0.016241418 0.018431792
0.15961662 -0.10987528 0.0455308 0.0021685027 0.112676434 -0.028238168 0.08298829 0.10989465
-0.021740634 0.026827106 0.023479456 -0.013074009 -0.10679588 0.012284842 0.079239756 0.024716003
0.09376065 0.0015617607 0.09408712 0.04858366 -0.08376773 0.10870194 0.059229594 0.05353147
-0.0063908403 0.08298808 0.007851501 0.06163933 -0.0020733285 -0.054552477 0.1163886 -0.093463406
0.04550126 0.06535321 -0.07145228 -0.100445546 -0.1630782 0.04090201 0.053737525 -0.055066258
-0.069386974 0.024711322 0.047294427 -0.07185166 -0.13429718 -0.16084968 -0.056880705 -0.029581802
-0.14059362 0.008312481 -0.10107057 0.10139103 -0.01433658 -0.059655372 0.07100808 -0.0033883438
0.0742262 0.033652857 -0.0054315724 0.025055205 0.089731656 -0.15695103 -0.019899927 -0.06057736
0.13134198 -0.042339202 0.008069163 -0.011609454 0.011457133 -0.06400211 -0.17961176 0.023832913
-0.028569968 0.014466168 0.06856473 0.013389513 -0.071199276 -0.06263704 0.10327122 0.13287452
0.009127368 -0.057206504 -0.0340163 0.02256609 -0.13216066 0.062331263 0.0069273068 -0.12752011
0.028964732 0.14727245 0.10366916 -0.03920596 0.14173926 -0.10228303 -0.076987654 0.015563835
-0.11182085 0.10620267 0.064014226 -0.12274397 -0.18936655 -0.11165414 -0.0761394 -0.0811175
-0.009555377 0.051636886 -0.06989655 -0.105343685 -0.06284125 -0.15745434 -0.038144298 -0.079607554
0.017214036 0.006671295 -0.009490729 -0.110599585 -0.0422923 -0.1045412 0.015972478 0.016897883
-0.13050644 -0.05986273 -0.06168865 0.08263518 -0.15815978 0.06961626 0.015513779 0.029417275
0.11764073 -0.07923024 0.09450308 -0.067209184 0.09503309 -0.013377258 0.07262595 0.030940797
0.04858101 0.0015626075 0.13257672 -0.08628021 -0.11322096 0.024303218 -0.12851633 -0.17206673
0.0031380164 -0.012268045 0.069382764 0.098169394 -0.10866067 -0.04527466 -0.035580307 -0.092836045
-0.14315397 0.06791339 0.09184263 0.13400364 -0.0034771832 -0.017874263 -0.08272573 0.11061701
-0.06782067 -0.11935626 -0.09801608 -0.021731064 -0.07895553 -0.0938985 0.056892835 -0.027238064
-0.018739833 0.134534 -0.0009274773 0.036539767 0.039115753 -0.09132689 0.012799844 -0.08930948
0.07515865 -0.07749877 -0.010086372 0.15010472 -0.05137597 -0.13808644 0.019597983 0.12105898
0.013906184 -0.04106292 0.10407472 0.025719924 0.025465278 -0.116532855 0.0625691 -0.012863469
-0.059833944 0.059996314 -0.014917526 -0.15765086 -0.026603939 -0.009203841 0.060130972 0.05489604
-0.14887856 -0.027295465 -0.0048824153 -0.045247067 0.12771426 -0.18300928 -0.11510104 0.044222593
0.1410803 -0.05252583 0.03756048 0.046779178 0.01736072 0.101552725 0.022191893 0.013702155
-0.0069669373 0.026598928 0.05607517 -0.021556932 -0.14278935 0.010780795 -0.04790808 0.1369538
00000000: 5434 0d3e dda8 7abd 6824 b73d 2fd2 07bd
00000010: 8973 98bd 05f5 9ebd 3b6c cd3d dbf3 a93c
00000020: 056b c1bd a845 23bd 89d5 4d3b 9552 11be
00000030: 475e 4abd 6965 f13c c885 a33d e2b5 a8bb
00000040: d3e2 35be 06ec d03d c3e6 53bd 8ed8 4ebd
00000050: 025a f03c 1518 c43d 6ed0 123e 883a 93bc
00000060: 8e3b 19be 1b6f 21bb afd3 96bd f273 38bd
00000070: 5304 50bb 80bf cc3a b90c 853c 45fe 963c
00000080: 8a72 233e 4a06 e1bd 817e 3a3d 701d 0e3b
00000090: e7c2 e63d bb53 e7bc c4f5 a93d 7210 e13d
000000a0: 6a19 b2bc 85c4 db3c fd57 c03c 5e34 56bc
000000b0: ccb7 dabd 5d46 493c 7448 a23d 3779 ca3c
000000c0: 9505 c03d feb3 cc3a bfb0 c03d a9ff 463d
000000d0: 6a8e abbd 1f9f de3d bb9a 723d d143 5b3d
000000e0: 416a d1bb a8f5 a93d 95a3 003c 8679 7c3d
000000f0: aee0 07bb 6b72 5fbd 255d ee3d be69 bfbd
00000100: 875f 3a3d e7d7 853d 9355 92bd 65b6 cdbd
00000110: f9fd 26be de88 273d e11b 5c3d 288d 61bd
00000120: c21a 8ebd 666f ca3c cdb7 413d f726 93bd
00000130: 3385 09be c7b5 24be befb 68bd 8955 f2bc
00000140: c6f7 0fbe 1331 083c 16fe cebd 1aa6 cf3d
00000150: fae3 6abc 3159 74bd af6c 913d fa0e 5ebb
00000160: e803 983d 94d7 093d 55fb b1bb 9340 cd3c
00000170: 3bc5 b73d c5b7 20be 2c05 a3bc f71f 78bd
00000180: 837e 063e df6b 2dbd 8634 043c 9435 3ebc
00000190: b3b6 3b3c 8a13 83bd 25ec 37be 3e3d c33c
000001a0: 910b eabc 8203 6d3c aa6b 8c3d b05f 5b3c
000001b0: edd0 91bd d947 80bd dd7f d33d 4210 083e
000001c0: f58a 153c 5e51 6abd ad54 0bbd 85dc b83c
000001d0: 2055 07be 114f 7f3d 76fe e23b a294 02be
000001e0: 7247 ed3c 97ce 163e 7f50 d43d 6e96 20bd
000001f0: 1924 113e c479 d1bd b4ab 9dbd 75ff 7e3c
00000200: 5402 e5bd c980 d93d e419 833d 3161 fbbd
00000210: 4ee9 41be edaa e4bd f9ee 9bbd ef20 a6bd
00000220: 288e 1cbc 3381 533d ec25 8fbd 6ebe d7bd
00000230: eab2 80bd b63b 21be 323d 1cbd 4909 a3bd
00000240: 7304 8d3c e19a da3b 017f 1bbc 0982 e2bd
00000250: b13a 2dbd b219 d6bd b7d8 823c 6e6d 8a3c
00000260: 7ba3 05be 9f32 75bd 3dad 7cbd a23c a93d
00000270: a3f4 21be f892 8e3d 812d 7e3c 7ffc f03c
00000280: a0ed f03d 7743 a2bd d58a c13d f8a4 89bd
00000290: b5a0 c23d 492c 5bbc eabc 943d 8e77 fd3c
000002a0: e2fc 463d 68d0 cc3a 31c2 073e aeb3 b0bd
000002b0: 64e0 e7bd 8b17 c73c c999 03be 4332 30be
000002c0: 2ea7 4d3b e9ff 48bc 8d18 8e3d 090d c93d
000002d0: 7c89 debd ec71 39bd a8bc 11bd d320 bebd
000002e0: f496 12be 2d16 8b3d fd17 bc3d 4038 093e
000002f0: 74e1 63bb 0c6d 92bc 1c6c a9bd 2c8b e23d
00000300: 90e5 8abd 0e71 f4bd a8bc c8bd 5805 b2bc
00000310: 70b3 a1bd db4d c0bd 7608 693d 5c22 dfbc
00000320: 4784 99bc 48c3 093e f321 73ba b9aa 153d
00000330: d737 203d 9809 bbbd 70b6 513c e3e7 b6bd
00000340: c7ec 993d adb7 9ebd 4f41 25bc 0db5 193e
00000350: 9c6f 52bd 8866 0dbe f38b a03c c5ed f73d
00000360: c3d6 633c 9831 28bd 2025 d53d 97b2 d23c
00000370: 8f9c d03c c7a8 eebd 3a24 803d 4dc1 52bc
00000380: 7014 75bd b2be 753d a468 74bc 3a6f 21be
00000390: 81f0 d9bc b5cb 16bc e54b 763d acda 603d
000003a0: 9f73 18be bd9a dfbc abfc 9fbb fd54 39bd
000003b0: 87c7 023e c966 3bbe 18ba ebbd c022 353d
000003c0: 5b77 103e 5325 57bd 05d9 193d 869b 3f3d
000003d0: 1238 8e3c e0fa cf3d c6cb b53c 017f 603c
000003e0: e84a e4bb ffe5 d93c 14af 653d 2a98 b0bc
000003f0: 5f37 12be eea1 303c 433b 44bd 9e3d 0c3e

shared2.bias f4 [200]
-0.09874518 0.023342406 0.030786064 -0.035783716 -0.029891979 -0.07728139 -0.040487334 0.103232205
-0.1275434 -0.0012139097 0.00416518 -0.091023155 -0.07934242 -0.003209845 0.036811814 0.0689846
0.0031650069 -0.049396187 0.0039030802 0.043560166 -0.0029616782 0.002326912 -0.037573367 -0.034766708
-0.0018845975 -0.116800524 -0.004646435 0.00012265249 -0.0022638543 -0.040637754 0.030349962 -0.0049515804
-0.014958002 0.0022622708 -0.0019103524 0.008478712 0.045253184 -0.01245665 -0.06234816 -0.068000145
0.050149146 -0.055214826 -0.046060044 -0.114722446 -0.084720865 -0.015585944 -0.071426116 -0.06866426
-0.02503767 -0.06364952 -0.056499712 -0.069205776 0.05559006 -0.0095267845 0.0045055733 0.0061072777
-0.07022922 0.0029748925 -0.06191493 0.05164421 -0.04509359 -0.023097964 -0.08678722 -0.06598724
0.09190304 0.011201091 -0.0307689 -0.108538345 -0.0131367715 0.06135181 0.009187038 -0.040041577
0.07170277 -0.027483784 -0.008115193 0.042469766 0.045890603 -0.05088471 -0.049487945 0.08267207
0.047055956 0.0370312 0.00868726 0.02474086 -0.056334544 0.018912138 -0.06968124 0.07275414
-0.037473507 -0.06440242 -0.054358855 -0.01707988 -0.100172006 -0.03873893 0.0071781785 0.030840868
0.02807385 0.0018322739 -0.009040223 -0.06676177 -0.029807126 -0.08842228 -0.078359015 -0.05513507
-0.02651656 -0.015236713 -0.15924762 0.046889223 -0.09470639 0.0057245507 0.015780443 -0.10810345
0.080011666 -0.006636146 0.06184274 -0.019304182 -0.03025015 -0.050791238 -0.043293554 -0.0019939297
-0.07262444 -0.015515983 0.020580335 -0.07175807 -0.010870529 -0.015230286 0.031843882 -0.07185308
0.00018423497 -0.056881245 0.031836856 -0.074999735 0.031828497 -0.0692933 -0.034605186 0.051098716
-0.0487858 -0.1201507 -0.13963506 0.028170804 -0.0808685 -0.088468075 -0.015041855 -0.07572161
-0.05481237 -0.022265716 -0.015850952 -0.03530248 -0.07561753 -0.0065878136 0.023308396 0.049247853
0.04130514 0.0012854168 0.035968337 -0.032678664 -0.04268045 -0.007830293 -0.070209004 0.025990125
-0.034763522 -0.021877278 0.01381971 -0.11178551 -0.04122153 -0.12754752 -0.029448058 0.05167028
0.005302601 0.021309128 0.017949805 -0.011449292 -0.07505704 -0.11771782 -0.023802754 -0.004384375
0.02417809 0.027177507 -0.008722914 -0.09849755 -0.058897726 -0.00067457376 -0.045021493 -0.07477387
0.04894406 -0.023614723 -0.03393866 0.060674567 0.049546752 0.037802935 0.0044486136 0.0019713663
-0.07229114 0.029790591 0.038624298 -0.064293765 -0.07624834 -0.032521345 0.0042537474 -0.0037490015
00000000: ea3a cabd 9338 bf3c 0e33 fc3c f291 12bd
00000010: 06e0 f4bc b545 9ebd 0cd6 25bd 686b d33d
00000020: bd9a 02be 0d1c 9fba 107c 883b 596a babd
00000030: 477e a2bd 435c 52bb fcc7 163d cc47 8d3d
00000040: 016c 4f3b a853 4abd d2ca 7f3b 256c 323d
00000050: b718 42bb 1b7f 183b 88e6 19bd 8967 0ebd
00000060: 9904 f7ba 1d35 efbd 1f41 98bb 479c 0039
00000070: 2c5d 14bb c673 26bd 7ca0 f83c de40 a2bb
00000080: 6812 75bc 9b42 143b ca64 faba 4cea 0a3c
00000090: 675b 393d fa16 4cbc c960 7fbd a943 8bbd
000000a0: 3169 4d3d f128 62bd 75a9 3cbd 9af3 eabd
000000b0: 2282 adbd 305c 7fbc db47 92bd d99f 8cbd
000000c0: cd1b cdbc ae5a 82bd 3e6c 67bd c2bb 8dbd
000000d0: 67b2 633d 3b16 1cbc 7da3 933b 8f1f c83b
000000e0: 56d4 8fbd 6af6 423b 829a 7dbd e188 533d
000000f0: 0eb4 38bd f137 bdbc 7fbd b1bd 5124 87bd
00000100: a937 bc3d c884 373c 0f0f fcbc 5a49 debd
00000110: 9d3b 57bc 094c 7b3d 3b85 163c a302 24bd
00000120: e7d8 923d ac25 e1bc 96f5 04bc c7f4 2d3d
00000130: c9f7 3b3d 7c6c 50bd dfb3 4abd f94f a93d
00000140: bfbd 403d 07ae 173d 0255 0e3c 58ad ca3c
00000150: 0dbf 66bd a1ed 9a3c 0ab5 8ebd 1f00 953d
00000160: d27d 19bd 6ae5 83bd 64a7 5ebd 1beb 8bbc
00000170: fb26 cdbd b6ac 1ebd ed36 eb3b fda5 fc3c
00000180: 21fb e53c e928 f03a 721d 14bc 65ba 88bd
00000190: 132e f4bc be16 b5bd b17a a0bd 50d5 61bd
000001a0: 4239 d9bc 68a3 79bc cf11 23be ea0e 403d
000001b0: 6cf5 c1bd 0395 bb3b fd45 813c 5765 ddbd
000001c0: 28dd a33d 0774 d9bb d04e 7d3d ce23 9ebc
000001d0: 2acf f7bc 790a 50bd 9554 31bd 97ac 02bb
000001e0: 1fbc 94bd c036 7ebc 1798 a83c e5f5 92bd
000001f0: 4e1a 32bc 7388 79bc bb6e 023d b527 93bd
00000200: 332f 4139 4ffc 68bd 5d67 023d 7699 99bd
00000210: 995e 023d a5e9 8dbd 2bbe 0dbd e34c 513d
00000220: 9ed3 47bd 9211 f6bd 7efc 0ebe 75c6 e63c
00000230: 629e a5bd c02e b5bd 1d72 76bc ee13 9bbd
00000240: f082 60bd 9766 b6bc dbd9 81bc 5599 10bd
00000250: 5ddd 9abd 96de d7bb 40f1 be3c 1eb8 493d
00000260: 942f 293d 6e7b a83a 8953 133d 10da 05bd
00000270: b2d1 2ebd a14a 00bc bdc9 8fbd 3ee9 d43c
00000280: 3264 0ebd fa37 b3bc 116c 623c cdef e4bd
00000290: e8d7 28bd d19b 02be 0e3d f1bc 37a4 533d
000002a0: 71c1 ad3b 7b90 ae3c 780b 933c d095 3bbc
000002b0: 81b7 99bd 0a16 f1bd fefd c2bc ceaa 8fbb
000002c0: 2111 c63c 5da3 de3c 8eea 0ebc 15b9 c9bd
000002d0: be3e 71bd e1d5 30ba 7568 38bd 0b23 99bd
000002e0: 9179 483d aa73 c1bc 4403 0bbd e585 783d
000002f0: 89f1 4a3d 40d7 1a3d adc5 913b 0a32 013b
00000300: 610d 94bd 660b f43c 8334 1e3d 73ac 83bd
00000310: 1728 9cbd 1a35 05bd 0563 8b3b cfb1 75bb

hidden1_Y1.weight f4 [200, 200]
0.068916805 -0.07427408 0.01112439 -0.11220521 0.0012252623 0.034526195 0.050413914 0.041561984
0.007964386 -0.046561006 0.061535988 -0.039545015 0.06860254 0.020688899 0.076637655 0.057809316
0.0891421 -0.0894086 -0.006647754 -0.038745027 0.12918502 -0.099068984 0.08309238 0.017218601
-0.057793193 0.04569482 0.10155982 -0.05121464 0.05468027 -0.06389657 0.051857997 -0.05606514
0.109382674 -0.04092233 -0.11055021 0.008686303 0.035519477 0.033475533 -0.08039109 0.06572552
0.06647469 0.056076758 -0.01672095 0.052987784 0.025851093 0.054602444 -0.011641675 -0.030778587
-0.03961849 0.05983254 -0.019463459 0.0346384 -0.08086302 0.091215104 -0.00625336 0.037666943
-0.038094696 -0.055421054 0.048909236 0.033414714 0.02007375 0.026602823 -0.06636238 0.044740714
-0.06729896 -0.0058421744 0.08258388 -0.120294 -0.0074270084 -0.007764787 -0.015417673 -0.0041615274
-0.032719992 0.024844624 0.06467514 -0.003929754 -0.004136449 0.02318008 0.06361662 -0.0038846717
-0.114651635 -0.0077142385 -0.074561335 -0.03708678 -0.023912163 -0.099802524 -0.073065504 0.016788261
0.0035071531 -0.11070262 0.03961587 -0.02068552 0.08334399 0.057122137 -0.03962711 0.0650444
-0.016848141 0.10154154 0.013418211 0.038801726 7.012848e-05 0.10822146 -0.10230586 -0.06282351
-0.009552832 0.11862651 0.111576565 0.072805494 -0.047935773 0.042262156 -0.0880506 0.08328193
0.04494047 -0.05464439 -0.036863104 0.05013284 0.05395905 -0.04800005 0.098319635 0.04839076
0.042545415 -0.041020434 -0.081402384 -0.053348526 0.08693991 -0.020579988 -0.10318417 -0.061670747
0.0933979 -0.018484943 -0.052383736 -0.093651354 -0.10426198 -0.0787375 0.09395219 -0.0031017505
-0.057422087 0.044173338 -0.05364121 -0.04781649 -0.08196828 -0.08710663 -0.046722297 0.07902504
0.038918305 -0.0020425792 0.08849935 0.027382884 -0.028766766 -0.102536224 -0.10082576 -0.0158743
-0.06830727 -0.009750031 0.114558235 -0.014418996 -0.0607806 -0.0079365 0.015009865 0.11850353
0.035714738 0.11100626 -0.054971255 -0.083683185 0.010224752 0.0053437203 -0.021095997 0.0007228289
0.08683946 0.026454873 0.11886027 -0.11416388 -0.055154786 -0.09350585 0.08053893 0.08180534
-0.061325166 0.050938584 -0.09443016 -0.049824838 0.14530806 -0.002214379 -0.057933923 0.120981246
-0.08632609 0.015154658 -0.004460911 -0.0019004771 0.12860076 0.12654379 -0.13287744 -0.061776258
0.07510305 0.03659234 -0.11776068 0.10670876 -0.030797468 0.12948199 0.07559644 -0.05621328
-0.106949456 -0.042842854 -0.11010603 0.10359344 -0.07216157 -0.11857462 0.0018206288 0.036845997
0.07325699 -0.09930924 0.12425607 -0.043089297 -0.027130442 0.057156704 -0.034391772 0.02006386
0.11395294 -0.1101449 0.061315037 0.020786686 -0.1261602 -0.06942874 0.094277024 0.10841505
0.028489808 0.07334253 0.06329151 0.06177571 0.13078047 0.035275817 0.098135464 0.06210081
0.10608855 0.102604434 -0.113515176 0.096493185 -0.048077106 -0.10069723 -0.0040874346 -0.07664097
-0.06904014 -0.11294005 0.04701478 0.09472945 -0.0003591727 0.029339505 -0.009755336 -0.05626857
-0.018266952 0.029156676 0.013448852 -0.05566759 -0.013319321 -0.0889381 -0.063966244 -0.073344596
00000000: 4124 8d3d 021d 98bd 1343 363c d8cb e5bd
00000010: fb98 a03a 576b 0d3d d27e 4e3d e63c 2a3d
00000020: 0e7d 023c c1b6 3ebd 290d 7c3d f4f9 21bd
00000030: 7d7f 8c3d c47b a93c 34f4 9c3d 76c9 6c3d
00000040: 2290 b63d db1b b7bd 67d5 d9bb 1bb3 1ebd
00000050: 1449 043e aee4 cabd 562c aa3d 060e 8d3c
00000060: 8eb8 6cbd 7e2a 3b3d 98fe cf3d 71c6 51bd
00000070: 6bf8 5f3d 34dc 82bd 0d69 543d 8fa4 65bd
00000080: 0604 e03d 2c9e 27bd 2668 e2bd ff50 0e3c
00000090: df7c 113d a41d 093d 15a4 a4bd 1a9b 863d
000000a0: e223 883d beb0 653d 60fa 88bc b809 593d
000000b0: acc5 d33c d0a6 5f3d b9bc 3ebc 6023 fcbc
000000c0: ff46 22bd f712 753d d571 9fbc ffe0 0d3d
000000d0: 839b a5bd fcce ba3d fce8 ccbb a748 1a3d
000000e0: 2f09 1cbd 3001 63bd 0d55 483d dedd 083d
000000f0: b471 a43c 2aee d93c 00e9 87bd 0a42 373d
00000100: 0ad4 89bd b66f bfbb bd21 a93d b35c f6bd
00000110: 435e f3bb c16f febb 689a 7cbc 6c5d 88bb
00000120: 6605 06bd f486 cb3c 6674 843d 2ac5 80bb
00000130: 0d8b 87bb 27e4 bd3c 6e49 823d fa95 7ebb
00000140: 7ace eabd b9c7 fcbb 9db3 98bd 4fe8 17bd
00000150: 71e3 c3bc 4465 ccbd 5ea3 95bd 8987 893c
00000160: 44d8 653b 0eb8 e2bd 4044 223d ae74 a9bc
00000170: 41b0 aa3d e7f8 693d 0950 22bd 0036 853d
00000180: 1d05 8abc 03f5 cf3d 0ed8 5b3c 8fee 1e3d
00000190: f111 9338 36a3 dd3d bc85 d1bd 9da9 80bd
000001a0: 7b83 1cbc 75f2 f23d 4182 e43d 0c1b 953d
000001b0: 4d58 44bd 151b 2d3d df53 b4bd b78f aa3d
000001c0: 8013 383d ccd2 5fbd c4fd 16bd 1858 4d3d
000001d0: 2a04 5d3d b39b 44bd ce5b c93d 6435 463d
000001e0: 1a44 2e3d 0b05 28bd 4bb6 a6bd fc83 5abd
000001f0: 8d0d b23d 5d97 a8bc 3952 d3bd 779a 7cbd
00000200: 6647 bf3d bc6d 97bc 5490 56bd 48cc bfbd
00000210: 4e87 d5bd 2041 a1bd 016a c03d bd46 4bbb
00000220: 6c33 6bbd 1aef 343d e3b6 5bbd 39db 43bd
00000230: fcde a7bd f664 b2bd e15f 3fbd e1d7 a13d
00000240: cd68 1f3d cbdc 05bb 263f b53d 1252 e03c
00000250: 48a8 ebbc 83fe d1bd bc7d cebd d20a 82bc
00000260: afe4 8bbd 98be 1fbc 829d ea3d a73d 6cbc
00000270: 14f5 78bd 1808 02bc f0eb 753c fbb1 f23d
00000280: 9e49 123d 4057 e33d 8a29 61bd 1762 abbd
00000290: b885 273c 601a af3b 83d1 acbc 3a7c 3d3a
000002a0: e3d8 b13d e4b7 d83c 036d f33d c1ce e9bd
000002b0: fce9 61bd ff7f bfbd 98f1 a43d 8f89 a73d
000002c0: 1930 7bbd faa4 503d 9a64 c1bd 2115 4cbd
000002d0: a3cb 143e 1d1f 11bb 1f4c 6dbd 04c5 f73d
000002e0: bccb b0bd 3e4b 783c d52c 92bb 6e19 f9ba
000002f0: ebaf 033e b294 013e 0611 08be 1a09 7dbd
00000300: a1cf 993d d9e1 153d 832c f1bd 1f8a da3d
00000310: f94a fcbc ed96 043e 4ed2 9a3d e53f 66bd
00000320: 5108 dbbd fd7b 2fbd 457f e1bd cc28 d43d
00000330: 72c9 93bd 40d7 f2bd 2aa2 ee3a d4eb 163d
00000340: c307 963d a562 cbbd f779 fe3d 677e 30bd
00000350: a940 debc 261d 6a3d 63de 0cbd f75c a43c
00000360: 2960 e93d a693 e1bd 7a25 7b3d d748 aa3c
00000370: 2430 01be a830 8ebd 5014 c13d b608 de3d
00000380: 7563 e93c 9c34 963d fb9e 813d 8708 7d3d
00000390: 51eb 053e 607d 103d 3ffb c83d 6b5d 7e3d
000003a0: f444 d93d 4622 d23d a57a e8bd 389e c53d
000003b0: 80ec 44bd 593a cebd e3ef 85bb f1f5 9cbd
000003c0: eb64 8dbd 1d4d e7bd 9292 403d 8401 c23d
000003d0: 584f bcb9 6759 f03c d8d4 1fbc df79 66bd
000003e0: 93a4 95bc fbd9 ee3c 9358 5c3c b303 64bd
000003f0: 4839 5abc 2e25 b6bd bc00 83bd b135 96bd

hidden1_Y1.bias f4 [200]
-0.04451323 -0.0016910987 0.06649948 0.025519244 0.026443448 0.031533264 0.023648867 -0.017786153
0.0638536 0.013335226 -0.0521702 0.014019441 -0.02378693 -0.022682462 -0.0022000698 0.06603325
0.03924367 0.0043559144 -0.0331657 -0.055874113 -0.033207055 0.025174268 0.052023724 -0.0069930307
-0.03900352 -0.026520558 -0.021897856 -0.03134678 -0.028025823 -0.060527585 -0.03364137 0.074923985
0.03701247 -0.01588723 -0.024227884 0.012719618 0.051616233 0.06689435 0.04259489 -0.07277981
0.02794135 0.00821982 -0.018432658 0.030269897 0.06557131 0.042239144 0.005502009 -0.05226082
-0.023996817 0.037921432 -0.00734067 0.026221644 0.04018548 -0.035393883 -0.034550276 0.05965346
-0.013225003 -0.057072263 0.047620855 -0.028751437 -0.058817357 0.055365622 0.02302856 -0.025186596
-0.038737323 -0.03381713 0.016602471 -0.0077222916 -0.052705422 0.02108092 0.07657557 0.04840558
-0.029939596 0.030620579 0.028573051 6.4134154e-05 -0.004454111 0.0074977074 0.05750725 -1.1405883e-05
-0.012887137 0.00932293 0.05661428 0.06257445 -0.022419624 -0.011094608 0.050219174 0.029399483
0.015182717 -0.05328335 -0.015411378 -0.056595422 0.046754748 0.0268543 -0.029886058 0.044301447
0.011641865 -0.021808395 -0.0063484195 0.025130212 0.065994404 0.06336078 -0.033553246 -0.027633494
-0.021685163 -0.047150705 -0.010507366 -0.023756793 -0.05306672 -0.024462152 0.002461357 -0.055110253
-0.04150346 -0.0048355535 0.0823307 -0.009200524 0.06679682 0.020444276 0.023811702 -0.028212855
0.04497368 -0.052416585 -0.021330114 0.008583376 0.010449542 0.049403965 0.011445578 -0.01274792
0.045536507 -0.068875305 0.01624758 -0.016989361 0.049513105 -0.032019764 -0.0045693032 -0.06335896
-0.007996671 0.05844813 0.050423924 0.03011522 -0.017500764 0.0038349153 0.051020183 -0.05136712
0.052536108 -0.02585816 -0.030903371 -0.0550167 -0.051525008 -0.036019955 0.06384275 0.012954823
0.017494237 -0.059695087 -0.057495322 -0.05286082 -0.046956412 -0.06133208 -0.061096076 -0.08129516
-0.05685615 -0.0010292018 0.07341482 -0.022264149 -0.06632729 -0.009024393 0.03785053 -0.03596385
-0.039529216 0.010077867 -0.044175208 0.05345301 0.069719285 0.016277816 -0.034908816 0.044801068
-0.05964059 -0.051255386 -0.045482807 0.051296264 -0.04496799 0.05819508 0.041550692 -0.054659344
0.0639363 -0.06525396 0.081314355 -0.03390397 0.04390936 0.008248635 -0.02427648 0.01916164
0.015432617 0.03464614 0.03945785 -0.040493812 -0.041284908 -0.056684397 -0.0003611176 0.05652203
00000000: 8153 36bd dba7 ddba e130 883d bc0d d13c
00000010: ee9f d83c 0629 013d 45bb c13c 44b4 91bc
00000020: adc5 823d fe7b 5a3c 6bb0 55bd ccb1 653c
00000030: cfdc c2bc 92d0 b9bc 0c2f 10bb 713c 873d
00000040: f8bd 203d 0fbc 8e3b c2d8 07bd 41dc 64bd
00000050: 1f04 08bd 443a ce3c d416 553d cb25 e5bb
00000060: 28c2 1fbd a441 d9bc 2263 b3bc 7b65 00bd
00000070: 6996 e5bc c6eb 77bd 88cb 09bd bf71 993d
00000080: 639a 173d f025 82bc 8e79 c6bc f265 503c
00000090: 8b6b 533d e8ff 883d fb77 2e3d 950d 95bd
000000a0: 42e5 e43c 6dac 063c 1600 97bc 93f8 f73c
000000b0: 404a 863d f402 2d3d 324a b43b 710f 56bd
000000c0: f994 c4bc 8153 1b3d 018a f0bb c6ce d63c
000000d0: 8899 243d 2df9 10bd 9784 0dbd 3057 743d
000000e0: afad 58bc 9bc4 69bd 160e 433d 2288 ebbc
000000f0: 78ea 70bd 10c7 623d 64a6 bc3c 1f54 cebc
00000100: 07ab 1ebd d583 0abd e801 883c 470b fdbb
00000110: a4e1 57bd e5b1 ac3c a7d3 9c3d ee44 463d
00000120: e243 f5bc 02d8 fa3c 0812 ea3c c37f 8638
00000130: cbf3 91bb 54af f53b b98c 6b3d e55b 3fb7
00000140: 9224 53bc 34bf 183c 60e4 673d 0927 803d
00000150: 5ca9 b7bc 29c6 35bc 9fb2 4d3d 2fd7 f03c
00000160: eec0 783c a43f 5abd 0180 7cbc 9ad0 67bd
00000170: e881 3f3d 8dfd db3c 9bd3 f4bc 6f75 353d
00000180: 85bd 3e3c 85a7 b2bc 6706 d0bb e0dd cd3c
00000190: 1328 873d 4cc3 813d 216f 09bd a35f e2bc
000001a0: 15a5 b1bc 1921 41bd 1627 2cbc 9b9d c2bc
000001b0: 7d5c 59bd da64 c8bc b84e 213b 4abb 61bd
000001c0: 88ff 29bd 9073 9ebb ff9c a83d cbbd 16bc
000001d0: c5cc 883d c17a a73c c210 c33c a51e e7bc
000001e0: 5236 383d c6b2 56bd 7ebc aebc 4aa1 0c3c
000001f0: 8e34 2b3c d05b 4a3d 3c86 3b3c a7dc 50bc
00000200: 7d84 3a3d 7f0e 8dbd a519 853c 462d 8bbc
00000210: 41ce 4a3d 2827 03bd 18ba 95bb 58c2 81bd
00000220: 7804 03bc 4e67 6f3d 5189 4e3d 32b4 f63c
00000230: c35d 8fbc 3453 7b3b 8afa 503d 5466 52bd
00000240: 1a30 573d 7ed4 d3bc 1129 fdbc 3159 61bd
00000250: e30b 53bd a989 13bd fdbf 823d 7740 543c
00000260: 1350 8f3c d682 74bd 3780 6bbd 9684 58bd
00000270: 5e55 40bd 5937 7bbd e13f 7abd 147e a6bd
00000280: ffe1 68bd 48e6 86ba 825a 963d 4e63 b6bc
00000290: 9ad6 87bd 0cdb 13bc 2809 1b3d d44e 13bd
000002a0: 63e9 21bd a31d 253c 10f1 34bd 8bf1 5a3d
000002b0: fcc8 8e3d 0e59 853c 8cfc 0ebd 5381 373d
000002c0: b149 74bd 2bf1 51bd 2e4c 3abd 081c 523d
000002d0: 5b30 38bd f75d 6e3d 0f31 2a3d 7ae2 5fbd
000002e0: 09f1 823d dea3 85bd 2488 a63d e4de 0abd
000002f0: 4dda 333d 4825 073c 78df c6bc dff8 9c3c
00000300: 16d9 7c3c 1ce9 0d3d 8e9e 213d d7dc 25bd
00000310: 5d1a 29bd e62d 68bd 6254 bdb9 a583 673d

hidden2_Y1.weight f4 [200, 200]
0.07414643 0.04358259 -0.0021716815 0.081857294 0.082929246 -0.017865878 -0.06874335 0.00090885453
-0.0054196985 0.09549106 -0.042843692 0.008552126 -0.036412437 -0.1260407 0.022652887 -0.005843358
-0.0027954886 0.14276884 -0.054334775 0.07203699 -0.01845679 -0.11887946 -0.02404308 0.04598055
0.10036406 0.0012018473 -0.047738507 -0.011625527 0.07268046 0.07283348 -0.10857564 0.14944938
0.04753932 0.076229535 0.008647956 0.09014847 0.0067851725 0.12920672 -0.038219787 -0.10370213
-0.023266135 0.12950364 -0.04422043 -0.06946365 0.017125156 -0.0070024203 -0.0409866 0.04887411
-0.002372966 0.0979426 -0.01784939 0.13372515 -0.06833266 0.009408336 -0.067781694 -0.019339824
-0.119865134 -0.025580656 -0.12488498 0.03794259 0.035996728 0.06557671 -0.056288846 -0.063723505
0.058683105 0.02153175 0.049351715 0.05615717 0.10130466 -0.09905808 -0.046512645 0.03415339
-0.03931213 0.09744128 -0.07635453 -0.091872856 0.04208197 0.05324072 0.06642911 -0.014992635
0.06678353 -0.015435747 -0.04979883 0.04143278 0.048176665 0.112954326 0.021420715 -0.10630758
0.032119054 0.113373 0.05540312 -0.092309214 -0.098677516 -0.10956451 0.01926449 0.075211786
0.116411775 0.017092632 -0.037607178 0.114624135 0.009623118 0.043879095 0.051644832 0.1062843
0.11055487 0.07195321 0.05331838 0.0978775 0.051072042 -0.0441957 0.08751444 -0.016337516
0.015573702 0.0061450764 0.038146403 0.0045789164 -0.017779758 0.047457132 -0.06655318 0.041408055
0.036233716 -0.046555392 0.1228847 -0.044942502 0.006151243 0.063979484 0.05118985 0.11592643
-0.049884617 -0.030404544 -0.07796826 0.023860734 -0.07429786 0.064209916 -0.008993747 -0.06473981
0.06198346 0.03668046 0.05655531 -0.022281379 -0.09896437 -0.06638443 -0.08711259 0.08296881
0.11796683 0.11864155 0.055546734 -0.008663182 -0.08961577 -0.03283309 -0.0020936385 -0.057314027
-0.068545036 -0.0878972 -0.016999738 -0.08906352 -0.011442948 -0.041656516 -0.0032047476 -0.07101864
0.11482305 0.099291615 -0.007401634 0.06811771 -0.034082178 -0.021385938 0.07047451 -0.056978676
-0.07698918 -0.10438713 0.056504875 -0.065123215 -0.09961093 -0.0349519 0.07683943 0.091837175
-0.10979697 -0.06609299 0.046031978 0.041501846 0.13726597 0.027674321 -0.06773331 -0.0884698
-0.071658984 0.08534552 -0.0032846 -0.00268736 0.010445348 0.12513961 0.02875779 -0.08571699
-0.10858154 0.023517037 0.14050466 -0.0069161663 0.020862944 -0.10727134 -0.08360532 0.09160943
-0.09402832 0.0062103993 -0.06942679 0.105902314 -0.09177047 -0.025637569 0.023455108 -0.032372303
-0.088118464 -0.06665278 0.04951081 -0.0009355675 -0.04347254 0.06394875 0.065384455 0.09299658
-0.03949363 0.12355654 -0.106085114 0.015915737 -0.031333663 0.095811926 -0.013413283 -0.08936874
0.112884335 -0.102878176 0.019359985 0.006845604 -0.05582989 -0.0073173046 -0.030034862 0.06546312
-0.08292026 0.07584581 -0.079948545 -0.09020642 -0.06559756 -0.0043426757 0.07038942 0.010184846
-0.07537921 0.0009953397 0.057107393 0.041434832 0.05416346 0.06198552 0.024892978 -0.10877894
0.01733108 -0.07553865 0.063658796 -0.008545116 0.06108255 -0.06832806 0.10950607 0.05710734
00000000: 15da 973d a883 323d c552 0ebb cca4 a73d
00000010: cfd6 a93d 765b 92bc 50c9 8cbd 3240 6e3a
00000020: ba97 b1bb d190 c33d de7c 2fbd 371e 0c3c
00000030: 3525 15bd d010 01be 8c92 b93c a479 bfbb
00000040: 8434 37bb ff31 123e 248e 5ebd 2188 933d
00000050: b232 97bc 1377 f3bd fef5 c4bc 1a56 3c3d
00000060: ac8b cd3d 4e87 9d3a 7489 43bd ff78 3ebc
00000070: 7ed9 943d b829 953d e85c debd 4209 193e
00000080: 97b8 423d 3b1e 9c3d 28b0 0d3c c39f b83d
00000090: 2756 de3b c44e 043e 5a8c 1cbd c861 d4bd
000000a0: 9f98 bebc 9a9c 043e 7b20 35bd f542 8ebd
000000b0: 0e4a 8c3c 8f74 e5bb 91e1 27bd 3830 483d
000000c0: c383 1bbb 2196 c83d e238 92bc 3fef 083e
000000d0: fef1 8bbd 6c25 1a3c 21d1 8abd 8d6e 9ebc
000000e0: da7b f5bd 868e d1bc b2c3 ffbd b069 1b3d
000000f0: 4e71 133d 154d 863d 228f 66bd 7881 82bd
00000100: b25d 703d 5a63 b03c 0625 4a3d 1005 663d
00000110: d178 cf3d f6de cabd 0b84 3ebd 6de4 0b3d
00000120: c205 21bd 4b8f c73d c45f 9cbd d627 bcbd
00000130: 255e 2c3d f112 5a3d fc0b 883d aba3 75bc
00000140: cec5 883d 37e6 7cbc dcf9 4bbd 6bb5 293d
00000150: e554 453d 9954 e73d 7f7a af3c cab7 d9bd
00000160: 458f 033d 1a30 e83d 62ee 623d 9d0c bdbd
00000170: 7017 cabd 5c63 e0bd 90d0 9d3c a308 9a3d
00000180: 4c69 ee3d d905 8c3c fc09 1abd 0fc0 ea3d
00000190: 48aa 1d3c 91ba 333d 8889 533d 95ab d93d
000001a0: 976a e23d 345c 933d 6064 5a3d 0074 c83d
000001b0: eb30 513d 8d06 35bd c53a b33d 41d6 85bc
000001c0: d728 7f3c a35c c93b 673f 1c3d bc0a 963b
000001d0: dba6 91bc 6962 423d 094d 88bd 7e9b 293d
000001e0: ce69 143d deb0 3ebd f9aa fb3d a115 38bd
000001f0: 5e90 c93b ad07 833d 73ac 513d d66a ed3d
00000200: d053 4cbd f312 f9bc d3ad 9fbd 9677 c33c
00000210: 7a29 98bd 7d80 833d 825a 13bc 4e96 84bd
00000220: 5ee2 7d3d 403e 163d 8aa6 673d 7087 b6bc
00000230: d5ad cabd 8ff4 87bd 1668 b2bd 8deb a93d
00000240: 9898 f13d 57fa f23d f984 633d 05f0 0dbc
00000250: 7988 b7bd fd7b 06bd 6d35 09bb 1dc2 6abd
00000260: 5761 8cbd 7203 b4bd 0943 8bbc ef66 b6bd
00000270: 347b 3bbc 06a0 2abd be06 52bb 3972 91bd
00000280: 5928 eb3d 6759 cb3d 6889 f2bb 4c81 8b3d
00000290: c199 0bbd 9031 afbc f154 903d 7962 69bd
000002a0: 81ac 9dbd ebc8 d5bd a871 673d 525f 85bd
000002b0: d100 ccbd b929 0fbd fe5d 9d3d 2115 bc3d
000002c0: 3cdd e0bd c35b 87bd 078c 3c3d d7fd 293d
000002d0: 738f 0c3e 42b5 e23c c3b7 8abd a82f b5bd
000002e0: f2c1 92bd a2c9 ae3d 7242 57bb 6b1e 30bb
000002f0: f722 2b3c 9924 003e 7595 eb3c 648c afbd
00000300: 0060 debd cda6 c03c 74e0 0f3e 02a1 e2bb
00000310: c4e8 aa3c 14b1 dbbd 4439 abbd ba9d bb3d
00000320: eb91 c0bd 9b80 cb3b a22f 8ebd 50e3 d83d
00000330: 28f2 bbbd e105 d2bc ed24 c03c d298 04bd
00000340: 7477 b4bd 4181 88bd d9cb 4a3d df40 75ba
00000350: 4310 32bd 90f7 823d 49e8 853d fe74 be3d
00000360: 13c4 21bd 360b fd3d 2743 d9bd b861 823c
00000370: ba57 00bd 0b39 c43d 63c3 5bbc f506 b7bd
00000380: e72f e73d cbb1 d2bd d598 9e3c 1751 e03b
00000390: e2ad 64bd 00c6 efbb ac0b f6bc 8711 863d
000003a0: 19d2 a9bd 0c55 9b3d 10bc a3bd 25be b8bd
000003b0: 0358 86bd 014d 8ebb 5428 903d 57de 263c
000003c0: 6a60 9abd 0f76 823a 71e9 693d 92b7 293d
000003d0: 81da 5d3d 87e4 7d3d 5cec cb3c 7ec7 debd
000003e0: e9f9 8d3c 02b4 9abd 8b5f 823d d000 0cbc
000003f0: b231 7a3d 95ef 8bbd b844 e03d 63e9 693d

hidden2_Y1.bias f4 [200]
0.057802003 0.06723952 -0.027830306 0.011354568 0.08070746 0.051150683 -0.078003764 0.050313715
-0.03220998 -0.041745555 -0.06633704 0.061097436 -0.07194644 -0.049203597 -0.016823135 0.02871962
0.008356347 -0.0196683 0.055989873 -0.04226016 0.08734378 -0.06686613 -0.048331864 -0.033942666
0.065984085 0.007893091 0.042762946 -0.05068708 0.06535249 -0.059543904 0.006694528 -0.00033865427
0.008704987 0.028109284 -0.042810615 0.025565337 0.021961283 -0.04742033 0.020360615 0.031175733
-0.0075708106 -0.011902034 0.034292724 -0.01751866 -0.06176867 -0.009894652 0.01940282 0.016463174
0.070331015 0.067935236 0.013605057 0.036213953 -0.034023937 0.04707719 0.03782795 -0.0643483
-0.03130478 -0.011187035 -0.06581937 -0.057170983 -0.05045495 -0.009957265 0.06170127 -0.009875127
0.069086745 -0.038626336 -0.019447638 0.005788452 0.012300409 0.0050808084 -0.04137113 0.03622305
-0.0207532 -0.02658695 0.016405502 -0.068363294 0.011529092 -0.010276472 -0.04156615 0.02791812
0.04432617 -0.0060650227 -0.0048757666 0.044210456 0.030485913 -0.01848925 0.058934145 -0.058783673
-0.042745914 -0.05559044 -0.038875595 0.06662273 0.044142142 0.07239642 0.023681013 -0.012913108
0.046287082 -0.038901716 -0.04485258 0.026155477 -0.0047171214 -0.028985562 -0.011908921 0.04885308
0.02584812 0.0061841016 0.04068828 0.076836765 -0.0034666986 0.06576941 0.020786425 -0.029326241
0.021649087 -0.060368005 -0.06794346 -0.01692783 0.06572158 -0.0449327 -0.026789788 0.01408217
-0.032271847 0.05872078 -0.02483725 0.0657801 0.01498798 0.07749132 -0.0454757 0.05823342
0.002983035 0.023823917 -0.050787 0.02947524 0.049913347 -0.05149034 0.005963917 -0.018507896
0.043355834 0.03552536 -0.024773376 -0.056456048 0.0051355055 -0.05165711 -0.011006374 -0.05582449
-0.033916797 0.008168136 0.010224342 -0.06580173 0.048066482 0.036118753 -0.077255026 -0.022774607
-0.044680357 0.0069020344 -0.039155345 -0.06338575 0.043672435 -0.070128985 -0.019429894 -0.0410247
0.07114602 -0.015755344 -0.02640892 -0.059085242 0.03663791 0.030040791 -0.032385655 -0.0061619636
0.0641804 -0.01005925 0.013649547 -0.0042553106 -0.029872136 -0.052429277 -0.020620575 0.05860831
0.005312062 0.013147438 -0.027832363 -0.047082484 0.031040045 -0.08369345 -0.052433454 -0.011755671
0.040095426 -0.061971515 0.011692373 -0.07039573 0.00849712 0.03424487 0.045847766 -0.015623907
-0.039767504 -0.01814169 -0.030249508 0.00017913067 0.03836196 0.007706349 0.01535463 -0.006792384
00000000: cbc1 6c3d e0b4 893d 62fc e3bc 8308 3a3c
00000010: f449 a53d 6183 513d 70c0 9fbd c115 4e3d
00000020: 9dee 03bd 63fd 2abd b7db 87bd 4e41 7a3d
00000030: a858 93bd b689 49bd acd0 89bc 6945 eb3c
00000040: 0fe9 083c 6a1f a1bc a355 653d fd18 2dbd
00000050: 4ce1 b23d 1cf1 88bd a2f7 45bd 7707 0bbd
00000060: aa22 873d 0652 013c 3328 2f3d 419d 4fbd
00000070: 87d7 853d 4fe4 73bd c55d db3b 688d b1b9
00000080: 5d9f 0e3c 7145 e63c 2f5a 2fbd 666e d13c
00000090: 26e8 b33c d23b 42bd 4ecb a63c 4064 ff3c
000000a0: 9014 f8bb c000 43bc 8776 0c3d 4b83 8fbc
000000b0: 2501 7dbd 2e1d 22bc aaf2 9e3c c7dd 863c
000000c0: b509 903d a121 8b3d bfe7 5e3c 1555 143d
000000d0: af5c 0bbd 03d4 403d 7bf1 1a3d 0bc9 83bd
000000e0: 7139 00bd d349 37bc 4ecc 86bd 1f2c 6abd
000000f0: daa9 4ebd cc23 23bc 79ba 7c3d 49cb 21bc
00000100: 5a7d 8d3d a636 1ebd a750 9fbc 0ead bd3b
00000110: a887 493c e97c a63b c674 29bd 9f5e 143d
00000120: 9d02 aabc e0cc d9bc d564 863c 0e02 8cbd
00000130: 84e4 3c3c a65e 28bc 4441 2abd 8bb4 e43c
00000140: 5c8f 353d 19bd c6bb e5c4 9fbb 0616 353d
00000150: 98bd f93c c576 97bc ee64 713d 26c7 70bd
00000160: 5716 2fbd cdb2 63bd 043c 1fbd 7f71 883d
00000170: 64ce 343d 9344 943d affe c13c 8091 53bc
00000180: 8697 3d3d 6857 1fbd 57b7 37bd 0344 d63c
00000190: 1592 9abb 2173 edbc a31d 43bc 2b1a 483d
000001a0: 70bf d33c 01a4 ca3b c1a8 263d 985c 9d3d
000001b0: 8d31 63bb 1db2 863d 4b48 aa3c 963d f0bc
000001c0: 6d59 b13c 7144 77bd f125 8bbd 3cac 8abc
000001d0: 0999 863d 5a0b 38bd 4276 dbbc e7b8 663c
000001e0: 7c2f 04bd 3385 703d 7d77 cbbc b8b7 863d
000001f0: 2590 753c c5b3 9e3d ba44 3abd 2b86 6e3d
00000200: 067f 433b 602a c33c 0806 50bd 0f76 f13c
00000210: f071 4c3d 89e7 52bd f66c c33b df9d 97bc
00000220: e395 313d 0a83 113d 89f1 cabc 753e 67bd
00000230: be47 a83b 6896 53bd 1454 34bc 38a8 64bd
00000240: 57ec 0abd a5d3 053c 0084 273c 0fc3 86bd
00000250: 5ce1 443d 42f1 133d e237 9ebd d091 babc
00000260: c002 37bd 762a e23b 5b61 20bd 63d0 81bd
00000270: dee1 323d c99f 8fbd 712b 9fbc 8409 28bd
00000280: 01b5 913d 5a11 81bc 8557 d8bc 5e03 72bd
00000290: a211 163d 1b18 f63c d2a6 04bd 4cea c9bb
000002a0: 0371 833d 8dcf 24bc 59a2 5f3c 2270 8bbb
000002b0: 69b6 f4bc 15c0 56bd 7bec a8bc 440f 703d
000002c0: ce10 ae3b 5a68 573c b200 e4bc 90d9 40bd
000002d0: b147 fe3c 7967 abbd 76c4 56bd dc9a 40bc
000002e0: 1a3b 243d d8d5 7dbd 5e91 3f3c a32b 90bd
000002f0: 8137 0b3c 5944 0c3d deca 3b3d 6afb 7fbc
00000300: 40e3 22bd e29d 94bc d1cd f7bc 06d5 3b39
00000310: 6e21 1d3d 8a85 fc3b fc91 7b3c a692 debb
