Results/Models/LR_DCN_model_iter_id_5_epoch_100_lr_0.0001.pth (torch, 828130 bytes, 16 tensors)

shared1.weight f4 [200, 17]
00000000: ede6 083d 410b 143e 5d78 253d 4dc1 18bd
00000010: 65c4 d13c 1bbf c33d 1504 0f3e cf3c 79bd
00000020: e2db a53d a7e5 15be 0554 df3d 9f09 053c
00000030: 39a4 09bd 8660 0bbe 3854 c63c 108e e8bd
00000040: 5b25 10be b015 e2bb 92f7 d13d 4491 7b3e
00000050: c076 8e3e 8bb4 b33d 4f62 efbd ce33 0f3e
00000060: b0bd ff3c aaa9 9cbc dbfb 1dbd e7e5 3fbd
00000070: cd89 0ebe 0b1e ed3c fa0b 363d b873 213d
00000080: b537 3abd 9a92 c83c 2e3f 2dbd 4a3e 083e
00000090: 7887 35bc 5ee1 82be 203b 54bc 295e 4dbd
000000a0: 1491 b6bd f228 cc3b 1117 c7bd cd6d bf3d
000000b0: 6bc1 7d3d 6a8c 71bb dbba 11be 2456 133e
000000c0: a2e9 79bd 519a 11be b8a9 17be 3e92 db3d
000000d0: f23d 39bd f668 3cbd 73e2 fa3d 10ec 3fbd
000000e0: b859 123e e394 d8bd 8c25 14be d37d 723c
000000f0: 1d3e 90bd 5f30 043e 4232 e03d e665 363e
00000100: 3412 4fbe ebc8 a13d 27cb 273c 4183 5cbe
00000110: 1029 0cbe 0d18 9b39 6897 6f3e d17b b1bd
00000120: 053b 76ba ae98 e53b c188 ad3d 20ff 25bd
00000130: 94a6 bfbb fc96 123e 4167 07be 6813 973c
00000140: 4ac4 48bc ee0a 3bbd bf2c 983d b87e 113e
00000150: 2257 b13d b3bd 773c 398f da3d 38b2 4d3d
00000160: fd5a 993d 09ef 913d b902 8e3d 86b3 92bd
00000170: 2863 193d c35d d7bd dfc2 8d3c a6d1 043e
00000180: 2fd6 a13d 31aa 133e a717 a2bd a73a 0bbe
00000190: d878 c4bd 23a7 4abd 76ba 213e 682a 71bc
000001a0: 2ff6 a1bd e4d4 ae3d d879 dbbd 9d74 c3bd
000001b0: 6f86 4cbd 9b0f 0dbe baec 74bd fb4d 333e
000001c0: f42b c2bc 02ed 863d a1d0 82bd 87ff 9c3d
000001d0: 07bd 1abe b92d 73bb c45f 143e a82d 063e
000001e0: 92c6 9ebd 1644 793d 834b 693d 346f 51be
000001f0: 7fb3 3b3e 4cd8 fe3c ad04 473d e1e3 01be
00000200: 3a8b ae3d 7ef0 623e b542 c3bd dffc 763d
00000210: 3bc7 373d db29 d03d d23c 053d 4c82 523d
00000220: 0b0a a1bd 3e55 05be bff6 2f3e ae94 2d3e
00000230: 08f9 9b3d 720b 20be 0ad9 11be 732c 173e
00000240: 4ddd 163d 0718 633d 354c 003e 5e8e 87bd
00000250: 5c27 73bc 93a4 20be f212 95be 20b6 223c
00000260: 13a7 60bd 81ee 5fbd 587d aa3c ec5a 05bd
00000270: 8d16 aa3d f4ab 13bd b7a2 26be 3d1a 163e
00000280: aaf9 643d f841 253e dd64 63bd 3d58 94bc
00000290: b707 2bbc 3a7b ccbd afb4 883d 232d 923d
000002a0: b8cf ffbd cb14 dabd 70c0 b93d 180e 263e
000002b0: 70f4 3b3d 31ff 4abd 0254 bf3b 8c89 cabd
000002c0: dd9b 02be 2087 673b 71a8 843d 2981 643d
000002d0: 37e5 5cbd 7af2 ff3d 87ef 55bd 9923 443d
000002e0: 6691 04bd 2344 c63c cb33 5c3e 473d 8fbd
000002f0: 0ae7 30bc 2eaa f63c d080 d9bd 8c32 94bd
00000300: f78b 7d3d 4ee1 473e 58a7 34be 4127 d43d
00000310: 83ab e0bd 2598 9ebd 7352 c6bd 7dd9 643b
00000320: fa52 debd fe84 b03d 840c efbd 813f 40bd
00000330: 7e0a 55bc 4577 11be 5f8a af3d 5f52 cf3d
00000340: 820b bebc d9b9 e9bd bceb 95bd 1bcd 383d
00000350: d463 073e be0f 67bd d8c5 113e 18ed 0c3d
00000360: ea21 8b3d c8a0 c0bd 8510 38be e7ca a53d
00000370: 25c9 693d eca6 93bd 2b0c 423d 4309 043a
00000380: 9658 223c cfe3 66bd 873f 19be 31d3 32be
00000390: 9417 fdbd 43c2 133e 9f89 20bd 169c 93bd
000003a0: c904 91bd c2c7 3c3d e793 9a3c a894 7dbd
000003b0: e47c e5bd 0a5a b33d 0b22 393d 5389 b93d
000003c0: d37f 3a3e a4d9 1b3e bb27 103e 1a38 10be
000003d0: f7a7 01bc 33c4 e73d 9052 f9bc 7380 2b3d
000003e0: 4ec5 c5bd 8d64 d2bd f44b 05be d7f8 c2bd
000003f0: 80f5 9ebd bf5f 723d d413 d0bb efc4 3abd
0.033423353 0.14457418 0.04039799 -0.03729372 0.025606344 0.09557935 0.13966401 -0.060849007
0.0809858 -0.14638387 0.10904697 0.00811997 -0.03360388 -0.1361104 0.02421008 -0.11355221
-0.1407675 -0.006899558 0.102522984 0.24567133 0.27824974 0.0877467 -0.11688673 0.13984606
0.03121838 -0.01912387 -0.038570266 -0.04685011 -0.13919754 0.02894499 0.044445015 0.039417
-0.045463283 0.024483968 -0.04229658 0.13305011 -0.011079662 -0.25562567 -0.01295355 -0.050138626
-0.0891439 0.006230467 -0.097211964 0.09347115 0.061952036 -0.0036857375 -0.14231436 0.14388329
-0.061013825 -0.14219023 -0.14810836 0.10721253 -0.04522509 -0.045998536 0.12250223 -0.046855986
0.14292037 -0.10575273 -0.14467448 0.014800507 -0.07043097 0.12909077 0.10947086 0.17812309
-0.20221788 0.0789965 0.010241306 -0.21534444 -0.13687539 0.00029581823 0.233976 -0.08666194
-0.000939295 0.007006726 0.08473349 -0.04052651 -0.005848715 0.14315408 -0.13222982 0.01844187
-0.01225383 -0.04566472 0.0743041 0.14208496 0.086591974 0.015120911 0.10671849 0.05021879
0.07488058 0.071256705 0.06934113 -0.07163148 0.03744808 -0.105159305 0.017304836 0.129706
0.079021804 0.14420392 -0.079146676 -0.13596593 -0.095933616 -0.0494758 0.15793785 -0.014719583
-0.07908284 0.085366994 -0.10716599 -0.095437266 -0.049932893 -0.13775484 -0.059796073 0.17510216
-0.0237026 0.065881744 -0.06387449 0.076659255 -0.1511117 -0.003710611 0.14489657 0.13103354
-0.07752718 0.060855947 0.05695678 -0.20452577 0.18330191 0.031108998 0.048588444 -0.12684585
0.08522649 0.22162053 -0.09534208 0.06029975 0.044867735 0.10164233 0.032528706 0.051393792
-0.07863244 -0.13020799 0.1718397 0.16951248 0.07615858 -0.15629366 -0.1424295 0.1476305
0.036832143 0.055442836 0.1252907 -0.06618951 -0.014840927 -0.1568778 -0.29116017 0.009931117
-0.054846834 -0.054670814 0.020811722 -0.032557413 0.083050825 -0.03605266 -0.16273008 0.14658447
0.05590216 0.16138446 -0.055516113 -0.018108482 -0.010438851 -0.09984441 0.06675088 0.071375154
-0.12490791 -0.10648497 0.09069908 0.16216314 0.04588741 -0.049559776 0.005838872 -0.09889516
-0.1275477 0.0035328344 0.0647744 0.05578724 -0.053929534 0.124974206 -0.052230384 0.04788551
-0.032365225 0.024202412 0.21504132 -0.069941096 -0.0107972715 0.030110445 -0.10620272 -0.072362036
0.06190106 0.1951954 -0.17641962 0.103590496 -0.10970213 -0.07743863 -0.09683695 0.0034919672
-0.1085567 0.08619116 -0.11672309 -0.046935562 -0.01300299 -0.14205654 0.08571314 0.10123133
-0.023198847 -0.11412401 -0.073203534 0.04511748 0.13221675 -0.056411497 0.14235628 0.034405798
0.06793578 -0.094056666 -0.17975052 0.08095341 0.057076592 -0.07209572 0.047374886 0.00050367805
0.009908816 -0.0563696 -0.1496564 -0.17463376 -0.12358013 0.14429574 -0.039193746 -0.072075054
-0.07080991 0.04608894 0.018869353 -0.061909348 -0.112054616 0.08757408 0.04519848 0.09059396
0.18212824 0.15219742 0.14077656 -0.14083901 -0.007913581 0.11316719 -0.030434877 0.041870546
-0.096567735 -0.10273085 -0.13017255 -0.09520119 -0.07761669 0.05917334 -0.00635002 -0.045597967

shared1.bias f4 [200]
00000000: 3339 d03d f517 50be 242f 84be 6b94 3d3e
00000010: e913 63be f512 b53d e2a7 56be 0e08 35be
00000020: 9c63 a9bc 1aae e43d 825b 4dbe 3b95 b9bd
00000030: 0cd0 4b3e c72a 02be aff0 07bd 411d d53d
00000040: d0a0 8ebc d6e8 403c 6fb6 4fbb 53f8 3a3d
00000050: bb2b a03d 93ed 75be a02b 1b3d 686f 69bd
00000060: 2ee3 b8bd 021c c0bc f3bd 893c 7f77 f73d
00000070: a1ff 653e f794 e03d 63fb 203e fbbc 483e
00000080: 23cd 42be aef4 d3bd 89cb df3d f169 193c
00000090: 9af5 f0bd c9ce 82be c82c 7bbc 12a2 7fbe
000000a0: 18b1 15be fd98 c0bd 4001 88bd fc2e ba3d
000000b0: ff30 e63d 0770 a8bd 0d32 5abe 0f3f 0f3d
000000c0: dfd2 23ba 39ec 27be a26d 74be 7f58 90bd
000000d0: 6f12 373d 3083 4b3d b8c6 123e f465 8cbc
000000e0: 32f8 e63d 844b d63d e420 80be 0fd4 e3bc
000000f0: bba5 0a3d 7886 183d a365 193e 515e 2fbe
00000100: cec3 79be e023 2abe 4c59 6cbe 5f04 39be
00000110: bacc 80bd a164 80be 09f3 543d a60b 1ebd
00000120: c787 123d 09bd 19bd 7e91 4e3d 349b 3abe
00000130: 9887 e1bd 4b90 02bd 5b26 c4bc 5346 56bd
00000140: 0ec8 c6bd ad2d dfbd 9194 87bb 3fa3 37bd
00000150: d9d2 803c e4aa bb3d 9d9e c53d dc88 703e
00000160: ffb5 3ebe 9614 57be 9d7d d3bd 5753 9abd
00000170: 89fc 1fbe 741d dcbd 7ff3 4b3e a04c 6abe
00000180: 6975 05be d8a6 8c3d ce18 47bc c328 5cbe
00000190: 26eb ea3d 5846 e1bd 77c9 ec3d ccb3 073d
000001a0: 2965 633b 7444 6cbe dd2f 8abd 3bdb 063e
000001b0: bd55 e2bc 876e 083e 2e22 64bd 56e4 c9bd
000001c0: 4c82 0f3e 3604 80be c480 aabb dae7 0a3d
000001d0: 5b25 5b3d c62f 39be b0aa f23d 8298 1d3d
000001e0: c9b4 733d 01f7 14bd 0f16 86be 607e 5ebe
000001f0: 134f 8f3d be7d 7fbe 0b65 1abe 479b 8f3d
00000200: 2326 6fbe e051 eabd bba6 543e 0476 eb3d
00000210: 2750 d4bd 7a2b f33d 01d1 a7ba 6e79 d3bd
00000220: b8f0 593e 6a9a 1fbe 5fd1 98be 29f1 eabd
00000230: 3243 42bd af49 3c3e d210 8b3d 532b 803d
00000240: 56c0 1fbc ea9f 35be 78af ac3c b36c f03d
00000250: 1d9b 5f3e e689 cb3d 0ddb 9d3d d389 cfbd
00000260: e6b5 2bbe 8bf6 d1bc 8cf3 62be c68f 3bbe
00000270: 0042 a23d 6484 953d 4e1f ac3c bb0d 88be
00000280: 0eaa 9fbd e1ba 8fbe 8f93 4d3d 49b6 8cbe
00000290: e614 34bd 6fd5 873d 32c5 71bd 5219 b1bc
000002a0: 5a84 0fbe a484 113e c888 9a3c 5f67 063e
000002b0: 95ae 623e e5a2 863e 5ce0 25be 3486 1d3e
000002c0: ef35 e7bd c5ff 143c 8564 87be 1e23 f73d
000002d0: 5f03 303e 5fc1 333e 5417 a63d 75de 103e
000002e0: da94 bfbd 23a7 67be 5a42 a0bd 3754 4bbe
000002f0: a79f ca3d f51b 09be 2c5f 9dbd 3772 e8bb
00000300: a50f 20be 4a62 6bbe a832 0fbe 69ba 8c3e
00000310: acc1 953d ae58 f63d ebeb 7dbd d872 833c
0.1016716 -0.20321639 -0.25817215 0.18513648 -0.22175564 0.088415064 -0.2096248 -0.17678854
-0.02067738 0.1116602 -0.20054439 -0.090616666 0.19903582 -0.12711631 -0.033188518 0.1040597
-0.017410666 0.011774262 -0.0031694432 0.045646977 0.07820841 -0.24016409 0.0378834 -0.05699101
-0.09027706 -0.023450855 0.016814208 0.12083339 0.22460796 0.10965913 0.15720896 0.1960334
-0.19023566 -0.10349403 0.10927493 0.009363637 -0.11765595 -0.2554839 -0.015330501 -0.24964169
-0.14618337 -0.0940418 -0.066408634 0.09090993 0.11239814 -0.082244925 -0.21308155 0.034972247
-0.0006249379 -0.16398706 -0.23869947 -0.07048129 0.044695314 0.049685657 0.14333618 -0.017138459
0.11277808 0.10463622 -0.25025094 -0.027811078 0.03384946 0.037237614 0.14980178 -0.17125823
-0.243911 -0.16615248 -0.23080939 -0.18068074 -0.062890485 -0.25076774 0.05198959 -0.038585328
0.03577402 -0.037533794 0.05043172 -0.18223268 -0.110121906 -0.03187589 -0.02394407 -0.05231316
-0.09706126 -0.10897384 -0.0041375835 -0.044833418 0.01572554 0.09163454 0.09649394 0.23489708
-0.18624114 -0.21003947 -0.10326693 -0.07535427 -0.15623678 -0.10747805 0.19917105 -0.22880793
-0.1303307 0.068677604 -0.01215191 -0.21499924 0.11470632 -0.10999745 0.11561864 0.033130452
0.0034697747 -0.23072988 -0.067474104 0.13169567 -0.027628774 0.13323413 -0.05569666 -0.09858005
0.14014548 -0.25003213 -0.0052033383 0.033912517 0.05350242 -0.1808463 0.11848962 0.03847552
0.059498582 -0.036368374 -0.26188704 -0.21727896 0.06997504 -0.2495031 -0.15077607 0.07012039
-0.23354392 -0.11441398 0.20766728 0.11497119 -0.1036685 0.11873527 -0.0012803377 -0.10325895
0.21283233 -0.15586248 -0.29847237 -0.11471779 -0.047427364 0.18387483 0.067903176 0.062582634
-0.009750446 -0.17736784 0.021079764 0.11739483 0.21836515 0.099384114 0.07707796 -0.1013371
-0.16768607 -0.025630256 -0.22163218 -0.18316564 0.07922745 0.07300642 0.021011021 -0.26572976
-0.07796107 -0.28072265 0.05018955 -0.27482823 -0.043965243 0.06632506 -0.05902595 -0.021618519
-0.14015332 0.14210755 0.01886405 0.1312537 0.2213691 0.26296154 -0.16198868 0.15383226
-0.11289584 0.009094183 -0.26443878 0.12067245 0.17188786 0.17554234 0.08109918 0.1414736
-0.09354563 -0.22622351 -0.078251556 -0.19856344 0.098937325 -0.13389571 -0.07684168 -0.0070936936
-0.15630968 -0.22986713 -0.13984168 0.2748597 0.073123306 0.12028633 -0.061992567 0.016045973

shared2.weight f4 [200, 200]
00000000: 1182 d03c 817c 973e b383 d03c 952b d9bd
00000010: e681 bcbd 7b3f 45bd c849 d2bc 85b3 f43d
00000020: f0c7 063d ee56 9c3d 9719 30bc 509a 103d
00000030: 1a2e be3d 569d dfbd 97e1 20bc 2d75 7dbb
00000040: 1744 2abb d21a 07bd 23c7 123d b3bb 533e
00000050: d2b1 803c 7c59 3d3e 3c9f febd 918b 94bd
00000060: d82f e4b8 ae3a 2c3e 5c28 9a3c 399d b53d
00000070: c842 1abd 888a 273c e2a2 8b3c bec4 393d
00000080: e3f5 ec3d 6941 363d 455a e53d 27d5 dc3d
00000090: e526 563e 8366 173e 0ea2 91bd 320b 4a3c
000000a0: f610 0ebe dfa9 14bd fc2a e03c 4296 083d
000000b0: 4409 173e 3d0a b0bd f62d 043e c2eb 4bbc
000000c0: 30ec 563d 0ccb d03d fad2 483d b073 d43d
000000d0: 39e6 bd3d d984 313c 015d 473e 6afc c9bd
000000e0: bff3 4e3b 366a 8d3c 97e0 9f3c 8142 a93d
000000f0: cc47 c13d 8099 cb3c 8b3d 073e b0e0 e53c
00000100: 66e7 913d 2aea 1f3e e5c5 8c3d 2373 1f3e
00000110: 1eba 1ebd db5b b63c 3ee0 85bc aed0 eb3d
00000120: 932b 1ebd b667 b93d c5b0 ec3d 83ff 413d
00000130: 5d30 903d ed34 633c dd45 fb3d 26cc 383d
00000140: 402c 2a3d ca66 20be eee8 74bd 0fae b63c
00000150: a659 dcbd 782f 7ebc 5505 5cbd c1c4 093d
00000160: 0a97 8d3c 3433 223d 4c40 423e 17ab 2d3d
00000170: 7b8d b43d 0750 a13d a7c9 ae3d d91b e93d
00000180: 8355 3d3c 8769 413c 98a4 dc3d 00a5 58bb
00000190: bbab 903d 1a06 3ebb b7c8 b43c 8553 11bd
000001a0: f3ea 67bd 2706 7dbd a11c 22be 4b38 e23c
000001b0: 14da 913d acd0 a13d ece0 3a3d f381 84bc
000001c0: 535b 6fbd 50e1 703d 6eb3 8bbd 1f06 563c
000001d0: 72c7 963d e2c4 01be d7d7 853d b03d e43b
000001e0: 24c2 b43d 627c ac3c 8301 bd3d 1c60 3d3e
000001f0: e186 94bc d2cf 3c3d f87c d0bd b18c ccbd
00000200: a7e1 82bd 0912 02be ba4a a2bd fb98 3d3d
00000210: 3d07 50bd e33c f5bd a82a 1b3e d4a5 99bd
00000220: 8983 d73b 6ebe d33d b25e e73c 8ea7 983d
00000230: c8bb 063e 044b 81bd bf4d 433d 9e1c a53d
00000240: cde7 c7bd 5a67 febc a664 de3c 3e16 afbb
00000250: 0c10 f93b d218 32bd e1d1 1cbd 45cc a0bd
00000260: b1a7 1cbe 40cd 07be aa80 24bb db27 eebc
00000270: b7f4 b03d 90dc 15bc 0dbf be3d bcd8 193e
00000280: f4db 72bb 12d5 a13d 6df2 913d 5cec d63d
00000290: 9362 913d 29a0 c0bd 8b5a 6f3c 805c 25be
000002a0: 8c1d c53c d6c1 98bc e949 1d3e 941a e2ba
000002b0: 6a4e e33c b98e a03c 994b 243d e46e 70be
000002c0: 9b9e a7bb fb9a 3e3e 583c 90bd 8f79 ec3d
000002d0: 9986 90bc 1702 78bb ace5 013d 7885 ef3d
000002e0: ac31 ad3d 5fe8 263e 58c9 ce3d 40bc aa3d
000002f0: 164c ea3c b59c cebd 1b5e a9bd 51c7 0c3e
00000300: ea3a 32be b613 fb3d 0387 293d 9b50 b33c
00000310: a843 9f3c 6825 0cbd 4d85 26bc e77c 013e
00000320: dbd3 bcbd 5cbc 623d 0621 abbc fea7 87bd
00000330: 4343 6dbc db64 02be 7bca 8c3d dfe2 443e
00000340: ee97 1d3e 02bc 263d 2de3 6b3c b5e6 e03d
00000350: 6a65 873d a380 7cbb 5ce4 7f3d 89b2 a23d
00000360: b2e4 4abd a3db e73d 0aff 3b3d ee25 0c3e
00000370: 411a 93bd 2bb0 2c3e 20c4 923d 566b e3bc
00000380: f0a1 ac3d aa8c 583d 68fb e2bb 3637 e13d
00000390: 8e1f 643c f3a1 063d fbe2 c2bc b80a 0e3c
000003a0: 7981 b13d 88dc 85bc 7aa9 823d 72bb cb3d
000003b0: e8c3 723d a822 07be 8ecc 4b3c 2def cbbc
000003c0: ed80 d03d 8699 083e 0c28 14bd f32c d2bd
000003d0: 7b52 b33c a893 57bd 2696 a0bc 846b 493d
000003e0: 9e40 91bd 5c23 1f3c 49f5 e43d 597a 0b3b
000003f0: 7691 52bd 9489 e53d aa25 003d 8917 1abe
0.025452645 0.29587176 0.025453424 -0.10604016 -0.09204464 -0.048156243 -0.025669947 0.11948303
0.03290552 0.07633768 -0.010748289 0.035303414 0.09286137 -0.10918681 -0.00981941 -0.0038674579
-0.0025980526 -0.032984562 0.035834443 0.2067707 0.015709791 0.18491167 -0.12432715 -0.07253183
-0.00010880799 0.1681926 0.018818073 0.088678785 -0.037661344 0.0102258995 0.017045442 0.045353644
0.11570337 0.044495974 0.11198858 0.10782843 0.20913275 0.14785199 -0.071109876 0.012331771
-0.13873658 -0.036294814 0.027364247 0.033346422 0.14749628 -0.08595703 0.12908158 -0.012446346
0.05247134 0.10194978 0.049029328 0.10373628 0.09272427 0.010834896 0.19469072 -0.09862597
0.003157839 0.01726256 0.019516272 0.08264638 0.09437522 0.024853468 0.1320707 0.02806124
0.07124214 0.1561667 0.06873683 0.15571265 -0.038751714 0.022260597 -0.016342279 0.11514412
-0.038615774 0.090529844 0.115571536 0.047362816 0.070404746 0.013867599 0.12269185 0.045116566
0.041546106 -0.15664211 -0.05979245 0.022299794 -0.107592866 -0.015514247 -0.053716023 0.033634905
0.017283935 0.039599612 0.1896984 0.042399492 0.08816048 0.07876592 0.08534556 0.11382265
0.011556032 0.011804945 0.10773581 -0.0033057332 0.07064005 -0.0028995336 0.022068365 -0.03548004
-0.05662055 -0.061773445 -0.15831234 0.027614733 0.07121673 0.07901129 0.04562466 -0.016175246
-0.058436703 0.058808625 -0.06821333 0.013062983 0.0736226 -0.12672761 0.06535309 0.0069653615
0.08826092 0.021055404 0.09228804 0.18493694 -0.018130722 0.04609663 -0.10180086 -0.09987772
-0.06390696 -0.12702192 -0.07924409 0.04628847 -0.050788153 -0.11974504 0.15152991 -0.07502332
0.0065769595 0.10339056 0.028243396 0.074538335 0.1315757 -0.06313136 0.047681566 0.08062099
-0.09761009 -0.031055141 0.027147602 -0.0053432276 0.00760079 -0.0434807 -0.038286094 -0.07851461
-0.15298344 -0.1326189 -0.0025101104 -0.029071739 0.08640426 -0.0091468245 0.09313784 0.15024084
-0.0037057372 0.07901968 0.07126317 0.10494301 0.0709888 -0.09405548 0.0146089895 -0.16148567
0.02406194 -0.018647116 0.15360226 -0.0017250353 0.027747352 0.019599305 0.040111158 -0.23479801
-0.005115343 0.18613808 -0.0704276 0.11546623 -0.017642306 -0.0037843043 0.031713173 0.11695379
0.0845674 0.1629958 0.10096997 0.08336687 0.028600734 -0.10088483 -0.08269902 0.13747908
-0.17405286 0.12259619 0.041388523 0.021889022 0.01944144 -0.03421536 -0.010163617 0.12645303
-0.09220096 0.055355415 -0.02088977 -0.06623839 -0.0144813685 -0.12733786 0.068745576 0.1922717
0.15389988 0.040706642 0.014397425 0.10981504 0.0661114 -0.0038528822 0.06247364 0.07944209
-0.049534507 0.11321189 0.04589752 0.13686344 -0.07182742 0.16864078 0.07166314 -0.027761143
0.084293246 0.052868523 -0.0069269426 0.10996859 0.013923539 0.03286929 -0.023789873 0.008669548
0.08667273 -0.016340509 0.06379981 0.09947862 0.059268862 -0.13196814 0.012438906 -0.024894321
0.10180841 0.13339815 -0.036171004 -0.1026248 0.021889916 -0.05263105 -0.019602846 0.0491748
-0.07092403 0.00971302 0.11179597 0.0021282642 -0.051408254 0.112078816 0.03128592 -0.1504804

shared2.bias f4 [200]
00000000: 599f 843d 030c e4bd cf00 0e3c 27fd d5bb
00000010: 1a3c c7bd 0622 90bd f4ef c8bd f723 0dbd
00000020: ceca 29bd 52af 0abd d7cf 4b3c f5d4 ad3d
00000030: 4180 8fbc afbd 3abd 2c6a 103c e3ae b8bb
00000040: 42e2 2b3d c2f7 5b3d a193 f33b dba8 83bd
00000050: 6fa5 94bc c2b2 4abc 15c1 aabd 2cab c73c
00000060: 0082 213d c080 b4bd 0850 f83a f8c6 d5bb
00000070: c157 0fbd d920 883d 5a3f bebd 4b93 e53c
00000080: 319e 3fbc 18b3 4b3d 3aba 953c 2b8b ecbd
00000090: 328a 283c 6124 28be 8128 413d 8401 9d3b
000000a0: 2759 953c 8afc d2bc 8683 40bd 266a 473d
000000b0: 7de8 d3bc 1350 b1bc c442 b83c d884 0c3d
000000c0: c71e 593d d860 863c bcc2 f5bc b7ad 17bd
000000d0: 0a82 a9bd 1933 573d 88a0 95bb 1e24 d63c
000000e0: f78f acbd 0ec9 513c 96f2 273d 068d d6bd
000000f0: e99d 873c 12e7 bbbc 2985 8ebd 8ffd 9c3c
00000100: ea75 92ba 2d47 a63c 6272 09be 2e3b 1d3d
00000110: d9d5 073d 56b7 a63d 316c fc3c a3a8 753d
00000120: b4ce 423d 1036 3c3d e582 aabd a86f 9dbd
00000130: 3cc2 d2bd 7a90 143d 363a c73a 32b2 88bd
00000140: 4c21 10ba be88 d6bd a742 6a3d cad3 edbc
00000150: 0c59 35bd 2a7a 263d 390b 933d 359d b1bd
00000160: 2fc9 8bbd 042c b1bd d487 3fbd cb80 24bd
00000170: 2663 76bd 4ba7 a9bd d28f df3b cef1 de3c
00000180: 8493 d93c dd2d 9d3d 79d7 303d db8d e4bd
00000190: 5ac0 d5bc 85cc 623b d94b bebc abf1 7ebc
000001a0: 58ee 3bbc cfeb 01be 73bb 28bb 9ad6 19be
000001b0: 9552 94bb b0b3 033d 4e76 813d de15 a43d
000001c0: ea79 80bb a26d fdbc 1433 59bd 5086 8cbc
000001d0: 0d05 efbc 5813 e0bd 627d 77bd a4ac dcbd
000001e0: 2fc4 86bd 3350 023d a1de e1bc 8943 8abd
000001f0: 0788 ddbc e58a 6c3b 28d0 84bc d90a 0dbe
00000200: 09e0 b23c df40 183c ec8a 6bbd 93f4 52bc
00000210: 4079 aabd 0c17 71bd ab4b a83c 8234 9bbd
00000220: 6e95 39bc 77b7 dd3c 96b9 283d 3ab7 adbd
00000230: f338 b2bd e821 0e3d e46d 0abe 5b2c 7cbd
00000240: dade 2e3d 2586 2e3c e337 653d e8af 90bd
00000250: b37e c0bd 7e09 a13d e620 67bc 8ac0 58bd
00000260: 2aaa 9d3c fb2e 10bb 27d3 6b3c b551 42bb
00000270: 0b9b a6bd 767c 16bd 6b75 86bd a9e9 90bb
00000280: 3dd8 97bd 80f6 8fbc 8976 b1bd fdea 82bd
00000290: bc6f 50bd a92c 0abd 4123 10bd 3370 4abd
000002a0: 8c8b 84bd 8678 d2bd 6a1f 893c b2c5 ccbd
000002b0: 9005 8dbd d095 d73c 92f6 0fbe b416 d63d
000002c0: c57f d03c 9257 d9bc e8f4 b6bd 333a acbd
000002d0: 260e 13bd 2a7d 893d 40e7 2dbd 5d07 3dbd
000002e0: 92ab 68bd 0cba b9bd a30e 72bd 7910 aabd
000002f0: d628 95bd 74c0 3ebc 1055 bfbd 3dff ac3d
00000300: d4f3 86bd ed9b 04bd 6944 de3c 2bf7 523d
00000310: 361e 3abd 5c6e 1abd 5c57 163d 5e61 efbd
0.06475706 -0.111351036 0.008667185 -0.0065304223 -0.0972826 -0.070377395 -0.098113924 -0.034458127
-0.041453175 -0.033858605 0.01243969 0.08487884 -0.01751721 -0.045591053 0.008814376 -0.0056360825
0.041963823 0.053703077 0.00743337 -0.06428691 -0.018145291 -0.012371721 -0.08337609 0.024373613
0.03943062 -0.088136196 0.001894475 -0.006523963 -0.034995798 0.0664689 -0.09289427 0.028024336
-0.011695431 0.049731344 0.018277276 -0.11549982 0.010286855 -0.16420127 0.04715777 0.0047914404
0.018230988 -0.025755186 -0.04700043 0.048685215 -0.025867695 -0.021644628 0.022492774 0.034306377
0.053007867 0.0164036 -0.030000083 -0.0370309 -0.08276756 0.052538965 -0.004566256 0.026140269
-0.084258966 0.012804283 0.041002832 -0.10476117 0.01655479 -0.022937331 -0.06958992 0.019163875
-0.0011174057 0.020297611 -0.1342254 0.038386516 0.033162925 0.08140437 0.030813308 0.059975278
0.04756041 0.045949996 -0.083257474 -0.07687312 -0.102909535 0.036270596 0.0015199843 -0.06674613
-0.00054981257 -0.104753 0.05719247 -0.029031653 -0.044274375 0.04064385 0.07179875 -0.08672563
-0.06825482 -0.086509734 -0.046760395 -0.04016189 -0.06015315 -0.08283862 0.0068225646 0.02721491
0.026559599 0.07674763 0.04317424 -0.11159869 -0.026092697 0.0034606766 -0.023229526 -0.015560548
-0.0114704 -0.1268761 -0.0025746494 -0.1502327 -0.004526446 0.032153785 0.06321393 0.08011983
-0.0039207833 -0.030936066 -0.053027228 -0.017153889 -0.029177213 -0.109411895 -0.06042231 -0.10775116
-0.06580388 0.031814765 -0.027571978 -0.067511626 -0.027042402 0.003609353 -0.016212538 -0.1377367
0.021835344 0.00929281 -0.057505533 -0.012875694 -0.08323908 -0.05885987 0.020543894 -0.075783744
-0.011327131 0.027065022 0.041192614 -0.08482213 -0.087022685 0.034700304 -0.13518482 -0.06156574
0.042692997 0.0106521 0.0559615 -0.070648015 -0.09399166 0.078631386 -0.014106965 -0.052917995
0.01924618 -0.0022000659 0.014393604 -0.0029650752 -0.08135041 -0.03673979 -0.065653645 -0.0044223857
-0.07414291 -0.017573595 -0.08665187 -0.06392477 -0.05088781 -0.033733997 -0.03518987 -0.049423408
-0.06471929 -0.10276894 0.016738612 -0.09998645 -0.068858266 0.026316553 -0.14058903 0.10453549
0.02545155 -0.026531015 -0.08933431 -0.08409538 -0.035902165 0.06713326 -0.042456865 -0.0461496
-0.056804247 -0.09068689 -0.05909599 -0.08303923 -0.072831795 -0.011642564 -0.09342396 0.0844712
-0.06589475 -0.032375265 0.02713223 0.05150525 -0.045438968 -0.037702903 0.036704406 -0.11688493

hidden1_Y1.weight f4 [200, 200]
00000000: 0fcf 943d 053e 8cbd 7f9b 00be c93e b0bd
00000010: 741c 463d 6519 06bd 6e4d 5f3d 157f b9bc
00000020: c011 533d 8736 a53b f295 3d3d d4b0 f1bd
00000030: 2412 a0bc 3984 99bc 9abe d83d 5b5e 7abd
00000040: 02ab 0dbe 649a 2ebd 11d8 c63c 38bf d43c
00000050: 1935 d13c ffbf e73b 8803 a13d 8fac 9cbd
00000060: e349 4d3c feb6 ccbd 5426 dcbd 74ca 94bd
00000070: 1bf5 abbd c1a8 90bd 2223 263d 9f06 e73c
00000080: 8e9a bebd 8fd2 d63d fef8 ee3c 109f d43c
00000090: dfc3 f33d 8324 c1bc 4898 71bd 93e6 d03a
000000a0: 30fb c5bd e75a f53d bbe3 b93d d8ff 82bd
000000b0: 1937 18bd 249c 95bd df9f cdbc 83f8 cabd
000000c0: 40c2 2bbd e1ce 86bd 6c0e 683d 8302 313d
000000d0: d475 f9bd db2c 0c3d bc8b 47bd 1bb7 cabd
000000e0: af25 2c3c 185e 993d 3779 abbd 25f5 c1bd
000000f0: 6ef1 1d3d 1da5 d73d 7f3b ba3d d9d9 a4bd
00000100: 7c09 03bd 7bf9 1bbc 54f9 143d 891c 843d
00000110: c1f4 c7bd ee79 ba3c 8337 373d 41a1 8c3d
00000120: e511 213d d330 4f3d a2ca e73d 6674 753d
00000130: 2bc6 1a3c 7c7c 133d a9f7 3f3d 7b45 03bb
00000140: 1bf8 d9bc d63f 72bc 6587 64bd 4b27 87bd
00000150: a34b d93d 9c33 6fbc 8170 813d 4369 95bc
00000160: 0b88 9b3c b3d0 01be 4b2c 00be 42e2 c23d
00000170: 9c33 debd 6641 e4bd 7de0 90bc be43 c03d
00000180: dfd9 b43c 68ec d83b d804 59bc 77ad 423d
00000190: 6f8a d6bd e851 a0bd f8d9 df3c da19 c0bd
000001a0: 9760 c23c a3a4 04be bfb3 213c 4248 143d
000001b0: 6ac8 51bd 617b dbbd b584 e63d e400 623d
000001c0: baa9 afbd 2541 d63c 8cdc c43d 6795 a3bb
000001d0: 0a5c c5bc f52e 003c 9f10 633c f8fe 983d
000001e0: 1222 583c 4fc6 493d 6e97 febd e7fd 8bbd
000001f0: e292 983d a31a c8bd 45c6 84bd 0c4b efbd
00000200: 12c2 5f3d 91d1 a5bd 398a 15bd 021a b93d
00000210: f32d dd3d 8184 6ebd 1779 853d d21d a7bd
00000220: 9b75 3f3d 88f9 c1bd 36f3 92bd 13ae 133d
00000230: 87d3 24bd f602 04be 7296 e03d 154d dabd
00000240: c66e fe3c cfd6 cebd a212 b63d df6b 323d
00000250: d374 993d 7dab 03be 42e9 3ebc 1be7 8dbd
00000260: 64d8 f0bc df9d b33d 81b3 d83d 21ad 463d
00000270: 69fc edbc d995 e4bc d10a 01be fa13 5ebd
00000280: e1c3 02be c70d 87bd eb03 d2bc 5847 afbd
00000290: a06f 013d df18 f0bd 5845 41bd d7a6 aabb
000002a0: 891b cebd 7cad b0ba da45 b2bd fd1c e33d
000002b0: 6e9c b2bd add5 103d 4d41 4cbd 60b2 7cbc
000002c0: ac12 363c a8e7 ef3c 0fa4 d3bd 2b53 1abe
000002d0: 8a2f e73d 1ec6 82bd 8385 29bd 7a7b d13d
000002e0: 9338 e23c f4a4 be3c a0df b4bd 2a8b 54bd
000002f0: 6b9b a8bc 7011 6cbd 83f6 d6bd e845 443d
00000300: 18d0 9e3b edb8 22bd 14da c5bd bff6 90bd
00000310: d53b 11bd 98ab 083d 1d15 8fbc d20d c3bb
00000320: 1acf 3fbd c069 17bd 390a 6f3c 9458 ccbc
00000330: c46c 65bd c45a f43c 6f62 f63d e6d9 81bc
00000340: 9db5 a2bd d7e0 953d 2e59 283c 8bcb a8bd
00000350: 1190 c63d 495d e53d aa6d a03d 1736 a33d
00000360: c45a 07bc bb67 0c3d 77a9 2f3d d89e e73d
00000370: 9bb2 aabc 4a1f 0b3e 75a8 273c 7756 a53d
00000380: d078 d33c 6dcb 9d3d fed3 bebc 89a5 a6bd
00000390: 3982 ddbd 9470 d9bd 8783 923b 47fe b23d
000003a0: 6221 fc3c 857d 083e 63bc d93d 5333 103d
000003b0: 1261 22bd 434a c4bd f887 fa3d aa52 2abd
000003c0: dde9 bd3d 6b36 083e 34e5 9a3c 0458 eb3c
000003d0: 895c d83d 33f9 5b3b 9c68 31bd 6b12 0a3e
000003e0: 3649 d7bc 158d 9fbd c2f1 c33d eba6 57bd
000003f0: 717f 2e3d ad5c f0bd 8f00 1cbc c78c 1a3c
0.07266056 -0.06847767 -0.12559317 -0.08605725 0.04836698 -0.03273906 0.054517202 -0.022643605
0.0515306 0.0050419006 0.046285577 -0.118013054 -0.0195399 -0.018739806 0.10583229 -0.06112514
-0.13834766 -0.042627707 0.02427295 0.025970086 0.025538014 0.0070724483 0.07862002 -0.076501004
0.012529823 -0.099958405 -0.10749498 -0.07265177 -0.083963595 -0.07063437 0.04056085 0.0282014
-0.09306823 0.104893796 0.029171463 0.025954753 0.11902594 -0.02357698 -0.058983117 0.0015937857
-0.09667051 0.11980229 0.09076639 -0.063964546 -0.03716192 -0.07305172 -0.025100647 -0.09910681
-0.041933298 -0.06582428 0.05665438 0.043215286 -0.12180677 0.034222465 -0.048717245 -0.09898206
0.010507031 0.0748865 -0.08372729 -0.09470586 0.038560323 0.1052954 0.09093379 -0.08049364
-0.031991467 -0.00951993 0.03637059 0.06450755 -0.0976348 0.022763219 0.044730674 0.06866694
0.039323706 0.05058367 0.11317946 0.05992546 0.009446661 0.03600739 0.046867047 -0.0020030427
-0.026607564 -0.0147857275 -0.055793185 -0.065992914 0.1061013 -0.014599707 0.063202865 -0.01823867
0.018985769 -0.12677269 -0.12516896 0.095158115 -0.108496875 -0.11145286 -0.01768517 0.09387921
0.022076545 0.0066199787 -0.013245784 0.04752871 -0.10475623 -0.078281224 0.027325615 -0.09379931
0.023727698 -0.12953429 0.009869515 0.036201723 -0.05121652 -0.10716892 0.112557806 0.05517663
-0.08577295 0.02615411 0.096123785 -0.0049921754 -0.02409174 0.007823695 0.013858943 0.074705064
0.013191717 0.049261387 -0.12431227 -0.068355374 0.07449891 -0.097707056 -0.064831294 -0.11684236
0.05462844 -0.08096612 -0.036508773 0.09038164 0.1079978 -0.058231834 0.06517237 -0.08159985
0.046743017 -0.094714224 -0.07175295 0.036054682 -0.04024079 -0.12891755 0.10966195 -0.106592335
0.03105868 -0.10099565 0.08890273 0.043559905 0.074929856 -0.12858386 -0.011652293 -0.069288455
-0.029400058 0.08770346 0.10581113 0.048504952 -0.029051023 -0.027903484 -0.12601782 -0.05421827
-0.12770034 -0.06594425 -0.025636634 -0.085585296 0.031600595 -0.11723494 -0.047185272 -0.005207877
-0.10063846 -0.0013479437 -0.087047294 0.110895135 -0.08721243 0.035360027 -0.049866963 -0.015423387
0.01111285 0.029285267 -0.10334026 -0.15070789 0.11288364 -0.06385444 -0.041387092 0.102286294
0.027614867 0.023272015 -0.088317156 -0.05189053 -0.020581922 -0.057633817 -0.10496237 0.04791823
0.004846584 -0.03972714 -0.09660736 -0.07078313 -0.03545745 0.03336677 -0.017466122 -0.0059525752
-0.046828367 -0.036966085 0.01458984 -0.024944581 -0.05601193 0.029828437 0.120304935 -0.015850972
-0.07944796 0.073182754 0.010275168 -0.08241948 0.09695447 0.11199433 0.07833417 0.07969301
-0.008261386 0.034278613 0.042886224 0.11309594 -0.020837119 0.13586155 0.010233034 0.080731325
0.025814444 0.07704816 -0.023294445 -0.08137042 -0.108158536 -0.10617176 0.0044712457 0.08739906
0.030777637 0.13329132 0.10631635 0.035205197 -0.039643355 -0.09584477 0.12232965 -0.04158274
0.092731215 0.13302009 0.01890812 0.028728493 0.10564525 0.0033565282 -0.043312654 0.13483588
-0.026280027 -0.07790581 0.09567596 -0.05264942 0.042602006 -0.117364265 -0.009521618 0.009432978

hidden1_Y1.bias f4 [200]
00000000: 56d4 83bc 5454 f13c b3e8 7a3d bbea 5e3d
00000010: 7815 973d f91f 583c 3bb4 b0bc 6690 133c
00000020: 8653 75bd b6b4 f13c f4fd 613d f3b4 6abd
00000030: 499c 4e3d 6489 6f3d d54b d23c c436 3f3d
00000040: 9ce5 663b 41de 8a3d c37f 2a3d a18c 59bb
00000050: 947c 643d c45d 9f3b f32e 61bd 1758 d83b
00000060: c350 14bd 5a1c 73bd cc98 e5bc bdf9 3c3d
00000070: 7c30 033c ebc5 80bd 40b0 8e3d abeb 1abd
00000080: 50a2 7bbd a7a7 833c fedc 773d fe80 a03c
00000090: fedb d43b e613 793c c51e 883d 2ba2 073d
000000a0: aa63 94bc a8c4 1abd aa1e 7c3d d4c3 8e3c
000000b0: 77e2 2c3d 2aad 103d 7e7d 1dbc 0456 303d
000000c0: 3051 233d 781c 083c bba7 d4bb 9ca8 fabc
000000d0: 9695 87bd 9dd0 ccbc f8a8 963c c6f7 92bc
000000e0: 9363 64bb 0fa1 483d c7d8 553d 5b4f 73bd
000000f0: a5ee 09bd 9a9a 8bbd 93e9 6ebc 7fbc 7c3d
00000100: 1556 06bc 54d2 a53d 64bb 7a3d d981 303d
00000110: 5668 113d 9c3a 3c3d 4caf 0e3c 542d 04bd
00000120: 8bef 4cbd efae 7b3c c8c0 543d cb52 ca3c
00000130: 4a56 52bd 7041 cf3c 7b12 a13c 16d4 0dbd
00000140: e7e6 89bd 1f6a 3abc 0e88 d23c 46f0 b43b
00000150: 7025 4c3d 9cc3 b73d 7cbe ec3c f346 2abd
00000160: b552 83bd ed53 25bc 7902 2c3d dc9c 66bc
00000170: 04ff de3c 9acd 643d 290f 33bc 2b97 ae3c
00000180: f25d 0bbd debf 963c 536b 1b3c 3c9e 75bd
00000190: d47c 4a3c 9a52 c43c d992 643d cbad a13d
000001a0: 3c3b 08bd 1e5e 623d 6bad fdbc 949f 9f3d
000001b0: e1a8 39bd a0e9 6cba 5bb3 e4bb 7030 f73c
000001c0: 6b18 3c3c b6c2 243d 6422 cc3c 1bce 8dbc
000001d0: 48a3 2dbb cfc3 683d e103 c5ba e2c6 b63c
000001e0: 7988 f3bc 9ccf 0ebd 1c34 a4bb 0ee5 d5bc
000001f0: c79b 823c ade7 6a3d 6aa3 713c f146 d13c
00000200: 41d3 7cbd 7cf6 7cbd da57 193b dfd9 0bbd
00000210: a586 3abd b1ce 8abd ea1c 83bd 964c 0e3d
00000220: afb5 553d ab2e babc 9138 3cbb 9b99 8a3d
00000230: e777 4abd c083 e9bc cb8c d13c 30a8 6f3d
00000240: c7ac 3fbd 57d6 84bc ed6e 73bc 5a50 753d
00000250: e8eb d1bc 5a18 163d e17a 7cbd 78aa 33bd
00000260: 34bd 573d 3130 7bbd 789a 93bd 1d28 0a3d
00000270: cc60 adbd ef80 2dbd 0c31 303d 7841 b63c
00000280: 9c3b 633c a301 2e3d 96e7 2d3d ed86 4cbd
00000290: dfed 78bc 2069 28bc fb01 483d 968c acbc
000002a0: 8843 863d e73b 3fbd 5661 a5bc 7e88 b4bc
000002b0: 7bad 8abd de3b 8dbb 1729 65bd 4a4c 1d3d
000002c0: 4089 64bb 47cf 2ebd c477 a03d 481f 1f3d
000002d0: 4432 85bd dd02 32bd 2e69 293b 77ff eebb
000002e0: 553a 923c 26fa dbbc 3ccc 82bd 7bd6 52bc
000002f0: 5d65 69bd 6ae2 053d 87f9 d73b 2c57 ad3c
00000300: 0c6d 6bbd 364c 92bd 78f3 42bd 1087 833d
00000310: 29dc 843d 8418 53bd 0d94 d8bc 7a39 843d
-0.01609246 0.029459156 0.061257076 0.054423075 0.07377142 0.013191217 -0.021570316 0.009006595
-0.059894107 0.029505115 0.05517383 -0.057301473 0.050442014 0.058480635 0.025670925 0.046683088
0.0035232073 0.06780673 0.04162575 -0.0033195394 0.05578287 0.0048634727 -0.054976415 0.006602298
-0.036209833 -0.05935321 -0.02802696 0.046136606 0.008007165 -0.0628775 0.06967211 -0.037822407
-0.06143409 0.016071154 0.06051349 0.019592758 0.0064959517 0.015202498 0.06646494 0.03311364
-0.01811393 -0.037785202 0.06155268 0.017427363 0.04220816 0.035321392 -0.009612439 0.04305078
0.03987235 0.008307569 -0.0064897216 -0.030597977 -0.06620328 -0.025001818 0.018391117 -0.017940413
-0.003484939 0.048981722 0.052208688 -0.05940185 -0.033674855 -0.06816597 -0.014582056 0.0617032
-0.0081992345 0.080967575 0.061213866 0.043092582 0.035499893 0.04595433 0.008708786 -0.03226979
-0.050033133 0.015361532 0.051941663 0.024697682 -0.051351823 0.025299758 0.019662132 -0.03462609
-0.06733494 -0.01137784 0.025699642 0.005521807 0.04984039 0.089728564 0.028899424 -0.04157157
-0.064122595 -0.01009081 0.041994546 -0.014075484 0.02722121 0.05586014 -0.010928907 0.021312317
-0.03402514 0.018402036 0.009486037 -0.059965357 0.012358863 0.023965169 0.055804107 0.078944765
-0.033259615 0.05526554 -0.030966481 0.07794109 -0.04532707 -0.00090374984 -0.0069793887 0.030174464
0.011480431 0.040224753 0.024918742 -0.017310193 -0.0026495028 0.056827363 -0.0015031063 0.022311632
-0.029728161 -0.03486596 -0.0050110947 -0.026110198 0.015943421 0.05734985 0.014748434 0.025546523
-0.061724905 -0.061758503 0.002339831 -0.034143325 -0.045538563 -0.067777045 -0.06401999 0.034741007
0.05217522 -0.022727331 -0.002872024 0.06767579 -0.049430754 -0.028505206 0.02557983 0.058510005
-0.046795633 -0.016215486 -0.01485799 0.059891082 -0.025625184 0.036644317 -0.061640624 -0.043863744
0.052670673 -0.061325256 -0.07207197 0.03372966 -0.08465728 -0.04235929 0.043015525 0.022248015
0.013869192 0.04248203 0.042457186 -0.049933363 -0.015193432 -0.01027897 0.048830014 -0.02106313
0.06555849 -0.046687987 -0.020188015 -0.02203774 -0.0677137 -0.0043101152 -0.05594739 0.038402833
-0.0034871846 -0.042678144 0.078353435 0.03884819 -0.06503728 -0.043459762 0.0025850045 -0.0072936374
0.01785008 -0.026852679 -0.06386611 -0.012868519 -0.056981433 0.03268663 0.0065910253 0.02115973
-0.057477042 -0.07143442 -0.04759547 0.064222455 0.06487305 -0.05153705 -0.026437784 0.06456275

hidden2_Y1.weight f4 [200, 200]
00000000: 02ce 003b a547 75bd 4d7b cdbc 8a69 48bd
00000010: 5937 0e3b 1596 bb3d bf19 5b3d 0921 0f3d
00000020: 6434 f6bb 1592 493d cf57 8ebd 7e6f 42bd
00000030: da7c d4bd 3e84 cbbd 62b1 9a3d 3d00 bfbc
00000040: c7aa abbd 2cef 88bd 3b5f 04bc 6461 b53d
00000050: f451 353d cd5b a7bd 5620 c9bc 73d6 61bd
00000060: c1ff bd3d b7a2 b2ba df1b 57bd 235c 72bd
00000070: 2a44 87bd 5b0f 89bc 7089 6b3d 84fc 703d
00000080: 0542 8fbd 5fbb 183d da17 153e 7edc af3d
00000090: ce5f 8cbd 62d8 f43d 9b3b f73d 94fe 00be
000000a0: 4d42 a13d c06b a9bb 07bf 83bc d3bf ae3d
000000b0: f635 e1bd 1fbc dabc 2bf1 12bd 1fb7 2ebd
000000c0: 124e 663c 293c cd3d 5c93 87bd 80ca 8dbd
000000d0: 47c8 a93d 8aa8 56bd df99 643d ef6a 61bd
000000e0: b3d3 333d c713 d9bd 2182 c7bd 12d6 a7bd
000000f0: aceb 6ebc 1fb8 e93d 266b 173c e7e2 863c
00000100: 500e b0bd 3080 0abe 81af d7ba 921e 8a3b
00000110: 411d 263d 0c8d c0bd d701 ec3d 469f 0d3c
00000120: cd80 853d d393 a23d ec5d aa3d 65a7 2dbb
00000130: e9c9 0c3d b4a1 9d3d 1aee e93d 0a9e ab3d
00000140: 0c71 dc3d 6e20 8a3c 1b66 76bc edb2 be3d
00000150: f0d0 8e3d 7ba8 a8bd 4f2e 0f3e 00ea 2fbd
00000160: 566c f53d ef21 00bd 7e0f e43d d615 67bd
00000170: bb3d 05be 0bf3 a9bd aaaa 113d e07e 8f3d
00000180: c0e6 6b3d 9425 dabc 06a0 773d d33a a43d
00000190: 2906 433d bb94 f33c 5b1d a6bd 5215 4e3d
000001a0: 956f 123d a6dd 593d ee52 00bd f600 9d3c
000001b0: 9b01 003d 514d 883d acbb df3d 4b77 843b
000001c0: 0b58 683d 1dca 61bd 8127 dc3b 9287 be3d
000001d0: a857 3e3c dac3 37bd a460 debd 5627 013e
000001e0: 3956 ea3d e23d 18bc d376 9a3d 4e3e 1e3d
000001f0: 0993 bc3d 9a84 bdbd 6629 e6bb 30da 523d
00000200: 5da4 a53d 7af6 013e 99fe 733d e6f4 bfbd
00000210: 6097 5cbd f417 8fbd 7f8a f33d e47d 823d
00000220: 5748 98bd 09d4 d33c 52f5 87bb 0a9d a9bd
00000230: e1bd 73bd 88a3 bcbd f739 33bd 67ab 893d
00000240: dc8c 5fbd 148d f53d 0130 e43c 444f 23bd
00000250: a9a4 e43d 8aa2 f23d 303e 4b3d ad77 83bc
00000260: afe5 353d ce22 abbc aae2 9f3d 9836 9bbd
00000270: f739 c83b b8c1 21bc 2fd9 50bd d081 6e3c
00000280: 7ae6 b03b 4bf2 853d 2dfa 4dbd 15d6 e33d
00000290: 4c92 423d 9ec9 ab3d 2bdd c1bd 654c 593d
000002a0: 132a ce3d c0a6 b5bd ba86 7abd a70a d0bd
000002b0: 2740 bdbd 232e c1bd 9487 a7bc 824d b03d
000002c0: 6136 d93d ba76 203d fc4f fe3d db0a e0bc
000002d0: bc83 c5bb c042 c6bc 85c8 03bb 43ac 583d
000002e0: e478 043e 0e6b 89bd 0079 293d a450 033d
000002f0: b4f1 4bbd 0c94 173d adb7 ba3c d020 f5bd
00000300: 0a74 983c 4e0c c6bd c5dc f1bd a6dd da39
00000310: 2e10 1a3d f541 5b3d 7d26 e53d c9ef d93d
00000320: a09c 4bbd 8a91 92bd eb80 7dbd 16e8 a2bd
00000330: 8133 c83d 08c0 31bd bf49 ed3d e896 06bd
00000340: 2dbd 0cbd 8b26 9abd 7da5 7e3d 51b2 66bd
00000350: da0a 60bc 76e9 e1bc b812 693d 0440 15bd
00000360: 3818 f53c 7e6e 883d c795 3b38 a8a2 b9bd
00000370: 1ee7 e1bd 0922 c43d ee73 82bd aecf 81bb
00000380: 4d02 0e3d 44c2 91bd 6dbf afbd 5d6a cd3d
00000390: 9133 bc3d ee7d 523c d43d d63d c495 58bc
000003a0: 7f96 99bd 32bf ce3c 2cd5 273d f70a bbbd
000003b0: e3ae 783d 7569 b63d 1e88 dd3d f7f5 91bd
000003c0: ebfb 5c3d 2f1c c4bd 6670 8d3c 1b19 87bd
000003d0: df74 d1bd 3a96 473d d4c5 983c ca48 b13d
000003e0: 1568 e8bd debf dc3d 3953 0fbd 0425 d43a
000003f0: 2167 f6bc 1abf a83d f97a ea3d 5d25 af3d
0.001965404 -0.05988278 -0.025083208 -0.048928775 0.002170047 0.09159485 0.05349135 0.034943614
-0.0075135697 0.04921158 -0.06950342 -0.04746961 -0.10375376 -0.099373326 0.07553364 -0.023315543
-0.083821826 -0.066862434 -0.008079345 0.088564664 0.04426761 -0.081718065 -0.024551552 -0.055136155
0.09277297 -0.0013628815 -0.052516814 -0.0591699 -0.06604798 -0.016730955 0.057504117 0.058834568
-0.06995014 0.037288066 0.1455988 0.085869774 -0.06854211 0.11955334 0.12071916 -0.12597114
0.07873974 -0.0051703155 -0.0160823 0.08532681 -0.1099662 -0.026701031 -0.035874527 -0.042655107
0.014056699 0.1002124 -0.066199034 -0.069233894 0.08290153 -0.052406825 0.055810805 -0.05503362
0.043903064 -0.10599475 -0.09741617 -0.081951275 -0.014582556 0.114120714 0.009241855 0.016465617
-0.0859648 -0.13525462 -0.0016455502 0.00421507 0.040555242 -0.094019026 0.115237884 0.008643931
0.065187074 0.079383515 0.083186954 -0.002649748 0.034372244 0.07696858 0.114223674 0.08379753
0.107637495 0.016861167 -0.015038992 0.09311471 0.069734454 -0.0823526 0.13982509 -0.04294777
0.11983554 -0.03128236 0.111357674 -0.05641731 -0.1301183 -0.0829831 0.03556315 0.07006621
0.057593107 -0.026629247 0.060455345 0.08019032 0.047613297 0.029734006 -0.08111068 0.0503133
0.035750944 0.053189896 -0.031329088 0.019165497 0.03125153 0.06655372 0.109244674 0.004042541
0.05672459 -0.05512439 0.0067185764 0.09303202 0.011617579 -0.044864513 -0.108582765 0.12612662
0.11442227 -0.009292098 0.07542195 0.038633637 0.09207732 -0.09253807 -0.007023978 0.05147761
0.080879904 0.1269168 0.059568975 -0.093728825 -0.0538553 -0.069869906 0.118916504 0.06371668
-0.07435673 0.025857942 -0.0041491175 -0.08281906 -0.059507255 -0.092108786 -0.04375645 0.067221455
-0.054577693 0.11989799 0.027854921 -0.039870515 0.11164219 0.11847408 0.049619853 -0.016048277
0.044408496 -0.02089062 0.078069046 -0.07578772 0.0061104256 -0.009872846 -0.050988372 0.014557317
0.0053985687 0.06540354 -0.050287414 0.11124817 0.0475028 0.08388065 -0.094660126 0.05305137
0.10066619 -0.08869696 -0.06116364 -0.10158282 -0.09240752 -0.09432628 -0.02045039 0.086085334
0.10606075 0.039175726 0.124175996 -0.027348926 -0.006027667 -0.02420175 -0.0020108533 0.052898657
0.12936741 -0.06709872 0.04137516 0.032059327 -0.049791053 0.037006423 0.022792662 -0.11969149
0.01861002 -0.09670316 -0.118096866 0.0004174534 0.037613086 0.0535297 0.11188982 0.106414385
-0.049709916 -0.071566656 -0.061890524 -0.07954423 0.097754486 -0.043396026 0.115863316 -0.03285876
-0.0343601 -0.07526883 0.06216954 -0.0563224 -0.013674462 -0.027577143 0.056902617 -0.036438003
0.029918775 0.066617 4.4723765e-05 -0.09064227 -0.1103041 0.09576804 -0.06369768 -0.003961525
0.034670163 -0.07117131 -0.085814334 0.10030053 0.09189523 0.012847407 0.104610115 -0.013219301
-0.07499408 0.025237653 0.04097478 -0.09132951 0.06071366 0.08906833 0.10816978 -0.07126992
0.053951185 -0.09575688 0.01726551 -0.06596585 -0.102273695 0.04872725 0.01864902 0.086564615
-0.11347977 0.10778783 -0.034991477 0.0016185348 -0.030078473 0.08239575 0.114492364 0.08552048

hidden2_Y1.bias f4 [200]
00000000: 5f15 3dbd 12b9 6cbd 0e5f 8fbc 991a 883c
00000010: 6fd2 99bc 17de ce3c 1e39 9dbc 4cb7 003d
00000020: c122 fbbc ca87 573d b496 1bbd 3e23 213c
00000030: bdbe 50bc df78 67bd fd9e 2fbd 5113 43bd
00000040: e2f5 f8bb b094 1a3c fb74 65bd be29 133d
00000050: 02a5 7dbb ba2a 813d bd10 133d 5a11 0bbd
00000060: 4766 6ebd ea09 443d 2199 6abd ea81 483d
00000070: 0740 6f3d 6c8b 52bd 25eb 3d3d 9818 31bd
00000080: cd90 463d aafd 893d e37b 503d c310 3f3a
00000090: 748c 033c 7894 383d 373a 8c3d 2606 52bd
000000a0: 2ee2 5c3c cc57 2bbd 079e 513d e440 d43c
000000b0: 2b44 fcbc 3566 b1bb 07c4 14bc 4580 073d
000000c0: 6f64 cc3c ec5e 673d 8563 0a3d 266d f4bc
000000d0: a25f 5bbd 3f33 a33c 2271 a3bb 6f71 82bd
000000e0: 3bd6 48bc 5526 103d e623 8f3d 3284 a23b
000000f0: a4d9 493d 293e 103d 65ef 213d 89a6 803d
00000100: 6310 223d de5e ac3c f45c 76bd 6694 8a3b
00000110: 062a 913d d37b 9d3b 460f 0ebc 487a 78bb
00000120: e312 ffbc 37e0 b9bc bd89 373d 8833 793d
00000130: b8cd 913d 278f 72bd c648 bbbc 24da 1ebd
00000140: 492b f83c cadd 593c 8624 893d 3544 993c
00000150: 2ce0 3dbc 97e6 bb3c 2f44 d33c a0dd d5bc
00000160: a449 f13b a368 39bc ce81 003c e59f 8abd
00000170: cb41 553d 81b9 2d3d cd05 86bd 786d dc3c
00000180: 8287 1d3d 4987 903c 1ef2 183d e1e7 c2bc
00000190: 3500 783d 42ec 69bd c9df 50bd e586 7e3d
000001a0: 34d0 233a 8eff 253d 5225 783d ac88 8f3d
000001b0: fd27 843d c763 9a3c 20af c1bc 03de 0c3c
000001c0: 4add 62bd a580 a6bd 924c 983c e001 9f3c
000001d0: 4803 7d3c a842 803d b0c0 49bd 0ee6 79bd
000001e0: eed1 833d 1193 ec3c 28cc 84bd 41e0 83bd
000001f0: b78a 16bd 356e 58bc 29a5 6fbd 687b 88bd
00000200: 2c80 473d 0c2f ec3c da85 60bd 0934 f83c
00000210: abf4 38bc aab4 26bd f357 943d fb1f 3f3c
00000220: fc5e 7fbd 46fd 943d e04b db3c 93c7 45bd
00000230: 902d a83c 9a87 d53c 567b 573d 5b1e 3fbb
00000240: 8d83 d23c 380c 8c3d c88f 56bd c9bb a43c
00000250: 296f 1bbd d679 443d 5012 0dbd f666 0d3d
00000260: f9e8 0ebd 6324 40bd acf8 2d3d d973 0fbd
00000270: f20a 19bd b8b6 203d 3a0e 233d 41ce a33d
00000280: 0013 663c bb77 8a3a e10d 6ebd e161 8bbc
00000290: a4dc 8cbd 0cd2 29bd 334d 90bd ff10 85bc
000002a0: 1998 473c a5ca 8d3c e5c7 583b dead 92bd
000002b0: 62c8 1bbd ef07 a3bc 7ad7 4a3d 18ce 81bd
000002c0: 907e cdbc 7512 1dbd 9a4e ed3c b36d c53c
000002d0: 359a 813d 8201 9ebc 4015 893d 4f07 cd3b
000002e0: edc0 5b3d b6b2 773d 1ce9 bbbc 311a 313d
000002f0: ce12 25bc bd5d 843d 1ba1 33bd b229 07bd
00000300: 570a 44bb 31f9 eebc 73ac 833d 46aa cbbb
00000310: e571 20bd 5e0e e0bc 43ae e8bb 39cd 453c
-0.04616296 -0.057793684 -0.01750138 0.016614245 -0.0187771 0.025252385 -0.019192275 0.031424806
-0.03065622 0.052619733 -0.03798552 0.009835063 -0.012740788 -0.056511756 -0.042876232 -0.047625843
-0.007597671 0.009434864 -0.056019764 0.03592848 -0.0038703089 0.063069776 0.035904635 -0.033952095
-0.058203008 0.047861017 -0.05727494 0.04895202 0.05841067 -0.051402494 0.04636683 -0.043236345
0.048477937 0.06737836 0.050899398 0.00072885695 0.008029092 0.045063466 0.06847041 -0.051275395
0.01348166 -0.041831776 0.051176097 0.025909849 -0.030794224 -0.0054137954 -0.00907994 0.03308131
0.024950234 0.05648701 0.033786315 -0.029837202 -0.053558 0.019921897 -0.0049878517 -0.06369292
-0.012258108 0.035192806 0.06989269 0.0049596066 0.049279824 0.03521553 0.039534945 0.06281764
0.03956641 0.02104133 -0.06014724 0.0042291163 0.070880935 0.0048060208 -0.008670634 -0.0037914682
-0.031136936 -0.022689922 0.04480909 0.06084016 0.07119316 -0.059218552 -0.02286185 -0.038782254
0.030294077 0.013297508 0.066964194 0.018709281 -0.011589091 0.022937102 0.025789348 -0.026106656
0.007363515 -0.011316451 0.007843448 -0.06768779 0.0520647 0.04241324 -0.06544075 0.026907668
0.03845931 0.017642634 0.037340276 -0.02379221 0.060547072 -0.05711008 -0.05099467 0.062140364
0.0006248981 0.04052692 0.060582466 0.0700849 0.0645294 0.018846406 -0.023643076 0.008597854
-0.05538682 -0.08130006 0.0185912 0.019410074 0.015442677 0.06262714 -0.049256027 -0.061010413
0.06436525 0.02887872 -0.06484252 -0.064392574 -0.036753383 -0.013209869 -0.05850712 -0.06664163
0.04870622 0.028831027 -0.05481515 0.03029825 -0.011288802 -0.04069964 0.072433375 0.01166534
-0.062346444 0.072748706 0.026769578 -0.048286032 0.020529538 0.026065636 0.052607857 -0.002916238
0.025697494 0.06838268 -0.052383214 0.020109074 -0.037947807 0.047967754 -0.034441292 0.03452202
-0.03489015 -0.0469097 0.04247348 -0.03502259 -0.037363954 0.039236754 0.03980849 0.07998324
0.014042616 0.0010564247 -0.058118705 -0.017014446 -0.06878021 -0.041460082 -0.070459746 -0.016243456
0.012182259 0.017308543 0.003307813 -0.07162069 -0.038032897 -0.019901244 0.0495219 -0.063381374
-0.025084764 -0.03834768 0.028968144 0.02410016 0.06328241 -0.019287828 0.06693506 0.006256975
0.053650785 0.060473166 -0.022938304 0.04323787 -0.010075284 0.06463192 -0.043854814 -0.032998748
-0.002991339 -0.029171558 0.064293765 -0.0062153665 -0.03917112 -0.0273506 -0.0071008517 0.012072855
