Results/Models/LR_DCN_model_iter_id_9_epoch_100_lr_0.0001.pth (torch, 828130 bytes, 16 tensors)

shared1.weight f4 [200, 17]
00000000: 16ec 24be 7796 323d 0e1e 1dbe 57fc 8cbd
00000010: 853d 71bd 41dc 873d 5414 403e e31f 85bd
00000020: d094 f8bd 4573 26bc bb96 053e 245d 813d
00000030: 027f 6a3d c32f ebba aeac 6e3d b4c4 623c
00000040: fee6 00be 4a9d 843d 2fd9 6cbd 4e4a 5abd
00000050: fc49 6c39 1609 c2bd b400 b33d fda6 c1bc
00000060: 2cbf 263e 6d28 033d 472a 3abd 62ec 793d
00000070: ea6c 7ebd d16c 07bc 7472 93bd 91c6 e5bd
00000080: 2346 abbd 75e5 0bbe e20d 42bd 0bbc 4bbd
00000090: cdb6 d43d 525c 023e c4f4 6dbc 797c 97bd
000000a0: 7cc8 eb3d b0f6 e93d 38fe 27be f590 663d
000000b0: 090b 08bd 3a05 3abe 82a6 76bd 9b72 223e
000000c0: 23a9 57be 1e23 433e 0832 823d 66f8 fbbd
000000d0: fa60 ecbd d101 8c3b bb98 3cbd 5d7d 10be
000000e0: 5e1f da3b 31e4 1e3e 6273 5d3c 22f3 103e
000000f0: 2378 cb3d 8ab2 0b3e 8b53 393e 82f1 ebbd
00000100: 07df 0b3e 1bf8 013e bfb0 9cbd dc00 2e3d
00000110: bd55 8cbb 0c7a e9bb d983 1f3e 2ab4 ebbd
00000120: a21c bfbd f987 b33a edcf a3bd b74b a33d
00000130: b353 fcbd 76fb afbd 757f 66bd 8c13 9c3c
00000140: 5cd6 92bd b19e 413c e34a 163e c93e 8a3d
00000150: 15b7 3cbd 14d2 f4bd 8e4c e63d 6f49 99bd
00000160: 3c7b 25bd 3646 9bbd 4f9d bc3c 27d5 c7bc
00000170: 5c4b e03d ce7b ff3d 81bb 9c3d 61e7 7dbd
00000180: a6e1 48bd 1ebe 39be 43ac edbc 7845 84be
00000190: c0f8 4d3d d345 20be f64e 55bc 0735 79bd
000001a0: 462e 483e a39d ee3d ed96 0fbe 23e7 143e
000001b0: 3e3e 09be 1a8c 3abe 58da 033e 9750 7b3c
000001c0: 533c d2bd 4d10 b23c e607 9d3d ce4b 95bd
000001d0: 8a42 89bd b41b 6f3c 962a b9bd cafc 8fbd
000001e0: 577e ab3d 2860 b0bc 0fb5 993d 2119 06be
000001f0: 91e5 8cbc 761e f03c 47b2 043e 7822 dfbc
00000200: 334a 11be adaa 25bc 69e0 863d b7b8 c4bd
00000210: 5bc8 053c 22b1 d03d 63ed c4bd 608e 883e
00000220: 90e0 f7bc 1199 ca3d 5436 fc3d effe 1c3e
00000230: 9512 6bbc c8da 25be ac5a 4b3c 5a32 013e
00000240: 9d78 e8bc 0675 063e 633f 62bd f1a3 b3bc
00000250: a7c4 61bd 3d26 22bd 4d65 32be c187 fb3c
00000260: 3b66 403e 6f0b acbb 9aff 9d3d 3c58 0cbd
00000270: 1563 e23d 83a3 adbd 48fa 5abe b4b8 9fbd
00000280: 6495 333b 3d5c c6bd dd4f 6e3d 1378 1bbe
00000290: 8092 68bc 0556 58bd 96a9 dbbd 62bc 9cbd
000002a0: dc89 e93d b7e3 3f3e 8b5f 023e 5bd2 42bd
000002b0: 2411 28be e898 46bd 0295 103e 34d6 8abc
000002c0: 5429 433d d621 0d3e 993b 593c 7548 d13a
000002d0: 0851 c6bd 820a d53d 428c 76bd e298 2ebe
000002e0: e1e5 50be 7ff3 6e3d bc40 92bd 1ea3 6c3d
000002f0: 7303 d7bd 01ef 46be 1af0 3d3e e12a 073d
00000300: 0912 febd 6cfc c2bd 7b9a ecbd ad4c f3bd
00000310: f685 8abd 5c69 3f3d f5a5 af3c 40ce 683d
00000320: 3fdc 1dbd 3874 ad3d 93ae 813d 80d8 a13e
00000330: 648a 9e3c 5104 1a3d 65f4 493d 12ad 84be
00000340: 9310 31bd f424 f33d 7516 a9bd e613 633d
00000350: 7e9f b63d 10d9 a3bd 36c6 873d 5bb4 063e
00000360: d810 6c3e 315d 283d f027 3c3e 2836 c53d
00000370: 2f64 46be 3448 d2bb 6313 6bbd 468d 0bbe
00000380: 07a1 d5bd 1628 a2bc 3eda c7bd 8ecb 97bd
00000390: 54b1 cabd d340 923d ffeb 11bd f4e2 bbbc
000003a0: bb96 5cbd 1d1f e23d f888 fe3b 1338 da3d
000003b0: dede a53d 9f3b 193e b541 fbbc 676e ebbd
000003c0: 2a2b a63d cf75 13be c174 c4bd 1eae 0dbe
000003d0: 7cfa 3cbc 4872 2dbe 9b25 b4bc bc6a d53d
000003e0: eb2a 39bb be11 a8bd e6cf 9b3b 0d40 a53d
000003f0: 0136 8cbb 2e5b afbd cdc7 063e 0af4 183d
-0.16105685 0.043600526 -0.15343496 -0.068840675 -0.05889656 0.06633807 0.18757755 -0.065002225
-0.12137759 -0.010159318 0.1304578 0.06316593 0.05725003 -0.0017943311 0.05827015 0.013840843
-0.12588117 0.06475313 -0.05782431 -0.05329352 0.00022534275 -0.09474389 0.087403685 -0.023639197
0.16283864 0.032020975 -0.045450475 0.061016448 -0.062115587 -0.00826569 -0.071995646 -0.11219514
-0.08362987 -0.1366175 -0.04737652 -0.04973988 0.10386429 0.1273053 -0.014523689 -0.07396788
0.11512849 0.11424005 -0.1640557 0.056290586 -0.03321365 -0.18166056 -0.060217388 0.15864031
-0.21060614 0.19056365 0.06357199 -0.123032376 -0.11541934 0.0042726775 -0.046044093 -0.14110322
0.0066565713 0.15516736 0.013516279 0.14155248 0.09935024 0.13642326 0.18098275 -0.11520673
0.13659297 0.12692301 -0.07650899 0.04248129 -0.0042826817 -0.007125145 0.1557764 -0.11508973
-0.09331633 0.0013697139 -0.07998643 0.07973426 -0.12320652 -0.08592884 -0.056273896 0.01905229
-0.07169792 0.01181762 0.14677005 0.067502566 -0.046073038 -0.11954132 0.112450704 -0.074847095
-0.04040073 -0.07581751 0.02302423 -0.024393631 0.10951874 0.12474786 0.07652951 -0.06198824
-0.04904332 -0.1813893 -0.029012805 -0.2583425 0.050286055 -0.15651636 -0.013019314 -0.060841586
0.19548902 0.116511606 -0.14022417 0.14541297 -0.1340265 -0.18217507 0.1287626 0.015339038
-0.10265412 0.021736288 0.07667522 -0.07289849 -0.067021444 0.014594007 -0.09041326 -0.070306376
0.08373707 -0.021530226 0.07505237 -0.13095523 -0.01719931 0.0293114 0.12958632 -0.027238116
-0.14188461 -0.010111493 0.065857716 -0.09605544 0.008165444 0.101900354 -0.096155904 0.26671124
-0.030258447 0.09892476 0.1231505 0.15331624 -0.014347692 -0.1619674 0.012411755 0.12616864
-0.028377825 0.13130578 -0.05523623 -0.02192876 -0.055119183 -0.039587248 -0.17421456 0.030704381
0.18788998 -0.0052503864 0.07714768 -0.034263834 0.11054055 -0.08478453 -0.21384537 -0.07798901
0.0027402276 -0.09685562 0.058181632 -0.15182523 -0.014195085 -0.05281641 -0.10725705 -0.07653119
0.11403248 0.1873921 0.12731759 -0.04756389 -0.16412789 -0.048485667 0.14119342 -0.016947843
0.047646835 0.13782439 0.013258838 0.0015967028 -0.09683424 0.10402395 -0.060192354 -0.17050508
-0.20400192 0.058337685 -0.07141253 0.05777275 -0.10498705 -0.1942711 0.18548623 0.032999877
-0.12405784 -0.09520802 -0.11552902 -0.11879859 -0.06763832 0.046731338 0.02144144 0.05683732
-0.03854012 0.084694326 0.063321255 0.3161049 0.0193531 0.037601773 0.04930534 -0.25913292
-0.043228697 0.118722826 -0.082562365 0.0554389 0.089171395 -0.08000386 0.066296026 0.13154738
0.230533 0.0411045 0.1837461 0.0962947 -0.19374155 -0.0064172987 -0.057391535 -0.1362811
-0.10431104 -0.019794505 -0.09758423 -0.07411872 -0.09897104 0.071412705 -0.035625454 -0.022935368
-0.053854685 0.11041091 0.007767793 0.106552266 0.08099149 0.1496415 -0.03067098 -0.11495667
0.08113702 -0.14400409 -0.095925815 -0.13835952 -0.0115343295 -0.16938126 -0.021990588 0.104207486
-0.002825434 -0.08206509 0.004755008 0.08068857 -0.0042788987 -0.08562313 0.13162155 0.03734211

shared1.bias f4 [200]
00000000: 791e d8bb e95d 453e 506a d93d ece0 a53d
00000010: 0c26 84bc edde c03d 3ea0 35bd fce3 04be
00000020: 89be b73d a0fb 233e 9763 343e 2d6f 5dbd
00000030: 7ada bb3d 5eb3 d7bd b183 40be 7d52 2cbb
00000040: e365 88bd 13fe 873d 025d 53bc bcbc 403e
00000050: 0ef9 2ebe 93e8 0bbe 92ef 7a3d db62 023e
00000060: e3cf e23c 5441 92bd 2913 0dbe 6312 cb3d
00000070: 8d15 2ebe 4d34 0f3e c329 babd cf06 dd3c
00000080: 8279 203d 2edc 29bd da6e 183e 1bbd 0c3e
00000090: f1b3 29be 2d20 333e 39e5 0dbe 7a50 1e3e
000000a0: 0a12 19be b809 653b b659 9a3d 12be 3dbe
000000b0: 68d3 ddbd c276 553d 859e b2bd 8af6 b93c
000000c0: 5ec3 7abe 6893 673e 4477 d83d 59f9 d5bb
000000d0: ac58 24be 1942 68be d3c1 64be d089 3fb8
000000e0: 9abf 60be 10fa 4d3e 83a6 2a3e 0cc1 e9bd
000000f0: f249 0f3d 7b27 303e 0f2f d2bb 5e92 5abe
00000100: 7c6d 973d ebb0 493d ab6d 3f3e 5107 c3bd
00000110: c428 013e bf5b bc3d 57be d93d 9e39 c33c
00000120: dadc 64be 664e 3abc f137 f4bd 8e6b 15be
00000130: 01b0 c33d 3d96 a8bd 5661 b1bd 1769 703d
00000140: f22d 12be 0eaf 5a3c 7e8b 49be ef09 373e
00000150: 0897 3abe 17e8 143d f6b4 5b3e 790e 48be
00000160: a519 70be d3c1 57bd 1e30 adbd 3584 043e
00000170: 1e21 2bbe 2c53 02be 1d0c 3dba 9a18 a1bd
00000180: b2d6 44be e665 c13c 409a 243e 4665 f53d
00000190: 611f 86be 9714 5ebd 3c54 0dbe a577 663c
000001a0: 0785 0fbe ddbd 2b3d ccf7 27bc b978 13be
000001b0: 302a 99bd 6224 3b3e fe4a 133d 29ec f8bd
000001c0: 4c86 3c3e 7a2a 60be e806 1cbe 7551 683d
000001d0: 2fec 1cbd 4ec2 edbc 4764 8c3c d1b5 1ebe
000001e0: 8f66 4fbe 2c63 e9bd 8175 7ebd 2440 31be
000001f0: 8429 523e 5b46 0d3d 759c 1cbe 5de1 1dbe
00000200: bf2b 88be f319 053e a3f7 07be 7bf8 5ebd
00000210: 6c62 bfbb cc2e 37be 1093 023e b321 e83d
00000220: 58d0 76be 6577 07be ff77 54bd 3f33 2cbe
00000230: 8b9b c23d ea6e fc3b 8a99 64bd 04a0 373e
00000240: fcfd a43c 83c0 8fbe 9b41 23be b165 1bbd
00000250: cf9c 70bd 021d 713e 0edf a63d 66f1 ae3d
00000260: 8c9d 88be 679a b7bb 5032 d9bd bd8b 6f3c
00000270: aef0 50be 78ee edbb 1471 193e 7d8a f2bd
00000280: 2192 dfbc 984b 3bbe 89d0 72bd 6323 a3bd
00000290: 125a 5d3d ee6c bf3d 7101 23be 6f26 0dbe
000002a0: 5696 59bd 0222 95bc 000a 4ebd a6a3 ebbd
000002b0: 7c6e 593d 2826 633e a1d4 4ebd 0856 e13d
000002c0: 1073 ce3d 6b0e 5ebe 4d01 67be d32a 8a3d
000002d0: 7d6a a9bd 2e96 7fbe afc7 60be ea7f a73d
000002e0: ab67 58bd a553 3cbd 243a 48be 016a 653c
000002f0: 26e1 17be 7784 a13d 8748 213e 073c 10be
00000300: 3508 34be 26a2 50be c195 043e 9a68 39be
00000310: a0f4 cebd 9305 15be 24dd 4f3e a9fb 66be
-0.0065954295 0.19274105 0.106159806 0.08099541 -0.016131423 0.0941752 -0.044342272 -0.12977594
0.089718886 0.16013956 0.17616116 -0.054061104 0.091725305 -0.105322585 -0.18800236 -0.0026294284
-0.06660058 0.06640258 -0.012900593 0.18821996 -0.17087194 -0.13662939 0.06126363 0.12733023
0.027687019 -0.071413666 -0.1377684 0.09915616 -0.17000408 0.13984795 -0.09089997 0.026980786
0.03917838 -0.041469745 0.14886037 0.13744013 -0.16572548 0.17492743 -0.13856973 0.15460387
-0.14948288 0.003494842 0.07536642 -0.18529537 -0.10831338 0.05211521 -0.087216415 0.022700567
-0.24488589 0.22614825 0.10569623 -0.0065299687 -0.1604945 -0.22681464 -0.22339563 -4.5666297e-05
-0.2194809 0.20114923 0.16665082 -0.11413774 0.03498263 0.1720256 -0.006414301 -0.21344897
0.07393929 0.049240988 0.18694179 -0.0952288 0.12613207 0.09197187 0.106320076 0.023831185
-0.22349873 -0.011371231 -0.119247325 -0.1459181 0.095550545 -0.08231781 -0.086611435 0.05869397
-0.14275339 0.0133474 -0.19682118 0.17874883 -0.18221676 0.03635415 0.2145575 -0.19536771
-0.23447283 -0.05267508 -0.08456443 0.12941058 -0.16711852 -0.1272704 -0.0007211583 -0.078660205
-0.19222525 0.02360816 0.16074467 0.11982207 -0.26195815 -0.054218855 -0.13801664 0.014066611
-0.1401559 0.041929115 -0.0102519505 -0.14401521 -0.0747875 0.18275598 0.03596019 -0.12154419
0.18410605 -0.21891204 -0.1523701 0.05671831 -0.03831118 -0.029023316 0.01713766 -0.15499045
-0.20253967 -0.11395869 -0.06212378 -0.17309624 0.2052365 0.034490924 -0.15294059 -0.15418
-0.26595876 0.1299818 -0.1327806 -0.05443619 -0.00584059 -0.17888945 0.12751412 0.113345526
-0.24102914 -0.13229139 -0.05187225 -0.16816424 0.09502324 0.0077036517 -0.05581049 0.17932135
0.02014064 -0.28076562 -0.15942995 -0.037938777 -0.058743294 0.23546222 0.08148013 0.08542137
-0.266827 -0.005603123 -0.106052995 0.014620719 -0.20404312 -0.0072610937 0.14984542 -0.11842821
-0.02729136 -0.18290555 -0.059280906 -0.07965734 0.054040976 0.093469486 -0.15918519 -0.13784193
-0.053121887 -0.018204693 -0.050302505 -0.11505823 0.05308388 0.22182524 -0.050495747 0.11002737
0.1008054 -0.21685188 -0.2255909 0.06746449 -0.08272264 -0.24959633 -0.21951173 0.081786945
-0.05283324 -0.045978207 -0.19553429 0.014002324 -0.14831981 0.07886594 0.15750323 -0.14085399
-0.17581256 -0.20374355 0.12947752 -0.18106309 -0.10105252 -0.14552908 0.20299202 -0.22556938

shared2.weight f4 [200, 200]
00000000: 6fd8 2d3d 2607 c63c da06 a93d 28e9 f2bc
00000010: b04d eabd 1ca5 e13d b097 20be cf59 3f3d
00000020: 4809 883d 7a14 523e 9c37 ba3d c1bb 60bc
00000030: 9d83 cbbd ae3f d5bd 8c9c 08bd adf5 90bc
00000040: 7776 adbd f19b cb3a ed74 71bd 5167 853d
00000050: d7c1 073e 0dc1 b2bd 0adb 133d 83b1 9bbd
00000060: 359c 223d 5849 023e 5b35 953c a9ae 6f3c
00000070: 7deb f83c 48fc cf3c 1a5e b33d b6e6 b0bd
00000080: 57f0 a93c 2bcd b33c b698 17bd 45ee c83d
00000090: 5541 ffbb 5883 c13d 9ec8 d53d a8f7 dd3d
000000a0: 0feb f63d 23f1 86bc 5765 223d 8854 ddbd
000000b0: a6cd 14ba fa88 593e f21e da3c 3ff2 ecbd
000000c0: 3184 99bb d43a 823d afb7 0abd b26b 9e3d
000000d0: 7b57 813d 2a74 033e 08d9 bc3c 7025 b03d
000000e0: cc8d 0d3e 20ee d2bc cb32 863b ac0d eebd
000000f0: 9a9d 193c 460f 033e 1947 23bd 58f5 bcbd
00000100: 7386 9fba cc54 debd d04f bd3d e521 a23d
00000110: 91d7 003e 9cdd a33d 8224 c2bd 76f9 10be
00000120: f264 04be 5f9e 61bd 23cc 4cbd 39cd a63d
00000130: 448f b3bc 44cd 9ebc 4bfe babc 4933 62bd
00000140: a9a8 153e 5b66 95bd e70b b13d ec63 893d
00000150: a32c ffbc 2a08 1cbd aad2 713d 7e98 093e
00000160: d16f 9c3c 54da 813d 7a76 583d f718 f13c
00000170: e543 db3d 73ec 28bd 06ff f43d a117 093d
00000180: 0be3 e33c 6462 cd3d 5c57 77bd 2f01 003e
00000190: 3a9d d83d 86f9 1dbd b9c2 273e ea73 8e3c
000001a0: 110b e6bd 14c5 85bd 1c9e 9bbc e0ab 2f3d
000001b0: a205 0d3e f8d0 95bd 564a e8ba 2dd7 0f3e
000001c0: 73c3 d43d 52aa 93bd f45e 9abd b51b d23d
000001d0: f1b9 583b 3bfd c03d 79ea f43b c5c6 273e
000001e0: 3e0f 413d 7322 083e edc8 843c 35aa 043d
000001f0: c999 c5bd 7005 b6bc 0726 57bd 682e afbc
00000200: 7f65 14be e96e b9bd c8e3 3dbe afcf 953b
00000210: fe71 5cbc 2fb7 ed3d 4523 ccbc 88cb 2d3d
00000220: 181a b93a 69d5 05be 7e19 853d d894 bcbd
00000230: 1123 c33d 722e aa3d 487a d8bc 32a4 73bd
00000240: 7f72 bb3d 6565 c33d 2e2f 273d 6d79 c8bd
00000250: 48ee 873d e2bf 503d 18be bbbc 12f2 7dbc
00000260: 9305 bdbd b59c 91bc eab7 ed3a 9489 93bd
00000270: a86b 1b3d 7716 9cbd 0271 babc f86d 2bbe
00000280: 0eae 5b3d fbf8 7c3d a424 463d 4869 c4bc
00000290: 3ff4 b03d c332 16be 6c04 cd3c 8d02 4bbb
000002a0: 4e11 d9bc 4be5 f23b cc26 aebc 4e83 373d
000002b0: f811 d1bc 0195 fc3d 3186 dc3c 66b9 fd3d
000002c0: 4c0e 58bd 9eda 343d 0eb7 1c3e ddc4 8c3d
000002d0: bf6b c83c ca2a 8dbd 7762 babb 54e3 743d
000002e0: 8b0a b73d ef35 12be 10f2 a63d d69c 3e3d
000002f0: bc72 cc3d 0792 d23d 8ce0 ac3d 8094 60bc
00000300: a92e 583d 846a 053c 9f06 3c3d 52c9 363d
00000310: 90e8 733d dd23 7a3d 9a87 c8bd d3e7 833e
00000320: 89b3 e7bc fdb6 c2bc 9901 043e c2cd 9cbd
00000330: 5128 b1bd c3c5 b93d 085d 0c3d d6fb a5bd
00000340: 61a3 92bc fc0d a1bd bcc1 8a3d 9b80 233d
00000350: ad91 103d d695 72bd d727 bcbd 4be5 9fbd
00000360: 3cb9 c5bd d717 04be e183 65bc 4e4c bd3c
00000370: 7b00 ad3c 5315 02bd d55a 0dbd 730a e83d
00000380: 8c77 b9bd b2de 293e 420e 893b cb7d c53d
00000390: 3bad 973d b953 51bc 0470 0f3e 085b 03bd
000003a0: e74d 1b3e 5a8f 623d 9d9a 1e3e 555a 87bd
000003b0: 2cac 61ba 171d 963d dd04 783c 3b7a 823d
000003c0: d2c5 e33d 0f44 773d 3d31 913c 6802 1fbe
000003d0: 7f56 313e 3d23 3abd e36f 363d cd9f a93c
000003e0: f0b6 cebd e08a a83d 55fa c8bc 2b26 643d
000003f0: 1f1f 8c3d 880f ea3d 7334 6d3d f29e 69bd
0.042442735 0.02417333 0.0825326 -0.029652193 -0.11440599 0.1101782 -0.15682864 0.046716508
0.06642395 0.20515624 0.09092638 -0.013716639 -0.099372126 -0.104125366 -0.03335242 -0.017695272
-0.08469861 0.0015534145 -0.0589494 0.06513847 0.13257538 -0.08728228 0.036097564 -0.07602217
0.039699752 0.12723291 0.018213918 0.014629045 0.030385727 0.025388852 0.08758183 -0.086377546
0.020744486 0.021948418 -0.03701087 0.09811071 -0.0077897706 0.0944888 0.10438655 0.10838252
0.120565526 -0.016472405 0.039647426 -0.10807139 -0.0005676396 0.21243659 0.026626084 -0.11569642
-0.004684948 0.06358877 -0.03386658 0.07735385 0.06315514 0.12837282 0.023052707 0.08600891
0.13823622 -0.025748312 0.0040954105 -0.116237015 0.009375954 0.12798795 -0.039862726 -0.09226483
-0.0012170806 -0.108560175 0.09243739 0.07916621 0.12582232 0.08001253 -0.094796196 -0.14157662
-0.12929133 -0.055082675 -0.049999367 0.08144612 -0.0219189 -0.019384988 -0.022826334 -0.05522469
0.1461512 -0.072949134 0.08644848 0.06708512 -0.031149214 -0.038093723 0.059038796 0.13437077
0.019096287 0.06340471 0.052847363 0.02943085 0.10706309 -0.04124112 0.11962704 0.0334698
0.027818223 0.10028532 -0.060386047 0.12500452 0.105768636 -0.038568042 0.16382875 0.017389257
-0.112325795 -0.0653173 -0.01899629 0.042888522 0.1377168 -0.07315248 -0.0017722349 0.14046927
0.103888415 -0.072102204 -0.07537642 0.10259191 0.0033069814 0.094233 0.0074742404 0.16384418
0.047133677 0.13294391 0.01620909 0.032388885 -0.09648473 -0.02221939 -0.0525265 -0.021384433
-0.14491843 -0.090543576 -0.18543923 0.004571877 -0.013454912 0.11607205 -0.024919162 0.04243043
0.0014122156 -0.13069691 0.06499003 -0.09208077 0.09528173 0.0830964 -0.026425496 -0.05948276
0.09152698 0.09540824 0.04081648 -0.09788785 0.066372454 0.050964244 -0.022917792 -0.015499609
-0.09229579 -0.017774919 0.0018136476 -0.07203975 0.037944466 -0.07621472 -0.022758964 -0.16741168
0.05363279 0.061760884 0.048374787 -0.023975983 0.08640336 -0.14667802 0.025026523 -0.0030976862
-0.02649751 0.0074125878 -0.021258734 0.044802956 -0.025521263 0.12333108 0.026919456 0.123888776
-0.05274801 0.044153802 0.15304205 0.06873486 0.02446544 -0.06892927 -0.0056880075 0.05978711
0.08937558 -0.14278387 0.081516385 0.04653629 0.09982821 0.10281759 0.084412664 -0.01370728
0.052778874 0.008143071 0.045904752 0.044625588 0.05954796 0.06106936 -0.09791489 0.25762805
-0.028283851 -0.023768896 0.12891234 -0.07656433 -0.08650268 0.09070923 0.03426841 -0.081046745
-0.01790017 -0.078639954 0.06775233 0.03991757 0.035295177 -0.059224926 -0.09187286 -0.07807406
-0.09654471 -0.12899719 -0.014008493 0.023107674 0.021118393 -0.031758618 -0.034510452 0.11330118
-0.09056005 0.16588858 0.004182608 0.09643134 0.07406088 -0.012776309 0.14007574 -0.032069236
0.15166436 0.055312492 0.15488668 -0.06609026 -0.00086087245 0.07329767 0.015137878 0.0637097
0.111217156 0.06036764 0.017723674 -0.15528262 0.17318152 -0.045443762 0.044540297 0.020706082
-0.10093486 0.08229613 -0.02453343 0.055700462 0.068418734 0.114287436 0.057911348 -0.057036348

shared2.bias f4 [200]
00000000: a499 ed3b 6a57 6c3d 08e8 96bd b570 9abd
00000010: a347 e4bb af75 77bd 5b5c a1bc 346e 6abd
00000020: 100e 143d 230a 25bd 4e6b 48bd 2da1 68bd
00000030: 7442 103b c83c 5c3d 999f 79bb 43a2 d2bc
00000040: 3af9 af3d c943 07bd 3a1d ebb8 46f6 a8bd
00000050: e6e1 6fbd 8179 cebd 62a0 eabd 286d b9bd
00000060: 63fc 083d 0b9d dcbd 84af f33c 0cac a8bc
00000070: c89c 143d a484 09bd a914 463d e385 06bd
00000080: 8864 94bd 2a08 cf3b fae6 45bd adfd 05bd
00000090: 72a1 293d 134f 2e3c 517e a3bd 4a89 44bd
000000a0: 7259 36bc c088 1abb d03a 31bd c83d 783d
000000b0: bae7 343c d302 783d 4a1b c6bb 9d22 a7bd
000000c0: 0104 1bbe de40 15bc cf07 aebd a175 afbb
000000d0: 3d55 6bbd e462 96bd 4f31 b5bc bd03 33bd
000000e0: d99d 59bc b96a 14ba 2576 f1bc fefd 913c
000000f0: f1bd 89bd 63a3 fb3b 512a 4f3c a5e6 133c
00000100: 2af4 adbc 8e34 ac3b eedb 01ba f1f6 8ebd
00000110: 8c76 04be 4c38 d0bc a05f adbc b70f 63bc
00000120: 1ee2 8cbc de40 7639 4b2a 2e3c 1450 92bd
00000130: 717f 37bd 3d52 66bd 51ca 50bd ba51 3e3c
00000140: b5de 4dbd 04e1 883b 9ca7 2b3b 2c64 8cbd
00000150: 1f9c 6e3b eea7 99bd 6e8e cfbd 492a 033d
00000160: 5846 643c 11fe a9bd adf2 13bd 652a afbc
00000170: f46d 68bd 0627 9c3d a76a ed3b d5d0 17bd
00000180: f1c7 e3bc 9976 d4bd 6fbe 803c f0e1 a0bc
00000190: 7963 afbd 8484 873d cc71 94bc 8cb8 7bbd
000001a0: 83e5 b7bd 8880 3dbd 8047 813d f440 6f3d
000001b0: a06e bfbd 0f6c 9f3c cbd7 72bb 45da d2bc
000001c0: 21ff 41bd 3be5 84bc 6c79 8b3d c851 aa3c
000001d0: effb cabb c558 6cbd 5b49 053c 5383 e23c
000001e0: 3f8c abbd ac3e 95bc 4914 96bd 88cc 56bb
000001f0: f8df d9bc 0610 d9bb b5b5 173c 6bc1 db3c
00000200: 7226 0bbe 3e7e 44bd 6f71 463d 484f 0d3d
00000210: a89f edbc 0b18 adbc 0790 09bd bdae ddbc
00000220: b42b 1abc 45e1 14be 8753 cf3b 0efa 04bd
00000230: 2b91 893c bced 03be 3e87 643d 17fa a4bc
00000240: ae0a 57bd c135 643c e47a 09bd 0728 16bd
00000250: 7bf5 74bd 7b98 87bd 21fe 2abd 6d1d cabb
00000260: b7fa 453d 0395 1e3d fb85 aebb 7255 10bd
00000270: 89f0 f83b 21ea 90bd 6425 a9bd 8c01 f0bc
00000280: bec2 f4bd 587e d2bd e342 88bd 2728 0f3d
00000290: bc34 da3c 04f0 aabc bac9 f7b9 49ae b0bd
000002a0: 3f2a 5d3d 691d 1f3c f116 b1bd 3cba a9bd
000002b0: 0f29 513d 0ccb a5bd 8fd5 623d 285f aabb
000002c0: de71 03bc 5086 a5bc 4b6f 233c 6406 e33c
000002d0: ba07 eabb ae6c bdbc 229e dfbd b100 bcbc
000002e0: f12a e3bd f59d adbd e9d2 e5bd 2932 3bbc
000002f0: 025b 5c3b 3b2e ba3d 67a7 90bd 29bf 4dbd
00000300: 985b edbc e999 883b ca78 7c3b 9d7c d5bd
00000310: 2b5a c0bd 6066 383b 8d87 bebd 0840 b3bc
0.0072509814 0.057700552 -0.07368475 -0.075410284 -0.0069665476 -0.060414966 -0.019697359 -0.057234004
0.036146224 -0.04029287 -0.04893046 -0.056794334 0.0022012265 0.053768903 -0.0038089512 -0.025712138
0.08592458 -0.03302363 -0.00011211117 -0.08250098 -0.058565043 -0.10081769 -0.11456372 -0.09054023
0.03344382 -0.10772141 0.029746778 -0.02058985 0.03628233 -0.03357376 0.048359547 -0.032842528
-0.07245737 0.006318112 -0.04831598 -0.032712627 0.041413732 0.01063897 -0.07983077 -0.04798249
-0.011129724 -0.0023580045 -0.04326898 0.060605794 0.011041576 0.06054957 -0.0060457336 -0.08160899
-0.15138246 -0.009109704 -0.08497583 -0.0053545986 -0.057454336 -0.07343081 -0.022118239 -0.043704737
-0.013282263 -0.0005661655 -0.029475281 0.017821308 -0.067256816 0.0076793893 0.012644366 0.009027158
-0.02123459 0.0052552884 -0.00049537315 -0.06980694 -0.12935847 -0.02541747 -0.021163762 -0.013858727
-0.017197665 0.00023484553 0.010630201 -0.0714418 -0.044799272 -0.056230772 -0.050974194 0.011616165
-0.050261218 0.0041772146 0.0026192432 -0.06855044 0.0036408973 -0.07502733 -0.10134588 0.03202275
0.013932787 -0.083004124 -0.036120106 -0.02138252 -0.056745484 0.07624631 0.00724538 -0.037064392
-0.0278053 -0.10374183 0.015715806 -0.019638985 -0.08563895 0.06617072 -0.018120669 -0.061455294
-0.08979323 -0.046265155 0.06312466 0.058411554 -0.09347272 0.019460706 -0.0037054892 -0.025738845
-0.04736245 -0.016222587 0.06810269 0.02079095 -0.0061945836 -0.057701845 0.008135165 0.02765051
-0.08376359 -0.01821836 -0.07328088 -0.0032775719 -0.026596054 -0.0066242246 0.009259631 0.026825627
-0.13588884 -0.047971956 0.048448022 0.034499437 -0.029006794 -0.021129629 -0.03358462 -0.02706086
-0.009409834 -0.14539059 0.006327096 -0.032465033 0.016792854 -0.12883657 0.05579304 -0.020138783
-0.05250042 0.013928832 -0.033564463 -0.036659267 -0.05980442 -0.0662088 -0.041746262 -0.0061680586
0.048334803 0.038716327 -0.0053260303 -0.035237737 0.0075970334 -0.070759065 -0.08259085 -0.029297613
-0.119512066 -0.102780044 -0.06653383 0.0349504 0.026636474 -0.020866401 -0.0004726181 -0.08626992
0.053995367 0.009711602 -0.08646954 -0.082874745 0.051064547 -0.08095369 0.055379447 -0.005199332
-0.0080227535 -0.020205647 0.009975265 0.027713008 -0.0071420344 -0.023123112 -0.10918833 -0.022949548
-0.11092175 -0.084773935 -0.112218685 -0.011425533 0.003362358 0.09090849 -0.070631795 -0.050231133
-0.02897434 0.004168738 0.0038524144 -0.10424159 -0.09392198 0.0028137192 -0.09303198 -0.021881118

hidden1_Y1.weight f4 [200, 200]
00000000: 6953 1abd 96f4 4cbb 8baf cd3b 646a 513d
00000010: 87a4 a33c a1f3 a13d 4fa7 d83d 642d c3bd
00000020: 2921 03be 0276 d5bd 21f6 1b3d 6c88 b53c
00000030: f95f 4d3d 8771 d1bc ef87 b2bd d5af bf3c
00000040: 576d 7dbc 0061 933d 40d6 f8bd 1867 fc3b
00000050: 7180 a43d 8eea 1b3b f132 d83d ca6c b0bd
00000060: 9fe3 c73c 4061 793d d5cf be3d f596 8f3d
00000070: 7164 0c3d 7643 0a3e d1c0 03be 605f 46bd
00000080: 34b7 98bd 23c4 a7b8 0711 e6bc 3f35 81bd
00000090: 8c27 cc3d 1ea1 dd3c 49af d8bd 5aa7 60bd
000000a0: 7a79 acbd caf0 48bd 019c 123d 91e8 ca3d
000000b0: 6d0a 863d 7308 b13d 3c51 b7bc db2c 79bd
000000c0: 7c86 4ebd 9cc5 2bbd 61c5 563c f611 923d
000000d0: ec57 ac3c d2ae 333d 9265 31bd 9f87 b9bd
000000e0: 66f0 833d 2ea5 6f3c dcc7 bebd deab 883d
000000f0: 0d83 813d d583 95bd 56fd d2bd e0f9 e4bd
00000100: 60e4 843d afe2 9c3b 1c78 473d d7bd 09bc
00000110: f7f8 4a3d 5c3c 99bd a2f2 c63d 3d25 363d
00000120: 05aa 8c3d 3010 97bd 4124 f63d dfa3 a53b
00000130: 9994 573d 5b4c 8bbb a329 04be 4a82 f53d
00000140: dcb2 1e3e fafc 84bd 3213 98bc ee0a 95bb
00000150: c491 edbc 943a 2fbc 2b8f a03c 0057 1e3c
00000160: b647 8f3d 6f3f 533d ad7f d9bc b015 9abb
00000170: 1e38 49bb f8cf 8bbd e192 c13d 5c89 d33d
00000180: cbd5 dabc 7d86 903c 03d5 ce3b 1c10 34bc
00000190: 6816 5a3d 30ac 27bd 868b e43c b49e 453b
000001a0: f4a3 04bc 0b75 01be 12a6 b63d 330c d2bd
000001b0: 9132 82bd ba49 bdbd d7f5 2b3d 5564 623d
000001c0: 56f2 ccbd 5616 6bbd 3a28 4abd a889 cdbd
000001d0: 99b5 ba3d 1591 933c 5523 b8bc a299 01be
000001e0: e161 9bbd 00f2 023e 3889 7ebd 4c2a ebbc
000001f0: d3cf 57bc 889e 0bbc 02e1 ddbc 1e4a dabc
00000200: 32ce 0a3e 6843 10be c28b fc3c 19f6 a43c
00000210: e86d 893d 2f21 de3d 48c3 f93c 6d8c 423d
00000220: bcca 463d abe5 ce3d 445b 73bd 5db7 1ebd
00000230: 17db 62bd 958e 6f3b bcca cdbd 4e4e d43d
00000240: df4d 23bc 793c 8abd 5f99 ef3c febe cbbd
00000250: 0d1b 9cbd d368 babd 6829 98ba 0aea 783d
00000260: dc9a 9dbb abda 41bd 4256 f639 758e ad3b
00000270: d9af b83d 3d9d 3dbd 0b84 74bd e85f 2dbd
00000280: b8b7 ec3c fb7f 8b3c 3ba8 dd3d c67f d63d
00000290: d484 123d 02d7 d83d ae45 503d 6d3c 3e3d
000002a0: d5a0 75bd 611a bb3c aa05 c7bd 5aba 53bd
000002b0: 0012 613d 0e91 0dbe 2d79 95bb eaad f0bd
000002c0: 1c5c e9bd 56c3 063e 626d de3c 3e9e 76bd
000002d0: d788 833d 39ab d03c 9d59 343d c34b 68bd
000002e0: a2d9 f7bc 2bbb 6d3b 97c6 b83c 600d c7bd
000002f0: 1c55 96bd 87fb 443d 141d 873d 8327 ba3d
00000300: 7840 a63d 9554 2c3d d76d b0bc 2101 d03d
00000310: fd12 b639 8518 c03d 5821 f5bc eafb acbc
00000320: 0c6a 233d d3db b63b c68a 3cbd 5f61 88bd
00000330: 0635 14bb 78c8 e4bd dfd6 923d 5482 6abd
00000340: c424 1dbd f2d5 f9bd 71fe d9bd 73a6 553d
00000350: bcd0 cebd fcac d03c 272f 8dbd dd4e 9a3d
00000360: c81f 113d a64f cdbc 543e 4cbd 84f4 0fbd
00000370: 7790 b9bc f980 90bd 9e9b eeba 689c aabd
00000380: e7d5 aabd eec5 87bd 20ed 46bd 4ae8 93bc
00000390: 24e9 cbbd 4e9d 573c fec8 c0bd e4b7 253d
000003a0: 1588 c9bc dd74 4f3d bc9e 383d 060b 303c
000003b0: ca4a 91bd 54b0 8ebd 21f9 15bd 4406 49bd
000003c0: 5c99 c53d bcfd bbbc 4963 ec3d 9e31 353d
000003d0: afa0 0c3c 5f55 473d b0d3 b93d 935e 30ba
000003e0: c852 2d3c 959c 15be ad75 d43d 2085 ffbb
000003f0: 07da b7bd 82c1 e73d d511 d63c 8f5d 9abd
-0.037677202 -0.0031273714 0.00627703 0.051126853 0.019975914 0.07907797 0.105787866 -0.09530142
-0.12805618 -0.10422899 0.038076524 0.022159778 0.050140355 -0.02556683 -0.087173335 0.023399273
-0.015467963 0.07196236 -0.1215024 0.0077027194 0.08032311 0.0023790929 0.10556591 -0.086145
0.02440053 0.06088376 0.093169846 0.07011215 0.034275476 0.13502297 -0.12866522 -0.0484308
-0.07456818 -7.999714e-05 -0.028084291 -0.06308984 0.099684805 0.027054366 -0.10580308 -0.0548471
-0.08421607 -0.04905776 0.03579331 0.0990764 0.06544957 0.0864419 -0.022377603 -0.060833793
-0.050421223 -0.0419365 0.013108582 0.07132332 0.021038018 0.043867894 -0.043309756 -0.09059071
0.06442337 0.014626784 -0.09315464 0.06673406 0.06323824 -0.073005356 -0.10302226 -0.111804724
0.064888716 0.004787765 0.04869853 -0.008407078 0.049553838 -0.07482216 0.09714247 0.044469107
0.06868366 -0.073761344 0.12018634 0.0050549353 0.05263195 -0.0042510456 -0.12906508 0.11987741
0.15497917 -0.06493564 -0.01856384 -0.004548422 -0.02900017 -0.010695118 0.019599518 0.009664297
0.069961 0.051574167 -0.026550138 -0.0047022924 -0.0030703614 -0.06826776 0.09451843 0.103289336
-0.026713273 0.017642254 0.006312014 -0.010990169 0.053244025 -0.040935695 0.027898561 0.003015441
-0.00809573 -0.12642305 0.08918394 -0.10256233 -0.06357301 -0.09242578 0.041982498 0.055271465
-0.100071594 -0.057394348 -0.04935477 -0.100360215 0.09116668 0.018013516 -0.022477785 -0.12656263
-0.07587028 0.12787628 -0.06214258 -0.028706692 -0.013172108 -0.0085216835 -0.027084831 -0.02664667
0.1355522 -0.14088213 0.03082836 0.02013688 0.06710416 0.10846173 0.030488625 0.0474972
0.048533186 0.101023994 -0.05941321 -0.038749088 -0.05538472 0.0036553491 -0.10048434 0.10366498
-0.009967296 -0.067498155 0.029247938 -0.09948538 -0.07622347 -0.09102025 -0.001160902 0.060770072
-0.0048097204 -0.04732768 0.00046985043 0.005296523 0.09017915 -0.046292532 -0.05969624 -0.04232779
0.028896198 0.0170288 0.10823103 0.104735896 0.035771206 0.105878845 0.0508477 0.046444345
-0.059967835 0.022839727 -0.09717877 -0.05169139 0.054948807 -0.13824865 -0.0045615644 -0.117519215
-0.113945216 0.13160452 0.027151767 -0.060209505 0.064225845 0.02547227 0.044030774 -0.056712877
-0.030255143 0.003627489 0.022555633 -0.09719348 -0.07340452 0.048091438 0.06597343 0.090895675
0.08117765 0.04207285 -0.02153675 0.10156465 0.00034727892 0.09379677 -0.029923126 -0.021116216
0.039896056 0.0055804043 -0.046030782 -0.06659197 -0.0022614612 -0.11171049 0.0716989 -0.057253197
-0.03836514 -0.1219901 -0.10644234 0.05216069 -0.10098407 0.02547311 -0.06893759 0.07534573
0.0354307 -0.025062393 -0.04986413 -0.035145298 -0.022651894 -0.070558496 -0.0018204337 -0.083306134
-0.0834158 -0.06629549 -0.048565984 -0.0180551 -0.099565774 0.013160063 -0.09413336 0.040458575
-0.024601022 0.05064856 0.045073256 0.010744816 -0.07094343 -0.06967226 -0.03661454 -0.04907824
0.096483916 -0.022948138 0.11542375 0.04423677 0.008583232 0.0486654 0.09073579 -0.000672796
0.010578819 -0.14610513 0.103740074 -0.007797852 -0.08977132 0.113162056 0.02613155 -0.07537376

hidden1_Y1.bias f4 [200]
00000000: d76a acbc 6d47 b03d 8f76 7d3d 0ae4 643d
00000010: 6614 2f3c 1072 e4bc 069c 323d 73d0 a23c
00000020: 23bd 0abd 5910 b1bc 04ec d53b 42c0 2c3d
00000030: 13d7 6abd 0ef5 a8bc e1f0 76bc 2e2f 3e3b
00000040: df64 9c3c c053 853d 7ba7 66bd aa49 8b3c
00000050: 02b7 75bd 1294 9ebd fb23 a83a 4116 383d
00000060: ec75 1fbd 5993 5abd c11f b4bb f59c 94bd
00000070: 91e2 81bd 877e bcbc eec3 b4bc 8422 ed3c
00000080: b6a1 8bbc c41b 4ebd bd8a 8bbd 07a4 2f3d
00000090: 0aa7 81bd 0d48 d3ba 5d4d e43c 8245 51bd
000000a0: d9c8 dabc 7743 5dbd 6837 d13c db3b 693d
000000b0: a133 4e3c 5169 ef3c df6e d1bb ad5d 653d
000000c0: 4fd3 fd3c 06b3 90bd 60e9 69bd 9602 0a3c
000000d0: ea20 a4bc cd84 17bc 58e5 c63c d5a7 1cbd
000000e0: d6ee 90bc 3e7e 1ebb 9be8 883d b53f 0f3c
000000f0: 121f f0bc 4868 52bd 24f4 bcbb 4fc6 92bc
00000100: 40e9 9cbc e1e7 2e3d b4f5 e23c 00d4 8d3c
00000110: 5f63 e33c 4912 31bd 1092 e7bc 0d9d 25bd
00000120: 7af3 df3c 9243 fdbc 4517 7cba 3472 df3c
00000130: a0c8 9cbc a67e c23c 5795 193c e192 1b3d
00000140: a13b 353d dc30 883c ef08 2ebd 5c21 eb3c
00000150: 34bd 293d aaf1 bbbc 6a0b 10bc 6d0f 45bd
00000160: dbbc cdba 1ea1 f5ba 91ba 133d f91d 8e3d
00000170: f7ba 783d f04a d3bc c06e e8bc a2bd e93c
00000180: b068 733d 9408 89bc 5fbc 833d ec21 203d
00000190: 05eb 62bd a7d3 743d 69e3 a13d f510 6b3d
000001a0: 207e f03c b67b 5fbd bf32 273d 2d04 d0bc
000001b0: f3f4 803d 6728 9b3b 5ce2 12bc 0c47 70bc
000001c0: 5877 c6bc 67be 2abc e328 e83b d181 173d
000001d0: 1d4c 0b3d d993 9e3c 6cf4 debc bbea 66bb
000001e0: 7ee5 d83c 2205 8bbd 52fb 673d d7dc 0dbc
000001f0: c9b6 07bd 2b65 083d 8a64 923c 4d8a babc
00000200: 2ff7 55bb aadd 3bbc da78 80bd 5290 9f3c
00000210: 5888 21bc 37ad 703d 0992 043d 2d5b f73c
00000220: 38b6 56bd aad4 473d a510 5ebd 5fb6 25bd
00000230: 42f0 393d f5c7 86bd 5cf2 fb3b ad34 14bd
00000240: 75ee 6abd 0090 d3bb ed10 173d 5f20 f0bc
00000250: db79 20bc 5ffe 86bd 0c7f 67bd 001a a4bc
00000260: ed98 5b3c d2c6 f13c d7c1 bbbc b65d 6d3d
00000270: 437a 6dbb 3f43 3e3c 3826 113d 1193 8d3d
00000280: 26c2 4cbc 1245 28bd 90f5 693c d05a c8bc
00000290: f106 4d3d 96bb 2b3d fae8 2dbd 316e 97bc
000002a0: 5b38 27bd f5c2 413d 9a7f c83b c8d1 54bd
000002b0: 8ee1 163c 1e6d 643d 2bd1 43bd 073b 3cbc
000002c0: 0804 7c3d fa39 0fbd a14d cb3c ff60 60bd
000002d0: 08fd 1abd 4080 113d 06b8 15bc 43c8 0d3d
000002e0: 24b0 b13c 2aac 703d 2428 04bd 9b66 93bd
000002f0: 2b18 2dbd bb45 f1bc 16dc 1c3d 05d6 483c
00000300: 32f8 383d 3e9b 12bc 479c 99bd d3bf 6b3d
00000310: f1d1 49bb 9130 ef3b f71c 813d bdd6 2e3d
-0.021047039 0.086073734 0.061880644 0.055881537 0.010686016 -0.02788642 0.043605827 0.019874787
-0.03387178 -0.02161424 0.0065283794 0.04217554 -0.057334017 -0.020624664 -0.015072078 0.002901982
0.019091068 0.06510115 -0.056312066 0.0170029 -0.059988983 -0.07743086 0.0012828106 0.044943098
-0.03893082 -0.053363178 -0.0054969494 -0.072565 -0.06342042 -0.023009552 -0.022066083 0.028947122
-0.017044883 -0.050319448 -0.068135716 0.042881038 -0.06330688 -0.0016119495 0.027868921 -0.05109168
-0.0267071 -0.054019418 0.025539115 0.05694185 0.0125855515 0.029225023 -0.0063913907 0.05599754
0.030984549 -0.07065396 -0.05710733 0.008423468 -0.020035226 -0.009247971 0.024279281 -0.038245995
-0.01769201 -0.0024184133 0.06684991 0.008743216 -0.02931169 -0.05136898 -0.0057664085 -0.017916827
-0.019154191 0.042701606 0.027705051 0.017313004 0.027757345 -0.04323033 -0.02826789 -0.04043298
0.027337778 -0.03091601 -0.00096165045 0.027276136 -0.019138634 0.023742031 0.009373984 0.03798187
0.04424632 0.01662486 -0.04248899 0.02870243 0.041440204 -0.022942383 -0.008791784 -0.048110414
-0.0015696542 -0.0018740033 0.036066595 0.069393106 0.06072518 -0.025792569 -0.028373122 0.028532807
0.05942601 -0.016727723 0.06432413 0.03909485 -0.055399913 0.05977216 0.07904703 0.05738922
0.029357016 -0.05456134 0.04081988 -0.025392616 0.0629672 0.004735041 -0.008965101 -0.014665376
-0.02422683 -0.010421372 0.007084952 0.036989037 0.034008134 0.019357609 -0.027216159 -0.0035235125
0.026476618 -0.067880884 0.056636162 -0.008658609 -0.033133302 0.033299606 0.017870206 -0.022771025
-0.0032648554 -0.011466423 -0.062730506 0.019477997 -0.009859167 0.05875894 0.032365832 0.030194843
-0.05241987 0.048786797 -0.054215092 -0.040457126 0.045395143 -0.065811075 0.0076888036 -0.036183048
-0.057356317 -0.006456375 0.036881376 -0.02931231 -0.009794678 -0.06591486 -0.056517646 -0.020031929
0.01340316 0.02951375 -0.022919578 0.057950698 -0.0036236204 0.011612712 0.03543684 0.06912816
-0.0124974605 -0.041081496 0.014279738 -0.024457365 0.050055448 0.041926943 -0.042458512 -0.01848516
-0.04082523 0.047305066 0.006118727 -0.051957875 0.00920905 0.055768125 -0.0478069 -0.011488683
0.061527282 -0.0349674 0.02481729 -0.054780003 -0.037838966 0.0355227 -0.009138113 0.034614813
0.021690436 0.05875794 -0.032264844 -0.07197305 -0.042259376 -0.029452195 0.038295828 0.0122580575
0.045158572 -0.008948145 -0.07500511 0.057555985 -0.00307953 0.0072994907 0.06304353 0.04268526

hidden2_Y1.weight f4 [200, 200]
00000000: 4b96 5fbd 70bc 83bd fadc c33d 55bb c83c
00000010: f33f 693d 8a06 ad3c 33a5 68bc 2d47 3e3d
00000020: 9ade d0bb 84b2 f6bc 8a49 b2bc bce6 983d
00000030: 1efc a33d c7b7 b13d 2fda ab3d bfb8 d63d
00000040: ef22 dc3c 8539 333d 7670 f3bd 45e4 f43c
00000050: 3491 f0bd 9217 83bd c1c1 22bd fa47 c2bd
00000060: c674 aebc 80fa cd3d 505a dd3d b4d3 e33d
00000070: 1bad 7cbd f389 fd3d 5425 3b3d b275 fdbd
00000080: f697 85bc a7e1 3c3d f0c5 94bd 8da0 03be
00000090: 54d3 abbd c4cd b13d 6741 b0bd 9b4e 1cbc
000000a0: dbd7 10bd 4991 1abd b4d5 cb3d 5a81 9b3d
000000b0: 12de e7bc e54c 803c b1ae 653d 9f29 afbd
000000c0: 9213 d33d be84 9dbd fac0 843d 62cb ef3a
000000d0: 5f76 7a3c 052b 5abc 9be4 783d 090d e83d
000000e0: 95f0 85bd 83d5 0b3d 1928 d2bd a936 033d
000000f0: ca82 8b3d 425d f3bd dcae ca3c 3330 b0bd
00000100: eb31 aebd 8ba9 f63c 3237 d5bd f3c1 b4bd
00000110: d0a8 843c f926 8abb 516b 673d d2b7 c1bd
00000120: 1b52 e93d 7c2f 13bd 4470 5cbd da90 98bc
00000130: bcf5 8a3d 77a3 82bd 2cf9 bbbd 397f c03d
00000140: ab0f b13d 3680 a8bd 2de5 afbd fbc3 173d
00000150: 3ecb b53c c9bb 02bc ba46 79bd 7773 d0bd
00000160: 01d4 3cbd a0f5 a63d 5a6d dc3d 7734 f03d
00000170: 46e5 233d 5f8e 79bc 4d2e 99bd 2559 123d
00000180: 1278 8fbd 6f1c e6bc 16da c5bd f89c acbd
00000190: ec10 f43d 597d abbd b8f8 a3bd dd5c 8bbc
000001a0: 7311 19bd 3f02 eb3c d6d4 033e d8a6 e0bd
000001b0: fb8b 933d e799 87bd db87 883c 8848 903d
000001c0: d04a 3abd 8deb 713c 348e a33c 2e29 c03d
000001d0: abde ca3d cd1d e2bd d029 f13c 5349 043e
000001e0: dbfc 02bd d9d2 45ba e014 2bbd 1fcd 35bd
000001f0: b3df 1dbd c51a 2ebd e7d3 723d a18f 583d
00000200: b308 ad3d dd4d e3bd 99f9 acbd ee2a fd3d
00000210: 3f0f 13bd ccc5 23bc bf71 d6bd d45d 08bc
00000220: 1145 bf3b c762 ca3d fd3b ddbd ad87 dbbd
00000230: c43f 40bc 90b8 963d 337a 813d 8092 993d
00000240: 9eb2 a1bd 887c e8bd 480c 2b3c de8b 69bc
00000250: fb22 89bc 45bc c13d 3984 263a b358 0e3d
00000260: b746 02be 3f9f a1bd 8a07 653d b022 a43d
00000270: 66af afbd 6a65 073d 8851 d3bd 1309 18bd
00000280: a309 0b3c 0179 b1bd 1dc8 9ebc 39a4 b7bd
00000290: 8dd9 58bb d907 ab3c 4c87 a6bd 46fc afbd
000002a0: 70f0 6abd 034c bcbd 9b3d cbbd 605c 1e3c
000002b0: 3ac2 79bd 7b0f 4f3b f476 b0bd bd7e abbb
000002c0: b3e9 35bb 3d1f 663d f3d9 00bd 3912 e1bd
000002d0: a874 093d dc0c 94bd 2975 453d 3ea2 183d
000002e0: 4624 b83d 69c2 d3bb 33b1 b6bc acaf 9fbd
000002f0: e6f8 9a3c f5ba b53d 1fcf d8bd ba3e c3bd
00000300: e860 4f3d 650c 44bd 68d8 39bd 0066 19bd
00000310: 4932 913d 06b2 3a3b eaab c1bd 71c8 0abd
00000320: 0d20 9bbd 2e65 7c3d f80f c2bd e9b9 06be
00000330: 1a31 43bd caa0 d23d 7345 b43d b554 d5bc
00000340: 3f7e 8abd 7de8 07bd 6cd3 6cbd 8f0c de3c
00000350: ae6a 373d a1f5 eabc 55f3 e4bd 6ad1 c23d
00000360: fa1d 99bd 4844 913d 4502 c6bd ed9f ddbd
00000370: c46b e7bc 67e1 97bc 5aa3 09bd f367 beba
00000380: 9b35 93bd 4d6c 9ebc 68c0 f23c 2fec 4c3d
00000390: 2ee0 aa3d 8ce9 d53d 4986 e63c 01b9 c4bd
000003a0: 5d73 babd a2a8 8c3c ac27 17bd d6f7 a2bd
000003b0: b697 b23d e8e5 bd3d f081 2bbd 1c49 db3c
000003c0: ed19 b2bd 6160 3dbd e387 dcbc c333 bb3d
000003d0: 314a f43d 2c29 ccbc a2c0 b33b 3db3 21bd
000003e0: bd49 d43c 3664 17bd f16c b4bd 6eee e43d
000003f0: 3e1f 96ba f073 253d 9360 26bd bbbd ad3d
-0.05458669 -0.06432426 0.09563632 0.02450339 0.056945752 0.021121282 -0.014199543 0.046454597
-0.0063741924 -0.03011442 -0.021763582 0.07465884 0.08007072 0.08677631 0.083912246 0.10484456
0.026872126 0.043756027 -0.118866846 0.029894004 -0.11746445 -0.0640098 -0.03973556 -0.09486385
-0.021295916 0.10057545 0.10808241 0.111243635 -0.061688524 0.12379827 0.045689896 -0.12375964
-0.016307812 0.046113636 -0.07264316 -0.12854214 -0.08389917 0.08681825 -0.086062245 -0.009540225
-0.035362106 -0.03773621 0.0995287 0.07593031 -0.028304134 0.015661666 0.0560748 -0.085528605
0.10306467 -0.07691334 0.0648212 0.0018294866 0.015287011 -0.013315921 0.06076489 0.11330611
-0.06540028 0.034139168 -0.10261554 0.03203455 0.068120554 -0.11883022 0.024741583 -0.08602943
-0.08505615 0.030110141 -0.10410918 -0.088260554 0.016193777 -0.0042160717 0.05649883 -0.09458889
0.113926135 -0.035933957 -0.053818002 -0.018623758 0.06785151 -0.06378835 -0.09178385 0.09399266
0.086455666 -0.08227579 -0.08588634 0.037052136 0.02219164 -0.007979342 -0.060858466 -0.10178273
-0.04610062 0.08152318 0.10763045 0.11728757 0.040013574 -0.015231698 -0.07479534 0.035729546
-0.070053235 -0.02808973 -0.09660737 -0.08428377 0.1191729 -0.083735175 -0.08006424 -0.017012054
-0.037370156 0.028687594 0.12874159 -0.10969323 0.072044335 -0.066211514 0.016666343 0.07045084
-0.045481503 0.014765632 0.019965269 0.093828544 0.09905752 -0.1104084 0.029438883 0.12918596
-0.031979423 -0.00075463724 -0.041767955 -0.04438507 -0.038543414 -0.042506 0.059284117 0.05287135
0.08448925 -0.110988356 -0.084460445 0.12361704 -0.03590321 -0.009995889 -0.10470914 -0.008323152
0.005837091 0.098821215 -0.108024575 -0.107192375 -0.011733953 0.07359421 0.06322136 0.07498646
-0.07895397 -0.113518775 0.01043994 -0.014254538 -0.016740313 0.09459738 0.00063521 0.03475256
-0.12722288 -0.07891702 0.055915393 0.080144286 -0.085783765 0.0330557 -0.10318285 -0.03711803
0.008486184 -0.08665658 -0.01938253 -0.0896687 -0.0033088655 0.020877765 -0.081312746 -0.08593039
-0.057358205 -0.091941856 -0.0992386 0.009665579 -0.060976245 0.003159492 -0.086164385 -0.0052336142
-0.0027757704 0.056182135 -0.031457853 -0.10989804 0.033558518 -0.07229015 0.048207436 0.0372641
0.089912936 -0.0064623845 -0.022301292 -0.077971786 0.018917512 0.0887355 -0.1058638 -0.095334485
0.050629526 -0.047863383 -0.045372397 -0.03745079 0.07089669 0.0028487458 -0.09456618 -0.033882562
-0.075744726 0.06161993 -0.09475702 -0.13156857 -0.04765425 0.10284574 0.08802309 -0.026041368
-0.06762361 -0.033180702 -0.057818815 0.027105598 0.044779472 -0.028681578 -0.111792244 0.09512599
-0.07476421 0.07093102 -0.09668402 -0.10821519 -0.028249629 -0.018540097 -0.03360305 -0.0014526829
-0.07187959 -0.019338751 0.029632762 0.05002993 0.0834354 0.10444936 0.028140204 -0.09605599
-0.09104035 0.017170254 -0.03690307 -0.07957427 0.08720343 0.09272367 -0.041871965 0.02676826
-0.08696351 -0.046234492 -0.026920265 0.09140732 0.119282134 -0.024921976 0.00548561 -0.039477576
0.025914067 -0.036960803 -0.088098414 0.11178289 -0.0011453403 0.04039377 -0.040619444 0.08483454

hidden2_Y1.bias f4 [200]
00000000: 8bac f9bc 619b aabc 7e2c ec3c 7fac 973d
00000010: 73e7 32bd 044f 583c 4f57 f23c c7fc 703d
00000020: 4292 0abd 43df 2dbd 6265 eb3c 4e4e 58bd
00000030: 44d8 773b e987 66bd cbf7 29bd f670 693d
00000040: 472f 6bbd 68dc 493d 25ab a3bc f3de 7ebc
00000050: b61a 4b3d 999d 42bd fd54 58bd 74e9 1cbd
00000060: 95b2 513d ad8a f53a fa58 13bd 46be 60bd
00000070: 25e3 37bd e4aa 40bd 266d 0c3d c3cf 3aba
00000080: e195 80bd 59f1 013d 068f 103c a796 283d
00000090: 2b5f b8bc 0228 ca3a d32a a7bd 2bbc 0bbd
000000a0: 30ab 843c 29da 64bd 59a1 c33b 607c 6ebd
000000b0: 67a0 74bc 98aa d2bc a478 bcbc a4df 9b3d
000000c0: b0da f1bc 5fa5 0f3d 4337 9bba bae6 f5b9
000000d0: ecd0 e6bc 8ab0 283d 2037 903d f0c8 853d
000000e0: e05a 3ebd 52f1 d13c 9d4a efbb aad6 c8bc
000000f0: 6d23 ca3b 8a88 6d3d b3e2 46bc 5391 8e3d
00000100: b545 533d 5c79 313d 9b99 8b3d 8b10 6bbd
00000110: 3fb4 b0bc 5fc5 0abd aed6 62bd bff3 29bd
00000120: d61a 80bd d119 d1bc d70d 783d 9414 133d
00000130: e09e 12bc f330 2d3d 327d a63c 9677 eabc
00000140: aa3f 0dbc 3352 7cbc 2780 2cbd c4c3 273d
00000150: 09a9 53bd ea9f 16bd 6611 11bd 9845 843d
00000160: 4e6b 693c a0c8 11bd 6ffa 523d da15 ecbc
00000170: 1d96 0fbc 5680 80bd f4b3 79bc caac 95bc
00000180: 5dda babc 033f 813d fa3b 2abd 6052 023c
00000190: 29d0 793c 90da ea3b 78ee 98bd 8895 93bd
000001a0: b7e2 be3c 5edd 2fbd d448 d43c 54ad bbbb
000001b0: 95fa 6e3c 235a 8dbd 6012 8d3c b334 1ebc
000001c0: f0d3 a6bc 51a6 9b3c 0158 f33a ffa8 34bd
000001d0: 064a 90bd fe0f 523d 34b5 d83b aac3 0abc
000001e0: 430d 313c 7dd4 7fbd 2f9e 36bd 91b7 a5bc
000001f0: 66f9 413d 9a8b 0dbd 6805 5abd 0362 873d
00000200: a4d8 3e3b 169e 193d 0b36 003d f62b a9bd
00000210: 160e 9fbb 6711 163b 2adb 25bb eb6f 683d
00000220: 25a7 86bd 6dce 98bd 70f5 893c 8194 3d3c
00000230: 603a 983b acd6 a2bc 4161 6dbd 3cca 8dbd
00000240: c36f 65bc dd1d 50bc ed75 cd3c 6c70 923c
00000250: 18f1 8bbd 8eb3 eb3c 7b1f 90bd 124a a8bc
00000260: f760 393c 5d3b 8d3d 432d 623d 2071 85bb
00000270: e309 7c3d 2f12 28bd 3f04 32bd 3f6c c1bc
00000280: 9db1 dd3c febc 863c d529 0dbd 1710 463d
00000290: ad28 e43c be1d 1a3d b508 313d 6740 a73c
000002a0: da0c 4e3c d725 633d 9f00 5abc ab5f 7dbd
000002b0: 0a27 013d 6a9a b1bc 986f 6bbd b034 11bc
000002c0: 2cd8 12bb 1885 ddbc 2faf fbbb 6a9f 52bd
000002d0: d3dc d23c 4b3d 003d 58b2 b0bc 2566 8fbc
000002e0: 7989 653c faa6 65bd 146f 70bd 695b 11bd
000002f0: 6132 823c 6d96 0abd 3bdd 36bb f827 4abc
00000300: 454d d93c f6cf 92bd 42d0 2ebd f635 80bd
00000310: 12b9 5fbd 3c24 ed3b 1686 0abd 725e eebb
-0.030477783 -0.020826044 0.02882981 0.07405948 -0.04367776 0.013202433 0.029582648 0.058834817
-0.03383089 -0.042449247 0.028734867 -0.052809052 0.0037818113 -0.056281958 -0.04149608 0.056992494
-0.057418134 0.04928246 -0.019979069 -0.015556085 0.04958602 -0.047513578 -0.052815426 -0.038308576
0.0511957 0.0018733345 -0.035973527 -0.05486896 -0.044894356 -0.047037974 0.03428378 -0.0007126296
-0.06278587 0.031724308 0.008823162 0.0411593 -0.022506317 0.00154233 -0.08162465 -0.034114998
0.01619491 -0.055872116 0.005970162 -0.058224082 -0.014930821 -0.025716111 -0.023006745 0.076110154
-0.029523224 0.03506982 -0.0011842031 -0.00046901946 -0.028175794 0.041183986 0.07041764 0.065324664
-0.046473384 0.025627766 -0.007302596 -0.024516422 0.006168774 0.057991542 -0.01213901 0.06961312
0.05158015 0.043328628 0.06816407 -0.057388823 -0.021570323 -0.033879634 -0.055380516 -0.04149222
-0.062551185 -0.025525006 0.060560074 0.035908297 -0.008949012 0.04228301 0.02032337 -0.028621476
-0.008621136 -0.015400457 -0.042114403 0.04095818 -0.051674876 -0.0367736 -0.035416983 0.064585865
0.014246775 -0.03559172 0.051508363 -0.028819013 -0.008763817 -0.06274478 -0.015240658 -0.018270869
-0.022809202 0.06310847 -0.041561104 0.00795421 0.015247383 0.007167168 -0.07467359 -0.07206255
0.023301465 -0.04293572 0.025913633 -0.0057274494 0.014586111 -0.06901958 0.017220676 -0.009656119
-0.020364732 0.019000204 0.0018565656 -0.04410648 -0.07045369 0.051284783 0.006613398 -0.0084695015
0.0108063845 -0.062458504 -0.04458445 -0.020229133 0.047356986 -0.034556963 -0.053227812 0.06610491
0.0029120827 0.037504278 0.03130154 -0.08260338 -0.004853974 0.0022898556 -0.0025307634 0.05674736
-0.06574849 -0.074612476 0.016840667 0.011571051 0.0046456307 -0.019877754 -0.057954077 -0.06923339
-0.014003697 -0.012702432 0.025080645 0.017875873 -0.06833094 0.028772142 -0.070372544 -0.020543132
0.011314622 0.06896088 0.055218946 -0.0040723234 0.061532866 -0.041032966 -0.04346108 -0.023611186
0.027062232 0.01644754 -0.034463722 0.04835519 0.027851427 0.03762602 0.043221194 0.020416452
0.012576306 0.05545601 -0.013305812 -0.061858814 0.03153137 -0.021680076 -0.05747947 -0.008862659
-0.002240668 -0.027041003 -0.0076807956 -0.05142156 0.025740063 0.031308454 -0.021569416 -0.017504761
0.014009827 -0.056067444 -0.058699682 -0.035487566 0.015893163 -0.033834863 -0.002790286 -0.012338631
0.026526103 -0.07168572 -0.04267908 -0.06260292 -0.054619856 0.0072369855 -0.03381928 -0.0072744424
