Results/Models/LR_Lasso_DCN_model_iter_id_9_epoch_100_lr_0.0001.pth (torch, 828314 bytes, 16 tensors)

shared1.weight f4 [200, 17]
000000 b2 5d 15 3e f8 a9 a5 3d a7 74 21 be f7 25 2f 3d
       0.14586523 0.080890596 -0.15767156 0.042760815
000010 b9 ed b0 3c 55 d2 0c be 5b bb 88 3a 0b d3 c5 3c
       0.02159773 -0.1375211 0.0010431813 0.024148485
000020 95 5d c4 bd e8 7f 70 3c 83 d8 0f be 54 1e 17 be
       -0.09588162 0.014678933 -0.14047436 -0.14757663
000030 0b dc b4 bd 6c b0 2b be 31 67 f1 bd c4 2d b9 3d
       -0.08831032 -0.16766518 -0.1178726 0.09041932
000040 90 a5 4c be 13 a0 df bc 49 5b af bd 8d f3 0a be
       -0.19985032 -0.027298009 -0.08562333 -0.1356947
000050 95 20 33 be fd 0e cf 3c 3e 87 32 3e f5 24 69 3c
       -0.17492898 0.025275702 0.17434403 0.014230003
000060 14 8a 02 bd 5e 9d 2f be ae 2a 39 bd 69 f3 5d bc
       -0.031869963 -0.17149875 -0.04520672 -0.013546803
000070 03 19 d9 3c 0d a5 8c bc 67 a0 43 3d b5 dc 77 3b
       0.026501184 -0.017168546 0.047760393 0.003782076
000080 fc 13 30 3e e1 96 8b bd 44 20 79 bc 93 e7 b7 3c
       0.17195123 -0.06815887 -0.015205447 0.02244929
000090 c1 5c 7a 3e 62 13 3a bc 4f 60 74 bd c6 fc 56 bd
       0.24449445 -0.01135716 -0.05966216 -0.052487157
0000a0 88 81 0a be b8 e9 02 3e 33 ac 93 3d dd e3 59 3d
       -0.13525975 0.12784469 0.07210579 0.053195823
0000b0 4f 9a 11 3e 21 76 f4 3d 98 29 3a bc c8 10 ba bd
       0.1421902 0.11936594 -0.011362456 -0.09085232
0000c0 14 0b 8a 3d 7c 95 a6 bd 2f 19 3e 3e b4 83 b6 bd
       0.06740394 -0.08133981 0.18564294 -0.08911839
0000d0 b7 11 84 bc 1f 58 7f bd da 70 0c 3e 5e a8 3f be
       -0.016121728 -0.0623399 0.13714924 -0.1871657
0000e0 1a 8e 1b bd ce a2 aa bc f5 9d 1f 3e 42 26 4a bc
       -0.037977315 -0.020829584 0.155876 -0.012338223
0000f0 3c 2f 4f 3d 6e 2b f7 3c 96 83 c6 bc 91 1f eb 3c
       0.050582156 0.030172076 -0.024232667 0.028701575
000100 a6 74 8c bb 12 bf 73 bd 8b ee 5a ba 50 2a 7b bd
       -0.0042863665 -0.05950839 -0.0008351586 -0.06131965
000110 e8 06 2d be 39 e8 85 3d d8 25 99 3e 4e df 96 3e
       -0.16897166 0.065384336 0.29911685 0.29467243
000120 79 30 b7 3d 0c 09 d8 bd 9d bc 03 3e b8 01 94 3d
       0.08944792 -0.105486006 0.12864919 0.0722689
000130 f4 4d 5b 3d 6d 84 f2 3d 88 f9 fd 3d 4e 0b 21 bd
       0.05354114 0.118416645 0.1240111 -0.03931742
000140 93 a3 4d be 02 bc 2a be ff 40 91 bd 84 f6 c9 bd
       -0.2008193 -0.16673282 -0.07092475 -0.09861472
000150 56 12 fb bd ff 0b 60 3c 10 59 3e be d2 8b 23 3d
       -0.12259357 0.013674735 -0.18588662 0.039928265
000160 00 fc 4b be 95 3f df 3b e5 90 13 3e d9 f8 db 3c
       -0.19920349 0.0068129995 0.14410742 0.026852058
000170 7b ce b1 3d 21 c6 5c be d9 ba 3f 3d ab f9 10 be
       0.08681961 -0.21559955 0.04680905 -0.14157741
000180 6c 36 cc 3c 66 00 e2 3d 23 aa 26 be d7 60 4e bd
       0.024928294 0.11035232 -0.1627584 -0.050385322
000190 2b 03 59 bd 12 45 46 b9 df 4b 98 3d 54 f7 36 3d
       -0.052981537 -0.00018908482 0.07436346 0.044669464
0001a0 ff 98 0a bd e5 4b f4 3d 0b 9a 0e 3d 1d 88 09 be
       -0.033837315 0.11928538 0.034814876 -0.1343083
0001b0 fd f1 a6 bd de b7 45 bd 54 18 d1 3d 23 3c 00 be
       -0.08151624 -0.048271053 0.10209718 -0.1252294
0001c0 a1 ad ce bb 4f 26 ae 3d cc f0 e6 3c d3 60 15 be
       -0.0063073193 0.085034005 0.028190993 -0.14587717
0001d0 8e a9 de 3d a0 d8 a0 bd 18 85 4a 3d 80 10 1d be
       0.10872184 -0.07853818 0.049443334 -0.15338326
0001e0 68 8d 17 be cd 4b ac 3d 7d 76 56 be 62 2d ed bd
       -0.14800036 0.08412895 -0.20943637 -0.11580922
0001f0 a3 b3 2e bd ef 3e 4a 3c 16 8d 7c bd d9 f1 00 bc
       -0.042651784 0.012344106 -0.061657988 -0.007870161
000200 b2 68 dd 3d 11 36 18 bc c1 d4 61 3d 55 55 03 3e
       0.10810985 -0.009290234 0.05513454 0.1282552
000210 35 d7 1a 3e 8f 6b 4a be 5e db 05 3e 5a 74 8e 3c
       0.15121157 -0.19767593 0.13071963 0.017389465
000220 c7 5f 22 bb db 67 f0 bd 04 00 7a 3d d5 82 b7 3d
       -0.0024776326 -0.11738559 0.06103517 0.08960501
000230 33 83 d6 3d 53 c5 4b be fc 7d 83 3d fa 49 f9 3d
       0.10474243 -0.19899492 0.06420514 0.12172313
000240 79 94 05 3e 82 fb 0a be ab 97 0a 3e f8 2a f4 3c
       0.13044919 -0.13572505 0.13534419 0.029805645
000250 65 95 5f bd b2 10 63 be a2 0b f5 bc bb b0 3c be
       -0.054585833 -0.22174338 -0.029912774 -0.18426792
000260 06 f3 e3 3d 63 fa e7 bd c5 47 0a be 51 77 0e be
       0.111303374 -0.11327054 -0.1350394 -0.13912703
000270 dd 5c 2c 3e 8a d1 21 3e b0 5f 96 bd b5 1b f6 3d
       0.168323 0.15802589 -0.0734247 0.120170034
000280 5a 9b d9 3c 1d 34 00 be 40 7d e9 3d 24 99 01 3d
       0.026563335 -0.1251988 0.11400843 0.031640187
000290 a5 88 26 be 38 70 c2 bc a8 5a 07 3e 4c bf 0f 3d
       -0.16263063 -0.02373515 0.13218176 0.035094544
0002a0 1c d9 d8 3d 89 06 a2 3d a7 19 d9 bc 0d 58 30 3d
       0.10588285 0.07911403 -0.02650149 0.04305272
0002b0 5f ce 38 3e ad 33 25 3e 06 77 54 3d 56 0a bb bd
       0.18047474 0.16132994 0.051871322 -0.09132831
0002c0 9d 48 27 bd a6 4b b0 3d d7 c7 55 3d 6d 3a 99 3d
       -0.040840734 0.08608179 0.052192535 0.07481847
0002d0 ee a5 0e bb e9 cf 93 3a d7 58 13 3d e7 26 75 bc
       -0.0021766382 0.0011277172 0.035973396 -0.014962888
0002e0 10 c7 1b be 7a 0b ac 3d 19 2e 1e be 7f 73 c3 bd
       -0.15212655 0.084006265 -0.15447272 -0.095435135
0002f0 b6 50 75 bc cb 8d ed bd 41 29 1d bd 79 72 50 3d
       -0.014972856 -0.115993105 -0.03836942 0.05089042
000300 ea 96 7d bd 57 09 db 3d ad 42 57 3c 47 3b da 3d
       -0.0619115 0.10695141 0.013138455 0.106558375
000310 04 77 95 bd 24 f3 14 3d 44 39 e3 bd 55 be 7c 3d
       -0.07298091 0.03636469 -0.11094907 0.061704952
000320 18 03 f8 3d a8 e4 51 be 51 91 b6 bd 8d b0 fb 3d
       0.12109965 -0.20497382 -0.08914436 0.12289534
000330 ab 10 c8 bc df 29 6c ba 9a 33 dc bd d5 de 27 3e
       -0.02442201 -0.0009008925 -0.1075203 0.16393597
000340 36 bd 1b bd fe 14 a2 3d 51 ba 4a bd 3e 4e af 3b
       -0.038022242 0.0791416 -0.04949409 0.0053499034
000350 a0 38 bd 3d 1b e4 30 3d 3f 09 bc 3d 28 c9 f5 bc
       0.09239316 0.04318629 0.09181451 -0.030003145
000360 45 aa 93 bd d4 4b ec 3d 21 26 cd bd cd 10 74 3d
       -0.07210211 0.115379006 -0.10017038 0.059586335
000370 8a be 9b 3e 05 06 37 be 30 3a 6d bc 5b dc 86 bd
       0.30418807 -0.1787339 -0.014479205 -0.06584998
000380 26 46 04 3e 91 43 63 be b3 e8 fa 3c 13 ed 09 bd
       0.12917385 -0.22193743 0.030628538 -0.033673357
000390 2d e3 9c 3d c5 7f 4d 3d 23 2f 40 bb a5 1f 0d 3e
       0.07660518 0.05017068 -0.002932497 0.13781603
0003a0 8d 82 7d 3d 39 0a e3 3d 18 1a 9e bb 13 0a 2d 3c
       0.06189208 0.11085934 -0.004824888 0.010561484
0003b0 37 ef a1 bb 6e 82 82 3e 37 d6 ed bd 79 3a c1 3d
       -0.0049418467 0.25490135 -0.11613124 0.09434981
0003c0 75 9d d2 3c 25 9e 47 3e e5 fc 36 3c 4e 63 43 be
       0.025709847 0.19493921 0.011168693 -0.1908085
0003d0 eb 7d 46 bd ea be c0 bc 93 e6 40 bd 67 06 cb 3d
       -0.04845993 -0.023528535 -0.047094893 0.099133305
0003e0 35 ed f9 3d 8e 4b ef bd c4 b0 85 3d b2 8d 1d be
       0.12203447 -0.11684333 0.06527856 -0.15386084
0003f0 5f 05 89 3d 21 f8 57 bd ad 22 62 3d af 33 43 bd
       0.066904776 -0.05272687 0.05520885 -0.04765671

shared1.bias f4 [200]
000000 15 a9 29 3e ba 31 49 bd a9 b2 89 be 3e 9a e9 3d
       0.16568406 -0.04911969 -0.2689412 0.114063725
000010 f1 39 75 be 9e 22 ba 3d a9 4e b4 bd 7b 53 7c bc
       -0.23947884 0.09088634 -0.08804066 -0.015400763
000020 d6 27 ce 3d 01 90 ab 3d f1 ce 99 3c e3 3d 0d 3e
       0.10066192 0.08377076 0.018775435 0.13793139
000030 52 de 86 be a1 d2 3d 3c c1 0a 8b 3d 49 ac 2e 3e
       -0.26341492 0.011585862 0.067891605 0.17057909
000040 5d 38 e7 3d e2 88 67 be 92 9b c2 3d ff a1 85 3d
       0.11290047 -0.2261081 0.09502329 0.06525039
000050 d2 eb 81 be 7c b3 6a bb 38 49 6e bd bf e8 14 3e
       -0.2537523 -0.0035812547 -0.058175296 0.1454191
000060 c3 99 0b 3c c3 26 1e 3e b4 6b 0a bd 59 6e 4d 3e
       0.008520546 0.15444474 -0.03379412 0.20061626
000070 76 7a 89 3d a5 3b 51 be 76 9d 02 be 07 9c b6 bc
       0.06712811 -0.20432909 -0.12755379 -0.022291197
000080 dd 61 43 3e f4 b8 76 be 92 6d f5 bb 36 b9 7d be
       0.190803 -0.24093992 -0.0074898684 -0.24777684
000090 f0 26 a8 3d a1 15 4d be 8a f3 7c be ad 50 38 be
       0.08210552 -0.20027782 -0.24702278 -0.17999525
0000a0 b6 a7 62 be c9 29 62 be 14 a8 35 3c 63 c3 be 3c
       -0.22134289 -0.22086252 0.011087436 0.023286527
0000b0 46 10 68 bd 20 c9 d8 3c 70 92 09 be c3 4c ba bd
       -0.056656145 0.026463091 -0.13434768 -0.090966724
0000c0 dd ae 45 be 25 62 a8 bd 63 51 02 3c 07 82 c5 3b
       -0.19304986 -0.082218446 0.007953974 0.0060274634
0000d0 42 5c 75 be 82 0b fd bd b4 01 49 bd d3 4d 9e bd
       -0.23960975 -0.123557106 -0.04907389 -0.077296875
0000e0 38 88 99 be f8 3c f6 bd d0 6d d5 bd 26 dc 8e 3d
       -0.2998674 -0.120233476 -0.10421336 0.06975584
0000f0 20 3a 52 3d a3 18 06 be 95 47 66 be 17 65 b3 bd
       0.051324964 -0.13095336 -0.22488244 -0.08759516
000100 e4 d9 09 3c d9 64 01 be 59 ec 25 3e 33 62 9e be
       0.008413766 -0.12636127 0.1620344 -0.30934295
000110 c6 4f 8e be c5 f5 23 be fc 54 63 be 7f 68 8c bc
       -0.27795237 -0.16011722 -0.22200388 -0.017139671
000120 b0 53 20 3b ed 19 a7 bd 80 85 a7 bc 8e 16 32 3e
       0.0024463944 -0.08159242 -0.0204494 0.17391416
000130 6a f4 2a be f6 27 d5 bc 6a 4c c9 bd 22 52 53 bd
       -0.16694799 -0.026020031 -0.09829028 -0.051592
000140 54 fe ce 3c 93 a2 0d 3e 07 8a 49 be 6a db 00 be
       0.025267757 0.13831548 -0.1968156 -0.125837
000150 ed 48 16 be 72 cd 53 3e d9 1f 1a be 1a 93 23 3e
       -0.14676256 0.2068384 -0.15051211 0.15974084
000160 09 5b 86 3d 30 ed 5e 3d 9b b8 ca 3a 6c 51 1a be
       0.06560332 0.05442542 0.0015466394 -0.15070122
000170 19 79 0b be de 65 e8 3c 63 ec 59 be 49 bc d2 bd
       -0.13620414 0.028368887 -0.2128158 -0.10289819
000180 8d f4 7e 3d d8 82 6f 3d 29 3f 68 be 4f c4 77 be
       0.06224494 0.05847439 -0.22680344 -0.2419598
000190 c6 bc 63 bd b3 ae 32 be 50 0d e9 bd a8 9f ac bd
       -0.05559995 -0.17449455 -0.11379492 -0.084288895
0001a0 1a f8 35 be f7 c1 3a be c5 3d 18 be 70 a0 ec 3d
       -0.17770424 -0.18238054 -0.14867313 0.115540385
0001b0 93 8d e0 3d 02 b1 95 bd b0 e7 23 be 3c 09 26 bd
       0.10964503 -0.07309152 -0.1600635 -0.04053615
0001c0 64 7f 02 3e 2f 18 b1 3d f8 33 24 be 38 1a 25 be
       0.12743908 0.08647191 -0.1603545 -0.16123283
0001d0 26 e3 7f be d8 ad 2f 3d 68 aa 23 3e a6 c2 96 3d
       -0.24988994 0.0428904 0.15982974 0.07361345
0001e0 b0 eb 19 be 9c 9b 4c be 73 ad 1b 3d 84 bb db bd
       -0.15031314 -0.19981235 0.03800721 -0.10729125
0001f0 bb 27 0e bd 58 09 67 bd 4a 2b b5 bd f9 28 26 3e
       -0.03470586 -0.056405395 -0.08846147 0.16226567
000200 9d e2 86 bd 03 d1 83 3d e6 62 e2 3b d7 78 44 3d
       -0.06586192 0.0643635 0.0069087623 0.047966804
000210 2c 11 3e be cb 44 e9 bc a3 ff 79 be ad c7 50 be
       -0.18561238 -0.028475186 -0.24413924 -0.2038867
000220 2e 3b 52 3d 5f de d4 bd d9 a4 ef 3d 7a 34 da bd
       0.05132597 -0.103939764 0.11701364 -0.1065454
000230 46 95 14 be 86 c5 9d 3d 3d df 24 bd 93 1d 0d be
       -0.14510068 0.0770369 -0.04025196 -0.13780813
000240 ee e5 29 3e ff 1a b3 3c 5c 64 82 be 4e fc 1e be
       0.16591617 0.021863459 -0.25467193 -0.15525934
000250 d8 0a 70 3e 31 83 3f bd 83 4a 4b bd 7a a0 e4 bd
       0.23441637 -0.046755973 -0.049631607 -0.11163421
000260 5b 0c 0a be 2e 60 ac 3d f9 b1 09 3e 63 97 49 be
       -0.13481276 0.08416782 0.13446797 -0.19686656
000270 80 55 02 bd 99 a7 44 be 72 ad 59 be 9c 56 44 bd
       -0.03181982 -0.19204558 -0.2125757 -0.04793416
000280 f0 f7 f9 3d 53 92 47 be e2 16 7a be 52 23 2f be
       0.122054935 -0.19489412 -0.24422792 -0.17103317
000290 89 4b 3b be eb 1b 5f 3e 4a cb 47 be da 24 a6 3d
       -0.18290533 0.21787994 -0.19511142 0.08112498
0002a0 e7 94 22 3e 13 c6 1f 3e 66 c6 10 bd 17 64 89 3c
       0.15877114 0.15602903 -0.035345457 0.01677136
0002b0 1d 46 99 3d d6 f7 0b bd 81 52 5a be c5 3b 16 be
       0.07484076 -0.0341719 -0.21320535 -0.14671238
0002c0 a9 94 24 3e 23 88 35 be 46 4a 15 be 55 0c 9d bd
       0.16072334 -0.17727713 -0.14579114 -0.07668368
0002d0 9f 50 41 3d e5 6a fc 3c 70 2d 45 be 45 98 05 3e
       0.047196027 0.03081269 -0.19255614 0.13046367
0002e0 cf e9 70 bd 99 90 20 be c0 da 50 be ed 19 41 be
       -0.058816727 -0.1568016 -0.20395947 -0.18857546
0002f0 1e fb 47 be 78 54 cd 3d 64 c6 2c be ee 60 fe bb
       -0.19529387 0.10025877 -0.16872555 -0.0077630198
000300 66 68 1b 3e 33 1e 32 bd bf eb e4 bd ea 20 50 3e
       0.15176544 -0.04348583 -0.111777775 0.20325056
000310 14 fc d6 3d f5 79 05 be 8d c9 8f 3d 7f 28 e5 bb
       0.10497299 -0.13034804 0.07020865 -0.006993353

shared2.weight f4 [200, 200]
000000 8b 32 40 bd 95 a0 bb 3d 11 66 b9 bd 89 30 b6 3d
       -0.0469232 0.09161488 -0.09052671 0.08895976
000010 79 cd af bd b8 d7 63 3d d1 cc f9 3d 3a 1e bb bc
       -0.08584113 0.055625647 0.12197269 -0.022841562
000020 68 36 8d bd 02 a2 08 3b c0 c3 33 3d b8 7b fe bd
       -0.06895143 0.0020848517 0.043887854 -0.12425941
000030 4a 7e e0 bd 76 b4 2b 3d c1 03 14 3d d0 7c fd bc
       -0.10961588 0.041920148 0.036136393 -0.030943304
000040 09 b7 ae 3d c3 61 96 3d dd ad cb bd a6 75 00 be
       0.08531005 0.07342865 -0.09945271 -0.1254488
000050 42 bb c8 bd 88 8f 04 be 6b c5 d8 bc 33 ea 89 3d
       -0.098013416 -0.12945378 -0.026461324 0.06734123
000060 59 8d 9e 3d 1b 3b 24 bd 34 53 c9 3d f6 2e 68 bd
       0.07741804 -0.04009543 0.09830323 -0.05668541
000070 8d a5 cc bd fd 43 24 be 08 fc a4 bd 7c 2a 1e be
       -0.09992514 -0.1604156 -0.08055884 -0.15445894
000080 e4 03 b6 3d 50 04 bd bc 39 83 e9 3c 2f 14 9d bd
       0.08887461 -0.023073345 0.028504955 -0.07669865
000090 8b 36 a0 bc 95 f7 9c bd b0 cf 2c 3d 01 d1 9c bd
       -0.019557258 -0.0766441 0.042190254 -0.07657052
0000a0 f1 39 d6 bd 33 a5 b9 3d b7 d2 6b bc c8 c4 91 3d
       -0.1046027 0.090647124 -0.0143935 0.07117611
0000b0 c3 d9 f0 3d 2b 5a 49 bc 88 2a 01 be 85 0b 63 bd
       0.11760285 -0.012289564 -0.1261388 -0.055430908
0000c0 89 43 23 bb e2 ad 2a be 51 72 14 be 05 c1 34 3d
       -0.002491208 -0.16667894 -0.14496733 0.04412939
0000d0 68 ac 2e 3d 52 73 b0 bc fa cd e1 3d ff af 6e 3c
       0.04264489 -0.021539364 0.11025615 0.014568328
0000e0 7a 6e 2c 3d 5c 48 f0 39 39 97 23 bd 6d 09 5b bd
       0.042097546 0.0004583028 -0.03993914 -0.053475786
0000f0 ea 9e b2 bd de a8 a6 3d 4d 62 a9 bd f3 20 a9 3d
       -0.08721717 0.081376776 -0.082707025 0.08258238
000100 18 34 83 bd a9 c7 74 3c bc ef 74 3d 2e cc 19 be
       -0.064064205 0.014940181 0.05979894 -0.15019295
000110 63 97 83 3b 86 37 37 bd 33 76 57 bd 71 79 bc bc
       0.0040158494 -0.044730686 -0.052602958 -0.023007127
000120 93 30 5f bd 78 06 e3 3d 8c 68 5d 3d a6 31 04 be
       -0.054489683 0.11085218 0.05405478 -0.12909564
000130 e3 fd fa bd f2 a7 20 3e 5e a5 4c bd 0a ee 76 3d
       -0.12255456 0.15689066 -0.049962394 0.060285605
000140 f2 28 6b 3d 63 4c fb 3c cb 61 3d bd e6 e1 af 3c
       0.057412095 0.030676072 -0.04623584 0.021470021
000150 41 35 d6 3c 07 fa 5c 3d 44 db 68 bd b2 b3 f1 3d
       0.02614844 0.053949382 -0.056849733 0.11801852
000160 dd b3 0c be e0 77 c7 3d 32 05 44 bc f9 0e fe 3d
       -0.13740487 0.09739661 -0.011964129 0.124051996
000170 55 05 cd 3c 26 45 51 bd 50 e7 61 3d 5e 7d 5b 3d
       0.025026957 -0.051091336 0.055152237 0.053586356
000180 60 7d e0 3c 9b d0 bf 3d b4 af 9d 3d 08 e8 08 3e
       0.027403533 0.0936596 0.07699528 0.13369763
000190 9a c5 84 3c b9 3f 16 3d ff 1e 0a be 23 9a 29 bd
       0.016207505 0.036681864 -0.13488387 -0.04140676
0001a0 77 48 92 3d 3e 0c 8d bd 3c 8c d4 bd 9e 06 25 3d
       0.07142728 -0.06887101 -0.1037831 0.040289514
0001b0 de 14 7f 3d 71 8a 36 bd e2 ee ef bc c5 a1 bf 3d
       0.06227576 -0.04456562 -0.029288713 0.09357027
0001c0 da 9a 88 3d b6 20 8e bd c7 6c c1 bb 54 5f 7c bd
       0.066701606 -0.06939833 -0.00590286 -0.06161435
0001d0 d9 95 83 bc aa b9 8f bd 6d 39 a8 bd 8d 5a 8e bd
       -0.016062664 -0.070178345 -0.08214078 -0.06950865
0001e0 80 64 c6 3d da 85 f6 bd 59 9b a6 bd 16 11 f0 3c
       0.096871376 -0.12037249 -0.08135099 0.029305022
0001f0 c9 88 20 be fa e0 91 bd c2 5f 9d bd 81 2d 14 3d
       -0.1567718 -0.07122989 -0.0768428 0.03617621
000200 36 c8 af 3d e8 44 4a bd 1a e0 72 3d 0b db 04 3c
       0.08583109 -0.04938212 0.05929575 0.008108865
000210 3c 97 1d 3d 39 6d 93 3d 1f ad bc 3d d8 07 7b 3d
       0.038474306 0.07198567 0.09212708 0.061286777
000220 de 4b 23 bd 74 02 26 3d 50 ca 10 3e 7f ca 83 3d
       -0.039867274 0.040529683 0.14139676 0.064351074
000230 5f b7 57 bc 55 11 8b bd 0e 9f 77 3d 6b 63 92 bd
       -0.013166278 -0.06790415 0.06045442 -0.07147869
000240 d2 e2 3b be e1 2b 0b be 0b e4 8f bb ab 40 7e 3d
       -0.18348244 -0.13590957 -0.0043911985 0.06207339
000250 fd 6e 8d bd b2 84 0c 3c b0 07 e8 3d ed 2d 8c bd
       -0.06905935 0.008576559 0.11329591 -0.06844697
000260 f2 86 fd bd e4 66 ab bd 65 d7 aa 3c c7 51 86 3c
       -0.123792544 -0.08369234 0.020854661 0.016396416
000270 66 57 74 3d 92 82 fe 3c 26 2e 5d bd b2 82 a7 3d
       0.059653662 0.03106812 -0.05399909 0.08179225
000280 cd 80 c5 bc 37 2d e0 3c 5e fd da bc 12 f9 c5 bd
       -0.024109269 0.02736531 -0.026732143 -0.09666647
000290 5b 82 00 3e ab 61 01 3d 9f ae 4c 3d bb 54 6d bd
       0.12549727 0.031587284 0.04997122 -0.057942133
0002a0 39 0d 7e 3d 0b 21 49 bd 22 54 89 3d 7e 3f 8e 3d
       0.06202433 -0.049103778 0.067055 0.06945704
0002b0 7f c7 43 bd 60 92 c5 bd 6d 1f 88 bd b3 de 04 3c
       -0.047797676 -0.096470594 -0.06646619 0.008109736
0002c0 cd fa 83 bd a4 61 e2 3c 8d ca bf bd ad 0f 54 3d
       -0.06444321 0.02763445 -0.09364805 0.051772762
0002d0 61 94 db bd c0 d9 5c 3d 86 73 83 bb 1d 6c 77 3d
       -0.107216604 0.0539186 -0.004011574 0.06040584
0002e0 24 69 20 bd 91 aa f1 3b 22 18 04 bc b1 6a 46 3d
       -0.03916277 0.0073750694 -0.008062394 0.048441593
0002f0 1f 81 00 3e 1d d3 13 bd 9e 0b d4 3d 94 6c cb 3d
       0.12549256 -0.036090005 0.10353778 0.09932819
000300 1e 16 49 bc 67 73 fd bd 7a b9 82 bd 86 b4 5f bc
       -0.01227334 -0.12375527 -0.06383033 -0.01365388
000310 0b 67 9b bd 07 15 92 3d 6b 0f 30 bd 1e c1 04 bc
       -0.07588013 0.07132917 -0.042983454 -0.008102683
000320 a4 a5 64 3d d5 e6 83 ba bf 25 07 bd 16 1c 54 bd
       0.05582203 -0.00100633 -0.03299498 -0.051784597
000330 06 85 97 3c 44 29 8a bd e2 04 31 3d a7 57 db 3b
       0.018496048 -0.06746152 0.043217547 0.0066937986
000340 f6 7e 66 3b 40 95 9f bc 64 52 a1 3d ac 03 48 3d
       0.003517089 -0.019480348 0.07877043 0.048831627
000350 04 9c 17 3b 00 07 b0 3d f5 f0 06 3d 0b db 6b bd
       0.0023133764 0.08595085 0.03294464 -0.057581943
000360 81 ce a5 bd 46 61 d0 bc 78 53 03 3c 19 35 9e bd
       -0.08096028 -0.025437009 0.008015506 -0.07724971
000370 7b e7 ec 3d f4 cc 5f bd 47 db 89 bd 07 c2 63 3d
       0.11567589 -0.054638818 -0.06731277 0.05560496
000380 c5 ef 43 3c 99 99 03 3e f4 1f 42 3d b5 f0 bf ba
       0.011959021 0.12851562 0.047393754 -0.001464388
000390 51 fb 9b bd c1 fc 1c bb 77 ba b5 3d 14 36 8d 3d
       -0.07616294 -0.0023954364 0.08873456 0.0689508
0003a0 1f 63 aa ba 20 2b 75 3b e8 7a 7c 3c 82 63 ba bd
       -0.0012999511 0.0037409738 0.0154101625 -0.09101011
0003b0 b2 a2 17 bc fc 75 92 3d 37 17 8a bd 86 61 f6 3d
       -0.009255098 0.0715141 -0.06742709 0.1203032
0003c0 6c 03 b5 3d 10 cf 27 bd 44 df e5 bb b6 ec 26 3d
       0.08838543 -0.040968955 -0.0070151407 0.04075309
0003d0 db ba 52 bc 72 98 47 3d cf 87 8a 3d 93 46 c2 bb
       -0.012861933 0.048729368 0.06764185 -0.0059288233
0003e0 92 89 9e 3d 19 a2 84 bd 1b 28 6e 3d 94 d8 06 3e
       0.07741083 -0.0647623 0.058143716 0.13168555
0003f0 fd f0 ca bd bc 16 ff 3c 86 6b a2 3c a5 0e 4e bb
       -0.09909246 0.03113877 0.019826662 -0.0031441834

shared2.bias f4 [200]
000000 0f b6 ce bd 56 63 98 bd 54 b4 93 3d 17 a3 be bd
       -0.10093319 -0.07440822 0.07212129 -0.09308451
000010 1a 8c 36 3c 6a 4d 47 3d a7 6b 01 bd ca 7b 8a bd
       0.011141801 0.048657812 -0.031596806 -0.06761892
000020 4a 17 05 be e6 e3 37 bc d8 4a 14 bd 1a f5 53 3d
       -0.12997165 -0.011223769 -0.03620419 0.05174742
000030 e6 6c b2 bd 8d df 17 3d cb 3d 92 3d 84 4c 8b bd
       -0.08712177 0.03707843 0.07140692 -0.068017036
000040 e2 39 9c bc b9 70 7b bd 88 54 40 3d 6e 7d e4 bc
       -0.01907057 -0.061386798 0.046955615 -0.02789184
000050 e1 fe 27 bd 4c b1 a3 bb 6a fe 42 bd ed 09 0a bd
       -0.041014556 -0.0049955007 -0.04760591 -0.033700872
000060 74 11 7e bc bd 15 78 bc 32 64 dd bd 5a 4a fc bc
       -0.015507091 -0.015141902 -0.10810126 -0.030797172
000070 c7 0c 3a 3d e0 b3 30 3d 2f 02 eb ba e3 bb 6c 3d
       0.04542234 0.043140292 -0.0017929728 0.05779637
000080 9d b6 1f bd e8 c7 6e 3d 1d 4e 08 bb dc c0 0a 3d
       -0.038992513 0.058296114 -0.0020798512 0.03387533
000090 f8 ab 09 3d 0d 65 63 bd 3c cc 56 bd 64 87 1f bb
       0.033611268 -0.05551629 -0.052440867 -0.0024342174
0000a0 61 c6 2e bd b0 99 2c bd 38 14 a4 bc 17 9a 23 bd
       -0.042669658 -0.042138755 -0.020029172 -0.039941873
0000b0 42 7f d7 3d c3 3a 43 bd 98 84 18 3b 37 07 46 bd
       0.105223194 -0.04766346 0.0023272391 -0.048346724
0000c0 e5 88 56 bd af 09 85 bd 9c 9d 72 3d fa 6b f3 bc
       -0.052376647 -0.064959876 0.05923234 -0.029714573
0000d0 f7 70 8c bd ad 61 63 bd e1 46 44 bd f1 ba cc bc
       -0.06857484 -0.055513073 -0.047919158 -0.024991484
0000e0 f3 26 7b 3a 05 5a b1 bd 9c 43 53 3d 20 d0 8b 3c
       0.0009580694 -0.08659748 0.05157815 0.017067015
0000f0 57 22 ac 3d 88 6c 6c bd 7d db a6 bd 11 2e 64 3c
       0.08404987 -0.05772069 -0.08147333 0.013926999
000100 ed 58 8e 3d 74 7c 45 bd 0a a3 85 bd 83 89 5f bd
       0.06950555 -0.04821439 -0.06525238 -0.0545745
000110 2a 8b 86 3d 43 19 8f bd 41 af 86 bd 5f a5 83 3c
       0.06569512 -0.0698724 -0.06576396 0.016070066
000120 59 c3 58 bc fe f8 5f bb 9f 40 1a 3d 96 4d 84 bc
       -0.013230168 -0.003417551 0.037659284 -0.016150277
000130 96 75 77 bd 2f 8f 8e bd cb af d0 3c 7b 1d 0c 3d
       -0.060414873 -0.06960904 0.02547445 0.034207802
000140 06 a8 94 bc d7 aa b4 3c b1 1c 22 bc 0f b8 8f 3d
       -0.018146526 0.022054119 -0.009894536 0.07017528
000150 66 f6 74 3a 4b 7c b4 bd 89 e8 ae bb af 52 6c bc
       0.00093445776 -0.088127695 -0.005337779 -0.01442401
000160 85 94 fe bd d2 ca 32 3d 67 1c 37 3d 26 4f e6 bc
       -0.124306716 0.043650456 0.04470482 -0.028113913
000170 c6 6d b7 3a 0c 87 19 be 94 84 89 3b 13 b1 08 3a
       0.0013994507 -0.14992923 0.0041967127 0.00052143744
000180 c2 6f 4b bd 69 ab 9c bd 7f 40 d6 ba 93 e0 5f 3c
       -0.049667127 -0.076498814 -0.0016346126 0.0136643825
000190 45 4c de bc 18 34 29 3c e3 12 08 3c 53 30 f7 bd
       -0.027135978 0.0103273615 0.008305284 -0.12069764
0001a0 46 91 4f bd e8 a0 e8 bd 79 df 9a bd 04 d0 47 3c
       -0.050675653 -0.113588154 -0.07562155 0.012195591
0001b0 df 59 3e bd d4 2d a3 bd e5 5a d0 3d f5 61 8e 3d
       -0.046472427 -0.079677254 0.10173587 0.069522776
0001c0 39 70 1c bc 88 36 0c 3c b5 2c ad 3c e5 3f 08 3d
       -0.00954824 0.008557923 0.021139482 0.03326406
0001d0 ae e4 8f bd 08 5a 50 bd 2a 5b 66 bc 07 5f 01 bd
       -0.07026039 -0.05086711 -0.014059821 -0.031584766
0001e0 a7 7d 91 3c f9 9e 33 3d 6a 6f d5 bd e1 fc c7 bc
       0.017760111 0.04385278 -0.10421641 -0.024412574
0001f0 48 01 b1 bd 78 30 b5 bc 39 95 b8 bd 7a 49 a5 bc
       -0.086428225 -0.022117838 -0.09012837 -0.020176638
000200 dd ae b8 bd ff 2d 7f 3c 41 e1 cb 3c dc b2 2c 3d
       -0.090177275 0.015574931 0.024887683 0.04216276
000210 2e 78 dd bd 47 e0 23 bd fb 22 d3 bc 7c af 25 bc
       -0.10813938 -0.04000881 -0.025773516 -0.0101126395
000220 ad aa 02 be e7 75 69 bb 1e 56 c4 3c 5b 93 21 bd
       -0.1276042 -0.0035623254 0.023966845 -0.03944717
000230 5b 33 7d bd a6 4d b6 39 ab 4a 5b bd 4c 40 85 3d
       -0.061816555 0.00034771598 -0.053538006 0.06506404
000240 bb be 9c bd 68 2b ec bc 82 67 02 3d 8a 76 8f bc
       -0.076535664 -0.028829291 0.031836994 -0.017512579
000250 38 14 4a bc c4 c4 85 3c 57 7f 60 bc d6 1c c3 bd
       -0.012333922 0.016329177 -0.013702235 -0.095269844
000260 05 99 da bd 80 55 80 3c 86 47 de 3c 16 d6 35 bd
       -0.106737174 0.01566577 0.027133714 -0.04439362
000270 17 7d 6f bd 72 7b f0 ba e0 d8 b5 bd 82 7b f0 bd
       -0.058468904 -0.0018347336 -0.08879256 -0.11742307
000280 a0 59 9a bc 9b 3c 02 bc 3f d4 7f bc 8d 2e 18 bc
       -0.018841565 -0.00794902 -0.015614568 -0.009288442
000290 55 20 34 3c ac 0c b3 bd dc 03 88 bd b1 dd 2a 3d
       0.010994037 -0.08742651 -0.06641361 0.041715328
0002a0 90 e9 e5 bb 99 e5 77 3d 07 de 28 bc e1 1b 34 3d
       -0.007016368 0.060521696 -0.010306842 0.0439719
0002b0 55 bb c7 bc 05 32 23 3d a0 19 e0 3c ac ea e1 bd
       -0.024381319 0.039842624 0.027355969 -0.11031088
0002c0 97 87 a9 3d d6 4b c3 bc a2 48 47 3d 22 c2 d0 bc
       0.08277815 -0.023839872 0.048653252 -0.025483195
0002d0 e7 dd 88 bd 5b 8f 05 be 00 96 37 3d 3c 1c c7 bd
       -0.066829495 -0.13042967 0.044820786 -0.09722182
0002e0 18 52 52 3b 59 df 8e bc 98 38 11 be 86 03 ae bc
       0.0032092389 -0.017440485 -0.14181745 -0.021241914
0002f0 23 45 6a bd ec 8e 5c bd ab 26 8a bd c3 c5 81 3c
       -0.05719484 -0.05384724 -0.067456566 0.01584137
000300 d6 b3 34 3c 99 35 62 bc 4e 50 24 bd bf 64 e3 bd
       0.011029204 -0.013806724 -0.040115647 -0.111032
000310 b0 38 cc 3b 0c 6e 9e bd 99 29 ce bc 76 92 98 bd
       0.0062323436 -0.077358335 -0.02516632 -0.0744981

hidden1_Y1.weight f4 [200, 200]
000000 3c 97 89 3d 6a 76 f7 bd 13 cf aa 3d 28 45 0d 3d
       0.06718299 -0.120831326 0.083402775 0.03448978
000010 0f d7 51 bd 99 36 2e 3c 42 31 0d 3e 5e 1b a1 3d
       -0.051230486 0.010633134 0.13788322 0.07866548
000020 a2 09 d3 3d db 85 7a bd 22 90 be 3d 6e 66 08 3d
       0.10304572 -0.06116281 0.09304835 0.03330081
000030 9e 07 3a 3d 55 20 c7 bc 7d f8 e6 3d e0 60 bf bd
       0.04541742 -0.02430741 0.11277864 -0.09344649
000040 85 69 00 3b 1a ec a3 3d fb 4c ef 3d 2c 66 1d bd
       0.0019594145 0.08004017 0.11684605 -0.038427517
000050 e8 52 eb bd 6b e8 f2 b9 f3 ab 18 3d 7b e6 34 bd
       -0.114904225 -0.00046331002 0.03727336 -0.044165116
000060 17 29 ce 39 7a b9 c7 3b cb 7b 80 bd de 43 fe bc
       0.00039321996 0.0060951086 -0.06273612 -0.031038221
000070 a8 a0 05 3c 37 a8 e6 3d 23 72 94 bd 8e 86 e5 bd
       0.008155979 0.11262553 -0.07248332 -0.11207305
000080 34 cd 95 3a ea 20 ac bd 87 bf d9 3d 83 93 4e 3d
       0.0011428953 -0.08404715 0.10632234 0.050433647
000090 fd ef 20 3d ae 2b dc bd 36 44 76 bc 44 0f 9f 3d
       0.03929137 -0.10750519 -0.015030911 0.077665836
0000a0 f2 7a dc bb 17 d9 e2 3d cd 90 ce 3d 93 3f 9e bd
       -0.0067285234 0.11076563 0.10086212 -0.077269696
0000b0 02 28 e3 3d ae aa 6d 3d c2 23 a4 3d 8d a6 f7 3d
       0.11091615 0.0580241 0.08014633 0.12092314
0000c0 30 9b f1 3d 36 9b 59 3c d8 53 88 bd 59 f9 cf bd
       0.11797178 0.013281634 -0.06656617 -0.10154981
0000d0 8b 9f 5c bd 03 04 ac bd 82 0f 77 3c 19 88 14 3c
       -0.05386309 -0.08399203 0.015079381 0.009065651
0000e0 a4 8f 7f bb 46 83 e1 3c 68 ff ae 3d 1a cf 2a bd
       -0.0038995529 0.027528416 0.085448086 -0.041701414
0000f0 23 09 d0 3d f7 33 c0 bd 60 b3 e6 3d 39 1e 43 bd
       0.10157993 -0.093849115 0.11264682 -0.047636244
000100 b1 f7 58 3d 4b b1 bf 3d 9e 96 b2 bd bf 7a 25 3d
       0.052970592 0.09359988 -0.08720134 0.040400263
000110 a7 ba ab 3d 71 90 16 bc c9 87 6a 3d d2 a3 4e 3d
       0.083852105 -0.009189711 0.0572584 0.0504492
000120 10 59 74 bd e1 8c b3 bd b5 3d d0 3d 6c 49 bf 3d
       -0.05965525 -0.08767105 0.1016802 0.09340176
000130 36 06 1c bd d7 81 42 bd d7 a0 d5 bd 85 0f 31 3c
       -0.03809186 -0.047487106 -0.104310684 0.010806923
000140 76 61 e7 3c d3 15 85 bd eb 1a e9 bd ba 18 e0 3c
       0.028244715 -0.06498303 -0.11382087 0.02735554
000150 ab 34 e9 3d 95 be 5b bd f6 9c 95 bd 2e fb cd 3d
       0.11386999 -0.05364855 -0.073053285 0.10057674
000160 48 fe c9 bd 83 47 42 bc 13 36 90 ba f8 7b 5f bd
       -0.098629534 -0.01185787 -0.0011002443 -0.054561585
000170 ab f1 89 3c 32 a1 e0 3d e2 e4 73 3b 5a fa e9 3d
       0.01683887 0.109682456 0.0037215282 0.11424704
000180 e6 25 6b 3d dc 57 db 3d 6e 29 ac bd 62 b3 5e 3d
       0.05740919 0.10710117 -0.084063396 0.05437029
000190 08 e9 1e bd 54 26 5e 3c d3 24 f9 3d 0f 3e 0f 3c
       -0.038796455 0.013558943 0.12165227 0.008742823
0001a0 85 45 1f 3d 38 ff 8f bd be 8e c7 bd 8f 32 c6 bc
       0.03888466 -0.07031101 -0.09744023 -0.02419403
0001b0 62 c9 77 3d 8f 6b e3 3d c1 d2 96 3d de 3e d7 3d
       0.060494788 0.111044995 0.07364417 0.10510038
0001c0 63 dd 1b 3d eb 2c dd 3c 8a d3 1d bc 67 6b b6 3d
       0.038052928 0.026998958 -0.009632954 0.08907204
0001d0 78 f9 43 bd fe 21 79 3d 34 6d f7 3d 2e de b2 3d
       -0.047845334 0.060823433 0.12081376 0.08733784
0001e0 e1 c7 0b bd 37 8d 6a bd 5d 13 0b 3e a7 9a b0 3d
       -0.034126166 -0.05726358 0.13581605 0.086232476
0001f0 da e6 79 bb 49 0b 19 bc 0e 03 b1 ba 22 5a 58 3d
       -0.0038131983 -0.0093410695 -0.0013504939 0.052820332
000200 70 70 af 3c da f3 39 3d 7c 61 ae bd 2b 2a d3 3c
       0.021415919 0.04539857 -0.085146874 0.025776943
000210 83 36 20 bc 9b 9b c3 bc 53 7b 48 bd 45 43 c4 bd
       -0.009778622 -0.02387791 -0.048945736 -0.09583143
000220 5d a7 75 3c bc 9c d3 bc 95 c6 76 3d 25 c0 9c bd
       0.014993516 -0.025831573 0.060247976 -0.07653836
000230 d4 78 68 3c 99 b6 a9 bc 20 38 b8 3c 7c e2 2f 3c
       0.014188964 -0.020716952 0.0224877 0.01073515
000240 cd f5 6f 3c 08 23 ca 3d 94 75 88 3a 11 e6 62 bd
       0.014646006 0.09869963 0.0010411018 -0.05539519
000250 1e 54 d5 3d 50 ba b2 bb 57 df a9 3c d6 f1 04 ba
       0.10416435 -0.005454339 0.02073638 -0.0005071437
000260 a9 88 c3 3d ab 22 b6 3d 0e b2 d8 3d 90 9a df 3c
       0.0954755 0.08893331 0.10580836 0.02729538
000270 87 e2 89 bd a6 91 6b 3d 48 f1 ea 3b 05 9b 46 3d
       -0.0673266 0.057511948 0.0071698762 0.048487682
000280 09 38 c0 bd bb 2d 87 3d 78 20 b4 bd 3c fa 39 3c
       -0.09385688 0.06600519 -0.087952554 0.011351164
000290 cd 8f bc bd 33 a7 45 3d ba 6d 2f 3d 69 d8 90 bd
       -0.09207115 0.048255157 0.042829253 -0.07072527
0002a0 26 e1 76 3d a6 c6 b2 3c 25 9d c1 bb c3 be f3 3d
       0.060273312 0.021823239 -0.0059086257 0.11901619
0002b0 b7 2a 8c 3c 76 1b 1b 3d f1 42 ea bd 01 8d 07 3d
       0.017110212 0.037867986 -0.11438549 0.033093456
0002c0 68 99 9a bc 5d 7c 5c 3d 21 5f e2 3d 23 61 7d bd
       -0.018871978 0.05382954 0.11053301 -0.061860215
0002d0 d2 aa c0 bd b4 6d 9e 3d 88 b5 b0 bc 98 5c 16 bd
       -0.094075814 0.07735768 -0.021570936 -0.036709398
0002e0 00 71 8f 3d 0c 4f 2f 3d 0f a8 8c bd 76 79 b7 bc
       0.07003975 0.042799994 -0.06867992 -0.022396784
0002f0 1a 90 da 3d 5e b1 96 3a ee 5b d0 3d 24 ca 8d 3d
       0.106720164 0.0011496951 0.10173784 0.06923321
000300 a5 4b ce 3d 19 43 dd bc 4e 56 19 bd 1e ed 9f 3d
       0.10073022 -0.027009534 -0.037435822 0.078088984
000310 36 82 ac bd b6 59 84 3c ea 14 e4 bd eb 8f c1 bd
       -0.08423273 0.016156059 -0.111368015 -0.09451278
000320 a4 cd eb 3c 09 4a aa 3d d5 01 e2 bd 27 da db 3c
       0.02878458 0.08314902 -0.11035506 0.026837422
000330 60 a8 b4 bb 48 91 16 bd 2e 05 ed 3d f5 86 00 3d
       -0.005513236 -0.036759645 0.115732536 0.031378705
000340 7b 68 e1 3c 23 7b 88 bc 34 7c f3 3d 96 1c f5 bd
       0.02751564 -0.016660279 0.11888924 -0.11968343
000350 81 42 c3 bd 0b 55 a3 3d aa 22 05 3c e0 93 d7 3c
       -0.09534169 0.07975205 0.00812594 0.02631563
000360 34 58 1f bd ab 9a d7 3d 4a 99 e5 bd 17 71 97 bd
       -0.038902476 0.105275474 -0.11210878 -0.07394617
000370 9e 5c 74 bb 12 9f c3 bd 06 17 9a 3c e9 61 45 3d
       -0.003728665 -0.09551825 0.018809807 0.048189078
000380 0c bf 27 3d de 1c 8d bd dd 1d a3 bc 7c c2 15 bd
       0.04095368 -0.068902716 -0.0199117 -0.036562428
000390 9d c3 97 3d a5 87 07 bd 8a 8e 9c bc 71 70 8e 3d
       0.07410357 -0.033088345 -0.019110937 0.0695504
0003a0 d4 e3 bb 3d fe 7e 07 3d fa b7 57 bd 5a ee b9 bc
       0.09174314 0.033080094 -0.052665688 -0.022696663
0003b0 8c 4c f7 bc 17 36 e4 bd c5 52 8c bd c1 56 8d 3c
       -0.030187868 -0.11143129 -0.068517245 0.017253282
0003c0 76 c4 7d 3d b9 a0 e7 bc 90 24 bd 3c ca 78 c3 3d
       0.061954938 -0.02827488 0.023088723 0.09544523
0003d0 62 30 00 3e 66 19 a5 3d c6 3a 08 be 61 bc f1 bc
       0.12518457 0.08061485 -0.1330367 -0.029508771
0003e0 f3 17 60 3d 2e 02 ca bd 4b 06 64 3d 53 37 fc bd
       0.05471034 -0.09863697 0.055670064 -0.1231524
0003f0 60 cf 2d 3d 43 1c b7 bb 34 bb c8 3d 71 88 c7 bc
       0.042434096 -0.005588086 0.09801331 -0.024357053

hidden1_Y1.bias f4 [200]
000000 12 db 9e bc d1 e4 8b bc 3b cf 66 3d 8f b1 94 3d
       -0.01939157 -0.017076882 0.056349974 0.07260429
000010 b5 5f aa bd 9f 5a c2 bc ce 5b 8e 3d d2 6f e3 3c
       -0.08319036 -0.023724852 0.06951104 0.027763281
000020 8c c2 65 3d d0 3c fa bc 73 81 1f 3c d6 02 33 3d
       0.056093737 -0.030546576 0.009735453 0.043703876
000030 e6 1a 77 3d 41 d1 fe 3c b0 5c 98 3d 23 37 3e bd
       0.060328387 0.03110564 0.07439554 -0.0464393
000040 a8 8d 04 3d c8 51 09 3d 2c ff 47 bd bd 53 61 3d
       0.032361656 0.03352526 -0.048827335 0.0550115
000050 8c 66 b2 3b 8b 43 24 bd 0b 2a 10 3d 35 44 c2 ba
       0.0054443534 -0.040103476 0.035196345 -0.0014821353
000060 53 67 96 bc a6 43 31 3d d7 6c 83 ba d4 8a b3 ba
       -0.018359816 0.043277405 -0.0010026944 -0.001369799
000070 7d 64 0a bd 5a 43 e2 bc 37 54 18 3d cd d0 84 3d
       -0.03378724 -0.027620006 0.03718969 0.06485138
000080 f5 6e 1d 3d ad 9c 42 3d 29 32 88 3c 32 03 9a 3c
       0.038435895 0.0475127 0.01662548 0.018800352
000090 46 53 e7 bb 91 ff 7a 3d 3a 26 9f 3d f8 87 89 bd
       -0.0070594875 0.061278883 0.07770963 -0.06715387
0000a0 7b 2d 2d bd af a8 47 bd 4a a4 5c bd a3 99 43 bc
       -0.0422797 -0.048744854 -0.053867616 -0.011938485
0000b0 8c cf 86 bd 7b 74 ef 3b cd 7d 9d ba 89 4d e1 3c
       -0.06582555 0.0073075867 -0.0012015641 0.027502792
0000c0 88 51 65 3d 41 38 58 3d f7 53 8e 3d 96 ab 32 3d
       0.055985957 0.052788023 0.06949609 0.04362067
0000d0 fd 9b 1a 3d 22 bd 29 ba dc 9e 62 3d 77 da 99 3b
       0.03774642 -0.00064750214 0.05532728 0.0046952325
0000e0 54 50 18 3d 4b 39 8a 3d dd 01 8a bc 7f 8f f3 3b
       0.037185982 0.06749209 -0.016846592 0.0074328776
0000f0 1e e1 43 3d 72 19 39 3d 84 5d 7a 3d fe a8 70 3d
       0.04782211 0.045190282 0.06112434 0.058754914
000100 4c f3 2e 3d 63 2d d4 3c 05 78 8f bd 06 14 76 3d
       0.042712495 0.025900548 -0.07005314 0.06007769
000110 23 06 d1 bb 31 40 5f bc dc f7 29 3d c1 99 a6 3c
       -0.0063789054 -0.013626144 0.041496143 0.020336987
000120 12 03 7e bc 6e 2d 8e bd f8 61 e5 3a d3 70 ac 3d
       -0.015503662 -0.06942259 0.001750051 0.08419957
000130 bb 8b 81 bd 63 f0 32 3c 94 3c 0b 3d fe 9d 77 bd
       -0.063254796 0.0109215705 0.03399332 -0.060453407
000140 51 e0 3c bc 31 54 70 3d c5 58 09 3d cd 8f 18 3d
       -0.011528091 0.05867404 0.033531923 0.037246514
000150 76 22 30 3d 05 e1 57 bc 5e 86 5f 3d dd 55 81 3d
       0.043001615 -0.013176207 0.054571502 0.06315205
000160 81 14 f7 3c a9 9d 46 3d f7 8f 5d bc 96 6e de 3c
       0.030161144 0.0484902 -0.013523093 0.02715234
000170 71 b3 33 bd 49 53 d6 3b 22 18 bf 3c b0 0c 0d 3d
       -0.0438723 0.00654069 0.023326937 0.034435928
000180 69 98 25 bd 80 46 f2 bc ff e2 2e 3d 93 d2 24 bd
       -0.040428553 -0.029574633 0.04269695 -0.04023988
000190 03 0c 65 3d 35 d0 d0 bc 8c f5 73 3d e9 3d 0a 3c
       0.05591966 -0.025489906 0.059560344 0.008437612
0001a0 6f df 8e 3d a4 14 84 bb 51 b1 99 bc ad 89 8e 3c
       0.0697621 -0.004030781 -0.018761309 0.017399633
0001b0 f5 90 45 3d 6e 9e 14 3d 1e 71 2b 3d 6d d2 89 3d
       0.048233945 0.036283903 0.041855924 0.06729589
0001c0 32 53 c6 3c be 06 ed bc c1 5d 8c 3d 22 3e f1 3c
       0.024209592 -0.028933879 0.0685382 0.029448573
0001d0 85 fa 9c bc 50 09 e0 3b fc 40 2a 3d 35 ff 43 bd
       -0.019162426 0.0068370476 0.04156588 -0.047850806
0001e0 e4 71 71 3c 01 5e 99 bd 95 eb 40 3d 18 7f 5b 3d
       0.014736626 -0.07488633 0.04709967 0.053588003
0001f0 f4 19 52 bd 92 46 25 bd 21 af e4 3c f6 fc 7b 3d
       -0.051294282 -0.040350504 0.02791554 0.06152054
000200 82 d6 33 bb a7 33 63 bb aa 16 66 3d 6d 02 f1 3b
       -0.002744109 -0.0034668238 0.056173958 0.0073550255
000210 05 df 63 3c b1 2a 24 3d a4 d0 a0 bd a1 27 99 3c
       0.0139081525 0.040079776 -0.07852295 0.018695654
000220 2a 41 6a 3d e4 2f ba 3c 5b 48 c2 bb b1 62 d0 3c
       0.05719105 0.022727914 -0.0059290356 0.025437685
000230 2e 6b 37 3d 05 08 8c 3b 39 f1 ea 3c 9b 7b 77 bd
       0.04477995 0.004273417 0.028679477 -0.060420614
000240 9a 24 0c 3d 44 e0 16 3d f7 d7 98 3c 39 f0 5e 3d
       0.034214593 0.03683497 0.018657668 0.054428313
000250 b1 dc 1e bd 5a f0 0d bd e4 40 79 bd 6c 5c e2 bc
       -0.038784686 -0.034653045 -0.0608529 -0.02763196
000260 89 b4 5b 3c d9 f9 09 bc e1 66 b8 3c 95 4a 40 bd
       0.013409742 -0.008421385 0.022509994 -0.046946127
000270 4a ca 04 3a ce d1 4f 3d 65 f6 99 3b 38 ac 64 bd
       0.0005065544 0.050737195 0.004698562 -0.055828303
000280 87 78 de 3c 28 5f 10 bd c5 10 3d 3c 04 75 1b 3d
       0.027157081 -0.035246998 0.011539643 0.03795339
000290 1a 79 99 3d 47 6e 3e bd 7a 97 90 bb 4f fb 65 bd
       0.074938014 -0.046491887 -0.0044125887 -0.05614787
0002a0 69 04 ec 3a cb e5 23 bd 35 8f 91 3c 97 f6 5f bd
       0.0018006685 -0.04001407 0.017768482 -0.054678526
0002b0 af 5f 0c 3b f3 1d fc bc 9a fd 79 bd 83 d7 cf 3c
       0.0021419337 -0.030776 -0.06103287 0.025371319
0002c0 4f 76 3b 3d ac 2d e2 3c cc a3 1c bc 8b d2 0a 3c
       0.045767125 0.027609669 -0.009560537 0.008473049
0002d0 26 5f 7c bd fb a8 17 3d 60 d7 a4 bc e8 9d f5 3c
       -0.061614178 0.037026387 -0.02012223 0.029982522
0002e0 45 10 61 bd 44 60 00 bc 95 84 0d 3d 4d b4 83 3d
       -0.054947156 -0.0078354515 0.03455027 0.06430874
0002f0 b7 56 a5 bc a2 bb 90 3b b0 83 8c 3b bf ed 59 3d
       -0.02018295 0.004416899 0.0042881593 0.053205248
000300 b2 bf 46 bd 7c 77 f3 b9 26 5a 6f 3b a2 2b 1e 3d
       -0.04852266 -0.00046437595 0.0036522239 0.03861583
000310 02 22 73 3d 91 23 16 bd 8d 90 c1 bc af 14 f4 bc
       0.059358604 -0.036655013 -0.023628497 -0.029795019

hidden2_Y1.weight f4 [200, 200]
000000 d4 ea f4 3d 33 84 1e 3c 09 f3 3b 3d 2e 53 ca bd
       0.119588524 0.009675073 0.045886073 -0.098791465
000010 a4 9b ed 3c 9b b8 3f 3c 70 cb b3 bd 71 1e d7 bc
       0.02900488 0.011701728 -0.08779037 -0.026259633
000020 ff b8 e4 bb c7 ca 84 bd 4f d7 9b bd 46 4c c5 bc
       -0.006980061 -0.06483989 -0.07609426 -0.024084222
000030 17 af fe bd c4 95 03 3e d8 5d ec 3d 49 98 40 bd
       -0.124357395 0.128501 0.11541337 -0.04702023
000040 dc 5a ed bd 8c d8 c2 bb ca cd 9b 3d 47 d8 07 bd
       -0.11589596 -0.0059462246 0.076076105 -0.033165243
000050 79 46 a8 bd b4 f2 45 3c e1 06 85 bd 37 fe 2e bd
       -0.082165666 0.012081791 -0.06495453 -0.042722907
000060 a0 83 c5 bd 78 9e ae 3d 7a d4 f7 3d 66 43 6e bd
       -0.09644246 0.08526319 0.121010736 -0.058169745
000070 f2 f7 1c bc f5 4d 0c 3d 3a bc c8 bd 6c 0a d1 bd
       -0.009580599 0.034254033 -0.09801526 -0.10207066
000080 0f 4d 7a 3d 9a 3e 79 bd 23 e0 d8 bd bd de cc 3d
       0.061108645 -0.060850717 -0.10589626 0.100034215
000090 da 84 aa 3d f1 ba 14 3d 08 60 41 bd e9 d7 e6 3d
       0.08326121 0.036311094 -0.047210723 0.1127165
0000a0 b7 11 e8 bd 00 cf 47 3d 28 cd 40 3d 0d 51 ac bd
       -0.11331504 0.048781395 0.047070652 -0.08413897
0000b0 63 50 ea 3c 71 62 94 3c d5 31 aa bd 12 50 14 bc
       0.028602784 0.018113347 -0.08310286 -0.009052293
0000c0 6f 09 d7 bd f3 c4 80 3d 56 a3 ee 3d b1 ab 49 bb
       -0.10499846 0.06287565 0.116522476 -0.0030772502
0000d0 ea 3d 8c bd 5a 74 f2 bd cc 73 66 3d 6e 59 f6 3d
       -0.06847747 -0.118385985 0.056262776 0.12028776
0000e0 50 6c 7f bd d7 83 26 bb 49 03 6c 3d 95 6d 8e bd
       -0.062359154 -0.0025408173 0.05762032 -0.06954495
0000f0 e0 7a 2b 3d 02 f6 84 bd 19 80 27 3d 81 7e b3 3d
       0.04186523 -0.06492235 0.040893648 0.08764363
000100 77 03 47 bd 52 e7 d6 3d 5d 8b fb bc 75 ce 9f 3d
       -0.04858729 0.104933396 -0.030706102 0.078030504
000110 dc 04 97 bd be 4e 9f 3d bf ce 43 bd e5 78 8c bd
       -0.07373974 0.07778691 -0.04780459 -0.06858996
000120 33 39 50 3d d4 9b ae 3d 4d 75 2b 3b b7 ac 3c bd
       0.0508358 0.085258156 0.0026162446 -0.04606315
000130 15 df fa bd 6f ca 82 bd 2a 60 0e 3d 7c b2 43 bd
       -0.12249581 -0.063862674 0.034759678 -0.047777638
000140 32 dd 61 bc 9d 7d f9 3d 12 20 02 3e 84 ae 05 3e
       -0.013785647 0.12182162 0.12707546 0.13054854
000150 a0 6a 90 bd ba 58 df 3d 2e ff 74 3d d6 41 4c 3d
       -0.07051587 0.10905595 0.05981367 0.049867474
000160 1d d5 8a bd 63 a9 41 3d 1b 28 af bd b7 51 85 3d
       -0.067789294 0.04728068 -0.085525714 0.065097265
000170 c9 b0 c9 bd f3 4b c0 3d 34 b4 e6 3c ea 8c fa ba
       -0.09848172 0.09389486 0.0281621 -0.0019115482
000180 bb 45 d0 3d 0a 77 87 3d 4d b9 41 bd f0 03 a6 3d
       0.1016955 0.06614502 -0.047295857 0.0810622
000190 e1 43 3f bd 10 25 e3 3d 53 c7 96 bd 60 5a d6 bd
       -0.046695594 0.110910535 -0.07362237 -0.104664564
0001a0 89 d8 e5 bd e3 b1 e5 bd 04 bb 10 bc d3 cc d4 3d
       -0.112229414 -0.1121557 -0.0088336505 0.103906296
0001b0 ca f6 27 3c 5e 57 81 bd f1 47 d7 3d de 79 46 bd
       0.01025171 -0.06315492 0.105117686 -0.048456065
0001c0 d5 bf e1 3d 28 5b 89 3d f1 4d ce 3d 44 c5 e9 3d
       0.11022917 0.0670684 0.1007346 0.114145786
0001d0 65 a4 aa 3d 6d 5b 0a bd 0d 32 73 bc 95 ab b8 bc
       0.08332137 -0.033778597 -0.014843476 -0.022542754
0001e0 72 83 c4 3d 5d b2 d5 bd d3 5e 93 3d f6 be 69 3d
       0.09595384 -0.10434411 0.07195821 0.05706688
0001f0 9a 78 6c 3d c0 51 47 3d 8a 67 a9 3d 92 32 b9 3d
       0.057732202 0.048661947 0.08271702 0.09042849
000200 d9 aa 0c 3e d0 1b 85 3c 65 8f 43 3d 1d b8 5d bd
       0.13737048 0.016248614 0.047744174 -0.054130662
000210 9d b4 4d 3d 6f 68 68 bd 32 be d8 3c 69 50 46 bd
       0.050221074 -0.05674022 0.02645788 -0.04841653
000220 f0 b4 47 3d 8a 14 4f bd 32 49 4a bd 7c 00 e9 3d
       0.04875654 -0.050556697 -0.04938621 0.113770455
000230 07 46 d4 bd 64 f8 73 bd a1 df 88 3c 08 3d 25 3d
       -0.10364919 -0.059563056 0.016708197 0.040341407
000240 57 05 0d bd 41 04 9b bd 33 90 b8 3c c4 af cd bd
       -0.03442892 -0.07569171 0.022529697 -0.1004329
000250 19 ac 45 3d 7c e8 d8 3d 83 d7 3b bd e1 9a 85 bc
       0.04825983 0.10591218 -0.045859825 -0.016309204
000260 5e bd 6d bd 16 04 91 bd 06 36 aa bd 90 0a e8 3d
       -0.058041923 -0.070808575 -0.083110854 0.1133014
000270 49 3f ea 3d 22 57 e5 3c 5a 6d 01 3e cd 0a 5d bd
       0.11437852 0.02799565 0.1263937 -0.05396538
000280 a0 83 bb 3d 49 17 cb 3d 4b 1c 5b bd 97 23 07 bd
       0.09155965 0.09916551 -0.05349378 -0.032992925
000290 6f f2 15 bd 02 98 0a 3c 1d 2f a6 bd fb f7 25 3d
       -0.036608156 0.008459093 -0.08114455 0.040519696
0002a0 d5 fa bd 3c db e6 e2 bc 09 46 b4 bd a2 a4 a8 3d
       0.023190895 -0.027697971 -0.08802421 0.08234526
0002b0 0a 56 f0 bd f7 fd cd 3d 3a 61 64 3d eb 85 cf 3c
       -0.11735161 0.100582056 0.055756785 0.025332412
0002c0 e7 28 b2 3d b0 86 75 3d e8 39 cd bd 5d c8 8c 3c
       0.08699208 0.0599429 -0.1002081 0.017185384
0002d0 59 fe be 3d b4 0b 10 3d 7a 03 bb bd 13 e2 77 bc
       0.09325857 0.03516741 -0.091315225 -0.015129584
0002e0 7e 5b fa 3d ad 87 3e bc a7 b6 ab 3d d3 33 c9 3a
       0.12224482 -0.011629027 0.083844475 0.0015350528
0002f0 d7 34 d5 3d 3a 3f 27 bd 61 1c ac bd 80 d8 cf 3d
       0.10410469 -0.040831782 -0.0840385 0.10148716
000300 14 d7 6f bd 35 86 36 bd aa 52 5a 3d 7e 26 d9 bd
       -0.058554724 -0.044561584 0.05330149 -0.10603045
000310 cb ca a0 3d 55 87 09 3e c5 8c bf ba 86 4d cf 3d
       0.0785118 0.13430531 -0.0014614096 0.10122208
000320 59 56 bf 3d c9 d6 c2 3c f3 e2 af bd ee 69 aa bd
       0.093426414 0.023784058 -0.08588209 -0.08320986
000330 f4 d8 8c 3c 68 ee 69 bd a6 05 97 3d 32 70 a6 3d
       0.017193295 -0.057112128 0.07374124 0.08126868
000340 38 0f 72 bd 72 53 80 3b 2e 0c 90 3d b7 79 86 bd
       -0.059096545 0.0039161975 0.07033573 -0.06566184
000350 90 34 8a bc 8b 73 e8 bd 1d fc 86 3d 8a 42 47 3d
       -0.016870767 -0.11350163 0.065910555 0.04864744
000360 6d 2e b6 3d 10 d2 6a bc 7e fa 45 bc 72 87 de 3d
       0.08895574 -0.014332309 -0.012083648 0.10865678
000370 29 c6 fb bd 6a 25 e1 bd 6b 67 9e bd bd 4a 51 bd
       -0.122936554 -0.10993464 -0.07734569 -0.051096667
000380 4f 29 e5 3d 25 d1 fd bd cb 33 e6 bd ce d8 23 bb
       0.111895196 -0.12393407 -0.112403475 -0.0025001052
000390 0d 69 c2 bd 3b 34 8d 3d d2 d7 a6 bd b8 db f5 3d
       -0.09492693 0.06894728 -0.08146633 0.12004799
0003a0 94 c2 e3 3d fa 07 c6 3c 3c 44 70 bc 5c 2a d4 bc
       0.11121097 0.024173725 -0.014664706 -0.025899105
0003b0 19 7b 0b 3d 22 00 fa 3c a5 01 d3 3d bd a4 4a 3b
       0.034052942 0.030517641 0.10303048 0.0030920946
0003c0 06 5e 32 bd 7a 6e be bd 49 ad e2 3c 2b 7f 43 3d
       -0.0435467 -0.092984155 0.02767052 0.0477287
0003d0 4a 5e c9 bd 7e 24 e6 bd ce ba e8 bd 76 31 6f bc
       -0.09832437 -0.11237429 -0.11363755 -0.014599195
0003e0 ed b5 aa bd 53 9a b8 bb d4 62 a7 bd cb 0e 9a 3d
       -0.08335481 -0.0056336313 -0.08173147 0.07522353
0003f0 14 65 5b bd 31 09 48 3d 51 db a8 3d 9c 26 4f 3c
       -0.053563192 0.04883689 0.08244956 0.012643483
