Results/Models/LR_Lasso_DCN_model_iter_id_1_epoch_100_lr_0.0001.pth (torch, 828314 bytes, 16 tensors)

shared1.weight f4 [200, 17]
0.044913314 0.10919085 -0.03309812 -0.16957562 -0.059546154 -0.07308248 -0.10110209 -0.1314653
-0.052361958 -0.059139434 0.047562506 0.031201726 0.07245219 0.14957717 -0.02223912 0.12812616
-0.119851604 -0.16574974 0.08607765 0.16467583 0.22998661 -0.003388137 -0.17927547 0.13777195
0.09485307 0.1106744 -0.12317043 0.0069717965 -0.07799893 0.017939728 0.03884349 -0.08529996
-0.08394624 0.21028651 -0.014272986 0.08791194 -0.101465404 -0.19397843 0.03991625 0.20200172
0.12201945 -0.10177936 0.10098138 -0.022970906 -0.10307369 -0.11000787 0.049595263 0.030181972
-0.21534681 0.11564844 -0.07193431 0.17138311 -0.017103782 -0.051707044 -0.17038077 -0.043522384
0.0062064407 0.070762254 -0.062632345 -0.09721047 -0.12578227 -0.054545358 -0.044143587 -0.09521976
-0.22936076 0.088635996 -0.09748245 0.11328452 -0.043836076 -0.21592264 0.025275394 0.14168064
-0.16369748 -0.11553305 -0.10659843 0.019472798 0.103720374 0.03155218 0.093256176 -0.04371518
0.008885338 0.082946494 0.05746208 -0.086933695 -0.047998127 0.09604174 -0.10851442 0.029659944
0.12989527 0.019265836 -0.08034113 -0.09993002 -0.13961348 -0.07805907 0.0715606 -0.015864434
0.04226792 -0.06911031 0.18368067 -0.03090037 0.0767981 0.07016032 -0.023761796 -0.15176874
0.013269986 0.11751004 -0.10992912 -0.10922052 -0.08045628 -0.114397034 0.118791 -0.017281257
-0.054584388 -0.07795165 0.06979353 0.14171003 0.11278775 0.016585864 -0.021221157 0.03808642
-0.06843885 -0.107284926 -0.061758712 0.13933119 0.15692899 0.0689844 -0.018082883 0.116274334
-0.11245326 0.0012283433 0.1029751 0.11221832 0.06597006 0.04182197 0.049201403 0.0914059
-0.033205837 -0.15710992 0.16122997 0.20750503 -0.033282712 -0.076589756 0.001386914 0.10803908
-0.096231565 0.08061962 0.077308916 0.05004034 0.06782648 -0.029271416 -0.087368146 -0.033885542
0.042586118 0.102541044 -0.0241165 0.063971736 0.032128885 -0.03810812 -0.19400644 0.10195341
-0.1497011 0.08924304 -0.087836914 0.043085553 -0.13409375 0.10682265 0.08964173 -0.11302792
0.082385466 -0.05058564 0.05398767 -0.1368942 -0.07331616 0.098253146 -0.10229345 0.06665081
0.09675931 0.10198057 -0.045013465 -0.07439622 -0.13921772 0.08435612 -0.0105101345 -0.045790046
-0.10277612 -0.005739266 -0.121784866 -0.08359233 0.04915202 0.00020448118 0.005687101 -0.09405753
0.12667778 -0.19745891 -0.06129147 0.017954487 0.012501621 0.1413818 -0.084415466 0.047901534
-0.1403559 0.08119251 -0.011352631 -0.07922811 -0.007776734 0.07114542 -0.068675116 -0.08273406
0.044100363 -0.03746804 -0.12865885 -0.011242635 0.025162855 0.06272273 -0.13724694 0.04079985
0.21535493 0.12015005 0.14414562 0.09815859 0.17211543 -0.031571433 -0.016535746 -0.14131008
-0.077432 -0.124855556 -0.12560333 -0.11655482 -0.06912254 -0.03324144 -0.12961178 -0.019020922
0.15077259 0.05945553 -0.11111601 -0.018854704 -0.008564694 0.14396496 0.01444776 -0.12197142
0.033339858 -0.018444076 0.06378688 0.11751379 0.14744055 0.14989845 -0.047683254 -0.015641231
-0.074525215 0.059776943 -0.004762888 -0.04892196 0.10493228 -0.10324414 -0.1125761 -0.086396255
00000000: 06f7 373d 749f df3d e591 07bd 3ba5 2dbe
00000010: abe6 73bd 44ac 95bd 9d0e cfbd d79e 06be
00000020: 7e79 56bd 313c 72bd e7d0 423d c39a ff3c
00000030: d061 943d c22a 193e d12e b6bc 8133 033e
00000040: c274 f5bd 4dba 29be 7b49 b03d c8a0 283e
00000050: 9c81 6b3e 820b 5ebb fd93 37be 1714 0d3e
00000060: 5442 c23d 43a9 e23d c740 fcbd ab73 e43b
00000070: e7bd 9fbd 56f6 923c 5a1a 1f3d bfb1 aebd
00000080: 02ec abbd 5955 573e 3ed9 69bc 2d0b b43d
00000090: 18cd cfbd 48a2 46be 397f 233d 8ad9 4e3e
000000a0: 55e5 f93d b271 d0bd 53cf ce3d 7b2d bcbc
000000b0: 4c18 d3bd ce4b e1bd 6724 4b3d 2f40 f73c
000000c0: e083 5cbe 17d9 ec3d 4c52 93bd 0e7f 2f3e
000000d0: 3b1d 8cbc c4ca 53bd 4c78 2ebe 8744 32bd
000000e0: 665f cb3b cdeb 903d 6345 80bd 4816 c7bd
000000f0: 11cd 00be f46a 5fbd e8cf 34bd 9402 c3bd
00000100: 8cdd 6abe ca86 b53d e1a4 c7bd b701 e83d
00000110: 758d 33bd d31a 5dbe 580e cf3c bb14 113e
00000120: 50a0 27be 979c ecbd 4750 dabd 6b85 9f3c
00000130: 596b d43d dc3c 013d 18fd be3d b00e 33bd
00000140: cf93 113c dadf a93d 5c5d 6b3d 4b0a b2bd
00000150: af99 44bd 88b1 c43d cf3c debd 69f9 f23c
00000160: 4403 053e 63d3 9d3c e489 a4bd 1ca8 ccbd
00000170: d6f6 0ebe 6fdd 9fbd 5d8e 923d 21f6 81bc
00000180: 2021 2d3d b589 8dbd c916 3c3e c622 fdbc
00000190: 5248 9d3d 37b0 8f3d 19a8 c2bc 4469 1bbe
000001a0: 5b6a 593c 1ba9 f03d 8522 e1bd 02af dfbd
000001b0: 43c6 a4bd fe48 eabd b248 f33d 6c91 8dbc
000001c0: e193 5fbd 1da5 9fbd e9ef 8e3d 6f1c 113e
000001d0: 44fd e63d 14df 873c fed7 adbc 8200 1c3d
000001e0: ab29 8cbd 33b8 dbbd b4f6 7cbd d6ac 0e3e
000001f0: feb1 203e b147 8d3d 8e22 94bc 3d21 ee3d
00000200: e54d e6bd 5d00 a13a 9ce4 d23d b8d2 e53d
00000210: 501b 873d 844d 2b3d 6987 493d 0433 bb3d
00000220: d802 08bd 6ce1 20be 7819 253e 337c 543e
00000230: 7453 08bd 17db 9cbd 1dc9 b53a 9843 dd3d
00000240: 0e15 c5bd e61b a53d 2354 9e3d 19f7 4c3d
00000250: 9ce8 8a3d 9cca efbc 12ee b2bd 91cb 0abd
00000260: c86e 2e3d 0a01 d23d f78f c5bc 9d03 833d
00000270: 9499 033d 4317 1cbd a0a9 46be f3cc d03d
00000280: 3f4b 19be 0ec5 b63d d7e3 b3bd 7a7a 303d
00000290: df4f 09be d5c5 da3d 1596 b73d 2f7b e7bd
000002a0: b6b9 a83d e332 4fbd 2d22 5d3d fe2d 0cbe
000002b0: c826 96bd f238 c93d 3a7f d1bd 3880 883d
000002c0: bf29 c63d 30db d03d 0a60 38bd 0c5d 98bd
000002d0: 178f 0ebe e7c2 ac3d b332 2cbc 588e 3bbd
000002e0: 497c d2bd 7410 bcbb 586a f9bd 7532 abbd
000002f0: a153 493d 006a 5639 dc5a ba3b 3ca1 c0bd
00000300: d2b7 013e ab32 4abe c40c 7bbd 4a15 933c
00000310: 99d3 4c3c 64c6 103e 04e2 acbd 6634 443d
00000320: 75b9 0fbe 4248 a63d 6300 3abc 5942 a2bd
00000330: f9d3 febb b1b4 913d 8aa5 8cbd 7a70 a9bd
00000340: 95a2 343d 1678 19bd 25bf 03be 0733 38bc
00000350: 5522 ce3c c674 803d 768a 0cbe be1d 273d
00000360: 0186 5c3e 3b11 f63d e99a 133e 5f07 c93d
00000370: 073f 303e 0c51 01bd f975 87bc 97b3 10be
00000380: ab94 9ebd 45b4 ffbd 299e 00be 4bb4 eebd
00000390: 1e90 8dbd 2d28 08bd f3b8 04be c4d1 9bbc
000003a0: 2164 1a3e a487 733d ca90 e3bd 2e75 9abc
000003b0: ee52 0cbc 8d6b 133e 4cb6 6c3c 27cc f9bd
000003c0: 608f 083d 0818 97bc b2a2 823d 12ab f03d
000003d0: a8fa 163e fb7e 193e 844f 43bd 0a22 80bc
000003e0: ada0 98bd abd8 743d 0012 9cbb 6562 48bd
000003f0: bce6 d63d aa71 d3bd 4c8e e6bd 85f0 b0bd

shared1.bias f4 [200]
-0.08251349 -0.10941195 -0.20099176 -0.027403174 0.056425523 -0.20424725 -0.078592025 0.023590503
-0.11634082 -0.034361288 -0.20677626 -0.25512144 -0.13584574 0.026076656 -0.14222656 0.038280603
0.119436055 -0.16948986 -0.280705 -0.22121954 -0.26650736 -0.11612994 -0.035926197 0.06745029
0.18074816 -0.16778602 -0.0744976 0.050240334 -0.12580161 -0.013326321 0.03348894 0.06319739
-0.14290296 0.08279945 -0.12396107 -0.034096207 0.1333448 -0.23925132 -0.039197594 -0.013099006
0.12991303 0.06138962 0.12223075 0.097822 0.118902616 -0.07497844 -0.04014827 0.10541591
-0.023875508 0.11984731 0.07008045 0.18373486 -0.112554625 0.12617123 0.036996834 -0.0018871721
-0.2093454 -0.09019752 0.11163669 0.0063297446 -0.23319378 0.14255977 -0.07346041 0.031719763
-0.20110594 0.10372236 0.10336466 0.21311833 0.059718084 -0.037565496 -0.17235985 0.13221906
-0.1324518 0.08557164 0.13578646 0.16677544 0.15741153 0.06584608 -0.012145466 -0.097366765
-0.11456422 0.05050948 -0.07683866 -0.20937738 0.1287798 0.039262354 0.08491045 -0.002576477
0.055190325 -0.25541314 -0.113811776 0.15168987 -0.13407697 0.08827549 0.14415622 -0.23827568
-0.119316354 0.16863158 -0.036981665 -0.06517794 0.16674674 -0.03380085 0.18676688 -0.25210735
0.16168807 0.10421932 0.016964076 -0.059776474 -0.046630695 0.21060607 -0.22210692 -0.04765053
-0.17826602 -0.043820586 0.02563284 -0.1836321 -0.04656006 -0.01773055 0.04242403 0.063628174
0.16743478 0.07367921 0.04413045 0.09896163 0.13515061 0.02774963 0.0117142 0.048420742
0.11468873 0.06620262 0.059897874 -0.0027804156 0.08017436 -0.20721385 -0.16792955 0.057888404
-0.06600926 -0.19035171 -0.15677518 -0.11528664 -0.0233117 -0.08941704 -0.26150385 0.18024835
0.10428066 -0.038565617 -0.108970225 -0.16285951 -0.059437815 0.13053547 0.046112526 -0.23732573
-0.067998365 0.0058522564 -0.010950017 0.15659852 0.035404723 0.07544676 -0.0066270283 -0.019299584
-0.21225794 0.10564946 0.20395929 -0.31178576 -0.02213426 -0.22019191 0.022457732 -0.04798855
0.16334724 0.042837862 -0.025180472 -0.23459312 -0.17251535 -0.16422977 -0.087411456 0.09390113
-0.13450806 0.17232022 -0.30160275 -0.11456373 0.11820202 0.026456606 -0.19018315 0.106530435
0.087857835 -0.08777786 -0.060801078 0.0242927 0.007117991 -0.07784872 0.04721145 0.21812017
-0.20537715 -0.15742859 0.077284686 0.042315945 -0.16976598 -0.10382977 -0.28483626 -0.076806426
00000000: d5fc a8bd 5f13 e0bd c9d0 4dbe 9f7c e0bc
00000010: 731e 673d 3126 51be dbf4 a0bd df40 c13c
00000020: 1944 eebd 6cbe 0cbd 28bd 53be 479f 82be
00000030: 251b 0bbe b69e d53c d7a3 11be 1fcc 1c3d
00000040: e49a f43d c08e 2dbe 91b8 8fbe 6087 62be
00000050: a773 88be 89d5 edbd 5927 13bd 6123 8a3d
00000060: 0c16 393e 19d0 2bbe 3392 98bd cfc8 4d3d
00000070: 23d2 00be a456 5abc b32b 093d a26d 813d
00000080: 2755 12be c292 a93d 4ddf fdbd 77a8 0bbd
00000090: 8a8b 083e 4cfe 74be a88d 20bd 379d 56bc
000000a0: ec07 053e af73 7b3d 1e54 fa3d e756 c83d
000000b0: 3783 f33d 4c8e 99bd 8372 24bd 4ce4 d73d
000000c0: 9296 c3bc 8272 f53d 5786 8f3d fe24 3c3e
000000d0: 0a83 e6bd 0833 013e fe89 173d fd5a f7ba
000000e0: a45e 56be 7ab9 b8bd c7a1 e43d bf69 cf3b
000000f0: 5aca 6ebe 30fb 113e 6972 96bd 95ec 013d
00000100: b7ee 4dbe 646c d43d dab0 d33d b13b 5a3e
00000110: f39a 743d 47de 19bd 1a7f 30be 6f64 073e
00000120: 72a1 07be 2f40 af3d 9b0b 0b3e 2ec7 2a3e
00000130: 7d30 213e 4fda 863d c7fd 46bc 3a68 c7bd
00000140: a5a0 eabd 07e3 4e3d 965d 9dbd 0667 56be
00000150: dade 033e 90d1 203d 88e5 ad3d 1cda 28bb
00000160: 400f 623d 83c5 82be 2616 e9bd 9754 1b3e
00000170: 794b 09be c8c9 b43d b09d 133e 8afe 73be
00000180: 225c f4bd c2ad 2c3e 167a 17bd 037c 85bd
00000190: a8bf 2a3e c372 0abd d13f 3f3e 3714 81be
000001a0: 8f91 253e f070 d53d 3ff8 8a3c 2dd8 74bd
000001b0: d4ff 3ebd 1ea9 573e ff6f 63be 342d 43bd
000001c0: 5e8b 36be 377d 33bd f6fb d13c 0e0a 3cbe
000001d0: c3b5 3ebd a93f 91bc d2c4 2d3d 7d4f 823d
000001e0: 0674 2b3e 20e5 963d 21c2 343d 65ac ca3d
000001f0: ec64 0a3e 3153 e33c eaec 3f3c d454 463d
00000200: ede1 ea3d 3d95 873d 7957 753d a237 36bb
00000210: 7432 a43d de2f 54be b9f5 2bbe 641c 6d3d
00000220: dd2f 87bd 8feb 42be ac89 20be 671b ecbd
00000230: 2ef8 bebc 4820 b7bd d5e3 85be 0693 383e
00000240: 1991 d53d fbf6 1dbd c82b dfbd a5c4 26be
00000250: 1175 73bd 17ab 053e 7de0 3c3d 8405 73be
00000260: ba42 8bbd 49c4 bf3b b367 33bc 5d5b 203e
00000270: 8b04 113d d583 9a3d 8b27 d9bb 291a 9ebc
00000280: 255a 59be be5e d83d b4da 503e 62a2 9fbe
00000290: e852 b5bc fd79 61be 47f9 b73c a48f 44bd
000002a0: 8044 273e c176 2f3d 4747 cebc 2e39 70be
000002b0: dda7 30be d92b 28be c704 b3bd 3c4f c03d
000002c0: 7bbc 09be b674 303e ad6b 9abe 64a0 eabd
000002d0: e713 f23d 86bb d83c 5fbf 42be a12c da3d
000002e0: cfee b33d e1c4 b3bd 8d0a 79bd 7c01 c73c
000002f0: 093e e93b 266f 9fbd cb60 413d e55a 5f3e
00000300: 634e 52be f634 21be 6f47 9e3d 7c53 2d3d
00000310: 22d7 2dbe b4a4 d4bd 0fd6 91be b04c 9dbd

shared2.weight f4 [200, 200]
0.022252215 0.0702933 0.07140612 -0.023945868 0.02548167 0.0695822 0.018189222 -0.032519642
-0.0137319965 0.065945156 0.1287722 0.0103383865 -0.15064724 0.14236306 -0.15107436 0.04607287
-0.080871694 -0.07559283 -0.0057251155 0.032392893 -0.11126686 0.037934747 0.0358825 0.13022615
-0.12405993 -0.12617655 0.07697437 0.0143180955 -0.00032006676 0.06663491 -0.03733993 -0.11224997
-0.104063675 -0.13362452 -0.05198249 -0.076851584 0.051287755 0.10038007 -0.0024671806 0.00441453
0.10069837 0.08439625 -0.07236848 -0.12255429 -0.13062693 0.05403114 0.13343413 0.026748216
-0.08536536 -0.06863622 -0.009240577 -0.061769288 0.025530312 -0.07189723 0.09108356 -0.092922926
-0.07015647 -0.12874988 -0.041749418 0.10893559 -0.02849768 0.08028774 -0.026120858 0.029850641
0.046571758 0.048452638 0.041343544 -0.08694761 0.04851949 0.015702613 0.02917968 -0.105018124
-0.033709135 0.003218975 0.087026626 0.038597967 -0.07774149 0.03733544 0.103941984 -0.0694654
0.1015769 0.12353015 0.018690184 0.049230456 -0.14990936 -0.0005742089 0.10201428 -0.011131582
0.015888136 0.21132499 0.018352846 -0.050161697 0.08817087 0.09003829 0.03780823 0.10429803
0.1252504 0.09296071 0.07483361 -0.08370335 0.032369852 0.051405948 0.008593526 0.05756398
0.07768894 -0.043927778 -0.10581401 -0.044323117 0.05904267 0.12784643 0.1256478 0.10126341
0.14967078 -0.043604184 0.075735755 -0.08059855 -0.059384186 0.042127278 -0.03268171 0.07802846
0.10482579 0.043539584 0.0038035614 0.024927994 0.055212114 0.012819439 -0.0046692006 0.04425344
0.075078055 0.18635142 0.09002043 -0.09402268 0.07892017 0.11427837 0.001200225 -0.07056733
-0.0911418 -0.17636953 0.030519573 0.08808913 -0.0808776 -0.023730671 0.03666078 0.018342426
0.053717975 -0.10867231 0.09787431 -0.072201975 -0.020704146 -0.036102552 0.038496852 -0.008246492
-0.00709697 0.039743986 0.106038965 -0.05557975 -0.040622614 0.06509448 0.074648276 -0.0573153
0.10610857 0.103194736 0.05096176 -0.068616346 0.015877154 0.0005663178 -0.09062971 -0.011267434
0.10608479 -0.00040052526 -0.111081414 0.06993636 0.057619486 -0.080689445 0.06823535 0.033706866
0.097060025 -0.11472097 0.15970568 0.040780943 -0.089695126 0.0015564802 0.03163386 0.10867059
0.044102255 -0.08077561 0.04605989 0.025494635 0.12334936 -0.05689636 0.023165165 -0.02164859
-0.00208897 0.084486395 0.13230541 0.13002947 0.029884197 0.03078949 0.065163374 0.012845898
-0.025723025 0.01892001 0.11389792 -0.056945816 -0.0033049323 -0.055725586 0.090507366 0.003382843
0.055567697 0.11149261 -0.012561295 -0.07433783 0.036524955 -0.059309293 0.034970153 0.08711425
0.027697077 0.12002023 0.10988744 0.025052916 -0.047412224 -0.058797948 0.1096974 0.07106634
0.11571544 0.018136762 -0.0942476 -0.057404906 0.003284524 0.09669872 0.06825115 -0.027244497
-0.09706829 -0.06403394 0.05912082 0.09188658 0.021117348 0.09969596 0.06771492 0.117950246
-0.05505279 0.009235472 -0.034306705 -0.031447813 0.09106138 0.06560844 0.07552185 0.014390852
-0.020375686 0.053541575 -0.051984396 0.074990384 -0.06496624 0.06288465 -0.12949236 -0.06669588
00000000: 474a b63c eff5 8f3d 5f3d 923d 202a c4bc
00000010: efbe d03c 1d81 8e3d 9001 953c 5133 05bd
00000020: 2bfc 60bc 410e 873d dcdc 033e 5662 293c
00000030: 4543 1abe 9fc7 113e 3db3 1abe e8b6 3c3d
00000040: 0fa0 a5bd 6ad0 9abd c099 bbbb 69ae 043d
00000050: e1df e3bd 7761 1b3d 87f9 123d 015a 053e
00000060: 2213 febd 6d34 01be bda4 9d3d 7296 6a3c
00000070: a2ce a7b9 e277 883d c1f1 18bd 50e3 e5bd
00000080: 561f d5bd ded4 08be 97eb 54bd 5d64 9dbd
00000090: 1c13 523d 1194 cd3d 6cb0 21bb c3a7 903b
000000a0: f23a ce3d f1d7 ac3d ed35 94bd befd fabd
000000b0: 11c3 05be c24f 5d3d f5a2 083e 131f db3c
000000c0: 09d4 aebd 2691 8cbd ca65 17bc cb01 7dbd
000000d0: f224 d13c db3e 93bd 048a ba3d 604e bebd
000000e0: 32ae 8fbd 02d7 03be 7001 2bbd 9f19 df3d
000000f0: f773 e9bc e66d a43d 69fb d5bc 5589 f43c
00000100: 07c2 3e3d 4676 463d d957 293d 9711 b2bd
00000110: 5fbc 463d c4a2 803c 390a ef3c be13 d7bd
00000120: 9712 0abd 70f5 523b 043b b23d e718 1e3d
00000130: ee36 9fbd 0ced 183d 89df d43d e043 8ebd
00000140: 8d07 d03d 60fd fc3d 281c 993c e0a5 493d
00000150: d781 19be 8286 16ba ddec d03d 3d61 36bc
00000160: d627 823c 9465 583e b558 963c 5a76 4dbd
00000170: ee92 b43d ff65 b83d cddc 1a3d 359a d53d
00000180: a441 003e 2f62 be3d 5d42 993d a96c abbd
00000190: 4096 043d 0b8f 523d dccb 0c3c 35c8 6b3d
000001a0: 611b 9f3d 9ded 33bd 04b5 d8bd 288c 35bd
000001b0: bad6 713d 2dea 023e d1a9 003e 3163 cf3d
000001c0: 4c43 193e 4d9a 32bd 591b 9b3d da10 a5bd
000001d0: d53c 73bd a78d 2c3d 42dd 05bd 63cd 9f3d
000001e0: e7ae d63d 9056 323d 2c45 793b cb35 cc3c
000001f0: 1926 623d a008 523c 1800 99bb 1843 353d
00000200: 86c2 993d e8d2 3e3e a25c b83d f68e c0bd
00000210: e6a0 a13d c70a ea3d de50 9d3a 9b85 90bd
00000220: 8da8 babd 379a 34be 2f04 fa3c 1368 b43d
00000230: 28a3 a5bd d366 c2bc 9d29 163d db42 963c
00000240: 6107 5c3d 978f debd 5472 c83d a1de 93bd
00000250: be9b a9bc 45e0 13bd e0ae 1d3d 4b1c 07bc
00000260: b38d e8bb 97ca 223d f52a d93d 98a7 63bd
00000270: e663 26bd 4150 853d 32e1 983d 73c3 6abd
00000280: 734f d93d c357 d33d 47bd 503d ba86 8cbd
00000290: ce10 823c f274 143a 129c b9bd 0b9b 38bc
000002a0: fb42 d93d 97fd d1b9 a77e e3bd cb3a 8f3d
000002b0: 6902 6c3d 8240 a5bd fabe 8b3d 3610 0a3d
000002c0: 68c7 c63d d4f2 eabd e389 233e eb09 273d
000002d0: 14b2 b7bd cf02 cc3a 8292 013d b08e de3d
000002e0: 91a4 343d af6d a5bd 4ca9 3c3d 20da d03c
000002f0: 979e fc3d 280c 69bd dfc4 bd3c 6258 b1bc
00000300: 1ae7 08bb 3407 ad3d 127b 073e 7226 053e
00000310: b4cf f43c 3e3a fc3c 6074 853d 9a77 523c
00000320: 18b9 d2bc 23fe 9a3c 5043 e93d 0440 69bd
00000330: 9097 58bb 8340 64bd ed5b b93d b0b2 5d3b
00000340: f49a 633d 3d56 e43d e4cd 4dbc 6f3e 98bd
00000350: 319b 153d 4dee 72bd dd3c 0f3d f568 b23d
00000360: fbe4 e23c 2bcd f53d ab0c e13d c63b cd3c
00000370: 5233 42bd 1ed6 70bd 08a9 e03d 3b8b 913d
00000380: 37fc ec3d 8c93 943c e304 c1bd 6821 6bbd
00000390: 2b41 573b fa09 c63d 42c7 8b3d da2f dfbc
000003a0: bdcb c6bd 3a24 83bd ac28 723d 082f bc3d
000003b0: 4afe ac3c 652d cc3d 1fae 8a3d e68f f13d
000003c0: 097f 61bd 6150 173c 3085 0cbd 6ccf 00bd
000003d0: 647e ba3d b85d 863d 33ab 9a3d 9cc7 6b3c
000003e0: e9ea a6bc 694e 5b3d 97ed 54bd 8f94 993d
000003f0: 050d 85bd abc9 803d a599 04be d997 88bd

shared2.bias f4 [200]
-0.05842028 -0.054932043 -0.06775276 -0.03767799 0.0030774414 -0.0524439 -0.10300987 -0.08292401
-0.019959109 -0.04868001 0.038195904 -0.08801086 0.013941024 -0.0374404 -0.08501334 -0.07133735
0.019684779 0.054940462 0.009576465 -0.028031709 -0.014453087 0.0684221 -0.11439628 -0.02268359
-0.06365601 -0.01260888 -0.0661099 -0.020546986 0.001046343 -0.0150165595 0.0007972888 -0.05507939
0.00066690496 -0.07055862 -0.07461857 0.05996885 -0.008222891 -0.035343654 -0.079643086 -0.08708035
-0.048380658 -0.014025492 0.01808395 0.015689604 0.04790658 0.01301923 -0.050877467 -0.09484604
-0.0717966 -0.042585354 -0.0033635818 0.028908102 -0.03049394 -0.079206266 -0.049992222 0.05726256
-0.07350022 0.021629231 0.038672876 -0.07142654 -0.034680247 -0.0053396616 -0.050261997 0.01718813
0.0079620015 -0.08816406 0.005981528 -0.07187732 0.023954336 0.042881854 -0.04428811 0.02461552
0.051511593 -0.0730705 -0.036700767 -0.11738679 -0.12876405 -0.04007197 -0.041310307 -0.028661998
-0.040567685 -0.044898596 -0.12357677 -0.090201005 -0.08202059 0.040081695 -0.06022801 -0.02749002
0.003480058 -0.065024436 -0.0658398 0.07876212 0.07670016 -0.015154563 -0.13153712 -0.019176401
0.040122688 -0.0020446414 -0.043650396 -0.10622764 -0.010380857 -0.051603924 -0.11491101 0.00038320932
-0.063191876 -0.0038830112 -0.037973516 0.07327272 -0.06062266 0.057207312 -0.044657905 0.02325448
-0.03491795 0.026834358 -0.040527187 0.052822016 -0.015969902 0.030059831 -0.039857507 -0.054540105
-0.058595486 0.047551546 -0.07526659 0.02709082 -0.04865756 0.026887653 0.07423024 -0.08739198
0.056637775 0.012867689 0.00048017985 -0.0729379 0.020197708 -0.06821577 -0.093482345 -0.07992618
-0.034212366 -0.10208912 -0.15441653 0.092660815 -0.048311792 -0.13910496 -0.056010444 -0.12737434
-0.06793424 -0.0033771012 -0.062163327 -0.0789562 -0.047040604 0.019866234 0.0038042213 -0.03060832
-0.05951166 -0.021707885 0.0535982 -0.09880118 -0.0094188135 0.038839605 0.07347955 0.06235706
0.0012677514 0.06549565 0.035981115 0.04422045 0.008525033 -0.06584781 -0.031416275 -0.027555821
-0.08767896 -0.059999306 -0.003668721 0.016700601 0.017915199 -0.04854296 -0.113345034 -0.014620194
0.025947379 0.04792671 -0.03888185 0.003490406 -0.051233005 -0.055544816 0.04065456 -0.07176586
0.01778998 0.0020469488 -0.008353958 0.00748356 -0.017602649 0.037746157 0.032943495 0.033896115
-0.028944883 0.024946468 0.038639743 -0.057271957 -0.0309899 -0.13937706 -0.036027286 -0.08302211
00000000: 1b4a 6fbd 6c00 61bd f6c1 8abd 3c54 1abd
00000010: e6ae 493b 6acf 56bd d7f6 d2bd 10d4 a9bd
00000020: 4981 a3bc b164 47bd 4f73 1c3d 0a3f b4bd
00000030: e568 643c 1b5b 19bd 791b aebd 5119 92bd
00000040: f941 a13c 4009 613d 9be6 1c3c c1a2 e5bc
00000050: a4cc 6cbc e320 8c3d 9948 eabd f0d2 b9bc
00000060: 155e 82bd 7a95 4ebc a164 87bd 2752 a8bc
00000070: 7225 893a 0408 76bc 2501 513a ed9a 61bd
00000080: 3cd3 2e3a 0a81 90bd 9fd1 98bd e6a1 753d
00000090: 4eb9 06bc 82c4 10bd ea1b a3bd 2f57 b2bd
000000a0: cc2a 46bd 2dcb 65bc cb24 943c 7c87 803c
000000b0: b139 443d 9c4e 553c e464 50bd a43e c2bd
000000c0: 190a 93bd fb6d 2ebd 8a6f 5cbb afd0 ec3c
000000d0: 6dce f9bc e536 a2bd a5c4 4cbd 258c 6a3d
000000e0: 4987 96bd c92f b13c 7367 1e3d 1448 92bd
000000f0: e00c 0ebd 54f8 aebb 86df 4dbd 1fce 8c3c
00000100: 0e73 023c 5c8f b4bd b200 c43b 6b34 93bd
00000110: e23b c43c e2a4 2f3d 7367 35bd 7da6 c93c
00000120: d2fd 523d fca5 95bd 8b53 16bd 7c68 f0bd
00000130: b9da 03be 8222 24bd ff34 29bd 91cc eabc
00000140: 4d2a 26bd 97e7 37bd d115 fdbd 4ebb b8bd
00000150: 69fa a7bd b42c 243d a5b1 76bd c032 e1bc
00000160: af11 643b 882b 85bd 04d7 86bd 094e a13d
00000170: f914 9d3d d84a 78bc abb1 06be d417 9dbc
00000180: b057 243d 64ff 05bb c2ca 32bd e08d d9bd
00000190: 7814 2abc a35e 53bd 7756 ebbd 7ce9 c839
000001a0: be6a 81bd 1e7a 7ebb 1e8a 1bbd 0210 963d
000001b0: 774f 78bd 3752 6a3d 35eb 36bd 2e80 be3c
000001c0: 2006 0fbd bad3 db3c d6ff 25bd e65b 583d
000001d0: 50d3 82bc 0940 f63c a041 23bd 7265 5fbd
000001e0: d201 70bd 69c5 423d 5f25 9abd 91ed dd3c
000001f0: 264d 47bd 7f43 dc3c 0606 983d 91fa b2bd
00000200: 03fd 673d 00d3 523c a6c0 fb39 7760 95bd
00000210: aa75 a53c b6b4 8bbd ac73 bfbd 56b0 a3bd
00000220: 4422 0cbd 1a14 d1bd 5e1f 1ebe f4c4 bd3d
00000230: 96e2 45bd 8871 0ebe 356b 65bd 6b6e 02be
00000240: 1b21 8bbd 5b52 5dbb f99e 7ebd cab3 a1bd
00000250: a6ad 40bd 83be a23c 3e50 793b 4dbe fabc
00000260: 80c2 73bd bcd4 b1bc c989 5b3d 4658 cabd
00000270: 5e51 1abc 4716 1f3d 727c 963d 1e6a 7f3d
00000280: ae2a a63a 9522 863d ef60 133d 8120 353d
00000290: 94ac 0b3c 37db 86bd 5aae 00bd bfbc e1bc
000002a0: 0791 b3bd d5c1 75bd ed6e 70bb b3cf 883c
000002b0: e5c2 923c fcd4 46bd 7121 e8bd 8a89 6fbc
000002c0: 998f d43c cc4e 443d 9342 1fbd 4cbf 643b
000002d0: b3d9 51bd f682 63bd 6585 263d fbf9 92bd
000002e0: 4bbc 913c 1a26 063b 0adf 08bc a738 f53b
000002f0: 6e33 90bc b79b 1a3d c2ef 063d a7d6 0a3d
00000300: d21d edbc 895c cc3c b544 1e3d 0096 6abd
00000310: 88de fdbc dcb8 0ebe 5991 13bd 7f07 aabd

hidden1_Y1.weight f4 [200, 200]
-0.051396325 0.09942852 -0.023263596 0.12899612 0.011019938 -0.003340495 0.07391548 -0.11992925
-0.10231014 0.033547305 0.10366871 0.0054587475 -0.10401154 -0.0009613124 0.053067908 0.03738492
0.018831102 -0.032997906 -0.0035000371 -0.0304591 -0.11249677 -0.025942072 -0.08590398 -0.06588331
-0.049974125 -0.0935393 0.0681182 0.07708405 0.0087956665 0.07185951 -0.052806776 0.026540626
0.049515795 0.04528104 -0.050813038 0.0261454 0.032840416 0.09921624 -0.051460214 -0.050602768
0.07472215 -0.087287836 -0.12432526 0.039291117 0.007353058 0.004895202 0.013134758 0.011149112
-0.013528903 -0.09665389 -0.022271987 0.11681125 -0.05569556 0.009448668 -0.032711256 0.0012191933
0.1009679 0.044784196 -0.057795666 -0.017220471 -0.015853472 -0.051060658 -0.0583764 -0.109778516
0.044209406 -0.045274936 0.0032615033 -0.030682579 -0.13637617 -0.09653882 0.08467711 0.091171466
0.006306299 -0.08899599 0.040931933 -0.023778636 0.04600355 0.06349394 -0.054993723 0.08120291
-0.025044674 -0.08770108 -0.002595443 0.09896359 0.051346127 -0.11785714 -0.06760453 -0.024403697
0.071206845 -0.006180364 -0.07331787 -0.053146075 0.0025829778 0.006955655 -0.10848879 -0.0017669016
-0.03373417 0.07079229 -0.052490212 -0.123646185 0.042981993 0.06449601 0.06757325 0.10367778
-0.11547642 -0.12695508 0.047361504 -0.03304302 -0.08452316 -0.11722447 0.025948016 0.012238766
-0.040701568 0.088875 -0.114933394 -0.041452527 0.094185494 -0.12742855 0.010086414 0.0044960347
-0.06327581 0.08476284 -0.11428559 -0.09106375 -0.09470543 0.12119568 -0.038474575 0.07096651
0.08528208 -0.0104020415 0.014248735 -0.019469254 -0.054601822 0.006401296 -0.07212292 -0.11793511
0.09330591 -0.022018617 0.03927425 -0.07369976 0.10309421 0.063129194 -0.05699731 0.0025847417
0.094102226 -0.09564263 0.1058094 0.10248156 0.07979325 0.078239374 -0.05888502 -0.108998686
-0.00571702 -0.09945293 0.07553803 -0.04970144 -0.10523048 -0.12455472 -0.103601635 -0.04581851
0.0847926 0.027948543 -0.01226797 0.02938259 -0.063865006 -0.03960608 0.029562224 -0.037574317
0.018134942 0.038639423 -0.046892006 -0.011935354 -0.08637744 -0.04840935 0.10513339 0.10847534
0.022478772 -0.10856016 -0.10246683 -0.02031165 0.10801538 0.0016789859 0.048375156 -0.07326719
0.053659495 -0.009430769 0.036833085 -0.1178901 0.09274424 -0.09344579 0.048973165 -0.048332296
-0.0023857802 -0.011692116 0.101286545 0.032703444 -0.04174009 -0.03770236 -0.05655744 -0.082824536
-0.021674167 0.11572587 -0.07101414 -0.00080233155 -0.013862205 -0.10124221 -0.041483987 -0.07632694
-0.0811516 -0.06815328 0.076483205 0.10775748 0.092043616 0.02669088 0.06990596 0.024331938
-0.06831747 0.046941936 -0.076516755 0.05297799 0.0099553615 0.06556993 0.0967599 0.08396996
-0.08167442 0.01842701 -0.101704046 -0.11206474 -0.029186644 0.014231549 0.100936435 0.027606877
-0.072573274 -0.10431153 0.08723444 0.121425964 -0.020142758 0.031115687 -0.092019044 0.05874866
-0.007706384 -0.0053287884 0.059867993 0.023906086 -0.08793345 0.047744323 -0.083537355 0.008886859
-0.027647192 -0.046045627 -0.0569458 0.04265907 0.098951325 0.08797972 0.024544556 0.0046460857
00000000: f484 52bd 2ea1 cb3d 4c93 bebc 8f17 043e
00000010: f88c 343c 35ec 5abb 0061 973d 779d f5bd
00000020: fb87 d1bd e668 093d 4350 d43d 4bdf b23b
00000030: 0104 d5bd 9500 7cba bc5d 593d ee20 193d
00000040: af43 9a3c d028 07bd e160 65bb 5d85 f9bc
00000050: b564 e6bd 7884 d4bc 6dee afbd d4ed 86bd
00000060: abb1 4cbd 8891 bfbd 8e81 8b3d 3ede 9d3d
00000070: b31b 103c 142b 933d eb4b 58bd ba6b d93c
00000080: 13d1 4a3d 9d78 393d 5521 50bd e12e d63c
00000090: ac83 063d e231 cb3d f2c7 52bd d944 4fbd
000000a0: ed07 993d f7c3 b2bd 3e9e febd b9ef 203d
000000b0: ecf1 f03b ee67 a03b 2b33 573c c4aa 363c
000000c0: 55a8 5dbc 7af2 c5bd be73 b6bc bd3a ef3d
000000d0: 0721 64bd 96ce 1a3c 3dfc 05bd 57cd 9f3a
000000e0: 42c8 ce3d a26f 373d 26bb 6cbd f211 8dbc
000000f0: 24df 81bc fb24 51bd 181c 6fbd 8fd3 e0bd
00000100: ec14 353d 3672 39bd f2be 553b 085a fbbc
00000110: 32a6 0bbe 25b6 c5bd 316b ad3d 1bb8 ba3d
00000120: 12a5 ce3b 8843 b6bd 3ea8 273d 6acb c2bc
00000130: 386e 3c3d 1c09 823d 1941 61bd b64d a63d
00000140: 7d2a cdbc a09c b3bd 4f18 2abb 6cad ca3d
00000150: 5150 523d 165f f1bd 3e74 8abd 43ea c7bc
00000160: e5d4 913d a784 cabb ae27 96bd b3af 59bd
00000170: 2d47 293b 43ec e33b 5f2f debd 6197 e7ba
00000180: d72c 0abd 8cfb 903d faff 56bd 363a fdbd
00000190: e30d 303d 7c16 843d d863 8a3d 0455 d43d
000001a0: e77e ecbd 8300 02be 23fe 413d 1e58 07bd
000001b0: 7a1a adbd 6213 f0bd ef90 d43c 1b85 483c
000001c0: b0b6 26bd 1904 b63d 3362 ebbd 20ca 29bd
000001d0: 53e4 c03d a17c 02be 7d41 253c 7953 933b
000001e0: bf96 81bd 2498 ad3d 900e eabd a27f babd
000001f0: ecf4 c1bd 7135 f83d 8497 1dbd e456 913d
00000200: 5fa8 ae3d 536d 2abc 8773 693c fc7d 9fbc
00000210: 29a6 5fbd f6c1 d13b 2eb5 93bd f787 f1bd
00000220: 2b17 bf3d 6360 b4bc 09de 203d e6ef 96bd
00000230: 0f23 d33d e149 813d 0376 69bd c564 293b
00000240: abb8 c03d 48e0 c3bd 99b2 d83d dae1 d13d
00000250: a56a a33d f73b a03d 6b31 71bd b43a dfbd
00000260: d755 bbbb faad cbbd afb3 9a3d bd93 4bbd
00000270: 1483 d7bd 8c16 ffbd 182d d4bd 31ac 3bbd
00000280: bea7 ad3d 58f4 e43c 98ff 48bc c2b3 f03c
00000290: a8cb 82bd fc39 22bd 7a2c f23c 87e7 19bd
000002a0: bb8f 943c 5f44 1e3d d511 40bd 818c 43bc
000002b0: a8e6 b0bd e248 46bd 2d50 d73d 5228 de3d
000002c0: 6725 b83c ca54 debd 21da d1bd 9e64 a6bc
000002d0: 2b37 dd3d 6b11 dc3a 0725 463d 1c0d 96bd
000002e0: 0fca 5b3d 8383 1abc 4ade 163d 5d70 f1bd
000002f0: b1f0 bd3d 8260 bfbd 1698 483d 16f8 45bd
00000300: c05a 1cbb 4a90 3fbc 526f cf3d 0cf4 053d
00000310: a8f7 2abd ca6d 1abd c6a8 67bd e99f a9bd
00000320: 068e b1bc af01 ed3d dd6f 91bd 8f53 52ba
00000330: 4d1e 63bc 1358 cfbd 1deb 29bd 4c51 9cbd
00000340: cf32 a6bd f293 8bbd 3aa3 9c3d f4af dc3d
00000350: 5d81 bc3d d5a6 da3c db2a 8f3d c653 c73c
00000360: 08ea 8bbd 3046 403d d1b4 9cbd 73ff 583d
00000370: d01b 233c 8749 863d 0e2a c63d 71f8 ab3d
00000380: eb44 a7bd 3ef4 963c 364a d0bd 3382 e5bd
00000390: d418 efbc 712b 693c c3b7 ce3d d127 e23c
000003a0: 4ca1 94bd 49a1 d5bd f8a7 b23d 2dae f83d
000003b0: 6d02 a5bc 53e6 fe3c 7b74 bcbd 6fa2 703d
000003c0: d685 fcbb 1e9d aebb 2438 753d b2d6 c33c
000003d0: 7416 b4bd 8d8f 433d a215 abbd 309a 113c
000003e0: 5d7c e2bc 579a 3cbd 0040 69bd 47bb 2e3d
000003f0: fea6 ca3d b62e b43d aa11 c93c 313e 983b

hidden1_Y1.bias f4 [200]
0.027365848 -0.024377573 -0.01584192 0.033751015 -0.07075749 0.061872188 0.0058777817 0.05521272
0.06351165 -0.024883283 -0.0057417927 0.00767994 -0.03054599 0.0006603721 -0.039354727 -0.00965539
0.05343268 0.047490954 -0.041638963 -0.06030923 -0.008028643 0.013341501 0.045783177 0.042412333
0.027369464 -0.028664673 -0.032410797 0.0363589 0.028428847 0.008763447 0.04077701 0.05737278
0.010105925 0.051608603 0.072599135 -0.03607009 0.040613182 0.053622346 -0.052431706 -0.040001564
0.051077787 -0.04844754 0.033507895 0.07291706 0.041123617 0.03885612 0.027967505 0.051075954
-0.031254224 0.043529473 0.055644874 0.014079943 -0.044124693 0.039105784 0.03141197 -0.009971918
0.0368103 -0.0030978352 -0.0770917 -0.04970504 0.00812156 0.008764592 0.036094774 0.06998765
0.01140171 -0.07077064 0.04362673 0.041592922 0.034504585 -0.025615623 0.06955658 0.034268804
0.0074414 0.061165106 -0.06652126 0.019789286 -0.059110403 -0.02101862 0.01734957 -0.057701085
0.016852953 0.0036716661 0.0020015496 -0.0021921047 0.057909522 -0.03736677 0.037150245 0.02737026
0.02787974 0.052606985 -0.05568485 -0.062669076 0.03245067 -0.0603687 -0.022964356 0.015590878
0.011010146 0.023390338 0.028396554 -0.053600635 0.041380383 -0.062948175 0.020745376 0.007808064
-0.009450241 -0.009668559 0.059576757 -0.052514255 -0.008367039 -0.0017248715 0.06690667 0.02960531
0.033733632 0.033839602 0.0019056228 0.015689222 -0.015689446 -0.003517764 -0.032101557 0.05399911
-0.0013329695 -0.05103476 0.030166652 0.055892177 0.031612817 -0.025437342 0.04229916 0.03543076
0.026537178 0.024930319 -0.021127295 0.04436887 0.051229786 0.03359954 -0.05813243 -0.016788818
-0.03471222 0.026976297 -0.059714686 0.06590851 0.028360449 -0.03611672 0.0622304 0.046158977
0.008960136 0.049235538 -0.072891355 -0.06224499 -0.024603073 -0.03742091 -0.025557777 -0.06948004
0.037422188 0.062314454 0.04386727 0.016813228 0.059979666 -0.05775845 0.022906957 -0.008827501
-0.010384832 -0.0050459974 -0.021691905 -0.07473103 0.04110535 0.0048362147 0.05037064 0.019691186
-0.033296637 -0.045102447 0.03293078 -0.024243267 0.038956072 -0.020355409 -0.052981358 0.058266975
0.013388603 -0.0116266105 -0.019635592 -0.06548045 -0.041753326 -0.016430467 -0.031056084 0.028731206
-0.010536139 -0.039610848 -0.030232882 0.030291548 -0.026287992 0.012654783 0.03355747 0.06038519
-0.03885234 0.033687312 -0.018860465 -0.066230185 -0.030613651 -0.046652418 0.041627564 0.05379715
00000000: 582e e03c 7ab3 c7bc eac6 81bc 813e 0a3d
00000010: 4ee9 90bd b16d 7d3d 689a c03b bc26 623d
00000020: 6512 823d 07d8 cbbc a625 bcbb 02a8 fb3b
00000030: 963b fabc d21c 2d3a 6c32 21bd a431 1ebc
00000040: 3adc 5a3d e085 423d 9e8d 2abd d006 77bd
00000050: 928a 03bc 5096 5a3c 2487 3b3d 8eb8 2d3d
00000060: ed35 e03c 2dd2 eabc 2fc1 04bd 12ed 143d
00000070: 9de3 e83c 9094 0f3c cb05 273d b8ff 6a3d
00000080: 5293 253c 8b63 533d dbae 943d 3bbe 13bd
00000090: 025a 263d 1ba3 5b3d a1c2 56bd aed8 23bd
000000a0: f136 513d ed70 46bd 933f 093d 8a55 953d
000000b0: 3d71 283d 9827 1f3d 1c1c e53c 0535 513d
000000c0: 6e04 00bd f64b 323d e1eb 633d 90af 663c
000000d0: 18bc 34bd 632d 203d d6a9 003d 4161 23bc
000000e0: 66c6 163d 0d05 4bbb 41e2 9dbd 8397 4bbd
000000f0: 4b10 053c 5d99 0f3c 1dd8 133d af55 8f3d
00000100: 3dce 3a3c 33f0 90bd f1b1 323d 575d 2a3d
00000110: ae54 0d3d dbd7 d1bc ae73 8e3d 725d 0c3d
00000120: fdd6 f33b 4388 7a3d 4c3c 88bd 241d a23c
00000130: c01d 72bd 3e2f acbc af20 8e3c f957 6cbd
00000140: 340f 8a3c 56a0 703b 6e2c 033b 6aa9 0fbb
00000150: 8932 6d3d e60d 19bd db2a 183d 9837 e03c
00000160: 0d64 e43c 6c7a 573d cc15 64bd a558 80bd
00000170: feea 043d 2c45 77bd bf1f bcbc e270 7f3c
00000180: e663 343c 189d bf3c e49f e83c 578c 5bbd
00000190: 7a7e 293d f9ea 80bd 35f2 a93c cada ff3b
000001a0: 2fd5 1abc e068 1ebc c206 743d 3019 57bd
000001b0: e815 09bc 1515 e2ba 5d06 893d d686 f23c
000001c0: 472c 0a3d 659b 0a3d 17c6 f93a af86 803c
000001d0: 2787 80bc 498a 66bb ec7c 03bd 2c2e 5d3d
000001e0: 09b7 aeba d309 51bd 0e20 f73c 32ef 643d
000001f0: 717c 013d f961 d0bc e241 2d3d d81f 113d
00000200: 7f64 d93c ab3a cc3c 2613 adbc 22bc 353d
00000210: 53d6 513d ac9f 093d 451c 6ebd b488 89bc
00000220: 672e 0ebd 65fd dc3c 6397 74bd 0afb 863d
00000230: 2c54 e83c 20ef 13bd 4ee5 7e3d 3211 3d3d
00000240: 89cd 123c 34ab 493d 1048 95bd 9af4 7ebd
00000250: 628c c9bc ab46 19bd 8b5e d1bc 8d4b 8ebd
00000260: 0248 193d 713d 7f3d 2bae 333d e5bb 893c
00000270: 3dad 753d 2094 6cbd 5fa7 bb3c 39a1 10bc
00000280: 2425 2abc e558 a5bb 39b3 b1bc 950c 99bd
00000290: 155e 283d 1c79 9e3b 7251 4e3d 694f a13c
000002a0: 0e62 08bd 58bd 38bd 6de2 063d d199 c6bc
000002b0: 6790 1f3d 63c0 a6bc fb02 59bd 5aa9 6e3d
000002c0: df5b 5b3c 8a7d 3ebc d2da a0bc 9d1a 86bd
000002d0: 8905 2bbd 3099 86bc 5469 febc b55d eb3c
000002e0: c59f 2cbc fc3e 22bd f3aa f7bc fb25 f83c
000002f0: ea59 d7bc 0256 4f3c 8f73 093d 7656 773d
00000300: a223 1fbd b5fb 093d 4381 9abc b1a3 87bd
00000310: 7bc9 fabc 9b16 3fbd aa81 2a3d 665a 5c3d

hidden2_Y1.weight f4 [200, 200]
-0.0148794865 -0.11451572 0.052353173 0.033604104 -0.12574063 0.016959207 -0.09534505 0.0007346896
-0.041622546 -0.09225094 -0.00401221 -0.013009256 -0.024799308 0.08821079 -0.106496975 -0.11384432
0.012802804 0.067179285 -0.1112931 -0.048853293 0.03617081 -0.0043727984 -0.055418286 0.015970103
-0.047119424 0.047047786 0.09223798 0.094628625 -0.11810737 0.003358995 -0.08355987 -0.09477992
-0.03380159 -0.03714028 0.012024261 -0.11321465 -0.04690827 0.07389678 -0.09772312 -0.09961551
0.08854057 -0.0791365 -0.10158173 0.052440748 -0.04414251 -0.022639444 0.018157296 -0.0939876
-0.08256958 -0.041869134 0.032269564 0.06613599 -0.10138901 0.044071484 0.06945928 -0.04132154
0.017991163 -0.12640646 -0.11406457 -0.087696336 -0.010789895 0.111073434 -0.025411757 -0.023390638
-0.06106986 -0.042874623 -0.100458845 -0.09251693 0.005555372 -0.079342775 -0.042476907 -0.032072444
-0.10183178 0.074970596 0.09306471 -0.059006054 0.015291013 0.03709521 -0.113316745 -0.03172099
0.11596508 -0.08789635 -0.11163749 -0.06854296 -0.058566414 -0.06965646 -0.11422491 0.07836899
0.07814033 0.056030814 0.11105355 0.013427037 0.080419004 -0.09060107 0.045624103 -0.064844094
-0.016631728 -0.038615137 -0.08101502 0.11499121 -0.09011573 -0.08054793 -0.03579334 0.09897817
-0.07861019 -0.08061957 0.044344436 0.03361733 0.09656602 -0.059079308 -0.0049840533 -0.127481
-0.03469394 -0.11233197 0.056076497 0.019633815 -0.067678995 0.09574683 -0.09430994 0.072751515
0.056739632 -0.107857786 -0.07179536 -0.07719768 -0.117096044 0.06551489 -0.007149517 0.03393242
0.036240123 -0.017880337 -0.04072875 -0.114356846 -0.0005848665 -0.123928554 0.0983733 -0.09676524
-0.0418273 -0.051062144 -0.10785685 -0.022111464 -0.0020921535 -0.109586455 -0.091756314 -0.099966176
-0.10870465 0.029366735 0.09959531 -0.04383887 -0.08766247 0.053895827 -0.10666852 0.02337523
-0.004411443 0.07743515 -0.01308721 -0.05756209 0.042151805 0.030823903 -0.08674776 -0.023560235
-0.08004886 -0.07255863 -0.042712796 -0.014400711 0.008581626 0.0927056 -0.013974177 0.060802698
0.021539481 0.110117786 -0.046016 -0.112770334 0.057889603 0.08036044 -0.12080637 -0.03130078
0.03742272 -0.083320275 0.030639874 -0.014990013 -0.026837863 0.030336082 0.083437726 -0.09210121
-0.11051824 0.054113276 0.029120523 0.07997624 -0.07788888 0.017692449 -0.0700135 -0.10396628
-0.023822378 0.11176843 0.06403253 0.051093023 -0.11825349 0.034721553 0.10945137 -0.03927837
0.09876079 0.07983942 -0.03293115 0.064689524 0.09329974 0.12242878 0.05091724 0.019215269
-0.043244317 -0.03235248 -0.105643965 -0.09137511 0.0049249125 -0.10440938 0.021288924 -0.08800088
-0.026334181 -0.10789962 0.10911156 -0.07919632 0.09928653 0.04320283 0.036597166 0.08131943
-0.06030119 -0.09757042 0.12320279 0.003125899 0.08948307 -0.057285983 0.1170804 0.101332106
0.09974768 -0.02143583 -0.07970043 0.020416964 0.039190397 0.11698764 0.08798906 0.06715951
0.06496489 0.12885512 0.0018251825 0.032039266 -0.086166196 -0.025763135 0.09020827 0.045173056
0.08928085 -0.02727785 -0.002254535 -0.02672513 0.01612837 0.017889772 -0.044209126 -0.06758464
00000000: 17c9 73bc 3887 eabd 4870 563d 75a4 093d
00000010: 27c2 00be 09ee 8a3c 4444 c3bd 2f98 403a
00000020: 677c 2abd 10ee bcbd db78 83bb c624 55bc
00000030: eb27 cbbc dca7 b43d 161b dabd 3627 e9bd
00000040: dac2 513c 4b95 893d a3ed e3bd 641a 48bd
00000050: d827 143d b149 8fbb 49fe 62bd bcd3 823c
00000060: 4c00 41bd 2eb5 403d 44e7 bc3d a7cc c13d
00000070: 47e2 f1bd 9622 5c3b 7021 abbd fa1b c2bd
00000080: 8973 0abd 6820 18bd 6801 453c 15dd e7bd
00000090: e322 40bd 3257 973d 0f23 c8bd 3703 ccbd
000000a0: c254 b53d 5112 a2bd 150a d0bd 1ccc 563d
000000b0: c7ce 34bd 5b76 b9bc 9cbe 943c 927c c0bd
000000c0: 3d1a a9bd f87e 2bbd 172d 043d 4e72 873d
000000d0: 0ba5 cfbd 4d84 343d ab40 8e3d c640 29bd
000000e0: 3462 933c b270 01be af9a e9bd 239a b3bd
000000f0: 1ac8 30bc 787a e33d 512c d0bc b99d bfbc
00000100: 6424 7abd 4d9d 2fbd 5ebd cdbd 8479 bdbd
00000110: d709 b63b 777e a2bd 44fc 2dbd 655e 03bd
00000120: 2e8d d0bd 2f8a 993d b698 be3d 55b0 71bd
00000130: 2887 7a3c 26f1 173d 9c12 e8bd deed 01bd
00000140: 1a7f ed3d 0003 b4bd 32a2 e4bd 4060 8cbd
00000150: 56e3 6fbd 0ca8 8ebd c0ee e9bd ec7f a03d
00000160: 0a08 a03d 9180 653d 0b70 e33d 13fd 5b3c
00000170: b8b2 a43d 0e8d b9bd 57e0 3a3d fbcc 84bd
00000180: 433f 88bc e82a 1ebd 34eb a5bd 8380 eb3d
00000190: 998e b8bd 50f6 a4bd 0a9c 12bd 11b5 ca3d
000001a0: 61fe a0bd e01b a5bd 83a2 353d 53b2 093d
000001b0: 68c4 c53d 25fd 71bd 4551 a3bb 618a 02be
000001c0: 3c1b 0ebd 4e0e e6bd 78b0 653d 18d7 a03c
000001d0: 499b 8abd ea16 c43d 9225 c1bd bffe 943d
000001e0: d167 683d 8be4 dcbd 7209 93bd d119 9ebd
000001f0: 0dd0 efbd ac2c 863d 7f46 eabb b9fc 0a3d
00000200: 8670 143d c979 92bc 31d3 26bd ec33 eabd
00000210: ba51 19ba 41ce fdbd f177 c93d db2c c6bd
00000220: 1a53 2bbd 8a26 51bd 0de4 dcbd 1a23 b5bc
00000230: 831c 09bb dd6e e0bd bcea bbbd 11bb ccbd
00000240: 8ba0 debd 8292 f03c a0f8 cb3d 6390 33bd
00000250: 6288 b3bd dfc1 5c3d 0675 dabd 697d bf3c
00000260: de8d 90bb 5296 9e3d bd6b 56bc 3ac6 6bbd
00000270: 5fa7 2c3d 6982 fc3c cfa8 b1bd 6501 c1bc
00000280: a8f0 a3bd 9e99 94bd 9df3 2ebd f6f0 6bbc
00000290: f399 0c3c 6fdc bd3d f2f3 64bc 400c 793d
000002a0: 9173 b03c 6f85 e13d 467b 3cbd 22f4 e6bd
000002b0: a61d 6d3d 0494 a43d 5569 f7bd 3f35 00bd
000002c0: 9148 193d d2a3 aabd 7900 fb3c ac98 75bc
000002d0: 14db dbbc 6083 f83c 66e1 aa3d 8f9f bcbd
000002e0: 6357 e2bd e2a5 5d3d 2a8e ee3c 95ca a33d
000002f0: 3584 9fbd c1ef 903c 3d63 8fbd 46ec d4bd
00000300: 2627 c3bc d9e6 e43d 7d23 833d eb46 513d
00000310: e32e f2bd 3038 0e3d 0a28 e03d 5be2 20bd
00000320: 1943 ca3d da82 a33d d0e2 06bd f17b 843d
00000330: ef13 bf3d f1bb fa3d 998e 503d 5769 9d3c
00000340: f420 31bd 0984 04bd dd5b d8bd e022 bbbd
00000350: 2961 a13b 96d4 d5bd 1c66 ae3c ce39 b4bd
00000360: c8ba d7bc 7afa dcbd e275 df3d ae31 a2bd
00000370: bc56 cb3d 73f5 303d e9e6 153d cd8a a63d
00000380: 61fe 76bd 00d3 c7bd bf51 fc3d e2db 4c3b
00000390: e642 b73d b5a4 6abd d9c7 ef3d 3587 cf3d
000003a0: 8348 cc3d 329a afbc fb39 a3bd 7a41 a73c
000003b0: 1c86 203d 3797 ef3d 9c33 b43d ed8a 893d
000003c0: 500c 853d 99f2 033e f63a ef3a 9b3b 033d
000003d0: e777 b0bd 360d d3bc 1dbf b83d 6207 393d
000003e0: e1d8 b63d cc75 dfbc d2c0 13bb a9ee dabc
000003f0: a51f 843c 928d 923c a114 35bd d169 8abd

hidden2_Y1.bias f4 [200]
-0.07794099 0.05219908 -0.0008918623 -0.06667208 -0.018131115 0.032396056 -0.025635406 0.024884764
0.026658399 0.03963434 -0.0017037662 -0.029961478 -0.028896581 0.055547494 0.07243226 -0.051468797
-0.055938512 0.009589058 -0.027652387 -0.02799146 0.06194694 0.0029193023 0.061845776 -0.03617858
-0.048265435 -0.037167113 0.08088483 -0.0033280035 0.041052375 0.073797375 -0.03226181 -0.010931697
0.048437268 0.04895693 -0.037972197 0.02794058 0.041381285 -0.018058512 -0.027176112 0.0006486836
-0.015207619 0.03877206 0.04796939 0.00088411546 -0.06266388 -0.062255614 0.06898508 0.0194517
-0.008728129 0.03089718 0.028791549 -0.0018495991 0.025604323 -0.060315896 0.0015775996 0.035213176
0.010505548 0.039113864 0.021334216 -0.09511896 0.027163723 0.027616309 0.0043724454 0.010310619
0.049473453 0.0015740263 0.030124163 -0.039629344 0.031245878 -0.0028962602 0.010844978 0.006225922
0.05534646 0.06531868 0.029744709 -0.014500311 -0.026775032 0.027466053 -0.026908241 -0.009611228
0.024282789 0.054578267 -0.0025705006 -0.061180852 -0.040955756 -0.066302 0.016451322 -0.027133629
0.06853911 0.006809546 -0.059766233 -0.049784824 0.0024014178 0.02637732 -0.008875493 0.060974415
-0.04581181 -0.0035305475 -0.045197044 -0.0800187 -0.05809975 -0.04578491 -0.051148523 0.06730669
-0.044767976 -0.040432565 0.0060141124 0.06548441 -0.020653976 -0.041871365 0.06323939 0.06802449
-0.032329462 0.058058113 0.06148547 0.061511725 0.01899599 0.015797965 -0.07697777 -0.059484866
0.0672122 0.037724506 -0.044905946 -0.0057504247 -0.007442207 -0.06585547 0.054602038 0.06822673
0.04936556 -0.035445172 -0.06968444 -0.061607387 0.024118446 0.020448787 0.014081374 -0.017837202
0.04250359 0.07666747 -0.062075388 0.030113585 0.06068216 0.053677507 0.058304 -0.064724
0.0059378105 0.05975483 0.050382942 3.4117707e-05 -0.009117965 0.013017287 -0.057266206 0.0071496256
0.057990946 0.014532354 0.046964977 -0.01801196 0.047246188 0.048252895 -0.027183684 0.015192451
-0.018712731 0.018249167 0.021036291 -0.06049442 0.022571685 -0.03299421 0.032760188 0.033519067
-0.027506828 -0.011117045 -0.028492885 -0.043829318 -0.06283265 0.060951192 -0.017679194 -0.008381178
0.051996887 -0.032626275 -0.028130367 -0.010953323 0.023479782 -0.029669162 0.00011505079 -0.025127375
-0.022534564 0.0013278639 0.028755382 -0.0014838342 0.015158996 -0.03493724 -0.069150314 -0.061565954
-0.050315317 0.01614739 -0.05483458 0.057733648 -0.07085646 -0.040630426 -0.009925013 0.03814514
00000000: 879f 9fbd b4ce 553d decb 69ba 5f8b 88bd
00000010: b487 94bc bab1 043d 5801 d2bc 22db cb3c
00000020: b762 da3c 9e57 223d e850 dfba c671 f5bc
00000030: 86b8 ecbc c585 633d 5d57 943d f2d0 52bd
00000040: c81f 65bd 6d1b 1d3c 4287 e2bc 594e e5bc
00000050: 13bc 7d3d c451 3f3b ff51 7d3d fe2f 14bd
00000060: fab1 45bd 8b3c 18bd f2a6 a53d a21a 5abb
00000070: 8926 283d 1423 973d f624 04bd dc1a 33bc
00000080: 2866 463d 1087 483d bc88 1bbd a5e3 e43c
00000090: 6c7f 293d 72ef 93bc 70a0 debc 6b0c 2a3a
000000a0: 6129 79bc 74cf 1e3d 8d7b 443d fcc3 673a
000000b0: ec55 80bd beff 7ebd 0d48 8d3d 2c59 9f3c
000000c0: 6d00 0fbc 151c fd3c 41dc eb3c 3f6e f2ba
000000d0: 28c0 d13c cd0d 77bd 75c7 ce3a b13b 103d
000000e0: 761f 2c3c dc35 203d 18c5 ae3c bbcd c2bd
000000f0: 7586 de3c 993b e23c bb46 8f3b dfed 283c
00000100: ada4 4a3d 8f4f ce3a f3c6 f63c 6152 22bd
00000110: 5bf7 ff3c 2fcf 3dbb 22af 313c d202 cc3b
00000120: f8b2 623d cdc5 853d 2dab f33c b692 6dbc
00000130: 5057 dbbc 7d00 e13c ac6e dcbc 6978 1dbc
00000140: b3ec c63c 768d 5f3d d875 28bb c698 7abd
00000150: 39c1 27bd 58c9 87bd ecc4 863c 5847 debc
00000160: 3c5e 8c3d 9d22 df3b 70cd 74bd 2ceb 4bbd
00000170: 1b61 1d3b 4015 d83c 846a 11bc 4fc0 793d
00000180: 2aa5 3bbd c260 67bb 8920 39bd d8e0 a3bd
00000190: 01fa 6dbd f588 3bbd 1d81 51bd 17d8 893d
000001a0: a05e 37bd 9e9c 25bd 0812 c53b b11c 863d
000001b0: 8732 a9bc 4f81 2bbd a783 813d 6c50 8b3d
000001c0: e66b 04bd 58ce 6d3d 30d8 7b3d b8f3 7b3d
000001d0: 7a9d 9b3c bc6a 813c 85a6 9dbd 67a6 73bd
000001e0: 8da6 893d 0385 1a3d 4cef 37bd 0f6e bcbb
000001f0: c2dd f3bb 3cdf 86bd 63a6 5f3d 75ba 8b3d
00000200: 8b33 4a3d f52e 11bd b7b6 8ebd 0758 7cbd
00000210: 0c94 c53c 3784 a73c 90b5 663c 531f 92bc
00000220: 3f18 2e3d d603 9d3d c342 7ebd c4b0 f63c
00000230: db8d 783d f2dc 5b3d 2dd0 6e3d 048e 84bd
00000240: f791 c23b 7bc1 743d 585e 4e3d 9c19 0f38
00000250: 8463 15bc 7546 553c f88f 6abd 6847 ea3b
00000260: ea87 6d3d 1c19 6e3c 595e 403d d18d 93bc
00000270: 3885 413d d4a4 453d 51b0 debc c2e9 783c
00000280: 714b 99bc 477f 953c 4d54 ac3c ffc8 77bd
00000290: 41e8 b83c f024 07bd 8c2f 063d 4a4b 093d
000002a0: 0056 e1bc 4424 36bc e969 e9bc 5f86 33bd
000002b0: 68ae 80bd f5a7 793d f5d3 90bc 3551 09bc
000002c0: b0fa 543d 21a3 05bd a871 e6bc 9175 33bc
000002d0: ac58 c03c be0c f3bc 6c47 f138 edd7 cdbc
000002e0: 689a b8bc b80b ae3a 6890 eb3c 377d c2ba
000002f0: 705d 783c 5a1a 0fbd ae9e 8dbd 952c 7cbd
00000300: 6f17 4ebd 8847 843c 399a 60bd 1e7a 6c3d
00000310: 311d 91bd 176c 26bd 869c 22bc 143e 1c3d
