Results/Models/LR_Lasso_DCN_model_iter_id_3_epoch_100_lr_0.0001.pth (torch, 828314 bytes, 16 tensors)

shared1.weight f4 [200, 17]
0	0xbc7f653c	-0.015588101
1	0x3d749984	0.059716716
2	0x3d29d0a9	0.04145876
3	0x3e013c64	0.12620693
4	0x3cd3d1f7	0.025856955
5	0xbe415421	-0.18879749
6	0xbd84b2b2	-0.06479396
7	0x3e363f54	0.17797595
8	0x3ddd6dfa	0.10811992
9	0xbccbb819	-0.024868058
10	0xbe19eba5	-0.15031298
11	0x3df15e1b	0.11785527
12	0xbdc0e4f4	-0.09418669
13	0x3de5c336	0.11218874
14	0x3d75c1a1	0.059999112
15	0xbdc95848	-0.098312914
16	0x3ca98f43	0.020698195
17	0xbd2dc510	-0.04242426
18	0xbdb0f68e	-0.086407766
19	0xbd83d0c4	-0.06436303
20	0x3e0df0f8	0.13861454
21	0xbca1bb03	-0.019742494
22	0x3c1d5d30	0.009604737
23	0x3d4f1668	0.050558478
24	0x3b76e8eb	0.003767545
25	0xbd96219e	-0.07330631
26	0xbe2101b0	-0.157233
27	0x3cf62206	0.03004552
28	0xbccc296b	-0.024922093
29	0x3e0e7672	0.13912371
30	0x3e429add	0.19004388
31	0xbc18c0f1	-0.009323345
32	0xbd248cc9	-0.040173326
33	0x3e85c7fd	0.2612914
34	0x3d11856b	0.035527628
35	0xbd91e9e3	-0.071246885
36	0xbd2a41c0	-0.04156661
37	0x3cb9b1a9	0.022667723
38	0x3c553ee2	0.013015481
39	0xbdeebf3c	-0.11657569
40	0xbd8fecd8	-0.07027596
41	0x3e145c0f	0.14488243
42	0x3d2124eb	0.03934185
43	0xbcc61b55	-0.024182955
44	0xbcfa66b9	-0.03056656
45	0xbd999bf6	-0.0750045
46	0x3d6d3cbe	0.057919256
47	0xbdede812	-0.116165295
48	0xbe5d30c6	-0.21600637
49	0xbd27dfe6	-0.04098501
50	0xbd23be92	-0.039976664
51	0xbdba7813	-0.091049336
52	0xbdc65f7f	-0.09686183
53	0x3dd33e5a	0.10314627
54	0xbcd212b9	-0.025643693
55	0xbe6fc6bd	-0.23415656
56	0xbd9959e3	-0.07487848
57	0x3d09b43a	0.033619143
58	0xbda04f51	-0.078276284
59	0xbd883136	-0.06650011
60	0x3d97d69d	0.07413981
61	0xbd1c4dcd	-0.038160134
62	0xbc935e82	-0.0179894
63	0x3e0480a4	0.12939698
64	0xbe27620a	-0.16345993
65	0x3df2ccf4	0.11855498
66	0xbd9188d9	-0.0710618
67	0xbacc0c29	-0.0015567589
68	0xbdd05daf	-0.10174119
69	0x3cb23842	0.021755341
70	0x3e2eeac1	0.17081739
71	0xbc57154f	-0.013127639
72	0x3decbad5	0.11559073
73	0x3e0fc55b	0.14040129
74	0x3ddb8517	0.10718744
75	0x3e10e199	0.14148559
76	0xbe0a7fec	-0.13525361
77	0x3dfef294	0.12448612
78	0xbd990815	-0.07472245
79	0xbd7e8303	-0.06213666
80	0xbd2be07d	-0.041962136
81	0x3de69bb6	0.11260168
82	0xbe0f70e6	-0.14007911
83	0x3d8d6fe5	0.06906108
84	0x3e868738	0.2627504
85	0x3e10dff5	0.14147933
86	0x3d904f61	0.0704639
87	0x3d55c16e	0.052186422
88	0x3dca0652	0.09864487
89	0x3db96bc3	0.09053757
90	0x3d6e030a	0.058108367
91	0xbd43d8db	-0.04781423
92	0x3e104e05	0.14092262
93	0xbd27eb20	-0.040995717
94	0xbd014d7c	-0.031568035
95	0x3c8e59d4	0.017376818
96	0x3d935b92	0.071952
97	0xbe1c04b3	-0.15236168
98	0xbe10aea1	-0.14129116
99	0xbe7b682f	-0.24551462
100	0xbd96e650	-0.073681474
101	0x3de09c9a	0.109673694
102	0xbdee72e5	-0.11643008
103	0x3cd0e233	0.025498485
104	0x3e8391b0	0.25697088
105	0x3eb742d5	0.35793176
106	0x3b523c53	0.0032079413
107	0xbe0e1b8c	-0.13877696
108	0x3d9786d2	0.07398762
109	0x3d98566c	0.07438359
110	0x3e1d8878	0.1538409
111	0xbe0a48d0	-0.13504338
112	0x3da48f11	0.080351
113	0xbe0f53e3	-0.13996844
114	0x3c4c153e	0.012456236
115	0xbc934350	-0.017976433
116	0xbd02a5f5	-0.03189655
117	0x3d6da93f	0.058022734
118	0x3e26ace2	0.16276887
119	0xbd60823e	-0.05481171
120	0xbd79caba	-0.06098435
121	0xbda5835f	-0.08081698
122	0xbd69e60a	-0.057104148
123	0x3d3c7631	0.046011154
124	0xbd8be378	-0.068304956
125	0xbe17363c	-0.14766783
126	0xbd355a76	-0.044275723
127	0xbd5acbd5	-0.053417046
128	0x3d8959e4	0.067065984
129	0xbe05f871	-0.13083054
130	0xbe0cae32	-0.13738325
131	0xbdefb6da	-0.11704798
132	0x3e048de2	0.12944749
133	0xbdcc5312	-0.09976782
134	0x3dede28f	0.11615478
135	0x3e83df1a	0.2575615
136	0x3caa453e	0.02078497
137	0x3d192ebb	0.03739808
138	0xbd1576f8	-0.03649041
139	0x3e4f1378	0.2022227
140	0xbe02fb5f	-0.12791203
141	0xbe12c240	-0.14331913
142	0xbb1e8cab	-0.0024192731
143	0x3de4cf82	0.111723915
144	0xbe03618e	-0.12830183
145	0xbdbf77a8	-0.093489945
146	0xbd122709	-0.035681758
147	0x3c97804a	0.01849379
148	0xbdc71352	-0.09720482
149	0xbd6025a6	-0.054723404
150	0x3d84bb2a	0.06481011
151	0x3ca70342	0.020387296
152	0x3e9a6356	0.30153912
153	0xbdfb89ba	-0.12282129
154	0xbd138707	-0.036017444
155	0x3e37b060	0.17938375
156	0x3ec9b635	0.39396825
157	0xbe237f6d	-0.15966578
158	0xbe263d12	-0.16234234
159	0x3ab7a18c	0.0014009937
160	0x3dd80528	0.105478585
161	0xbdac9c3f	-0.08428239
162	0x3e13d2bf	0.14435862
163	0x3da234ad	0.07920203
164	0x3cf8f5b0	0.03039059
165	0x3dc2fdbc	0.09521052
166	0xbd8be5b3	-0.06830921
167	0xbd491047	-0.04908779
168	0x3d55a5eb	0.052160185
169	0x3e3e8e26	0.18608913
170	0xbde9eb4f	-0.11421835
171	0x3a844851	0.0010092353
172	0x3e53b72e	0.20675346
173	0x3ded2e77	0.11581128
174	0xbe71c6f5	-0.23611052
175	0x3dabdd6e	0.08391844
176	0x3d669bf4	0.056301072
177	0xbe1425e1	-0.14467575
178	0xbe0515cd	-0.12996598
179	0xbdbfccf3	-0.09365263
180	0xbd492c7b	-0.049114686
181	0x3d8aad44	0.06771329
182	0x3df9fa63	0.122059606
183	0xbbff8380	-0.0077976584
184	0xbcece791	-0.028919013
185	0x3e1e2ce7	0.15446816
186	0xbe8b10f9	-0.27161387
187	0xbba492ff	-0.005022406
188	0x3cea2c65	0.028585622
189	0x3c82e0bc	0.015976302
190	0xbc393c0a	-0.011305818
191	0xbddb3c09	-0.1070481
192	0xbe396bf2	-0.18107584
193	0x3d843489	0.06455333
194	0xbd3a1b53	-0.045436215
195	0x3dfce84e	0.12348996
196	0xbd8f6992	-0.07002558
197	0xbe22d4cf	-0.15901493
198	0xbdc03699	-0.09385414
199	0xbc79f437	-0.015255979
200	0x3d8395cc	0.06425056
201	0x3d16ad55	0.036786396
202	0xbd5edc77	-0.05440947
203	0x3e1c23eb	0.15248077
204	0xbde54d2a	-0.111963585
205	0xbddaa534	-0.10676041
206	0xbd3c2d72	-0.045941778
207	0x3e860e15	0.2618262
208	0x3df6aa4c	0.120442
209	0x3db0ac40	0.08626604
210	0x3cec505d	0.028846914
211	0xbdacdb5b	-0.08440276
212	0xbe24abf5	-0.16081221
213	0xbdfa72f3	-0.12228956
214	0x3a285d9d	0.0006422641
215	0x3d9efd05	0.077631034
216	0x3d6aecc0	0.05735469
217	0xbe2600c5	-0.16211231
218	0xbdcc6e01	-0.09981919
219	0x3dc23769	0.09483225
220	0x3d604bd0	0.0547598
221	0xbd679464	-0.056538
222	0x3d0255da	0.031820156
223	0x3a0263dc	0.00049739867
224	0x3e1502f1	0.14551903
225	0x3e23109a	0.15924302
226	0x3dbe63c9	0.09296376
227	0x3cf15896	0.029461186
228	0x3e12ea7e	0.14347264
229	0x3919998f	0.00014648422
230	0x3aaa7dd1	0.0013007467
231	0xbdb6b751	-0.089216836
232	0xbdb92eb4	-0.09042111
233	0x3da0f17c	0.078585595
234	0xbe4d6ec9	-0.20061792
235	0x3cf2528e	0.02958038
236	0xbdff01df	-0.12451529
237	0x3e2105f1	0.15724923
238	0x3d466825	0.048439164
239	0xbe04e546	-0.12978086
240	0x3dd441fe	0.103641495
241	0x3e0abaf7	0.13547884
242	0xbdbd724b	-0.09250315
243	0xbe170acb	-0.14750211
244	0xbd5bce53	-0.053663563
245	0x3daaafac	0.08334288
246	0xbcdef482	-0.0272162
247	0xbd06c1f8	-0.032899827
248	0x3d519aeb	0.051173132
249	0x3c757aa9	0.014982858
250	0xbdb06e7a	-0.08614822
251	0xbc8e54bf	-0.017374394
252	0xbda6fdcd	-0.081538774
253	0x3df730b4	0.12069836
254	0xbdcca807	-0.09992986
255	0xbdea12b5	-0.11429349

shared1.bias f4 [200]
0	0xbcea8859	-0.028629469
1	0xbe90fb56	-0.28316754
2	0x3df30d22	0.11867739
3	0x3e3bed1a	0.18352166
4	0xbdfac303	-0.12244227
5	0xbdc3f310	-0.09567845
6	0xbda5d4fd	-0.08097265
7	0xbe3752d5	-0.17902692
8	0xbd60fba5	-0.054927487
9	0x3d2086bc	0.039190993
10	0xbd829fad	-0.06378112
11	0xbd2f49ca	-0.04279498
12	0x3d48169d	0.04884969
13	0x3d43d9d8	0.047815174
14	0x3db56810	0.08857739
15	0x3dfa0ada	0.12209101
16	0xbd8a4735	-0.06751863
17	0xbe1cc17f	-0.15308188
18	0xbdeea575	-0.11652652
19	0x3da77a60	0.08177638
20	0xbdcee1e3	-0.10101678
21	0x3d87798f	0.06614982
22	0xbe21c056	-0.15796027
23	0xbe025590	-0.12727952
24	0x3e302fe2	0.17205766
25	0x3d19e758	0.037574142
26	0xbd3329be	-0.04374098
27	0xbe29222a	-0.16516939
28	0xbe042c8c	-0.12907618
29	0xbe272bbf	-0.16325282
30	0xbe438714	-0.19094497
31	0xbd43a914	-0.047768667
32	0x3dc3e998	0.09566039
33	0xbe786c14	-0.24259979
34	0x3e1cc9f1	0.1531141
35	0xbd8e2fb2	-0.06942691
36	0xbcd41fa6	-0.025893997
37	0xbe9d09c8	-0.30671525
38	0xbe97de4d	-0.2966179
39	0x3b82e3ba	0.0039944323
40	0x3daa41cf	0.08313333
41	0x3caf21ae	0.021378364
42	0xbe34b478	-0.17646968
43	0xbe34bbee	-0.17649814
44	0xbe2eff49	-0.17089571
45	0xbdab9997	-0.08378904
46	0xbe6cbbca	-0.23118511
47	0x3be1d868	0.0068922527
48	0xbcf0b851	-0.029384764
49	0xbd02dd2a	-0.0319492
50	0xbe580dcb	-0.21099012
51	0x3e3558a7	0.177096
52	0xbd0d2b0b	-0.034464877
53	0x3d5743e2	0.052554972
54	0xbb66e6c0	-0.0035232753
55	0x3da9312b	0.08261331
56	0x3d022c4b	0.031780522
57	0xbe279554	-0.16365558
58	0xbcdd73cb	-0.027032753
59	0x3deb2d8d	0.114832975
60	0xbe06dc2e	-0.1316993
61	0xbe0895b4	-0.13338357
62	0x3bce2c44	0.006291898
63	0xbd9edecb	-0.07757338
64	0xbe58f27d	-0.21186252
65	0xbe44cf3a	-0.19219676
66	0x3dbb0887	0.09132486
67	0xbdad3aed	-0.08458505
68	0x3d167f65	0.036742587
69	0x3c12df5f	0.008964389
70	0x3e1cefe8	0.15325892
71	0xbdd0366c	-0.1016663
72	0xbd9fd79c	-0.07804796
73	0x3e30df63	0.17272715
74	0xbe46a14b	-0.19397466
75	0xbe3dc5a8	-0.18532431
76	0xbdb813b3	-0.08988132
77	0x3dbe02f7	0.09277909
78	0xbe25246f	-0.1612718
79	0xbe6cf085	-0.23138626
80	0x3d0d6aa7	0.03452554
81	0xbdf06c8d	-0.117394544
82	0xbe1cbb33	-0.15305786
83	0x3c394c59	0.011309707
84	0x3e0db6fe	0.13839337
85	0xbdf1585b	-0.117844306
86	0x3c8f0ae0	0.01746124
87	0xbe6dbfc4	-0.23217684
88	0x3e0d8041	0.13818456
89	0x3b99fde3	0.004699455
90	0xbe660571	-0.22463013
91	0x3dfe1dcd	0.12408028
92	0xbe5c5684	-0.21517378
93	0xbd8dc1e9	-0.06921751
94	0x3b0a42d6	0.0021096966
95	0xbe39a475	-0.18129142
96	0xbe859349	-0.26088932
97	0xbe33abac	-0.17545956
98	0xbe8b9813	-0.2726446
99	0xbe3fcc2e	-0.18730232
100	0xbdc09f8c	-0.09405431
101	0xbe0f349a	-0.1398491
102	0xbe857811	-0.26068166
103	0x3e45a433	0.19300918
104	0xbc67fee1	-0.014159889
105	0xbdabbc04	-0.083854705
106	0xbd9a05d3	-0.07520642
107	0x3d45d300	0.04829693
108	0x3dfcc1aa	0.12341626
109	0xbc91cf2e	-0.017798986
110	0x3e1c44f2	0.15260676
111	0x3e0e432c	0.13892812
112	0x3c11c410	0.008896843
113	0x3c8c514f	0.017128615
114	0x3e37075c	0.17873901
115	0xbe7b803a	-0.24560633
116	0xbdadcdf6	-0.084865496
117	0x3e40c3b3	0.18824653
118	0x3e235ddd	0.15953775
119	0x39f078b1	0.0004586629
120	0xbe557c83	-0.20848279
121	0xbe4764e4	-0.1947208
122	0x3da57b4b	0.08080157
123	0xbd588250	-0.05285865
124	0xbe16aa17	-0.14713322
125	0x3e3fa42e	0.18714973
126	0xbd99e5b2	-0.07514514
127	0x3d8b61f2	0.06805791
128	0xbdca72df	-0.09885191
129	0xbd88de9c	-0.06683084
130	0x3d959331	0.07303465
131	0xbe293261	-0.16523124
132	0xbd6533ba	-0.055957533
133	0xbdcce4c2	-0.100045696
134	0xbe14f54a	-0.14546695
135	0x3d57d793	0.052695822
136	0xbd6f1bef	-0.05837625
137	0xbcee1ab6	-0.029065471
138	0xbe9bc1e6	-0.3042137
139	0xbc0a1ec6	-0.0084301885
140	0x3e2ad75b	0.16683714
141	0xbd672b9f	-0.056438085
142	0xbe195a45	-0.14975841
143	0xbe2858d8	-0.16440141
144	0xbd9d0f53	-0.076689385
145	0xbe342bef	-0.17594884
146	0x3d18179a	0.037131883
147	0xbe34f834	-0.17672807
148	0x3e08dcf8	0.13365543
149	0x3e4b2543	0.19838433
150	0xbcf936de	-0.03042167
151	0xbda67308	-0.08127409
152	0xbe628383	-0.2212048
153	0xbcdfa678	-0.027301058
154	0xbe798846	-0.2436839
155	0x3e1b4554	0.15163165
156	0xbda0cd37	-0.078516416
157	0x3c9025f0	0.017596215
158	0x3e400748	0.18752778
159	0xbe04c9a6	-0.12967548
160	0xbc9a771d	-0.018855626
161	0xbe5cb9ba	-0.21555224
162	0xbd300dc1	-0.042981867
163	0xbd4e0a5d	-0.050302852
164	0x3e1cd218	0.1531452
165	0x3e096f6e	0.13421413
166	0x3e0ec569	0.13942493
167	0xbdae008b	-0.08496197
168	0xbe5abcfe	-0.21361157
169	0x3dfc1856	0.12309329
170	0xbe428ae7	-0.189983
171	0xbdc32800	-0.09529114
172	0x3de1c09b	0.11023065
173	0xbe042e06	-0.12908182
174	0xbbd482a1	-0.0064852987
175	0xbe6d13fc	-0.23152155
176	0xbc863392	-0.016382013
177	0xbd60f201	-0.054918293
178	0xbe04355b	-0.12910978
179	0xbe4bc03a	-0.19897547
180	0xbd991f54	-0.074766785
181	0xbc0658e6	-0.008199906
182	0x3e4754c7	0.19465934
183	0xbe9e5af2	-0.3092876
184	0x3e167527	0.14693128
185	0xbe0dd4d0	-0.13850713
186	0xbe2137e2	-0.15743974
187	0xbe87861f	-0.26469514
188	0xbe2d3532	-0.16914824
189	0xbd97e707	-0.07417112
190	0xbe3b8f07	-0.1831628
191	0xbd5aaaab	-0.053385418
192	0xbe6a572d	-0.22884817
193	0xbe398377	-0.18116556
194	0x3e0bdef2	0.13659266
195	0xbdcc80f2	-0.09985532
196	0x3de5a854	0.11213747
197	0x3e65410d	0.22388096
198	0xbe4cf554	-0.2001546
199	0x3ddd2923	0.10798862

shared2.weight f4 [200, 200]
0	0x3cfe3ff0	0.031036347
1	0x3e082f71	0.13299347
2	0xbc13a006	-0.0090103205
3	0x3be6e4ed	0.007046333
4	0x3d568d81	0.052381042
5	0xbba8625c	-0.0051386785
6	0xbd523bc9	-0.051326547
7	0x3e21d80a	0.15805069
8	0xbd489141	-0.04896665
9	0x3e2b461c	0.16725963
10	0xbdbf84c0	-0.09351492
11	0x3d00f89d	0.031487096
12	0x3d10f416	0.03538903
13	0x3e519f57	0.2047094
14	0x3d266ef6	0.040633164
15	0x3cb40436	0.021974664
16	0x3d9b08e3	0.075700544
17	0x3d9fc2b2	0.07800807
18	0xbd34f1b3	-0.044175815
19	0x3dfd103e	0.123566136
20	0x3c17a252	0.009255009
21	0xbe235199	-0.15949096
22	0x3c85dc0d	0.01634028
23	0x3deef5f8	0.116680086
24	0xbb3c7e58	-0.002876183
25	0xbd98ddf0	-0.07464206
26	0x3d3a1e1f	0.045438882
27	0xbd2e2451	-0.042515103
28	0x3df47690	0.119366765
29	0x3c59ce3b	0.013293798
30	0xbdbe7d2a	-0.09301217
31	0x3e32212b	0.17395465
32	0x3da68e33	0.08132591
33	0x3ddac68d	0.10682402
34	0x3c13715b	0.008999194
35	0xbd6936e6	-0.05693712
36	0xbd46a28d	-0.048494864
37	0xbd9dcc2d	-0.07704959
38	0xbd44923e	-0.04799103
39	0x3d5a657a	0.05331943
40	0x3dec9d8c	0.11553487
41	0x3d5edc5e	0.054409377
42	0x3dac864b	0.08424052
43	0x3d6c0f43	0.057631742
44	0x3d1d30e4	0.038376704
45	0x3d5cc3b8	0.05389759
46	0xbac4d1cb	-0.0015016136
47	0x3db8a85c	0.09016487
48	0xbdb58d07	-0.088647895
49	0x3dbd7e5f	0.09252619
50	0x3cef6c4b	0.029226443
51	0x3e144d23	0.1448255
52	0xbd4704b4	-0.04858847
53	0xbdf723af	-0.12067353
54	0x3d11719d	0.03550874
55	0x3e086108	0.13318264
56	0xbdcf9d06	-0.10137372
57	0x3cf07b5d	0.0293557
58	0x3ced8f9d	0.028999144
59	0x3cc7027d	0.024293179
60	0x3d82a23e	0.063786015
61	0xbdbbd394	-0.09171215
62	0xbd882d92	-0.06649317
63	0x3dea1b65	0.11431006
64	0x3e01f3ea	0.12690702
65	0x3ca73431	0.020410629
66	0xbdac3494	-0.08408466
67	0x3a7a5a0e	0.00095501624
68	0x3e15004e	0.14550897
69	0x3dee9eeb	0.11651405
70	0xbc56ac02	-0.013102533
71	0x3d4c9b97	0.04995307
72	0xbde33a92	-0.11095156
73	0xbda0b643	-0.07847264
74	0xbc5ca1d5	-0.013466318
75	0x3da4a5d2	0.0803944
76	0x3d8547ce	0.06507836
77	0xbbd9c269	-0.00664549
78	0xbd957e41	-0.07299472
79	0xbd9022cd	-0.07037888
80	0x3d4704bd	0.048588503
81	0x3e0a9eb9	0.1353711
82	0x3d00f1aa	0.03148047
83	0xbd2dc3d4	-0.042423084
84	0x3e6621cc	0.2247383
85	0x3c40601e	0.011741666
86	0xbdf8fd91	-0.12157739
87	0xbdba08ce	-0.090837106
88	0xbd0a3a75	-0.033747155
89	0xbd53b26b	-0.051683825
90	0x3d0d416d	0.034486223
91	0xbd52bb70	-0.051448286
92	0xbd702918	-0.05863294
93	0xbd882428	-0.06647521
94	0x3c2072fd	0.00979304
95	0x3d0ae753	0.033912014
96	0xbcb13742	-0.021632794
97	0xbd2e96dd	-0.042624343
98	0xbcf8edcd	-0.03038683
99	0x3d268ad5	0.040659744
100	0x3dd14302	0.10217859
101	0x3daf296e	0.08552824
102	0xbd1692e9	-0.0367612
103	0x3d7ce0d1	0.06173784
104	0xbc0fb73e	-0.008771716
105	0xbd393eb9	-0.045225833
106	0x3c124bdd	0.00892922
107	0xbd0ee198	-0.03488311
108	0xbd0fd58d	-0.035115767
109	0xbc77e2ce	-0.015129758
110	0x3ae91cf5	0.0017785119
111	0xbbccf053	-0.006254235
112	0x3d5c3179	0.05375812
113	0x3d60809c	0.05481015
114	0x3dbf9d0e	0.09356128
115	0x3df90985	0.12160019
116	0xbdd66367	-0.10468178
117	0xbd93947a	-0.07206054
118	0xbd93e395	-0.07221142
119	0xbd508c01	-0.050914768
120	0xbc65c54f	-0.014024093
121	0x3e1613d4	0.14656001
122	0xbd71c4b9	-0.0590255
123	0x3e1d47f4	0.15359479
124	0x3e14b2a0	0.14521265
125	0xbd09bdce	-0.033628277
126	0xbdfd8908	-0.12379652
127	0x3d0ae179	0.033906434
128	0x3dfda62d	0.12385211
129	0xbb4b50ab	-0.0031023424
130	0x3ca9ba96	0.020718854
131	0x3df69b83	0.1204138
132	0x3d8ea3b2	0.06964816
133	0x3d3e6f35	0.046492774
134	0x3def9c85	0.116997756
135	0xbd30fdf8	-0.043210953
136	0x3d92618f	0.07147514
137	0xbcbdd291	-0.023171695
138	0x3e1ada97	0.15122448
139	0x3d25feb4	0.040526107
140	0x3b3791ea	0.0028010556
141	0x3d96c788	0.07362276
142	0xbd4abd87	-0.049497154
143	0xbd91cf58	-0.07119626
144	0x3dbc455b	0.09192916
145	0x3e31531a	0.17316857
146	0xbd341612	-0.04396636
147	0xbbc25c08	-0.005931381
148	0x3a6ad473	0.0008958049
149	0x3db335c3	0.087504886
150	0x3e2bbd2a	0.16771379
151	0x3d01a375	0.031650025
152	0xbda7d97e	-0.0819578
153	0x3e1bdf79	0.15221967
154	0x3e240c63	0.1602035
155	0x3e015d57	0.12633263
156	0x3db4bb6d	0.08824811
157	0x3d203b23	0.039118897
158	0x3d929762	0.0715778
159	0x3d975f7f	0.07391261
160	0x3d1fb036	0.038986407
161	0x3bb7409e	0.0055924198
162	0xbe0bb914	-0.1364482
163	0xbd83cb85	-0.06435303
164	0x3999664f	0.0002925866
165	0x3d82ddfc	0.063899964
166	0x3df0c5ba	0.11756463
167	0x3e0b3605	0.13594826
168	0xbd39aade	-0.045328967
169	0xb8ad67aa	-8.268592e-05
170	0xbd4de091	-0.05026299
171	0xbd02e18a	-0.031953372
172	0x3e47a806	0.1949769
173	0x3d5094b4	0.050923064
174	0xbc9917f2	-0.018688176
175	0x3d652d3a	0.055951335
176	0x3bbe9032	0.0058155293
177	0x3cf35bb8	0.02970682
178	0x3e38ada5	0.1803499
179	0x3d42941b	0.047504526
180	0xbd9ca152	-0.07647957
181	0xbc9849a0	-0.018589795
182	0x3dbbebde	0.091758475
183	0x3d364f93	0.04450948
184	0xbdb54e92	-0.08852877
185	0x3d88510e	0.06656085
186	0xbd4bed28	-0.049786717
187	0xbd8c0e34	-0.068386465
188	0xbd864667	-0.06556397
189	0xbd15f43b	-0.03660987
190	0x3cfafabb	0.030637136
191	0xbb89e6c0	-0.0042084157
192	0xbdd048ba	-0.101701215
193	0x3d37138d	0.04469638
194	0x3daa6b8c	0.08321294
195	0xbbc043ba	-0.0058674486
196	0xbdb43130	-0.08798444
197	0xbd66afbe	-0.056319945
198	0x3e2b82b2	0.16749075
199	0x3dc64908	0.09681898
200	0xbda84bd1	-0.08217586
201	0xbd0966d0	-0.033545315
202	0xbdac62fd	-0.08417318
203	0xbdcf8af7	-0.10133927
204	0x3dabebbf	0.083945744
205	0xbd63980a	-0.055564918
206	0xbcc2dfa8	-0.023788288
207	0xbc46ffa0	-0.012145907
208	0xbd4b28f1	-0.04959959
209	0x3da9b417	0.082863025
210	0xbd46a682	-0.048498638
211	0xbdddcf0e	-0.10830508
212	0xbdd9d30b	-0.106359564
213	0xbddc048c	-0.10743055
214	0x3dbda29a	0.092595294
215	0x3d763fa1	0.060119275
216	0xbd2f3b45	-0.042781133
217	0xbd72831a	-0.05920706
218	0x3d96a52e	0.07355724
219	0xbd929c4c	-0.071587175
220	0x3d831887	0.064011626
221	0xbd20a57e	-0.039220326
222	0xbb5098bb	-0.0031829316
223	0xbc844bdf	-0.01614946
224	0x3d72d872	0.05928845
225	0xbd893172	-0.06698884
226	0xbdbd8f80	-0.09255886
227	0xbdb29f28	-0.08721763
228	0xbd57486d	-0.052559305
229	0xbad47dbc	-0.0016211788
230	0xbccf359b	-0.025294116
231	0x3da062c9	0.07831342
232	0x3d59ba0b	0.05315594
233	0xbccffb76	-0.02538846
234	0x3dbb8140	0.09155512
235	0x3db2caf6	0.08730118
236	0xbd9d1c91	-0.07671464
237	0x3da447b6	0.0802149
238	0x3c7fac9f	0.015605121
239	0xbbd9dc13	-0.0066485493
240	0xbd217419	-0.03941736
241	0xbdb83ed6	-0.0899636
242	0x3d8de431	0.0692829
243	0xbd8b333a	-0.0679688
244	0x3de44d73	0.11147585
245	0xbd1a7d41	-0.037717108
246	0x3d8e3b12	0.069448605
247	0x3ce44bd0	0.027868181
248	0x3dadce97	0.084866695
249	0x3e09f3ad	0.13471861
250	0xbcf90143	-0.03039611
251	0x3d059b56	0.032618843
252	0xbc29722c	-0.010342162
253	0xbd1d007b	-0.038330536
254	0x3d532348	0.05154732
255	0x3e193c83	0.1496449

shared2.bias f4 [200]
0	0xbcd86bd0	-0.026418597
1	0xbcbbfe4d	-0.022948408
2	0xbd935687	-0.07194238
3	0xbd860565	-0.06543998
4	0xbd77b493	-0.060474943
5	0xbd05c16c	-0.032655165
6	0xbdb84f15	-0.08999459
7	0xbc1424bc	-0.009041961
8	0xbd56d264	-0.052446738
9	0x3d70c0a9	0.058777485
10	0xbdab5d1f	-0.08367371
11	0x3d08c2de	0.033388965
12	0xbc36196d	-0.01111446
13	0xbcd7f460	-0.026361644
14	0xbdb8717b	-0.0900602
15	0xbd5d5036	-0.054031573
16	0xbd75dd08	-0.060025245
17	0xbd450a7a	-0.048105694
18	0xbcfdc9c6	-0.030980002
19	0xbdbad5f5	-0.0912284
20	0xbb9bd596	-0.004755686
21	0x3d9820df	0.07428145
22	0xbd70b056	-0.058761917
23	0xbdad7c33	-0.08470955
24	0x3bb107e7	0.0054025534
25	0xbd14abcf	-0.036296662
26	0xbd31f520	-0.04344666
27	0xbd101d36	-0.035184108
28	0x3d5eaf04	0.054366127
29	0x3ba74b25	0.0051053935
30	0xbdab8194	-0.083743244
31	0xbcb3e764	-0.021960922
32	0xbde35d6a	-0.11101802
33	0xbdaac4d6	-0.08338325
34	0xbdcb50d3	-0.09927525
35	0x3cc953ba	0.024576057
36	0x3cefdcfe	0.029280182
37	0x3d378165	0.044801135
38	0xbd81a595	-0.063304104
39	0xbbfa358f	-0.007635779
40	0xbd726991	-0.059182707
41	0xbd857562	-0.065165296
42	0xbc75675b	-0.014978255
43	0xbcd69ea1	-0.026198687
44	0x3d73ff19	0.059569452
45	0xbd9dc4ea	-0.07703574
46	0xbcf456d4	-0.02982656
47	0xbc0b69c8	-0.008509107
48	0xbdd4f07d	-0.10397432
49	0xbb4dbdbb	-0.0031393606
50	0xbd8544a6	-0.06507234
51	0x3c4afc4a	0.012389252
52	0xbd96d80f	-0.07365429
53	0x3d07915c	0.03309761
54	0x3dc9d04e	0.09854184
55	0xbd4ad51c	-0.049519643
56	0xbd09a0ca	-0.033600606
57	0x3d286903	0.041115772
58	0xbd83d248	-0.06436592
59	0xbd18ca85	-0.037302513
60	0xbca95176	-0.020668726
61	0x3d638705	0.055548687
62	0xbd991cbf	-0.07476186
63	0x3d5eedcd	0.054426003
64	0xbda30891	-0.07960618
65	0xbdba6023	-0.09100368
66	0x3c98646b	0.01860257
67	0x3d1bab04	0.03800489
68	0xbd994ee6	-0.07485752
69	0x3d151c88	0.036404163
70	0xbc48c9d9	-0.0122551555
71	0xbda96e4f	-0.08272993
72	0xbd0edaf3	-0.034876775
73	0xbbfb47a8	-0.007668454
74	0x3be7935d	0.0070671276
75	0x3d1a63f8	0.037692994
76	0xbd590b7f	-0.05298948
77	0xbd1dccab	-0.038525265
78	0xbdabf69b	-0.08396646
79	0x3ca949e7	0.020665122
80	0xbd5146a8	-0.051092774
81	0xbc0bba65	-0.008528327
82	0xbd270ae0	-0.040781856
83	0x394f5e03	0.0001977608
84	0xbbbfb236	-0.005850102
85	0xbd86a8c4	-0.06575158
86	0xbda259be	-0.07927273
87	0xbce7081f	-0.028202115
88	0xbd0ab83a	-0.0338671
89	0x3cbae371	0.02281353
90	0xbd0f9929	-0.035058174
91	0xbc789095	-0.01517119
92	0xbd2637f2	-0.040580697
93	0x3b045889	0.0020194373
94	0x3d47a826	0.048744343
95	0xbd4b55fc	-0.049642548
96	0x3c8a3741	0.01687205
97	0xbd9bae05	-0.07601551
98	0xbd909581	-0.070597656
99	0xbd9e6128	-0.07733375
100	0x3d8b1305	0.06790737
101	0xbb8ddc71	-0.004329257
102	0x3c28aee3	0.0102956025
103	0xbb7a6da8	-0.0038212333
104	0xbd894add	-0.06703732
105	0xbdd0066a	-0.101574734
106	0xbbeadb27	-0.0071672383
107	0x3bb2a4a4	0.0054517556
108	0xbd8a052f	-0.0673927
109	0x3d09ec7e	0.033672802
110	0x3dc6bc2b	0.09703859
111	0xbd804a00	-0.062641144
112	0x3c93adef	0.018027274
113	0xbb2ec941	-0.002667025
114	0xbd5108b0	-0.051033676
115	0xbcb46a2a	-0.02202328
116	0xbc87b306	-0.016564857
117	0xbdb34851	-0.08754028
118	0xbe198fe4	-0.14996296
119	0xbe109e91	-0.14122988
120	0xbcbec336	-0.023286443
121	0xbc45e7ac	-0.012079161
122	0x3848c6b7	4.7868783e-05
123	0x3b2aa363	0.0026037327
124	0xbe0d4c7a	-0.13798705
125	0x3cddb45c	0.027063541
126	0xbd5ab26a	-0.053392805
127	0x3d13acf8	0.036053628
128	0xbdf8a191	-0.12140191
129	0xbd35f310	-0.044421256
130	0x3d4cd2ae	0.050005607
131	0x3d0dd9d5	0.03463157
132	0xbde0b750	-0.10972464
133	0x3cf21479	0.029550778
134	0x3b80d728	0.0039318986
135	0xbc731cec	-0.0148384385
136	0xbd03248b	-0.032017272
137	0x3d973e08	0.073848784
138	0xbd93d932	-0.07219161
139	0xbd8351c4	-0.0641208
140	0x3d3c26d6	0.045935474
141	0x3aa7531a	0.0012765855
142	0x3d185ae0	0.03719604
143	0xbdd37ee0	-0.10326934
144	0xbcc90b47	-0.02454151
145	0xbd8d9e4f	-0.069149606
146	0xbda48621	-0.080333956
147	0xbe1356ba	-0.14388552
148	0xbc5ae890	-0.013361111
149	0x3d00b076	0.031418286
150	0xbda65471	-0.08121575
151	0xbcb22ae1	-0.021748962
152	0xbd80d02f	-0.06289708
153	0xbbc667ce	-0.006054855
154	0x3d0a0f41	0.033705954
155	0xbd64a599	-0.05582199
156	0x3d3bdf12	0.045867033
157	0xbd57cd52	-0.052686043
158	0xbcfecc73	-0.031103348
159	0x3baaecf8	0.005216237
160	0xbcc300c9	-0.023804085
161	0x3cb6adb4	0.022299625
162	0x3cb339d1	0.021878155
163	0xbdb2c52d	-0.087290145
164	0x3b2ea886	0.002665074
165	0x3c7e3c99	0.015517377
166	0xbd01c3a8	-0.031680733
167	0xbc9ef828	-0.01940544
168	0xbca5da64	-0.020245738
169	0xbd647d0d	-0.05578332
170	0x3cbebf95	0.023284713
171	0x3cdf6b02	0.027272705
172	0xbdf22346	-0.11823134
173	0xbd2fb523	-0.042897355
174	0x3c5607f5	0.013063421
175	0xbdc2b507	-0.095071845
176	0xbce35ce0	-0.027754247
177	0xbddf7931	-0.10911787
178	0xbd57ac8d	-0.05265479
179	0xbcb5872c	-0.022159182
180	0xbdaedcad	-0.08538184
181	0x3d195a8d	0.03743987
182	0x3cfdb083	0.030967956
183	0xbdc033a6	-0.09384851
184	0x3a225a73	0.00061932876
185	0xbd4e8480	-0.05041933
186	0xbd809509	-0.06278426
187	0xbd976b3a	-0.07393499
188	0xbc1031bf	-0.008800923
189	0xbd603337	-0.054736342
190	0xbd11a6c6	-0.03555944
191	0xbcaeb418	-0.02132611
192	0xbe0a5d1b	-0.1351208
193	0xbcb914ee	-0.022592988
194	0xbe18a2f5	-0.14905913
195	0xbcea27a3	-0.028583353
196	0xbdb45e76	-0.088070795
197	0x3cd6cb60	0.026220024
198	0xbdbd9e4d	-0.09258709
199	0x3ca68315	0.020326177

hidden1_Y1.weight f4 [200, 200]
0	0x3d83e972	0.064410105
1	0x3d00bf6f	0.031432565
2	0x3dac95cf	0.08427011
3	0x3df2e86a	0.11860736
4	0x3daf63d8	0.085639656
5	0xbe064f1a	-0.13116112
6	0xbd33fd85	-0.043942947
7	0xbde5a738	-0.11213535
8	0x39991e80	0.00029205158
9	0xbd3e8346	-0.04651191
10	0xbdc6985e	-0.096970305
11	0xbd98cc87	-0.074608855
12	0xbd94947f	-0.07254886
13	0x3daf0dec	0.08547577
14	0x3de7d060	0.11319041
15	0xbc82ade4	-0.015952058
16	0xbda8b5c1	-0.08237792
17	0x3da2a69c	0.079419345
18	0xbdbcb6f7	-0.09214585
19	0xbdfa6f7c	-0.12228295
20	0x3dc4db8a	0.09612186
21	0x3cee1749	0.029063838
22	0xbd3c46d3	-0.04596598
23	0xbd0e3602	-0.034719475
24	0xbdf52580	-0.11970043
25	0x3dd17cbc	0.10228869
26	0xbdb53ac0	-0.08849096
27	0xbd6f8acd	-0.05848198
28	0x3c708e66	0.014682388
29	0xbd40d126	-0.04707446
30	0x3ca6619c	0.020310216
31	0x3c61da39	0.0137849385
32	0xbdd1c306	-0.10242276
33	0x3cf6f4ed	0.030146087
34	0x3d8d2583	0.068919204
35	0x3cd31c06	0.025770199
36	0xbd55d563	-0.052205455
37	0x3bfef871	0.0077810814
38	0x3ddd4760	0.10804629
39	0x3d8c2bf4	0.06844321
40	0xbcca5956	-0.024700802
41	0x3dd26af5	0.10274307
42	0x3dd1b8b3	0.10240307
43	0xbd9b94a3	-0.075967096
44	0xbdba468c	-0.09095487
45	0x3aa1d9e7	0.0012348265
46	0xbc148c71	-0.009066687
47	0x3db76610	0.08955014
48	0xbdd9f4c6	-0.1064239
49	0xbcc1a62d	-0.02363881
50	0x3d606234	0.054781154
51	0x3d09257a	0.033483006
52	0xbd246f17	-0.040145006
53	0x3d723356	0.05913099
54	0x3d28fcbb	0.041256648
55	0xbcb1972c	-0.02167853
56	0xbc60664f	-0.013696267
57	0x3cc19aff	0.023633478
58	0x3c2eecef	0.010676607
59	0x3bc0182d	0.005862257
60	0xbb9cfb81	-0.004790724
61	0x3da03030	0.07821691
62	0xbda86502	-0.08222391
63	0xbd5b1d5e	-0.053494804
64	0x3d9d580a	0.07682808
65	0x3c25c6ae	0.01011817
66	0xbbd0797e	-0.0063621392
67	0xbdbacad5	-0.091207184
68	0xbc295f47	-0.010337657
69	0x3ba7c717	0.005120169
70	0xbddd4761	-0.1080463
71	0xbd385c7d	-0.04501008
72	0xbdecfd56	-0.115717575
73	0x3bfd61a3	0.0077325865
74	0xbbab0b32	-0.0052198404
75	0x3d3f9671	0.04677433
76	0xbd9bb94c	-0.07603702
77	0x3da3402d	0.07971225
78	0x3b97be04	0.004630806
79	0x3dc8dabb	0.098073445
80	0x3d5fca75	0.054636437
81	0x3d0d1e23	0.03445257
82	0x3c2fd4a3	0.010731849
83	0xbdce11ce	-0.1006199
84	0x3da1fe65	0.0790985
85	0xbdd2d9a3	-0.10295417
86	0x3be1d2c5	0.0068915808
87	0xbccd2896	-0.025043767
88	0xbe0ab8cf	-0.13547061
89	0x3caf3349	0.02138676
90	0xbdc60ffe	-0.09671019
91	0xbcafb89c	-0.021450333
92	0x3dd2be92	0.10290255
93	0xbdd8f00c	-0.1059266
94	0x3dedf1c7	0.11618381
95	0x3d4f9204	0.05067636
96	0xbdb2421f	-0.08704018
97	0xbc67f574	-0.014157642
98	0x3c79410a	0.01521326
99	0x3cac35a1	0.021021666
100	0x3b80af92	0.0039271796
101	0xbdbf161c	-0.09330389
102	0xbbc2c86c	-0.0059443023
103	0x3db802b4	0.089848906
104	0xbd2219a0	-0.03957522
105	0xbbbbaea4	-0.005727606
106	0x3cac8b20	0.021062434
107	0xbd9ab435	-0.07553903
108	0x3d8eb6cd	0.0696846
109	0xbd50d022	-0.05097974
110	0xbd450851	-0.048103634
111	0x3da664a5	0.08124665
112	0x3dc3454f	0.09534704
113	0x3da82664	0.082104474
114	0x3dc60894	0.09669605
115	0xbdd8affd	-0.10580442
116	0xbd8b0112	-0.067873135
117	0x3ddf9a0c	0.10918054
118	0xbd8f01ef	-0.06982791
119	0xbd24913d	-0.040177573
120	0xbce63fb8	-0.028106555
121	0x3dcdf7da	0.100570396
122	0x3de766b8	0.11298889
123	0x3d32eb55	0.04368146
124	0x3d5fb173	0.05461259
125	0xbd5335b8	-0.051564902
126	0xbbde7834	-0.0067892317
127	0xbe07cb0d	-0.13261051
128	0x3db2871d	0.08717177
129	0xbda34fcf	-0.07974207
130	0x3da55b20	0.08074021
131	0x3cc2676c	0.023730956
132	0x3db41e18	0.087948024
133	0xbd859447	-0.06522422
134	0x3d8f3b46	0.069937274
135	0xbcc17492	-0.023615155
136	0xbd508405	-0.050907154
137	0xbdbaca9f	-0.09120678
138	0x3d127442	0.035755403
139	0x3d9aa2a6	0.07550554
140	0xbdebeebd	-0.11520145
141	0x3c8e823f	0.01739609
142	0x3bb12253	0.005405703
143	0x3cfe332e	0.031030264
144	0xbce1b56f	-0.027552335
145	0xbd174da8	-0.036939293
146	0xbd24c051	-0.04022247
147	0x3dbf27ee	0.09333788
148	0x3daffece	0.08593522
149	0x3dce4273	0.10071268
150	0xbde67e99	-0.11254615
151	0xbdd2df67	-0.10296517
152	0x3d7976fc	0.060904488
153	0x3d2f451c	0.042790517
154	0xbbea2890	-0.0071459487
155	0x3dc51b12	0.09624304
156	0x3d94b952	0.072619095
157	0xbc9fd93c	-0.019512765
158	0x3af6d4ad	0.0018831693
159	0xbd031edd	-0.032011855
160	0xbd99e680	-0.075146675
161	0x3d32bd94	0.043637827
162	0xbdc61d78	-0.096735895
163	0xbda53fe3	-0.08068826
164	0xbde51444	-0.11185506
165	0xbda00cc1	-0.078149326
166	0xbd746f37	-0.059676375
167	0x3d84b229	0.06479294
168	0xbd73bcd4	-0.059506252
169	0x3d955e05	0.072933234
170	0x3c0c449a	0.008561278
171	0x3c001cc0	0.0078193545
172	0xbbf34181	-0.00742358
173	0x3ded3986	0.11583237
174	0xbdd9fdd1	-0.10644115
175	0xbdb1024e	-0.08643018
176	0x3dc46909	0.09590346
177	0x3d1f4695	0.03888567
178	0x3d974e58	0.0738799
179	0xbd00fd55	-0.031491596
180	0x3db6c83e	0.08924912
181	0x3dbb65c8	0.091502726
182	0xbd74ccda	-0.059765674
183	0x3db8085d	0.0898597
184	0xbda92541	-0.08259059
185	0xbc0d260a	-0.008615026
186	0x3de37a29	0.111072846
187	0x3d4e1507	0.050313022
188	0x3e07d3fc	0.1326446
189	0x3df37f55	0.11889521
190	0x3c96bb56	0.018399876
191	0x3d68a696	0.056799494
192	0xbd0deb5e	-0.03464829
193	0x3d7cf1b8	0.06175396
194	0xbd6cfdf1	-0.057859365
195	0x3b2d6f06	0.002646388
196	0xbd4e8e8f	-0.050428923
197	0x3c882ca5	0.01662285
198	0x3a0cadf4	0.0005366497
199	0x3dceb3a9	0.10092861
200	0x3e021f67	0.12707292
201	0xbde20fe5	-0.11038188
202	0xbdee32f8	-0.11630815
203	0xbd5334b5	-0.051563937
204	0xbd24331f	-0.040087815
205	0xbbf2207c	-0.0073891263
206	0xbd8827ee	-0.06648241
207	0x3d4a5234	0.0493948
208	0xbc9c2463	-0.01906032
209	0x3de76c8f	0.11300003
210	0xbde1d887	-0.110276274
211	0x3d26ea6e	0.040750913
212	0xbdd41ba5	-0.10356835
213	0x3da825a5	0.08210305
214	0x3c490e34	0.012271453
215	0xbd09ab79	-0.033610795
216	0xbd5b105a	-0.05348239
217	0xbd2ee401	-0.04269791
218	0x3d40ed6c	0.047101423
219	0x3c35c29b	0.011093761
220	0xb9e919ff	-0.00044460592
221	0x3a5dfc30	0.000846806
222	0xbce90dbe	-0.028448936
223	0x3d7332eb	0.05937473
224	0x3df5fddb	0.1201131
225	0xbd020f1f	-0.0317527
226	0x3c55e0e7	0.013054109
227	0x3e0dcba2	0.13847211
228	0xbde16c34	-0.11006966
229	0x3d8d75bc	0.06907222
230	0x3cd31edd	0.025771553
231	0xbd9b0a58	-0.07570332
232	0x3dbe1383	0.09281065
233	0x3cfcf6ee	0.030879464
234	0x3e02117c	0.12701982
235	0xbd8a8e1c	-0.067653865
236	0xbd808014	-0.06274429
237	0x3c2c43f3	0.010514247
238	0x3938ec66	0.00017635673
239	0xbc92f1d6	-0.017937582
240	0x39e228af	0.0004313639
241	0xbd65f005	-0.056137104
242	0xbdbde6c2	-0.09272529
243	0xbd466596	-0.048436724
244	0xbdbfb83b	-0.09361311
245	0x3d41684a	0.0472186
246	0xbd9054b5	-0.070474066
247	0xbdd1828a	-0.102299765
248	0x3ddbf2ac	0.10739645
249	0xbdbb4848	-0.09144646
250	0xbd6e6b3b	-0.05820773
251	0x3d8813bf	0.06644391
252	0x3d393b26	0.045222424
253	0xbd80ca56	-0.062885925
254	0x3c896648	0.016772404
255	0xbb5c50d9	-0.0033617525

hidden1_Y1.bias f4 [200]
0	0x3c3741db	0.011185135
1	0xbd50dcea	-0.05099193
2	0x3d16cd17	0.036816683
3	0x3cc257c4	0.02372349
4	0xbd038c2a	-0.032116093
5	0xbc1509ab	-0.009096543
6	0x3cea7363	0.028619474
7	0x3cc0fbfc	0.023557656
8	0xbcbab4db	-0.022791317
9	0x3c6882df	0.014191358
10	0x3d74f233	0.05980129
11	0xbd6c5e94	-0.057707384
12	0x3cac72ec	0.021050893
13	0x3c084669	0.008317568
14	0x3c5e17c8	0.013555475
15	0x3c27a7cf	0.01023288
16	0x3c96a9fe	0.018391605
17	0x3d82ea0f	0.063922994
18	0xbd41a4f0	-0.047276437
19	0xbc7defe1	-0.015499086
20	0x3d557e74	0.05212255
21	0x3cfcc2c1	0.030854585
22	0x3c8e0162	0.017334644
23	0x3c3bb98c	0.011457812
24	0xbd1944f0	-0.03741926
25	0x3d5d6a27	0.054056313
26	0xbd07ad74	-0.033124402
27	0x3c76ca90	0.015062943
28	0x3ca387ff	0.019962309
29	0xbc580e13	-0.013186949
30	0x3da4fc07	0.08055883
31	0xbb9b83cf	-0.0047459374
32	0x3d5479e6	0.051874064
33	0x3d137d81	0.03600836
34	0xbce5b779	-0.028041588
35	0x3d7ad06f	0.061233934
36	0x3d3df4c8	0.04637602
37	0xbda72f75	-0.081633486
38	0x3c27f2fb	0.010250802
39	0xbb6cecd7	-0.003615191
40	0x3adc329f	0.0016799754
41	0x3c3ab5e4	0.011395905
42	0xbd88f4b3	-0.06687298
43	0x3c2631e9	0.010143735
44	0xbd5eb67a	-0.054373242
45	0xbbdcc855	-0.0067377486
46	0x3c50b546	0.012738531
47	0x3d27f04f	0.04100066
48	0x3d41c530	0.047307193
49	0xbc6f9687	-0.014623291
50	0x3c1f3dd0	0.009719327
51	0xbd1a28ff	-0.037636753
52	0xbcdd83be	-0.027040359
53	0xbd1d7263	-0.038439166
54	0xbd35f496	-0.04442271
55	0x3cf749c7	0.030186547
56	0x3d2dde6f	0.042448457
57	0xbd4e3e46	-0.050352357
58	0xbb5ca6aa	-0.0033668675
59	0x3bf5ed5a	0.007505101
60	0x3b9aee28	0.0047280975
61	0xbcf14dec	-0.029456101
62	0x3cf9a250	0.030472904
63	0x3ba4a7f7	0.005024906
64	0x3d5a591f	0.05330765
65	0x3d903a70	0.07042396
66	0xbd66f08b	-0.056381743
67	0x3ca37175	0.019951561
68	0x3d3c0678	0.045904607
69	0x3d0b61dc	0.034028873
70	0xbcd87390	-0.026422292
71	0xbd0191e9	-0.03163329
72	0xbd3a7b56	-0.04552778
73	0x3cbc586e	0.022991385
74	0x3d1577b4	0.03649111
75	0xbd2e49f5	-0.042551
76	0xbc1a732a	-0.009426871
77	0x3cf836ba	0.030299533
78	0xbd01e631	-0.03171367
79	0xbd0efcef	-0.034909185
80	0xbd58dcf7	-0.052945103
81	0x3d4144f0	0.047184885
82	0x3d0e4c8c	0.03474097
83	0xbc9a13a6	-0.018808197
84	0xbd5b6f63	-0.053573024
85	0x3ae61c68	0.0017556073
86	0x3d17b8cd	0.037041474
87	0xbd345e04	-0.044034973
88	0x3c4aad8f	0.012370481
89	0xbd1782b5	-0.036989886
90	0x3ca75fac	0.020431362
91	0x3cd14696	0.025546353
92	0x3be7e33e	0.00707665
93	0xbdb6ed0a	-0.0893193
94	0x3c94b83f	0.018154262
95	0xb9a14798	-0.00030761654
96	0x3c8640f8	0.016388401
97	0xbbbf82dc	-0.005844457
98	0xbd516d7c	-0.051129803
99	0x3d615dc4	0.055021062
100	0xbbb19f36	-0.0054205908
101	0x3cb406d6	0.021975916
102	0xbd788aa5	-0.060679097
103	0x3aed5ea9	0.0018109876
104	0xbd898eea	-0.06716712
105	0x3d874d75	0.06606571
106	0xbcc81db1	-0.02442822
107	0x3d744575	0.059636552
108	0xbd0ff647	-0.035146978
109	0x3d6b2d7e	0.05741643
110	0x3baa2eee	0.0051935827
111	0x3d829ad5	0.06377188
112	0x3d810ffc	0.06301877
113	0xbcde0e28	-0.02710636
114	0xbd8b4a73	-0.068013094
115	0xbca1e089	-0.019760387
116	0x3bc4529f	0.0059912945
117	0xbd2b4581	-0.04181433
118	0x3d01a354	0.031649902
119	0x3c0632b3	0.008190799
120	0x3c0d1f7e	0.008613465
121	0xbcee5a6b	-0.029095849
122	0xbbdd8a04	-0.0067608375
123	0x3d4fc013	0.050720286
124	0xbd3c785a	-0.046013214
125	0x3d2e21cd	0.042512704
126	0x3cbcf399	0.023065375
127	0xbd8e6282	-0.069523826
128	0xbd7454a3	-0.05965103
129	0x3d47ac2a	0.048748173
130	0x3d58a08a	0.052887477
131	0xbda5d8d8	-0.08098
132	0xbcbd70eb	-0.023125133
133	0xbc2d4d81	-0.01057756
134	0x3cc3741f	0.023859082
135	0xbd031c89	-0.032009635
136	0xbc7ef18d	-0.01556052
137	0xbb469b53	-0.0030304983
138	0x3d669276	0.05629202
139	0x3d0c5164	0.034257308
140	0x3d4468ed	0.047951628
141	0xbd800dd6	-0.06252639
142	0xbcdf1df4	-0.027235962
143	0xbcbbe35d	-0.022935564
144	0x3d15f2e2	0.036608584
145	0xbcb94a27	-0.022618366
146	0xbd501119	-0.050797556
147	0x3d562f9c	0.052291498
148	0xbb2c83b1	-0.0026323611
149	0x3c574170	0.01313816
150	0xbd9d8c0c	-0.076927274
151	0x3bba4c06	0.005685332
152	0xbd488493	-0.048954558
153	0xbd742fcd	-0.0596159
154	0xbda8606d	-0.08221517
155	0xbc4aeb7f	-0.012385248
156	0xbcf5856c	-0.029970847
157	0x3c32db77	0.010916582
158	0xbc8c7f9e	-0.017150696
159	0xbd8c237c	-0.068427056
160	0x3d803648	0.06260353
161	0xbcbea4da	-0.023271967
162	0x3d745f43	0.05966116
163	0xba506759	-0.00079499703
164	0x3ca57aa7	0.020200087
165	0xbce9d139	-0.028542148
166	0x3cf0bb84	0.02938629
167	0x3da0b219	0.078464694
168	0x3d416f03	0.04722501
169	0x3d5e0442	0.05420328
170	0x3cdf37ca	0.027248282
171	0x3c33f865	0.010984515
172	0x3caaea74	0.02086375
173	0x3d427b24	0.047480717
174	0x3d7996cc	0.060934827
175	0xbcd95f31	-0.026534649
176	0x3d764f96	0.060134493
177	0xbcf33f93	-0.0296934
178	0xbd1e8db5	-0.03870936
179	0xbd3efd66	-0.04662838
180	0x3d82fa1b	0.0639536
181	0x3cca75ce	0.024714377
182	0xbcf74692	-0.030185018
183	0xbbcade3d	-0.0061910436
184	0x3c1f2c18	0.009715103
185	0x3d373a5b	0.044733386
186	0x3d579b51	0.052638356
187	0x3d580e85	0.052748222
188	0xbda20a15	-0.07912079
189	0x3d31f14a	0.043443
190	0xbc31abb9	-0.0108441645
191	0xbcc7c382	-0.024385218
192	0xbd364d7a	-0.04450748
193	0xbd05ef94	-0.032699183
194	0x3d2b8b3e	0.04188084
195	0x3c722104	0.014778379
196	0x3ceeb3f7	0.029138548
197	0xbcbb63c5	-0.022874722
198	0x3d55e042	0.052215822
199	0xbc8989f0	-0.016789407

hidden2_Y1.weight f4 [200, 200]
0	0xbc6c16e6	-0.014409756
1	0x3dbc6dd3	0.09200635
2	0x3d6cdb53	0.05782635
3	0xbdac288f	-0.084061734
4	0xbd2e5dd1	-0.04256994
5	0x3dcdcb5b	0.100485526
6	0xbbc1a5e6	-0.005909669
7	0x3c2c0744	0.010499779
8	0x3cf3d16c	0.029762946
9	0x3dda2acb	0.10652693
10	0xbd1d6cd3	-0.03843386
11	0x3cfd69f7	0.030934317
12	0xbdcacc5f	-0.09902262
13	0x3d6c3034	0.057663158
14	0xbd2c4c8a	-0.04206518
15	0x3dd5625d	0.10419152
16	0xbdced7a9	-0.10099728
17	0xbe004a5b	-0.12528364
18	0xbded3941	-0.11583186
19	0xbdedd6fb	-0.1161327
20	0xbd48e4cb	-0.04904632
21	0x3d9afeb8	0.07568115
22	0xbd74e6c0	-0.059790373
23	0xbe0084f9	-0.12550725
24	0x3d650ee0	0.05592239
25	0x3d532f7d	0.05155896
26	0xbdb659c2	-0.08903839
27	0xbdd34195	-0.10315243
28	0x3de0bd3f	0.10973596
29	0xbdcbe7e7	-0.09956341
30	0x3a9e823f	0.001209326
31	0xbc957f39	-0.018249141
32	0xbdd862ac	-0.10565695
33	0x3cbcaa48	0.023030415
34	0xbde9b672	-0.11411752
35	0x3dc29f8a	0.09503086
36	0xbcd0301b	-0.025413563
37	0x3dbb3179	0.091402955
38	0xbd8999d9	-0.06718797
39	0xbd415c63	-0.047207247
40	0x3cdaf022	0.026725832
41	0x37fab48d	2.9886398e-05
42	0xbddcdfbd	-0.10784862
43	0xbd136c5e	-0.03599202
44	0xbd832a22	-0.064045206
45	0xbd90ca59	-0.07069845
46	0xbe0e0dc3	-0.13872437
47	0xbdcb9900	-0.09941292
48	0x3d744acb	0.05964164
49	0x3d817aba	0.06322236
50	0x3d086275	0.03329702
51	0xbd7902d6	-0.06079372
52	0x3d8a5c39	0.06755871
53	0xbda1e100	-0.079042435
54	0x3cdff0ce	0.027336504
55	0xbdbc5e15	-0.09197632
56	0xbdee1293	-0.116246365
57	0x3d5befd6	0.053695522
58	0xbc07ac5d	-0.008280841
59	0xbd00c61c	-0.03143893
60	0x3d00a12c	0.031403705
61	0xbd107aa6	-0.035273217
62	0xbd608c09	-0.054821048
63	0x3db08f8c	0.086211294
64	0xbd967c78	-0.07347959
65	0xbdf15809	-0.117843695
66	0x3c1062fb	0.008812661
67	0x3ccc4c19	0.02493863
68	0xbd5e0e6b	-0.05421297
69	0x3d17a05e	0.037018172
70	0x3c4ad467	0.012379742
71	0xbddacaf9	-0.10683245
72	0x3db008ed	0.085954525
73	0xbdb66c62	-0.08907391
74	0xbc63bc83	-0.013899925
75	0x3dd2417d	0.10266397
76	0xbda813fa	-0.08206935
77	0xbdcc766b	-0.09983524
78	0xbce4b831	-0.02791986
79	0xbdf6c643	-0.12049534
80	0xbd2ecccf	-0.04267579
81	0xbcf208ff	-0.029545305
82	0xbb692d39	-0.0035579933
83	0x3d3fd65f	0.0468353
84	0x3be990c0	0.0071278512
85	0x3dae9cbd	0.08525989
86	0x3d8d8574	0.0691022
87	0xbd937dbd	-0.07201717
88	0x3de9868d	0.11402617
89	0x3daea76e	0.085280284
90	0x3cc394d5	0.02387468
91	0x3c2be96f	0.010492667
92	0x3c63a4db	0.013894285
93	0x3d18bdd7	0.03729042
94	0xbd52f5ab	-0.05150382
95	0x3d177496	0.03697642
96	0x3dd5340c	0.10410318
97	0xbd68d570	-0.056844175
98	0x3c8af037	0.016960246
99	0x3c7627cd	0.015024138
100	0x3de91063	0.11380079
101	0xbd97dc3a	-0.07415052
102	0xbd92329e	-0.07138561
103	0xbd684233	-0.056703757
104	0xbd338cbb	-0.043835383
105	0xbd42638a	-0.04745821
106	0x3c87a903	0.016560083
107	0x3cd779b0	0.026303142
108	0xbd8df66a	-0.069317654
109	0x3db19141	0.08670283
110	0x3dba7860	0.09104991
111	0xbd0a3aa2	-0.033747323
112	0xbda83416	-0.082130596
113	0xbdaf3b12	-0.08556189
114	0x3d459f64	0.04824771
115	0x3cd3d244	0.025857098
116	0x3c60dc32	0.013724374
117	0xbdbf4254	-0.09338823
118	0xbd423b2e	-0.04741972
119	0xbdb31482	-0.08744146
120	0xbdb8b72a	-0.09019311
121	0xbdf363aa	-0.11884244
122	0xbda83923	-0.08214023
123	0xbde03999	-0.10948486
124	0x3d86a044	0.06573537
125	0xbd6d1dc5	-0.05788972
126	0x3cdc3162	0.026879016
127	0x3d8aab41	0.06770945
128	0xbdf716b9	-0.12064881
129	0x3db2d367	0.08731728
130	0x3dc75422	0.09732844
131	0xbdb6ff62	-0.08935429
132	0xbdd21fe3	-0.10259988
133	0x3c4ff705	0.012693171
134	0x3d8ea414	0.06964889
135	0x3de108d7	0.10988014
136	0xbd8d5f6f	-0.06902968
137	0x3d97ec5f	0.07418131
138	0xbdfdbf8c	-0.1239005
139	0xbd2caf6a	-0.042159475
140	0x3d6ae5dd	0.05734812
141	0x3cbd20bf	0.023086904
142	0x3d3efdef	0.04662889
143	0x3d1f073a	0.03882525
144	0xbca66a9d	-0.020314509
145	0x3df44bcc	0.119285196
146	0x3def7ba8	0.116935074
147	0xbda8769f	-0.0822575
148	0xbd5b580b	-0.05355076
149	0x3dc9b213	0.09848418
150	0xbd558c57	-0.05213579
151	0x3cbe6e33	0.023245906
152	0x3cfdc254	0.030976452
153	0x3c919143	0.017769461
154	0xbd64e9ae	-0.055886917
155	0x3d85f0e1	0.06540085
156	0xbd24ab61	-0.040202502
157	0xbd645a7d	-0.05575036
158	0xbd18bb7d	-0.037288178
159	0xbd2bcef0	-0.041945398
160	0x3d9fc385	0.07800964
161	0xbceb49d6	-0.028721731
162	0xbd752347	-0.059848096
163	0x3dcec191	0.100955136
164	0x3da64503	0.08118632
165	0xbde9f8d8	-0.11424416
166	0xbdfd88ca	-0.12379606
167	0x3d9bb6a5	0.07603196
168	0x3bc8d878	0.0061293207
169	0x3dadb2ba	0.08481355
170	0xbca820c1	-0.02052343
171	0x3d4177ec	0.047233507
172	0xbde90fe5	-0.11379985
173	0xbbcc1707	-0.006228331
174	0x3d81578b	0.063155256
175	0xbdf3e448	-0.119087756
176	0xbdd0c633	-0.101940535
177	0xbdded15a	-0.108797744
178	0xbda06d78	-0.078333795
179	0xbd9165c6	-0.0709949
180	0x3dccfaa1	0.10008741
181	0x3dc5840b	0.09644326
182	0xbdc9d6d3	-0.098554276
183	0xbdcfdc67	-0.1014946
184	0xbcf264fb	-0.029589167
185	0x3d82c50f	0.06385242
186	0x3d3e6da5	0.046491284
187	0x3d5c4f8c	0.0537868
188	0xbd462a47	-0.048380163
189	0xbc536c6d	-0.012904269
190	0xbdad7b3c	-0.08470771
191	0xbd62438f	-0.05524021
192	0xbb4344d2	-0.0029795659
193	0x3bb969c3	0.0056583597
194	0x3d6ae652	0.057348557
195	0x3d9dfb52	0.07713951
196	0xbdddb6fe	-0.108259186
197	0xbc018465	-0.0079051005
198	0xbdb05258	-0.08609456
199	0x3cde4df1	0.027136775
200	0xbdeb7a19	-0.11497898
201	0xbd958b98	-0.07302016
202	0xbda26b24	-0.07930592
203	0x3d9c7906	0.07640271
204	0x3dc5e840	0.09663439
205	0xbe124760	-0.1428504
206	0xbd2dcaff	-0.04242992
207	0xbd0e3007	-0.03471377
208	0x3dec53b1	0.115394
209	0xbdd4bed5	-0.10387961
210	0x3cb2caa6	0.021825146
211	0x3def40fb	0.11682316
212	0x3d604575	0.05475374
213	0x3cca7c37	0.024717433
214	0xbd0ecdff	-0.034864422
215	0xbd6869c0	-0.056741476
216	0xbdd9c7e7	-0.106338315
217	0x3d973aeb	0.073842846
218	0xbdd4c4f2	-0.10389127
219	0x3dad02b5	0.08447782
220	0xbd72ad6d	-0.059247423
221	0x3d9c496e	0.07631193
222	0xbd8e7dd0	-0.069575906
223	0xbd9c6d70	-0.07638061
224	0x3cb622c8	0.022233382
225	0xbd568efb	-0.05238245
226	0x3de2c36f	0.11072432
227	0x3d61a9b7	0.055093493
228	0x3db53083	0.088471435
229	0x3c4c154d	0.01245625
230	0x3c190ad8	0.009340964
231	0x3da881b3	0.08227863
232	0x3da3e56a	0.08002742
233	0xbcd6f19a	-0.026238251
234	0xbd6113eb	-0.054950636
235	0xbd1a3e32	-0.03765697
236	0x3d082f89	0.033248458
237	0xbc99ee97	-0.018790526
238	0x3b19eddf	0.002348773
239	0xbdec8df0	-0.1155051
240	0x3daaf2fc	0.08347127
241	0xbc6dd3a5	-0.014515792
242	0xbdb5af92	-0.08871378
243	0x3bd4dcce	0.0064960485
244	0x3db24597	0.087046795
245	0x3dcce699	0.100049205
246	0xbd37e278	-0.04489371
247	0xbcd0419f	-0.025421916
248	0x3daef629	0.08543045
249	0x3db2cadb	0.08730098
250	0xbd32e932	-0.043679424
251	0x3daf65eb	0.08564361
252	0x3d7b520c	0.061357543
253	0x3cd26d0f	0.025686769
254	0x3dfeb7d8	0.12437409
255	0x3d8c79f5	0.06859199

hidden2_Y1.bias f4 [200]
0	0xbd86aa55	-0.06575457
1	0xbd515e33	-0.051115226
2	0xbc9f1e7e	-0.01942372
3	0x3d64a355	0.055819828
4	0x3caa0ebb	0.020758977
5	0x3d9cda70	0.07658851
6	0xbd3ba200	-0.045808792
7	0xbd850dce	-0.06496774
8	0x3d355c96	0.04427775
9	0x3c36ad9b	0.011149789
10	0x3c00264b	0.00782163
11	0x3d87ce6b	0.06631168
12	0x3aed6413	0.001811149
13	0x3d8d4bcb	0.06899222
14	0x3bfcddc6	0.007716867
15	0xbd8be7f8	-0.06831354
16	0xbd887c9f	-0.066643946
17	0x3d805da4	0.062678605
18	0x3cf328d7	0.02968256
19	0xbce67eb7	-0.028136594
20	0x3d9d7766	0.07688789
21	0xbd3ce833	-0.04611988
22	0x3d545089	0.051834617
23	0x3ceab16b	0.028649053
24	0xbd6e1888	-0.058128864
25	0x3cf07c70	0.029356211
26	0x3c8cd9ae	0.017193642
27	0x3c439852	0.011938171
28	0x3d5f076b	0.054450434
29	0x3d2f9d88	0.042874843
30	0xbcb6c66c	-0.022311412
31	0x3d26a88d	0.040688086
32	0x3d2edf74	0.04269357
33	0xbd69f3a9	-0.057117138
34	0xbd24ab09	-0.040202174
35	0x3c6abc45	0.0143271135
36	0xbd0f4682	-0.03497935
37	0xbd51a765	-0.05118503
38	0xbc2abd78	-0.010421149
39	0x3d58ba59	0.05291209
40	0xbd76103f	-0.060074087
41	0x3d1ba326	0.037997387
42	0x3d45a21e	0.04825031
43	0x3d6a0097	0.05712947
44	0xbd1b3f60	-0.037902236
45	0x3d805ff0	0.062682986
46	0x3cd232ba	0.025658954
47	0x3d48ed52	0.04905445
48	0xbba0eadb	-0.0049108095
49	0x3d4370fc	0.047715172
50	0x3d62fbb6	0.05541583
51	0xbd89bc94	-0.067254215
52	0xbd2e433b	-0.042544585
53	0x3c9d07c1	0.019168736
54	0x3cb4a262	0.022050086
55	0xbd7e71a8	-0.06212011
56	0xbd03ac89	-0.032146964
57	0xbcdec4cf	-0.027193455
58	0x3d1d9c2c	0.038479015
59	0xbc0579c7	-0.00814671
60	0x3d30cf25	0.0431663
61	0x3cd34871	0.025791379
62	0xbd08c848	-0.033394128
63	0x3c7ed2f8	0.015553229
64	0x3b8d2988	0.0043079294
65	0xbd9854be	-0.07438038
66	0xbd2c0f06	-0.042006515
67	0xbcb664e3	-0.022264903
68	0x3d95859d	0.07300875
69	0x3c47483d	0.012163219
70	0x3d2468fb	0.04013918
71	0xba1fb2e4	-0.00060920254
72	0xbd661788	-0.056174785
73	0x3ccee3d2	0.025255118
74	0xbc0f7101	-0.00875497
75	0x3d900179	0.07031531
76	0x3cda61cd	0.026657963
77	0x3d85230a	0.06500824
78	0x3c9506d0	0.018191725
79	0x3d91ae89	0.07113368
80	0x3d940ad0	0.07228625
81	0x3d93adc3	0.07210877
82	0xbd0b8766	-0.034064673
83	0x3d42ccde	0.047558658
84	0xbbb1e4ea	-0.0054289
85	0x3d87ba88	0.06627375
86	0x3d32f105	0.043686885
87	0x3d2b45fd	0.041814793
88	0xbcd46961	-0.025929155
89	0xbcc5e6f3	-0.024157977
90	0x3b011d8b	0.0019701447
91	0x3c60d4be	0.013722597
92	0x3d350be5	0.044200797
93	0xbca49d4e	-0.02009454
94	0x3b6b61b6	0.0035916395
95	0xbd77ef72	-0.060531087
96	0xbd9d2125	-0.076723374
97	0x3cc87abb	0.024472585
98	0x3d68a4ed	0.05679791
99	0xbcfaee24	-0.030631132
100	0xba62d452	-0.0008652854
101	0xbd6ffefb	-0.058592778
102	0x3bb9a778	0.005665716
103	0xbcf24166	-0.0295722
104	0x3d652adf	0.05594909
105	0x3d86d3c4	0.0658336
106	0xbd0ca2a7	-0.034334805
107	0x3d782d50	0.06059009
108	0xbcc76ef9	-0.024344908
109	0x3bd51527	0.0065027657
110	0xbc6ecb76	-0.014574876
111	0xb9fce693	-0.00048236977
112	0xbce22f75	-0.02761052
113	0x3ca250ae	0.019813862
114	0x3ccbc869	0.024875836
115	0xbd887e2b	-0.0666469
116	0xbacc51a2	-0.0015588293
117	0xbc30575b	-0.010763015
118	0xbc3c3213	-0.011486548
119	0x3d8ed0c6	0.06973414
120	0xba794f35	-0.0009510399
121	0xbc7720c4	-0.0150834955
122	0xbc373880	-0.011182904
123	0xbcd3fefe	-0.025878426
124	0xbd923aab	-0.07140096
125	0xbcefc483	-0.029268509
126	0xbc11f5e8	-0.008908726
127	0x3ccc4a49	0.024937766
128	0x3d064618	0.03278169
129	0xba681d10	-0.00088544283
130	0x3d52a138	0.05142328
131	0xbcc9c855	-0.024631659
132	0xbd3b7dd2	-0.04577429
133	0x3d832765	0.06403998
134	0x3d361b18	0.044459432
135	0x3a1c854d	0.0005970791
136	0x3d004f05	0.03132536
137	0x3d473d07	0.048642185
138	0x3b383fdf	0.0028114242
139	0x3c498c88	0.012301572
140	0x3d5afef7	0.05346581
141	0xbd2b03ff	-0.041751858
142	0x3c2de02f	0.010612532
143	0xbd793823	-0.06084455
144	0x3d5e35de	0.05425059
145	0xbdaec01a	-0.08532734
146	0x3d09ee90	0.033674777
147	0xbcd61d61	-0.026137056
148	0xbd86f09a	-0.0658886
149	0x3d1f177f	0.038840767
150	0xbd7002bc	-0.058596358
151	0xbd65bbb9	-0.05608723
152	0x3d559974	0.052148297
153	0xbcb7d700	-0.022441387
154	0x3c55f3e5	0.013058637
155	0xbd583886	-0.05278828
156	0xbd500a0c	-0.05079083
157	0xbd40657d	-0.046971787
158	0xbd3e1ed5	-0.046416122
159	0x3c75a324	0.014992509
160	0x3d88c45c	0.066780776
161	0xbd005db0	-0.031339347
162	0x3d86c511	0.06580556
163	0x3d076bff	0.033061977
164	0x3d4f8ad1	0.050669495
165	0x3cd2026d	0.025635922
166	0xbd9b70ff	-0.07589912
167	0x3d834fec	0.06411728
168	0xbc82594b	-0.015911719
169	0x3cb30de2	0.021857206
170	0x3d4f43f9	0.050601933
171	0x3ca65267	0.020302964
172	0x3cfbf08e	0.030754354
173	0xbcd1ff73	-0.025634503
174	0x3d855a55	0.0651137
175	0xbd32947d	-0.04359864
176	0x3c8827e8	0.016620591
177	0x3cdcb2b5	0.026940683
178	0x3d6fe75a	0.058570243
179	0x3d099716	0.033591352
180	0xbd3c494d	-0.045968343
181	0xbbeafcb1	-0.0071712364
182	0x3c8dd672	0.01731417
183	0x3bccad8f	0.0062462757
184	0xbd70f9a0	-0.05883181
185	0x3d8abcb4	0.067742735
186	0xbd12b5f0	-0.03581804
187	0x3d50b95b	0.05095802
188	0xbc64b827	-0.013959921
189	0xbbb75c7b	-0.0055957413
190	0x3c86f5f5	0.016474703
191	0x3d187a10	0.037225783
192	0xbda30027	-0.079590134
193	0xbd865b97	-0.06560438
194	0xbd29b97e	-0.041436665
195	0xbd2b372d	-0.041800667
196	0xbcd1d4f3	-0.025614237
197	0x3cb46768	0.022021964
198	0x3ccac857	0.024753733
199	0x3d20e119	0.03927717
