Results/Models/NN_DCN_model_iter_id_0_epoch_100_lr_0.001.pth (torch, 832974 bytes, 14 tensors)

shared1.weight f4 [200, 25]
0.09651917 0.11398663 0.13620372 -0.09281627 -0.028654652 -0.055526823 0.0080008125 -0.077967286
-0.0020921917 -0.059532043 -0.10787939 -0.16488345 0.061537426 -0.05776248 0.06364495 -0.019193139
-0.07383697 -0.06938685 -0.15465748 0.12754276 0.08342821 0.11221458 0.10947954 -0.08909431
0.102563605 -0.08054267 -0.12545253 -0.007384037 0.061800797 0.048979975 -0.021353193 0.0010644457
-0.10399886 -0.0776176 0.14449038 0.072250575 0.14560746 -0.15271674 -0.056671135 -0.1564879
-0.14184912 0.14349306 0.10698572 0.1478966 -0.11441332 -0.1407355 -0.08502454 -0.035236802
0.13097523 -0.08341933 0.10323768 0.109238416 0.09950887 -0.05591735 0.045789145 0.008887626
-0.000118828 0.038777765 0.12937032 0.11806025 -0.08719813 -0.01775487 0.09479006 -0.006762241
0.07604113 0.12707429 0.034417126 -0.10835349 0.018347727 0.09086907 -0.02172616 -0.06800099
0.040954437 0.12439689 0.017847262 0.029094078 -0.12687466 -0.026315816 0.11807035 0.034119718
0.044374906 -0.08269803 0.07737117 0.010192788 -0.073884666 0.05472381 0.0097924685 0.0653599
-0.025637064 -0.06323688 0.049844503 0.026893377 0.028680973 0.05115625 0.03770203 0.053899825
-0.05304711 0.14505266 -0.07401119 -0.084948525 -0.09044375 -0.07423051 -0.1182418 -0.11535728
0.09877063 0.0475868 -0.051090613 -0.1192616 0.10306999 0.059368186 -0.12995934 0.04763631
-0.1582684 -0.16745047 -0.10542722 -0.111722514 -0.18913564 -0.034728535 0.102602564 -0.02278897
0.09676496 0.09441224 -0.115552835 0.15890321 -0.025695285 0.14472507 0.05125058 0.13027498
0.010764213 0.13894725 0.08616579 0.03051617 0.13704158 0.11242763 -0.020669868 0.09092973
-0.0438245 0.024990955 -0.08904427 0.030904844 -0.023437647 -0.14843655 -0.12824816 0.058207266
0.013473025 -0.071365945 0.016236462 -0.15748076 0.06216144 -0.05296369 -0.012489073 -0.009021451
-0.0078080017 0.0678427 -0.0005857113 0.034280587 -0.17028014 0.08831062 0.039314467 0.024875173
-0.07372537 0.12535284 -0.020532377 0.013150034 -0.08819848 -0.13428368 -0.025316112 0.1349778
0.0228886 0.0441472 0.112240426 -0.0696855 -0.12152965 -0.099385284 0.09708705 0.04579223
0.004236629 -0.028460607 -0.02825072 0.017787158 -0.017540947 0.00590875 0.050372817 -0.03510589
-0.015589351 -0.10525883 -0.07930964 -0.059088044 -0.070348404 0.05348833 0.10146989 0.002132273
0.15309377 -0.12793924 -0.06871106 -0.09784825 0.17041707 -0.021233603 0.13254651 -0.081657656
0.07251132 -0.020192388 0.08767708 0.039254848 -0.011082017 0.05859644 -0.054340564 0.03195395
-0.008424722 0.13471217 -0.016363252 -0.11125462 -0.01640715 0.1575607 0.0065035033 -0.103750035
-0.0912631 0.09877049 -0.0996814 0.09840569 0.11789472 -0.06171237 0.17141312 -0.09305791
0.0075267036 -0.10908774 0.089621335 -0.056353793 0.021202777 0.10751898 -0.023318337 -0.1694565
0.090349294 0.010968737 -0.036193963 -0.03529654 -0.056044586 0.09744034 -0.10271931 0.019753383
-0.09838934 -0.016818684 -0.17138655 0.087490164 -0.031909212 -0.060609978 -0.049159147 0.12403609
-0.002535897 0.14410324 0.15116559 -0.04933758 0.002144709 0.025506644 -0.007911578 0.13155854
00000000: d8ab c53d d371 e93d fd78 0b3e 7516 bebd
00000010: 29bd eabc 1870 63bd d715 033c 50ad 9fbd
00000020: 271d 09bb dfd7 73bd dfef dcbd 35d7 28be
00000030: ab0e 7c3d 5a98 6cbd 4958 823d ee3a 9dbc
00000040: d637 97bd b11a 8ebd 885e 1ebe 929a 023e
00000050: 69dc aa3d c2d0 e53d cf36 e03d 1477 b6bd
00000060: de0c d23d 8ef3 a4bd a176 00be cbf5 f1bb
00000070: d522 7d3d 3a9f 483d e4ec aebc df84 8b3a
00000080: 5bfd d4bd faf5 9ebd 49f5 133e 1cf8 933d
00000090: 1f1a 153e c761 1cbe fe1f 68bd 5d3e 20be
000000a0: e540 11be d8ef 123e 541b db3d 3572 173e
000000b0: 8851 eabd f81c 10be 5921 aebd 7754 10bd
000000c0: 5f1e 063e c1d7 aabd 476e d33d 64b8 df3d
000000d0: 4ecb cb3d 9709 65bd 668d 3b3d 689d 113c
000000e0: 4c33 f9b8 6fd5 1e3d a779 043e 93c9 f13d
000000f0: ef94 b2bd a972 91bc 4a21 c23d ca95 ddbb
00000100: 74bb 9b3d c31f 023e f9f8 0c3d 6fe8 ddbd
00000110: f94d 963c 9019 ba3d 0ffb b1bc 1a44 8bbd
00000120: d7bf 273d ccc3 fe3d 6c34 923c b456 ee3c
00000130: 6eeb 01be 4494 d7bc dece f13d 1ec1 0b3d
00000140: 76c2 353d 965d a9bd c774 9e3d a7ff 263c
00000150: d850 97bd 1326 603d 9770 203c 69db 853d
00000160: d204 d2bc 5682 81bd c029 4c3d 804f dc3c
00000170: 5cf4 ea3c 3789 513d 726d 1a3d 10c6 5c3d
00000180: ed47 59bd af88 143e 2e93 97bd 7ef9 adbd
00000190: 933a b9bd 2a06 98bd c228 f2bd 7040 ecbd
000001a0: 4248 ca3d 60ea 423d 6444 51bd 6d3f f4bd
000001b0: 5c16 d33d 0e2c 733d 1014 05be 4b1e 433d
000001c0: 1d11 22be 2378 2bbe 3aea d7bd c6ce e4bd
000001d0: c6ac 41be 823f 0ebd 4b21 d23d efaf babc
000001e0: b52c c63d 345b c13d f7a6 ecbd 86b7 223e
000001f0: eb7e d2bc cf32 143e 21ec 513d ce66 053e
00000200: 625c 303c 3048 0e3e b177 b03d 0cfd f93c
00000210: a154 0c3e 7540 e63d db53 a9bc 5e39 ba3d
00000220: 5281 33bd d5b9 cc3c d85c b6bd 282c fd3c
00000230: 4f00 c0bc c0ff 17be 7c53 03be be6a 6e3d
00000240: f6bd 5c3c 4f28 92bd 5402 853c a342 21be
00000250: fe9c 7e3d 74f0 58bd f89e 4cbc b5ce 13bc
00000260: 44da ffbb 1df1 8a3d 6c8a 19ba cd69 0c3d
00000270: eb5d 2ebe 33dc b43d 3508 213d 05c7 cb3c
00000280: 54fd 96bd 7f5c 003e 8433 a8bc 3d73 573c
00000290: 68a1 b4bd a981 09be bc63 cfbc 9f37 0a3e
000002a0: e080 bb3c b2d3 343d 4fde e53d 45b7 8ebd
000002b0: 8ae4 f8bd 838a cbbd 93d5 c63d a290 3b3d
000002c0: 6cd3 8a3b 3826 e9bc 0e6e e7bc 60b6 913c
000002d0: 08b2 8fbc 309e c13b ba53 4e3d 32cb 0fbd
000002e0: 7a6a 7fbc f191 d7bd 186d a2bd 4e06 72bd
000002f0: d312 90bd 9416 5b3d 72cf cf3d 9bbd 0b3b
00000300: 9dc4 1c3e 8102 03be 62b8 8cbd aa64 c8bd
00000310: d081 2e3e 18f2 adbc 46ba 073e 213c a7bd
00000320: d180 943d 826a a5bc 0a90 b33d b1c9 203d
00000330: 5991 35bc d202 703d 3694 5ebd 25e2 023d
00000340: d807 0abc fdf1 093e 3a0c 86bc 76d9 e3bd
00000350: 4a68 86bc 9857 213e 571b d53b e67a d4bd
00000360: 26e8 babd 2f48 ca3d c325 ccbd ec88 c93d
00000370: c972 f13d 1cc6 7cbd ec86 2f3e 2595 bebd
00000380: 91a2 f63b 6569 dfbd 648b b73d 3cd3 66bd
00000390: 72b1 ad3c e932 dc3d 1906 bfbc 0186 2dbe
000003a0: 0d09 b93d 38b6 333c 1f40 14bd 1b93 10bd
000003b0: 028f 65bd cd8e c73d 805e d2bd d9d1 a13c
000003c0: 5a80 c9bd 56c7 89bc f57f 2fbe 0b2e b33d
000003d0: 3cb3 02bd 2b42 78bd 1a5b 49bd a206 fe3d
000003e0: 4b31 26bb cd8f 133e 27cb 1a3e 3416 4abd
000003f0: 3f8e 0c3b 4ff3 d03c 909f 01bc 48b7 063e

shared1.bias f4 [200]
-0.21478142 -0.024510354 0.071756855 -0.09846604 0.08572536 -0.0038191082 -0.117400646 -0.1103166
0.1284319 0.11140685 0.035940707 -0.061122987 0.055994123 -0.22489998 -0.08042382 0.12094338
-0.23120372 -0.13630491 0.07696927 -0.14742552 -0.2026632 -0.15902378 0.10737743 -0.023036472
0.060951516 0.13691893 0.024002012 -0.07926873 -0.083975315 -0.17261557 0.062779695 -0.014287674
-0.060174335 -0.16674584 -0.07645057 -0.03728135 -0.099857755 0.05907762 -0.043689046 -0.03443306
0.042891804 -0.08014734 -0.030581605 -0.12611374 0.011252233 0.1251029 -0.097078465 0.17522013
0.12274364 -0.016416254 0.09518763 0.09254039 -0.14256775 0.016717155 0.116160385 0.10456314
-0.18258782 0.042987723 -0.22989888 0.045187425 -0.10879208 0.03211086 0.12839678 -0.023273502
0.016893217 0.09721896 -0.1819597 0.07079234 -0.17320386 -0.14003073 -0.2051085 0.08693763
-0.06443676 0.09227084 0.0017796033 -0.08965586 -0.1649318 0.11904186 0.027367383 0.19287539
-0.21077576 0.18452775 0.07682576 0.14460202 0.21312127 0.049769267 -0.16340378 -0.036228854
-0.13669597 -0.2100457 -0.24782449 0.1324508 0.028168513 0.00045576142 -0.012841069 0.02890924
-0.024330556 0.08821908 0.15683667 -0.16263804 0.16811682 0.047586586 0.14026321 0.046607804
-0.109321415 0.19448422 -0.25489444 -0.1767243 0.11630924 -0.090431586 -0.20020282 -0.13593154
-0.009924726 0.08385078 0.08122931 -0.1801129 0.047077473 0.10861961 0.01318307 0.01799647
-0.0017930404 0.046283767 -0.10824502 -0.18855631 0.100200206 0.033074386 0.109858915 -0.1614697
0.11830889 0.027300823 -0.18056794 -0.1442569 -0.047685128 -0.13345757 0.06912989 -0.20215453
-0.1182883 0.22112253 -0.04203976 -0.20301406 -0.036626622 0.15219086 0.06402979 0.10630723
-0.07545572 -0.042929757 -0.06455089 0.15605178 0.14300077 0.08859364 0.060614523 0.006640928
0.10694162 -0.13501486 0.034998935 -0.15116055 -0.050836455 -0.12061462 0.040082935 -0.13287902
-0.058538668 0.20093927 -0.17132445 -0.038165692 -0.065844975 0.13236329 -0.062941566 -0.08433431
-0.05781392 -0.0934738 0.08127682 0.061162196 -0.024238205 -0.023940396 -0.2091906 0.12298987
0.06000294 0.11750177 -0.16335863 0.034335684 0.12543778 -0.1817533 -0.03231853 0.10652556
0.176223 0.12309471 0.0956604 -0.06459074 0.14407179 -0.22510095 0.040783282 0.11195941
-0.046930414 0.058557127 -0.09292815 0.0526828 0.21884038 -0.058480747 -0.031920698 0.09010428
00000000: a9ef 5bbe f0c9 c8bc 42f5 923d 90a8 c9bd
00000010: c790 af3d 014a 7abb c06f f0bd abed e1bd
00000020: a783 033e 4629 e43d 9036 133d 195c 7abd
00000030: 185a 653d 2e4c 66be 3eb5 a4bd 2ab1 f73d
00000040: abc0 6cbe 8493 0bbe 11a2 9d3d b7f6 16be
00000050: f186 4fbe 21d7 22be b3e8 db3d fcb6 bcbc
00000060: 4ca8 793d 7a34 0c3e de9f c43c a557 a2bd
00000070: 40fb abbd 23c2 30be a492 803d d916 6abc
00000080: 5d79 76bd 6cbf 2abe 1e92 9cbd 54b4 18bd
00000090: 3982 ccbd 60fb 713d 49f3 32bd ae09 0dbd
000000a0: 51af 2f3d 4a24 a4bd 4686 fabc f623 01be
000000b0: 495b 383c fa1a 003e 13d1 c6bd e86c 333e
000000c0: 0461 fb3d 617b 86bc bbf1 c23d d185 bd3d
000000d0: 48fd 11be 6af2 883c 7fe5 ed3d 3325 d63d
000000e0: 4df8 3abe e513 303d 9d6a 6bbe 7316 393d
000000f0: 62ce debd ad86 033d 727a 033e 12a8 bebc
00000100: a563 8a3c bc1a c73d a553 3abe 93fb 903d
00000110: 5a5c 31be 3764 0fbe f607 52be 5b0c b23d
00000120: 6cf7 83bd 7ff8 bc3d 9441 e93a 7e9d b7bd
00000130: e2e3 28be 38cc f33d 9031 e03c 2081 453e
00000140: 9ad5 57be d8f4 3c3e d356 9d3d 8d12 143e
00000150: 763c 5a3e dcda 4b3d 5253 27be b564 14bd
00000160: 07fa 0bbe 3816 57be b4c5 7dbe 2fa1 073e
00000170: a7c1 e63c 43f3 ee39 5963 52bc 12d3 ec3c
00000180: e050 c7bc 34ac b43d cb99 203e 968a 26be
00000190: d126 2c3e 27ea 423d 29a1 0f3e d3e7 3e3d
000001a0: e8e3 dfbd df26 473e 8681 82be 37f7 34be
000001b0: 8a33 ee3d 3234 b9bd f801 4dbe a331 0bbe
000001c0: 519b 22bc f5b9 ab3d 8d5b a63d 846f 38be
000001d0: 4fd4 403d f573 de3d cefd 573c 556d 933c
000001e0: 7404 ebba 0c94 3d3d 91af ddbd e814 41be
000001f0: c435 cd3d 0279 073d b6fd e03d 5058 25be
00000200: ee4b f23d faa5 df3c cde6 38be 15b8 13be
00000210: 7b51 43bd 1aa9 08be f993 8d3d 9901 4fbe
00000220: 2341 f2bd f26d 623e e231 2cbd ebe2 4fbe
00000230: cc05 16bd ecd7 1b3e 0d22 833d 9bb7 d93d
00000240: 8788 9abd 1dd7 2fbd 4233 84bd 0acc 1f3e
00000250: cb6e 123e 9570 b53d ef46 783d 249c d93b
00000260: 3504 db3d 5641 0abe 0b5b 0f3d d5c9 1abe
00000270: e339 50bd cc04 f7bd 012e 243d 7011 08be
00000280: 3ec6 6fbd 06c3 4d3e ad6f 2fbe a153 1cbd
00000290: bbd9 86bd 3e8a 073e 82e7 80bd 77b7 acbd
000002a0: 4ace 6cbd 316f bfbd 7674 a63d 3685 7a3d
000002b0: 338f c6bc a61e c4bc 1036 56be 1de2 fb3d
000002c0: a5c5 753d c5a4 f03d 7c47 27be 93a3 0c3d
000002d0: c372 003e 891d 3abe 6f60 04bd 132a da3d
000002e0: cd73 343e 1419 fc3d 9ae9 c33d 2648 84bd
000002f0: 8e87 133e dd80 66be 5f0c 273d fa4a e53d
00000300: 1b3a 40bd 99d9 6f3d 1d51 bebd ebc9 573d
00000310: b117 603e 8289 6fbd 47bf 02bd 9888 b83d

shared2.weight f4 [200, 200]
0.071345024 -0.017622553 -0.13548012 0.08057805 -0.07463339 0.092883036 0.04686118 0.054665495
0.06548507 -0.055551395 0.08143776 0.090632826 -0.04622403 -0.13144702 0.069393985 -0.04822683
0.006073439 -0.04537246 -0.08459371 0.05171508 -0.049834013 -0.118237294 -0.10122617 0.06367006
-0.045195952 0.017707529 -0.09306137 0.09082923 -0.114713475 0.05293044 -0.018737143 -0.113287374
0.003033869 -0.04555267 -0.0037136036 -0.0043413737 -0.0032876348 -0.07334396 -0.042678088 0.006823916
-0.03347094 0.067057215 0.0406032 -0.06084523 0.025328565 0.100813605 -0.09200563 -0.005900797
0.09690954 -0.040179733 0.068667665 0.0057439245 0.06578092 -0.1250489 -0.120682046 0.05451055
-0.016405819 -0.023312096 -0.017286431 -0.007756018 -0.00521412 -0.0099732485 -0.04933371 0.037996184
0.042943757 -0.11060954 0.07576603 -0.090708934 -0.11976713 0.03604051 0.093125716 0.011865713
0.05217339 -0.04954743 -0.13199776 -0.0010338206 -0.13061094 0.048737966 0.072081074 0.04072859
0.0017743431 0.034187086 -0.11801549 -0.09589381 -0.12363057 0.0028682938 0.033287488 -0.041619822
0.056901798 -0.010273115 -0.019397615 0.014221121 0.056324594 -0.030490825 -0.07573862 0.029089408
0.03623392 -0.052536547 0.05736546 0.034960836 -0.04752561 -0.10450648 0.015993223 -0.034859076
-0.037269674 -0.10631544 -0.11791425 -0.04262491 -0.004038147 0.05016132 0.014596138 0.07230342
-0.054187935 -0.11229711 0.013825578 0.01374807 0.051634636 -0.10055998 0.09357056 -0.09194144
-0.067005 0.048673533 -0.12412969 -0.122205265 -0.022489 0.058273077 0.015291938 -0.023873476
0.06593464 -0.1020856 -0.14103904 0.011823833 0.016465167 0.048324015 0.075359404 -0.02733034
-0.06979565 -0.1063821 -0.08209324 -0.060707424 -0.0022010447 0.04838078 -0.06573597 0.06842665
-0.1198122 -0.07453722 -0.0760412 0.08163613 -0.070504166 0.023093855 -0.03477384 0.0011879387
-0.12278342 -0.09803287 -0.0406816 -0.055015445 -0.088871054 -0.12948352 0.0084376475 -0.011839639
-0.023316767 -0.06440853 -0.07468122 -0.13062689 -0.0041749226 0.012849546 -0.12690231 -0.008840925
-0.07149025 -0.053533744 -0.0956244 -0.11107597 -0.12573095 -0.0706722 -0.12494738 -0.07135775
-0.090074435 -0.06998857 -0.1341487 -0.106491 -0.0155788325 0.09929432 -0.08566721 0.096364535
-0.061605416 0.017135942 0.065815605 0.041293588 -0.0017771814 -0.04878514 -0.12715252 -0.0016660662
0.08204635 -0.030505892 -0.14057665 0.00012122492 -0.016600912 -0.1352639 -0.067354985 0.09065145
-0.01922028 -0.0076357843 -0.024479099 0.025323167 0.017773703 0.06699843 -0.0029168134 0.10541344
-0.026831253 0.07099553 -0.027631922 -0.097222276 -0.004556218 0.077788614 -0.0018109889 -0.0161519
-0.021290062 0.07547053 -0.0095125325 0.058515973 -0.023721881 -0.10851421 -0.10998226 0.015099258
0.049944527 0.08470943 0.11345671 0.0004141895 -0.039008 -0.026390739 -0.11340107 0.07367162
0.085763775 -0.12007555 0.028110141 0.0660412 -0.10891076 -0.0015277178 -0.008671728 -0.008594775
-0.070294574 -0.03604099 -0.09138376 -0.017824821 0.059437852 0.027697107 -0.07442371 0.07710785
0.06738887 -0.094605274 0.0004429769 -0.056248356 -0.036948178 -0.035831414 -0.046468657 -0.063976884
00000000: 571d 923d 2c5d 90bc 4dbb 0abe 1b06 a53d
00000010: 64d9 98bd 7639 be3d 82f1 3f3d ede8 5f3d
00000020: 091d 863d dc89 63bd d7c8 a63d b49d b93d
00000030: 6955 3dbd 0c9a 06be 6f1e 8e3d 7f89 45bd
00000040: b303 c73b 79d8 39bd 783f adbd 31d3 533d
00000050: c01e 4cbd 6526 f2bd ab4f cfbd 7365 823d
00000060: 641f 39bd 610f 913c f696 bebd ad04 ba3d
00000070: e6ee eabd 97cd 583d a37e 99bc 3603 e8bd
00000080: e0d3 463b 7095 3abd ee5f 73bb 1542 8ebb
00000090: 5c75 57bb 5c35 96bd 38cf 2ebd 289b df3b
000000a0: d318 09bd 4b55 893d 8b4f 263d d938 79bd
000000b0: da7d cf3c 5d77 ce3d 736d bcbd 795b c1bb
000000c0: 8278 c63d 8193 24bd a2a1 8c3d 8837 bc3b
000000d0: 26b8 863d d20c 00be 2628 f7bd 7446 5f3d
000000e0: 7f65 86bc 02f9 bebc 469c 8dbc 3226 febb
000000f0: 35db aabb d666 23bc 2512 4abd e3a1 1b3d
00000100: cbe5 2f3d 4187 e2bd 382b 9b3d 9bc5 b9bd
00000110: 7848 f5bd 379f 133d b2b8 be3d 6868 423c
00000120: c4b3 553d 3ff2 4abd 6c2a 07be 4381 87ba
00000130: e0be 05be 76a1 473d 3e9f 933d 06d3 263d
00000140: 1391 e83a c207 0c3d 1bb2 f1bd f963 c4bd
00000150: 0632 fdbd fcf9 3b3b 7658 083d 8c79 2abd
00000160: dc11 693d 9150 28bc bfe7 9ebc b4ff 683c
00000170: 9eb4 663d e5c7 f9bc d91c 9bbd e94c ee3c
00000180: 056a 143d 9030 57bd 0bf8 6a3d 1833 0f3d
00000190: 37aa 42bd 7e07 d6bd 3804 833c 64c8 0ebd
000001a0: 16a8 18bd e9bb d9bd 077d f1bd 7597 2ebd
000001b0: 6f52 84bb f575 4d3d a424 6f3c d113 943d
000001c0: 2bf4 5dbd 07fc e5bd ad84 623c 963f 613c
000001d0: d77e 533d 64f2 cdbd eca1 bf3d cb4b bcbd
000001e0: eb39 89bd e65d 473d b537 febd c146 fabd
000001f0: da3a b8bc c0af 6e3d 098b 7a3c 4f92 c3bc
00000200: be08 873d 4112 d1bd 8a6c 10be c0b8 413c
00000210: f5e1 863c 67ef 453d 0856 9a3d e1e3 dfbc
00000220: 06f1 8ebd dcde d9bd 8020 a8bd 59a8 78bd
00000230: 673f 10bb ed2a 463d 95a0 86bd 4523 8c3d
00000240: 1960 f5bd f8a6 98bd 7dbb 9bbd d830 a73d
00000250: 7d64 90bd 532f bd3c 046f 0ebd 9cb4 9b3a
00000260: e075 fbbd 75c5 c8bd c0a1 26bd e057 61bd
00000270: 0702 b6bd 5497 04be 0f3e 0a3c 0cfb 41bc
00000280: ce02 bfbc 9fe8 83bd 78f2 98bd 0ec3 05be
00000290: cacd 88bb e786 523c aef2 01be 87d9 10bc
000002a0: 7b69 92bd 3346 5bbd bad6 c3bd cc7b e3bd
000002b0: 9dbf 00be 96bc 90bd 69e4 ffbd 0324 92bd
000002c0: f278 b8bd 2b56 8fbd 475e 09be f417 dabd
000002d0: 5c3e 7fbc d25a cb3d 4a72 afbd c55a c53d
000002e0: f655 7cbd ad60 8c3c 55ca 863d 7723 293d
000002f0: 50f0 e8ba edd2 47bd 4534 02be e85f daba
00000300: eb07 a83d 7ee7 f9bc 53f3 0fbe 223a fe38
00000310: a3fe 87bc 9f82 0abe 69f1 89bd 78a7 b93d
00000320: d973 9dbc 9a35 fabb 6488 c8bc 8872 cf3c
00000330: 289a 913c 7936 893d 0228 3fbb 00e3 d73d
00000340: 37cd dbbc 1b66 913d 575c e2bc 791c c7bd
00000350: 544c 95bb a34f 9f3d b45e edba fd50 84bc
00000360: 7f68 aebc 4b90 9a3d 74da 1bbc 72ae 6f3d
00000370: 6454 c2bc b33c debd 613e e1bd e162 773c
00000380: a292 4c3d 237c ad3d fe5b e83d 9327 d939
00000390: dac6 1fbd 6431 d8bc d23e e8bd 25e1 963d
000003a0: eba4 af3d 2cea f5bd 3d47 e63c 9c40 873d
000003b0: 9b0c dfbd b43d c8ba dd13 0ebc 19d1 0cbc
000003c0: 9af6 8fbd b89f 13bd 6927 bbbd 5c05 92bc
000003d0: 1b75 733d 0be5 e23c 756b 98bd b8ea 9d3d
000003e0: 2d03 8a3d 69c0 c1bd 5a3f e839 ad64 66bd
000003f0: f956 17bd f6c3 12bd eb55 3ebd 5006 83bd

shared2.bias f4 [200]
-0.022581419 -0.028670983 -0.010729484 -0.07857725 -0.06952884 -0.08856099 -0.11295136 -0.070939064
-0.0050772317 -0.020540692 -0.1276955 -0.13595179 -0.10237557 -0.024266835 -0.12659623 -0.030734131
-0.023624852 -0.1303029 -0.0815574 -0.09009897 -0.10040132 0.0075684725 -0.0632583 -0.032285534
-0.116528235 -0.021333896 -0.083720215 -0.012941866 0.0013038502 -0.0706423 -0.06816814 -0.03113982
-0.004984003 -0.08111033 -0.091065295 -0.12069363 -0.10053041 0.0006209613 -0.06263528 -0.0060973805
-0.035969693 -0.15386733 -0.10037827 -0.13109362 -0.10073831 -0.072486 -0.016041843 -0.12649442
-0.10918777 -0.092665285 -0.041771736 -0.09281035 -0.082759716 -0.039702617 -0.11133835 -0.016337488
-0.0410413 -0.12910959 -0.010706571 0.011931016 -0.1155897 -0.089544535 -0.124091536 -0.041324645
-0.019797081 -0.13423291 -0.132415 -0.031056156 -0.0960928 -0.029888773 -0.089454345 -0.035331775
-0.060034696 -0.0043391776 -0.09566867 -0.011478678 -0.1062178 -0.009850074 -0.12981923 -0.10280793
-0.030394025 -0.080616385 -0.029913219 -0.03460618 -0.121186726 -0.11668346 -0.08418947 0.0023852007
-0.108355284 -0.036692817 -0.08976924 -0.11198889 -0.08243604 -0.050861724 -0.05924411 -0.056652635
-0.09562417 -0.099687405 -0.11959352 -0.14006887 -0.017123092 -0.02912806 -0.1337264 -0.0076195947
-0.040778868 -0.12107418 -0.10351876 -0.0922326 -0.025825864 -0.07367029 -0.13314912 -0.06055443
-0.118828 -0.032860026 -0.11097445 -0.03925177 -0.016743597 -0.047236644 -0.045292486 -0.13627952
-0.107005924 -0.07364028 -0.11861739 -0.10852594 -0.061354402 -0.03905351 -0.12958924 -0.036845963
-0.010897814 -0.13073783 -0.06759205 -0.06408444 -0.057542905 -0.016635306 -0.08855529 -0.014330275
-0.057709813 -0.09960172 -0.036830686 -0.08677705 -0.023293067 -0.022255449 -0.037335776 -0.06683952
-0.047310848 -0.0008525241 -0.026829544 -0.12238673 -0.061977874 -0.092433184 -0.023986949 -0.069498055
-0.11208849 -0.063454725 -0.05118153 -0.06754887 -0.052642267 -0.0012663825 -0.100265704 0.021618176
-0.115525864 -0.09677546 -0.01699896 -0.023275094 -0.007459897 -0.11502319 -0.06582024 -0.102441065
-0.094331235 -0.021316163 -0.07114205 -0.108971424 -0.02795915 -0.12520643 -0.065810114 -0.011842047
-0.039583504 -0.056483738 -0.04765868 -0.015319878 0.0047068484 -0.082011566 -0.01600455 -0.07682094
-0.08435541 -0.12589933 -0.058088727 -0.06632082 -0.007858732 -0.07704517 -0.09312628 -0.109075464
-0.09589012 0.0037756285 -0.0017081319 -0.118130535 -0.10625306 -0.063060515 -0.11033293 -0.09435453
00000000: abfc b8bc 69df eabc b8ca 2fbc 1ced a0bd
00000010: 2365 8ebd 775f b5bd 0b53 e7bd 8048 91bd
00000020: e85e a6bb f444 a8bc 9cc2 02be f236 0bbe
00000030: 48aa d1bd 3ecb c6bc 71a2 01be 25c6 fbbc
00000040: e888 c1bc 206e 05be 9107 a7bd cf85 b8bd
00000050: 359f cdbd f300 f83b 918d 81bd d63d 04bd
00000060: 5ba6 eebd 6cc4 aebc 8175 abbd 1f0a 54bc
00000070: f4e5 aa3a e9ac 90bd bd9b 8bbd f018 ffbc
00000080: d950 a3bb 2c1d a6bd 7180 babd 392e f7bd
00000090: e3e2 cdbd 02c8 223a ed46 80bd 89cc c7bb
000000a0: f554 13bd 668f 1dbe 1f93 cdbd 683d 06be
000000b0: e34f cebd 8a73 94bd 2f6a 83bc c187 01be
000000c0: d69d dfbd 4cc7 bdbd d718 2bbd 5a13 bebd
000000d0: ed7d a9bd 369f 22bd 5c05 e4bd 32d6 85bc
000000e0: ec1a 28bd 4e35 04be 9d6a 2fbc 4f7a 433c
000000f0: 4bba ecbd 2063 b7bd b423 febd 0844 29bd
00000100: 7d2d a2bc 5a74 09be cc97 07be 7b69 febc
00000110: 4dcc c4bd 4dd9 f4bc d733 b7bd 0db8 10bd
00000120: f1e6 75bd a92f 8ebb f0ed c3bd 1111 3cbc
00000130: b888 d9bd 3462 21bc 55ef 04be f78c d2bd
00000140: e4fc f8bc 341a a5bd 910c f5bc 36bf 0dbd
00000150: bf30 f8bd bdf7 eebd 876b acbd 0751 1c3b
00000160: 60e9 ddbd 354b 16bd efd8 b7bd 6e5a e5bd
00000170: 3ad4 a8bd 6254 50bd f4a9 72bd 980c 68bd
00000180: 9bd6 c3bd e928 ccbd 73ed f4bd 376e 0fbe
00000190: ba45 8cbc f89d eebc 93ef 08be cbad f9bb
000001a0: be07 27bd bdf5 f7bd a501 d4bd 72e4 bcbd
000001b0: c390 d3bc 73e0 96bd 3e58 08be ec07 78bd
000001c0: 185c f3bd 3c98 06bd 9346 e3bd 77c6 20bd
000001d0: de29 89bc 367b 41bd 9d84 39bd dc8c 0bbe
000001e0: ec25 dbbd b7d0 96bd aded f2bd d942 debd
000001f0: c14e 7bbd 93f6 1fbd 0bb3 04be cbeb 16bd
00000200: bf8c 32bc 23e0 05be b36d 8abd b43e 83bd
00000210: 1cb2 6bbd c446 88bc 7a5c b5bd 88c9 6abc
00000220: 2061 6cbd fdfb cbbd c6db 16bd 2ab8 b1bd
00000230: 1ad1 bebc 0f51 b6bc 66ed 18bd 29e3 88bd
00000240: 05c9 41bd ed7b 5fba a2c9 dbbc e5a5 fabd
00000250: 83dc 7dbd 9c4d bdbd 4780 c4bc ff54 8ebd
00000260: a68e e5bd 8df4 81bd b9a3 51bd 1057 8abd
00000270: 6b9f 57bd bffc a5ba 1b58 cdbd 9a18 b13c
00000280: d398 ecbd 3632 c6bd 6741 8bbc 69ab bebc
00000290: 2772 f4bb 4791 ebbd c3cc 86bd 9fcc d1bd
000002a0: bc30 c1bd 3c9f aebc ecb2 91bd 692c dfbd
000002b0: 960a e5bc 1d36 00be 74c7 86bd 2505 42bc
000002c0: 5022 22bd 7e5b 67bd bf35 43bd 3a00 7bbc
000002d0: e83b 9a3b aef5 a7bd f91b 83bc 4c54 9dbd
000002e0: 87c2 acbd c1eb 00be 72ee 6dbd 36d3 87bd
000002f0: e9c1 00bc dcc9 9dbd feb8 bebd f562 dfbd
00000300: 0a62 c4bd 8970 773b 65e3 dfba 6cee f1bd
00000310: 349b d9bd df25 81bd 3bf6 e1bd f33c c1bd

hidden1_Y1.weight f4 [200, 200]
-0.03862683 -0.10005237 0.07666744 0.10571502 0.09838427 0.014072389 -0.087212406 -0.074093856
-0.050781805 -0.028720269 -0.06104694 0.094170295 0.09751726 0.04952625 0.005167462 0.11170494
0.063259035 0.12516904 0.105844885 0.044368647 0.0146398535 -0.10349655 0.004861643 0.12721197
-0.047364194 -0.08847817 -0.0009576123 -0.026491903 -0.10442674 -0.02000861 -0.00380907 -0.11856859
0.049140412 -0.095997825 -0.06835529 -0.1091207 -0.025517523 0.0022694077 -0.058339108 -0.07066702
-0.0107831415 0.057753403 -0.023928601 -0.09830567 0.019654132 0.09320093 0.1298104 0.112113185
0.015423947 0.042464837 0.08596076 -0.042619433 0.022133363 0.034690473 0.054514084 -0.061271112
-0.07649651 -0.0024949803 0.0773074 0.12976727 -0.05806301 -0.06187501 0.07496119 -0.118555285
-0.030489523 0.023983877 0.022087352 0.039174348 -0.04569194 -0.04135239 -0.03944166 0.019571537
-0.053896796 0.03283996 0.0029900768 0.037335157 0.12742661 0.058944084 0.06562685 -0.028699145
0.0073553566 0.09172908 -0.003207957 0.06563448 0.014702524 0.025438352 -0.086346805 -0.061982017
0.118843466 -0.026417973 0.003376204 0.06422211 0.10675544 -0.04973262 -0.052610416 -0.080192864
0.05953461 -0.09826706 -0.018906973 -0.04003321 -0.086526066 -0.09486781 -0.080406465 -0.089200325
-0.048436705 -0.06358855 0.049682498 -0.0007304774 0.11370295 0.12278656 -0.09543026 0.12218716
0.008916737 0.028103525 -0.088189736 -0.0763481 -0.03648041 0.051688522 0.12107639 -0.006315433
-0.036506455 -0.100621045 0.108796805 -0.056935366 -0.030905638 0.08669661 0.058477234 -0.046500914
0.11289694 -0.062010918 0.07763768 -0.016054835 -0.018067148 0.032210022 -0.05358317 -0.01682118
-0.06424184 0.04676302 0.08579423 0.053047996 0.06977934 -0.06840962 -0.09202424 0.018378617
-0.025451021 -0.03234472 0.043383088 -0.10236381 -0.030111827 0.0072810045 -0.10123212 0.062496364
0.049504694 -0.11189339 -0.07551117 -0.012101993 0.07729754 -0.054637697 0.037719525 0.04228991
-0.0843957 0.038802322 -0.015489415 0.09756841 -0.060233593 -0.10386105 0.07256106 0.038980015
-0.03336817 -0.012278566 0.06866688 -0.051524214 -0.072654136 0.09514709 0.1021978 -0.08571148
0.11759955 0.051175114 0.0009518099 -0.07413665 -0.10236217 0.122319534 0.054897282 0.04323426
0.013687585 0.04548789 0.11443772 -0.08230397 -0.052205235 0.0049427045 0.014868289 0.032628745
0.09888745 -0.009469659 -0.028859744 0.054970562 -0.080635615 0.084342554 0.03678262 -0.029199325
0.0098256655 0.07651546 0.13108544 0.070238836 -0.060184535 0.06826234 0.015022946 -0.027114566
-0.06310433 0.07200174 0.06881285 0.009993663 0.056532003 -0.048249938 -0.0027640683 -0.09037592
0.07042222 -0.05272957 -0.10995389 0.06715261 -0.057144314 -0.06720215 -0.09999018 -0.03618463
0.06359112 0.0094363475 -0.043993004 0.11227199 0.020570504 -0.042632733 0.01682491 -0.04624686
0.039605625 0.03123896 -0.08084277 0.115616485 -0.05344143 0.11921639 0.118990615 -0.05242216
0.100030586 -0.1065424 0.010158887 -0.04944759 0.06582403 0.013313313 0.03787984 -0.044964336
0.124116056 -0.10601153 0.11101943 -0.033134498 0.036649235 0.07034996 -0.06010077 0.09054947
00000000: 2b37 1ebd 42e8 ccbd d203 9d3d 1e81 d83d
00000010: b17d c93d e18f 663c 6b9c b2bd 85be 97bd
00000020: 9500 50bd c546 ebbc 5b0c 7abd 5bdc c03d
00000030: 21b7 c73d 0adc 4a3d d053 a93b 8fc5 e43d
00000040: f48d 813d 502c 003e 34c5 d83d e6bb 353d
00000050: ffdb 6f3c 00f6 d3bd 6b4e 9f3b db43 023e
00000060: f500 42bd 0b34 b5bd 4608 7bba 8c05 d9bc
00000070: b0dd d5bd 19e9 a3bc 97a1 79bb 17d4 f2bd
00000080: 7547 493d 829a c4bd dcfd 8bbd ac7a dfbd
00000090: 200a d1bc 58ba 143b fdf4 6ebd dfb9 90bd
000000a0: c6ab 30bc d58e 6c3d ea05 c4bc 7c54 c9bd
000000b0: b401 a13c 21e0 be3d 04ed 043e 999b e53d
000000c0: b9b4 7c3c 9cef 2d3d 320c b03d b791 2ebd
000000d0: 0751 b53c 9917 0e3d 294a 5f3d 6bf7 7abd
000000e0: 34aa 9cbd d382 23bb 5853 9e3d b6e1 043e
000000f0: 7bd3 6dbd a770 7dbd 4185 993d 1dcd f2bd
00000100: 2ac5 f9bc d679 c43c 89f0 b43c 4875 203d
00000110: 7927 3bbd 2061 29bd 948d 21bd 7d54 a03c
00000120: e3c2 5cbd 3283 063d 2af5 433b c0ec 183d
00000130: 1f7c 023e 5a6f 713d 5f67 863d 781a ebbc
00000140: 3405 f13b 75dc bb3d 963c 52bb 5f6b 863d
00000150: dbe2 703c 1764 d03c 98d6 b0bd dbe0 7dbd
00000160: 3464 f33d 816a d8bc 4e43 5d3b e286 833d
00000170: 99a2 da3d 6fb4 4bbd 057e 57bd 283c a4bd
00000180: 90da 733d 3e40 c9bd cce2 9abc ddf9 23bd
00000190: 9434 b1bd 0e4a c2bd 25ac a4bd a9ae b6bd
000001a0: 9165 46bd b73a 82bd e07f 4b3d 827d 3fba
000001b0: 18dd e83d 8577 fb3d f170 c3bd 433d fa3d
000001c0: 8117 123c 5d39 e63c d29c b4bd 655c 9cbd
000001d0: 7b6c 15bd 58b7 533d e6f6 f73d b1f1 cebb
000001e0: cb87 15bd 6812 cebd dcd0 de3d 0f35 69bd
000001f0: d22d fdbc fe8d b13d d385 6f3d be77 3ebd
00000200: 8336 e73d 29ff 7dbd 8100 9f3d 6e85 83bc
00000210: 8e01 94bc a8ee 033d 077a 5bbd 92cc 89bc
00000220: 3a91 83bd 958a 3f3d e3b4 af3d db48 593d
00000230: 78e8 8e3d 581a 8cbd 3477 bcbd c18e 963c
00000240: a97e d0bc e67b 04bd 77b2 313d 1ea4 d1bd
00000250: 14ad f6bc 7e95 ee3b c952 cfbd 30fc 7f3d
00000260: 6fc5 4a3d 5d28 e5bd 9aa5 9abd 7047 46bc
00000270: 2c4e 9e3d c7cb 5fbd ca7f 1a3d 2f38 2d3d
00000280: a7d7 acbd 2fef 1e3d 51c7 7dbc f2d1 c73d
00000290: 80b7 76bd 1ab5 d4bd e59a 943d 82a9 1f3d
000002a0: 10ad 08bd 0a2c 49bc 39a1 8c3d 0e0b 53bd
000002b0: b1cb 94bd 7adc c23d 154d d13d 8089 afbd
000002c0: 08d8 f03d ff9c 513d e282 793a f5d4 97bd
000002d0: 42a3 d1bd aa82 fa3d f9db 603d 6816 313d
000002e0: e441 603c 8251 3a3d 535e ea3d fc8e a8bd
000002f0: 28d5 55bd 69f6 a13b 209a 733c b8a5 053d
00000300: 8185 ca3d a126 1bbc 456b ecbc d028 613d
00000310: 4924 a5bd cabb ac3d 5fa9 163d 6c33 efbc
00000320: d4fb 203c 23b4 9c3d 433b 063e 61d9 8f3d
00000330: 0f84 76bd 20cd 8b3d cd22 763c 5e1f debc
00000340: d83c 81bd a675 933d c0ed 8c3d 76bc 233c
00000350: 1a8e 673d baa1 45bd 5f25 35bb 0317 b9bd
00000360: 8639 903d f6fa 57bd 812f e1bd 4f87 893d
00000370: 2810 6abd 48a1 89bd a7c7 ccbd 5636 14bd
00000380: 103c 823d e99a 1a3c 0232 34bd dbee e53d
00000390: 7983 a83c a99f 2ebd 65d4 893c 596d 3dbd
000003a0: 8239 223d d9e8 ff3c e590 a5bd 56c8 ec3d
000003b0: 67e5 5abd b927 f43d 5ab1 f33d 9eb8 56bd
000003c0: d6dc cc3d e732 dabd 7671 263c 8e89 4abd
000003d0: c0ce 863d 1520 5a3c e427 1b3d 862c 38bd
000003e0: 8f30 fe3d 931c d9bd 285e e33d 0ab8 07bd
000003f0: 821d 163d a413 903d 3a2c 76bd 0072 b93d

hidden1_Y1.bias f4 [200]
0.06108931 0.11227029 0.1360999 0.11146327 0.114245765 -0.013570995 -0.062450312 0.042766377
-0.073069364 0.10463677 -0.064558566 0.04272254 0.080892496 -0.029148718 -0.06348407 0.10442542
0.06578806 -0.00016285639 0.077120066 0.13084872 0.07986844 0.01610661 0.13781299 0.051609404
0.07274321 0.12702137 -0.029762985 -0.059069343 0.12766749 0.043146968 -0.030250391 0.14341521
0.13841972 -0.018303683 -0.07021861 -0.02287232 -0.002126257 0.049896948 -0.008722776 0.04283585
0.1521372 0.11500301 0.11976767 0.05894889 -0.03525758 0.12610622 0.05197664 0.13718748
-0.0327161 0.097100236 0.1185019 0.07967919 0.08425648 0.14635327 -0.050009985 0.07063889
0.13850151 -0.06434071 -0.057203405 0.14884876 0.052015107 0.08871569 0.13286561 0.10419033
0.057970747 0.13736579 -0.03957604 0.11674254 0.04234912 -0.038080204 0.11356941 -0.059849627
-0.028826952 0.049119927 0.056571696 0.09917501 0.08981663 0.067406006 -0.05887348 0.15314117
0.12548211 -0.022490714 -0.026353797 0.13194548 -0.02863645 0.08180156 -0.02433282 0.12011299
-0.027409036 0.10050192 0.04974302 -0.01005899 0.08977341 0.052866027 0.04045641 -0.037604522
0.038289737 0.12145 0.13421391 -0.0114718005 0.11829189 0.10219762 -0.052209817 0.061167367
0.094428256 -0.042316176 0.08117815 0.059414245 -0.039163172 -0.010465176 0.07026259 0.07670956
0.054652166 0.12092305 0.10928564 0.027199525 -0.04536631 0.10636613 0.14771748 0.039623655
-0.036794487 0.048322435 0.06823967 -0.036425 0.11991763 0.121879816 0.03931997 0.07795655
-0.025517708 -0.031319335 0.09334871 0.13595194 0.05852409 -0.016042596 0.030514667 0.0009799354
0.01006602 0.11038592 0.08991512 6.337493e-05 0.14828235 0.035300307 0.08260682 0.080615796
0.033066723 0.08172595 0.046574958 0.061713137 -0.05138918 0.12519184 -0.021544348 0.09978053
-0.036884163 0.08429756 0.076442145 0.10439344 0.0400647 0.010592343 -0.0082773445 0.0467309
0.0021542464 0.020483885 0.14234695 -0.057994198 -0.057403658 0.025304731 0.1272241 0.07834379
-0.026785834 0.09515621 -0.050461613 0.051204335 0.0043754256 -0.04330841 0.13458647 -0.066768244
0.091148615 0.09928648 0.04547168 -0.055331573 -0.047505517 -0.037068892 0.040463015 0.10281697
0.032919433 0.14447474 0.1069369 0.06378811 0.03943716 0.09738322 0.089478016 0.10301789
0.044627503 0.07491842 0.085296184 0.068423964 0.061217207 0.110638045 0.11628875 0.08478983
00000000: c938 7a3d f7ed e53d c65d 0b3e db46 e43d
00000010: aff9 e93d e158 5ebc e6cb 7fbd cc2b 2f3d
00000020: 64a5 95bd ce4b d63d 4837 84bd d5fd 2e3d
00000030: f7aa a53d 4bc9 eebc f003 82bd ffdc d53d
00000040: e4bb 863d 6ec4 2ab9 20f1 9d3d 35fd 053e
00000050: 1192 a33d 02f2 833c d91e 0d3e 6264 533d
00000060: 64fa 943d e411 023e 81d1 f3bc b2f2 71bd
00000070: 44bb 023e e0ba 303d abcf f7bc 70db 123e
00000080: e6bd 0d3e 9bf1 95bc c6ce 8fbd bb5e bbbc
00000090: ac58 0bbb be60 4c3d f9e9 0ebc a574 2f3d
000000a0: dbc9 1b3e b386 eb3d c148 f53d 6474 713d
000000b0: 416a 10bd fd21 013e 75e5 543d e07a 0c3e
000000c0: 5101 06bd 7ddc c63d 20b1 f23d d82e a33d
000000d0: a98e ac3d a2dd 153e 45d7 4cbd 1fab 903d
000000e0: 57d3 0d3e 10c5 83bd 1e4e 6abd cf6b 183e
000000f0: cb0d 553d 92b0 b53d ec0d 083e bd61 d53d
00000100: bc72 6d3d 9ea9 0c3e 7c1a 22bd b616 ef3d
00000110: 4576 2d3d fdf9 1bbd 1497 e83d e224 75bd
00000120: 8026 ecbc fa31 493d b9b7 673d 451c cb3d
00000130: c8f1 b73d 290c 8a3d 5125 71bd 0ad1 1c3e
00000140: 627e 003e 723e b8bc ebe3 d7bc b71c 073e
00000150: fd96 eabc 9487 a73d 9f55 c7bc cdfd f53d
00000160: ea88 e0bc f3d3 cd3d 56bf 4b3d 76ce 24bc
00000170: 1fdb b73d 0c8a 583d 9fb5 253d 3307 1abd
00000180: b3d5 1c3d c7ba f83d 5f6f 093e 38f4 3bbc
00000190: 0543 f23d fc4c d13d f6d9 55bd a28a 7a3d
000001a0: 9a63 c13d ba53 2dbd bb40 a63d 5a5c 733d
000001b0: 9069 20bd 2176 2bbc d5e5 8f3d e719 9d3d
000001c0: f3da 5f3d 81a6 f73d 26d1 df3d 8ad1 de3c
000001d0: 06d2 39bd 7cd6 d93d 4043 173e 6a4c 223d
000001e0: d1b5 16bd bfed 453d 3dc1 8b3d 6132 15bd
000001f0: 6097 f53d 209c f93d fa0d 213d afa7 9f3d
00000200: 830a d1bc b448 00bd 9c2d bf3d fc36 0b3e
00000210: f5b6 6f3d c36b 83bc e5f9 f93c 2d71 803a
00000220: f3eb 243c 0312 e23d 6b25 b83d 28e8 8438
00000230: 54d7 173e 0e97 103d c42d a93d e519 a53d
00000240: f970 073d ef5f a73d 62c5 3e3d eac6 7c3d
00000250: 767d 52bd 4a32 003e c67d b0bc bc59 cc3d
00000260: d913 17bd 33a4 ac3d b38d 9c3d 3acc d53d
00000270: e21a 243d 828b 2d3c b39d 07bc e668 3f3d
00000280: 422e 0d3b d2cd a73c 66c3 113e 538b 6dbd
00000290: 1920 6bbd de4b cf3c 0947 023e b572 a03d
000002a0: f76d dbbc 42e1 c23d d6b0 4ebd a3bb 513d
000002b0: bb5f 8f3b 2964 31bd 09d1 093e cabd 88bd
000002c0: 20ac ba3d b656 cb3d 8340 3a3d 5ca3 62bd
000002d0: 2595 42bd 8dd5 17bd 8cbc 253d b491 d23d
000002e0: 87d6 063d 30f1 133e bc01 db3d 57a3 823d
000002f0: dc88 213d db70 c73d 4040 b73d 0bfb d23d
00000300: 54cb 363d d46e 993d c4af ae3d dd21 8c3d
00000310: e5be 7a3d 3396 e23d cc28 ee3d 4aa6 ad3d

hidden2_Y1.weight f4 [200, 200]
-0.012582138 -0.10780756 0.007721744 0.026698977 0.09130009 -0.052743558 -0.009965413 0.015376465
0.07640754 0.023192646 -0.01074116 -0.08045375 -0.10909908 -0.0466268 0.062855616 0.09346879
0.059345312 -0.008581246 0.00071629573 -0.038820677 -0.033605058 0.08586285 -0.050421286 0.020327074
-0.13012877 0.010156819 -0.062864624 0.031284288 -0.0015511854 -0.0033231138 -0.100550406 -0.056791674
0.07239165 0.052981593 -0.06610203 0.03412634 -0.030289756 0.06447017 0.020811347 0.040416542
-0.06570765 -0.06632648 0.07314019 0.012277366 -0.015781038 0.087934285 -0.021772983 0.047522765
0.023489593 -0.12516214 0.02859911 -0.02402147 -0.0363237 0.020392505 -0.11831488 -0.09352755
0.095348045 0.0482314 -0.12012253 0.0021014155 0.04337968 0.026745055 -0.09514024 -0.13215402
-0.13032691 -0.017093005 0.09254196 -0.11098638 -0.0877618 0.062869415 -0.07635101 0.09776067
0.024873303 0.039211087 -0.05489851 -0.0930562 0.011592009 0.036648367 0.037830774 -0.102623016
0.09002517 0.03252917 0.056773428 0.048805866 -0.026399422 -0.10748741 0.009267866 -0.088812165
0.052652717 -0.03829758 0.105426356 0.06384572 0.030803273 0.055843744 0.027225964 -0.0070300945
-0.071688734 0.08619284 -0.017845536 -0.046902284 -0.06441925 -0.08204629 0.050863706 -0.08947081
-0.08951515 -0.072583474 -0.06584341 0.06936615 0.039782837 -0.039812867 -0.07626347 -0.05997141
0.08657224 0.09241762 -0.12097941 0.03562834 0.002417181 0.08659241 -0.0053841155 -0.0044880593
-0.028624853 -0.070058465 -0.013224179 0.1119158 -0.1299193 0.03331926 0.05619997 0.06954199
-0.06996788 0.11038721 0.07424511 0.016368022 -0.10075145 0.08148203 0.08282071 0.031638425
-0.11869782 0.07141161 -0.10681972 -0.05187498 -0.023626642 0.012535058 -0.09276801 0.04655578
-0.07023033 -0.024175918 -0.012906242 -0.100722514 -0.09768805 0.00999667 0.001137511 -4.4746346e-05
-0.12685466 0.07310346 0.07089358 0.064066485 -0.024006514 -0.036457226 -0.020894857 0.07064393
-0.064752065 -0.11680683 -0.04215267 0.08895877 0.08687425 -0.093870394 0.021687906 -0.12985668
0.06897196 -0.054656338 -0.07580808 0.033354405 -0.08058019 0.07981095 -0.042101707 -0.062349055
-0.023668278 -0.06504105 -0.021022096 0.04242002 -0.013761639 0.11790085 0.011417948 -0.0112504875
-0.10301627 0.07044304 0.100132845 -0.039891683 -0.08184111 -0.0017882338 -0.12691385 -0.11412519
0.0057489607 -0.008064796 0.07737942 0.109970264 -0.000774091 0.04056692 0.012129913 0.06599878
-0.12686697 -0.05102632 -0.11891397 0.10781788 -0.1127022 -0.085137144 -0.10635965 0.08006024
-0.019541826 0.016481165 0.046362516 0.025534002 -0.04298254 0.09945857 -0.1097107 -0.0033348345
-0.028646208 -0.037129804 0.053110637 0.10958498 -0.10812835 0.028923763 -0.003697285 0.07151939
-0.01472563 -0.023136228 0.073368326 -0.07652389 -0.09590851 -0.0067799645 -0.104843795 -0.10643367
-0.11105302 -0.11490057 -0.08206556 -0.013895274 0.040222496 0.024188263 -0.017882064 -0.050220847
0.07567607 -0.025618503 -0.07304679 -0.0750625 0.07591323 0.05509565 -0.0020990958 0.051117994
0.09046394 -0.03180878 -0.07737395 -0.07108058 -0.1089018 0.0062040295 -0.107701324 0.035446815
00000000: 5025 4ebc 36ca dcbd af06 fd3b d0b7 da3c
00000010: 8bfb ba3d a109 58bd f945 23bc 92ed 7b3c
00000020: 8e7b 9c3d 81fe bd3c b1fb 2fbc f0c4 a4bd
00000030: 576f dfbd befb 3ebd 72ba 803d 916c bf3d
00000040: 1214 733d 5b98 0cbc cbc5 3b3a 6e02 1fbd
00000050: 75a5 09bd ddd8 af3d 8d86 4ebd f784 a63c
00000060: 7a40 05be c968 263c 2bbf 80bd f423 003d
00000070: 2551 cbba 99c8 59bb 5fed cdbd 639e 68bd
00000080: 1342 943d 3a03 593d 8060 87bd 10c8 0b3d
00000090: 3922 f8bc f008 843d 8f7c aa3c d18b 253d
000000a0: bb91 86bd 2dd6 87bd 86ca 953d 0127 493c
000000b0: 3c47 81bc e416 b43d 415d b2bc 3ba7 423d
000000c0: 3f6d c03c 812a 00be ae48 ea3c adc8 c4bc
000000d0: 29c8 14bd 2f0e a73c 124f f2bd 5f8b bfbd
000000e0: d645 c33d 4a8e 453d cd02 f6bd e7b7 093b
000000f0: e4ae 313d 7218 db3c e3d8 c2bd 6253 07be
00000100: 6b74 05be a106 8cbc a486 bd3d d44c e3bd
00000110: 75bc b3bd aec1 803d eb5d 9cbd bf36 c83d
00000120: 19c3 cb3c ce9b 203d 43dd 60bd 4094 bebd
00000130: 69ec 3d3c 991c 163d 71f4 1a3d 042c d2bd
00000140: 1e5f b83d 4f3d 053d 418b 683d a9e8 473d
00000150: 9a43 d8bc 5c22 dcbd 3fd8 173c 27e3 b5bd
00000160: 60aa 573d ecdd 1cbd c6e9 d73d 8bc1 823d
00000170: 2557 fc3c 69bc 643d fc08 df3c b55c e6bb
00000180: 8bd1 92bd df85 b03d cd30 92bc 9c1c 40bd
00000190: 3dee 83bd e307 a8bd 7656 503d 793c b7bd
000001a0: b853 b7bd a5a6 94bd e9d8 86bd d70f 8e3d
000001b0: 54f3 223d d112 23bd 0630 9cbd 95a4 75bd
000001c0: c94c b13d 7345 bd3d 0ec4 f7bd 06ef 113d
000001d0: 9169 1e3b 5d57 b13d 3c6d b0bb 9210 93bb
000001e0: ab7e eabc d07a 8fbd 3aaa 58bc 1c34 e53d
000001f0: 9109 05be c779 083d f131 663d 086c 8e3d
00000200: 524b 8fbd b112 e23d d20d 983d 3b16 863c
00000210: c756 cebd 0de0 a63d e89d a93d 4b97 013d
00000220: d817 f3bd 4040 923d 4cc4 dabd dc7a 54bd
00000230: a98c c1bc d85f 4d3c 28fd bdbd 46b1 3e3d
00000240: ebd4 8fbd 930c c6bc b474 53bc 9b47 cebd
00000250: ac10 c8bd 13c9 233c 8918 953a 06ae 3bb8
00000260: 30e6 01be 44b7 953d a730 913d 4a35 833d
00000270: 4fa9 c4bc 2c54 15bd b12b abbc c4ad 903d
00000280: bb9c 84bd 6b38 efbd 47a8 2cbd 0430 b63d
00000290: 20eb b13d 1f3f c0bd d6aa b13c 26f9 04be
000002a0: 2c41 8d3d 53df 5fbd 4441 9bbd a19e 083d
000002b0: 3a07 a5bd ec73 a33d d772 2cbd b961 7fbd
000002c0: fae3 c1bc 3e34 85bd 8836 acbc 9dc0 2d3d
000002d0: 7f78 61bc 0076 f13d 5812 3b3c f753 38bc
000002e0: 32fa d2bd 7144 903d 7312 cd3d 7665 23bd
000002f0: 509c a7bd 2b63 eaba b4f5 01be 78ba e9bd
00000300: c761 bc3b 3522 04bc 1a79 9e3d 1738 e13d
00000310: 5eec 4aba 8029 263d 8bbc 463c 5e2a 873d
00000320: 6ae9 01be f900 51bd 2b89 f3bd 9fcf dc3d
00000330: 69d0 e6bd 625c aebd 17d3 d9bd a0f6 a33d
00000340: 2e16 a0bc 8203 873c 9fe6 3d3d af2c d13c
00000350: 760e 30bd efb0 cb3d 01b0 e0bd 3d8d 5abb
00000360: 74ab eabc 6c15 18bd 8a8a 593d 176e e03d
00000370: 6572 ddbd 87f1 ec3c 264e 72bb c278 923d
00000380: c543 71bc 3088 bdbc 2242 963d 8fb8 9cbd
00000390: ae6b c4bd 772a debb 58b8 d6bd e5f9 d9bd
000003a0: c46f e3bd fd50 ebbd fd11 a8bd 01a9 63bc
000003b0: 58c0 243d 7726 c63c 687d 92bc 60b4 4dbd
000003c0: 0efc 9a3d e5dd d1bc 8e99 95bd 5eba 99bd
000003d0: 6578 9b3d faab 613d fc90 09bb 1a61 513d
000003e0: 2845 b93d ec49 02bd 3c76 9ebd b292 91bd
000003f0: e807 dfbd 2c4b cb3b 8392 dcbd ae30 113d

hidden2_Y1.bias f4 [200]
0.021039736 -0.04404055 0.046974722 -0.025770571 -0.030282216 0.14068879 -0.056932796 0.13544995
0.14884046 0.0029946477 -0.005783994 0.07040118 0.020039115 0.08608348 0.123895034 -0.0026794348
0.1331317 -0.014907695 -0.078466125 0.03723467 0.08425487 0.022639276 -0.06748874 0.13698126
-0.03854213 0.0061918385 0.06730622 0.07593503 0.07112988 0.065944485 -0.00016153687 -0.033811517
0.00046106873 -0.058120094 -0.030016892 -0.053284172 -0.07922645 -0.0756805 -0.02401116 0.06803401
-0.039165284 -0.045460876 -0.04790588 -0.028177435 0.16177383 -0.03601785 0.033737794 0.13370186
-0.024358217 0.11864634 0.14662506 0.03967646 -0.060648054 0.022674568 0.04149953 -0.014748065
0.09292801 0.0074399486 -0.054220024 0.0048325043 0.08897842 0.043366633 0.023725903 -0.028235309
0.013734652 0.0025849133 -0.074859805 0.10277998 0.050014857 0.01317572 0.052183747 0.14691156
0.011448967 0.0017116125 -0.07104328 0.11404927 0.046364788 0.027899193 -0.03307658 -0.06577776
0.10384638 0.013602548 0.041350503 0.012765247 0.17887291 0.12534943 0.099765904 0.042395804
-0.0662907 0.09219477 0.13971639 -0.055123385 0.032000992 0.11374915 0.14602666 0.052804995
-0.018446026 -0.085743956 0.029241042 -0.0701293 0.07627934 0.06621312 -0.035515472 0.049336318
0.03681762 -0.06831245 0.005897868 0.10161841 -0.006041519 0.09418605 0.10593238 0.019655185
0.09050319 0.022093363 0.1289591 -0.05145705 -0.061606996 0.11547246 0.13784894 0.07844918
0.10697521 -0.032976355 0.09067232 0.12278579 -0.01890595 0.14008027 0.04727169 0.047902986
0.016884888 0.09869599 -0.004150773 0.02750805 -0.02121481 0.057427067 -0.0088325245 -0.08087933
-0.0019618897 0.01936599 -0.08456358 0.0035850944 -0.07267919 0.0637079 0.16045094 -0.03319524
-0.009908265 -0.022315484 0.116935186 0.03625311 0.12838481 0.075668104 0.026241088 0.11023545
0.033877566 0.038365144 0.021997673 0.022220176 0.022160623 -0.07673331 -0.076885454 -0.02352512
-0.071719386 -0.07381811 -0.04700429 -0.013999679 0.14304489 0.10162439 0.13359325 -0.03487342
0.091021664 0.05171368 -0.014348708 0.12118579 0.13029495 -0.02003277 -0.06644073 -0.055591125
0.08136345 -0.07715856 0.1312327 0.06228107 -0.03809674 0.040050462 -0.081403695 0.12610246
0.015838249 0.080619216 -0.060471714 0.035755478 0.055516254 0.15753293 0.041371677 0.029647345
0.010059696 0.12426801 -0.038299736 -0.049249537 0.16753474 0.051073123 0.11730057 -0.022053426
00000000: 865b ac3c dd63 34bd 9168 403d ce1c d3bc
00000010: 6912 f8bc b910 103e 5d32 69bd 64b3 0a3e
00000020: a269 183e da41 443b a987 bdbb 7e2e 903d
00000030: 1229 a43c 894c b03d aebc fd3d 7599 2fbb
00000040: ad53 083e 683f 74bc d9b2 a0bd 6283 183d
00000050: d18d ac3d 0176 b93c 8937 8abd d144 0c3e
00000060: 5ade 1dbd e8e4 ca3b d8d7 893d d383 9b3d
00000070: 8bac 913d e70d 873d 3962 29b9 f27d 0abd
00000080: 99bb f139 560f 6ebd fce5 f5bc 8140 5abd
00000090: 7a41 a2bd 61fe 9abd 0db3 c4bc 6a55 8b3d
000000a0: c76b 20bd 2f35 3abd f538 44bd 5dd4 e6bc
000000b0: 0aa8 253e 7487 13bd a430 0a3d 24e9 083e
000000c0: e28a c7bc dafc f23d e124 163e c983 223d
000000d0: 186a 78bd 04c0 b93c 69fb 293d dea1 71bc
000000e0: 0a51 be3d d0ca f33b d115 5ebd fc59 9e3b
000000f0: 513a b63d 36a1 313d d35c c23c bc4d e7bc
00000100: 4e07 613c a667 293b 1950 99bd 4f7e d23d
00000110: 61dc 4c3d fade 573c a0be 553d fc6f 163e
00000120: 7394 3b3c 2f58 e03a 247f 91bd aa92 e93d
00000130: 01e9 3d3d d98c e43c 4f7b 07bd 7eb6 86bd
00000140: 69ad d43d 39dd 5e3c 255f 293d 5425 513c
00000150: 762a 373e 9a5b 003e 1152 cc3d 39a7 2d3d
00000160: 6bc3 87bd 9dd0 bc3d d011 0f3e 0fc9 61bd
00000170: 7913 033d 50f5 e83d 0388 153e 0d4a 583d
00000180: 1f1c 97bc 879a afbd e98a ef3c f39f 8fbd
00000190: 5838 9c3d bf9a 873d ac78 11bd e114 4a3d
000001a0: 13ce 163d 66e7 8bbd e742 c13b 501d d03d
000001b0: eff7 c5bb 9ee4 c03d 13f3 d83d e903 a13c
000001c0: bd59 b93d 24fd b43c db0d 043e a1c4 52bd
000001d0: 9e57 7cbd d37c ec3d 4628 0d3e f7a9 a03d
000001e0: d215 db3d 3712 07bd 69b2 b93d 1e77 fb3d
000001f0: a7e0 9abc 3471 0f3e f69f 413d ec35 443d
00000200: 2d52 8a3c 2021 ca3d 3503 88bb 9058 e13c
00000210: aeca adbc a538 6b3d 4bb6 10bc 10a4 a5bd
00000220: 0c93 00bb 6da5 9e3c ac2f adbd e7f3 6a3b
00000230: d4d8 94bd 4a79 823d 404d 243e bbf7 07bd
00000240: 4756 22bc f6ce b6bc b77b ef3d 247e 143d
00000250: 4f77 033e e1f7 9a3d 8df7 d63c 20c3 e13d
00000260: 34c3 0a3d c524 1d3d 7734 b43c 1607 b63c
00000270: 328a b53c 5b26 9dbd 1f76 9dbd c1b7 c0bc
00000280: 9de1 92bd f32d 97bd 9287 40bd e95e 65bc
00000290: 5c7a 123e 7320 d03d abcc 083e 6ed7 0ebd
000002a0: 9169 ba3d b9d1 533d d816 6bbc 4130 f83d
000002b0: 0a6c 053e c31b a4bc 1412 88bd 85b3 63bd
000002c0: e1a1 a63d 4f05 9ebd dd61 063e 6f1a 7f3d
000002d0: 540b 1cbd f40b 243d fbb6 a6bd 0121 013e
000002e0: 37bf 813c b01b a53d 30b1 77bd 5674 123d
000002f0: 0365 633d 5050 213e 5975 293d fdde f23c
00000300: 6cd1 243c 3a80 fe3d 2fe0 1cbd e2b9 49bd
00000310: 3a8e 2b3e 0d32 513d 483b f03d 63a9 b4bc

out_Y1.weight f4 [1, 200]
-0.08466158 -0.102239825 -0.1641384 -0.051403392 -0.0713419 0.14752564 -0.09143583 0.10822309
0.09891707 -0.1471701 -0.086779036 0.20670423 -0.039225303 0.14803956 0.19540772 -0.14555268
0.19299504 -0.13570881 -0.10357384 -0.05162854 0.19340263 -0.04167763 0.14201681 0.11345267
-0.038407687 0.11966185 0.097296625 0.21120869 0.1515314 0.14654537 -0.099607214 -0.0010646748
-0.082218826 -0.028643474 -0.14759699 -0.15729715 -0.016294934 -0.064928524 0.12632802 0.17827208
0.048953544 0.12869942 0.1091314 -0.024000593 0.10374521 -0.11272455 -0.061771672 0.19399184
-0.11616782 0.15513846 0.16845433 0.18765289 -0.15659703 -0.027674502 -0.059377905 -0.06922188
0.20673072 -0.017074954 -0.16177295 0.114735335 0.22059606 -0.13298817 0.11398663 -0.017756386
0.14761537 -0.045667253 -0.009887913 0.08950666 0.12588422 -0.06966283 0.19026972 0.094387025
-0.12698449 -0.009228986 -0.06309389 0.1389587 0.20069577 0.2068829 -0.14257124 -0.031319797
0.11287276 -0.023320222 0.134656 -0.049475744 0.09138364 0.08333655 0.10549584 0.0926089
-0.007268735 0.08668354 0.2031138 -0.049590345 -0.09938742 0.12726878 0.14319949 0.18776852
-0.01859802 -0.061101183 0.1651311 -0.026956005 0.21454784 0.11008141 0.105234206 0.10550982
0.18976682 -0.12067842 -0.11130173 0.08278876 -0.14509307 0.18661381 0.1687209 -0.018504774
0.15732312 -0.11728061 0.15166993 -0.09392941 -0.01960902 0.0850611 0.15981278 0.13940796
0.08564552 -0.055994906 0.14424615 0.2123434 -0.11705976 0.102651246 -0.03852644 0.09766974
-0.10588508 0.19365889 -0.16277789 -0.07547758 -0.078904495 0.16138192 -0.14316864 -0.11611032
-0.10534398 0.00023643876 -0.05931985 -0.046149112 -0.04909807 0.20051102 0.07300319 -0.11965494
-0.15714473 -0.03938067 0.07084487 -0.026513716 0.18457782 0.05602279 -0.014677316 0.15516411
-0.005328523 -0.049528155 -0.090732805 0.21074663 -0.07018285 -0.0050566713 -0.12278961 0.09079174
-0.08258554 -0.1202996 -0.0808584 -0.073418766 0.14128217 0.12903258 0.18955389 -0.12966408
0.073127314 0.16805017 0.0010776867 0.13955224 0.21094671 -0.028007312 -0.15050249 -0.012304615
0.19134901 -0.0946115 0.12006585 0.16665496 -0.103306904 -0.0989965 -0.1155488 0.2046066
-0.11737571 0.107974455 -0.09684571 -0.058209095 0.16262133 0.13491867 -0.11504756 -0.110419415
-0.040965836 0.10754895 -0.02864645 -0.019928696 0.07795588 0.095695585 0.14781511 -0.08150172
00000000: 0d63 adbd 1d63 d1bd e613 28be 5d8c 52bd
00000010: b41b 92bd f610 173e b542 bbbd 11a4 dd3d
00000020: 0895 ca3d c2b3 16be 35b9 b1bd 46aa 533e
00000030: b6aa 20bd af97 173e f618 483e c30b 15be
00000040: 7ea0 453e 40f7 0abe 851e d4bd 7378 53bd
00000050: 570b 463e 2ab6 2abd db6c 113e e059 e83d
00000060: 6151 1dbd 4611 f53d 7443 c73d 1747 583e
00000070: 0c2b 1b3e fd0f 163e defe cbbd 8f8c 8bba
00000080: 5862 a8bd b8a5 eabc aa23 17be 8112 21be
00000090: f47c 85bc 3ff9 84bd 225c 013e f58c 363e
000000a0: 8383 483d c8c9 033e 4980 df3d e49c c4bc
000000b0: 5e78 d43d 21dc e6bd 4b04 7dbd cca5 463e
000000c0: 65e9 edbd 9edc 1e3e 4b7f 2c3e 1428 403e
000000d0: f95a 20be a3b5 e2bc 3f36 73bd 33c4 8dbd
000000e0: 38b1 533e c6e0 8bbc cfa7 25be 5cfa ea3d
000000f0: efe3 613e 0d2e 08be d371 e93d d775 91bc
00000100: 7c28 173e 960d 3bbd ea00 22bc 454f b73d
00000110: cbe7 003e 63ab 8ebd 11d6 423e fc4d c13d
00000120: 3908 02be 2c35 17bc 5f37 81bd 304b 0e3e
00000130: 3183 4d3e 1cd9 533e 32fe 11be 3049 00bd
00000140: d529 e73d 0d0a bfbc 43e3 093e 14a7 4abd
00000150: 5927 bb3d 5aac aa3d 340e d83d bca9 bd3d
00000160: 922e eebb 2487 b13d 10fd 4f3e 3f1f 4bbd
00000170: a28b cbbd bf52 023e e3a2 123e 6446 403e
00000180: e05a 98bc 3c45 7abd 2118 293e d7d2 dcbc
00000190: 6eb2 5b3e 5d72 e13d 0885 d73d 8815 d83d
000001a0: 3c52 423e 3f26 f7bd 29f2 e3bd 278d a93d
000001b0: 4793 14be b117 3f3e 2cc5 2c3e 5397 97bc
000001c0: 5019 213e d130 f0bd 5d4f 1b3e 105e c0bd
000001d0: 18a3 a0bc 8434 ae3d f6a5 233e f6c0 0e3e
000001e0: eb66 af3d ea5a 65bd 43b5 133e 8c70 593e
000001f0: 07bd efbd d13a d23d e6cd 1dbd 1307 c83d
00000200: 47da d8bd 844e 463e 3faf 26be fd93 9abd
00000210: ae98 a1bd 4d41 253e cd9a 12be 3fcb edbd
00000220: 96be d7bd 8cec 7739 5ff9 72bd da06 3dbd
00000230: 0f1b 49bd c352 4d3e b282 953d a60d f5bd
00000240: 8cea 20be a04d 21bd 1d17 913d 4b33 d9bc
00000250: f801 3d3e 2778 653d 2079 70bc 57e3 1e3e
00000260: e49a aebb 09de 4abd 1fd2 b9bd f7cd 573e
00000270: 07bc 8fbd 6fb2 a5bb 1e79 fbbd 05f1 b93d
00000280: 9c22 a9bd a35f f6bd 1799 a5bd 945c 96bd
00000290: 46ac 103e 1e21 043e 6a1a 423e a9c6 04be
000002a0: c6c3 953d 5815 2c3e 2a41 8d3a c8e6 0e3e
000002b0: 6a02 583e 976f e5bc 531d 1abe 4c99 49bc
000002c0: fff0 433e adc3 c1bd 16e5 f53d 99a7 2a3e
000002d0: 9292 d3bd adbe cabd d9a4 ecbd 6484 513e
000002e0: ad62 f0bd b621 dd3d 0b57 c6bd a96c 6ebd
000002f0: 3586 263e 1f28 0a3e 0e9e ebbd 9323 e2bd
00000300: cbcb 27bd a042 dc3d f6ab eabc 8141 a3bc
00000310: 55a7 9f3d 0cfc c33d d85c 173e 60ea a6bd
