Results/Models/NN_DCN_model_iter_id_7_epoch_100_lr_0.001.pth (torch, 828110 bytes, 16 tensors)

shared1.weight f4 [200, 17]
00000000: f3ff 06bd d176 28bd 66ac ed3d 70b2 e8b9
00000010: 4d44 d13d 66dc 70bc ea71 f63c fdfe fb3d
00000020: 34a5 bc3d 551a eebd eabc f9bc 1c53 d8bb
00000030: 8893 0dbe d211 72be ab7e fbbc 4bfa 813c
00000040: 2b12 8a3d 81b4 e1bd 6189 4a3b 0e51 00be
00000050: 3297 153d bc28 e33d 5da0 7ebd 5909 d6ba
00000060: 932e 173e ee38 34bd a67d 073e ac21 09bd
00000070: 9c5a 403d 2f9c 0fbe fd76 2fbe 5178 84bc
00000080: 545d dcbd 0bc2 fd3c 60d7 93bd 9db0 a03d
00000090: 3bd4 2f3d ad4d a83d 40c5 87bd c8bd f4bd
000000a0: 63d9 2abe 0b7b 193e bfe7 5cbd 6adc e33d
000000b0: 1b0a bd3d 9b53 413c 499b a03c 483e 05be
000000c0: b396 47bd 2442 dbbc 59bc 783e 8bab c43d
000000d0: a44e 133b b98a 43bc 69e1 86be 1a53 413d
000000e0: a12e 1bbe 5bca 1ebe 16c9 033c a7da 55bd
000000f0: 15be dcbd 73d2 07bd dcdb 9b3d 7b4b 003e
00000100: 6b2d 10bc 0eda a23d 073a 4a3c 7300 10be
00000110: 2dd9 163e e46c edbd 362d 663b a78f dfbd
00000120: c57d df3d ea9a 8c3d db9c 4f3d a023 993c
00000130: 46dc 9cbc 5311 a4bd 373a abbd a9da d9bc
00000140: 17c2 acbc ded0 47bd 3290 afbd b235 023e
00000150: 2c92 e33c 541b bc3d 6f50 cebd 9256 30be
00000160: 54a5 afbc b65e de3d fce7 bbbd 1063 dabd
00000170: c8cf 6a3d a38d be3c c3b7 0dbd 6db1 06bd
00000180: af21 cdbd 55f5 1dbe 8149 4f3d 2959 013e
00000190: 5b6c 023d 9309 1b3d bd49 663d 8695 3cbd
000001a0: 10c6 263e ffe8 47be 4f1e 22be 168c 4f3c
000001b0: d9aa 283e f5fd ab3d f505 ae3d 19e9 343d
000001c0: 68da 49bc 404b 043e a794 ffbc a5f1 58be
000001d0: b4ab 6a3d 58ce 003d dae6 78bd c04d c7bd
000001e0: c8f8 013e c01b 92bd 9bb8 223e 662b 22be
000001f0: a512 863d 8aa6 f2bc 046d 803d 853c ebbd
00000200: 355f 08bc 40fe 98bd ba5a b73d 6a11 a3bc
00000210: ef2b c8bd 6c95 c63d 3fb7 413d f117 7b3e
00000220: 0b5a d1bb a845 2abe 08ab 343e 5063 da3d
00000230: 9e6b 90bd ab62 913d 6f3f a03d 3f05 3c3e
00000240: f143 ba3c a3e0 99bd 4781 2cbe b03e 913d
00000250: 8e60 ff3d bd92 883c 307a 30be c112 30be
00000260: b3a6 0d3e 7c47 00bd 0bf3 26bd af03 783e
00000270: fc6d bf3e 7abf fabd 4dc0 e7bd c24b 0b3e
00000280: e0df 66bc 96a2 75bd 19db 73bd 79ae c73d
00000290: 17d4 3dbe 0a9f d73d 3614 95bd e335 39bd
000002a0: f809 033e ef81 3fbd 0ef6 1b3e 4eb8 0dbe
000002b0: b2fd 433e ca17 c3bd 2ef6 12bc 4cb6 0ebe
000002c0: 411f f73c 38f3 e9bd 7271 bf3d 9008 fcbd
000002d0: 205f 083e d788 f5bd 14bc 9f3d a8b7 283c
000002e0: 125c 4ebe d7eb e33d 31bf 053c 6983 023e
000002f0: fbd9 e2bd 19ac a43d 448a 3f3d 12b7 d23c
00000300: 4b6a 0fbe e991 133d a241 cabd 4e7b b53c
00000310: c662 8ebd 2b63 02be 5c3f 46bc 1960 dcbd
00000320: 27cc 533d c3c7 bf3c 9ed8 543e a1ea 513e
00000330: 63b8 513d e3b7 0a3d 960c 2a3e cd22 1fbe
00000340: 838e 213e 3e03 01bb 4ce0 8a3d 0cc9 ffbc
00000350: b9c8 bbbd 0ac5 03bd 1ad7 e2bc bde0 6f3d
00000360: c9ae cebd bc77 cd3d 9d16 0cbe a747 8dbd
00000370: 5446 6abd c7f4 223e 05c7 ecbd 972c 27bc
00000380: f61e 153e 4e1d 813c add3 89bd f650 9b3d
00000390: c653 773d e3d1 13be 1d9a 89bd d88d 613d
000003a0: 0b63 d7bd 5e0e 9ebd d99c 7dbd bc99 27be
000003b0: d888 893d 6a6f 33bd 44dd 8f3d 1d17 003c
000003c0: 8267 573d 8c3f 043e 4d04 0a3e 9023 87bd
000003d0: cda3 8bbd 6636 203e 7bc9 353d 5150 99bd
000003e0: f78a 9d3c f28f dbbd a23a 3c3c 5493 49be
000003f0: 3bfb 323d 633a e6bc 304d db3d 98d7 d53c
-0.032958936 -0.041128937 0.11605148 -0.00044383435 0.102181055 -0.014700985 0.030083615 0.123044945
0.092111975 -0.11626116 -0.030485589 -0.0066017043 -0.1382581 -0.2363961 -0.030700048 0.01586642
0.067417465 -0.110207565 0.0030904638 -0.1253092 0.036521144 0.11091754 -0.062164653 -0.001632969
0.1476386 -0.043999605 0.13231525 -0.033479378 0.04696141 -0.14024423 -0.17135234 -0.016170653
-0.107599884 0.030976316 -0.07218814 0.07846186 0.042927008 0.082179405 -0.06629419 -0.119502604
-0.16684489 0.14988343 -0.053931948 0.11126025 0.09230443 0.011799718 0.019605296 -0.1301204
-0.048727702 -0.026764937 0.24290599 0.09603032 0.0022477293 -0.0119349295 -0.2634385 0.047198392
-0.15154506 -0.1550688 0.008043548 -0.052210476 -0.10778443 -0.033159684 0.07610294 0.12528794
-0.008799891 0.07951747 0.012342936 -0.14062671 0.14731283 -0.11593035 0.0035122163 -0.109160714
0.109126605 0.06865485 0.0506867 0.018693745 -0.019148003 -0.08011117 -0.08360713 -0.026593523
-0.021088643 -0.048783176 -0.08572425 0.12715796 0.027779661 0.091849 -0.10073935 -0.17220524
-0.02144114 0.108579084 -0.09175107 -0.10663426 0.057327062 0.023260897 -0.034599077 -0.03288405
-0.1001619 -0.15425618 0.05060721 0.12631668 0.031841617 0.037850928 0.056222666 -0.046041034
0.16286492 -0.19522475 -0.15831874 0.012667676 0.16471423 0.08398048 0.0849723 0.04416761
-0.0123201385 0.1291933 -0.031198813 -0.2118593 0.057292655 0.031446785 -0.060767032 -0.097316265
0.12692559 -0.07134199 0.15890734 -0.15836868 0.06546525 -0.029620428 0.06270793 -0.114861526
-0.00832348 -0.07470369 0.089528516 -0.019905765 -0.09774005 0.09696469 0.047293898 0.24520852
-0.006388908 -0.16628134 0.17643368 0.106634736 -0.07051776 0.070988975 0.07824599 0.18361376
0.022737475 -0.07513549 -0.1684619 0.07092035 0.12469588 0.016671533 -0.17234111 -0.17194654
0.13833122 -0.031318173 -0.040759128 0.24220155 0.373886 -0.122435525 -0.11315975 0.13603118
-0.014091462 -0.059969507 -0.05953512 0.09750075 -0.18537937 0.10528381 -0.072792456 -0.045217406
0.12796772 -0.046754774 0.15230581 -0.13839838 0.19139746 -0.09526022 -0.008969827 -0.13936728
0.03016627 -0.114233434 0.0934781 -0.12306321 0.13317537 -0.11988991 0.07799545 0.010297693
-0.2015231 0.11128967 0.008163259 0.12745441 -0.11076733 0.080406375 0.04676272 0.02572206
-0.14005391 0.036027823 -0.098758 0.022153523 -0.06952433 -0.12733142 -0.012100067 -0.10760517
0.051708367 0.023410683 0.20785758 0.2049966 0.051201236 0.033866774 0.16606364 -0.15540619
0.1577702 -0.001968577 0.067810625 -0.031223796 -0.09169144 -0.032170333 -0.027690459 0.058563937
-0.100919314 0.10032603 -0.13680501 -0.06898432 -0.057195976 0.15913688 -0.115613975 -0.010203502
0.14562592 0.015761044 -0.06729827 0.075838014 0.060382627 -0.14435534 -0.06718848 0.055066913
-0.10516938 -0.07717584 -0.06191716 -0.16367239 0.06715554 -0.043807425 0.07024625 0.007818011
0.052588947 0.12914866 0.13478203 -0.0659858 -0.06818352 0.15645751 0.0443816 -0.07486022
0.019231303 -0.10720815 0.0114885885 -0.19685107 0.043696623 -0.028104013 0.10708082 0.02610378

shared1.bias f4 [200]
00000000: ac93 093d 1c4e a13d 8211 0f3e f39c c93d
00000010: 9077 1cbe 8a2e 87be c464 8d3d 4f1c 85be
00000020: 3b75 45be 58ab 5bbd b049 013d 6a74 1dbe
00000030: 045b 72be 7e07 fd3b bd9d 2c3d 32f5 763d
00000040: ad14 573d 0996 80be 14fb bcbd b50a 9cbd
00000050: 30cd 0b3e f07e c6bd bde9 7f3d 2a56 67be
00000060: d8b3 193c c6ec 95be 6c8f c9bc 2834 ba3c
00000070: 5517 cf3d 88f2 34be ef45 3bbd 39fd 8cbd
00000080: dad6 c0bd f777 e5bd 928f e8bd b1b7 48be
00000090: 79b8 c8bd d203 203e ec9d 5ebd f608 aa3d
000000a0: bc6e e1bd 2c69 51be f996 68be 1d07 70bd
000000b0: 401f cb3d ced5 4f3e 0d3e 693c ad91 39be
000000c0: 6aff b4bd 0571 23be 8d10 4dbd 51dd 24be
000000d0: 9b6c 1fbe 4157 473e e966 53bd f93e c5bb
000000e0: 7be0 733d ebe7 c4bd f56b 033e 633a 88bd
000000f0: 95f1 0d3e 16bc 21be 65bc 40be 2019 fcbc
00000100: 02a6 9bbd a17c c3bc d4bb 91be dd15 5fbe
00000110: 60eb 90be 80f8 a8bc 80fb 53be 0866 34be
00000120: c861 8dbc 3d00 ad3d 071b 5f3d 4d62 083e
00000130: 9829 2b3d e65e 5dbe 9ab4 22be 4a9d 95bd
00000140: 9cdf 00be 18a1 243d 03ed 0bbd c836 553e
00000150: 65a2 f93c 7938 243d 7db7 083d ae6c a7bd
00000160: b0aa c33d bf62 04be 30ab 093d 1f5c 37be
00000170: 1ef9 63be 56bc c83d 7b27 02be 431d 0c3e
00000180: fd7c 693b f6b5 a73d af19 c33c 0f70 d13d
00000190: 2e29 fdbd c3c5 1e3e aa09 313e fed8 0ebd
000001a0: e0a1 8abe 635a 403e f4c8 79bd 5bb0 183e
000001b0: e6e3 62be 1fc4 a63d 1cbd 70be 2d7f df3b
000001c0: a17e e93d 6634 863d 2951 2bbc 9d97 c4bd
000001d0: 2ebf d3bc 79b2 6a3e 0cf8 70be 6666 863d
000001e0: f20e ab3c c7a9 013e 21b7 32bd b33d 293d
000001f0: 78dd 35be 6388 43be a409 79be 11fb b73b
00000200: caff 27bd 2eb9 043b 0566 3a3e de65 d83d
00000210: bdff 85be da48 0fbe d3d0 89be 3b29 3bbe
00000220: 4238 49be 30f8 4abe 3550 953c 40f8 24be
00000230: 5437 cfbd 7864 53be 7156 33be e62f ccbd
00000240: e502 2cbe b9ec bc3d 6ec5 223e 8c3b 64be
00000250: 9705 89be 1872 45bd 791f 96bc ec83 d8bd
00000260: 77a5 8b3d 3699 4c3d e37c 02be 9aab 79be
00000270: d24f 943c e67a 183e 98c2 51bd 10af 8dbe
00000280: a507 5c3d 3cf9 3dbe 91da 553e d3b8 c33d
00000290: 4b2d 82bd 5a98 5bbe 0322 c8bc 6b90 34be
000002a0: 73b4 0b3d 3a6a 51bc bccd 15be 0e5d 243e
000002b0: 8924 ce3d ab64 87bd b62b 333c b859 653e
000002c0: e608 cdbc 6eb6 6dbe 73bb 4b3e 9ab1 af3d
000002d0: 28db 463d e4db fb3d 527a d4bd fe1d 0abe
000002e0: d032 0439 4e4e 11be b175 c03d 5ded 9bbd
000002f0: 5c0d f7bd a7a8 11be f14a 4abe 94eb 46be
00000300: 4b6e c23c 8534 31be 47c5 84be ee20 7abe
00000310: 908f c4bd 6360 34be 94de 1b3e 01d9 103e
0.033588096 0.07876226 0.13971522 0.09844389 -0.15279984 -0.26402694 0.06903985 -0.2599816
-0.19283001 -0.053630203 0.031564415 -0.1537644 -0.23667532 0.0077218404 0.04214262 0.06029243
0.052509952 -0.25114468 -0.09227577 -0.0761923 0.13652492 -0.0969218 0.06247877 -0.22591463
0.009381257 -0.29282206 -0.024604522 0.022729948 0.10111872 -0.17670643 -0.04572099 -0.06884236
-0.0941598 -0.11204522 -0.11355509 -0.19601323 -0.0980081 0.15626457 -0.054349825 0.083024904
-0.11007449 -0.20450276 -0.22713841 -0.058600534 0.0991807 0.20296404 0.014235985 -0.18121977
-0.08837779 -0.15961082 -0.050064612 -0.1610005 -0.15568773 0.19466878 -0.051611815 -0.00601947
0.059540253 -0.09614547 0.12834151 -0.066517614 0.13861687 -0.15794405 -0.18821867 -0.0307737
-0.07600023 -0.023863139 -0.28463614 -0.21785684 -0.28304577 -0.020626307 -0.20701408 -0.17617047
-0.01725854 0.08447311 0.054469135 0.13318749 0.041787714 -0.21618232 -0.15889207 -0.07305391
-0.125853 0.040192693 -0.03416158 0.20821679 0.030472944 0.04009292 0.033378113 -0.08175026
0.095540404 -0.12928294 0.033610523 -0.17906235 -0.22263 0.09801547 -0.12710373 0.13683037
0.0035627477 0.08189003 0.023815958 0.102264516 -0.1236137 0.15505128 0.17288843 -0.03487491
-0.27076626 0.1878448 -0.06098266 0.14911024 -0.22157249 0.08142876 -0.2350964 0.0068205805
0.11401106 0.06552963 -0.010456362 -0.095992304 -0.025847998 0.22919644 -0.23532122 0.065625
0.02088115 0.12662421 -0.043631677 0.041318607 -0.17760265 -0.19094996 -0.24320084 0.0056146462
-0.041015424 0.0020251977 0.1820298 0.105663046 -0.26171675 -0.13992634 -0.26917133 -0.18277447
-0.19650367 -0.19821239 0.018226722 -0.16110325 -0.10117975 -0.20643795 -0.17513444 -0.099700734
-0.16797979 0.09224839 0.15895626 -0.2228834 -0.26762077 -0.04820451 -0.018325554 -0.10572037
0.06818669 0.0499508 -0.12742953 -0.24381867 0.018104468 0.14890632 -0.05121097 -0.27672625
0.053718228 -0.18552107 0.20884158 0.09556737 -0.06356295 -0.21444836 -0.02443028 -0.17633216
0.034107637 -0.012781674 -0.14629263 0.16051123 0.10065562 -0.06610998 0.0109357145 0.22397506
-0.025028657 -0.23214123 0.19895725 0.08578797 0.048548847 0.122978 -0.10374893 -0.13488004
0.0001260743 -0.14190027 0.09397448 -0.07613633 -0.12063095 -0.14224492 -0.1975515 -0.19425803
0.023734232 -0.17305191 -0.2593176 -0.24426624 -0.09597695 -0.17614894 0.15221626 0.1414528

shared2.weight f4 [200, 200]
00000000: 966c 4b3d ea3b 15be 42b0 08be 2eee 70bd
00000010: 4440 e2bd dd6e 6b3d 6d64 3dbd e658 4bbe
00000020: 8ccd ee3d 94d8 0bbe c7f3 54bd 6727 003e
00000030: 8a62 4fbc 6857 19be 3265 4cbe 2dc6 00be
00000040: f77a bebc 1101 203e 6d85 81bd d718 41bd
00000050: 6bb7 2cbd 4e3a 563d 0ce3 d0bd bbc5 d73d
00000060: c79f bdbc bf99 f0bd aa4e 9b3d 4be1 983d
00000070: 0d32 01be 1af4 af3d 2290 283d 6034 6e3a
00000080: 4348 bc3d 2b9b ccbd 8e76 223d 6c61 dc3d
00000090: 76a6 a7bd 2a53 88bd afa0 b63d 9098 db3d
000000a0: 370e a8bd c01a 833c 27b6 b83b ea7d ad3d
000000b0: 702c 843d fa7f cebd ee7e a0bd 2e41 76bc
000000c0: ab9f e7bd 12c6 03bd 44ac 1b3d ad0f 8f3b
000000d0: cd20 41be 70e1 b23b 1edc b1bd afad e4bd
000000e0: 290a dfbd 0f99 313d 8703 eebd c512 cf3d
000000f0: 4bcd 8bbd e846 babd e157 593d 09bb 00be
00000100: 0386 7abc 9605 1bbe e510 993d 8953 373e
00000110: 7282 27be 0b87 ba3d 5396 4c3d 664c 10be
00000120: c3f2 42be 43f4 f93d 6948 963d 0ba9 60bb
00000130: 712f b6bc 3f81 8dbd 4180 98bd 1d3e e03d
00000140: f717 033d 20bc 0d3c bf73 1bbc 2485 e93c
00000150: dbea 21bd f45a bcbd bbbd afbd 2c8a 733d
00000160: 8c80 9ebd 26c0 64bd 3df7 2ebd fd10 043e
00000170: f254 11be d1ca c0bd f55c 7ebd 8a7b 2b3d
00000180: 047e 13bd 2d60 0cbd 91a5 d0bd aee3 c3bd
00000190: e258 a9bd 430c 2d3c 411e 0cbd 963e 6e3d
000001a0: 7386 163d bc90 6c3d 77f0 da3c cef1 0c39
000001b0: 1096 fabc 631a 6abd 29df 7c3d 3059 4cbd
000001c0: fdbe fcbd 1922 8abd f5c6 c6bd bb10 9b3c
000001d0: 733f e63d 2cd8 b43d 6581 083d 2973 b43c
000001e0: 814f 73bd b595 a9bb 00ff 9ebd 01e7 60bd
000001f0: 2809 e43c 4e00 aebd 77e3 7e3d 56de 97bc
00000200: 737a 803d 19aa c13d a37b 8b3c fd90 04be
00000210: 9a8f 473e ad6d 803c b6cc aabd e165 78bd
00000220: e6fa a6ba ef2d 18bd 0da5 cfbd 808d 2b3d
00000230: 3b76 9a3d bd49 923d 58d7 6dbd ca82 a23d
00000240: 92f1 f1bd d63f 033e 4b98 67b8 fd2a 5a3d
00000250: e645 75bc 4aff 05bd 0420 98bd bd8f 2fbd
00000260: 8d90 ed3d 8617 123e 019f 803d 73e1 fe3c
00000270: e132 16bd 4168 85bd 5188 e1bb b630 8cbb
00000280: bc25 963c 25b2 5c3d 755f 1c3c 5289 033e
00000290: 4b1f d03b 05dc 2abe 79e2 9d3c 273c 16be
000002a0: fce5 40be 701b b13c 6ad4 fe3d ff48 81bb
000002b0: 89e1 62be ed76 46be c737 80bc 9a50 5abc
000002c0: e2c1 a23c 84d3 0dbe 5b89 bd3d 5248 72bd
000002d0: 62c2 183e a48c 80bc 3495 313d ad04 edbd
000002e0: 5096 4cbd e62d 583d fcf0 c4bd 0e31 583c
000002f0: 6849 adbc 74bc 19be b89e 8dbd 0035 cd3c
00000300: 766f 2f3e c47f e63c 22ca 8dbd d807 72bd
00000310: 04fc 6e3d eb70 cd3c 7e2b 18be 71d9 c3bd
00000320: eba3 953d 10fa a93d d5ae 883d c0ce 2ebd
00000330: 944c eebd 0a85 b1bd edab babd f1f6 693d
00000340: bc7e b0bd b558 323e a78b eb3d 11a8 2d3d
00000350: 9c63 203d 072c 333e efce 783c 2803 0a3d
00000360: f7e5 9f3d 1c54 1a3d 92d5 413d edfa bf3d
00000370: cc9b 913d 459e ef3c c668 4bbd e947 943d
00000380: b602 973c bbd5 e73d 51e1 aebd 867c 8abd
00000390: 474f d13d 6321 4c3d db4a 6a3e 4a0b bdbc
000003a0: 585f 4dbe 1f6d 913d 71b7 373e 26e4 ccbc
000003b0: 1889 aabd 8450 10bd 76ba c6bd f996 253e
000003c0: 7d0e fd3b 45eb 02bd 92b2 773e bb7b 9fbd
000003d0: 2d7a 57bd d634 b1bd bf6a d9bd 8ce6 123e
000003e0: fe85 a1bd 0c0d e33d 53da 70bb c078 c23d
000003f0: 1a3e 253e 6059 76bd d779 16bd 27ed 0abd
0.049664102 -0.14573637 -0.13348487 -0.058820896 -0.11047414 0.057478774 -0.04623835 -0.19858131
0.11660299 -0.13656837 -0.051990297 0.12515031 -0.012657771 -0.14974749 -0.19960478 -0.12575598
-0.023251994 0.15625407 -0.06324277 -0.04714283 -0.04216711 0.052301697 -0.10199556 0.10535761
-0.023147477 -0.11748075 0.07583363 0.07464846 -0.12616749 0.085914806 0.04115308 0.0009086784
0.0919347 -0.099905334 0.039663844 0.10760769 -0.08186047 -0.06656487 0.08917367 0.10722458
-0.08205836 0.016003966 0.0056369486 0.08471282 0.06453788 -0.10083003 -0.0783671 -0.0150301885
-0.11309751 -0.032171316 0.038006082 0.0043658824 -0.18860169 0.005459003 -0.08684562 -0.1116594
-0.1089061 0.04335886 -0.116217665 0.10111002 -0.06826266 -0.090955555 0.053062323 -0.12571348
-0.01529074 -0.1513885 0.074739255 0.1790296 -0.16358355 0.09107789 0.049948048 -0.14091644
-0.19037919 0.12204792 0.0733803 -0.0034280445 -0.022239419 -0.06909417 -0.074463375 0.10949347
0.032005277 0.0086508095 -0.009488045 0.02850587 -0.039530616 -0.091970354 -0.0858111 0.059457943
-0.07739362 -0.05584731 -0.042716254 0.12897106 -0.1419256 -0.09413684 -0.06210037 0.041865863
-0.03600885 -0.034271408 -0.10187829 -0.09564911 -0.08268906 0.010562005 -0.03420854 0.058165155
0.036749315 0.057755217 0.02672599 0.0001344152 -0.030589134 -0.05715407 0.06173626 -0.049889743
-0.123411156 -0.06744785 -0.09705917 0.018928876 0.11242571 0.08830294 0.033326525 0.022027569
-0.059401993 -0.005175317 -0.07763481 -0.054907802 0.027836397 -0.08496152 0.062228646 -0.018538635
0.06273355 0.09456272 0.017026728 -0.12945934 0.19488373 0.015677297 -0.08339827 -0.060644034
-0.0012739568 -0.03715318 -0.10138903 0.04188299 0.07542082 0.07142971 -0.058066696 0.07935102
-0.11813654 0.1281732 -5.5216526e-05 0.053263653 -0.014970278 -0.032714166 -0.074279815 -0.04286169
0.115998365 0.14266786 0.062803276 0.031113362 -0.036669616 -0.065140255 -0.0068827053 -0.0042782677
0.01832854 0.05388083 0.009544243 0.12845352 0.0063513867 -0.16685493 0.01927303 -0.14671384
-0.18837732 0.021619529 0.124428585 -0.0039454694 -0.22156347 -0.19381304 -0.015651597 -0.013324881
0.019867841 -0.13850218 0.09254714 -0.059151 0.14917901 -0.015692063 0.04335518 -0.115731575
-0.049948037 0.052778147 -0.096162766 0.013195289 -0.021153167 -0.15013295 -0.06915039 0.025049686
0.17132363 0.028137095 -0.069233194 -0.05908951 0.05834581 0.025078258 -0.14860341 -0.09562958
0.073066555 0.08299649 0.066739716 -0.04267764 -0.116357 -0.08667953 -0.091148235 0.057120267
-0.08617923 0.17416652 0.11501246 0.04239661 0.039157495 0.17497264 0.015186056 0.033694416
0.07807534 0.03767787 0.047322817 0.09374032 0.07109794 0.029250273 -0.049660467 0.07240278
0.01843391 0.11320063 -0.085390694 -0.06762032 0.10220199 0.049836528 0.22880118 -0.023076672
-0.20055902 0.07100891 0.17941071 -0.025011133 -0.0832693 -0.035233036 -0.09703533 0.16170873
0.0077226744 -0.03196265 0.24189213 -0.077872716 -0.05260675 -0.08652656 -0.10616063 0.14345759
-0.07886885 0.11086473 -0.0036751225 0.094956875 0.16136971 -0.06014383 -0.03673729 -0.033917572

shared2.bias f4 [200]
00000000: 1c4f 02bd c27a 25be 3af4 babb 751a ccbc
00000010: ff9e bebb 90dd 24bd 5a3d 103d 49ec a13b
00000020: ddfa 7fbd a1c6 a5bd aa7a 2ebd 6a92 b9bd
00000030: 5b9a bcbc dce8 273d 08bf a23c 7195 293c
00000040: 885e 8dbd 3781 533d f628 5dbc 1947 dfbc
00000050: 118c 44bc 71ae 293d a3c3 f5bc 1b08 b03d
00000060: 0834 db3c e3f3 a4bc 91b0 d73c 8a50 3c3c
00000070: 7f54 dbbb f5ec 9dbd 2435 6fbd 4cad 73bc
00000080: a61e 6e3d 5b1f afbd 63bb 06bd da1e 43bd
00000090: 9fa9 1bbd 3f7c 94bd 7d3f e0bb f9f1 fbbc
000000a0: ba3f 84bd 8621 383b a2a5 3f3d 0047 93bd
000000b0: e019 a6bc 9516 c9bd b4cb 483d 2467 833d
000000c0: 3ca2 13bc f398 16bd c49b d2bd e54c 79bc
000000d0: ffa7 fa3b c35a 6abb 8b57 f0bc c6b4 bf3c
000000e0: 4d7d c3bd 1baf 343d d73d d7bd 6760 043d
000000f0: 3a3d e0bd cf10 abbd 6ddd b0bd 9036 1b3d
00000100: 5e1d 56bd 90d4 b93c 2299 64bd 1d84 7bbd
00000110: 25cb 813d fbfe a83b 6e26 54bc f4cb 623c
00000120: d6cc b83b 795a cebd 22b1 22bd 8f7d cb3c
00000130: 6c0c d53c d1cc fa3c e0c6 4f3b 18e2 9ebc
00000140: d6ef 253d 77e7 09bd 6d7c c7bd 5c6b 92bd
00000150: 5d28 753c c9eb 41bd 8f38 e5bb a397 2dbd
00000160: bea9 2fbd 0667 d33a 1b48 b1bd 7dcd 09bd
00000170: 2629 9f3d f2bd 3b3d b483 223a 20c7 023d
00000180: f78e 4dbd d38e 1cbd 6ee5 a8bc fe7e 583d
00000190: 9a80 06bd f065 b23c de3a 83bd fe0b a2bd
000001a0: 013a 21bd 106f 233d 74e0 14bd 4838 d9bd
000001b0: 8efb a2b9 ef95 a9bd 98b2 5abd b7d7 dfbc
000001c0: a2d9 b9bc 6ed5 ecbd e3de 37bd a34e b53b
000001d0: 8724 5e3c a0db 863c 2e0d 54ba a814 1a3d
000001e0: 4b79 0bbd cf97 45bb 19b2 403b 2c50 b43b
000001f0: f964 903c 6634 57bd 9461 b03b 7ea2 5bbd
00000200: 52ac 38bd 0f30 89bd 396f 1dbc be8c b5bd
00000210: 7855 1d3c da67 cabd 071b 833d 6b77 1bbd
00000220: e8ac 93bd d7e8 3ebd bc12 09bd 1356 dd3c
00000230: 616b 69bd 2c86 9c3d 2b2a 37bd 1217 d33c
00000240: ff11 5cbb 9fe4 b9bb 8441 2fbd 91bf 88bb
00000250: 3f9f d5bd 3ffb 9abd 9aab 123d 1e22 333d
00000260: 53bd 163d 3cb6 433d d231 083c 6aaa c33c
00000270: df3c 7d3d e635 16be f2b7 7abd f173 d8bc
00000280: f9a9 aebd f8e6 8d3c 5e53 b1bc 1ad5 14bc
00000290: d92f 8dbd ea08 99bd f821 913c 03fb 0a3d
000002a0: d29a 633d 7fc1 553b 9c7f 63bd 7ad9 f2bb
000002b0: fd02 f43b 6cda f73c 83ca 43bd e85a 1dbe
000002c0: 1a8e 413d f658 12be 34d0 4fbc c063 da3a
000002d0: 2990 2e3d 87d8 d6bd 90d4 4c3c 3f53 d33c
000002e0: 9a38 9dbd 73bf 223d 0561 b0bb 0c3a 7dbd
000002f0: f95f 0fbe 74c6 e2bd 0a4b 3b3d bc41 03bd
00000300: c8b5 67bd c00b 5cbd d318 0a3d 05ad d6bc
00000310: d774 96bd 243c 18bc d1ac fcbc be97 88bc
-0.031813726 -0.1616011 -0.0057053836 -0.02491496 -0.0058172937 -0.04025036 0.03521476 0.0049414975
-0.0624951 -0.08094526 -0.04259745 -0.090611294 -0.023022821 0.040993556 0.019866481 0.010350571
-0.06902796 0.0516369 -0.013498535 -0.027255582 -0.011996285 0.041426126 -0.030000513 0.08595296
0.026758209 -0.020135825 0.02632931 0.011493811 -0.0066934223 -0.077112116 -0.05840029 -0.01487286
0.058134697 -0.085509025 -0.03289355 -0.047636844 -0.03800356 -0.072502606 -0.006843506 -0.03075503
-0.064574674 0.0028096153 0.04678882 -0.071912766 -0.02027601 -0.0981876 0.04902239 0.06416157
-0.009010848 -0.036766957 -0.10283616 -0.015216087 0.007649421 -0.0035759665 -0.029338619 0.02340163
-0.095453836 0.044112306 -0.10509842 0.0323185 -0.10949178 -0.08352815 -0.086359836 0.03789383
-0.0522741 0.022684366 -0.0558101 -0.06140529 0.06337575 0.005157349 -0.0129486155 0.0138425715
0.0056396527 -0.1007585 -0.03971971 0.024840144 0.0260069 0.030615242 0.0031704232 -0.01939492
0.04051193 -0.033668008 -0.09740529 -0.071493834 0.014963237 -0.047344003 -0.0069952677 -0.04238094
-0.04288649 0.0016128726 -0.08656331 -0.033643235 0.0777152 0.045835443 0.0006199435 0.03192818
-0.05018517 -0.038222145 -0.020617213 0.052855484 -0.032837488 0.021777123 -0.064077124 -0.079124436
-0.039361957 0.03990084 -0.036346868 -0.10606438 -0.0003108647 -0.08280551 -0.053392977 -0.02732454
-0.022686783 -0.11564146 -0.044890296 0.005533056 0.0135585135 0.016462147 -0.0008089122 0.037617356
-0.03405122 -0.00301503 0.002940303 0.0055027213 0.017626273 -0.052540205 0.005382726 -0.05362176
-0.045086212 -0.066986196 -0.009609037 -0.08864735 0.009602897 -0.09883089 0.064016394 -0.037955683
-0.072107136 -0.046608772 -0.033465132 0.027018582 -0.05698717 0.07642779 -0.04471795 0.025767837
-0.0033580062 -0.0056730057 -0.04278709 -0.004173227 -0.104307644 -0.07567453 0.035808183 0.04373371
0.036801647 0.047781214 0.008312659 0.02388497 0.06182563 -0.14668998 -0.06121058 -0.026422473
-0.085285135 0.017322049 -0.021646198 -0.0090840105 -0.06893892 -0.07472403 0.017716393 0.03393079
0.05556757 0.0032616553 -0.05554162 -0.007411179 0.0074466453 0.030255519 -0.047800552 -0.15366709
0.04725466 -0.14291748 -0.012683917 0.0016661808 0.04261795 -0.10490518 0.012501851 0.02579653
-0.076768115 0.03973336 -0.0053826594 -0.061822936 -0.14001454 -0.11073008 0.04572586 -0.03204511
-0.056569844 -0.053722143 0.03371508 -0.026205549 -0.07346504 -0.009291682 -0.030844124 -0.016673919

hidden1_Y1.weight f4 [200, 200]
00000000: acd8 c9bd 92e1 ac3d 2112 ecbd 7968 963d
00000010: f391 a6bd 70d8 51bd 0e2a eb3d d763 d93c
00000020: b9a1 8dbd 3065 c43c 701b dc3d a444 0ebc
00000030: 2f64 483d 8bfa 7a3d 52b0 bcbd 127f 8cbb
00000040: b15f c2bd a62a da3d 1cc8 573d ba0f 963d
00000050: 5bd9 953c cb73 15bd 6c91 d2bd 29df efbd
00000060: 6252 05bd b9fb a93d 881a a43d d1b7 8fbb
00000070: f5bc 82bc da1a a0bd f18d 083d bbca 353d
00000080: 82c9 0bbd 4567 87bd 2bc7 0dbd 37ed b53d
00000090: 05c7 0e3c e64f e23d a9af e0bc b9af a53d
000000a0: dfcf 6dbd e5a8 913d 9d4d babb 0fb5 d93d
000000b0: 472d f5bc 7818 7a3d 2de3 5d3a 051a 15bd
000000c0: fc3f f43d 713e 2a3b e3d7 e83a 15ac a13d
000000d0: bd96 6c3d 42d5 dcbc 70f1 753c c096 dc3d
000000e0: 5879 473c bfe0 97bc 7106 96bd 30cb 7fbd
000000f0: 459b a53d da9d cabd 1b26 b2bd 3b80 3f3d
00000100: 8cb2 c23d 4dcf cebd f2e1 bf3d 6a29 f13d
00000110: f44c 0f3a 374e 933c 357e 3f3d be03 fcbd
00000120: 1c6b 1f3d 270d 443b 1ce2 b9bd 1e8e 323d
00000130: fcc5 c2bd 61b8 8f3d 8235 f7bc c707 173b
00000140: d7a1 c8bb 4913 b03d 506f 83bd 6294 52bb
00000150: a75a 123c 8de0 893d aff9 d3bd f553 2cbd
00000160: 51fb 343c 5ffe afbd 0bbd d7bd 3042 97bd
00000170: 8c72 9bbd bae4 a23d b781 6f3d cba0 cfbd
00000180: da74 d4bd ee4d 35bd 60ab d9bc 2d44 b03d
00000190: f542 a23d c9b0 10bd 0c8b 8a3d f3cc 9b3d
000001a0: 2c83 d53d d324 1f3d 5856 7ebb e39c 80bd
000001b0: b607 d73d a7fa f23b 23e8 85bd 98bb 97bd
000001c0: facf ebbd f833 8fbc 561d 32bd 9b72 b9bd
000001d0: 0955 203d e3e5 6cbd a80b 273c 0465 1e3b
000001e0: b117 d73c 6a47 debc 7dca 253d 8193 46bd
000001f0: 345a 313d 7ef8 4b3d 45d3 c4bc 54c7 9e3d
00000200: bb1a 1bbd c073 b2bd aa66 a83d f864 bb3c
00000210: b8f8 833d a48a 8c3d 5c18 02be f1cd 0e3d
00000220: b0bf 043d 4bb0 1e3d e677 cb3d f5a0 e7bd
00000230: 63a2 fbbd ab5b b0bd 9686 ba3d ea28 9fbd
00000240: 4226 04bd 8d88 313a c3bc afbd 7469 c6bd
00000250: 25d2 053d ab7e 63bd b50d cc3c 6912 57bd
00000260: 7d4b 02bd 02a4 d93d de29 10be d014 e7bc
00000270: aa03 92bc cec8 933c 79ad 953d 6a29 13be
00000280: 14b0 ff3d de98 46bd a9dc bfbc 63b2 a23d
00000290: 7591 4bbd 18cf dabd 7851 70bd 84b6 89bd
000002a0: 2758 1ebd fe49 e4bd 9fa7 dcbd 7d48 8bbd
000002b0: b99d 783d 2956 c93d 057d c03c 8e82 8f3d
000002c0: fd19 82bc 92cf e43d a442 f9bd f5f9 aabc
000002d0: a336 c3bd efc8 9a3a cf45 1cbd b958 9fbd
000002e0: 16ce 5fbd 98b0 053d ec5b a5bd f47e 633d
000002f0: 8a09 c33d 932b 8c3b 936c 1a3c 6b29 833d
00000300: 0aa8 d23d 73b1 2b3d 5a65 a1bd 7084 1ebd
00000310: b9b1 08bd 0a2f c3bb 2a51 503c 997f e53d
00000320: 8167 5fbd 0d51 1fbd 51f2 adbd f084 8ebd
00000330: 7b37 cf3d 8c06 063e 29b2 ee3c afcb 67bd
00000340: 3c1a b43d 7d57 d7bc 21b2 d5bd 1aa9 b0bd
00000350: 9d1b 9cbd 2fc9 debc 92b1 c53c 37dc d83c
00000360: 2def 1dbd 2884 86bd 5db8 043e 10f1 c23c
00000370: 5610 e53d 179e c73d b50e 0a3d a02c 0cbe
00000380: f6be a5bc c768 fd3d 1695 b5bd 0f6b 8f3c
00000390: 0f07 22bd cef6 f33d 0e2b 333d e737 413d
000003a0: e9cf a13d 9b48 3b3d e8b7 2e3d 08cb 1bbc
000003b0: 8804 ed3d 19ba 1f3c 8a14 89bc 156d c73d
000003c0: 1b30 4fbc ee0e a53d d265 e5bc 151d 9ebd
000003d0: 3b06 f1bb de7e b03d f079 80bd a803 b63d
000003e0: bf8f 963c adf1 12bd bc03 ecbd 0af4 a7bd
000003f0: beda 593d 703e a6bb f61e 9cbd 06cd 0dbc
-0.0985578 0.084414616 -0.11526895 0.07344145 -0.08133306 -0.0512318 0.11482631 0.026536865
-0.06915612 0.023974031 0.10747421 -0.008683357 0.048923668 0.061274093 -0.09213318 -0.004287609
-0.09490908 0.10652666 0.052681074 0.07327218 0.01829212 -0.036487382 -0.10281643 -0.11712486
-0.03254927 0.082999654 0.08012873 -0.0043859263 -0.015959242 -0.078176215 0.03333849 0.044382792
-0.03412772 -0.06611494 -0.03461377 0.08883136 0.008714442 0.11050396 -0.027427511 0.08090157
-0.05805957 0.07112292 -0.0056855218 0.10630237 -0.029928816 0.06105849 0.0008464333 -0.036401767
0.119262666 0.002597716 0.0017764535 0.0789415 0.057760943 -0.026957158 0.0150111765 0.10770941
0.012174927 -0.018539784 -0.07325447 -0.062449634 0.08086256 -0.09893389 -0.08698674 0.04675315
0.09506711 -0.10098133 0.093692675 0.11775477 0.0005466484 0.017981632 0.04675122 -0.12305401
0.038920507 0.0029915066 -0.0907633 0.043592565 -0.09510419 0.07017589 -0.030176882 0.0023045407
-0.0061228084 0.08597428 -0.064177155 -0.00321319 0.008932746 0.06732283 -0.10350358 -0.042072255
0.011046247 -0.08593439 -0.10534104 -0.07385671 -0.075902075 0.079537824 0.058473315 -0.10138091
-0.1037385 -0.044263773 -0.026570976 0.086067535 0.07922927 -0.035324845 0.06764802 0.0760745
0.1042541 0.038853478 -0.003880879 -0.06279924 0.104995176 0.007415134 -0.06538417 -0.074088275
-0.11514278 -0.017480835 -0.04348501 -0.090550624 0.039143596 -0.057836425 0.01019565 0.0024169097
0.026256414 -0.027133662 0.04047631 -0.048480514 0.043298915 0.049797527 -0.024026522 0.077528626
-0.03786729 -0.08713484 0.082227066 0.022875294 0.06443924 0.06862381 -0.12704605 0.03486437
0.03240937 0.038742345 0.09934978 -0.11309997 -0.12286832 -0.08611234 0.091077015 -0.077714756
-0.032263048 0.0006772362 -0.08580925 -0.09688082 0.032671113 -0.055540722 0.02490888 -0.05250779
-0.031810272 0.10626985 -0.14078471 -0.028208166 -0.017824013 0.018040087 0.07308478 -0.14371267
0.12484756 -0.04848563 -0.023420649 0.07944181 -0.049699266 -0.10684031 -0.058671445 -0.06724265
-0.038658287 -0.111469254 -0.10774159 -0.068009354 0.06069729 0.09830887 0.023497114 0.07007323
-0.015881533 0.111724034 -0.12170914 -0.020871142 -0.095319055 0.001180915 -0.038152512 -0.077805944
-0.0546399 0.032639116 -0.08074173 0.055540994 0.09523304 0.0042776554 0.0094253 0.06404384
0.10285957 0.041917276 -0.078806594 -0.03870052 -0.033372615 -0.005956535 0.0127146635 0.11205978
-0.05454207 -0.038895655 -0.08493484 -0.069589496 0.10118004 0.13088435 0.029137688 -0.056590732
0.08794066 -0.026286835 -0.10434366 -0.086260036 -0.07622454 -0.027195541 0.024132524 0.026472194
-0.038558174 -0.065681756 0.12960954 0.023796588 0.111847565 0.0974695 0.033705432 -0.13688898
-0.020232659 0.123735 -0.088663265 0.017507104 -0.039557513 0.11912309 0.043742232 0.047172453
0.07900984 0.04572354 0.042655855 -0.009508856 0.1157313 0.009748959 -0.016733427 0.097376026
-0.012645747 0.08059488 -0.028002653 -0.07720391 -0.007355479 0.08617948 -0.06273258 0.08887416
0.01837909 -0.03587501 -0.1152415 -0.08200844 0.053187124 -0.005073361 -0.07623093 -0.008654838

hidden1_Y1.bias f4 [200]
00000000: 94e5 f13c 4fe2 753c 42e8 643d 5f0f ee3c
00000010: 8615 f33c 7dcc 803d 876d ed3c 8cff 59bd
00000020: c948 cd3c b2f9 3bbc be4e a43b 50f8 633c
00000030: b81e 243d ed02 543d 6b31 293d eccb 043c
00000040: 2566 2e3d f84c adbd a2bc eaba 8b0a 69bd
00000050: a694 5e3b 1203 26bd 81d9 97bc 8dde 92bd
00000060: 1f8d 3dbd 4d72 90bd eed4 193d 1372 95bd
00000070: 87a8 fe3b 7414 dc3c b8b2 ce3b 62a4 9cbc
00000080: 1d79 aa3b 2b60 753c 587b 063d c6c3 013d
00000090: 9887 c13c cf9a 01bb 171a 2abd 2003 df3c
000000a0: f973 63bd 079e 74bd 0d96 c53c 2487 a4bc
000000b0: 1636 2b3d c79b a83b 6d8a 76bd 4f97 66bd
000000c0: 5d29 4dbd bb01 55ba e712 6e3c 4aac 543d
000000d0: 4220 81bd a70f 82bd 6052 a9bc 8246 bc3c
000000e0: 528c 26bd 7a28 20bb d94d 183d 273d 98bd
000000f0: 997a 123c a9d3 2e3d e873 8c3b 7e45 f8bc
00000100: e6a6 5e3d 8229 80bd 836e da3c 45dd 9b3c
00000110: 6b94 5dbc d855 263d 4bc6 8d3d 30a3 623d
00000120: 3f8a 8abc 2adf 8cbd 065f 70bd 26e1 7c3d
00000130: a1d9 90bd d437 56bb 1ed1 ffba a3a3 e03b
00000140: e686 a83b 3dc5 6abd a4cb 56bc 1570 5cbc
00000150: 5c3c 173d fd7c a4bc 7991 20bd e6e6 60bd
00000160: 72a5 093d 28dc 8cbd 493d 31bd d82b 46bd
00000170: 254a 14bd 58d5 383d 66a5 0cbc 23f3 e73b
00000180: 91a5 1e3d 1b77 69bd e9e7 b93c 7e22 94bd
00000190: efc2 6abc d229 183d 64f1 44bb 5d50 d8bc
000001a0: fabe 8cbb d076 7fbc ba42 0fbb e6c7 1e3d
000001b0: d5e3 81bd 95bc 563d e5a6 adbc 99bc 993d
000001c0: 689c 37bd 439c 19bc edb4 91bd a73d 0839
000001d0: 8a96 43bd b1bc 313d 769f 953c eb34 313d
000001e0: 9294 8c3b 04e4 f93c 258b 89bc fec7 90bd
000001f0: 592d 94bc eb9b b2bd 012c 96bc cddc b03c
00000200: 5349 0ebb 609a c0bb 30a2 34bd 34ce 54bd
00000210: f798 0bbd 717f fdba 0960 67bd fc57 7dbc
00000220: f789 79bd 8056 25bd 455f 38bc 0f28 403c
00000230: 16da 823d b40c 1dbd d31a 893c 6f24 91bc
00000240: f857 823d f411 5abc e0f6 a53c d3cc 4e3c
00000250: c3f9 a7bc db8c eb3c 9e78 1dbd 8557 8a3d
00000260: c33d 0abd b4ea 09bd 5887 633d 8cc6 79bd
00000270: 7d62 8cbc 5afe 313d a9ea 833b 3150 ec3b
00000280: 5413 2b3c 25de 2ebc d994 86bd 389c e7bb
00000290: 34ba 4cbc 3de4 43bd b461 9bbd eccd 6e3d
000002a0: 52d8 d6bc 2d7e 3c3d 59ba 3a3d cd4b 513b
000002b0: 8800 06bd 502a 71bd a043 34bd 0810 28bd
000002c0: 5737 f73c c189 eb38 5b94 863d 5b12 adbc
000002d0: d8b6 143d 34b6 f1bc c35c 0a3a ebe8 cfbc
000002e0: e6b7 91bb 22d5 923d b6be 1fbd 77cc 203d
000002f0: 3c30 02bb a7d1 9ebc 1e23 833d e1b8 48bc
00000300: f91b dabc a6a6 91bd 4714 923c c834 12bb
00000310: 1db1 84bc f08b 88bd 248f 5bbd 7f33 94bc
0.029528417 0.015007569 0.05588556 0.029060064 0.02967335 0.06289003 0.02898289 -0.053222224
0.02505912 -0.011473106 0.0050142696 0.013914183 0.04006836 0.051760603 0.041306894 0.008105259
0.04257788 -0.08461946 -0.0017909 -0.05689482 0.0033963113 -0.04053027 -0.018536331 -0.071713544
-0.04627716 -0.07053051 0.03755658 -0.072971486 0.007771555 0.026865222 0.006307926 -0.019121353
0.005202426 0.0149765415 0.032832474 0.031680845 0.023624226 -0.001977611 -0.041528787 0.02722317
-0.055530522 -0.05972102 0.024119401 -0.020083971 0.041799627 0.005145523 -0.060190607 -0.056296643
-0.050088275 -0.0008125563 0.014530874 0.05192212 -0.06304981 -0.06350642 -0.020669162 0.02298284
-0.040661164 -0.0024438188 0.037183616 -0.07433539 0.008940362 0.042682324 0.004286278 -0.030306574
0.054358386 -0.06257917 0.026664024 0.019026408 -0.013524155 0.04060921 0.06922587 0.05533141
-0.016911624 -0.06878503 -0.05868437 0.061738156 -0.070727594 -0.0032687085 -0.0019517278 0.0068554445
0.0051430343 -0.057317007 -0.013110075 -0.013454457 0.036922798 -0.02007913 -0.039201234 -0.054907702
0.033605047 -0.06877929 -0.043271337 -0.048381656 -0.036203522 0.045125335 -0.008584356 0.0070785447
0.038732115 -0.056998353 0.022693591 -0.07233141 -0.014328702 0.037149258 -0.0030051107 -0.026405508
-0.004295227 -0.015592292 -0.002185984 0.038764857 -0.06342284 0.05242594 -0.021197746 0.07506675
-0.044826895 -0.009375635 -0.07114587 0.00012992938 -0.047750987 0.04339284 0.018264513 0.043263357
0.004290172 0.030504234 -0.016789982 -0.070693955 -0.01808803 -0.08721145 -0.01833153 0.021589661
-0.0021711185 -0.005877778 -0.044099987 -0.051954463 -0.034081426 -0.0019340349 -0.05648807 -0.015462872
-0.06092259 -0.040365696 -0.011253183 0.011728301 0.06389253 -0.038342193 0.016736424 -0.017717568
0.06364435 -0.013309944 0.02025932 0.012622076 -0.020504838 0.028753689 -0.038445108 0.06754974
-0.033750307 -0.033671096 0.055548996 -0.060980365 -0.017136807 0.04345546 0.0040257764 0.007211708
0.01044162 -0.010673081 -0.06571359 -0.0070681833 -0.012495566 -0.047825087 -0.07586995 0.05830185
-0.026226196 0.046018768 0.04558787 0.003193605 -0.03271535 -0.058878243 -0.044009805 -0.041030914
0.030177755 0.00011231332 0.06571265 -0.021126917 0.036307186 -0.029505827 0.0005278105 -0.025379619
-0.004446971 0.07169558 -0.039000235 0.039257493 -0.0019865176 -0.01938708 0.064031824 -0.01225111
-0.026624667 -0.07111864 0.017831935 -0.0022309292 -0.016197735 -0.06667316 -0.053603306 -0.018090962

hidden2_Y1.weight f4 [200, 200]
00000000: 2860 953d 65d8 bdbd 4e94 fd3c e9e0 0d3c
00000010: 82ea 14bd 4f8b 143c 9903 be3d ecc2 ddbd
00000020: 7a97 b2bd 92e1 a5bb 6949 71bd ceec c5bc
00000030: 5b77 81bd 248f c83d 65b8 adbc 5788 e3bd
00000040: f5e7 e03d 6662 bbbd 641f d63c a4db a7bc
00000050: 1ed5 813d 3fee 6f3d b547 53bd 5ca4 5f3d
00000060: c152 ab3d 2982 03bd 9a66 01be 2dfd 8e3d
00000070: 4460 bebd e30d 0d3d ff2d d8bd 982d 8dbd
00000080: ad73 a43b b762 ea3d e640 0ebd e29c 09bc
00000090: b8e3 05bd e994 b3bd 5d61 2a3d 950d 01be
000000a0: c92b a0bd 8e47 9dbd e8b7 94bc f31f 5cbd
000000b0: b45a d7bd 5d86 89bc 10aa abbd 1ce0 e63d
000000c0: 5400 95bd a074 3e3d 6403 d53c 566f b43d
000000d0: 0214 f6bd 83e6 fd3c 4d05 f1bc b8b8 00be
000000e0: e538 b7bc ef0a d9bc 1249 cc3d 3ea6 a93d
000000f0: 4ccd 5d3c f744 ebbd 270b babd a187 823d
00000100: 1af7 40bd d55a 73bc e6d3 9739 f2e8 223d
00000110: bb7b 803d 5005 adbd 5bba b5bc 8ee9 afbc
00000120: afaa 9ebd cdc7 0fbd 2eac 88bc fb58 9bbd
00000130: a762 47bd dab4 c63d 1e78 90bd 65d6 c6bd
00000140: 553e 67b9 a940 c13d ae14 693d e6f7 5bbd
00000150: 8d72 0f3c e69e a5bd 516d eebc 6dc9 393d
00000160: e476 efbc dd5b 703d 4ade 893d 79a3 cdba
00000170: 32d6 b23d e077 b23d ffd4 c73d 42b8 3f3b
00000180: fdc7 02bd fa93 5a3d 1c5e 5f3d 09a5 733c
00000190: 962a be3c 0b86 db3d 5728 c6bc 76f6 bb3d
000001a0: 80e9 4e3d b9b8 b9bd 40e7 fcbd 53c8 92bc
000001b0: e272 643d 1e69 f6bd 5378 983d 6189 443c
000001c0: c6d6 2ebc c55c dd3c 4a93 b9bd b042 493d
000001d0: 4a70 983c 6c34 d9bd 2401 a13d b906 b5bd
000001e0: 258f d9bd 70e7 4fbd fd19 da3d 825c 3cbc
000001f0: b1a7 1ebc dcc4 843d c8d5 523d 715b b5bd
00000200: 0526 1d3d f149 7fbd 0dd6 d0bd 46bc 8ebc
00000210: 096c 41bd ddda 893d eeb5 74bd 24b9 85bd
00000220: 0fc8 0dbe 74d1 893d 5b4e ebbb 6305 7fbb
00000230: 70e7 7e3d 5e66 e23b b5df cabd 83bc 2abd
00000240: 990d 06be d666 b6bd 8cd9 fcbd 0a05 863c
00000250: 31be 89bd cdc5 aebd 7daa 76bd ae8d febd
00000260: 98b6 c43d 42ad ebbd 1182 b63d 60e8 97bd
00000270: c5c2 e33d 467c 34bd 7bad e1bd 0c81 b9bc
00000280: 7427 90bd 3b72 d93c 26c7 c2bb 11b5 993d
00000290: 93dd bc3d 3503 86bd f4d7 edbb fd72 143d
000002a0: 6df0 e5bc 094e efbd d0ec 74bd 1e6a 7abd
000002b0: e300 e3bd 8f7d a73c b862 a1bd 8836 20bd
000002c0: 1610 c3bd 2bc0 e13d e168 ef3c 0ec3 b3ba
000002d0: 0bd1 e5bd a994 c2bd 30d7 a1bd 183a 153d
000002e0: 7e7f b0bd a8bf f6bd 2761 e1bd bdc1 91bd
000002f0: 5c82 02be 942c f23b ec7c 9b3d 51d6 c3bb
00000300: 79aa a03c f7bb 9bbd dbf0 2b3d e3bc 5b3b
00000310: 55fd 4f3d 016d 00bc 7371 c9bd d95a d7bc
00000320: 4a1e bcbc 6a8f 973d 3ffc 85bd a296 e23d
00000330: d241 b53c 8615 cfbd 5a58 ba3d 0227 cf3d
00000340: 31df 2c3d 3cd6 b7bd 2c28 62bd 87b1 333a
00000350: 11e1 843c 5182 3c3c a3b8 23bd 24c7 eabc
00000360: d110 b6bd e42c d63d c995 00be 6540 c23d
00000370: a3a9 a23d 76af e3bc 032b 8e3c cc6f 013e
00000380: 8f4b 46bd d050 bdbd 72e7 8e3b 4c69 c23c
00000390: 15a4 423d 77f7 59bc 8c84 76bd 1099 f2bc
000003a0: c869 423c a771 a7bd ab83 3bbd 077e 16bd
000003b0: b463 cf3d 37c4 3ebd c53b 373d af15 e8bc
000003c0: 3450 963a ccbe 00be 3d08 f23a d1c5 4e3c
000003d0: 3474 403d abe5 59bd 291a c7bc 7c22 043e
000003e0: 725c 3b3d e01a 933d 3693 d33c 55d5 9dbc
000003f0: 3cb6 93bd 9b17 9d3d b624 913d c807 dabc
0.07293731 -0.092697896 0.030954506 0.00865958 -0.036356457 0.009066417 0.0927803 -0.10828194
-0.08720298 -0.0050622905 -0.0589079 -0.024160769 -0.063215934 0.09792927 -0.02120609 -0.11109989
0.10981742 -0.091496274 0.026138015 -0.020490475 0.06339477 0.05857682 -0.051582057 0.054600105
0.083653934 -0.032106552 -0.12636796 0.06981883 -0.09295705 0.03443707 -0.10555648 -0.06893462
0.0050186724 0.114446096 -0.03472986 -0.00839922 -0.032687873 -0.08768637 0.04159676 -0.12602837
-0.07820851 -0.076796636 -0.0181541 -0.053741407 -0.10515347 -0.016787702 -0.08382046 0.11273214
-0.07275453 0.04649794 0.026002593 0.08810298 -0.12015535 0.030993706 -0.029421473 -0.12570465
-0.022365997 -0.026494471 0.099748746 0.08283661 0.013537716 -0.114877634 -0.090841584 0.063735254
-0.047110654 -0.014853199 0.0002895884 0.039772935 0.062736 -0.08448279 -0.022183588 -0.021473672
-0.07747399 -0.035102654 -0.016683664 -0.07585331 -0.048678067 0.097024634 -0.070541605 -0.09708861
-0.00022053097 0.09436161 0.056904487 -0.05370321 0.008755338 -0.08086948 -0.02910486 0.04535811
-0.029231496 0.058681358 0.067318514 -0.0015688977 0.08732261 0.087142706 0.09757423 0.0029254113
-0.031929005 0.053363778 0.05453311 0.01487089 0.023213666 0.10718926 -0.024189157 0.09177868
0.05051565 -0.09068436 -0.12348795 -0.017917788 0.055773623 -0.12031768 0.07444825 0.011995644
-0.010671323 0.027021775 -0.09061296 0.049135864 0.018608231 -0.10605702 0.07861546 -0.08839173
-0.10623006 -0.050757825 0.10649488 -0.011496665 -0.009683535 0.064828604 0.05147341 -0.08855332
0.038366336 -0.062326375 -0.10197077 -0.01742376 -0.04722217 0.06731198 -0.059743814 -0.065294534
-0.13845848 0.06729403 -0.0071809716 -0.0038913123 0.062232435 0.006909176 -0.0990595 -0.041683685
-0.13091125 -0.08906333 -0.12346181 0.016359825 -0.06725729 -0.08533821 -0.060221184 -0.12429367
0.096051395 -0.11507656 0.08911527 -0.07417369 0.11121134 -0.04406383 -0.11019417 -0.022644542
-0.07038775 0.026543727 -0.0059441505 0.07505239 0.092219494 -0.065435804 -0.0072584096 0.036242474
-0.028068746 -0.11684806 -0.059796154 -0.061136357 -0.110841535 0.020445613 -0.07880157 -0.039114505
-0.095245525 0.11022981 0.029224815 -0.0013714747 -0.112215124 -0.09501011 -0.07902372 0.036432356
-0.08618067 -0.12048274 -0.110048585 -0.07117031 -0.1274504 0.007390568 0.07592186 -0.0059764762
0.019612538 -0.07604211 0.041977745 0.0033529333 0.050778706 -0.007838489 -0.09836092 -0.026288437
-0.022963662 0.07400401 -0.06542253 0.11063887 0.022126112 -0.10111527 0.09098883 0.10114862
0.04220504 -0.08976409 -0.055214092 0.0006854762 0.016220601 0.011505679 -0.039971005 -0.02865941
-0.08889926 0.10457781 -0.12557139 0.094849385 0.07942512 -0.027793627 0.017354494 0.12640303
-0.048411902 -0.092439294 0.0043610865 0.02373185 0.047519762 -0.013303629 -0.060185 -0.029614002
0.0118660405 -0.08175974 -0.045779865 -0.036741283 0.10126439 -0.046573844 0.044734735 -0.028330652
0.0011467994 -0.12572783 0.001846559 0.012620405 0.04698582 -0.053197544 -0.024304466 0.1290378
0.04574246 0.071828604 0.025827032 -0.019266764 -0.07212493 0.07670518 0.0708708 -0.026615039

hidden2_Y1.bias f4 [200]
00000000: 0614 56bd f098 233c a9db 2d3d e291 9bbb
00000010: 5e56 8cbd c86a 2bbd 7537 a0bd 08a1 91bd
00000020: 32f4 25bc 693d f63c 1667 1ebd 26dd 5cbd
00000030: cb8f d9bc e43c cdbc e484 8d3d fa9b 893d
00000040: 63ec 893c cf5b 53bb 8c73 593c 1df9 40bd
00000050: 381b 653d bce9 7e3a 0dc8 6e3d 9bd0 d2bc
00000060: a7ed 1c3d b843 79bd 1650 ad3b 330a 48bc
00000070: 6dcf 11bc 41a5 723d 6c2a 3fbd b7e5 8dbd
00000080: a77d 703d bcd1 9dbd 78f4 d0bc b128 423c
00000090: 4cee 77bb 93c0 ae3c 3988 493d 8f35 573d
000000a0: 8ea2 abbc 3e66 1bbb a8f4 0cbd 1ce8 f73c
000000b0: fa0c df38 0cef 4fbd 18b1 73bb 0ec0 08ba
000000c0: 2847 7d3d eb7e ca3c 02a9 003c 2e63 46bd
000000d0: 763f 58bd 48ed 043d 95a5 303d af56 22bd
000000e0: 80bd 94ba 4757 2ebc 26d0 903b eed7 0cbd
000000f0: a74e 61bd 930c 68bc a990 2e3d 673a 03bc
00000100: cfd2 3e3d 6996 d0bc a17b 513c f6e5 20bc
00000110: b70a 823d b922 3fbd d94f f33c 4dbf 95bd
00000120: a0f7 313d f75a 553d 1132 1ebc 9482 7e3d
00000130: 7ea3 54bc 45e4 babc 68bc acbc 3522 1c3d
00000140: eb28 04bd 7de4 39bd b651 113d e725 073d
00000150: e544 f9bc cd36 2f3d 32a8 88bd 9a1f 453d
00000160: 0b79 6ebc f107 883d 8893 00bd b7b4 46bc
00000170: a99d 513d 018a b2ba 0791 81bd 3bb1 bf3c
00000180: 7965 73bd c7c1 29bd c102 79bd e099 d73c
00000190: e6c3 65bd 555d 92b9 2771 603d 09b6 823d
000001a0: 0520 22bc 828e 99bc 2b76 95bd ec48 b33c
000001b0: ee08 49bd bd4f 4fbd a81d 09bb 1b1e 343d
000001c0: 6d72 f63c c6eb 28bc f193 783d 50a8 9fbd
000001d0: 940c 8b3c ed14 823d 43a6 b6bc 70db 53bd
000001e0: ed33 7bbd c4e9 2d3d eec5 be3c 9892 7a3d
000001f0: 0de7 5a3d 7998 0e3d 25ec 43bc 7361 6c3d
00000200: e05d 933c b1d9 bebc 6358 833d cda4 aa3c
00000210: 587c 8cbd 6450 f6bc 52ff 0ebd 1ee6 17bd
00000220: 5d0c e8bc 289f 86bd 5267 8b3d 442c 1a3d
00000230: f49c 19bc 607a 863d cf1d 49bb d814 e73a
00000240: b88d 61bd 272e 39bd bc71 b8bc c7be 07bd
00000250: 7ac6 383d 9c39 83bd 02bc 81bd 24dd 27bd
00000260: 3190 5a3d cfda 9cbd 6845 573b e08a 673d
00000270: 0c69 043d c4ef a73c 8989 c93c d2eb 50bd
00000280: 1afb 213b af49 c9bc 9d75 45bd 7860 00bd
00000290: f5ab 55bd 1310 a03d a7be 9c3c f363 743d
000002a0: 4b43 99bd 1caa 2d3d bdc7 9abc 9914 5ebd
000002b0: a226 4f3d 8445 d13c d2d8 7a3c 87f5 0b3d
000002c0: 1ea5 09bd 54a3 f3ba 0f55 ef3c 1cd2 6d3d
000002d0: c884 093d 18e5 79bd 721d 17bd 7499 6c3d
000002e0: 7a45 81bd 066e 4dbd 353f 85bd 094b 8d3b
000002f0: f2a4 823c 9f6c f43c d427 7a3d 77c8 2abd
00000300: 9590 7bbd 2cf4 223d d370 873d 0907 13bc
00000310: 461a 973b 6995 7bbd 5081 743d ccb9 6abd
-0.05226519 0.009985194 0.042445812 -0.004747615 -0.06852411 -0.04184988 -0.078230776 -0.071107924
-0.0101290215 0.03005858 -0.03867253 -0.05392184 -0.026557824 -0.025053449 0.069101125 0.06719203
0.01683635 -0.0032250767 0.013272177 -0.047112573 0.05593416 0.000972416 0.058296252 -0.025734236
0.03831258 -0.060855597 0.005289088 -0.012209463 -0.008899552 0.05923963 -0.046671316 -0.0692858
0.05871358 -0.07706019 -0.025507197 0.011850522 -0.0037831245 0.02133206 0.049202178 0.05254131
-0.020951536 -0.0023712064 -0.03441301 0.030262046 0.00010635886 -0.050765082 -0.0037184414 -0.00052166067
0.061835438 0.024718722 0.007852795 -0.04843443 -0.052794896 0.03245285 0.04312666 -0.03963345
-0.0011347979 -0.010640926 0.0044193445 -0.034385614 -0.05500665 -0.014163154 0.042618427 -0.00800953
0.04658776 -0.025462346 0.012785823 -0.009820452 0.063497 -0.046663973 0.02970116 -0.07311878
0.043449044 0.052088704 -0.009655491 0.062136248 -0.012978433 -0.022813926 -0.021085933 0.03811856
-0.032265585 -0.04538392 0.035478316 0.03299513 -0.03042836 0.04277687 -0.06672706 0.04812584
-0.014555226 0.0664214 -0.031390697 -0.012128047 0.051175747 -0.0013621451 -0.0632649 0.02339994
-0.059422944 -0.041444566 -0.060793642 0.02631849 -0.056095026 -0.00027916828 0.05479541 0.06382377
-0.009895329 -0.01874471 -0.072979294 0.021885358 -0.04908078 -0.050613154 -0.0020922218 0.043974023
0.03008386 -0.010310119 0.060687963 -0.07795775 0.016973771 0.063516475 -0.022296077 -0.051722944
-0.061328817 0.042459264 0.02328774 0.06117496 0.053443003 0.034813378 -0.011958157 0.057710122
0.017989099 -0.023297163 0.06413343 0.020830536 -0.06859654 -0.03006763 -0.03491146 -0.03708469
-0.028326208 -0.065733254 0.06806816 0.03763987 -0.009375799 0.0656631 -0.0030687933 0.0017630113
-0.055066794 -0.04521003 -0.02251517 -0.033140924 0.045111157 -0.064074725 -0.06334688 -0.04098238
0.053360168 -0.07658922 0.0032847766 0.056528926 0.032326743 0.020500071 0.024601715 -0.051006146
0.0024716319 -0.024571268 -0.048207868 -0.031342 -0.052165944 0.07815566 0.019133879 0.05966563
-0.07483538 0.042398557 -0.01889407 -0.054218862 0.050573952 0.025545843 0.015310483 0.0341697
-0.033604734 -0.0018588104 0.029215364 0.058061704 0.033573896 -0.061009496 -0.036893316 0.05776353
-0.0631208 -0.050153755 -0.065061964 0.0043119234 0.015947793 0.02983695 0.06107314 -0.041695084
-0.06141718 0.03978364 0.066133164 -0.008973845 0.0046112863 -0.061421786 0.059693635 -0.057306096
