Results/Models/NN_DCN_model_iter_id_3_epoch_100_lr_0.001.pth (torch, 828110 bytes, 16 tensors)

shared1.weight f4 [200, 17]
00000000: ec0d 9e3c efb1 0b3d b8e0 513e 866a fa3d
00000010: f047 30be d249 963d 3de1 103e b372 2bbd
00000020: 0660 863d 125b 933d 6ec9 0f3e e3a3 93bd
00000030: e032 b23d e3bd 82bd 1764 ecbd a6cb 53bd
00000040: 5717 04bd 46ab 4f3d 915b 04bd ac1d 51bd
00000050: 5451 8b3e f759 35be 729b 70bb c665 ef3d
00000060: 7dbe 0e3e 0500 1cbe 51e0 efbd 0ef5 e43d
00000070: 67b3 f1bd d5b9 cf3c 17ca 063d be8d f2bd
00000080: 54bf afbd b930 5f3e 0b8c dcbd 7da6 ebbc
00000090: 1e2f c33d 5221 cd3c e678 50be 8c34 cd3d
000000a0: 4190 25bc 6a00 c5bb 0437 273e c26f 83bd
000000b0: 4d53 d9bb 5975 683d a025 0c3e d9a4 02be
000000c0: 6327 323e fe7b 3c3d 415a 07bd 5284 1dbe
000000d0: ddba a3bd cac5 15bd baad 823e b152 133d
000000e0: ff19 853d 7286 193d 6fbb a93d 7e20 12be
000000f0: d889 033e a330 a73d 2f31 26bd c3f7 173d
00000100: 8b2b 2c3e 53b8 0ebe 8f69 e63b b959 483d
00000110: 608e 403d 028c 2b3d bc46 1fbe 2778 113e
00000120: a5b3 50bc 1eae 943a 1181 d3bd 2361 413e
00000130: 32e5 69bc f5b1 89bd 6545 acbd 84d6 0bbd
00000140: a141 ddbd 1f09 31be ecd4 473d 3415 c43d
00000150: 509b de3d 3b2c 58bd ed2e 923d 0cfd 103e
00000160: b54f 70be 0297 223d cfbf 86bd 539c 8a3d
00000170: 4caa 403e 230c 3fbd 604b 363d 48fe ab3d
00000180: 9a93 f7bc a70b df3d 7c42 0fbd 714b b83d
00000190: d661 10be e21d cabd 1c42 18bc f2d9 4b3e
000001a0: 7a6d 1e3e de87 893e 95f6 e43c b159 4bbd
000001b0: 22e6 313e 63ef 433c 6da2 c43d c4cc 2dbe
000001c0: 2b95 fbbd cacd d0bd 8463 14bd 505e 043e
000001d0: 511f 13be 51b3 f33c 12d9 7f3e 9ccc 92bd
000001e0: 6bce d8bc 5b15 bdbd 4cef d43d dd52 b9bc
000001f0: a07c 87bc a5bf cb3d d26f e03d 7b3d 753d
00000200: 06dc 8b3d ff23 42be 6219 21bd b3da 09bd
00000210: 0dfe dabd ec00 fd3d 3466 3b3d cced 98bc
00000220: 8f98 a13d 19f5 39bd 189f ad3d 8897 df3d
00000230: 748c 3bbe 1510 1cbe f00d a0bd 1d9e 6ebe
00000240: 68b8 c43d 15ea b83d 2ff5 f7bd 293f 253e
00000250: 46d2 2ebe 2c76 173e 456b 333d 015a 4abc
00000260: 732a 793d c161 4bbc dbe4 97bd dd8e 2d3e
00000270: adda 5abd 2184 38be 173e 06bc 676b 10be
00000280: e75f dfbd 6784 a43c 67e7 f1bd 8eed ff3d
00000290: b6e7 4dbd f3fb 843d 9496 203e d582 453b
000002a0: 8402 81bd e4e0 7cbe 6e10 c0bd 4b12 d1bd
000002b0: 8b04 febb a6ca bf3d d251 67bc 7973 183e
000002c0: d8e7 883d b0bd 573d 0cc8 b8bc 4046 19bc
000002d0: e5be 143e 65f6 12be d629 ae3d 15b8 6dbd
000002e0: 56db 3dbe 48e5 efbd 82b5 303e 6f12 b5bd
000002f0: 51cd 953d 398a 2cbc f073 1cbe 66af 543d
00000300: c51d c33d f3eb c23c a133 023e fe01 a93d
00000310: 6cc4 88bb 65a1 77bd 260a 593d 22a9 e5bd
00000320: 0a35 8fbd 1823 33bd 30ca cbbd 12ec a9bd
00000330: b3c9 393d c40a bebd e71d 263e 8aaf db3b
00000340: 8107 283d b9a4 77be eaf0 213e 5955 c9bd
00000350: 0e15 2abd 0f6a a9bd 9fa6 853d 05d4 10be
00000360: dd13 033e 8ffc 5abc f808 0dbd 06d3 29bd
00000370: b494 debd e022 cdbd a4b2 18bc 4ca0 8bbe
00000380: d0e7 c1bd f071 033d a7e3 6abe 716e 003e
00000390: fff3 e5bc a866 073e 76b3 5bbd 9a4e a23d
000003a0: e322 39bc 3c1d 133e e8cb 17bd 6117 9a3c
000003b0: 9e2b 8c3d b940 6fbd 9561 db3c 34f5 1c3e
000003c0: ddda 823b e091 393d 18c2 fcbd e911 f43c
000003d0: 9752 923c c33a 933c dcfd 3ebe 04e9 b4bb
000003e0: c545 c4bd 6f6d df3c e951 a2bd cbaa 3a3d
000003f0: 829a 7b3d 8418 173d 0419 6bbd e555 ec3c
0.019293748 0.034105238 0.2049588 0.12227349 -0.17214942 0.07338299 0.14148422 -0.041857433
0.06561284 0.07195105 0.14041683 -0.07208993 0.0870111 -0.06383874 -0.11542528 -0.051707886
-0.03224882 0.05070045 -0.032313887 -0.051053688 0.27210486 -0.177101 -0.0036713746 0.116893336
0.13939853 -0.15234382 -0.11712707 0.11179553 -0.118017964 0.025357166 0.03290757 -0.118434414
-0.08581415 0.2179593 -0.107688986 -0.028765911 0.09530471 0.025040302 -0.20358619 0.10019788
-0.010105194 -0.0060120123 0.1632958 -0.064178005 -0.0066322447 0.056752536 0.13686228 -0.12758197
0.17397837 0.046016686 -0.033045057 -0.15382507 -0.07994626 -0.03656558 0.25523168 0.035967533
0.06499099 0.037481733 0.08287703 -0.14270207 0.12845552 0.081635736 -0.04057425 0.03710152
0.16813485 -0.13937502 0.0070316265 0.04891369 0.04701078 0.04188157 -0.15554327 0.1420599
-0.012738143 0.0011343395 -0.10327352 0.18884711 -0.014275836 -0.06723396 -0.084116735 -0.034140125
-0.10803533 -0.17288636 0.048787042 0.09574357 0.10869467 -0.052776556 0.07137857 0.1415903
-0.23467906 0.039694794 -0.06579553 0.06768098 0.18814963 -0.046642434 0.044505477 0.0839811
-0.03022175 0.108908944 -0.034975514 0.08998764 -0.14099821 -0.09868981 -0.009293105 0.19907358
0.1547145 0.2686147 0.02794961 -0.049646083 0.17372945 0.01195893 0.09601293 -0.16972643
-0.12284311 -0.10195501 -0.036227718 0.12926602 -0.14367415 0.02974859 0.2498515 -0.071679324
-0.026465615 -0.09232589 0.10397205 -0.02262252 -0.016538918 0.09948663 0.10958828 0.059873085
0.068290755 -0.18959044 -0.039330848 -0.033655833 -0.106929876 0.123536915 0.045751765 -0.018668078
0.07890426 -0.04539976 0.0847761 0.10917574 -0.18315297 -0.1524051 -0.07815158 -0.23302503
0.09605485 0.090290226 -0.12107312 0.16137375 -0.170724 0.14791173 0.043803472 -0.01235056
0.0608315 -0.012413443 -0.074166976 0.1694903 -0.0534312 -0.18019153 -0.008193514 -0.1410347
-0.10906964 0.020082666 -0.118117146 0.12496482 -0.050269805 0.06493368 0.15682441 0.0030137796
-0.06299308 -0.24695164 -0.09378134 -0.10208567 -0.0077520064 0.09364824 -0.014118629 0.148878
0.06684846 0.052671134 -0.022556327 -0.009355128 0.14525945 -0.14351805 0.08504073 -0.058036882
-0.18540701 -0.11713654 0.1725674 -0.088414066 0.073145516 -0.010531002 -0.15278602 0.051925085
0.095271625 0.02379415 0.12715007 0.08252333 -0.004173806 -0.060456652 0.052988194 -0.112139
-0.06992538 -0.04373464 -0.099506736 -0.0829698 0.04535837 -0.09279397 0.16222344 0.0067042755
0.04102278 -0.2418393 0.15814558 -0.09830732 -0.041523986 -0.08272182 0.06525921 -0.14143379
0.12800546 -0.013365879 -0.03443238 -0.041461013 -0.108682066 -0.100164175 -0.009319935 -0.27270734
-0.09468043 0.03209108 -0.22938405 0.1254213 -0.028070448 0.13222754 -0.053637944 0.07925148
-0.011299822 0.14366621 -0.037059695 0.018809976 0.06844257 -0.058411334 0.02677993 0.15327913
0.0039933757 0.045305133 -0.12341708 0.029793696 0.017861648 0.017972356 -0.18651527 -0.0055209417
-0.0958362 0.027273862 -0.07925779 0.045573037 0.061426647 0.036888614 -0.057396904 0.028849551

shared1.bias f4 [200]
00000000: b7db 8cbe 6944 013d a436 b13d 3078 083e
00000010: 82b1 fd3d 21da 373d b009 1fbe b1a8 04be
00000020: 8606 92be c269 23bd 29c1 83bc 6571 8b3c
00000030: 1601 8b3d 4279 ca3c 84c3 8a3c 5bf4 e93d
00000040: 1d14 d63d dfc1 e73c 98b1 623e e73c d83c
00000050: 3604 5dbe cf72 823d d9ee f53d bf88 14be
00000060: 7e24 4d3e ecb3 eebd 42db 4ebe 0ea0 6a3e
00000070: c3ac c33d 5859 2f3e 443a b33d 649e 51be
00000080: 14e7 7fbe aafe 21be 7042 4f3c 1371 7dbe
00000090: 7988 80be e37d 153e 82e3 ebbd fd2e 47bd
000000a0: ab45 64bc f369 22be 27f7 f2b9 ec1a 02bd
000000b0: 16c1 a3be ce71 d4bd 0ff1 a63d 7768 bf3d
000000c0: b4b5 1ebe df51 22bd debc e2bd ec14 d13d
000000d0: 02cb d83b 893b 13bd a4ef 0cbe b976 2fbe
000000e0: 9713 4c3e 02a1 61be 6284 dbbc bb0d 77be
000000f0: 7d66 353d e0cc 453e 8ab1 7fbe 3426 fbbd
00000100: 5e5e aabc 50be bbbd c1f2 41be 39c1 de3d
00000110: c511 243c 7307 bcbd 901b 63bd 7e49 0f3e
00000120: 1eaa 2ebe a324 4dbc 8b18 473c bc7e 253e
00000130: b0a7 ce3c fe41 09bc b084 50be 7e30 b43d
00000140: ac81 243e 4122 2fbc a5c4 08be c4ee 1d3e
00000150: fa7e 5e3d 207f 1bbe a570 1abd 7ebd b0bd
00000160: 6e62 863d 8a42 68be 2861 033e 8536 25be
00000170: 1232 6f3c 82c2 763c 5a4b 0f3e 66ba 9a3d
00000180: 85f8 343e 200a 1fbe ad58 56be 5414 053e
00000190: b35d 6ebe e725 cfbd 912e 59be 5730 6f3c
000001a0: 33ca 4bbe e684 7b3d d07c 71be 899c 77be
000001b0: bcf6 9b3d 97be 4b3e c122 843e 9cce 373d
000001c0: 9456 a3bd 5a6e 2d3d 5a5a 12be d1f8 14be
000001d0: c85a b03d a2b9 5dbe 97a0 05be 8ade 523e
000001e0: f66c 043e 42c0 1b3d 72b4 a2bc 4fc5 da3d
000001f0: 3906 91bd c894 0d3e 1439 28be 794a c7bd
00000200: a858 3d3e 3969 43bd 6353 3dbe 51d5 873d
00000210: 977d 0dbe 6719 3b3d 89e9 8cbe 82d9 953c
00000220: dc15 a03d 3212 fd3d bfd0 cc3d 636a 113e
00000230: c663 003e eb1f e4bc 9104 51be 732e a33d
00000240: 04c6 f73b 14b4 3abe e837 17be 347e df3d
00000250: 36ee f83d 4877 82be f89b d53d 74f3 e5bb
00000260: a463 66bd b6a7 07be 3718 413e eaa0 1c3e
00000270: a152 c4bd d053 1ebe 1158 833d 9928 1c3e
00000280: 812e 7b3d e36d 873b ba81 a2bd f902 18be
00000290: 8139 52bd 3a4d d3bd ec4d 2ebe b8ab 423e
000002a0: 9c8a c23d 28c1 9d3d a395 fcbb b4ae 013e
000002b0: d69a a53d f6ae 21be f452 f93d 54a0 11bd
000002c0: 5d9e 72bd 82d9 39bd 7c97 7dbc 64d6 4dbe
000002d0: 80fe 29be d5bb 3e3e be55 db3d 037e 073e
000002e0: f8b7 1dbe 0da5 55be 84d6 bfbd ed7a 63be
000002f0: daec 77be 4737 3a3e 92d1 bb3d 65e6 d33d
00000300: f203 3dbe ebbd 84bd 3a2f 48be 13bd 1a3d
00000310: 5622 c13d 9aae 073e 55e4 15be e468 763c
-0.2751138 0.03155938 0.08653 0.13327098 0.123873726 0.04488576 -0.15531039 -0.12954976
-0.28520602 -0.03989578 -0.016083317 0.017021844 0.067873165 0.024716023 0.016938932 0.1142356
0.10453055 0.028290687 0.22138059 0.026396228 -0.21583638 0.06369554 0.12008447 -0.1450529
0.20033452 -0.11655411 -0.20200828 0.22912619 0.09554436 0.17123926 0.08751348 -0.20470577
-0.24990493 -0.15819803 0.012650117 -0.24750166 -0.2510412 0.14598803 -0.11518003 -0.048628796
-0.013932626 -0.15860729 -0.0004634198 -0.031763956 -0.3198325 -0.10373269 0.08151447 0.09346097
-0.15499002 -0.03962886 -0.1107118 0.10209069 0.0066159973 -0.03594545 -0.1376329 -0.17135133
0.19929348 -0.22034076 -0.026796523 -0.24126332 0.044287194 0.19316435 -0.2497007 -0.12263146
-0.02079695 -0.091671586 -0.1894026 0.10876698 0.010014002 -0.09181108 -0.055446208 0.13992879
-0.17057082 -0.012520942 0.012151848 0.16161627 0.025226444 -0.00837755 -0.20363116 0.08798312
0.16065091 -0.010689319 -0.13356264 0.15423113 0.054320313 -0.15185213 -0.037705082 -0.08629893
0.06561743 -0.22681633 0.12830031 -0.16134079 0.01459934 0.015061023 0.13993588 0.07555084
0.17672928 -0.15531206 -0.20932265 0.12996036 -0.23277931 -0.10114651 -0.2120917 0.014598927
-0.19901352 0.06140604 -0.23582768 -0.24180807 0.0761542 0.19896923 0.25807765 0.044874772
-0.07975498 0.042341568 -0.14292279 -0.14548041 0.08611065 -0.21652845 -0.13049541 0.20592704
0.1293219 0.03802515 -0.019861434 0.10682165 -0.07081265 0.13826287 -0.16428024 -0.097310014
0.18490851 -0.04770777 -0.18488841 0.06632484 -0.1381744 0.045678522 -0.27521923 0.018292192
0.07816669 0.12356986 0.10000753 0.1420074 0.1253806 -0.02784725 -0.20411898 0.07967844
0.007561447 -0.18232757 -0.1476742 0.10912743 0.1215481 -0.2548163 0.10430139 -0.0070175473
-0.05624737 -0.1324757 0.18856893 0.15295759 -0.09586073 -0.1546166 0.06413282 0.15249862
0.061323646 0.0041329726 -0.079349 -0.14844884 -0.05132437 -0.10317464 -0.17021912 0.19010818
0.09499094 0.07702857 -0.007708268 0.126643 0.08086173 -0.15789399 0.12174025 -0.03555329
-0.05923306 -0.045373447 -0.015478011 -0.20101315 -0.1660099 0.1862634 0.107097134 0.13231663
-0.1540221 -0.20863743 -0.093670875 -0.22214861 -0.24211445 0.18185149 0.09170832 0.10346679
-0.18458536 -0.064815365 -0.19549266 0.03777797 0.09430377 0.13250199 -0.14637883 0.015039656

shared2.weight f4 [200, 200]
00000000: 03f9 31bd 7d1d d93d 8f76 f7bd d3d1 83bd
00000010: 34e7 473e 91c9 273d 0387 4a3c f067 893d
00000020: 3f83 28bd 0593 993c 6711 0dbc 7e1c bc3c
00000030: 9df8 efbd 3cce 0abd 3880 eb3c c388 c63d
00000040: 6bfd d43d 68eb 563d 1bf3 08bd 7e85 cb3a
00000050: 1750 dd3c 1ab8 0dbd fa01 13be 5312 44bd
00000060: afad 203d 0942 cb3d 3148 6a3c 9544 0f3b
00000070: 458e db3d 5e85 823c 62e4 42bd 0177 b43d
00000080: 3514 643d 173a 47bd 295a b23d d664 163d
00000090: 2e75 cb3d 7f28 83bd ffb0 02be ed15 76bc
000000a0: 7a32 d6bd 268e a63d 7d14 213d 86f0 853c
000000b0: f34f 803b 254e d5bd 7a86 01bd f7fa 283e
000000c0: cabd bfbd b29d 2b3e 78e2 debd 898d bfbc
000000d0: 46a0 ddbc f4f5 84bd 970c 0cbd 43bd 2a3e
000000e0: 69fa 6f3d 3030 4a3d f1e4 14bd a7ac d23d
000000f0: c406 db3c 2abf 8fbb d9bb d8bc df2d 17bd
00000100: d6b4 273e d14f 1b3e d24a c2bd d888 ddbd
00000110: b6e6 17be 20eb fabd 91bc c63d 4058 e73c
00000120: ebdc 143d a11f 5c3d e3aa 2d3e d6cc b9bc
00000130: bf72 0a3e d920 093e 7e96 7dbc 1a8c ba3d
00000140: 7f2d 343d 9549 89bd 7539 6a3e 5fa4 d73d
00000150: 56fb 0abd 5a41 903d 857e 89bc 7ed2 433e
00000160: 033d 423e 314f b53d 6dd3 9ebd 172a a0bb
00000170: 10c6 29bc 162f 3a3d f04b c9bd d065 18bc
00000180: 21df 9c3c 337f c5bd 5bc2 43bc 2d17 9e3d
00000190: 0bfd 703e 7f19 6d3d d435 0abe 2c92 a6bb
000001a0: 16a5 0b3c 786d a33a 57c0 4e3d c3da 593e
000001b0: f908 993d 61bd aa3c 2966 3e3c 9e14 bd3d
000001c0: 2cd0 5e3d cda1 a53d 86c5 e83c 4840 49be
000001d0: e35f 5fbd 7d96 a33d 6a1d 2a3d 03b3 913d
000001e0: 7b2f 9a3c 5d37 433d 9157 46bc 961f 08bd
000001f0: 0993 d33c f96c 253e 088b 54bd ba51 e53c
00000200: 4e65 543d 794e 55bc 5479 123d 91b8 7abd
00000210: 1b57 033d 373f 5d3c 5b4d c6ba 8ba6 9dbd
00000220: 8c7e 263e b10d 8d3d a685 813d 3d8b ecbc
00000230: f4ce 8dbd 0950 3ebc 5ff7 b3bc b4a3 2f3e
00000240: 676c 693c be0d a53c be56 5b3e cf04 dbbc
00000250: ff13 fabd 0ad4 ae3d fba8 1f3c 9c8f 6cbd
00000260: 63ac 8cbb e78a 253e 71dd b03d 19cf bd3d
00000270: fd7e 42bd deaf 2439 b5a5 973d 807d 153d
00000280: 52e6 693c 6741 31bc cf0e 0ebe 6368 fa3c
00000290: 4a93 2ebd 53be 53bc d9db d5bd bd8a 9abd
000002a0: 3d17 0abd a888 283d 8c49 ff3d 6ce0 373e
000002b0: 20b0 a03d 479a 63bd 1ad9 71bd 90d6 ea3d
000002c0: 1e1a d2bd 4b74 0a3d 1408 bebc ba13 42bd
000002d0: b223 1bbe 4721 ff3c 2cbc 143e cf96 2f3e
000002e0: 842c 253e 2553 b83d 5606 babd 67d7 803b
000002f0: 9abf a03c b8fb 843d 9ef5 4a3d 4671 00bc
00000300: e1c7 2b3e 26b6 d23d d337 08be e9ab c13d
00000310: 9344 493d 53e5 5fbc f9f3 dfbd 9c30 a23d
00000320: 244b 22be 57b0 14bd 23fe 05be dbb4 033e
00000330: 7f1c 0dbc a300 a23d fa0f 67bd 0c69 993c
00000340: a285 51bd 20d2 2b3d 7f22 9c3d a7f0 4f3d
00000350: ffc8 3ebc f834 9ebd d056 c2bd 007f a03d
00000360: f403 303d 5d41 08be 2c1c 713d 9da3 423d
00000370: 2385 b7bd 3256 e9bd 9a30 96bd 0c26 6d3d
00000380: 0d04 36bc a85c 663d b62c e8bd 8c41 90bd
00000390: 3169 1bbe 4b43 c73b 99c9 db3d 5787 cfbd
000003a0: 59c0 10bc 2c6e 00bd b763 243e e5e3 413d
000003b0: b9fd 09bd d8c4 853d 764f 12bb 2fbb 163e
000003c0: f8e2 993d 0b0b 00be b987 093e 11b8 0dbe
000003d0: 27e9 23be 74ff 943d 4ddc 0e3e 2464 f13d
000003e0: a147 733d 6759 19bd 8e48 43bd a50d 34bc
000003f0: 1c45 003e cbd3 0b3e 7254 c3bc 518d aa3c
-0.043450367 0.106013276 -0.1208316 -0.06436505 0.1952179 0.040963713 0.012361291 0.06709278
-0.04114079 0.018746862 -0.008610106 0.022962805 -0.11717341 -0.033888087 0.028747663 0.09694054
0.10399898 0.052470595 -0.03343497 0.0015527455 0.027015729 -0.0345994 -0.14356223 -0.047869038
0.039228138 0.099247046 0.014299438 0.0021860946 0.10720495 0.015932735 -0.047581084 0.08811761
0.055683333 -0.048639383 0.08708603 0.03671726 0.099344596 -0.064042084 -0.12762831 -0.015019876
-0.104588464 0.081325814 0.03932618 0.016350042 0.0039157807 -0.104152955 -0.031622387 0.16501985
-0.09362371 0.16759375 -0.10883039 -0.023382919 -0.027053963 -0.06492224 -0.034191694 0.1667376
0.05858842 0.04936236 -0.036351148 0.10286837 0.026736625 -0.004386802 -0.02645676 -0.03690898
0.16377577 0.15167166 -0.09486927 -0.108171165 -0.14834103 -0.12251878 0.09703935 0.028240323
0.036343496 0.0537411 0.1695972 -0.022680681 0.13520335 0.13391437 -0.015477775 0.091087535
0.0439887 -0.06703488 0.2287348 0.10529398 -0.0339311 0.07043715 -0.016783962 0.19123265
0.18968587 0.08852995 -0.0775517 -0.00488783 -0.010362163 0.04545506 -0.09828937 -0.009301618
0.019149365 -0.09643402 -0.011948193 0.07719264 0.23534028 0.057885643 -0.13497096 -0.005083343
0.008523246 0.0012468537 0.0504764 0.21274857 0.074724145 0.020842256 0.011621037 0.09232448
0.054397747 0.08087502 0.028414499 -0.19653428 -0.054534804 0.07987688 0.041531958 0.07114222
0.018821469 0.04766022 -0.012105838 -0.033233248 0.025826948 0.16154851 -0.051890403 0.027993072
0.051854424 -0.013019198 0.03576024 -0.061211172 0.032065492 0.013503841 -0.0015129255 -0.07697781
0.16259211 0.06887377 0.063243195 -0.028874988 -0.06924239 -0.011615762 -0.021968542 0.17152292
0.014247037 0.020148154 0.21419808 -0.026735691 -0.12210845 0.08536537 0.009744878 -0.057754144
-0.004293011 0.16166268 0.086359866 0.09268016 -0.047484387 0.00015705774 0.07404653 0.03649664
0.014276104 -0.010818816 -0.13872837 0.030567354 -0.042620935 -0.012923795 -0.10442323 -0.075459935
-0.033713568 0.04114595 0.124652 0.17956704 0.07846093 -0.055567052 -0.059044935 0.11466706
-0.10258888 0.033802312 -0.023197211 -0.047382094 -0.15150335 0.031143798 0.14524907 0.17147373
0.16130263 0.090002336 -0.0908324 0.003931928 0.019622613 0.06493324 0.049550645 -0.0078395065
0.16775467 0.10288648 -0.13302545 0.094566174 0.049137663 -0.013665515 -0.10935206 0.07919428
-0.15848976 -0.036300983 -0.13085227 0.1286196 -0.008612751 0.07910278 -0.05641172 0.018726848
-0.051152833 0.041948438 0.07623767 0.050766613 -0.011644601 -0.07724947 -0.094892144 0.07836723
0.04297252 -0.13306184 0.058864757 0.047519315 -0.08960941 -0.113933936 -0.07333489 0.057897612
-0.011109364 0.056240708 -0.11336653 -0.07043752 -0.15176846 0.00608102 0.10731811 -0.10133236
-0.008834922 -0.031355068 0.16053663 0.047336478 -0.033689234 0.065316856 -0.0022325194 0.14719842
0.07513994 -0.12504213 0.1343068 -0.13839747 -0.1600691 0.07275286 0.13951226 0.117866784
0.059394483 -0.037438776 -0.047676615 -0.010989581 0.12526363 0.13655011 -0.023843978 0.020819338

shared2.bias f4 [200]
00000000: 9e96 3a3d f857 e5b9 2a8b d83c d971 2e3d
00000010: 0c8c 843c 6f12 343c 789f 953d 97ae 1dbd
00000020: e946 37bd 606a f5bd 9b20 11bd df16 a039
00000030: 967d f3bc 73bd 25be caa9 6eba aaec 943c
00000040: 4ede 5c3d 98eb 543d cc17 d33c 4133 a83b
00000050: 2048 0cbd a5fa ac3c 50d0 88bb bb47 c4bd
00000060: 02a4 223c 1438 33bd ff82 86bd c9b2 b83c
00000070: cc58 a53c 5569 8cbd 44e9 f3bc 2d0e c1bb
00000080: 536a e6bb d20e 2cbc a0a4 b6bb 1c0f e4bc
00000090: 41f4 343d 92b2 a1bd 7b12 653d 98a8 ab3d
000000a0: 470c b53c 7cfe 6ebd 6e2e cbbc 4b4b 29bc
000000b0: 9da6 23bd de67 6dbc 9c69 fbbc 715d f6bb
000000c0: 95d3 0a3d 1ac6 243c 6266 bebc 4b90 7fbd
000000d0: efc0 2e3d 5251 52bd 7e57 2cbc ef57 01be
000000e0: b77d 91bc 9508 c73c 400e 61bd 599a b1bd
000000f0: 52ba aa3b 70d2 acbd 2c16 fa3c d42d 0ebd
00000100: 168e 63bd e029 043d bc44 acbd ebac 54bd
00000110: 896b 4bbd 1ea3 593d 4441 4b3c 85d0 383d
00000120: 7d3a ba3c 4e2f bbbc 9cb9 c3bd 4bc8 8ebc
00000130: 1448 0e3d 5391 4cbd 64ef 2abd 285c 93bb
00000140: f196 6cbc 1ffe b2bd 696e eabd 87a3 97bd
00000150: 329f 61bd 1ef3 b5bd 129a 47bd bd44 67bd
00000160: cd74 dabd 4bd1 b03c 657d c3bc 4d17 a83d
00000170: 4405 b3bd d7dc df3c ae1f cc3c 7b21 503c
00000180: b559 90bd 140c b4bd 2d9b 073c 8130 56bd
00000190: 3d69 d0bc 46ba 9bbd ed9e a43c 4572 7dbd
000001a0: 4fa1 20bd eef4 753d b7eb 113d eddf f0bd
000001b0: fd97 5d3d 9a37 d0bd 873b 20bc 2f1b 86bd
000001c0: 38e9 da3a 08eb 213d 31b6 c93b 8388 b0bd
000001d0: d2f6 2a3d 6eab 32bd 512b 6e3d 808d 953b
000001e0: 9359 0cbd ca03 3b3d 8538 e33c 5264 3a3c
000001f0: 5c44 093c 7ed1 e93c bb21 193d 9c27 57bd
00000200: 6286 563d 21c5 0abe f23c 79bd 108a ad3c
00000210: 290e debd 8a45 19be 0000 35bd e173 643d
00000220: 06b5 3c3d fad2 ccbd 438b 1bbc 985a 15bd
00000230: 9ba2 76bd 4ba1 30bd 0d67 4bbd a099 82bd
00000240: 887e 01bd 16f6 30bd a244 473a 3064 96bd
00000250: 4023 773d 2e66 54bd f383 003d a191 413d
00000260: 994a 783a 0a0c 163c f1a1 1d3d e5d4 cabd
00000270: 172d e23c 6ee3 54bd 5827 57bc 4eb7 58bd
00000280: 0189 a4bd 8c04 1fbd 437d 9d3d 3b3b 9cbc
00000290: 02d7 fcbc 7798 9ebd 4eaa afbd 5c91 273b
000002a0: 1e83 73bd e8b6 10bd 3313 0abd c4bc cd3a
000002b0: 3dd5 fcbd 7d38 2bbd 5ef5 a03b c372 5f3c
000002c0: 5b7b 113d 91b1 1cbc 0256 6abd 67b1 9e3c
000002d0: cb22 abbd 714f 02bc 4de7 0bbd 711c 23bc
000002e0: 65fb f9bc 98ce 1c3d 7b52 7a3d 31e7 80bd
000002f0: 0a34 ccbc 0230 d3bd 5377 c8bc 6c8c a9bc
00000300: c782 c5bd 7da1 2abc 2f32 c33b 99b8 a3bd
00000310: d3c6 3ebd 22bf 283d 9991 ecbd 5d05 b73c
0.045553796 -0.00043743826 0.026433546 0.042589042 0.01618006 0.010990723 0.07305807 -0.03849658
-0.04474536 -0.1198318 -0.035431486 0.00030534618 -0.02972297 -0.1618555 -0.000910428 0.018179256
0.053922944 0.051982492 0.025768183 0.005133063 -0.03424847 0.02111561 -0.0041752234 -0.09583994
0.009926798 -0.043754652 -0.06567954 0.022546189 0.020183943 -0.06856028 -0.029774316 -0.0058915825
-0.007031718 -0.01050158 -0.005573824 -0.027839236 0.04417825 -0.07895388 0.055925827 0.08381766
0.02210058 -0.058348164 -0.024802413 -0.010332893 -0.039953817 -0.014490096 -0.030690007 -0.0075184633
0.033893187 0.010056997 -0.02324218 -0.062393468 0.042664465 -0.051347084 -0.010518907 -0.126312
-0.01776014 0.024296084 -0.05494523 -0.086720176 0.0052101994 -0.08438575 0.03052815 -0.034711674
-0.055555426 0.032266498 -0.084115475 -0.05192272 -0.0496631 0.053134076 0.012405697 0.045120735
0.022732968 -0.022849705 -0.095568866 -0.017429492 0.034736708 -0.04994328 -0.041732207 -0.00449707
-0.014440284 -0.08739876 -0.1144684 -0.07404237 -0.05508346 -0.088842615 -0.048730917 -0.05646204
-0.10666809 0.021584174 -0.023863504 0.08207569 -0.08741239 0.027326984 0.02491745 0.012703295
-0.0704836 -0.08791366 0.008276743 -0.05229235 -0.025440807 -0.07603888 0.020095313 -0.061876554
-0.039216336 0.060048036 0.035625186 -0.117614605 0.054100025 -0.10166855 -0.009779817 -0.065481536
0.0016701585 0.039530784 0.006155752 -0.086197875 0.041739292 -0.04362052 0.05814678 0.0045639873
-0.034265112 0.04565791 0.027736912 0.011376457 0.008378115 0.028542276 0.037385684 -0.05252801
0.05237425 -0.13551761 -0.060849138 0.021183997 -0.108425446 -0.14967933 -0.044189453 0.055774573
0.046071075 -0.10001178 -0.009493652 -0.03646335 -0.060213666 -0.04312257 -0.049658824 -0.06376958
-0.03161481 -0.043203436 0.00076014746 -0.07343328 0.06033635 -0.05185526 0.031375837 0.047258023
0.0009471565 0.009158144 0.038484517 -0.09903888 0.027609391 -0.051974706 -0.013131939 -0.052909188
-0.08033944 -0.038822696 0.076899074 -0.019071212 -0.030864242 -0.07743924 -0.08577405 0.0025568819
-0.059451215 -0.035330683 -0.033709716 0.0015696515 -0.123453595 -0.04180192 0.0049120625 0.013638201
0.03551803 -0.0095638195 -0.05721093 0.019371701 -0.083562456 -0.007953511 -0.034156132 -0.009955511
-0.030515382 0.03828296 0.061113816 -0.06294096 -0.024927158 -0.10311891 -0.02447096 -0.020696841
-0.096440844 -0.010414478 0.00595691 -0.079941936 -0.046576332 0.041197903 -0.11551208 0.022341425

hidden1_Y1.weight f4 [200, 200]
00000000: 90b8 fabd c9a5 973c 3c9d f33d 3326 12be
00000010: 87e1 d93d 3278 953d e152 ffbd 28f3 98bd
00000020: 846e 0c3c e871 0ebd c13d 523d 03a2 2d3c
00000030: f751 cebd ef67 e4bc 88f1 2abd 310e 78bb
00000040: 59ad c73d 8a27 e73d 7143 1bbd 6722 87bd
00000050: cad7 e1bd 9e5b bfbb cdf8 a4bd 9232 c7bd
00000060: 3055 353b 11d2 a1bd dd19 7ebd 5ce1 88bd
00000070: 40c3 303d 9c88 c9bd 06e0 523c dbda 9abd
00000080: b531 c53d 9570 07be cf4f 31bd c2bd df3c
00000090: d448 963d 5ba9 d9b9 c692 d93d b109 953c
000000a0: 6444 2abd 33fc c33d 25a6 debd 17cb 07ba
000000b0: ad8c e9bd 61cd cebd 8cdc 9539 5add bcbd
000000c0: 0e80 133e 06bf 873d 8a0e b43c b863 e33d
000000d0: 11d0 023e 1074 4e3d 0f07 64bd ab41 80bd
000000e0: 0645 a13d 4fef 1d3e aaea abbc 5699 b9bd
000000f0: db94 b5bd eea9 00bc b2af b93d 1b44 51bd
00000100: 1010 e13d c6b6 ba3c 5546 12bc 8a61 ce3c
00000110: 505a b6bd c72e a63d a0e4 ba3c 5c9a c7bc
00000120: 9d28 68bc 6593 85bc 7753 99bd 4ed4 993c
00000130: 0722 27bd 5a0c 113e 97be d8bd 79aa 113e
00000140: cba9 c73c d9cc c1bc 0f3e b9bd 99db b8bd
00000150: 5f37 9e3d 6a2e 623d 2e06 9dbd 8bb4 a2bd
00000160: 2a76 c5bd b918 49bd 53cc 96bd adb9 a73d
00000170: 4dab 7b3d 8f65 ca3d 3511 103e 30ff b93d
00000180: 8901 82bd 9ae1 d93d 5c9c f4bc 099a 3abc
00000190: 2d8c da3d 4043 18bd 4422 e13d d29b d2bd
000001a0: b134 56bc f8ca e93d d4ca 18bd f369 e4bd
000001b0: 1703 f2bd 0522 883d a63f aa3d 8253 cabd
000001c0: 046e eb3c fb12 11bd 7812 c7bb a0de 193d
000001d0: 7f32 fcbd e85a a5bd d940 72bd 729e cfbc
000001e0: 58ea b5bd 2bce 1cbc ba6a b3bd 5c15 01bd
000001f0: c64d a73d 60a3 583c 4475 37bc bd5c bd3d
00000200: 9b0b 5b3d b6cb 91bd 7754 813d 8982 89bd
00000210: aa95 62bc 93a6 eebb 3877 4cbd 99b3 3c3d
00000220: 44f7 04be 5880 173d 8f69 01be f26b b1bd
00000230: 128a bebc 6885 02be e9a5 b9bc 89d6 223d
00000240: 2772 cb3d b75c 0abd a87a 28bd 2cb2 ac3d
00000250: a192 babd 3c75 cc3d 1908 edbc 364d d93c
00000260: 034c a8bc ba5c 25bd b9d0 703d 6402 5dbd
00000270: 7941 1bbd 5c4b 013e c757 cb3d a52f 833d
00000280: 67a9 09bc 5ba4 14bd a390 00bd c51b 293d
00000290: 25f2 b0bd 0cce 0bbd 6645 5fbd c031 efbc
000002a0: 03aa 983c 2c48 913d 34c4 02bd 75fa b13d
000002b0: bd7a 94bd 5007 783c e44b 20bd 2988 623d
000002c0: 6d61 d23c 3c5a 6abd a1b6 56bd 4a64 b73d
000002d0: 9d0f e83d 2fca bd3d bc11 90bd e7f3 463c
000002e0: a9b1 a3bd 8356 a43d e047 96bd b168 c13d
000002f0: 72e3 273d 14a7 c7bc 4474 693d 3c82 35bd
00000300: 3cfd 013e 760a 8fbd 5079 b43c bd39 ab3d
00000310: 2916 d63d de3e ad3d faca 4bbd 35f4 c73d
00000320: 3fac a5bd 0c43 973d 42c3 adbd 2830 b63d
00000330: bd9a 523c bca2 c0bc 138d c73d 18c5 e5bd
00000340: 9d53 f0bd 3940 7f3d fa8b cb3d 1d97 cb3c
00000350: bfaf 90bd cc65 f8bd 4252 0abe 932f 563d
00000360: 7acb 073d 350d 963d 549b 8f3a 359a da3d
00000370: 67db 7ebd bc15 9cbb 4ff9 34bd f17c 59bd
00000380: b56a 933d bb81 da3c 5191 19bd f15f d0bd
00000390: 2d3f 623d 5ff0 4cbd 7fdc e43d 82e5 17bd
000003a0: e71e a33d 9c1c f4bc 7579 de3c 65e9 5fbd
000003b0: 273b 96bd b451 a9bd b883 223d 3138 e2bd
000003c0: 1d30 f53c 1eea eb3c 949f d13d 34ea 46bd
000003d0: b714 c7bd 6a5e ec3d da47 cc3c 5115 783c
000003e0: 42cf b33c 2229 183d 8b13 5f3d b839 ce3c
000003f0: 7dd1 3f3d f5be f0bd d54b 5e3d 7e73 e5bc
-0.12242234 0.01851167 0.118952245 -0.14272384 0.10638719 0.07298316 -0.1246698 -0.074682534
0.008571271 -0.0347766 0.051328424 0.010597709 -0.10074227 -0.02788159 -0.04173425 -0.0037850256
0.0974986 0.11286838 -0.037906114 -0.065983586 -0.110274866 -0.005839779 -0.080552675 -0.097264424
0.0027669184 -0.07901395 -0.062036384 -0.06683609 0.043154955 -0.09840509 0.012870794 -0.075612746
0.096286215 -0.1322654 -0.043289002 0.027312163 0.073381096 -0.00041515645 0.10623698 0.018193098
-0.04156913 0.095695876 -0.10871533 -0.0005180104 -0.11403785 -0.10097767 0.00028583815 -0.09221907
0.14404318 0.06628232 0.021979589 0.11103004 0.12774684 0.050403655 -0.055670794 -0.06262525
0.07874493 0.1542332 -0.02098592 -0.0906245 -0.088662826 -0.007853014 0.09066714 -0.05109034
0.10989392 0.022792231 -0.008927901 0.025192995 -0.089039445 0.08114391 0.022814095 -0.024365596
-0.014169839 -0.016305635 -0.07486623 0.018777993 -0.040803935 0.14164868 -0.10583227 0.14225186
0.024372956 -0.02365725 -0.0904504 -0.0902626 0.07725405 0.055220045 -0.07667194 -0.07944592
-0.09641679 -0.049095843 -0.073631905 0.08189712 0.061442662 0.09882652 0.14069064 0.09081876
-0.06347949 0.10638733 -0.029859714 -0.011389264 0.10671268 -0.03717351 0.10992864 -0.102836266
-0.013074086 0.11415666 -0.037302807 -0.11153021 -0.118169956 0.06647114 0.08312921 -0.09879209
0.028738983 -0.03541849 -0.0060751997 0.037565827 -0.12314319 -0.080739796 -0.059143875 -0.025344107
-0.08882588 -0.009570639 -0.08760591 -0.03151451 0.08169131 0.013222545 -0.011197392 0.09246204
0.053477865 -0.07118933 0.063149385 -0.06714351 -0.013829628 -0.007283041 -0.049918383 0.046069715
-0.1298495 0.036987633 -0.12637924 -0.08663167 -0.023259196 -0.12746203 -0.02266212 0.039755378
0.09933882 -0.033779826 -0.0411326 0.08432421 -0.091099985 0.09983298 -0.028934525 0.026526075
-0.020544058 -0.040371634 0.058792803 -0.053957358 -0.037904236 0.12626404 0.099288516 0.06405572
-0.008402205 -0.036289554 -0.031387936 0.04128625 -0.086399354 -0.03413205 -0.054509543 -0.029198527
0.018635755 0.07093844 -0.031925395 0.08690349 -0.07249973 0.015138462 -0.039134875 0.055305634
0.025681222 -0.05721496 -0.052420262 0.089546755 0.11331103 0.09267079 -0.070346326 0.012143112
-0.0799287 0.08024313 -0.07337928 0.094437964 0.040988393 -0.024371661 0.056995645 -0.044313654
0.12694257 -0.06984417 0.022030503 0.08360622 0.104534455 0.084592566 -0.04975412 0.09763376
-0.08089494 0.07385835 -0.08484508 0.08895904 0.012854275 -0.023515098 0.09743705 -0.11219233
-0.11734698 0.062317107 0.09938808 0.02485233 -0.07064771 -0.12128791 -0.13507941 0.052291464
0.033153035 0.07326738 0.0010956326 0.10673944 -0.062220957 -0.004763333 -0.04418307 -0.05309767
0.07198087 0.026673188 -0.0374921 -0.10174549 0.05523603 -0.050033923 0.11174869 -0.03708411
0.079648785 -0.029798798 0.027157525 -0.05466594 -0.07335501 -0.08267537 0.039676398 -0.11045874
0.029930169 0.02879816 0.10235515 -0.048563197 -0.09720748 0.115414456 0.024936605 0.015141801
0.021949414 0.037148602 0.054461997 0.025174007 0.046830643 -0.11755172 0.054271538 -0.028009173

hidden1_Y1.bias f4 [200]
00000000: bf8d 2cbd 4061 673c ecf4 77bd c44c 20bd
00000010: 51d6 243d 36cb 013d 7711 49bc 74ce a1bd
00000020: c4a1 813d 1d4b de3c 6a8b 083d 9999 c4bc
00000030: c91e c93c bbea 13bd c8d8 79bd 3a30 45bd
00000040: d7c8 0d3d c1d0 25bd 39ab b4bc 6019 70bd
00000050: 7858 853c a9dc f83b 92c5 393b 0b61 93bb
00000060: c090 793d 61fe 0ebd 6b8d 8bbd 598a c93c
00000070: 251d e7bc 8339 003d 1980 a5bc 1be4 5bbd
00000080: ed4d 013c 8563 2cbd 8914 453d d785 78bc
00000090: f418 ecbc f245 74bd 9320 833d 4a3a 85bd
000000a0: fd0f 5f3c 862e 50bd ff40 623d 69ca 5d3d
000000b0: f2c5 37bc 72bb 333d 09f2 543a ffaf 4a3d
000000c0: b3be 413c 72f8 75bc 92d7 92bc 6a9e 2e3c
000000d0: 6b45 503d 6616 93bd 5bd5 63bd 3e81 88bd
000000e0: a062 4f3d 0b4e a0bd d489 a83c 393e 123d
000000f0: ea98 acbc eb9d 11bc d8f3 5dbd 084e 00bd
00000100: ee0e b83c 3061 963c 4b4a dfbc 170e 3f3c
00000110: 0e69 2c3d 4845 263d 37ce 27bd 051d 42bb
00000120: 38bb f13b 91fc 26bd 39c2 2e3d 56e3 273d
00000130: 76a9 173d 2ad2 2cbd a728 aa3b 76d0 19bc
00000140: 6314 a3bc bb87 7d3d d25b 3d3c a7db 33bd
00000150: c5f6 a2ba 20c4 883d bd4c 58bd a124 85bd
00000160: 7714 1ebd 6e88 203c c8aa 4bbd 1181 343d
00000170: ab69 623c aa6e 08bd 0fcf cf3c e667 e4bc
00000180: 6007 263d d057 8aba 9792 2c3d cc76 573d
00000190: 13c7 92bc 4554 003d c5da 3c3d eabc 4a3d
000001a0: 7997 9bbc 7d27 0abd d6bf 14bd b4e9 79bd
000001b0: 0517 9e3c 19dd 8fbc acb6 6fbd 835a c1bb
000001c0: 42ee 343d ca03 393d 5390 19bd 48e2 56bd
000001d0: eaf2 73bb 1582 dabc 1f74 45bd 1804 113d
000001e0: 2c7f 03bd 6bc2 543b 4af6 8abc 5ebe 583d
000001f0: 943b 0ebd d049 8ebd 8d34 cdbc e55a 3cbd
00000200: b356 11bc 6424 f3bc cb83 60bd aee5 3b3d
00000210: 9eca dfbc 0b73 053d efb8 7a3d cb77 f83c
00000220: 05f6 9abd ad85 f23c 4b45 933d 8fce 173c
00000230: 4a23 75bd 9afc 33bc 2986 5dbd c89b 6ebd
00000240: 6e3f 5d3d ede5 c1bc 4512 1abc 142e 013d
00000250: 4b2c 8cbd 7c7a c13c 89ae 5c3d 09d7 14bb
00000260: 53f8 d73c 57e3 713d 84ef 5e3d 5603 19bd
00000270: 44e9 11bb 732e 60b9 69fc 003d 4dc8 a43c
00000280: e4a0 47bc 6436 abbb bce0 86bc 290a 623c
00000290: 57fb 83bd 4ece e3bc 3f7a 953d 6bfe 313d
000002a0: 6b6c 643d bf48 83bd b669 4abd 8852 033d
000002b0: 08a0 d7bc a797 ae3c 8832 45bd df9c ccbc
000002c0: 1ab5 583c 26c6 0cbd 1b77 fbbc ff8a 993d
000002d0: 590d 56bd 2de6 75bc b05f 923d 11f3 bcbd
000002e0: 2d56 5abd 9402 6a3d 1460 a0bb cfd2 133c
000002f0: 0a9e 81bd 0cce 243d d52d 00bd db3f c33c
00000300: 2ac6 10bd 8cb8 4f3c 2870 0ebc b5d7 6c3c
00000310: b7dd 5e3d d9de 48bc 00fc ee3c efbf a33c
-0.042127367 0.014122307 -0.06053631 -0.03913571 0.04024345 0.031687938 -0.01227223 -0.07900706
0.063296825 0.027135426 0.03333608 -0.023999022 0.024550812 -0.03611253 -0.060997754 -0.048141696
0.034615364 -0.040482286 -0.022054302 -0.05861795 0.016277537 0.007594664 0.002834652 -0.0044976524
0.06092906 -0.034910563 -0.06814083 0.024602102 -0.02821214 0.031304847 -0.020202683 -0.053684335
0.007892114 -0.042087097 0.048115287 -0.015168629 -0.028820492 -0.059637018 0.064026974 -0.065052584
0.013614652 -0.05082562 0.055237766 0.05414811 -0.011216627 0.043879934 0.0008123224 0.04948425
0.011825251 -0.015012847 -0.017925058 0.010657886 0.050847452 -0.071820065 -0.055623394 -0.06665276
0.050631166 -0.078273855 0.020573534 0.03570387 -0.021069009 -0.008887748 -0.054187626 -0.031324416
0.022468057 0.01835689 -0.027257105 0.011661074 0.042092375 0.040593415 -0.040968146 -0.0029619348
0.0073770545 -0.04076821 0.042665694 0.04098829 0.037026845 -0.042192616 0.0051928344 -0.00938808
-0.019907182 0.06189702 0.011557536 -0.04391065 -0.0012433162 0.06678033 -0.05280756 -0.06501127
-0.038593736 0.009798152 -0.049723417 0.0440684 0.0138191385 -0.033308662 0.025367288 -0.027881574
0.040534377 -0.0010554735 0.042131986 0.052603528 -0.017917192 0.031330366 0.046107072 0.04949657
-0.018993126 -0.033729065 -0.03631576 -0.061013892 0.019298086 -0.017561482 -0.05852382 -0.0059006824
0.044172533 0.04516963 -0.037491154 -0.052461892 -0.0037223645 -0.026673356 -0.048206445 0.035404295
-0.032103702 0.0032464515 -0.016963143 0.052915923 -0.034724787 -0.06947672 -0.025049472 -0.04598512
-0.008870768 -0.029680438 -0.054813188 0.045873336 -0.027318295 0.032580417 0.061211523 0.03033056
-0.07566456 0.029604757 0.07190951 0.009265556 -0.059848107 -0.010985518 -0.054083023 -0.058254033
0.05401557 -0.023669207 -0.00940377 0.031538084 -0.06844386 0.023617975 0.053877387 -0.0022711179
0.026363527 0.0590547 0.05442764 -0.037356697 -0.0022264281 -0.00021379608 0.031490717 0.020115042
-0.012184355 -0.0052249897 -0.016464584 0.013796368 -0.06444424 -0.027808335 0.07298707 0.043455523
0.055767458 -0.064103596 -0.04941722 0.03206113 -0.026321426 0.021312548 -0.048143893 -0.024977146
0.013226772 -0.034368657 -0.030696442 0.074972145 -0.052258823 -0.015008491 0.07147157 -0.09226049
-0.05330484 0.057131365 -0.004894266 0.009022429 -0.06328972 0.040235564 -0.03129371 0.02383416
-0.035345234 0.012678277 -0.008693732 0.014455725 0.054410663 -0.012260162 0.029172897 0.019988982

hidden2_Y1.weight f4 [200, 200]
00000000: 6cd0 0f3e be58 1bbd 1732 f9bc 12c9 ae3d
00000010: 5c6f 94bd 8f4c e63d 663a 263d 31f8 d33d
00000020: 7d97 153d 69ef d83d 0a31 b33d 63d4 883d
00000030: f5d1 333d d24d 843d e91a dcbc d1bb 98bc
00000040: b47c a5bc 04cf bcbb 56ae f139 2f71 e5bc
00000050: a7ee 913d 78b8 093d 6b47 c33d 5e5d 89bd
00000060: 312f 93bd c240 93bd e2b5 a0bc 6185 b13d
00000070: a1bf a0bd 52d2 e8bd 5ef3 be3d a0a3 b2bc
00000080: b7e5 30bd 09ab 49bd 4084 ab3c ca63 e1bd
00000090: fc19 033d 9202 e63d 9606 103e 7e67 223b
000000a0: efa3 9abd b38f d2bd 576f a7bc 64cd d3bd
000000b0: 897c a93a 9835 9bbd 811e 5fbc 4b95 103e
000000c0: e694 6f3d f00d 90bc 918b 60bd 6dec 90bd
000000d0: 43c3 a03d 5150 3ebd b2c5 54bd 4906 7a3d
000000e0: 8e6c 813d 6c46 f03d 8ef3 ee3b a25a 1a3d
000000f0: e610 ddbd abad c03d 7bb5 b9bc b440 ed3d
00000100: a5b7 bb3d d4fc b63d 794b a6bd f09a 833d
00000110: 7c41 773c 1092 103c 0489 ec3d a68b 013e
00000120: b924 933d ee64 fd3c ebcc a0bd 8ba2 17bd
00000130: 32c1 8d3c f159 96bd 8592 2fbd 4cce 59bc
00000140: ab35 063d 9bc0 a8bd 000e 133d 1609 82bd
00000150: 3396 dcbd cf01 e63d 1e83 28bd b718 ad3d
00000160: b29c 01bd 7691 f5bc 02f1 233d a97f 9e3d
00000170: 4043 c1bd 1258 6abd 86be e63d f96c b23d
00000180: 66bd 003e fce8 c63d 6914 88bd 66c7 7c3d
00000190: a24f 96bd 738a c7bd e8eb 063e e1e0 72bd
000001a0: 602f fe3d 62a7 9e3d 0600 da3d 7854 b83d
000001b0: 9351 c4bd 5903 d13b a345 f43d f028 543d
000001c0: 9fee dcbd ff9e 5b3d 040c c73d 4ff7 433c
000001d0: 19cb c0bd e5e7 c03d 0070 cbbc 4f7a 8e3c
000001e0: 155e bfbd cd61 48bd 9ada dcbd 9fe4 31bd
000001f0: 24ff 9dbd 79a4 933c f960 ba3d c21b 9ebd
00000200: 7eb3 16bc c6a0 cd3d 0160 80bd e963 f83c
00000210: b0cc fbbc 1885 823d a80c 953c 8f21 d83d
00000220: e2fe ba3d 2349 acbc 2b32 363d 5a7c 29bc
00000230: 4cbc 9fbd 044e ac3d 5fab 813c 2a59 6a3c
00000240: 664d 9fbd 673c fd3d 73ef c6bd 80a0 b33d
00000250: 7e66 d7bd e948 bf3d 51f5 adbd db26 83bd
00000260: a779 eb3c ed47 0abb 6221 40bd 67da 41bd
00000270: 0519 f43c d129 f0bd 8b76 653d 0866 8c3d
00000280: df3c f1bd 5b21 713d 0cb6 f23d 57e3 e33d
00000290: ba10 42bb 20e5 ef3d 96b5 973c 577e b6bd
000002a0: d61e b13c ff90 a4bd ec40 a9bd cca6 803d
000002b0: eb0c 9bbd a91c 873c de69 023c 57cf f13d
000002c0: a4b6 353a 4ca7 dd3d f75a a5bd 5131 7fbd
000002d0: b3f0 67bc c515 cf3d 12f5 ffbd e0f9 bdbd
000002e0: 2392 92bd 29d5 a53b 308d 0a3d f46d cd3c
000002f0: b615 1fbd db2b 7cbd 95ee 0cbe 6002 ffbc
00000300: ca78 d73c 7b78 4f3d 6a9d eb3d c4c0 57bc
00000310: 8fdf da3d 5ebc e23d 95f8 1e3e 6312 bfbd
00000320: 1e14 babc 9e04 97bd 0cc9 e6bd 580c 093d
00000330: f3a7 a43d be24 febd 16b5 36bd cf0f bbbd
00000340: 946e 793d 9c9c 6dbd 4b0d 05bd 390c cf3c
00000350: 4066 39bd 386d e1bd 1c90 9c3d 23ae eebd
00000360: dc7b 88bd 7dd5 0fbd 89de 06bc 50a6 afbc
00000370: ce50 97bd 81b5 62bc e14f 03be ad0d 0f3d
00000380: c9f1 c6bd 55f6 803d 4b6f 47bd 1847 23bd
00000390: 5528 733d 4138 c83d 8145 ecbc e423 b4bd
000003a0: 2987 a73d 2413 a83d 1047 1e3c ff7a f9bc
000003b0: b7d0 d53d cc24 503d 725f a43d ac54 ebbd
000003c0: 3d51 babc e1eb c63c 6f27 f83b 7fe5 bcbd
000003d0: 270e 46bd f2e9 3fbd 8b9e b1bd 9fef da3d
000003e0: 73e8 5fbc a889 943d b972 e8bc 17b4 853d
000003f0: 9996 a53a 020c df3d 9551 b3bd 0572 cebc
0.1404435 -0.037926428 -0.030419393 0.08534445 -0.072478026 0.11245071 0.040583037 0.10350073
0.036521424 0.10592539 0.08749588 0.066811346 0.043901403 0.064601555 -0.0268683 -0.018644245
-0.020201065 -0.005761983 0.00046096992 -0.028008072 0.071255974 0.03362319 0.09535106 -0.067072615
-0.071867354 -0.07190086 -0.019617978 0.08668018 -0.0784905 -0.113682404 0.09323762 -0.021806538
-0.043187823 -0.049235377 0.020937085 -0.110053614 0.032007203 0.11230959 0.14065012 0.0024780924
-0.07550799 -0.10281315 -0.020438833 -0.103419095 0.0012930791 -0.075785816 -0.013618113 0.14119451
0.05849161 -0.01758477 -0.0548206 -0.07076345 0.07849743 -0.046463314 -0.05194635 0.06104115
0.06319533 0.11732182 0.0072922176 0.03768409 -0.10794239 0.094081245 -0.022669544 0.11584607
0.09165887 0.08934942 -0.08119864 0.06426036 0.015091296 0.0088238865 0.11549571 0.12650928
0.07184739 0.030931916 -0.07851585 -0.037020247 0.017304037 -0.07341374 -0.04286434 -0.013293814
0.032766026 -0.082398616 0.035902023 -0.06349389 -0.10770836 0.11230814 -0.041140668 0.084519796
-0.031643577 -0.029976588 0.040024765 0.07739193 -0.09436655 -0.057212897 0.11266808 0.08712191
0.1257225 0.09712407 -0.06644518 0.0617136 -0.073394075 -0.09743204 0.13175929 -0.059296492
0.1241138 0.077467695 0.10644536 0.09000486 -0.095858715 0.006378573 0.11927345 0.051796854
-0.10787701 0.053618427 0.09719089 0.011960818 -0.09413738 0.0941923 -0.02483368 0.017392306
-0.093441166 -0.048921395 -0.107838824 -0.04343092 -0.0771468 0.018022763 0.09100527 -0.07720138
-0.009198068 0.10040431 -0.06268311 0.030321078 -0.030737251 0.06373042 0.018194512 0.10553276
0.09130646 -0.021030968 0.044481438 -0.010344589 -0.07799587 0.08413318 0.015828786 0.014303485
-0.077784345 0.123650365 -0.0971364 0.08770847 -0.10517596 0.093400784 -0.08494056 -0.064038955
0.028744532 -0.00211 -0.046906836 -0.047327425 0.029797086 -0.11726726 0.056021255 0.068553984
-0.11779188 0.0588697 0.11851129 0.11127346 -0.002961202 0.11713624 0.018519204 -0.08910816
0.021621149 -0.08035468 -0.08264336 0.06281814 -0.07570823 0.016493158 0.007959811 0.11807125
0.00069318176 0.10822925 -0.08073991 -0.06230289 -0.014156508 0.10111574 -0.12497915 -0.092761755
-0.071567796 0.005060811 0.033826053 0.025076844 -0.038839065 -0.06156526 -0.13762887 -0.031129062
0.026302714 0.05065201 0.11504634 -0.0131685175 0.10687172 0.110710844 0.15524514 -0.09329679
-0.02271467 -0.073739275 -0.112688154 0.033459038 0.08039846 -0.12409352 -0.04460629 -0.091338746
0.06089647 -0.058010682 -0.03248338 0.025274383 -0.04526353 -0.1100716 0.07644674 -0.11654308
-0.06664249 -0.035115708 -0.008231767 -0.021441609 -0.07388459 -0.013837219 -0.1282344 0.03492515
-0.097140856 0.06296984 -0.04869012 -0.039862722 0.059364635 0.097763546 -0.028841736 -0.08795908
0.08180077 0.08206776 0.009660497 -0.030454157 0.104402 0.050816342 0.08026017 -0.11490759
-0.022743816 0.024282398 0.00757306 -0.092234604 -0.04835334 -0.046853967 -0.08672818 0.10690235
-0.01366626 0.07252818 -0.028375017 0.0652849 0.0012633383 0.10890962 -0.08755795 -0.025200853

hidden2_Y1.bias f4 [200]
00000000: 2f0a 873d 0ed1 623c 33a6 50bd 2f64 f2ba
00000010: e58c 84bd 2c2d 8b3d c12f 1a3d 93f6 7abd
00000020: 5f2a 143d 22bc 6b3d 8d28 e3bc 19fc 53bd
00000030: 41b0 2bbc 1612 51bd 02d7 34bd 6288 a1bd
00000040: a538 883d 39d6 15bd 4ed6 0f3c 0bdf 943d
00000050: 5b0e 343d 4f82 843d 0b44 1d3c ade5 9dbc
00000060: 9ceb 803d a04c b3bd d357 1fbd 1f0c 573d
00000070: 15cc 623d a155 0e3d 770e eb3c 51db 52bd
00000080: b23b 633c ff13 313c 89bc 253d 8896 613c
00000090: f8e8 babc 3d8e 45bd 0422 c2bd 6da1 25bd
000000a0: 032d 76bc a508 f33c 77dc c63c d3be 7c3d
000000b0: d497 abbc e827 6dbd 79f6 11bd 04b6 94bd
000000c0: b6ef 703d a676 5d3d d2ae 9f3c e4f1 a1bd
000000d0: 3653 2cbb 0fb8 1cba aec6 0abd ae60 9d3d
000000e0: ad24 423d 02db 7ebd fabf ddbc 1b27 533d
000000f0: 6fce a1bd 2d82 6d3d 0db3 5c3d a64d 823d
00000100: 6b03 3ebd 68d9 b93d 3a1b 77bd 2f6d 9b3c
00000110: 769f c6bc 6fe3 1abd 4758 a03c 9f9c 733d
00000120: e873 2cbd 0323 a4bc d631 6fbb 3450 f1bc
00000130: da23 dbbc f0dc 913d 5693 a8bd 071c 66bb
00000140: 5307 61bd d2da 01bc 13bf 473b d704 a8bd
00000150: 7605 bfbc d97c 573d 6c13 133d d8fe 1cbd
00000160: e13b dabc 28cb f1bc 8beb f03c 9998 02bc
00000170: b596 9b3d 224f 21bc 3535 06bd 1ced fabc
00000180: d4ad a13d e1b8 a2bc 6400 9a3d ab09 36bd
00000190: a579 fab7 5f79 813c 43b8 1a3c 9dca babc
000001a0: 1659 3e3c c3ae 443d 40e2 00bb 6e3c fbbb
000001b0: 7862 553c d188 8fbc 572b 92bd 6900 623d
000001c0: 5a0f 69bd 159a 22bd 277c 8c3d 8550 393d
000001d0: 5581 88bd 1a72 5fbb 8b47 2dbd bd41 5bbc
000001e0: a2d3 083d 9020 9abc 253a 24bc 6b61 8bbd
000001f0: f9c3 603d 8636 d5ba 7f8b a0bc 767b 46bd
00000200: 004a 2ebd c744 2bbd 5fcb e33c cea9 873d
00000210: d3a4 053d d88d ffbc b8e0 96bd b8f8 213d
00000220: 0822 6a3d 57a8 2bbd 4377 82bd ef0f 4e3c
00000230: c9c9 153b b0d7 0f3d a856 803b c141 2bbd
00000240: b605 5d3d ea31 953c 6a7f 87bd faea 26bd
00000250: af69 9abd dd5e 0a3c 99e7 3c3d 823c 9b3c
00000260: 39d4 b5bc d762 793d 0546 613d 7318 0e3d
00000270: 70f5 8a3c 0103 433d 7489 053d 47ec 4ebd
00000280: 91c3 533c a420 9ebb df78 67bd 9cc7 26bd
00000290: 3d3f ebbb 42d1 693d cf65 333c 2b4c d33c
000002a0: a16e cbbc a5f1 3c3c e56f 21bc 2ae9 77bd
000002b0: 6dc3 6b3d a74d 06bd af23 02bd 36b8 a73d
000002c0: d29c e3bb ef60 703d 2955 fc3c c7f2 06bd
000002d0: cca5 98bc 68ab 093d 1efa bd3c e0d8 013d
000002e0: 2cb8 01bc 6b78 e93c c27a b23c ee8f 14bc
000002f0: 742d b53d ca49 853d 08c9 17bd b944 8ebd
00000300: b8d1 003d c729 2fbd ce17 04bd a202 783d
00000310: ddbe 6d3c 0fd7 d2bb e9ed 083c 9de3 4ebc
0.06593739 0.013843788 -0.05093975 -0.0018492992 -0.06472186 0.06795725 0.037643198 -0.061270308
0.03617322 0.057552464 -0.027729297 -0.05175409 -0.010479034 -0.05104264 -0.04415036 -0.07887341
0.06651429 -0.03658125 0.008779122 0.072691046 0.043959003 0.06470167 0.009598742 -0.019274557
0.06294939 -0.087548494 -0.038902115 0.052501794 0.05537041 0.03474963 0.02869342 -0.051478688
0.013869213 0.01080799 0.040463004 0.0137688 -0.022816166 -0.048231352 -0.09479144 -0.04043715
-0.01502538 0.029667208 0.024275048 0.06170542 -0.02094642 -0.057899386 -0.035635445 -0.07261279
0.058822356 0.05406823 0.01949254 -0.07907465 -0.0026294715 -0.00059783546 -0.033880882 0.07684456
0.047398258 -0.06222058 -0.02706908 0.051550966 -0.07900702 0.057985473 0.053881694 0.063624665
-0.04638998 0.0907467 -0.0603287 0.018972961 -0.024245959 -0.037814554 0.019573344 0.059475537
-0.042102724 -0.020036226 -0.003649821 -0.02945719 -0.026750494 0.071222186 -0.08231227 -0.003511192
-0.054938626 -0.007925706 0.003047888 -0.08204048 -0.023318034 0.0526093 0.035907194 -0.038328975
-0.02663988 -0.029515818 0.02940919 -0.007970952 0.075971045 -0.009845527 -0.032765586 -0.03063064
0.07894483 -0.019863548 0.07519606 -0.044442814 -2.9858968e-05 0.015804945 0.0094433455 -0.022801692
0.011617919 0.04801823 -0.0019666106 -0.007667116 0.013023965 -0.017521294 -0.07137173 0.055176172
-0.056899406 -0.039697725 0.06859618 0.045242805 -0.06665293 -0.003409511 -0.042304557 -0.013382372
0.033404954 -0.018814355 -0.010023628 -0.068056904 0.054874394 -0.001626686 -0.019597767 -0.048457585
-0.04255104 -0.041813638 0.027806936 0.066241845 0.03262789 -0.031195566 -0.073670805 0.039543837
0.05716136 -0.04190859 -0.063704036 0.012577041 0.002285587 0.035117805 0.00391658 -0.041810755
0.053960524 0.018212277 -0.06616099 -0.040751435 -0.07539689 0.008445469 0.046119306 0.01894975
-0.022195922 0.060885277 0.054998416 0.034691285 0.016962737 0.047610287 0.03260179 -0.0505183
0.012925045 -0.0048256684 -0.056511756 -0.040717706 -0.0071791694 0.05708433 0.010949566 0.025793156
-0.024833025 0.011532222 -0.009853338 -0.060525097 0.05755942 -0.0327889 -0.03177231 0.08189432
-0.0069461847 0.058686193 0.030802326 -0.032946374 -0.018633746 0.03361073 0.023190554 0.03170097
-0.007917445 0.028499803 0.021787051 -0.009067519 0.0884656 0.06508215 -0.037056953 -0.069467016
0.031450003 -0.04276445 -0.032249264 0.060549386 0.014510837 -0.0064343284 0.008357503 -0.012627509
