Results/Models/NN_DCN_model_iter_id_9_epoch_100_lr_0.001.pth (torch, 828110 bytes, 16 tensors)

shared1.weight f4 [200, 17]
00000000: 636d 8ebd 401b 6c3d 847e cebe bb75 76be
00000010: 7e7c 933d c434 f63c 2851 3b3e 2b15 ddbd
00000020: 2c1d b03d b0b0 4fbe 20b7 f83d 1279 e0bc
00000030: 8d4c 133e 9283 d7bc 4212 0dba 7925 653d
00000040: ffe0 de3d 2e1d 9bbd 3e94 af3d f07e bfbd
00000050: 71cd 253e 8ad3 46be f8fd 02be 9d21 073e
00000060: ea3f f13d 1207 753b 744d 723d f568 16bd
00000070: 4cb6 d7bd 6e10 2abe 431b 0d3e ff9e b7bd
00000080: 250f 313d 1a8c 5b3d 59f4 ecbd dbe8 e43d
00000090: 3642 4a3d 0d3b 5c3d 4eb3 c4bc 02a1 653b
000000a0: 4bc2 ab3c 41c0 bd3c 42cd b03d 392c 873d
000000b0: 1554 f23c e49e d33d 1bfa d53d f3ce 28be
000000c0: 3452 d0bc ec17 89bc 41aa 0f3e e838 513d
000000d0: 90c5 d23d 13ea 083e ac90 f53d 0c23 06bd
000000e0: cdb1 fd3d 8e6b 8f3d 012a a33d 97f4 59bc
000000f0: 9c8c f9bd 915c de3d e015 23be 2914 f63d
00000100: ce28 a23d b3df 61bc 116b 50bd 570e 723e
00000110: ddf5 fd3d d7a8 d6bd 09be f93d 5091 203d
00000120: 3de3 65be 36e3 15be 8044 48bd d6a4 b1bc
00000130: 5722 2a3d d574 bdbd f049 963d b476 b33d
00000140: 9480 68bd 2f86 85bd 5c71 683c e52f bb3d
00000150: 3698 e6bd 1915 8e3c 68ab acbd f5d5 89ba
00000160: 3645 11bd bef0 17be 2757 29bd 664c d63d
00000170: 4d44 0cbe c0b7 5e3d 593e f6bc 38ee 27be
00000180: 7114 6fbd 5e45 3ebe 54a6 333d ba4c d3bd
00000190: 819f 313e 8081 b3bd 32ef e0bc 4eb0 053e
000001a0: 7397 8abe 7cbb 5f3e 6e54 00be dcf5 a33c
000001b0: 32cc 99bd d06c e53d 0763 0a3e 8506 f1bd
000001c0: 8908 98bd 4cb2 97bb 8299 00be fff8 69bc
000001d0: a198 5fbd 9de6 a9bd 609d 653e e15d b23d
000001e0: 8166 de3d 0f72 983b 08d4 d5bd b7a5 863a
000001f0: cf56 46bc b9e9 973d 13ce 89bc ea06 0f3c
00000200: a529 a83d 8260 a33d 8920 45bd 3929 183e
00000210: 4186 7ebd 18d3 59be ea08 96bd ba9e 72bd
00000220: a456 613d 97e1 1ebd b1d9 623e 0f55 b03e
00000230: 6bb7 8bbc 2ef2 35be c109 2e3d ec78 183e
00000240: 1cf5 c0bd b834 6b3d 1f75 f23d 4ad5 5ebd
00000250: d862 16be 474b 0cbe 6811 e83d b9de e63c
00000260: a7bb 56bd d700 3e3d 6cba e53d 788a 093e
00000270: 2a90 543e b2fc 273e 5c06 93bd a320 bdbc
00000280: af04 ab3d c5b8 a73c 3521 073d 97a5 7cbd
00000290: 0a27 46bd 3193 36be 0046 62be 6f67 85bc
000002a0: 7543 393d 1f92 31be 5bcf 0e3b b018 dc3d
000002b0: 1d40 473c 030a 4a3d b272 293e 1005 aabc
000002c0: 4e5e ea3c 473a 2b3d c2cf 38bc 0865 073c
000002d0: b3f5 8cbd 9ada c9bc 3f2c cabd 4308 6d3e
000002e0: 23a6 56bd 632b f4bd 31b1 c73d 34c1 733d
000002f0: a628 34be ed73 01be 4a51 edbd 4a5c 33be
00000300: 1af3 1c3d 9a46 4dbd dae3 05be 6311 45bd
00000310: f9fb 6b3d 978d 7dbc e690 223d e615 a0bd
00000320: f5a7 803d 0af0 983d a1f1 dbbd 2771 f63d
00000330: 95c4 933d 79ed 6f3d 5de7 943e 774b 0c3e
00000340: 1800 73be d5aa f73c 36dc 73bc c32c 0b3e
00000350: 8b63 603d c09b 21bc b9a6 dc3d d487 f9bd
00000360: b00b a43d 1c6a 1d3e 3010 da3d 1e58 993d
00000370: 2f5c a53d 0fe5 1e3c 6dc9 91bd 677c 02be
00000380: a9ac 963d b039 ac3d eb9d 9ebd 6be7 a73d
00000390: 3ac3 0b3c 274f bfbd a60c a23d 795d dd3d
000003a0: badc 223e 4321 a43c 5e63 633e e830 053e
000003b0: 4780 17bd 555e 5bbd 15e6 483e 94a4 eabd
000003c0: 293a 1bbd 6023 043e b466 20bd 8357 ddbd
000003d0: a3b2 ba3d e53b c73c 6e06 ea3b 815c 22be
000003e0: 7674 85bd f429 c23d cf9a 27bc b396 dabb
000003f0: b380 173d 61f5 fd3b c57d 18be 943d dbbd
-0.069544576 0.057643175 -0.403309 -0.24068348 0.072014794 0.030054457 0.18292677 -0.10795053
0.08599314 -0.20282245 0.12144303 -0.02740148 0.1438467 -0.026307855 -0.0005381444 0.05594394
0.10882758 -0.07573925 0.08573197 -0.09350383 0.16191651 -0.19416633 -0.12792194 0.13196416
0.11779769 0.0037388247 0.059155896 -0.03672119 -0.10532817 -0.1660783 0.13779931 -0.08965873
0.043227334 0.053600408 -0.11570043 0.11177226 0.04937955 0.053767253 -0.02401128 0.0035038595
0.02096667 0.023162963 0.086329 0.06600232 0.029581109 0.1033304 0.104480945 -0.16485195
-0.025429823 -0.01673504 0.1402979 0.05107966 0.10291588 0.13370542 0.119904846 -0.032748267
0.123874284 0.07002936 0.07966996 -0.013302944 -0.12185022 0.108574994 -0.15926313 0.12015564
0.07917939 -0.013786244 -0.050883356 0.23638283 0.1240041 -0.104814224 0.121944495 0.03920108
-0.22449966 -0.14637455 -0.04889345 -0.021685045 0.041536655 -0.092507996 0.07338321 0.08762875
-0.056763247 -0.06519734 0.014187183 0.091399945 -0.11259501 0.017344045 -0.08431131 -0.0010516035
-0.035466395 -0.1483793 -0.04134288 0.104637906 -0.1369793 0.054374456 -0.030059027 -0.16399467
-0.058369104 -0.18581149 0.043859795 -0.10317369 0.17346002 -0.087649345 -0.027457807 0.13055536
-0.27068672 0.21848863 -0.12532207 0.020014696 -0.0750965 0.11202395 0.13514338 -0.117688216
-0.07423503 -0.004629409 -0.12558559 -0.014280557 -0.054588918 -0.08295939 0.22423315 0.08709312
0.10859395 0.0046522687 -0.104408324 0.0010272776 -0.012105658 0.07417626 -0.016821897 0.008729676
0.08211068 0.07977392 -0.04812673 0.14859475 -0.062139753 -0.21271932 -0.07325919 -0.059233405
0.055014268 -0.038789358 0.22153355 0.34439895 -0.017055234 -0.17768165 0.04248977 0.14889878
-0.09421751 0.057423323 0.11838745 -0.054402627 -0.14686143 -0.13700591 0.11331445 0.028182374
-0.052425053 0.04638752 0.11217198 0.13431728 0.20758119 0.1640499 -0.07178947 -0.023086851
0.08350503 0.020473847 0.032990653 -0.061681356 -0.048377074 -0.17829587 -0.22097015 -0.016284673
0.045230348 -0.17340897 0.0021791074 0.10746896 0.012161282 0.049325954 0.16547659 -0.020754367
0.028609421 0.041803624 -0.011280002 0.008263834 -0.06882801 -0.02464037 -0.098717205 0.23147683
-0.052404534 -0.11922338 0.097505935 0.059510425 -0.17593631 -0.12641878 -0.1158777 -0.17515674
0.038317777 -0.05011616 -0.130752 -0.048112284 0.057613347 -0.015475652 0.039688967 -0.07816677
0.06282035 0.07467659 -0.107394464 0.12033301 0.072152294 0.05857608 0.29082766 0.13700663
-0.23730505 0.030232826 -0.014884045 0.13591294 0.05478243 -0.009863794 0.10773987 -0.1218411
0.08010042 0.15372509 0.10647619 0.0748751 0.08074223 0.0096981665 -0.07118497 -0.12742768
0.07357151 0.084094405 -0.07744964 0.08198436 0.008530432 -0.09341269 0.07912569 0.10808844
0.15904513 0.020035392 0.22205874 0.13006938 -0.03698757 -0.05355676 0.1961902 -0.11457172
-0.037897263 0.1290412 -0.039160445 -0.10807707 0.091161035 0.024320552 0.0071418798 -0.158556
-0.06516354 0.09480658 -0.01022978 -0.006670797 0.03698797 0.0077501987 -0.14891727 -0.107051045

shared1.bias f4 [200]
00000000: 6dc2 eebd 421a e93d eaac 893c 0de4 22be
00000010: b1ff 143d f04f 35be 0572 213e 51d8 49bc
00000020: c204 bebc b76d 2ebe f1c7 87be d629 c5bd
00000030: 9db6 7bbe e0a8 efbd 42a7 e83d 92d3 debd
00000040: 4bb5 88be 8e97 24be 704b 8dbe 3d37 48be
00000050: 5ed3 dcbc ab34 9dbd 1a2f 0e3e 15ae 6dbe
00000060: c92d 83be 54f0 3bbe e750 b03d 6ca5 95bd
00000070: e691 6cbe 4640 ce3d c3a7 293e cb94 7bbe
00000080: 31c0 8bbd a894 18be cc11 85be b0a0 fdbd
00000090: d1b3 223e 0633 81bc 4bd7 1dbe 5e03 2ebd
000000a0: 1173 b0bd 52f6 03be 5437 143e b99c 2b3e
000000b0: 0b49 113d fa06 f43d 5658 0f3e b7cc c43d
000000c0: df23 1b3d 13e7 263e 852e 62be 1c99 51be
000000d0: bb80 d73c e43b 3ebe b61c 093d c608 8d39
000000e0: 72b4 283e f893 1cbe 7d8a a93d 5172 fe3d
000000f0: fcfc 61be 1309 c3bd a8a2 af3d e5f3 4f3e
00000100: 6920 303e 66e1 75bd ae2c 46be 8af6 5fbe
00000110: 653a 07bd 96b9 42be 0cfd 0f3e 3daa 46be
00000120: 6143 e1bc c912 bd3d 2267 c0bd b3f0 d7bb
00000130: 3ad6 233e b758 2fbe 7d27 4bbe b5c2 eb3b
00000140: 1a34 16bc 0c2a d13d 7ab9 09bc e32c 26bd
00000150: c154 7b3d 55d9 ebbd 2e78 883d db41 e0bd
00000160: 3313 cd3d eee5 d53c e2f6 173e 9459 d3bd
00000170: 1cc2 c7bd d92e 18be 31e4 263e c290 d6bd
00000180: 81b1 13be bee3 f2bd f302 9f3d e263 1c3e
00000190: 23e8 4ebc 2747 0abe 6880 393d 0cb5 78be
000001a0: 2445 42be 4ef7 f33c bf25 8dbd 8c90 5ebc
000001b0: 6502 ea3d 6112 30be a0fa 953c a18c 97bc
000001c0: e69f 2cbe 2adb 12bc 3836 1cbc caa7 2b3d
000001d0: 5a41 43bd 1178 f43d a75e 443d 629e 5bbc
000001e0: e9c9 0cbe 4b8b 96bd a56f 1f3e 2716 8bbc
000001f0: efe1 933d fa45 79bd 4390 7bbe ffac 143e
00000200: 59e4 64bd 146e aebd 49b4 5c3c 5343 9e3d
00000210: 531b 37be 557b a83d e02f ca3d 1e79 63be
00000220: a4fe 14bd 907e 543e 0f0f 093e 4110 843d
00000230: f0da 773d 3ea3 78be 0f1a c5bd 4147 74be
00000240: 215b 0abe 626d 2b3c a975 9ebd 4775 9dbd
00000250: 6745 a3be c46e 72bd c6a4 35be 1649 83bc
00000260: b44b 9fba 97ba d4bd 5468 84be e0f2 85be
00000270: 2dcc 9d3d 6464 4abe ae41 a3bd 1222 e0bc
00000280: 5e3a 5fbe 0d61 18be 8ff3 573e 994a 663c
00000290: 84d4 70be ab72 2dbd b1b3 83be 400b 7c3d
000002a0: b131 dabd 2204 86be dc6b bdbd c9a3 ffbd
000002b0: 59b6 fc3d fefb 133e 58f6 04be 8b69 89be
000002c0: a7d9 3fbe 409d 6f3d 582b a2bd 821b 2abe
000002d0: db72 d13d 122d 2a3e a0ce 49bd 73c4 23be
000002e0: 75f8 dc3d 65e8 0fbe a579 013d 4042 3bbd
000002f0: 9eea 73bb 4710 373d 5c02 fc3d 42d8 bbbd
00000300: 7180 2f3e 5ce9 0c3d f69e 37be 3dbe 0bbd
00000310: 2912 5dbe 06b0 3d3e b96b f2bc 11ac 97bd
-0.116581775 0.113819614 0.016806085 -0.15907307 0.03637666 -0.17706275 0.15766151 -0.01231964
-0.023195628 -0.1703404 -0.2651973 -0.0962712 -0.2458138 -0.11702132 0.11360027 -0.108801976
-0.26700816 -0.16073439 -0.27596617 -0.19552322 -0.026956256 -0.07676061 0.13885155 -0.23210938
-0.2562087 -0.18353397 0.08609181 -0.07306942 -0.23102531 0.10070853 0.16567902 -0.24568479
-0.06823767 -0.14900458 -0.2599014 -0.12384164 0.15888907 -0.0157714 -0.15414159 -0.04248368
-0.08615697 -0.12886932 0.14474231 0.16759004 0.03547005 0.11915393 0.13998541 0.09609359
0.037876006 0.16299085 -0.22088058 -0.20468563 0.0263065 -0.18577534 0.033474647 0.00026900152
0.16475084 -0.1529082 0.08278368 0.12424148 -0.22069162 -0.09523215 0.08575946 0.20307882
0.17199863 -0.06002941 -0.19352981 -0.21871391 -0.033014674 -0.19016108 0.14061373 -0.19400878
-0.02749795 0.092320986 -0.09394671 -0.006589973 0.1599969 -0.17123686 -0.19839282 0.0071948417
-0.009167695 0.10213098 -0.008406037 -0.04057015 0.061360124 -0.11516062 0.066635475 -0.10950061
0.100134276 0.026110616 0.14840272 -0.1031982 -0.0975382 -0.14861621 0.16297986 -0.10476829
-0.14423181 -0.118598446 0.077642344 0.15272477 -0.012628588 -0.13503705 0.045288473 -0.24287814
-0.18971688 0.02978101 -0.06891965 -0.013584267 0.11426238 -0.17194511 0.018307984 -0.018499674
-0.16857871 -0.008963386 -0.009534411 0.041908063 -0.047669746 0.11936963 0.04794183 -0.013404461
-0.13748898 -0.07350787 0.15569933 -0.016978336 0.07220828 -0.06085775 -0.2456675 0.14519118
-0.05588183 -0.085170895 0.013470718 0.07727685 -0.17881517 0.08226649 0.09872413 -0.22214171
-0.036375657 0.20751405 0.1338465 0.06448413 0.06051153 -0.24281022 -0.09624111 -0.23855306
-0.13511325 0.010463091 -0.07737286 -0.076883845 -0.31888887 -0.059187666 -0.17738637 -0.016026061
-0.0012153299 -0.10387152 -0.25860846 -0.2616186 0.07704959 -0.19764858 -0.07971512 -0.027359996
-0.21799609 -0.14880772 0.21089004 0.014055871 -0.23518568 -0.042345684 -0.2572303 0.061534166
-0.10654009 -0.26175028 -0.09249088 -0.124824114 0.123394676 0.14451596 -0.12984598 -0.26838335
-0.18735372 0.058499575 -0.079184234 -0.16612056 0.10226985 0.16618755 -0.04926932 -0.15992908
0.10789577 -0.14053495 0.03161015 -0.045717478 -0.00372187 0.044693258 0.123051375 -0.09172107
0.1713884 0.034402236 -0.17931733 -0.034116972 -0.21588959 0.18524179 -0.029592382 -0.07405866

shared2.weight f4 [200, 200]
00000000: 0dc6 e2bd 05e2 233d e298 80bd 79e7 14bc
00000010: 44bd 6abd 5fa1 f9bd d54e 813c e460 703c
00000020: 2355 81bc 53f3 2d3e 60fc 523d 44c8 01be
00000030: 6e9c 263c 9432 efbc 03a4 46bc 540d 903d
00000040: 3f3b e03d a6c6 7f3d efc1 bd3c bcc0 7fbb
00000050: 2b65 2a3e 1a16 e3ba 98aa 173e 6a5a d93d
00000060: 1d35 203e 47a2 823e 4e3e f8bb 812e 08be
00000070: d203 e3bd c442 c43c 003e 07bd 87ec c93c
00000080: f848 04be 9352 d7bc ce73 81bd 28a3 333e
00000090: f3ed 2d3e e30f 20be 6cc7 95bd 9683 aabd
000000a0: a5ba 8b3d ab88 c43d 46bf ea3c d96e b2bc
000000b0: 50b9 233e aa13 7d3c bdb4 8abd 808f febc
000000c0: 38a1 62ba 5a47 a33d 01c0 bdbd d26d 48bd
000000d0: 7455 edbc 7116 053e e097 283e de06 933c
000000e0: dcc8 a33b 152f 383c 7396 a63d 84cf 0f3d
000000f0: 807a 80bd 0d75 c1bd a1fb 14bd c010 b63d
00000100: e5e2 4b3c 3f54 54bd 6772 2d3e 9419 3e3e
00000110: 3789 063e e820 57bd e381 19b9 eb4f 0cbe
00000120: eefd 00bd ab7e 8a3d 2c7a 80bd d0a6 4bbd
00000130: f3f0 d5bd 00b4 193e 25b6 58bd 8311 06be
00000140: 093c 84bd d399 f83d 9801 ec3d 90ea 143e
00000150: bdde 06bd a175 17be d6c0 d93d e7fc 8a3d
00000160: b3bc f53d 7be9 aa3d d93c 983d 6902 113c
00000170: 0d2b 5b3e d61f 963d 1b01 a63b dc13 9cbc
00000180: 73c3 a7bc feea b53c fc95 253e 754f 943d
00000190: e241 34bd fd66 9abd f61f e1bc d230 0a3d
000001a0: 7ccc b33d ac84 75bd e98b f73d 8763 ce3d
000001b0: d1ea 96bd 5b19 313e ffd8 7cbc c941 ef3d
000001c0: 1bd2 483d ec43 50bd b869 d03d 259f d83d
000001d0: 10bc 74bd 52c4 2d3e 4c84 fbbc ea09 473c
000001e0: 69da f9bd 2df8 ed3c 3884 023e 03af 883c
000001f0: 1536 33bd 3202 8e3d e914 333e 7c96 e8bc
00000200: 5b14 713d 5aaa f93d 520c 993d 21df 003e
00000210: df55 6fbd b786 79bd d331 593c e39d 023e
00000220: 8724 883d fc2a 55bd acfa 5dbd a4a5 1ebc
00000230: 9a58 d33d 0b6b e33d 16ad bbbd 66d3 f03d
00000240: 900b aebd 6087 233c f9ff cc3d acc3 24bd
00000250: 3102 60bb 8b80 d73c 34e9 a53c 13b4 c73d
00000260: eddd 273d 65f1 943d e970 ec3d b612 dabb
00000270: 45b6 a6bb 2831 8e3c e7dd 16be 20fa 163d
00000280: 145f 343e 246c d2bd ebb0 f03b f4d7 1cbd
00000290: b7ac 873d 9095 05bc 4c59 2a3d 509c 693d
000002a0: 4326 4fbd f356 393d c772 2c3d 0ab3 893d
000002b0: 074c 71bd 6d60 bb3d efc2 6f3d efa4 f33d
000002c0: 27f1 df3d e482 c83d 0d05 cfbb 2569 6b3d
000002d0: c6c6 fb3d b28e c23c dc7f c53c dfa2 343d
000002e0: 725d bbbd 8807 04bd 17e2 083d 3e35 a03d
000002f0: d956 bcbd 63c8 163e 5bdb 8c3b a38c a2bd
00000300: 75a4 9c3d 049b d13d 8226 c93d e01f 113e
00000310: 23a7 253e 3673 b93c 5e9a 703d 97fb a73d
00000320: 5191 bb3c 4fd1 febc e87f df3c 4134 963d
00000330: 6404 8a3d 898c 27be 8f68 47bd 4b6d 9f3d
00000340: ef46 8cbd f8a8 9d3d a555 653d ab91 e5bd
00000350: 90de d13d 512e e43d 8568 8fbd 9648 ffbc
00000360: d011 63bd 5289 3b3d 437f 7dbd 3193 a83d
00000370: 331a c63d 7ba4 1a3d 7b76 e8bd fea8 b0bd
00000380: 83cd 213d 2057 febd b190 1c3d 52e9 053e
00000390: ef47 07be 8ae9 e53d 2bfa b53d 7762 aabd
000003a0: 8662 063d c507 823d a468 b13d c7a3 aebd
000003b0: 2c06 8ebd 112d af3d e508 6dbd 4686 b6bd
000003c0: 2eda ea3c ffc5 c43d d963 17bd 6279 5ebd
000003d0: 69a1 553d 490d 25bd 3d60 1a3e e226 f53b
000003e0: 0466 e5bd 5fd4 fc3d 11a4 eb3d 577a 5b3c
000003f0: 9e91 433b 78f2 c4bd 71e5 00be 44b4 96bd
-0.110729314 0.04001047 -0.0627916 -0.0090883905 -0.057309404 -0.12188982 0.01578466 0.014671538
-0.015787667 0.16987352 0.051510215 -0.12674052 0.010169132 -0.029198922 -0.012124064 0.07033792
0.109488 0.062445305 0.023163764 -0.003902479 0.16640155 -0.0017325312 0.1481117 0.10612948
0.15645261 0.25514433 -0.0075757867 -0.1329899 -0.11084713 0.023957618 -0.033018112 0.024648918
-0.1291846 -0.026284492 -0.06320916 0.17542708 0.16985302 -0.1563106 -0.07313427 -0.08325879
0.06822709 0.0959638 0.02865566 -0.021781372 0.1598866 0.015446583 -0.06772754 -0.031074286
-0.0008645239 0.079725936 -0.092651375 -0.048932858 -0.028971411 0.12996842 0.16464186 0.01794761
0.0049983095 0.011241694 0.08134165 0.03511001 -0.06273365 -0.09446154 -0.036372785 0.088899136
0.012444233 -0.051838156 0.16938172 0.18564445 0.13138281 -0.052521616 -0.00014639604 -0.13702361
-0.031492166 0.06762441 -0.062733024 -0.04971963 -0.10446348 0.15010071 -0.05290808 -0.13092618
-0.06456763 0.12138715 0.115237415 0.14542603 -0.032927264 -0.14790966 0.10632484 0.067865185
0.11998882 0.08345314 0.07433481 0.008850672 0.21403141 0.07330291 0.0050660498 -0.019052438
-0.02047894 0.02220678 0.16170496 0.07241718 -0.044008143 -0.07539175 -0.02748106 0.033737965
0.08779237 -0.05994098 0.120872326 0.10077577 -0.073690064 0.17294829 -0.015432595 0.116824694
0.049028497 -0.050846025 0.10176414 0.105772294 -0.059749663 0.16969422 -0.030702733 0.01214836
-0.121998616 0.029049003 0.1274575 0.016685015 -0.04375275 0.069340125 0.17488445 -0.028392069
0.058857303 0.12190695 0.07473053 0.12585117 -0.058431502 -0.06091949 0.013256508 0.12755542
0.06647592 -0.052042946 -0.054194137 -0.0096830465 0.10319634 0.11104401 -0.09163873 0.11759071
-0.08498299 0.009981006 0.100097604 -0.04022567 -0.0034180994 0.026306411 0.020252801 0.09751143
0.04098313 0.07272605 0.115449734 -0.0066550625 -0.005087646 0.017357424 -0.14733087 0.03685963
0.17614394 -0.102745324 0.007345309 -0.038291886 0.066247396 -0.008153334 0.041589066 0.057033837
-0.0505736 0.045248937 0.042101648 0.06723602 -0.058910396 0.09149251 0.058535513 0.11896693
0.10934668 0.097905904 -0.006317741 0.05747332 0.122937724 0.023749683 0.02410882 0.04410064
-0.09148683 -0.032233745 0.03341874 0.07822655 -0.091962524 0.14724879 0.00429861 -0.079369806
0.07648555 0.10234645 0.09821798 0.14172316 0.16177039 0.022637945 0.058740966 0.08202284
0.02289644 -0.031105665 0.02728267 0.073341854 0.06739119 -0.16362204 -0.0486837 0.07784518
-0.06849467 0.07698244 0.05598988 -0.112094246 0.102475286 0.11141647 -0.070023574 -0.031162541
-0.05543691 0.045785256 -0.061888944 0.082311995 0.09672966 0.037754517 -0.11350723 -0.08625983
0.039502632 -0.124189615 0.038223926 0.13077286 -0.13211034 0.11226185 0.088856064 -0.08319562
0.032808803 0.06349138 0.08662537 -0.08527332 -0.06934771 0.085535176 -0.05786981 -0.089123294
0.02866849 0.09608077 -0.036960457 -0.05431498 0.052155886 -0.040295873 0.15075774 0.007481442
-0.112010986 0.12345194 0.115059026 0.013395867 0.0029841433 -0.0961656 -0.12587525 -0.07358602

shared2.bias f4 [200]
00000000: 112c 1e3d 4111 8bbd e1ed a13c 1ec0 ac3c
00000010: af6d 80bd abcd c8bb 86f4 3e3a 1fb1 d0bc
00000020: e696 b7bc 80f2 aabd a93d 2b3c fac6 16bd
00000030: 26a5 0a3d ec61 07be 1076 163c e562 003c
00000040: 2ca5 273d 35e7 85bd 842f b0bd f49a 14be
00000050: 4569 5abc 69fc d4bd 9319 263c e13f 3cbc
00000060: 8f4f d13b 4c4c 51bc 8b05 90bd 4dbc 29bd
00000070: 7860 473c 3692 37bd 6bae 93bd 1175 3c3c
00000080: 758b bbbd 7d76 e23c 8ea2 783d 1d92 173d
00000090: ce3e adbd 97ab b1bd e61e 08bd 4c8d 8bbd
000000a0: 24c6 9abc c641 32bd 121a 13be d23a 97bd
000000b0: 6526 593c b6d2 29ba b888 563d 95ee 043d
000000c0: a4ba 603d 0f62 a0bc 9b38 76bd 2366 07bd
000000d0: 252b 4dbd 3df9 b1bc ac42 a1bc a82e e6bd
000000e0: f60b d6bc 42b0 8a3d 6e73 053b 6b7d 90bd
000000f0: 4945 8ebd 3241 76bb d573 f1bc afcf b8bc
00000100: ec46 5abd c77e a6bb c644 75bd d805 28bd
00000110: f2bb 92bd 4ea2 1bbc 9894 8d3c d23e d33b
00000120: 82e9 42bd d369 33bd 8b1b 97bd e7d9 8fbc
00000130: eac9 673d cd09 2a3d 14b2 ed3c 8301 bdbd
00000140: 97fb 3dbd b88e 27bd d1be 2e3d c71f 803c
00000150: 5163 ffbd 3476 8ebd 80c3 d63c 5731 d9ba
00000160: bb59 e5bb 47fb a2bc 1ffa 82bd fc18 7f3c
00000170: 065f 773c 77ed 933c d88f 9dbd b149 1ebd
00000180: 4d7f 293b 90f9 b6bc 62a0 82bd 0d5f cebc
00000190: b6a0 c8bc 5517 02bd bd27 9abd 02eb 8b3d
000001a0: 3f83 ec3c a37e 643d 30aa f7bc bf78 cdbd
000001b0: 7b85 babc 48ce c8bd 1def 74bc 9a6a 0dbe
000001c0: 269d 8cbb 0fd2 ce39 4443 fc3a 0f63 b7bd
000001d0: 1d79 00be c080 6ebd 8137 323d 9316 9dbd
000001e0: 6ed8 283c 52a9 833c c4b7 e13c b44c 5d3d
000001f0: a94f f9bd 9216 053d 8f18 d8bd 93c3 8abd
00000200: 3b67 b9bd e4f8 cfbd bdd0 1cbd bfac 52bd
00000210: 8f03 9c3c 2da8 80bd bfb4 bfbd 44c2 dabc
00000220: f1d4 4fbd 4b46 7d3c 2049 303b 02d6 e6bc
00000230: 7c83 abbd 3ead 353d 8461 07bc 9c6c 4cbd
00000240: ef39 4fbd 4b28 87bd bf2b a7bd 5e6a 0b3d
00000250: 7294 c6bd 08d5 c7bc 83bf 123d 3ab1 c63c
00000260: 4c01 2b3c 15fb 6b3d 5ce0 b7bd f47b 193d
00000270: 2f0d 203d cdc0 70bd e214 15bd cafe b8bc
00000280: 07b7 88bd 330f 5abd 66ac 9a3c 321b babd
00000290: f741 3cbd b58e e53c 9093 9e3d eb79 adbc
000002a0: c19d 68bd 96f3 ab3c b8a5 9dbc f2bc 55bd
000002b0: 028e d03c 4527 99bc d356 cbbc cbdd 3fbd
000002c0: 1231 e8bd 193e f4bd 02f5 a6bd e4ae 58bd
000002d0: 4da6 d03c f723 423b 58d9 3c3c 1341 f1bb
000002e0: b923 e4bd 5eda 1fbd 7941 d83c 1b61 e6bd
000002f0: 046b e9bd 0ba7 0bbd 7efa fc3c 879e f1bc
00000300: 78f3 6c3d 34f5 d53b cd0e d1bd f6be 22bd
00000310: 43c6 773b f617 243d 1434 073d 4117 82bd
0.038616244 -0.067904 0.01976675 0.021087702 -0.062709205 -0.006128033 0.00072843616 -0.025475083
-0.022410821 -0.083470345 0.010451713 -0.036810853 0.033848904 -0.13220948 0.009183422 0.007836078
0.040929005 -0.0653824 -0.08602813 -0.14512235 -0.013330762 -0.10399706 0.010137933 -0.011489839
0.006387658 -0.012774538 -0.07032307 -0.041439343 0.012168996 -0.044817172 -0.07211002 0.01150252
-0.09157459 0.02764439 0.0607019 0.03700458 -0.08459245 -0.08675306 -0.033232592 -0.068140596
-0.018893309 -0.043519758 -0.14365414 -0.07384266 0.013253783 -0.0006478237 0.05237648 0.032454092
0.054865494 -0.019578008 -0.060112577 -0.03305639 -0.050089974 -0.021725291 -0.019685112 -0.11239368
-0.02612875 0.067719 0.002036299 -0.070551716 -0.06946809 -0.003757548 -0.029474178 -0.022559969
-0.053290293 -0.005081031 -0.05988004 -0.041021198 -0.07164754 -0.009499146 0.01728277 0.0064466977
-0.04758597 -0.043802094 -0.073783 -0.017559959 0.056589045 0.041513253 0.029015578 -0.09228804
-0.046382513 -0.04090759 0.042662445 0.015640153 -0.12470115 -0.06956139 0.026216269 -0.001657049
-0.006999222 -0.019895209 -0.06395363 0.015569922 0.015098339 0.018057568 -0.07693452 -0.038644496
0.002586323 -0.022335798 -0.06378247 -0.025191808 -0.024490695 -0.031760532 -0.07527111 0.068319336
0.028871177 0.055784833 -0.030232519 -0.10032796 -0.022768727 -0.0980497 -0.014949587 -0.13810197
-0.0042911945 0.00039447888 0.0019246121 -0.08954441 -0.12546201 -0.058228254 0.043509964 -0.07670321
0.010305507 0.01607195 0.027553447 0.054028228 -0.12173397 0.032492228 -0.10551559 -0.06775584
-0.09052893 -0.10154894 -0.038285006 -0.051434275 0.019044666 -0.06282077 -0.093606465 -0.026703961
-0.050740186 0.015458654 0.0026899055 -0.028178219 -0.08374688 0.04435467 -0.008262996 -0.049908265
-0.05059236 -0.06599482 -0.08162641 0.034036987 -0.096962824 -0.024393573 0.03582717 0.02425443
0.010437321 0.057612497 -0.0897834 0.037471727 0.039075073 -0.05877762 -0.03639687 -0.02258243
-0.06675535 -0.05323715 0.018881034 -0.09087218 -0.045961346 0.02802215 0.07742989 -0.0211763
-0.05679107 0.020990174 -0.01924406 -0.052182145 0.02545834 -0.018695483 -0.024821674 -0.046842378
-0.113374844 -0.11925907 -0.081522 -0.052901164 0.025469923 0.0029623487 0.011526428 -0.007362494
-0.11139626 -0.03902661 0.026398407 -0.1124899 -0.11397365 -0.03409485 0.030881163 -0.029494537
0.057849377 0.0065294746 -0.10207901 -0.039732896 0.0037807382 0.040061913 0.03300865 -0.063520916

hidden1_Y1.weight f4 [200, 200]
00000000: 21e8 9c3c b1a8 52bd 5800 b7bd 5440 19bd
00000010: 8450 b0bd f2ce 553d 2558 e9bd cfd7 ec3d
00000020: 9e61 9c3d 00e3 563d dcd4 d23d 543a e33d
00000030: c679 e2bd 3210 003c e208 14bd ae23 9f3d
00000040: 09e9 40bc 9366 07be 3a4c 873d 7841 dcbd
00000050: 3f54 98bd 2732 e7bd 5a32 34bd 5396 023d
00000060: 80b8 6d3d 36ff d53d 9555 893d 28c9 013e
00000070: 519f e1bd dd15 a63d eed1 023e b8af ee3c
00000080: 2c41 cfbd b873 eabd 5626 5ebd 2f52 903d
00000090: b476 43bd 37ff 3bbd 8401 e7bd df71 4a3b
000000a0: ad76 f33d 8dd2 b33d 9ef4 d0bd 0e4d 933d
000000b0: 0e6b aebd 6183 59bd a856 113e 898f f6bc
000000c0: 5a9b e13b f1d2 28bd e3eb 883d 4ce2 b4bb
000000d0: b270 df3d 8924 adbd fa7f 9fbd 40b5 50bd
000000e0: c00c b23b fe61 74bd 619b ca3d 5cba 51bd
000000f0: 3c5a e83d 1d62 6fbd acc3 e23d bb31 b23b
00000100: 7981 adbc 4cc5 cbbd fca9 0c3d ca3d 573d
00000110: b7cf d23b 3964 e93d 5fa1 d33d 1b86 07bc
00000120: dd95 a43d 9f47 a0bd 51d8 5f3d 1a6b 89bd
00000130: dcef 13bd c244 db3d 05d7 90bd 0c79 b1bd
00000140: f869 83bd ef64 a23d 985d 9cbd 0d5a 3bbd
00000150: 715b 063d 6524 5eba 096e 80bd 1f55 dfbd
00000160: c0a7 343d 1183 f13d 0c7c 813d 10e3 32bc
00000170: 25a3 c83c 0c16 f9bc 8c4c 623d 69d2 d5bd
00000180: 18ae c9bd 694a 5cbc 9317 1e3e 013f b43d
00000190: 69e4 6f3b c27e a0bb 7359 bb3c b922 663d
000001a0: bca2 0e3d e674 e53d bcf3 febd 710a 48bd
000001b0: a5f8 93bd b3ba 403c 833f 40bd ea33 acbd
000001c0: dc8b f2bd 111d 123d f6eb a0bd 435e ff3c
000001d0: 8a5e 843d b9a4 a1bd 64bc 12bd ff1a 903d
000001e0: a779 32bc b896 e1bb afca 15bc dcbf cd3d
000001f0: 86d6 24bb 3bb1 003e 2f34 67bd 57a2 a43d
00000200: d946 93bd 6726 c13d b53a 713d b013 a43d
00000210: e504 d5bd 2b7a 383d ca78 66bd b10b 85bd
00000220: d08d 04bc 8e47 063c 80c4 14bc 9c5a 943d
00000230: c549 a43d 3107 94bd 55e0 a9bc 4fa8 56bd
00000240: a517 83bb c9a8 97bd 4acc 84bd 6901 cdbc
00000250: 21ee 75bd 0d46 983d 6d4a 3f3d 0632 df3d
00000260: 1c02 b4bd 1050 4abd b61a e33d 44f1 343b
00000270: 9e2b d9bd 9ec8 bebd 5ab7 0e3d aa25 5ebd
00000280: 85f4 ea3d 0855 89bc 58ce aabc ceb7 0abd
00000290: 4e08 d13d 544a e7bd 35dd 22bd 5fbf ee3d
000002a0: a249 75bd c2bf 4cbc 0c79 553a cb06 d23d
000002b0: dabb ce3d 736a 303d 05c5 dbbc d5ab 70bd
000002c0: 71b1 2b3d 14af 8fbd 908f 5ebb b99d 0a3d
000002d0: 4c3b f0bd c867 063e 84c2 073c 3dce e03d
000002e0: ed0e cfbd 2ccc 9b3c efae 4abc 1057 583d
000002f0: 75a2 933d 2b5e c63d 4d33 da3d 037b cebd
00000300: af79 ccbc c19a 99bd 4be5 6bbc 4dcf 76bd
00000310: 1118 cd3d f8f1 453c c50b 2ebd d0a5 ee3d
00000320: 632e c33c 14af 1c3e f907 89bd 6586 7bbc
00000330: 9fa6 e43d 46b9 c5bd 6392 ffbd 432e a0bc
00000340: 5176 a23c 7b2f 58bd a8e2 f23d e996 473c
00000350: 0f22 01bd 1761 003d 6a16 82bd 6c1a 69bb
00000360: b00e c6bd 51fa 87bd 7422 e6bd 2183 c8bc
00000370: 1d81 623d fe7f e23d b58a cc3d 75f8 ccbd
00000380: 31bf b03d 309a 8abd 620d 00bd ee59 91bc
00000390: f26f c33d c461 d2bd 2758 033d 79be 053d
000003a0: d844 f33d 8bd0 4e3d d893 cdbd e6ca 8fbd
000003b0: f53e 8cbd e519 5cbd 02a9 743d d997 77bd
000003c0: a97f 5a3d 9c4f e63d f69a 103d bc13 d03b
000003d0: 1e95 093e 22ca f83d 0eba a93d 1bb6 2ebd
000003e0: 11a6 613c 5d8e f1bd 5901 bc3d 8bbe 76bd
000003f0: 7167 f5bd fcde edbc a28a 5a3d b358 87bd
0.019153656 -0.051430408 -0.089356124 -0.037414864 -0.08609107 0.05219931 -0.11393765 0.115646
0.076358065 0.052462578 0.10294506 0.110951096 -0.11058383 0.007816361 -0.036141284 0.07770477
-0.01177431 -0.13222723 0.06606336 -0.10754675 -0.07437944 -0.11288863 -0.04399333 0.03188164
0.05803728 0.10449068 0.067057766 0.12674391 -0.11016715 0.08109639 0.12775394 0.029136524
-0.101198524 -0.11447853 -0.05423578 0.07046925 -0.047720626 -0.04589769 -0.11279586 0.0030890626
0.1188787 0.08780394 -0.10202907 0.071924314 -0.08516513 -0.05310381 0.14193213 -0.03009774
0.0068849744 -0.041216794 0.06685617 -0.0055201408 0.10910167 -0.08454234 -0.077880815 -0.050954103
0.005433649 -0.059663765 0.098929174 -0.051203117 0.11345336 -0.058443177 0.11072478 0.0054380572
-0.021179901 -0.09949741 0.034341797 0.05254916 0.006433453 0.11396069 0.103335135 -0.008271719
0.08036397 -0.07826161 0.054649655 -0.06709881 -0.03611742 0.10706474 -0.07072262 -0.08665666
-0.06416696 0.07929408 -0.07635039 -0.045740176 0.03280205 -0.0008474051 -0.062709875 -0.109049074
0.04410529 0.11792577 0.06322488 -0.010918394 0.024491856 -0.03040602 0.055248782 -0.10440523
-0.09847659 -0.013445475 0.1543868 0.088010795 0.003660465 -0.004897923 0.022869801 0.056185458
0.034823164 0.11203937 -0.124488324 -0.048838083 -0.072251596 0.011763263 -0.04693557 -0.08408339
-0.11843082 0.03567225 -0.07857506 0.031172877 0.064633444 -0.078927465 -0.035824195 0.07036399
-0.010893262 -0.006884422 -0.009142562 0.1004636 -0.002515228 0.12567608 -0.05644625 0.08038776
-0.071912475 0.09431153 0.058893878 0.080115676 -0.10401324 0.045038383 -0.056267537 -0.064963706
-0.008090451 0.008195771 -0.009080052 0.07243845 0.08021883 -0.07227934 -0.020736853 -0.052406605
-0.0040006214 -0.0740524 -0.064842775 -0.025025086 -0.06004155 0.07435236 0.046701837 0.10898213
-0.08789465 -0.04939276 0.11089079 0.0027609626 -0.106040224 -0.093156084 0.034842826 -0.054235138
0.1147242 -0.016764179 -0.020850345 -0.033866696 0.10206662 -0.11293474 -0.03976174 0.11657595
-0.059884675 -0.0124968905 0.00081433426 0.10255202 0.100944236 0.043070268 -0.026827345 -0.05875762
0.04191727 -0.070158154 -0.0033960082 0.033841822 -0.1173006 0.13125527 0.008286122 0.10976837
-0.10110269 0.019018255 -0.012370809 0.052817404 0.072087206 0.0968593 0.10654316 -0.100820564
-0.024960367 -0.0750022 -0.014397929 -0.06025629 0.10014356 0.012081616 -0.042491693 0.1165272
0.02382583 0.15301162 -0.06690974 -0.015351866 0.11164593 -0.09654479 -0.12479093 -0.01955331
0.019831808 -0.052779656 0.118596375 0.012181976 -0.03152662 0.031342592 -0.063519314 -0.0035568727
-0.0967077 -0.06639541 -0.1123704 -0.02447659 0.055298913 0.11059569 0.09987394 -0.10008327
0.08630217 -0.0676769 -0.031262763 -0.017743077 0.09542836 -0.102725536 0.03206649 0.032652352
0.11878365 0.05049185 -0.100379646 -0.07021122 -0.068479456 -0.053735632 0.05973149 -0.060447548
0.053344402 0.11245653 0.035304032 0.006350009 0.1343579 0.12147929 0.0828744 -0.042654138
0.0137725035 -0.11794732 0.091799445 -0.06024031 -0.119826205 -0.029036991 0.053354867 -0.06608715

hidden1_Y1.bias f4 [200]
00000000: 1ef9 283d 7700 873d 850d 62bd 7c48 e9bc
00000010: dde6 72bd b07e a03c 20f2 0fbd 6178 49bc
00000020: 3ab0 dabc 6060 81bd 5fd5 72bd e1be 27bd
00000030: eac7 83bc 723b 64bd ebf7 6f3d fd09 fe3b
00000040: ba17 373d 6263 be3c 130c 36bd 6e90 0cbd
00000050: dfda 993c a105 4a3d 0c0a 64bc b887 123d
00000060: e8d4 8fbd cc01 3d3d 5c17 ffbc 83fc 59b9
00000070: 8604 713c aae9 873c 96ab 1c3c 86cb f83c
00000080: 94c2 01bd 0a9a ccbb 275d 37bb 442e 8d3d
00000090: 0f28 363d eb49 b13c 3277 c33c 61fa 88bc
000000a0: bb83 323c 6763 543d 87ea 293d b701 e63b
000000b0: 42c4 b13c ffa4 07bc c74f 19bd 2d72 4abd
000000c0: 78ad cdbc 644b 6b3d 05db 773d a96e 303d
000000d0: 90b7 8abd 3279 543c 5178 9bba 0621 9ebc
000000e0: 2da0 8bbb b5af 013d 5ae9 253d 6cd6 553d
000000f0: 106b 513d 7ce7 97bc 9936 833d c1b1 483c
00000100: 4b2a 143d f3ee 7d3d 48c3 7a3d 97ec e13b
00000110: 92c4 a83b 9c34 7ebd 2e1b fdbc 4473 a2bb
00000120: 07fe 923d be19 c93c 6fb3 bd3c b44d 81bd
00000130: 77a5 ccbc 348c 4bbd 2efc 85bd 09d6 d53c
00000140: 5596 363d 8d86 883d 06b8 4dba ff9c c2bc
00000150: 8499 fcbc 9a01 8fbd 2703 4fbd ad29 00bd
00000160: 50a9 9dbc 746f d73b d026 dcbc 53de ccbc
00000170: 4a2b 1cbd 7c0c 2bbd 6358 1a3d f445 453d
00000180: c409 18bc 1c9c 2ebd b382 89bc c0b6 d2bb
00000190: 01d4 30bc aca0 59bd 0ac1 e2bc 3fe8 343d
000001a0: 22be 453d ed4b 29bb fa49 0ebd 0e14 36bd
000001b0: 86d4 31bd aa9b ebbc c076 8cbd 2ed3 c2bc
000001c0: b415 7b3d 1033 0abd 8dcb 2dbd b5f5 9abd
000001d0: b897 6dbd 4f85 9cbc 1bf8 293d b96d 4cbd
000001e0: 323d 5dbd 1979 46bd 63ce eabc 717e e13c
000001f0: 82a5 833d 135e 433d 8b26 88bd e145 533c
00000200: d66c 95bc 0af6 033d 42c1 65bd e0e6 0bbb
00000210: 5ca7 1e3d 275a 34bd 91b0 4ebc e3e9 543c
00000220: 0b72 363d 8996 14bd 51e5 2cbd 2b3e 53bd
00000230: b483 0b3d 69d7 70bc 0738 753d c69f b03c
00000240: 345d e13c 816c 633b 2d10 07bd bb67 62bc
00000250: 240a 1abd 4f18 6a3d 1488 6abd 8720 583d
00000260: f3c2 133c fedb 7ebb 5b7a c0bc 1a33 ec3c
00000270: 59e4 673c e8e8 01bd 4c43 9d3c aea2 5b3d
00000280: 05c8 d23b f412 a93d 37ae 813d 1bf0 7fbd
00000290: 3799 153d acfa 71bd 3b89 98bb 73a3 9f3c
000002a0: 6bb3 75bc 0706 63bd cd34 833d c631 933c
000002b0: 4988 d03a 0c5a e6bc 820e 92bd 8260 a4bb
000002c0: 6bfd 5bbd 0657 4dbb 337b 2bbd cd14 0bbd
000002d0: 31ca f13c 6b7e 17bd 51a8 623d b89a e7bc
000002e0: 10c2 09bb d115 5abd bb5e 483d 5417 563d
000002f0: 2b24 84bc 0c01 ffbc af0a 763d deb1 4a3d
00000300: 2924 83bc 3dbc 82bd 3883 403d 34b5 193d
00000310: 2f9b ffbc 36d3 8abd 5c9c 673d f2da 82bd
0.0412532 0.065918855 -0.055188674 -0.028476946 -0.0593022 0.01959166 -0.035143018 -0.012296767
-0.02669536 -0.0631721 -0.059285518 -0.04095352 -0.016086537 -0.055720754 0.058586042 0.0077526555
0.04470036 0.023240749 -0.04444511 -0.034317426 0.018781124 0.049321774 -0.013918411 0.035773963
-0.070230305 0.04614429 -0.031139068 -0.000207888 0.014710551 0.016590912 0.009562394 0.030370485
-0.031679705 -0.006243949 -0.0027979107 0.0689359 0.044471797 0.021641692 0.023860548 -0.016720952
0.010895665 0.05185261 0.04148343 0.0070192474 0.021700028 -0.008279084 -0.037429597 -0.049425293
-0.02510713 0.057444945 0.060511608 0.043074284 -0.06773293 0.012968348 -0.0011861419 -0.019302856
-0.004261038 0.031661708 0.040505745 0.05220644 0.051127493 -0.018542998 0.06406898 0.012249411
0.036173146 0.061995458 0.06122139 0.006894659 0.005150386 -0.06206189 -0.03089675 -0.0049575884
0.07177358 0.024548408 0.02315685 -0.06313649 -0.024981244 -0.049694255 -0.0654224 0.026103036
0.04457696 0.066662885 -0.0007847551 -0.023756502 -0.03083492 -0.06982727 -0.050540116 -0.031289745
-0.019245774 0.0065745655 -0.026873976 -0.025008356 -0.03812722 -0.041759953 0.03768195 0.048162416
-0.009279672 -0.042629346 -0.016785955 -0.006430477 -0.010792733 -0.053131744 -0.027679939 0.0441668
0.048277028 -0.0025832609 -0.03473852 -0.04445272 -0.04341557 -0.02876075 -0.06858587 -0.023782339
0.061299995 -0.033740103 -0.04243045 -0.07566396 -0.05800602 -0.019106535 0.041496377 -0.049909327
-0.05401344 -0.04845533 -0.028662866 0.027526112 0.064280525 0.047697138 -0.066479765 0.012895078
-0.018240374 0.032217063 -0.056092508 -0.002134733 0.038733825 -0.04403129 -0.012615339 0.012995216
0.044542354 -0.036276374 -0.04221088 -0.05157296 0.03406115 -0.014699795 0.059867885 0.02156056
0.027510263 0.0034702125 -0.03297441 -0.013818677 -0.037607327 0.05715209 -0.05725868 0.052765395
0.0090186475 -0.003888845 -0.023495844 0.02883296 0.014153563 -0.031716257 0.019197129 0.05362194
0.0064325356 0.08255568 0.06332057 -0.06248484 0.03652307 -0.05907695 -0.004655031 0.019487118
-0.01499639 -0.05542567 0.06406555 0.01796807 0.0015909757 -0.02811911 -0.071316734 -0.0050163874
-0.053708475 -0.0031332388 -0.04186554 -0.033955384 0.029515358 -0.036985796 0.0553363 -0.028272018
-0.0021020211 -0.053243462 0.048918467 0.05226834 -0.016130527 -0.031128429 0.060068782 0.049486034
-0.016008453 -0.0638356 0.04700014 0.037526324 -0.031201927 -0.067785665 0.0565456 -0.06389417

hidden2_Y1.weight f4 [200, 200]
00000000: 6251 2ebc 2e7e 88bd bece c2bd c771 b5bd
00000010: 4ea5 2fbd 5998 f1bc c8bd fc3d caa0 b43c
00000020: ab70 f9bd 4d25 ebbc 98c7 acbc 6457 debd
00000030: ab97 533d fa79 98bc a58f 6ebd f7b3 31bd
00000040: d674 79bd e73c e93d 68d2 1b3d 132b fabd
00000050: a331 ea3d 99a2 f8bd feba d5bc d0fc 81bd
00000060: 11b6 fd3d aa7b 9dbd 3d5a 1fbd f980 e43d
00000070: 8776 cd3d 500c 9ebd ea4c fbbb c2fe 2a3d
00000080: 77ff 01be 3317 8f3d e5d9 3abd 58f1 ef3d
00000090: 65a9 a43d e77e 34bd b0a9 34bd 0af4 9c3d
000000a0: 604e cf3d 9d75 83bb abf2 1dbd 5bfb 87bd
000000b0: 7188 863d d5b1 afbd dd4f b9bc 8242 aabd
000000c0: 354f c13d 2da7 e5bd 6fde b6bd 851a a3bd
000000d0: 7aec 1b3d c708 2f3d 9095 82bd 08d7 adbd
000000e0: 46d7 8c3d ffbd 403d 8bcd 3ebd e21c bb3d
000000f0: 93ec 94bd adfb b73d 9548 c0bd d296 db3d
00000100: 26fb 583c 6f35 41bd 78d6 07be 1a88 a1bd
00000110: 5d1f be3d 0909 d53d fd6d 9bbd 3142 1fbc
00000120: 220a 5a3d 3447 b33d 4527 5ebc 1b6e 80bd
00000130: 3619 d23d 4b1d b13c 8bce 633c a20d aa3c
00000140: dcd3 9f3d a4fb a93d c3c3 f8bc 035a 603d
00000150: 9d01 a0bd 9381 bebd d92f 7d3d d0f5 b7bd
00000160: 11b9 1b3d 146e 873d 0d65 1f3c 5145 d6bd
00000170: 0406 97bd 0291 b53d 744b 43bc 278e d7bd
00000180: a9b7 563d 93d1 803d eb55 8dbd cedd e73b
00000190: a94a bdbd 67be cf3c 3362 d6bd 9ce9 febd
000001a0: 99ba 8d3d b745 293d 62c9 c63d a532 02ba
000001b0: 1bd4 823d b393 043e 3f0c 73bd df8d c3bd
000001c0: f17a 0abe 901c c8bd c675 b8bd e326 883c
000001d0: e71f cd3d e577 b4bd 1974 6fbc 6893 26bc
000001e0: 6c47 97bd eec7 923a 3d6f f33c 93a2 edbd
000001f0: 2df0 b8bd abd1 4f3d 8620 e8bc 1031 03be
00000200: ae96 b1bd 68a4 edbd 6bda e2bc c8e9 c2bc
00000210: a519 b03d 9566 ce3d ce85 953a 8dd3 983d
00000220: fdce 1e3d 0fb7 d9bd 0c55 6e3d 0046 f93b
00000230: aa70 0bbd e700 be3d b8fa dcbd 08b1 89bd
00000240: b386 0d3d 2f8b babd 95fb 903d a712 85bd
00000250: c537 c43d 00ca 74bd 79ce 163d bb44 63bc
00000260: caaf a03d 9411 ff3c e8a5 b5bb e0a4 dbbd
00000270: af14 cb3d f626 e23b 2798 74bd c9c7 8b3c
00000280: 72d8 a53d a285 6d3d ae5e ecbd 53cb 1dbd
00000290: 00a2 ccbd 64dd 2bbd d102 97bd 52cf cebd
000002a0: eefd da3c 91c2 04bd 4ed1 dcbd 0c48 64bc
000002b0: 3684 e9bd ced1 f6bd cfd5 5fbb 2152 d03d
000002c0: fd89 69bd 434c f23d 5a77 c73d 63fc 983d
000002d0: c213 aebd 930c fdbb 74b3 a83d 9dbb 2cbd
000002e0: a921 19bd f75a ba3d c052 76bd 2faf f6bd
000002f0: 1a27 c53d fa44 b63d 89e0 e1bd ad24 b2bd
00000300: 23ee 513d 2576 883c 2ce4 d33d 17c3 adbc
00000310: 2666 c8bc 0429 dcbc e532 76bd 73f9 ae3b
00000320: a19d 403d 4478 85bd c572 b53d 4795 8dbc
00000330: d3a9 a2ba 45b2 29bd c7dd 81bd 117f ce3d
00000340: e1b2 6cbd 63b6 64bd d674 84bd 0fbd 893d
00000350: 6e97 d9bd c7f6 e6bc 30cf 1f3d 9b92 cd3c
00000360: 6e3c c7bd 70cd 4f3d 2db9 adbd 0577 85bd
00000370: 92fb 7fbd cd60 e83c dac5 f1b8 8589 f33d
00000380: b2ba 143d 0f49 9abc 718d a3bd 2b19 2b3d
00000390: e700 6e3d cd3e 303d ce48 f3bd d6fd d63c
000003a0: c661 423d 8aac db3c 5ce8 1abc f65e ddba
000003b0: 62a9 fc3d 10c4 8cbd 1485 d9bd 6a82 11bd
000003c0: 8327 1c3b 7585 363d 769d 73bd f7bb d63d
000003d0: 137c b3bd 85ce b93d 485a 3ebd 21ec 143e
000003e0: 71f1 a93d d0e8 ffbc f056 ff3d f93a 9cbc
000003f0: f912 6fbd 3bf5 c73d 8f1d a83d 6b6e 9dbd
-0.01063952 -0.06664692 -0.09512089 -0.08859592 -0.042882256 -0.02949159 0.123408854 0.022049326
-0.12179693 -0.02870431 -0.021091267 -0.10856512 0.051658314 -0.01861285 -0.05824246 -0.04338452
-0.06090244 0.11388569 0.038042456 -0.12215247 0.11435249 -0.12140388 -0.026090141 -0.06347048
0.12388242 -0.07689603 -0.038904417 0.11157412 0.10032373 -0.07717192 -0.007669081 0.041746862
-0.12695108 0.06986847 -0.045617957 0.117159545 0.08040122 -0.044066336 -0.04410714 0.07663734
0.10122371 -0.0040118233 -0.038561504 -0.06639739 0.06568993 -0.08578841 -0.02262109 -0.083134666
0.09438936 -0.11213527 -0.089291446 -0.079640426 0.03806732 0.04273298 -0.06376183 -0.084882796
0.06876998 0.047056194 -0.04658274 0.09136368 -0.072716855 0.0898355 -0.09388844 0.10722126
0.013243472 -0.0471701 -0.13265407 -0.078872874 0.09283326 0.10402114 -0.07589338 -0.009720371
0.05323232 0.08753815 -0.013559167 -0.06271001 0.10258715 0.021620413 0.013904224 0.020758454
0.07804081 0.0829995 -0.030366784 0.054773342 -0.07812808 -0.09302058 0.06181321 -0.08982432
0.03801829 0.066127926 0.009728682 -0.1046244 -0.07374194 0.08865549 -0.011919845 -0.1052516
0.052421246 0.06289973 -0.06901153 0.0070760017 -0.09242756 0.025359346 -0.10467949 -0.12446901
0.06920356 0.04132625 0.097063795 -0.0004966653 0.06388112 0.12946968 -0.05933785 -0.09548544
-0.13523461 -0.09771073 -0.090068385 0.016620105 0.100158505 -0.088119306 -0.014615082 -0.01016698
-0.073866695 0.00111985 0.029716128 -0.11603274 -0.09030185 0.050737064 -0.02833582 -0.12811685
-0.08671318 -0.11603624 -0.02769204 -0.023793116 0.08598641 0.1007816 0.0011407675 0.07462225
0.03877162 -0.10630619 0.058186576 0.0076072216 -0.03404299 0.09277516 -0.10790008 -0.06723219
0.034552287 -0.091085784 0.070792355 -0.06497698 0.0958095 -0.059762955 0.036818 -0.013871367
0.07846029 0.031136312 -0.005543459 -0.10724807 0.099160545 0.006901617 -0.059715416 0.017063038
0.08097924 0.05798877 -0.11541496 -0.038523983 -0.099918365 -0.04195918 -0.07373584 -0.10098137
0.026732411 -0.032412115 -0.10782109 -0.013933193 -0.1140217 -0.12051736 -0.003415454 0.10171915
-0.05701636 0.11830952 0.097395614 0.07470014 -0.08499862 -0.007722446 0.08237353 -0.04217111
-0.037385616 0.090993814 -0.06013751 -0.12045132 0.09626599 0.08899875 -0.11029155 -0.086984016
0.051252495 0.016657898 0.10346255 -0.02121119 -0.02446277 -0.026875027 -0.06010713 0.0053397953
0.047025327 -0.065170795 0.08859781 -0.017283095 -0.0012410231 -0.041429777 -0.06341129 0.1008283
-0.05778778 -0.055838 -0.06467597 0.06725513 -0.10624586 -0.028193844 0.03901595 0.025094321
-0.09728323 0.05073303 -0.08482585 -0.06516842 -0.062495776 0.02836647 -0.00011528628 0.11891464
0.03631086 -0.018833665 -0.07985962 0.04177205 0.05810633 0.04302864 -0.11879121 0.026244085
0.047456525 0.026815671 -0.009454813 -0.0016889262 0.12336995 -0.068733335 -0.10621086 -0.035524763
0.0023827262 0.04456087 -0.05947634 0.1048507 -0.087639 0.090725936 -0.046472818 0.14543201
0.082980044 -0.031238943 0.12467754 -0.01907109 -0.058367703 0.09763571 0.08208763 -0.07687076

hidden2_Y1.bias f4 [200]
00000000: 715e 8fbd 9bae 7e3d eb61 033d eafc 2b3d
00000010: de34 adbc c240 3cbd cfad 94bc 19ba 6c3d
00000020: 2271 333c 8944 503d 0490 6d3c a3c8 91bd
00000030: b13f 8bbc 446b ee3c 40f9 2d3d 2b34 a43b
00000040: 1e2b 2bbd a8b7 ae3b 7cd0 eebc 965d 363d
00000050: 1127 823d fe01 afbd f7d5 f8bc 2c3c 27bc
00000060: 73f3 30bd c129 e63c 189c a53c b719 95bd
00000070: 1ac7 04bd f98d 603c 1d07 153d 8084 30bd
00000080: 0edb 46bd 0705 9b3c f66e 78bd a3a1 4abd
00000090: 1d51 8f3d 77b8 05bd 1790 2ebd c332 0dbd
000000a0: 46de 963c 2a63 2e3d f70c a6bc c8f7 3f3d
000000b0: 8670 82bd 3764 993d ca67 cb3c 4709 74bc
000000c0: aa10 143d 934e 52bb dcd8 9ebd e805 8cbd
000000d0: f013 663d 774c 25bd 4898 69bd bda9 a03c
000000e0: f969 313d 4c75 373d cb51 a9bc de44 11bc
000000f0: 3091 7dbd f60d 303c 3c79 0d3d 8efd de3c
00000100: 346d 393d e9a7 503d de5e 2d3d f560 0bbd
00000110: d3c6 8fbc ff4f 703d 39f6 b4bc 195a 1cbd
00000120: 2bad 703d 2b34 1dbc 081d 13bb cf60 623c
00000130: 709d 54bd db78 3b3d 0217 57bd b815 33bc
00000140: 327b 863d 4221 51bd 09d5 90bc d41f 3e3d
00000150: 38a9 b1bc 9b70 083c 4cba bc3a 69c8 6bbd
00000160: 0222 6a3d 2a6d 6a3d 97ba a1bc 9c93 883d
00000170: 1d7f fd3a 50d8 79bc 46a9 cabc a589 1b3d
00000180: f275 533d acaa 5f3d 2e1c 5e3d b42f 1b3d
00000190: fb01 75bc cdd9 94bd 6524 e0bc 86ea 003c
000001a0: 3203 10bb f613 0f3c 43cb 533d 6637 7cbd
000001b0: 2e8d dabc 76ce 97bd 0f68 963c 5302 b13c
000001c0: aa15 fbbb b6af 0f3c fa47 adbb 500c 7d3d
000001d0: b9fd dfbb f904 61bd 77a3 b93c 6cf1 3dbd
000001e0: 6993 343d 1ed4 463d 2cd8 603d 3d40 5dbb
000001f0: 9a02 463d 290f df3c c567 8fbd 9bd4 8e3d
00000200: 064b e7bc c8de ec3c d158 bbbc e3d3 a23b
00000210: c305 36bd e822 163d da14 53bd dbfc 363d
00000220: 34e7 6dbd f35c 973c 8e5d c23c aa0d 113c
00000230: 6a05 753a 9a86 78bd d191 27bd 7aae 7ebc
00000240: ec11 a5bd 45f9 633c 5f12 c7bc d766 79bc
00000250: 4ced d9bb 5f1b 003d bacb 00bd 1151 29bb
00000260: c055 153d 5e43 173d 67e4 d23c 0f2f 063d
00000270: e9e8 6b3d 4576 28bd 180d 35bc 6ebf ddbb
00000280: 4e51 3cbd 0b7f 6ebc 46b7 78bb fdc7 393d
00000290: b8a2 193d 863a 583d 7359 813c afe0 9cbd
000002a0: 60b2 94bc 1633 96bd f3aa 0cbd ea28 923d
000002b0: abed 113d 4e37 a8bd 62f6 303d 2c46 d63c
000002c0: 40b4 89bd 617b ae3b fc39 85bd 57cd 703d
000002d0: 1920 4c3c 09f8 55bd 20b3 153d f29a b33b
000002e0: a3f9 383d 5828 4e3d 1816 70bd 1e6f 45bd
000002f0: 4c1e 69bd 012f b1bc fae3 ea3a ee59 223d
00000300: 7b33 733d 84c2 603d 2e2b 6ebc e431 1a3d
00000310: 818c 2c3d 84ad e8bb 756f 36bd 734d 423c
-0.07000435 0.062178236 0.032075804 0.041989245 -0.021143373 -0.045960195 -0.018149285 0.057794664
0.010952266 0.05084661 0.014499668 -0.071183465 -0.016998144 0.029103883 0.04247403 0.0050111017
-0.041789167 0.005331952 -0.029152147 0.044522844 0.063551076 -0.08545302 -0.030375464 -0.010207217
-0.04320092 0.028096082 0.020216033 -0.07280295 -0.03241644 0.013705724 0.036383737 -0.04309511
-0.04854875 0.018923296 -0.060652696 -0.049470555 0.06997893 -0.032646623 -0.042617884 -0.03447224
0.018416535 0.04257504 -0.020269854 0.046867162 -0.063691184 0.074898176 0.024829764 -0.01489479
0.036148705 -0.003209029 -0.077562064 -0.06837064 0.056171358 -0.040356126 -0.057029992 0.019612188
0.043313954 0.044789597 -0.020668885 -0.008866517 -0.06190604 0.010745516 0.034539446 0.027220514
0.04527016 0.05094138 0.0423268 -0.034028012 -0.017550861 0.05867004 -0.022090064 -0.03817186
0.058758896 -0.009594957 -0.0022447724 0.013817026 -0.051907957 0.045769554 -0.052512176 -0.010930471
0.065664664 -0.051057108 -0.017679708 0.046417072 -0.021687135 0.0083276285 0.0014398783 -0.057564173
0.05716134 0.057233013 -0.019742293 0.06668779 0.0019340251 -0.015249327 -0.024738919 0.037973065
0.051626153 0.054606125 0.054226093 0.03788729 -0.014954085 -0.07268105 -0.027361104 0.007868415
-0.002197456 0.008732786 0.051707517 -0.06157627 -0.026678648 -0.07412426 0.018360166 0.021607554
-0.0076624947 0.00876992 -0.0052881213 0.06177932 -0.006835666 -0.054936383 0.022660954 -0.046372816
0.044085894 0.048542134 0.054893658 -0.0033760213 0.048342325 0.027228909 -0.07002214 0.06974145
-0.028234016 0.028914824 -0.0228695 0.0049691065 -0.04443909 0.036654383 -0.051533557 0.044674736
-0.05808182 0.018476939 0.023726251 0.008853355 0.0009346815 -0.06067524 -0.040910546 -0.015544528
-0.08060059 0.013914411 -0.024300752 -0.015222273 -0.0066506024 0.031276103 -0.03144429 -0.0025835673
0.03645873 0.03692948 0.025743676 0.032759722 0.057595167 -0.041128416 -0.011050485 -0.006767205
-0.045975976 -0.014556657 -0.0037951036 0.04535674 0.037508696 0.052790187 0.015789723 -0.076600425
-0.018151462 -0.073339626 -0.034342717 0.0713671 0.03562705 -0.082136735 0.04320372 0.026156507
-0.06723833 0.0053247665 -0.065052 0.058789577 0.012458825 -0.052238498 0.03654778 0.0054811174
0.045159947 0.050331444 -0.05861482 -0.048201673 -0.05691366 -0.021628859 0.0017920726 0.039636545
0.059375267 0.054873005 -0.014536662 0.037645236 0.042126182 -0.007100763 -0.044539887 0.011859286
