Results/Models/NN_PS_model_iter_id_8_epoch_100_lr_0.001.pth (torch, 7762 bytes, 6 tensors)

fc1.weight f4 [25, 17]
0.17789938 -0.32889733 -0.018325228 -0.37610924 0.08732256 -0.018389981 0.10257014 0.035333764
0.18610315 0.056875065 -0.21360232 0.13529406 -0.22067803 -0.4133406 0.21783474 -0.000571451
0.075316586 0.31714553 0.48552653 -0.25398034 0.036363974 -0.10364204 0.0105828745 -0.13200763
0.043684945 0.18833812 -0.20953947 0.41241643 -0.44526875 -0.30800644 -0.1369643 0.21688642
-0.040158883 0.13725787 0.12985626 -0.15255606 -0.35167512 -0.18840244 0.3784909 0.24200362
0.05248279 0.11079895 0.2795174 0.34429878 -0.2333536 0.01440268 -0.40353665 -0.2585327
-0.2587615 0.13664825 0.08974509 -0.15483567 -0.024899071 0.12301558 -0.0029353402 -0.035515163
-0.22238877 -0.29215962 -0.4169192 -0.040327396 0.29892433 -0.30883494 -0.064642176 -0.19604182
-0.025013385 -0.18248503 -0.09910975 -0.06635641 -0.29657838 0.59036756 0.20931748 0.2660837
-0.11982363 -0.032822166 0.28956115 0.31176376 -0.022391476 -0.06361529 0.5664116 0.315487
0.11653934 -0.8338121 -0.5453445 0.1345833 0.4981786 0.14820756 0.31318638 -0.15402587
-0.0067705065 0.4161364 0.02589821 -0.18072703 -0.30020323 0.28309667 -6.319024e-05 0.012354772
0.023423921 -0.33886135 0.0025029136 -0.19066745 -0.27929738 0.2859363 0.09276645 0.3429729
0.16522172 0.31088403 0.3591708 -0.1816269 -0.16524494 0.45225242 0.01912354 0.06671907
-0.10149304 -0.020296877 0.040648445 -0.4384402 0.21368103 0.10531067 0.36411616 0.37104684
-0.26228097 -0.0012336039 0.66152614 0.14835341 -0.12100211 0.25308147 0.1547835 0.12459868
0.06262746 0.17338718 -0.18742158 0.08313901 -0.07952272 -0.071634986 0.20496045 0.4154705
-0.21721245 -0.10337531 0.0786157 -0.35280463 -0.42896014 0.026420098 -0.2487629 -0.15119874
0.1845931 -0.12810868 -0.028079407 -0.009305404 0.08687557 0.45725054 0.17538993 -0.023553109
-0.28805315 0.11741692 -0.2129364 -0.12165473 -0.094256826 -0.16915344 0.3125121 -0.05054469
-0.25546312 0.18652694 0.2113662 -0.070603505 -0.18559188 -0.15477167 0.12370203 0.3869263
0.042940013 0.23087056 0.06520188 0.27426058 -0.20638503 0.02108153 0.25815642 -0.34021547
-0.25286502 0.29137883 -0.16169165 0.06150531 -0.22081019 -0.25069442 0.042442475 0.055763926
-0.0077080224 0.093603075 0.048521027 -0.34315607 0.15951361 0.16121514 -0.13239364 0.34871346
0.08946677 0.06918384 -0.16805986 -0.0883781 -0.33500966 0.23531727 -0.21566683 -0.020118069
0.036483187 0.42274955 -0.09047344 0.38254935 -0.17397436 0.13916427 -0.3545457 -0.36221787
0.5965764 -0.069250375 0.45649314 -0.17120948 0.15686132 -0.16269498 0.017070826 0.20104933
-0.25762036 0.054153115 0.28172803 0.08422986 -0.22601648 -0.12777074 -0.12802288 -0.22587013
-0.41089845 -0.10672937 0.18197428 -0.00023905995 -0.016008321 -0.15230298 0.04359754 -0.10331045
-0.20362104 -0.2685111 -0.1642322 0.35482728 0.07834783 0.10546257 0.11075323 -0.23568885
-0.018684013 0.35356802 0.44092005 -0.32536498 -0.10493234 0.13106541 0.35474363 0.07267663
-0.19078614 -0.2806014 -0.24437343 0.07054584 0.035112385 -0.14296252 0.037674464 0.05068129
00000000: 412b 363e 3b65 a8be ca1e 96bc 6491 c0be
00000010: 2cd6 b23d 96a6 96bc 4b10 d23d 23ba 103d
00000020: d391 3e3e d4f5 683d 91ba 5abe 878a 0a3e
00000030: 6cf9 61be 61a1 d3be 1210 5f3e 6dcd 15ba
00000040: 953f 9a3d e660 a23e ef96 f83e b609 82be
00000050: 64f2 143d 4742 d4bd cb63 2d3c 022d 07be
00000060: fcee 323d b5db 403e 8491 56be 3f28 d33e
00000070: 44fa e3be 05b3 9dbe 5f40 0cbe 7917 5e3e
00000080: a47d 24bd 548d 0c3e 0af9 043e a837 1cbe
00000090: c30e b4be 92ec 40be 8fc9 c13e cccf 773e
000000a0: 32f8 563d 8fea e23d e81c 8f3e ee47 b03e
000000b0: 3ff4 6ebe 38f9 6b3c 5b9c cebe 665e 84be
000000c0: 637c 84be 85ed 0b3e 46cc b73d 3e8d 1ebe
000000d0: 23f9 cbbc 98ef fb3d d65e 40bb 5978 11bd
000000e0: e2b9 63be f295 95be 6f76 d5be 572e 25bd
000000f0: 9c0c 993e 9d1f 9ebe 1e63 84bd 30bf 48be
00000100: dfe8 ccbc 5bdd 3abe 0dfa cabd dfe5 87bd
00000110: 1fd9 97be 5422 173f 5257 563e 1f3c 883e
00000120: 1766 f5bd 8970 06bd 5c41 943e 809f 9f3e
00000130: 546e b7bc bc48 82bd 5a00 113f 8387 a13e
00000140: 2dac ee3d b674 55bf b29b 0bbf 34d0 093e
00000150: 4411 ff3e b9c3 173e f759 a03e f5b8 1dbe
00000160: 20db ddbb d50f d53e 7c28 d43c 8210 39be
00000170: 3db4 99be 0cf2 903e 0085 84b8 ab6b 4a3c
00000180: 86e3 bf3c 3c7f adbe ec07 243b 543e 43be
00000190: 1100 8fbe 3e66 923e 56fc bd3d 259a af3e
000001a0: e22f 293e 312c 9f3e 3ce5 b73e 67fc 39be
000001b0: f835 29be a18d e73e f8a8 9c3c 02a4 883d
000001c0: 95db cfbd a345 a6bc fc7e 263d 3c7b e0be
000001d0: 33cf 5a3e 1fad d73d 6f6d ba3e daf9 bd3e
000001e0: b149 86be e1b0 a1ba c759 293f f5e9 173e
000001f0: f4cf f7bd e593 813e 917f 1e3e 982d ff3d
00000200: d342 803d 698c 313e 71eb 3fbe c944 aa3d
00000210: cfdc a2bd 5db5 92bd 27e1 513e 8db8 d43e
00000220: f16c 5ebe 6fb6 d3bd 4501 a13d cfa2 b4be
00000230: aaa0 dbbe f66e d83c b4bb 7ebe d8d3 1abe
00000240: f905 3d3e ec2e 03be c906 e6bc b175 18bc
00000250: d2eb b13d be1c ea3e 6b99 333e 73f2 c0bc
00000260: b47b 93be 4878 f03d 000c 5abe 1d26 f9bd
00000270: b909 c1bd 8f36 2dbe 9601 a03e f307 4fbd
00000280: 10cc 82be eb00 3f3e 6270 583e 9298 90bd
00000290: cc0b 3ebe 777c 1ebe 7d57 fd3d 341b c63e
000002a0: dee1 2f3d 5569 6c3e 9088 853d e26b 8c3e
000002b0: 9956 53be 2cb3 ac3c 142d 843e b930 aebe
000002c0: 8677 81be 9b2f 953e 7f92 25be feec 7b3d
000002d0: 111c 62be 055b 80be 29d8 2d3d b768 643d
000002e0: 9493 fcbb f8b2 bf3d fcbd 463d 27b2 afbe
000002f0: 8957 233e 9515 253e 3392 07be 928a b23e
00000300: 5b3a b73d 42b0 8d3d e217 2cbe 94ff b4bd
00000310: 6386 abbe 03f7 703e c4d7 5cbe a6ce a4bc
00000320: 656f 153d a172 d83e 244a b9bd 82dd c33e
00000330: 5626 32be 1481 0e3e 0487 b5be 9f74 b9be
00000340: 3bb9 183f 24d3 8dbd 78b9 e93e 8a51 2fbe
00000350: 41a0 203e 8399 26be 1ed8 8b3c e0df 4d3e
00000360: d1e6 83be a8cf 5d3d a83e 903e b480 ac3d
00000370: dd70 67be 55d6 02be 6e18 03be 804a 67be
00000380: 4861 d2be ee94 dabd 7757 3a3e 2bac 7ab9
00000390: e223 83bc 50f5 1bbe 5693 323d 6e94 d3bd
000003a0: 0982 50be 497a 89be 7c2c 28be ecab b53e
000003b0: d474 a03d c3fc d73d 97d2 e23d 6b58 71be
000003c0: 370f 99bc de06 b53e 46c0 e13e 3d96 a6be
000003d0: c4e6 d6bd 0336 063e f5a0 b53e 7cd7 943d
000003e0: 715d 43be fdaa 8fbe 073d 7abe 567a 903d
000003f0: 01d2 0f3d c464 12be 8a50 1a3d 2f97 4f3d

fc1.bias f4 [25]
0.2754036 0.4547198 0.3762637 -0.2699639 0.17187606 -0.1324239 0.3005335 -0.17879187
-0.16733505 0.028866896 0.22510974 0.022700088 0.062345378 0.32457468 -0.076981775 0.21491815
-0.07819659 0.18174826 0.15422168 0.013966217 0.39828098 0.0636881 0.034685005 0.18451098
0.38282007
00000000: b301 8d3e 09d1 e83e a3a5 c03e b538 8abe
00000010: 4700 303e 219a 07be 87df 993e 3715 37be
00000020: e159 2bbe 457a ec3c 2b83 663e 89f5 b93c
00000030: de5d 7f3d a72e a63e 9fa8 9dbd 8113 5c3e
00000040: 8925 a0bd 371c 3a3e 4aec 1d3e 8fd2 643c
00000050: 7ceb cb3e e86e 823d dd11 0e3d 72f0 3c3e
00000060: fe00 c43e

fc2.weight f4 [25, 25]
-0.008059076 -0.1267138 -0.10136788 -0.30600122 0.111898944 -0.00042101715 -0.19825938 0.36411327
0.0060773254 -0.152196 0.09932415 0.00017904317 0.33482417 -0.02697451 -0.025317939 0.47478205
-0.07656607 -0.120724045 0.28916478 0.22804582 -0.08679625 0.3395525 0.14184621 0.08168463
-0.0050231973 -0.51803976 0.36989272 -0.1961683 -0.4351457 -0.6414781 0.30504963 -0.29599106
-0.4809074 0.2547808 0.017932473 -0.3406688 -0.09876262 0.27614433 0.094095744 -0.4326285
0.26187778 0.15181097 -0.94078267 -0.5869021 -0.018944483 0.39727223 0.047268376 0.2444668
-0.1410139 -0.18963997 -0.18540838 0.42109168 -1.0021793 -0.10217941 -0.9085931 0.3862286
-0.24797788 -1.1260657 -0.07859989 0.2356323 0.31151602 0.18548091 -0.30836174 0.031893093
0.10394772 -0.18400484 0.40181693 -1.8384544 0.3121517 -0.15395121 0.23315111 -0.11200587
-0.013275622 -0.92085934 -0.23320048 0.17313632 0.2090939 0.3022244 0.0035514303 0.093431436
-0.36917117 0.05213544 0.42127028 -0.16602974 0.08896133 0.13400379 0.30811635 0.1986883
0.22231863 0.13247797 0.38188264 -0.01869866 -0.04363963 -0.32462624 -0.054834586 0.17295292
0.4299063 0.18133168 0.49968842 -0.005626189 0.025438035 0.17750548 0.3317451 0.19163519
-0.14417201 -0.016909992 -0.0005142625 0.33742058 -0.16663945 -0.0071039507 0.22985294 0.11294954
0.2584469 0.12516022 -0.09654872 0.15599348 0.02399933 -0.13216464 -0.24683271 0.26300013
0.08913782 0.42493227 0.13247746 0.3957628 0.3074217 0.115174785 -0.01180901 0.03410096
0.13069631 -0.09315643 -0.34500322 -0.017621586 0.33756515 -0.036872458 0.2544982 0.4203778
0.11733836 0.35895687 0.11652869 -0.11646351 0.43587613 -0.119746044 -0.26255575 -0.061207443
0.041894816 0.060823437 0.7808684 0.24923727 0.605998 0.07943727 -1.8550177 -0.040343698
-0.34255016 -0.93539476 0.7011432 -1.5669876 0.29545987 -0.50213605 -0.95191646 -0.37646142
-0.24575236 0.33566466 0.42332277 -0.9866582 -0.20252322 -2.8535755 -0.22674899 -0.8403969
0.0034533085 0.007907116 -0.034816943 -1.0998459 0.24287707 0.42575124 0.12980333 0.25736192
-0.29197755 0.11439928 0.12693144 -0.6306916 0.17165133 0.26564503 0.09991095 0.01213417
0.07610262 -1.7795569 -0.29568246 -1.7221986 -0.048288222 0.33357403 -0.19291617 0.010009748
-0.56449467 0.37309885 0.117839605 0.32120255 -0.26800957 -2.350735 -0.32615793 -0.2327351
0.10184321 0.36790174 0.287614 -0.3094366 -0.010888199 -0.18747593 0.07495687 0.2485107
-0.3831114 0.14687666 0.055732198 -0.15242817 0.46021625 0.16128881 -0.06337786 0.3535962
-0.08286764 -0.25802705 -0.09965859 -0.08514862 0.18892488 0.49942312 0.32175732 0.32266706
0.3121195 0.25955898 0.3334313 -0.29275388 -0.06887214 0.15584669 0.085195884 -0.025001226
-0.6961415 0.14558217 0.14325914 -0.09624317 -0.024083193 -0.64134663 -0.008919692 0.3724308
-0.4469978 0.3066514 -0.6856414 0.14887124 0.11665696 0.108187445 -0.36966017 -0.6206597
-0.3581252 -0.2088526 -0.07347002 -1.207849 0.2943702 0.07813893 -0.04542684 0.32200903
00000000: 370a 04bc 43c1 01be f799 cfbd 31ac 9cbe
00000010: 462b e53d f7bb dcb9 8204 4bbe 0e6d ba3e
00000020: 4d24 c73b 45d9 1bbe 766a cb3d 89bd 3b39
00000030: 136e ab3e a6f9 dcbc 9167 cfbc a216 f33e
00000040: acce 9cbd 2b3e f7bd 680d 943e d884 693e
00000050: 3bc2 b1bd d3d9 ad3e 2240 113e 454a a73d
00000060: a299 a4bb 419e 04bf 9462 bd3e 58e0 48be
00000070: 6bcb debe e937 24bf 772f 9c3e 248c 97be
00000080: 7f39 f6be a172 823e 1fe7 923c 246c aebe
00000090: 0e44 cabd ca62 8d3e 45b5 c03d 7c81 ddbe
000000a0: d814 863e 5674 1b3e 22d7 70bf 373f 16bf
000000b0: 7631 9bbc 4467 cb3e 7c9c 413d 8155 7a3e
000000c0: f365 10be fb30 42be b2db 3dbe 5499 d73e
000000d0: 6947 80bf 7043 d1bd 8f99 68bf c1bf c53e
000000e0: eaed 7dbe ec22 90bf fbf8 a0bd 9849 713e
000000f0: 077f 9f3e b5ee 3d3e 97e1 9dbe 55a2 023d
00000100: 8be2 d43d c46b 3cbe f3ba cd3e 7952 ebbf
00000110: 59d2 9f3e 63a5 1dbe 2abf 6e3e 5563 e5bd
00000120: ff81 59bc 70bd 6bbf 1bcc 6ebe a64a 313e
00000130: b61c 563e 28bd 9a3e 1dbf 683b fb58 bf3d
00000140: 0104 bdbe f98b 553d bdb0 d73e b303 2abe
00000150: 5c31 b63d 4a38 093e 6dc1 9d3e f274 4b3e
00000160: 7fa7 633e 4ea8 073e 1f86 c33e ef2d 99bc
00000170: 78bf 32bd 6935 a6be 3b9a 60bd 921a 313e
00000180: ae1c dc3e 03af 393e 29d7 ff3e e55b b8bb
00000190: 6d63 d03c ffc3 353e 7eda a93e 043c 443e
000001a0: d4a1 13be d386 8abc 92cf 06ba 64c2 ac3e
000001b0: 88a3 2abe 42c8 e8bb 925e 6b3e 1752 e73d
000001c0: 2753 843e 002a 003e 56bb c5bd c1bc 1f3e
000001d0: 3e9a c43c 2b56 07be b7c1 7cbe f4a7 863e
000001e0: e48d b63d b990 d93e 2ca8 073e 6ca1 ca3e
000001f0: 6166 9d3e c2e0 eb3d 947a 41bc 73ad 0b3d
00000200: 41d5 053e ccc8 bebd 43a4 b0be 255b 90bc
00000210: 57d5 ac3e 9307 17bd 974d 823e c23b d73e
00000220: 184f f03d 32c9 b73e 98a6 ee3d 6c84 eebd
00000230: 282b df3e 6a3d f5bd b56d 86be a8b4 7abd
00000240: e699 2b3d ff21 793d fee6 473f 0e38 7f3e
00000250: af22 1b3f 02b0 a23d 3871 edbf 6f3f 25bd
00000260: bc62 afbe 0876 6fbf 1f7e 333f 0d93 c8bf
00000270: 8446 973e fd8b 00bf ccb0 73bf 8dbf c0be
00000280: 82a6 7bbe 3ddc ab3e c3bd d83e a295 7cbf
00000290: 3f62 4fbe fba0 36c0 e330 68be 4024 57bf
000002a0: e750 623b d98c 013c 369c 0ebd c0c7 8cbf
000002b0: c4b4 783e 11fc d93e 2aeb 043e f1c4 833e
000002c0: 157e 95be 2b4a ea3d 51fa 013e 0175 21bf
000002d0: 5ec5 2f3e a002 883e 1d9e cc3d 66ce 463c
000002e0: b1db 9b3d 85c8 e3bf b163 97be 0171 dcbf
000002f0: dfc9 45bd 37ca aa3e d18b 45be edff 233c
00000300: b982 10bf d006 bf3e e455 f13d a974 a43e
00000310: 8d38 89be 7172 16c0 2cfe a6be 1c52 6ebe
00000320: 2c93 d03d 9e5d bc3e 2442 933e 796e 9ebe
00000330: 6b64 32bc b1f9 3fbe fd82 993d 9779 7e3e
00000340: 2d27 c4be d666 163e 7247 643d 2116 1cbe
00000350: 77a1 eb3e e528 253e 40cc 81bd 900a b53e
00000360: 82b6 a9bd 1f1c 84be ce19 ccbd 6662 aebd
00000370: 8675 413e 63b4 ff3e 60bd a43e 9e34 a53e
00000380: 21ce 9f3e eae4 843e 82b7 aa3e d6e3 95be
00000390: d60c 8dbd 4696 1f3e 2e7b ae3d 5fcf ccbc
000003a0: 5436 32bf 7e13 153e 86b2 123e 241b c5bd
000003b0: 1e4a c5bc 4b2f 24bf e623 12bc 40af be3e
000003c0: e5dc e4be 6a01 9d3e 3286 2fbf b471 183e
000003d0: d8e9 ee3d 6191 dd3d 1944 bdbe 8ee3 1ebf
000003e0: 305c b7be 75dd 55be 7377 96bd cc9a 9abf
000003f0: b1b7 963e 4e07 a03d 7f11 3abd 5ede a43e

fc2.bias f4 [25]
-0.12570402 -0.0020521416 0.11490444 0.23205136 -0.011823371 0.29305053 -0.25792158 -0.033005856
0.034593035 -0.016821187 0.00069570576 0.0047536693 0.3231114 -0.030872133 0.023928227 0.031286564
0.16482902 0.026855264 0.026007613 0.12050345 -0.15384182 -0.034128867 0.03808952 0.21865655
0.031890843
00000000: 8eb8 00be 397d 06bb 0553 eb3d df9e 6d3e
00000010: d0b6 41bc b80a 963e 4c0e 84be 2631 07bd
00000020: 6db1 0d3d 96cc 89bc 0660 363a abc4 9b3b
00000030: db6e a53e 8ee7 fcbc 2105 c43c 5726 003d
00000040: f0c8 283e 92ff db3c eb0d d53c 83ca f63d
00000050: b688 1dbe b6ca 0bbd c203 1c3d 81e7 5f3e
00000060: f99f 023d

ps_out.weight f4 [2, 25]
0.34627083 -0.787469 -0.8391917 0.29314518 0.30249688 0.22082147 -1.0164137 -0.26726776
0.37505874 -0.2364927 -0.56126416 -0.3998331 0.2777536 0.47520187 -1.0228591 -0.7759463
0.056098197 -0.07571299 0.33116496 -1.1401896 -0.022812633 -0.17095274 0.3337682 0.32767946
0.35129067 -0.37781775 0.6442637 0.54736906 -0.06584727 -0.06624157 -0.2419913 1.059908
0.45100614 -0.21510535 0.4243824 0.6253097 0.4149896 -0.30705184 -0.43117437 0.9896806
0.76337576 -0.3430527 0.08580775 -0.35028812 1.0245719 -0.15666236 -0.13317074 -0.46165544
-0.39140794 -0.36393714
00000000: 694a b13e 9297 49bf 44d5 56bf 2017 963e
00000010: dfe0 9a3e 061f 623e d819 82bf 52d7 88be
00000020: b307 c03e 242b 72be 02af 0fbf edb6 ccbe
00000030: b835 8e3e a94d f33e 0ced 82bf 6ba4 46bf
00000040: 39c7 653d 690f 9bbd 748e a93e bcf1 91bf
00000050: 8fe1 babc 3c0e 2fbe aae3 aa3e 9ac5 a73e
00000060: 5fdc b33e 5471 c1be 77ee 243f 6120 0c3f
00000070: efda 86bd a9a9 87bd 91cc 77be 11ab 873f
00000080: 47ea e63e 9444 5cbe a648 d93e 4c14 203f
00000090: 8479 d43e e635 9dbe e3c2 dcbe b55b 7d3f
000000a0: 986c 433f 9aa4 afbe f9bb af3d f758 b3be
000000b0: 2c25 833f 196c 20be e95d 08be 1a5e ecbe
000000c0: 9f66 c8be f855 babe

ps_out.bias f4 [2]
-0.032482933 -0.23497622
00000000: d30c 05bd 9b9d 70be
