Results/Models/NN_PS_model_iter_id_6_epoch_100_lr_0.001.pth (torch, 7762 bytes, 6 tensors)

fc1.weight f4 [25, 17]
00000000: 442f 5e3e e1dd 67bc 09db ecbc 1d5b 46bf
00000010: c26a d23e faa8 b2bc dca4 ad3e e6c7 e93e
00000020: 73f1 923e 1a73 9a3e 00a7 c0be 4133 893e
00000030: 8052 8d3e 1318 223c 773b 1b3e cebf 913d
00000040: b301 94bd ce1c a93d 5ed1 023e a747 973d
00000050: 538b 83bd 1de6 083f 93e0 db3d 693d 80bb
00000060: 2241 c13d dece 62bd 38fb 303e d85b 9b3e
00000070: 62dd 693d d608 0dbd a0f0 e43d 38fc 9fbe
00000080: 47e4 aebd f068 78be 2a45 4f3b 6a7c 7fbc
00000090: f5c8 463e 9c30 a4be 8a62 bc3e 62c8 6abe
000000a0: 13c1 8f3d 03c2 a53e 6d4c 683d 3d2b 1abe
000000b0: 6d52 8cbd d096 bfbe 3a17 e5bd 0054 8abd
000000c0: bb99 583e d0c1 a23d 1952 dcbd c9d7 b53d
000000d0: bf75 383e 7971 eb3d 7892 9f3e 420e 903e
000000e0: e21b b93e 7de6 6bbe aa01 e6be 5e7a 653b
000000f0: b0c9 cdbc 0bb9 583c 4a8f 63bc 8494 44bc
00000100: 2c43 243e 0eab 603d 1b3b 1d3e d2f4 a1bd
00000110: 2b61 363d 53e6 273d 860b 813e cb29 dabd
00000120: 6138 a43e b6fd 94bd 6d9f a2be f384 d43e
00000130: 6ee3 2a3d 1122 44be d50c 30be 1182 4cbe
00000140: f731 083e 7f0e a53d e0ce b1be 0502 89be
00000150: 3601 eebe c7e6 983e c6fc d73e 270f babe
00000160: f90b e8bd 6150 343e 5092 273e 6c44 6bbe
00000170: f4c1 47be 2624 8cbd fe48 593e 319c b23e
00000180: 81c3 92be cbf6 65be 60f5 3b3e ba54 95be
00000190: c52f adbd 7a5d 6e3e 6ada 483d 4050 793e
000001a0: bb8d 3abf 41fb b9be 3089 013e 8b01 fd3d
000001b0: c3ad d7bd f813 053e b9dd 93be 0ad2 0f3e
000001c0: 41ed da3d 0b98 bbbd 49c7 a2bb 46ff 17bd
000001d0: 2e25 1dbe 066b 673e 2ca0 08be 1e6f f53e
000001e0: d84d 083f 907f b13b 9b87 d43e 383f 933e
000001f0: 4708 a7be e479 f13d 0684 633e fa94 ae3e
00000200: 06d3 fe3b 1be2 ce3e c564 e03d 2d59 b83d
00000210: 4348 c73e cce3 d83e 04c0 2bbd a1a8 df3e
00000220: 956c 46be 3780 ca3e 22de 6fbd 33ef 91bc
00000230: 92b4 41bd e27a 703e 8941 67be f337 483d
00000240: aac7 213e 4225 6fbe dad4 ef3d ae99 3ebe
00000250: 3d4d 893e 318b c1be 11bc 443e 21ac 583e
00000260: b0be eb3e 7712 a63e 7a00 293e 087d cb3d
00000270: b4a1 97be cce4 0b3d 8897 933e e3fb f33c
00000280: 8cb7 9e3e 03e3 23be cb9d 133e 9a86 03bd
00000290: 2bbd 59be 0952 96be 5582 c7be 6554 693e
000002a0: 8e9f fa3d c977 843d 6a59 333d 35a9 03be
000002b0: 2675 f3bc b12c 27be 99e4 05be 2c04 6e3e
000002c0: f635 5b3e 5f0a 20be a286 1c3e 38e9 80be
000002d0: ef43 41bd c86c 173d 962e d4bd c534 8ebe
000002e0: 2755 ef3e df17 1cbd 60e0 e83d ec27 a03e
000002f0: ba44 233e c4b6 e5bd 723c 403e 297a 343e
00000300: 54d4 42bd cd8a b93d 3cf0 b33e c0be ba3d
00000310: 25c6 223e 0d62 31be 78c8 abbe 5309 a3bd
00000320: f774 1bbe 6d6d 81be 123f 463e 4788 1e3d
00000330: f0d2 c83d 894b f0bd 5a4e c8be 3a88 52be
00000340: fa13 9d3e 4ffe 89be 6601 19bd 709b 2e3e
00000350: f2a5 e4bd 1c99 68be 6451 823d 2183 88be
00000360: e2e7 e3bd 60b3 a9be 2919 ee3e 6644 d43d
00000370: fea1 b2be e41e 853e 0185 b73d c9d0 13bf
00000380: d0e8 52bc d426 d63e 39d0 a73e e2c4 90bc
00000390: 03ca 8b3d cf48 84bc aa49 7ebe 5f58 0d3e
000003a0: 5880 b8bc 5d8e 2b3e 35ce 743d 643c 843e
000003b0: 85e8 753e e2ee bebd 3560 18bd 03b7 8f3e
000003c0: 05aa 74bc 22e3 1bbd d9be 80bd d5d7 75be
000003d0: 0c66 2fbe 08c5 8f3d 71f7 b1be a810 7cbe
000003e0: cd47 ec3d 4123 4a3e e4ae 643e 3e0d 463e
000003f0: 34b0 813e abec 61be 41ed 9b3e 0fd2 96be
0.21697718 -0.014152021 -0.028913038 -0.7748278 0.41097075 -0.02180909 0.3391484 0.45660323
0.28699836 0.3016594 -0.3762741 0.26796916 0.27602005 0.009893435 0.15159403 0.07116662
-0.072268866 0.08257447 0.1277518 0.073867135 -0.06423058 0.53476125 0.107361935 -0.0039135707
0.09436251 -0.055373065 0.17283332 0.3034351 0.057095893 -0.034432255 0.11178708 -0.31247115
-0.08539634 -0.2425878 0.0031626918 -0.0155936275 0.19412597 -0.32068336 0.3679393 -0.22928002
0.07019248 0.32374582 0.05671351 -0.15055557 -0.06851659 -0.37419748 -0.11186071 -0.06754303
0.21152394 0.07947123 -0.107578464 0.088790484 0.18013667 0.114962526 0.31166434 0.28135878
0.36154085 -0.23037143 -0.44923145 0.0035015563 -0.025120586 0.013227711 -0.013889143 -0.0119982995
0.16041249 0.05485063 0.15354578 -0.07908024 0.04452626 0.04099114 0.25204104 -0.106525026
0.32074264 -0.07274954 -0.31762257 0.41507682 0.0417208 -0.1915362 -0.17192395 -0.19971491
0.1330031 0.080594055 -0.34728146 -0.26759353 -0.464853 0.2986357 0.42185038 -0.36339685
-0.113304086 0.17608787 0.16364408 -0.2297532 -0.19507581 -0.06842832 0.2121925 0.3488479
-0.28664783 -0.22457425 0.18355322 -0.29166204 -0.08456377 0.23277846 0.04903642 0.24347019
-0.72872514 -0.36324504 0.12649989 0.1235381 -0.10531189 0.12995899 -0.28880098 0.14044967
0.10689784 -0.09159859 -0.0049676043 -0.037108682 -0.15346214 0.2259942 -0.1334235 0.47936338
0.5324378 0.005416818 0.4150971 0.2875917 -0.32623503 0.11790827 0.22218332 0.34098035
0.007776621 0.4040688 0.1095672 0.09001384 0.3892232 0.42361295 -0.041931167 0.4368334
-0.19377358 0.39550945 -0.05856145 -0.017814254 -0.047291346 0.23484376 -0.22583593 0.048881482
0.15798822 -0.23354056 0.1171052 -0.18613312 0.2681674 -0.37801507 0.19212367 0.21159412
0.4604392 0.32435963 0.16504088 0.09935957 -0.29615557 0.034153745 0.28826547 0.029783195
0.3099941 -0.16004567 0.14415662 -0.032110788 -0.21263568 -0.29359463 -0.38966623 0.227861
0.12237464 0.0646816 0.043786444 -0.12857516 -0.029718947 -0.16325642 -0.13075484 0.23243779
0.21407303 -0.15628956 0.15285733 -0.25177932 -0.047183927 0.036968976 -0.10360448 -0.27774635
0.46744654 -0.038108703 0.11370921 0.31280458 0.15944186 -0.112165004 0.18773058 0.17624725
-0.047565773 0.09059677 0.35144222 0.09118414 0.15895899 -0.1732256 -0.33551383 -0.07960763
-0.15181337 -0.25278798 0.19359997 0.038704183 0.09805858 -0.11733157 -0.39122277 -0.20559779
0.30679303 -0.26951835 -0.03735485 0.17051482 -0.11164464 -0.22714657 0.0636318 -0.26662543
-0.111282125 -0.33144665 0.4650357 0.103646085 -0.34889215 0.2600013 0.08960915 -0.57740456
-0.01287289 0.41826499 0.3277605 -0.017672006 0.0682564 -0.016148 -0.24832788 0.13803242
-0.022522137 0.16753526 0.059766967 0.25827324 0.2401448 -0.09322907 -0.037201125 0.28069314
-0.014933114 -0.038058408 -0.06286401 -0.24008115 -0.17128772 0.070200026 -0.34759095 -0.24615729
0.115371324 0.19740011 0.2233234 0.19340989 0.25329745 -0.22062938 0.30454448 -0.29457137

fc1.bias f4 [25]
00000000: 5391 373b 6575 17bd 9401 dabc 9f37 8cbd
00000010: a429 f4bd 2ca1 1f3e a4dd 703e cf3b 053e
00000020: 885c 38be bdca 2d3e fc31 c7bc a0ba b13e
00000030: 47a5 183e 6989 50be 2026 6dbe 435e 99bd
00000040: 9302 2c3e 6ab8 843e d52a 613e c363 c03e
00000050: 1e55 493d 4c7c 22be 54d0 ae3e f8b5 80be
00000060: fcd7 083d
0.0028010204 -0.03697719 -0.02661208 -0.068465464 -0.11922005 0.15588826 0.23522049 0.13011096
-0.18004048 0.1697187 -0.024315827 0.34712696 0.14906798 -0.20364918 -0.23159075 -0.07488682
0.16797857 0.25921947 0.21988995 0.37576112 0.04915344 -0.15867728 0.34143317 -0.2513883
0.033409104

fc2.weight f4 [25, 25]
00000000: fefa ca3e 2944 dcbe 83bd aabd 8d1b f9bd
00000010: 1fcc 31be 9de5 efbe 9d68 ebbe abea b0bc
00000020: b03e d0bc 397e 46be a974 833e 8a65 d5be
00000030: 64dd 863e e555 ffbe adc4 77be 1e3d a03e
00000040: 1597 a5bd 879d 37be 6065 763e 61f2 05bf
00000050: d953 9bbe d5a1 95bc 9190 07bf a755 0d3e
00000060: 2890 57bd 485b 85be 9029 8dbe b110 b63e
00000070: 2f12 1cbe c6bb 5b3e 0e1b 21be 974d 2f3d
00000080: 9a15 1f3e 6fb7 9a3e 5fbd 823e 5a6c 48bd
00000090: dc6e 4b3e 7bce 073e 234f 583e c72e 6a3e
000000a0: 6ba0 83bd 76fa 863e 3c84 e23d a16d 593d
000000b0: 6209 a73e a807 fbbc b702 4f3e 0696 82bc
000000c0: a7be 12be e3d7 69bd b313 68be 351f d7bd
000000d0: f44e 063e c51e 8a3d e9e9 d93d 1982 44be
000000e0: 4655 adbd 7425 1a3e a3e7 c43e b80e 5f3d
000000f0: e401 4f3e 5e6a a93d 908a f4bb 94b0 7e3e
00000100: 5308 f73d bc2b c33d 13e4 c53e b001 913e
00000110: 3763 773e d1db 483e 6579 81bd 68e0 c43c
00000120: d05c 013e b1f9 123e 7e2b 043e 4746 da3e
00000130: 8220 aa3d fca6 95be ba91 5d3e c24f 17be
00000140: 382c 6c3e a5fc 21bd d91d f1bd 182e eebd
00000150: 3b42 b8bd 1a71 1c3e 17f3 70be db89 cfbb
00000160: f0f1 a8be 755f 68be fef2 3ebc 0e48 a8be
00000170: ffd6 dd3d a3fb 75be 0223 91bf 84ef 8a3d
00000180: fada 4a3e 131f 46be e54b 7dbd 1e55 6e3d
00000190: 0828 81be aba5 90be 005f bd3d 016b 8dbd
000001a0: 5857 3f3e 11b5 91be 0d32 763e 7110 cf3e
000001b0: b2cf ea3e 32bd 103d d508 f63d d5d0 4e3e
000001c0: 80bf bf3e 34ee 943e bbb5 543d 082d 353d
000001d0: c9df c43e 221c 4c3d e5ed ae3d 4e12 c93e
000001e0: ea8e c53d cf09 e73c 0874 9f3e 87d7 8d3d
000001f0: 82c4 bf3d dc99 04bf 3f8d d8bd 9277 bcbe
00000200: e36c 4d3e 3e58 743e 6ea1 a93e ad6b 40bf
00000210: 035b 93bb eb8d cabe 1d0b 343d 31ab 10be
00000220: c1bd a1bd ec25 e8be add0 c5be 6bc7 643d
00000230: c727 9abe b300 6ebf 7f8f fcbe 42a7 50be
00000240: 7147 55bf e243 9d3e 8d79 3b3e 4029 2ebf
00000250: 01e5 393e 0e3b 313e d2d7 06be 233b 25be
00000260: b792 5c3e f144 ef3c a36e dabd ee59 84bd
00000270: 5721 683d 7408 c63d 9650 1e3e ad3e 043e
00000280: 5495 843e 5b8b 953d 91ab af3e 497e c93e
00000290: d142 1d3d 6a26 9e3d 9780 c83e ee71 3b3e
000002a0: c49f 7a3e 76df ce3e ae86 a23d a3c5 b63d
000002b0: de72 853c ab08 e6bd dd37 37bd 52f2 30be
000002c0: 72ef 94bd 6014 983e cec0 82be ac6d 2b3e
000002d0: b25d 6dbe b3c0 a43e 69c5 b63e f7bd ea3e
000002e0: 80f7 0bbe a142 5f3e e0ee b83d 77c2 523e
000002f0: 7b36 0d3f f195 373e 9ab5 6cbd 5c03 a33e
00000300: 6435 213e 5c8e 423e a9f3 1d3f d977 b83e
00000310: 5c2a 09bd af2e 8c3d d6e2 cd3d 5cd9 723e
00000320: fdcd dd3e 231b 613e 186a d2bd ce3e 8cbc
00000330: 06ad 0b3f c2ef 03be ece7 c3be dbd7 1ebe
00000340: 91d5 c53d 51d0 593e 099e 3f3e 7477 ad3d
00000350: 68ea 9ebd 019c 0cbf 1314 2dbf 0094 7c3e
00000360: 36e9 5e3e 1227 46bf aff9 613c c02a a6bf
00000370: 35f5 41be f4ad 2bbe 5727 d0be a59c ee3d
00000380: ad2d 9bbd 6522 a3be b4e3 88be b27f 9b3d
00000390: 23b3 4bbe 41b4 163e b285 3fbe 61c9 ef3d
000003a0: 60fd 5e3e 9fb5 ce3e e9ce e33d 8d25 963c
000003b0: 5cbb 283e 9104 033e d4ee 333e 1f8d 5a3e
000003c0: 2168 d33c ebec 083f cc5c 543e 2cfe 6b3e
000003d0: 20dc 493e 577f 563d 261f 203e 52e1 8c3e
000003e0: 5b4e 073e a5a4 57bd 0a37 933c bf5d d1bc
000003f0: 317b b53d 62fd 9ebd bda1 1d3b 91b0 d3bc
0.39644617 -0.43020752 -0.08336928 -0.12163458 -0.17363022 -0.4685487 -0.4597825 -0.021596273
-0.025420517 -0.19384088 0.25674942 -0.4167903 0.26340783 -0.4987022 -0.2419612 0.3129663
-0.08085457 -0.17931186 0.24062109 -0.52322966 -0.30337408 -0.018265644 -0.52954966 0.13802205
-0.052627712 -0.26046205 -0.27570772 0.3555961 -0.15241311 0.21458349 -0.15732977 0.042798605
0.15535584 0.30218074 0.25535104 -0.048931457 0.19866508 0.1326236 0.21123938 0.22869407
-0.06427082 0.26362962 0.11060378 0.053083066 0.32624346 -0.0306433 0.2021588 -0.015940677
-0.1433054 -0.05709065 -0.22663765 -0.10503999 0.13116056 0.0674415 0.10640318 -0.19190253
-0.0846353 0.1505335 0.38457975 0.054457396 0.20215565 0.08272241 -0.007462807 0.24872047
0.120621346 0.09529826 0.3865057 0.283216 0.24158941 0.19615103 -0.06321982 0.024032786
0.12633061 0.14353062 0.12907216 0.42631742 0.083069816 -0.2922896 0.21637622 -0.14776519
0.23063743 -0.03954758 -0.11773271 -0.116298854 -0.089970075 0.1527752 -0.23530231 -0.0063335723
-0.32997084 -0.22692664 -0.011654614 -0.32867473 0.10832023 -0.24021773 -1.1338809 0.06783965
0.19810095 -0.19347791 -0.061839957 0.058186643 -0.25225854 -0.28251395 0.092466354 -0.06905175
0.18685663 -0.28458455 0.2404253 0.4044223 0.45861584 0.03533668 0.12013403 0.2019685
0.3745079 0.29087985 0.051931124 0.0442324 0.38451985 0.049831517 0.085414685 0.39271778
0.09646399 0.02820292 0.31143212 0.06925874 0.09363653 -0.5179727 -0.105738156 -0.36809975
0.20061068 0.23861787 0.33130974 -0.751643 -0.0044969334 -0.395614 0.04395591 -0.14127804
-0.07897521 -0.45341432 -0.3863577 0.055854242 -0.30108473 -0.92969817 -0.4932823 -0.20376304
-0.83312136 0.30715853 0.18308087 -0.6803169 0.18153764 0.17307684 -0.13168266 -0.1613584
0.21540342 0.029207679 -0.106656335 -0.06462465 0.05667242 0.09669581 0.15460429 0.12914534
0.25895178 0.073019706 0.34310582 0.3935416 0.0383938 0.07722171 0.39160606 0.1830518
0.24475008 0.40404862 0.07935844 0.08924415 0.016290125 -0.11232122 -0.04473101 -0.17279938
-0.07272233 0.29703045 -0.25537723 0.16741055 -0.23180273 0.32178268 0.35697487 0.45848057
-0.13668633 0.2180276 0.09029937 0.20581995 0.55161256 0.17928292 -0.057790376 0.318385
0.15743023 0.18999618 0.6169992 0.36028937 -0.033487663 0.06844842 0.10053031 0.23715729
0.4332122 0.21983008 -0.10274142 -0.017119791 0.5456089 -0.12884429 -0.3826288 -0.1551203
0.09659875 0.21270873 0.1871263 0.084700495 -0.07759553 -0.54925543 -0.67608756 0.24665833
0.2176865 -0.77403367 0.013792439 -1.2981796 -0.18941195 -0.16765577 -0.40655014 0.11650971
-0.07577071 -0.31862178 -0.26736224 0.07592715 -0.19892554 0.14717199 -0.18703344 0.11708332
0.21776342 0.4037294 0.11123449 0.018328452 0.16477722 0.1279471 0.17571574 0.21342896
0.025806488 0.5348651 0.20738524 0.23046178 0.19712877 0.052367534 0.15636882 0.27515656
0.13213484 -0.05264725 0.01797058 -0.025557397 0.088613875 -0.07763173 0.0024052702 -0.02584103

fc2.bias f4 [25]
00000000: 8ad0 1fbd a0b5 713e 4f60 d43d 3290 4b3e
00000010: 9c13 25bd 15ff 88bd 5810 be3c f465 5dbd
00000020: b9f8 3bbe 3182 473e 990c 13bd 3d54 e03d
00000030: 59a2 20bc 8c8b 14be 87c1 ce3b 9ce2 fcbb
00000040: 2fd2 3bbe bc0f 053e da49 333e 0d97 a5bd
00000050: dd36 aabd 1432 5ebd 9fca b73c 6a13 b43d
00000060: 2fd8 303e
-0.039017238 0.2360444 0.10369932 0.19879225 -0.040301904 -0.06689278 0.023201153 -0.05405231
-0.18356599 0.19483258 -0.035900686 0.10953567 -0.009804332 -0.14506358 0.0063096914 -0.0077174436
-0.18341897 0.12994283 0.17508641 -0.08085451 -0.083112456 -0.054246977 0.022435484 0.087927654
0.17269967

ps_out.weight f4 [2, 25]
00000000: 67f5 0fbf 87a3 603e ce6b 183e 5cee 85be
00000010: 50a5 be3d bb26 4fbf dd18 6d3e 4021 d83e
00000020: 63e4 3ebf b3a8 4a3e d680 b13e f055 2cbf
00000030: 94e5 173f 4f70 afbf 05f3 31bf 3c18 413e
00000040: 8a56 d03e 70ec 7e3e 230b 813f 3d1f 003f
00000050: 4fee 953f 4198 b43e b98c ba3e 5971 893e
00000060: 2718 24bf 3a4d 093f 897f 9abe e0ef 2abe
00000070: ae00 5a3e f2da 90be d6b5 2c3f 29d3 093d
00000080: 635e b2be bba3 253f 73cc a8bd a317 11be
00000090: 0300 033f 51f4 2bbf 8917 8e3f ac2f 563f
000000a0: 3652 d1bd eb52 abbe e25e 13bd b6cb 3fbf
000000b0: 4346 6ebe 2bde 84bf 6e3d b2be 55d0 46be
000000c0: da79 b8be 8e47 ec3e
-0.5623383 0.2193738 0.14884874 -0.26158416 0.093088746 -0.80918473 0.23154016 0.42212868
-0.7456724 0.19790916 0.34668607 -0.6731863 0.59334683 -1.3706149 -0.69511443 0.18856901
0.40691024 0.24894881 1.0081524 0.50047666 1.1713351 0.3527241 0.36435488 0.2684429
-0.64099354 0.53633463 -0.30175427 -0.16693068 0.21289322 -0.28292042 0.6746496 0.033648644
-0.34837636 0.6470296 -0.082421206 -0.14169173 0.5117189 -0.6716967 1.1100932 0.8366649
-0.102207586 -0.334617 -0.03597916 -0.74920213 -0.2326899 -1.03803 -0.34812492 -0.1941541
-0.36030465 0.46148342

ps_out.bias f4 [2]
00000000: 1cb6 b83c 3a1f a5bc
0.022547774 -0.020156492
