Results/Models/NN_PS_model_iter_id_4_epoch_100_lr_0.001.pth (torch, 7762 bytes, 6 tensors)

fc1.weight f4 [25, 17]
-0.0063616806 -0.06406038 0.3772685 -0.23539418 0.24288052 -0.007001918 -0.22814189 -0.36931047
-0.047445394 -0.03337063 0.39976433 0.043202147 -0.19662043 0.20249484 0.029636147 0.069505595
-0.28278 0.061536457 -0.10834401 0.13576365 -0.079819016 0.39144364 -0.10067519 0.0050562643
0.121528186 0.5249684 0.40042531 0.09172036 0.17106383 -0.14456376 -0.07746189 -0.0962037
0.060270224 -0.15616986 -0.30494648 -0.37762076 -0.14681531 0.26455364 -1.142517 0.0044680485
0.24373421 0.07826538 -0.13853589 -0.2102083 -0.0018836808 0.33001745 0.2608045 -0.022552596
-0.08559865 0.10419823 -0.9265978 0.16901682 -0.33889115 -0.19974242 0.24411257 0.31218758
0.34234032 0.3998725 0.23865275 0.13911457 0.15744737 -0.21483904 -0.11483808 0.013319183
-0.5562211 -0.24585797 -0.006191335 -0.019231137 0.25755134 0.2606096 0.10712677 -0.348103
-0.008004226 -0.002879728 -0.11575802 0.617933 0.07703667 -0.24720015 0.4660667 -0.077755734
0.23862475 0.34720352 -0.108975194 -0.244832 0.15994315 0.15776694 0.048938766 -0.2798782
-0.22898231 -0.2026494 -0.18601449 0.110093 -0.26073703 -0.11374098 -0.21318036 -0.000537942
0.42116427 -0.088183746 -0.6107441 0.61804396 0.19743693 -0.14717638 0.29060763 0.1907803
-0.1731649 0.5495818 0.04313511 0.27784085 0.2848897 0.4524408 0.25712627 0.46019402
0.16334988 0.089451864 0.048267268 -0.009172356 0.10159342 0.122138314 0.50035465 -0.25316888
0.13061374 -0.2283773 -0.19141841 0.24221466 0.09994056 0.20102146 0.32880288 0.03762659
0.17832863 -0.18238638 -0.30709618 -0.18392742 -0.08989686 0.37170753 0.059559446 -0.3022806
0.22114082 0.4475839 -0.14313209 0.14133772 0.28163752 0.14960839 0.4059588 0.13427915
-0.013649326 0.18181163 0.4294067 0.2733934 0.12011915 0.10651452 0.19649062 0.52404755
0.39977843 -0.037762273 0.060198624 -0.33765006 -0.28453803 0.4647829 0.15405883 0.0069895
0.36343396 0.086483754 0.14698276 0.32760882 0.030786956 0.050508115 0.11665181 -0.013988216
-0.22854976 0.29184988 -0.22011878 0.12906885 0.15472713 -0.31566656 -0.3139923 -0.071449906
0.13875178 0.014411755 -0.020665707 -0.0963041 -0.19257826 -0.16254203 -0.08622444 -0.04811261
0.05595355 -0.1953707 -0.033103652 0.37480557 0.007950401 -0.23931238 -0.08674228 0.05297646
0.19421002 0.08373442 0.06868583 -0.005327605 -0.08763083 0.013629689 0.09594286 -0.2841498
-0.40680695 -0.0014539341 0.33046633 0.06890082 0.30370507 -0.2596846 -0.30944005 0.6354961
0.24186528 -0.17550072 0.28330553 0.005975126 0.26642093 -0.07925638 -0.21489727 -0.118532635
0.085895024 -0.17030881 -0.2606186 0.1740226 0.3240903 0.012704269 0.45635182 0.28044084
0.018199068 0.0085892575 0.20189892 0.132021 -0.023387581 0.18409188 0.14460847 0.120276704
-0.02287776 0.29579702 -0.55743515 -0.27324796 0.048784215 0.12900007 -0.094247006 -0.12945166
0.043101538 -0.012135211 0.4101519 -0.39540175 -0.205202 0.041561853 -0.16202693 0.24795647
0.025778005 0.12962332 0.12587777 0.12793568 0.15662305 0.056514747 0.38247123 -0.120029435
00000000: a575 d0bb 1732 83bd 5629 c13e 2c0b 71be
00000010: acb5 783e 5870 e5bb 079e 69be 4316 bdbe
00000020: 1a56 42bd a4af 08bd e9ad cc3e bcf4 303d
00000030: de56 49be cf5a 4f3e 81c7 f23c f358 8e3d
00000040: 8ac8 90be a70d 7c3d 77e3 ddbd a005 0b3e
00000050: 2778 a3bd 4d6b c83e cb2e cebd 05af a53b
00000060: c5e3 f83d 5464 063f 8c04 cd3e e2d7 bb3d
00000070: 5b2b 2f3e 8608 14be 57a4 9ebd 7206 c5bd
00000080: e9dd 763d feea 1fbe f221 9cbe 8257 c1be
00000090: c156 16be 9373 873e ff3d 92bf b568 923b
000000a0: 7695 793e 9949 a03d 5adc 0dbe d840 57be
000000b0: d7e5 f6ba 0cf8 a83e 2b88 853e 39c0 b8bc
000000c0: 584e afbd e265 d53d 8335 6dbf bf12 2d3e
000000d0: 2483 adbe 4789 4cbe a5f8 793e 0dd7 9f3e
000000e0: 3b47 af3e 17bc cc3e 6361 743e 0d74 0e3e
000000f0: e239 213e c4fe 5bbe 3a30 ebbd b438 5a3c
00000100: 8264 0ebf 31c2 7bbe afe0 cabb 9e8a 9dbc
00000110: c5dd 833e 9f6e 853e 4865 db3d 8e3a b2be
00000120: 2824 03bc d2b9 3cbb 8a12 edbd db30 1e3f
00000130: 67c5 9d3d 0922 7dbe 4ba0 ee3e 663e 9fbd
00000140: 0c5a 743e a9c4 b13e 632e dfbd 3db5 7abe
00000150: 23c8 233e a88d 213e 0474 483d 324c 8fbe
00000160: 577a 6abe 5383 4fbe 957a 3ebe 7078 e13d
00000170: 537f 85be 08f1 e8bd f44b 5abe ad04 0dba
00000180: d8a2 d73e ae99 b4bd ba59 1cbf 2138 1e3f
00000190: e82c 4a3e 68b5 16be 86ca 943e e95b 433e
000001a0: 2452 31be 65b1 0c3f 71ae 303d 2841 8e3e
000001b0: 10dd 913e 52a6 e73e 0ea6 833e 8d9e eb3e
000001c0: 3145 273e 8a32 b73d e6b3 453d a647 16bc
000001d0: 3610 d03d a723 fa3d 3e17 003f 5a9f 81be
000001e0: 9cbf 053e bddb 69be 3003 44be 1f07 783e
000001f0: a3ad cc3d 92d8 4d3e da58 a83e 571e 1a3d
00000200: c89b 363e 7fc3 3abe b63b 9dbe 7857 3cbe
00000210: d81b b8bd 7350 be3e 9bf4 733d 86c4 9abe
00000220: bd72 623e b829 e53e 3891 12be d6ba 103e
00000230: cb32 903e f132 193e d5d9 cf3e 7980 093e
00000240: 6ca1 5fbc d42c 3a3e 32db db3e 38fa 8b3e
00000250: 0701 f63d 4924 da3d d634 493e fb27 063f
00000260: c2af cc3e 9dac 1abd d592 763d 78e0 acbe
00000270: f8ae 91be 06f8 ed3e 99c1 1d3e 2d08 e53b
00000280: 0414 ba3e 651e b13d a682 163e 58bc a73e
00000290: ed34 fc3c 99e1 4e3d 25e7 ee3d d52e 65bc
000002a0: f308 6abe 596d 953e d166 61be a02a 043e
000002b0: ca70 1e3e 0c9f a1be 99c3 a0be 5454 92bd
000002c0: f214 0e3e 481f 6c3c 214b a9bc 153b c5bd
000002d0: 3c33 45be 6b71 26be 7096 b0bd ba11 45bd
000002e0: 8d2f 653d 420f 48be b297 07bd 84e6 bf3e
000002f0: 6642 023c 4e0e 75be f0a5 b1bd d8fd 583d
00000300: fede 463e f47c ab3d 28ab 8c3d 3193 aebb
00000310: cb77 b3bd 0f4f 5f3c b17d c43d 157c 91be
00000320: 0049 d0be ef91 beba e232 a93e e01b 8d3d
00000330: 3b7f 9b3e 61f5 84be ed6e 9ebe dfaf 223f
00000340: 88ab 773e 76b6 33be 6c0d 913e fdca c33b
00000350: 5368 883e 2b51 a2bd 080e 5cbe 3dc1 f2bd
00000360: bbe9 af3d 6f65 2ebe cd6f 85be fb32 323e
00000370: 2aef a53e 9125 503c f2a6 e93e f195 8f3e
00000380: 3616 953c f5b9 0c3c 97be 4e3e 8330 073e
00000390: 5097 bfbc 9582 3c3e 3e14 143e a253 f63d
000003a0: 246a bbbc b572 973e 12b4 0ebf 28e7 8bbe
000003b0: f5d1 473d 9818 043e 9304 c1bd fa8e 04be
000003c0: 3d8b 303d c4d2 46bc 6eff d13e 1972 cabe
000003d0: 7920 52be c33c 2a3d 63ea 25be 4de8 7d3e
000003e0: 652c d33c fabb 043e 1ae6 003e 9201 033e
000003f0: cb61 203e 027c 673d 45d3 c33e fed1 f5bd

fc1.bias f4 [25]
-0.076032616 -0.06243443 0.024025993 0.27875718 0.22287773 0.08483352 0.021128584 -0.012246485
-0.25389984 0.09685146 0.20877115 0.42780852 -0.23255122 0.12250939 -0.24092786 0.09191595
-0.15002137 0.08603599 0.14846976 0.19442892 0.037332494 0.21162818 -0.2054334 0.16799718
0.035285067
00000000: fdb6 9bbd 3fbb 7fbd 29d2 c43c 43b9 8e3e
00000010: 0f3a 643e 32bd ad3d da15 ad3c 7ba5 48bc
00000020: 29ff 81be 0f5a c63d 1bc8 553e b809 db3e
00000030: e821 6ebe 34e6 fa3d cbb5 76be 6e3e bc3d
00000040: 349f 19be a333 b03d 7508 183e 6018 473e
00000050: f5e9 183d 0fb5 583e 225d 52be 7407 2c3e
00000060: 1387 103d

fc2.weight f4 [25, 25]
-0.06325177 -0.51005006 0.3754108 0.12816995 -0.16052975 -0.97597724 0.33580327 -0.41585234
-0.27598193 0.31728223 -0.05723835 0.4394385 -0.41569725 0.17912057 -0.14718996 -0.04042968
0.0825178 0.09344762 -0.050779067 0.34929702 -0.31285164 -0.038735036 -0.45314416 -0.3493659
-0.45303252 0.053058818 0.34614307 0.50977933 0.52800643 0.39121184 -0.7874813 -1.2342374
0.16080518 -0.57619244 -0.4491634 0.014385399 -0.07528412 -0.6351155 -0.13728511 -0.28149047
0.26064563 -0.09870328 -0.12035224 -0.22369905 -0.8583999 -0.27757123 0.6407049 0.37573567
0.0883707 -0.22413547 -0.078234375 -0.18094002 -0.11336553 0.26104197 0.08966387 0.6124535
0.6783803 0.47673726 -0.3771757 0.5463968 -0.09725497 0.32724127 0.7805452 0.22311427
0.3536354 -0.06567671 0.36054736 0.31509724 0.42349777 0.06972903 0.8668456 0.10645904
0.15746206 0.06612517 0.7022408 -0.22967578 0.05713609 -0.16501844 0.14204225 0.30880114
0.3302001 0.43174025 0.25077325 -0.03324446 0.15229008 0.09743146 0.119946554 0.5561663
0.029685123 0.09958813 0.24803086 0.15813969 0.26119938 0.20404698 0.03926246 0.6672705
0.1507731 0.3430219 0.31708786 0.29237366 -0.26850355 -0.22886662 -0.29138955 0.20380552
0.24827933 0.6369651 0.75140995 0.314333 -0.06977407 0.37627634 0.10564417 0.4141406
0.80984503 0.1743757 -0.11227593 -0.33055958 0.2916147 0.04705041 0.16744159 0.035307463
0.60860854 0.08936215 0.1717031 0.1135261 0.48109487 -0.3940225 -0.1287955 -0.33198702
0.22253883 0.37286875 0.021312952 0.5819976 -0.029411623 0.093940146 0.25527155 0.15856495
-0.008388708 0.63770056 0.066333756 -0.09879809 -0.074424006 0.2928671 0.060754344 0.2631045
0.09240256 1.0233196 0.24937198 0.2298429 -0.04257373 0.5252042 -0.16074602 0.07316022
-0.4826561 0.2294423 0.1431939 0.259338 0.6815575 0.44287214 -0.062025443 0.20277028
0.029639652 0.27032682 0.47131333 0.26821798 0.27393442 -0.11563117 0.2192693 0.19504324
0.31833246 0.14615735 0.64658684 0.073997065 0.4018857 0.33364117 0.4309234 0.024613276
0.39113405 0.8087159 0.5359651 0.59037733 -0.98632735 -1.3983843 0.26406097 -0.963664
-0.35499665 -0.26051742 -0.0459971 -0.6224882 -0.08053365 -0.45393702 0.21800634 -0.33341256
0.101812996 -0.109657384 -1.1654388 -0.5813659 0.68661475 0.40824053 0.0044963337 -0.021858651
0.23343961 0.32857433 0.19175778 0.13806683 -0.63764596 -0.51142794 -0.6081696 -0.13348489
-0.15431039 -0.09245839 -0.13851753 -0.049796965 -0.38923514 -0.8645866 -0.09760633 -0.42934343
-0.15000093 0.06965167 -0.08277615 0.29419276 -0.7590392 0.18233374 -0.21808611 -0.050124265
-1.1805466 0.005337191 -0.20759675 0.004587716 -0.051959913 0.47248483 0.37748504 0.2699992
0.3214669 -0.112126514 0.11640444 0.069743484 0.34084657 0.7398756 0.14516594 0.25743103
0.20440243 0.29414386 0.14545059 0.0922536 0.07963431 0.66599196 -0.057101514 0.3234677
0.28008085 0.35111326 -0.24274702 -0.42391697 0.31243888 0.22630523 0.21201335 -0.76376486
00000000: 258a 81bd a492 02bf d835 c03e fc3e 033e
00000010: e961 24be a5d9 79bf 68ee ab3e 99ea d4be
00000020: 814d 8dbe d172 a23e c372 6abd 15fe e03e
00000030: 45d6 d4be 626b 373e f7b8 16be 9899 25bd
00000040: 18ff a83d 7761 bf3d b6fd 4fbd 0fd7 b23e
00000050: 172e a0be a1a8 1ebd 8302 e8be 16e0 b2be
00000060: e1f3 e7be 3454 593d aa39 b13e e680 023f
00000070: 6e2b 073f eb4c c83e 6098 49bf 7efb 9dbf
00000080: 1daa 243e 5981 13bf bff8 e5be bdb0 6b3c
00000090: 902e 9abd ee96 22bf 7894 0cbe 851f 90be
000000a0: 5873 853e f224 cabd 3c7b f6bd 5d11 65be
000000b0: 19c0 5bbf d11d 8ebe 3c05 243f 6d60 c03e
000000c0: b3fb b43d c583 65be 5839 a0bd 5748 39be
000000d0: 302c e8bd 4ba7 853e b1a1 b73d c1c9 1c3f
000000e0: 55aa 2d3f e816 f43e 2c1d c1be a9e0 0b3f
000000f0: 9d2d c7bd 2b8c a73e cfd1 473f 1178 643e
00000100: b30f b53e 8381 86bd aa99 b83e 6d54 a13e
00000110: b3d4 d83e 18ce 8e3d 98e9 5d3f 3207 da3d
00000120: bc3d 213e a26c 873d 0ec6 333f 2130 6bbe
00000130: 8807 6a3d 98fa 28be 8673 113e 2f1b 9e3e
00000140: fd0f a93e 0f0d dd3e 5a65 803e 582b 08bd
00000150: eef1 1b3e 258a c73d 8aa6 f53d ea60 0e3f
00000160: 372e f33c ddf4 cb3d cdfb 7d3e 5fef 213e
00000170: edbb 853e b1f1 503e acd1 203d 3dd2 2a3f
00000180: 4364 1a3e 91a0 af3e 5759 a23e 00b2 953e
00000190: 4c79 89be 035c 6abe 0331 95be 65b2 503e
000001a0: f03c 7e3e 2510 233f 675c 403f 41f0 a03e
000001b0: b5e5 8ebd 4ba7 c03e f85b d83d 3d0a d43e
000001c0: 0152 4f3f 8b8f 323e ecf0 e5bd 1b3f a9be
000001d0: 864e 953e eeb7 403d cf75 2b3e 8f9e 103d
000001e0: c5cd 1b3f 8103 b73d f0d2 2f3e 5f80 e83d
000001f0: 1152 f63e 51bd c9be f8e2 03be 34fa a9be
00000200: 38e1 633e a7e8 be3e 8098 ae3c cbfd 143f
00000210: a5f0 f0bc b163 c03d f4b2 823e da5e 223e
00000220: cb70 09bc 5840 233f fed9 873d a756 cabd
00000230: 9d6b 98bd adf2 953e 8cd9 783d a2b5 863e
00000240: 8e3d bd3d 23fc 823f 5e5b 7f3e f05b 6b3e
00000250: cb61 2ebd c873 063f 9b9a 24be 07d5 953d
00000260: b31e f7be ecf2 6a3e 6ca1 123e f3c7 843e
00000270: 8d7a 2e3f 23c0 e23e 640e 7ebd 03a3 4f3e
00000280: dbce f23c 4768 8a3e fb4f f13e de53 893e
00000290: 2241 8c3e 09d0 ecbd 2288 603e 6ab9 473e
000002a0: 79fc a23e 46aa 153e b786 253f c68b 973d
000002b0: f6c3 cd3e 04d3 aa3e fea1 dc3e c8a1 c93c
000002c0: b942 c83e 0108 4f3f 0235 093f f822 173f
000002d0: f37f 7cbf 42fe b2bf 0033 873e afb2 76bf
000002e0: 1fc2 b5be 8a62 85be 7567 3cbd 635b 1fbf
000002f0: d4ee a4bd 6f6a e8be 0e3d 5f3e 0db5 aabe
00000300: 5583 d03d 0d94 e0bd 192d 95bf 65d4 14bf
00000310: fcc5 2f3f e704 d13e fb55 933b ea10 b3bc
00000320: cb0a 6f3e e53a a83e 275c 443e 6461 0d3e
00000330: c43c 23bf f1ec 02bf 01b1 1bbf 43b0 08be
00000340: 8b03 1ebe d35a bdbd 8ad7 0dbe e7f7 4bbd
00000350: d449 c7be 8c55 5dbf d4e5 c7bd e7d2 dbbe
00000360: d899 19be 89a5 8e3d 8b86 a9bd 6fa0 963e
00000370: 6550 42bf b2b5 3a3e f751 5fbe 1a4f 4dbd
00000380: 271c 97bf 9ae3 ae3b 3e94 54be 8d54 963b
00000390: ebd3 54bd 88e9 f13e b845 c13e 563d 8a3e
000003a0: 4f97 a43e 96a2 e5bd 7365 ee3d acd5 8e3d
000003b0: 7183 ae3e 7d68 3d3f 61a6 143e 00ce 833e
000003c0: df4e 513e 069a 963e 00f1 143e 75ef bc3d
000003d0: 5017 a33d 737e 2a3f 47e3 69bd 8f9d a53e
000003e0: c266 8f3e 1ec5 b33e ad92 78be a50b d9be
000003f0: fdf7 9f3e 8fbc 673e 071a 593e 1886 43bf

fc2.bias f4 [25]
-0.078329295 -0.18034613 -0.017222038 -0.018414948 0.02938906 -0.00061195967 -0.0450259 -0.08217393
0.12951903 0.20488004 0.3611914 0.15980117 0.01931308 -0.26830313 -0.047659926 0.03178551
0.1703143 0.081220485 -0.302654 0.054360773 -0.017910497 0.20490755 0.0714952 0.0048935935
0.10619431
00000000: 1c6b a0bd a8ac 38be 3b15 8dbc f2da 96bc
00000010: 53c1 f03c eb6b 20ba 146d 38bd ce4a a8bd
00000020: a3a0 043e 13cc 513e 14ee b83e eba2 233e
00000030: 7736 9e3c 075f 89be 0e37 43bd 8631 023d
00000040: df66 2e3e ed56 a63d 77f5 9abe 67a9 5e3d
00000050: 09b9 92bc 49d3 513e 136c 923d 705a a03b
00000060: 677c d93d

ps_out.weight f4 [2, 25]
-0.5385109 -1.2292011 0.5221557 0.37462705 0.72532576 0.48386836 0.2666545 -1.2280331
-0.20131834 0.09468501 -0.8330312 -0.3907026 0.38356468 -0.7216753 0.30423883 0.42067206
-0.42998734 0.110572755 -0.9094018 0.28099895 0.31889802 0.28698677 0.3580097 0.1518811
0.64958113 0.337349 1.1700875 -0.58895695 -0.30493551 -0.72255266 -0.4529765 -0.4577511
1.1082975 0.44590062 -0.17554533 0.823339 0.24355365 -0.07779246 0.63786393 -0.20260514
-0.14716694 0.45486158 -0.4176739 0.6640102 -0.36737308 -0.5490798 -0.28079793 -0.027372781
-0.23884468 -0.45665556
00000000: dadb 09bf 7656 9dbf ffab 053f 1ecf bf3e
00000010: f3ae 393f 98bd f73e f086 883e 3030 9dbf
00000020: 6526 4ebe 37ea c13d 8841 55bf 2c0a c8be
00000030: 9762 c43e b6bf 38bf 31c5 9b3e 5462 d73e
00000040: 4d27 dcbe f873 e23d 8ece 68bf 18df 8f3e
00000050: 9a46 a33e eeef 923e 0c4d b73e b886 1b3e
00000060: f34a 263f 02b9 ac3e 6dc5 953f e2c5 16bf
00000070: 8220 9cbe 36f9 38bf 89ec e7be 5a5e eabe
00000080: b1dc 8d3f 164d e43e 28c2 33be 58c6 523f
00000090: 2166 793e a751 9fbd 0d4b 233f b977 4fbe
000000a0: eeb2 16be 9ee3 e83e 5ad9 d5be 93fc 293f
000000b0: 5318 bcbe 7e90 0cbf bfc4 8fbe e23c e0bc
000000c0: b393 74be c2ce e9be

ps_out.bias f4 [2]
-0.116078034 -0.16552849
00000000: 52ba edbd 4d80 29be
