Results/Models/SAE_E2E_DCN_model_iter_id_0_epoch_400_lr_0.0001_mmd.pth (torch, 828374 bytes, 16 tensors)

shared1.weight f4 [200, 17]
0	0x3df67cb9	0.12035508
1	0xbcb15977	-0.021649105
2	0xbe04a8c3	-0.12955002
3	0x3de4c2e8	0.11169988
4	0x3d9e66fe	0.07734488
5	0x3c94e9a9	0.018177824
6	0xbaf24e4e	-0.0018486471
7	0x3d4148d7	0.047188606
8	0xbdd08317	-0.101812534
9	0xbd02cd93	-0.031934332
10	0x3d189136	0.03724786
11	0x3bcf464b	0.0063255182
12	0xbd2eca6b	-0.04267351
13	0x3c4b4b03	0.012408021
14	0xbe069272	-0.13141802
15	0xbd84766c	-0.064679
16	0xbdd39738	-0.10331577
17	0x39ae3da1	0.00033233783
18	0xbd85c6a8	-0.06532031
19	0xbd75fb06	-0.060053848
20	0xbe1eb580	-0.15498924
21	0xbe031548	-0.12801087
22	0x3e1d84ef	0.15382741
23	0x3e112c7e	0.14177129
24	0x3c1a33c5	0.009411757
25	0xbd6d0311	-0.057864252
26	0xbdec0c0b	-0.115257345
27	0xbccb0d21	-0.024786534
28	0x3bd4ace7	0.006490338
29	0x3cdc206b	0.026870927
30	0x3d42da4d	0.04757147
31	0xbe04f30c	-0.1298334
32	0xbda9e569	-0.0829571
33	0x3d8c41ac	0.068484634
34	0xbdcf9a17	-0.10136812
35	0x3e0c3351	0.1369145
36	0x3e0d66d0	0.13808751
37	0xbd001a11	-0.03127486
38	0xbe04a75a	-0.12954465
39	0x3d667ce5	0.056271452
40	0x3dd8d8f0	0.105882525
41	0xbe6a2fc9	-0.22869791
42	0x3e0ae271	0.13562943
43	0x3d17411e	0.036927335
44	0xbe2bd303	-0.16779713
45	0x3dc41478	0.095742166
46	0xbd3368b2	-0.043801017
47	0x3e241fcc	0.16027755
48	0x3d6581e5	0.05603208
49	0xbd91f54b	-0.07126864
50	0x3a6a1432	0.0008929401
51	0xbd81a1a0	-0.06329656
52	0xbdd981d6	-0.10620467
53	0xbdb64a3d	-0.089008786
54	0x3e0d0b78	0.13773906
55	0x3d0294f2	0.031880327
56	0xbd91cd66	-0.07119255
57	0x3d8ecf70	0.06973159
58	0xbd8ccf70	-0.06875503
59	0xbdb7b42b	-0.08969911
60	0xbded43c7	-0.11585193
61	0x3da25385	0.07926086
62	0xbe290d79	-0.16509046
63	0x3dce234f	0.10065328
64	0x3d63c573	0.055608224
65	0xbe636d05	-0.22209556
66	0x3d3d9347	0.046283033
67	0x3e51420b	0.2043535
68	0xbce69e77	-0.028151734
69	0x3e353da3	0.17699294
70	0xbe2ca8b8	-0.16861236
71	0xbda93269	-0.08261568
72	0x3d4529e5	0.048135657
73	0x3d8b4b5b	0.06801482
74	0xbcc70962	-0.024296466
75	0x3d009506	0.03139212
76	0x3d00c001	0.03143311
77	0x3d711d0a	0.058865584
78	0xbd73a185	-0.05948021
79	0xbe172e7e	-0.14763829
80	0x3e36c49a	0.17848435
81	0xbe7be1a8	-0.245978
82	0xbe5b8cc7	-0.21440421
83	0xbe156365	-0.14588697
84	0xbcea1c38	-0.028577909
85	0xbcaf42f9	-0.02139424
86	0x3df52638	0.1197018
87	0xbb50f0e4	-0.0031881863
88	0x3dbd8c88	0.0925532
89	0x3df563bc	0.119819134
90	0x3d845c50	0.0646292
91	0x3ab98af4	0.0014155791
92	0xbe1df559	-0.15425624
93	0x3a3244ca	0.00068004115
94	0x3e222fa4	0.15838486
95	0x3e138422	0.14405873
96	0x3e51d7db	0.20492499
97	0xbd17df99	-0.037078474
98	0xbce2dc3d	-0.027692908
99	0x3d488fc0	0.048965216
100	0xbd88943b	-0.06668898
101	0x3cd670f0	0.0261769
102	0x3d6b16b1	0.057394687
103	0x3e032a66	0.12809142
104	0x3d810d63	0.063013814
105	0x3e830637	0.2559068
106	0xbe0ba95d	-0.13638826
107	0xbe1ee18d	-0.15515728
108	0x3d857ece	0.06518327
109	0x3d3eb35d	0.046557773
110	0x3d165de7	0.036710646
111	0xbdaa3b31	-0.08312071
112	0x3e09effb	0.13470452
113	0xbac0a129	-0.0014696467
114	0xbd6cc759	-0.0578073
115	0xbdb7254f	-0.08942663
116	0xbe226b55	-0.15861256
117	0xbdcf9b2c	-0.101370186
118	0x3d5b53e3	0.053546797
119	0x3d8a97b2	0.06767215
120	0xbdbd74b7	-0.09250777
121	0x3c1ab5cf	0.009442761
122	0x3deee2a1	0.1166432
123	0xbe25ca78	-0.16190517
124	0xbda17be3	-0.07884958
125	0xbe03d9d2	-0.1287606
126	0x3e1fff56	0.15624747
127	0xbde4ba4d	-0.111683466
128	0x3dbe2530	0.09284437
129	0xbdce1e40	-0.100643635
130	0xbd1ec346	-0.038760446
131	0x3cbd2636	0.02308951
132	0xbce37f90	-0.027770787
133	0xbbb5d74d	-0.0055493475
134	0x3d9d5e1f	0.07683968
135	0xbe00280c	-0.12515277
136	0x3e1726e2	0.14760926
137	0xbd81bf56	-0.063353226
138	0x3daf458e	0.085581884
139	0x3bc997d6	0.0061521335
140	0xbe0d3675	-0.13790305
141	0x3dba87aa	0.09107907
142	0x3df379c7	0.118884616
143	0x3da252ad	0.079259254
144	0x3dedc987	0.11610704
145	0x3d4dce1b	0.050245386
146	0x3db86ce4	0.09005144
147	0xbe1338d5	-0.14377148
148	0x3d7b463c	0.061346278
149	0x3c81b7d1	0.01583472
150	0xbe210f79	-0.15728559
151	0x3d433395	0.047656614
152	0xbd1cf85e	-0.0383228
153	0x3c65eb21	0.01403311
154	0xbc91a6bb	-0.017779699
155	0xb9fe86c2	-0.00048547058
156	0xbe642be8	-0.22282374
157	0x3e109e01	0.14122774
158	0xbe83dff8	-0.25756812
159	0xbafdd411	-0.0019365569
160	0xbddfdca4	-0.10930756
161	0xbdc41969	-0.09575159
162	0xbe413ab1	-0.18870045
163	0xbd0743e5	-0.033023734
164	0x3dc20450	0.09473479
165	0x3e5ae108	0.21374905
166	0xbd2c1394	-0.04201086
167	0x3dfdb5e5	0.12388209
168	0x3e091a2c	0.1338889
169	0x3dd16a91	0.10225404
170	0xbdbd459b	-0.09241792
171	0x3ccda22d	0.025101746
172	0xbded59fa	-0.11589427
173	0xbdf38f34	-0.11892548
174	0x3d9e6421	0.07733942
175	0x3d885f0a	0.06658752
176	0x3dca2e03	0.09872057
177	0x3daff920	0.08592439
178	0x3cd0f523	0.025507515
179	0xbd395d37	-0.045254912
180	0xbde7627e	-0.11298083
181	0xbdcc3b1a	-0.0997221
182	0xbdcb358b	-0.09922322
183	0xbde9436f	-0.11389815
184	0xbde963cb	-0.11395987
185	0x3c6f6121	0.01461056
186	0xbd17e02d	-0.037079025
187	0xbe10af15	-0.14129288
188	0xbd89028c	-0.06689939
189	0x3dc03ff4	0.09387198
190	0x3cf5063c	0.0299102
191	0xbde6eef7	-0.11276048
192	0x3db1f11d	0.08688567
193	0xbdb1c568	-0.086802304
194	0x3db1769b	0.086652
195	0x3e0f6901	0.140049
196	0x3cd9ffab	0.02661117
197	0x3d13116a	0.03590528
198	0xbded89e9	-0.1159857
199	0x3dd5b29f	0.1043446
200	0x3e257c03	0.16160588
201	0x3ddb939e	0.10721515
202	0x3d0f261b	0.03494845
203	0x3d05067f	0.0324769
204	0xbd471a6c	-0.048609182
205	0x3de39a4c	0.11113414
206	0xbeae1515	-0.3400046
207	0xbbd802e8	-0.0065921433
208	0x3e35e639	0.17763604
209	0x3e093318	0.13398397
210	0x3e374f5b	0.17901365
211	0xbd600405	-0.054691333
212	0x3db208f6	0.086931154
213	0xbe2d9ad9	-0.16953601
214	0x3d8bdfbb	0.068297826
215	0xbd8edcbe	-0.06975697
216	0xbe09a9b1	-0.13443638
217	0x3e79d316	0.24396929
218	0x3d382311	0.044955317
219	0x3dd385f7	0.10328286
220	0xbca0c117	-0.019623322
221	0x3d821295	0.063512005
222	0x3cfa6d31	0.030569645
223	0xbd82f3ba	-0.063941434
224	0x3e32e6a2	0.17470792
225	0x3dd2a6f0	0.10285747
226	0x3d2c68cb	0.042092126
227	0x3e0bdc54	0.13658267
228	0x3dc0c16d	0.09411893
229	0xbe3786e4	-0.1792255
230	0x3d8cfdcb	0.06884345
231	0x3da23152	0.07919563
232	0xbe29fc14	-0.16600066
233	0x3d1e6b5e	0.038676612
234	0xbe3972dc	-0.18110222
235	0xbdf29f6c	-0.118468136
236	0xbe21f0f7	-0.15814577
237	0xbc654e4d	-0.013995719
238	0x3d0bc27d	0.034121025
239	0x3e2f11f4	0.17096692
240	0x3e3766d4	0.1791032
241	0x3e511165	0.20416792
242	0xbe59dfd3	-0.21276788
243	0x3dc63a5b	0.09679099
244	0xbdac5857	-0.08415287
245	0x3d5a4031	0.053283874
246	0x3d91f44e	0.071266755
247	0x3d89d241	0.06729556
248	0x3e2f1d40	0.17101002
249	0xbdd9db07	-0.10637479
250	0x3db10f7c	0.086455315
251	0xbe3a77d1	-0.18209769
252	0xbdabd7ba	-0.08390756
253	0x3da3c213	0.07996001
254	0x3d257576	0.040395223
255	0x3d22c8ae	0.039742164

shared1.bias f4 [200]
0	0x3defc2a4	0.11707047
1	0x3bc92e33	0.0061395406
2	0xbe3a5def	-0.18199895
3	0x3da6f769	0.081526585
4	0xbd57ed7d	-0.05271672
5	0x3d2a302d	0.04154985
6	0x3e0d3978	0.13791454
7	0xbe7e3578	-0.24825084
8	0xbe12e2d6	-0.14344344
9	0xbe4c3e3a	-0.19945613
10	0x3dbfac81	0.093590744
11	0x3d2e1ede	0.042509906
12	0xbe392ad9	-0.18082751
13	0x3e286f51	0.16448714
14	0xbea7d75c	-0.32781494
15	0x3e045387	0.12922488
16	0xbda4627d	-0.08026598
17	0x3db283b7	0.08716529
18	0xbd81d2aa	-0.06339009
19	0xbad5ec3a	-0.0016321011
20	0xbdfa0c84	-0.122094184
21	0xbdeaa442	-0.11457111
22	0xbe971872	-0.29510838
23	0x3ab5395a	0.0013826296
24	0x3c65f687	0.0140358275
25	0xbdbe8980	-0.0930357
26	0xbc918a79	-0.017766224
27	0x3e0d7b7c	0.13816637
28	0xbda25443	-0.07926228
29	0x3da16f34	0.078825384
30	0xbe858b7c	-0.2608298
31	0xbd95061b	-0.07276555
32	0x3e5a9187	0.21344577
33	0xbce33ce8	-0.027739003
34	0xbd12ab6c	-0.035808012
35	0x3db30ccb	0.087426744
36	0x3da25a08	0.07927328
37	0x3da3008e	0.0795909
38	0x3df8b352	0.12143578
39	0xbe36b9cc	-0.17844313
40	0x3dab7e3a	0.08373685
41	0xbcc90e7e	-0.024543043
42	0x3de0c8e0	0.10975814
43	0xbe408e3e	-0.18804261
44	0xbe03710d	-0.12836094
45	0x3d1d0f3b	0.038344603
46	0xbd792963	-0.060830485
47	0xbe852549	-0.2600501
48	0xbe51ef4f	-0.20501445
49	0x3c4295b1	0.0118765095
50	0xbd2992ec	-0.04139988
51	0xbd856361	-0.06513096
52	0xbe20b3f2	-0.15693644
53	0x3dd25f74	0.102721125
54	0xbe5ee14f	-0.21765636
55	0xbe665f0d	-0.22497196
56	0x3d7a298e	0.061074786
57	0xbdf32072	-0.11871423
58	0x3cf2f26f	0.029656617
59	0xbe4aca58	-0.1980375
60	0x3e4679f2	0.19382456
61	0xbc09d6c2	-0.008413019
62	0xbde07e6c	-0.10961613
63	0x3e2352a8	0.159495
64	0x3e484c78	0.1956042
65	0x3df06390	0.1173774
66	0xbe098a58	-0.1343168
67	0x3d7561d4	0.05990775
68	0xbe3e2071	-0.18567063
69	0xbe45a109	-0.19299711
70	0x3bc305a3	0.0059515997
71	0xbe729b94	-0.23692161
72	0xbe219f5a	-0.15783444
73	0x3e3a7869	0.18209995
74	0xbe475489	-0.19465841
75	0x3d90bb24	0.07066944
76	0xbe6e0c51	-0.23246886
77	0xbe7202b9	-0.23633851
78	0xbd877500	-0.06614113
79	0x3e06c623	0.1316152
80	0xbe65ca62	-0.22440484
81	0xbe4269a0	-0.18985605
82	0x3d42e1e9	0.047578726
83	0xbe3f1753	-0.18661241
84	0x3d8311b0	0.06399858
85	0xbdd558ea	-0.1041735
86	0x3ce19f36	0.027541738
87	0x3d795f71	0.060882036
88	0xbe497cf4	-0.19676572
89	0x3e1a90f2	0.15094355
90	0x3e104b12	0.14091137
91	0x3dcb6774	0.099318415
92	0x3e3397d5	0.17538388
93	0xbe5c70dc	-0.21527427
94	0xbe7a27d2	-0.24429253
95	0xbe8e1461	-0.27749923
96	0xbd86e348	-0.06586319
97	0x3da4ae30	0.08041036
98	0xbd83226c	-0.0640305
99	0x3e30f31f	0.17280243
100	0xbe71cf20	-0.23614168
101	0xbe1bcd23	-0.15214972
102	0x3daf66c3	0.08564522
103	0x3d72b04d	0.059250165
104	0xbe1cb9ca	-0.15305248
105	0x3deca5d6	0.11555068
106	0x3d0b527b	0.034014206
107	0xbe00b312	-0.1256831
108	0x3e185bc7	0.1487876
109	0x3d5e4853	0.054268192
110	0xbdd1ac3d	-0.1023793
111	0xbc966cd0	-0.018362433
112	0x3e5742dc	0.21021599
113	0x3d278306	0.040896438
114	0xbde8722e	-0.11349903
115	0x3d9bf70f	0.07615482
116	0xbe0e788c	-0.13913172
117	0xbc283c77	-0.010268322
118	0x3df86a6b	0.121296726
119	0xbe41aa63	-0.18912654
120	0xbe4db8ab	-0.20089976
121	0xbe41c78f	-0.18923782
122	0xbd1ce98e	-0.038308673
123	0xbe47d541	-0.19514944
124	0x3e3a753e	0.18208787
125	0x3d6e1b47	0.058131482
126	0xbd62fd39	-0.055417273
127	0xbe8a875f	-0.27056405
128	0xbd81dd8b	-0.06341084
129	0x3d88055d	0.06641648
130	0xbd1e44b3	-0.038639735
131	0x3d0432a2	0.03227485
132	0x3ccdda36	0.025128465
133	0x3dde1cd1	0.1084534
134	0xbe8ce8e5	-0.27521434
135	0x3dfaa5b7	0.12238639
136	0xbd91e920	-0.07124543
137	0xbcbc897e	-0.02301478
138	0xbdf16741	-0.11787272
139	0xbe02103f	-0.1270151
140	0xbdbc2a3f	-0.09187745
141	0xbe827034	-0.2547623
142	0xbda2198c	-0.07915029
143	0xbdef0af4	-0.11672011
144	0xbd7789d6	-0.060434185
145	0x3e1a7b44	0.15086085
146	0x3c8cb50c	0.017176174
147	0xbe0c4f72	-0.13702181
148	0x3cb22992	0.021748338
149	0x3db21c8b	0.086968504
150	0x3dcf21d7	0.10113876
151	0xbe5a4786	-0.21316347
152	0x3e1efe1e	0.15526626
153	0xbde60f3c	-0.112333745
154	0xbd883d83	-0.066523574
155	0x3dc8dd8c	0.09807882
156	0xbe07c997	-0.13260494
157	0xbe7fd20f	-0.24982475
158	0xbd38be57	-0.045103397
159	0xbe19d436	-0.15022358
160	0xbd6bf17f	-0.057603355
161	0xbd9bad65	-0.07601432
162	0xbd96d6fd	-0.073652245
163	0xbe041053	-0.12896852
164	0x3ba79f6e	0.005115441
165	0xbe4c0675	-0.19924338
166	0x3e6dc91c	0.23221248
167	0xbe3fc0b0	-0.18725848
168	0x3e39f4cc	0.18159789
169	0xbe4c34ed	-0.19942065
170	0xbdde6844	-0.10859731
171	0x3e1b891e	0.15189025
172	0xbe70650f	-0.23476051
173	0xbe1d538b	-0.153639
174	0x3d8bf86b	0.06834491
175	0xbcae5433	-0.021280384
176	0xbd04446d	-0.03229182
177	0xbe0da102	-0.13830951
178	0x3e26e422	0.16297963
179	0xbe2c2544	-0.1681109
180	0x3e08dc1a	0.13365212
181	0x3c8fedda	0.017569471
182	0x3e320508	0.17384732
183	0x3d34d725	0.04415049
184	0x3d85c4df	0.06531691
185	0xbd8481a7	-0.06470042
186	0x3e1dd7d6	0.15414366
187	0xbbf81b43	-0.007571609
188	0xbd957783	-0.07298186
189	0xbe5701ec	-0.20996827
190	0xbdb6eb05	-0.08931545
191	0xbc755a94	-0.014975209
192	0xbe78b13d	-0.24286361
193	0x3da21ef3	0.07916059
194	0xbdb57ae5	-0.08861331
195	0x3e3eae6e	0.18621227
196	0xbe37ae24	-0.17937523
197	0xbd757cba	-0.0599334
198	0xbe4bc129	-0.19897904
199	0xbe3b9bbb	-0.18321125

shared2.weight f4 [200, 200]
0	0xbbc6aca0	-0.006063059
1	0xbdff1c13	-0.124565266
2	0x3d84a17b	0.064761125
3	0x3d9f88f6	0.07789795
4	0xbcb0724d	-0.021538878
5	0x3d8034a5	0.06260041
6	0x3e1a3781	0.15060236
7	0xbd9c57fb	-0.076339684
8	0xbd267727	-0.040640976
9	0xbceb3f2b	-0.028716644
10	0x395400ff	0.00020218267
11	0xbd168c32	-0.036754794
12	0xbd9b51be	-0.075839505
13	0xbd741a09	-0.05959514
14	0xbd8339b5	-0.06407491
15	0x3bfbb183	0.007681073
16	0xbc34823a	-0.011017377
17	0x3cd4745f	0.025934396
18	0xbc35cfa9	-0.011096873
19	0x3e37cc98	0.1794914
20	0x3cb5c748	0.022189751
21	0x3e26f01d	0.16302533
22	0x3d8153a9	0.06314785
23	0x3ddd88d1	0.10817111
24	0xbc8a1e9a	-0.016860295
25	0x3dc3a178	0.09552282
26	0xbdee0052	-0.11621155
27	0xbd74eecc	-0.059798047
28	0x3daa0c3a	0.08303113
29	0x3dac34e8	0.084085286
30	0x3e30dfb8	0.17272842
31	0x3ca3dcf1	0.020002814
32	0x3d4d0327	0.050051834
33	0xbe1089a7	-0.1411501
34	0x3e118a41	0.14212896
35	0x3da52237	0.080631666
36	0x3e0d014c	0.13770026
37	0xbdb11116	-0.08645837
38	0x3e1d2e94	0.153498
39	0x3c2090b2	0.009800123
40	0x3e717358	0.23579156
41	0x3de13622	0.10996653
42	0xbd796e3a	-0.060896136
43	0xbb680d59	-0.0035408346
44	0xbe451de8	-0.1924969
45	0xbda33e7d	-0.07970903
46	0xbdca69c5	-0.09883455
47	0x3e043516	0.12910876
48	0x3dd1467d	0.10218523
49	0x3d64b184	0.055833355
50	0xbdd2b3aa	-0.102881745
51	0x3d88394d	0.06651554
52	0xbd04fdda	-0.032468654
53	0x3dc6ce58	0.09707326
54	0x3dc0d6db	0.094159804
55	0x3d5dcf47	0.054152753
56	0xbcaf5a92	-0.021405492
57	0xbe1469c5	-0.14493473
58	0xbd4e918f	-0.050431784
59	0x3d600f11	0.05470187
60	0xbc289b15	-0.010290881
61	0x3d78c074	0.060730413
62	0x3d697275	0.05699392
63	0x3c842f1a	0.016135741
64	0x3b8e1f26	0.0043372093
65	0xbdb086cb	-0.0861946
66	0x3de59f4e	0.112120256
67	0xb88c4ebb	-6.690385e-05
68	0x3d9f727b	0.07785507
69	0xbcf74cd2	-0.030187998
70	0x3ddb6ba8	0.10713893
71	0x3ddd4c78	0.10805601
72	0x3d891186	0.066927955
73	0x3d80e65c	0.062939376
74	0x3d91a430	0.071113944
75	0xbbc7a075	-0.006092126
76	0x3dad310b	0.0845662
77	0x3cfef650	0.03112331
78	0x3dd2f4b2	0.10300578
79	0xbd980e23	-0.07424571
80	0x3dd609e7	0.104511075
81	0xbdf164b9	-0.117867894
82	0x3c298e2e	0.01034884
83	0x3d86ad95	0.06576077
84	0xbbf645a4	-0.007515626
85	0xbde87291	-0.11349977
86	0xbdc46e9b	-0.09591409
87	0x3c7a40a7	0.015274203
88	0xbc90b9f2	-0.01766679
89	0xbdf27844	-0.11839345
90	0x3d865b2a	0.06560357
91	0xbb6c82f1	-0.003608879
92	0xbd909a45	-0.070606746
93	0x3ce2b392	0.027673516
94	0x3e3021f9	0.1720046
95	0xbdf6092b	-0.120134674
96	0xbcf118af	-0.029430715
97	0x3dc0cc30	0.09413946
98	0x3cc6cf3f	0.024268745
99	0xbdea7252	-0.11447586
100	0xbc964f23	-0.018348282
101	0xbd452870	-0.048134267
102	0xbd08017e	-0.033204548
103	0x3d8ac0e1	0.0677507
104	0x3dbae453	0.09125581
105	0xbca5dfa0	-0.020248234
106	0x3da87561	0.08225513
107	0x3e12b736	0.14327702
108	0xbe1a5c51	-0.15074278
109	0xbd61825b	-0.055055957
110	0xbc6f3bbf	-0.014601647
111	0xbcf2a487	-0.029619468
112	0x3c8f0894	0.017460145
113	0x3de77527	0.11301642
114	0x3d8c1797	0.06840437
115	0xbceffb0e	-0.029294517
116	0x3d7d87dd	0.061897147
117	0x3de19c3e	0.11016129
118	0xbdcf2724	-0.10114887
119	0xbdbf4496	-0.093392536
120	0x3d852d8f	0.0650283
121	0x3cbafcfc	0.02282571
122	0xbd9d4f86	-0.076811835
123	0xbd3f2010	-0.046661437
124	0xbda5b76b	-0.08091625
125	0xbda06cc6	-0.07833247
126	0xbd25e351	-0.04049999
127	0x3ded2e8c	0.11581144
128	0x3d3d197e	0.04616689
129	0x3d10a38f	0.03531223
130	0x3b4195af	0.0029538681
131	0xbcd70e8d	-0.026252056
132	0xbcc5d57e	-0.024149653
133	0xbd9d926b	-0.07693943
134	0xbe156f1f	-0.1459317
135	0xbe07f75d	-0.13277955
136	0x3dcc36a2	0.09971358
137	0x3c561962	0.013067575
138	0xbd155f83	-0.03646804
139	0x3dc462e7	0.095891766
140	0x3dee0a9a	0.11623116
141	0xbd9cfd70	-0.07665527
142	0x3de23629	0.110454865
143	0xbe00ff2d	-0.12597342
144	0x3d259030	0.04042071
145	0x3d6e4598	0.05817184
146	0xbe08d075	-0.1336077
147	0x3d48ac7a	0.04899261
148	0xbdd999fe	-0.10625075
149	0x3bdaa7ac	0.00667282
150	0x3d6fbcec	0.05852978
151	0xbd3fd8ba	-0.046837546
152	0x3e143a29	0.14475311
153	0x3c6686a5	0.014070188
154	0xbd616748	-0.055030137
155	0xbdc46b92	-0.0959083
156	0xbd493354	-0.049121216
157	0x3d2067a4	0.03916134
158	0x3e07e0cd	0.13269348
159	0xbe1e1ca8	-0.15440619
160	0xbc7ad0f1	-0.015308605
161	0x38bb6d80	8.937251e-05
162	0x3c26df67	0.010185099
163	0x3e36a754	0.17837268
164	0x3e39c2cb	0.18140714
165	0x3d9fb3b4	0.077979475
166	0xbbae89b3	-0.0053264736
167	0x3de4a873	0.11164942
168	0xbd5ec099	-0.054382894
169	0x3c4f3098	0.012645863
170	0xbdc93993	-0.098254345
171	0x3d9b4909	0.0758229
172	0x3c9c9042	0.019111756
173	0x3d5fdafa	0.05465219
174	0x3da64715	0.081190266
175	0xbd814a1a	-0.06312962
176	0x3e0844b3	0.13307457
177	0x3db4066b	0.08790287
178	0x3ddc6f1e	0.107633814
179	0x3db299f5	0.08720771
180	0x3d159145	0.036515493
181	0x3e2a22fd	0.1661491
182	0x3d95f59b	0.07322236
183	0xbdaf3e36	-0.08556788
184	0xbd3e0a85	-0.04639675
185	0xbd486086	-0.048920177
186	0xbc9568c0	-0.018238425
187	0xbdf4b4f0	-0.119485736
188	0xbc10afec	-0.008831006
189	0x3d40f44e	0.047107987
190	0x3d10fd68	0.035397917
191	0xbded3802	-0.11582948
192	0x3dbe1a1e	0.09282325
193	0x3dcd6f2a	0.100309685
194	0x3c56433d	0.013077554
195	0x3e2d5098	0.16925275
196	0xbc4a42ea	-0.012345055
197	0x3c1569fe	0.009119509
198	0x3bd0c31f	0.0063709165
199	0xbd74de2a	-0.059782185
200	0x3db0fefd	0.08642385
201	0x3befc3c2	0.0073170373
202	0xbdf1db97	-0.118094616
203	0xbb063df1	-0.0020483697
204	0xbdcdf1ff	-0.10055923
205	0x3df285bb	0.11841913
206	0xbd8398ce	-0.064256296
207	0xbd8645c7	-0.06556278
208	0x3ca3d8d3	0.02000085
209	0xbd796e03	-0.06089593
210	0x3d1a9ac3	0.03774525
211	0xbd8eccbf	-0.06972646
212	0xbde353c1	-0.11099959
213	0x3d18844e	0.03723555
214	0x3dfd0aa8	0.12355548
215	0xbd840d80	-0.064478874
216	0x3da62867	0.08113175
217	0xbcca6b70	-0.024709433
218	0x3d8fcb85	0.0702124
219	0xbd8944bb	-0.067025624
220	0x3d7793e2	0.060443766
221	0xbd7c2a88	-0.061564
222	0x3d7c6872	0.061623044
223	0xbd0137e1	-0.03154743
224	0xbe1c2608	-0.15248883
225	0x3e04e8b4	0.12979394
226	0x3d96a8e3	0.07356431
227	0xbd10ef55	-0.035384495
228	0x3db4ed44	0.08834317
229	0xbdc91127	-0.09817725
230	0x3d7e3247	0.062059667
231	0x3cb003bf	0.021486161
232	0xbdb73a73	-0.08946695
233	0x3d507e8f	0.050901946
234	0x3d0731d4	0.033006504
235	0xbceab48f	-0.02865055
236	0x3d47d5b3	0.048787784
237	0x3dc0d92b	0.094164215
238	0xbd9c3318	-0.07626933
239	0xbd8e9f8e	-0.069640264
240	0xbd383e95	-0.044981558
241	0xbc46dc7f	-0.012137531
242	0x3d1fc793	0.03900869
243	0xbe18958c	-0.14900798
244	0x3dd46336	0.103704855
245	0x38f2cd6d	0.00011577723
246	0xbd9dbdc3	-0.0770221
247	0xbdd4812e	-0.103762016
248	0xbd60072a	-0.054694332
249	0xbdae68f4	-0.08516112
250	0xbd305b17	-0.04305562
251	0x3d0eafc1	0.03483558
252	0xbca5d7c6	-0.02024449
253	0xbdc86ef8	-0.097867906
254	0xbbe6260b	-0.007023578
255	0x3db4bc9e	0.088250384

shared2.bias f4 [200]
0	0xbbc0a834	-0.0058794264
1	0x3c780f6a	0.015140394
2	0xbd8fac0e	-0.07015239
3	0x3d56a758	0.052405685
4	0xbd2bc253	-0.04193337
5	0xbd6020ae	-0.054718666
6	0xbce7d033	-0.02829752
7	0x3da97f03	0.08276179
8	0x3d6e475b	0.05817352
9	0x3d4bfdf9	0.049802754
10	0xbdc7936b	-0.097449146
11	0xbd8671be	-0.06564663
12	0xba1c03be	-0.00059514854
13	0xbd27adcf	-0.04093724
14	0xbbf0de1d	-0.0073506967
15	0xbb74be00	-0.0037344694
16	0xbdb67a66	-0.089100644
17	0xbcb70bb5	-0.02234445
18	0xbc177247	-0.009243554
19	0xbd58d92e	-0.052941494
20	0xbd37922a	-0.044817127
21	0xbd02029c	-0.03174077
22	0xbc42fea9	-0.011901536
23	0xbd173cb4	-0.036923125
24	0xbc8354fc	-0.016031735
25	0xbd16dfcb	-0.03683452
26	0xbd52f6df	-0.051504966
27	0xbdc75fec	-0.097350925
28	0xbd5979db	-0.053094726
29	0xbd229ac2	-0.03969837
30	0x3da6b77f	0.08140468
31	0xbcb23869	-0.021755414
32	0xbd89c9bf	-0.06727933
33	0xbc87163a	-0.01649009
34	0x3d240b72	0.040049978
35	0xbd91e84f	-0.071243875
36	0xbd992bda	-0.07479067
37	0x3d001e05	0.03127863
38	0xbcab1550	-0.020884186
39	0x3d7403ee	0.05957406
40	0xbcd49a15	-0.025952378
41	0x3d216532	0.039403148
42	0xbcb4c8d5	-0.02206842
43	0x3bae3c56	0.005317251
44	0xbd3df0be	-0.046372168
45	0x3d098e0c	0.033582732
46	0x3d26aa48	0.040689737
47	0x3d3204d8	0.04346165
48	0xbd8d5a12	-0.06901945
49	0xbc001298	-0.007816933
50	0x3d16b5a5	0.036794323
51	0xbd371659	-0.044699047
52	0xbd53c42e	-0.051700763
53	0xbd0683b1	-0.032840434
54	0xbdb75286	-0.08951287
55	0xbc6c3990	-0.014418021
56	0xbe143134	-0.14471895
57	0x3c3ca931	0.011514948
58	0xbdab59b3	-0.08366718
59	0x3c9d7e35	0.01922522
60	0xbccefe7a	-0.025267828
61	0x3d3298bf	0.0436027
62	0xbd14edbe	-0.03635954
63	0xbd3fbb79	-0.046809647
64	0xbd8f2230	-0.069889426
65	0xbd9e12a4	-0.07718399
66	0xbc0f230c	-0.008736383
67	0x3c8e0fc9	0.017341511
68	0xbc7523e3	-0.014962169
69	0x3d2ed4aa	0.04268328
70	0xbd4c2d0c	-0.049847648
71	0xbdc8cf7f	-0.09805202
72	0x3d99297a	0.07478614
73	0xbcae70e5	-0.021294067
74	0xbdec2dd7	-0.11532181
75	0xbdcb7122	-0.09933688
76	0xbddc1573	-0.107462786
77	0xbe086af0	-0.13322043
78	0xbcb618c2	-0.022228602
79	0xbaaad9b1	-0.0013034848
80	0xbddbcabc	-0.10732028
81	0xbcbfe11a	-0.023422766
82	0xbcdd676a	-0.02702685
83	0xbd63327b	-0.055468064
84	0x3d1248b5	0.03571387
85	0xbd1669ce	-0.036721997
86	0x3c613b5e	0.013747064
87	0x3c295bcd	0.010336828
88	0x3b6b19cd	0.0035873533
89	0xbc93125a	-0.017953087
90	0x3d092f65	0.033492465
91	0x3cf1a9bd	0.029499883
92	0xbd0135ba	-0.03154538
93	0xbd277400	-0.04088211
94	0x3d3af46d	0.04564326
95	0xbd6fef54	-0.05857785
96	0x3ba1afaf	0.004934273
97	0xbcdb6fbf	-0.026786683
98	0xba6a3e72	-0.00089356967
99	0xbce5d867	-0.02805729
100	0x3dad8b0a	0.08473785
101	0xbd1d71b6	-0.03843852
102	0xbd5a3649	-0.053274427
103	0xbd9e1960	-0.07719684
104	0xbdabf7e9	-0.083968945
105	0xbd44183d	-0.047874678
106	0xbd7a218f	-0.06106716
107	0xbd83912d	-0.064241745
108	0x3cd8ca36	0.02646361
109	0xbca00e10	-0.019537956
110	0xbccfcda9	-0.025366621
111	0xbdd321a4	-0.10309151
112	0xbce5123d	-0.027962798
113	0xbce76146	-0.028244626
114	0xbcf98cf5	-0.030462721
115	0x3d3d6ea1	0.046248082
116	0xbd467ab9	-0.04845688
117	0x3cfc2e19	0.0307837
118	0xbd739bcf	-0.059474763
119	0x3ce5057a	0.027956713
120	0xbdeb1dc6	-0.11480288
121	0xbd68477a	-0.05670879
122	0x3b825e6d	0.0039785416
123	0xbde1f4c9	-0.11033017
124	0x3d89ce69	0.06728823
125	0xbdc49161	-0.09598041
126	0xbda83059	-0.082123466
127	0xbd32ce05	-0.043653507
128	0x3de4c0c9	0.11169583
129	0xbd59cbb8	-0.053172797
130	0xbb9164f9	-0.0044370857
131	0xbc17af29	-0.00925807
132	0xbd2e1ada	-0.042506076
133	0xbbee85a2	-0.007279114
134	0x3d50962d	0.05092447
135	0xbc566520	-0.0130856335
136	0xbd58122c	-0.052751705
137	0x3d8eddf6	0.069759294
138	0xbd415ba0	-0.04720652
139	0xbbc4f5bb	-0.0060107387
140	0xbd5db643	-0.054128896
141	0xbdd63b22	-0.104604974
142	0x3cc19536	0.02363072
143	0x3ba3a936	0.0049945368
144	0xbc201775	-0.009771218
145	0x3d2dbbfe	0.04241561
146	0xbcd7b6e7	-0.026332332
147	0xbda339a6	-0.0796998
148	0xbe3261a4	-0.1742006
149	0x3bac5d19	0.0052601215
150	0xbcc50c95	-0.024053851
151	0x3ca07794	0.01958827
152	0xbcd1e898	-0.025623605
153	0xbd02c1f8	-0.031923264
154	0x3ce5e9df	0.02806562
155	0xbd36f9a4	-0.04467167
156	0xbdb2fa92	-0.08739199
157	0xbd5de509	-0.054173503
158	0xbddfbdda	-0.10924883
159	0xbd0bf794	-0.034171656
160	0xbd0b2cb9	-0.033978198
161	0xbcf8017c	-0.030274145
162	0xbdbfce5c	-0.09365532
163	0x3b9f3827	0.004858989
164	0xbd5739c1	-0.052545313
165	0xbd318ea6	-0.04334893
166	0xbd20f99f	-0.039300557
167	0x3b84fbac	0.004058322
168	0xbcb826db	-0.022479465
169	0x3d42e014	0.04757698
170	0x3d1d98d3	0.038475823
171	0xbb2acb25	-0.0026061025
172	0xbd4e66ff	-0.050391193
173	0xbc2faad7	-0.010721884
174	0xbc5317b2	-0.012884067
175	0xbd79ccf7	-0.060986485
176	0x3cb64814	0.022251166
177	0x3cc9dbc7	0.02464093
178	0x3ca0ac47	0.019613398
179	0x3ba45401	0.005014897
180	0x3c6b2110	0.014351144
181	0xbdb3e5c5	-0.087840594
182	0xbd6e740e	-0.058216147
183	0x3d2a3f1b	0.04156409
184	0xbc168717	-0.009187481
185	0xbd6deda1	-0.05808795
186	0x3b9137dc	0.004431708
187	0x3cb89272	0.022530768
188	0xbd1e36cd	-0.03862648
189	0xbc8e3620	-0.017359793
190	0xb8cb83c3	-9.704337e-05
191	0x3d6f7383	0.05845977
192	0xbd62f335	-0.05540772
193	0xbae70d1f	-0.0017627812
194	0xbaf412cc	-0.0018621325
195	0xbda21d5e	-0.079157576
196	0xbd3ea6c7	-0.04654577
197	0xbbbe8074	-0.0058136526
198	0xbcd13686	-0.025538694
199	0xbd3897ff	-0.04506683

hidden1_Y1.weight f4 [200, 200]
0	0xbd92b0f8	-0.0716266
1	0x3dcd7d3a	0.10033651
2	0xbd087706	-0.033316635
3	0xbd4cb1ea	-0.04997436
4	0xbd1e3e1d	-0.038633455
5	0xbcc33cb0	-0.023832649
6	0x3c836fcb	0.016044518
7	0xbd41bcc8	-0.047299176
8	0x3c594633	0.013261366
9	0xbd80171e	-0.06254409
10	0xbbb640db	-0.0055619306
11	0x3d30c32b	0.043154877
12	0x3d8a3d21	0.06749941
13	0x3b81cf0c	0.0039614495
14	0x3ce34818	0.027744338
15	0x3d5b85c7	0.053594377
16	0x3d2527d1	0.040321175
17	0x3b7dd836	0.0038733608
18	0xba85f8c0	-0.0010221228
19	0x3be2e6eb	0.0069245
20	0x3cc80ceb	0.024420222
21	0x3d51392e	0.05107992
22	0x3b9b4ae3	0.004739152
23	0xbdc1e743	-0.09467938
24	0x3dc33ed1	0.09533466
25	0x3d0680bb	0.03283761
26	0x3db9d1e7	0.09073239
27	0x3d8a8632	0.06763877
28	0xbc451803	-0.012029651
29	0xbdaa074d	-0.08302174
30	0xbdf635ec	-0.120220035
31	0xbc5d337d	-0.013501045
32	0xbde6eeb6	-0.11275999
33	0x3cfad8c3	0.030620938
34	0xbdb103dd	-0.08643315
35	0x3dc11437	0.09427684
36	0xbdce94a4	-0.10086945
37	0xb9fbfcb1	-0.0004806272
38	0x3cde9747	0.027171744
39	0xbda8778e	-0.08225928
40	0x3d8e512d	0.06949077
41	0xbd158c26	-0.03651061
42	0xbccfde3e	-0.025374528
43	0x3dd1902d	0.102325775
44	0xbc2b2f14	-0.010448236
45	0xbd19971e	-0.037497632
46	0x3d187c8b	0.03722815
47	0x3c69ea63	0.014277074
48	0xbd7366f1	-0.059424344
49	0xbcffb62f	-0.031214802
50	0x3dfe234a	0.124090746
51	0xbd965f15	-0.07342354
52	0x3c9f81aa	0.019471008
53	0x3dcb7a31	0.099354155
54	0xbc8816a5	-0.01661236
55	0x3c3ecd48	0.011645623
56	0x3d8aaf03	0.06771662
57	0xbd51561e	-0.05110752
58	0x3dd816d7	0.10551231
59	0x3cf508ea	0.029911477
60	0xbdea14de	-0.11429761
61	0x3da634d4	0.08115545
62	0x3c58d183	0.013233545
63	0x3ce804dd	0.028322631
64	0xbd0faba8	-0.035075814
65	0x3dc2a60e	0.09504329
66	0x3d94714c	0.07248172
67	0x3d7a6283	0.061129104
68	0xbdd95bd5	-0.10613219
69	0x3d2fee46	0.042951845
70	0xbd8f8b86	-0.07009034
71	0xbd6c5c36	-0.057705127
72	0x3dc11757	0.0942828
73	0xbc7e347b	-0.015515442
74	0x3dd0ac45	0.10189108
75	0x3d5ea85d	0.054359782
76	0xbdcef2be	-0.10104893
77	0xbd6cbfb3	-0.057800006
78	0xbde4211c	-0.111391276
79	0x3d0eae5f	0.034834262
80	0x3d3b660f	0.045751628
81	0xbd608b52	-0.054820366
82	0xbdef0eb2	-0.11672725
83	0x3d8aa567	0.06769829
84	0xbdcef880	-0.10105991
85	0xbd722586	-0.059117816
86	0x3d34d045	0.044143934
87	0xbcc8ce78	-0.024512514
88	0x3daa0e3f	0.083034985
89	0xbd0b7390	-0.034045756
90	0xbe05529e	-0.13019797
91	0x3dc48b7a	0.095969155
92	0xbc96cdce	-0.018408682
93	0x3d391c8c	0.04519324
94	0xbd927909	-0.07151992
95	0x3de5a20f	0.11212551
96	0x3db0ad42	0.08626796
97	0x3d9c950d	0.07645617
98	0xbc0f7788	-0.008756526
99	0x3d26b007	0.040695217
100	0xbdaf78ad	-0.08567939
101	0xbb8d6ef0	-0.0043162033
102	0x3e0052c7	0.12531577
103	0x3db16c67	0.08663254
104	0xbc2c6f33	-0.010524559
105	0xbc745ce6	-0.014914727
106	0x3d94a11a	0.0725729
107	0x3de6e4bf	0.112740986
108	0xbe02ee39	-0.12786187
109	0x3db56a07	0.08858114
110	0x3d2b57ee	0.041831903
111	0x3dbe7b1c	0.09300825
112	0x3cde22a5	0.02711613
113	0xbdf78b84	-0.12087157
114	0x3dac1109	0.08401687
115	0x3d817a14	0.06322113
116	0x3d97ae5c	0.07406303
117	0xbda92f7d	-0.08261011
118	0xbdaf5a47	-0.08562141
119	0x3da12053	0.078674935
120	0x3db0caf9	0.08632464
121	0xbdef003b	-0.11669966
122	0x3d27a1a0	0.040925622
123	0xbdbdbcf2	-0.09264554
124	0x3db295e9	0.08719999
125	0xbd721cc8	-0.05910948
126	0x3d0fec5d	0.035137523
127	0xbd9e0c60	-0.07717204
128	0x3d304ed3	0.043043923
129	0xbdd6a4b0	-0.104806304
130	0x3d6dd5ef	0.05806535
131	0xbc5cf47f	-0.013486027
132	0xbc65bd37	-0.014022163
133	0x3d2c33ef	0.042041715
134	0xbd82bd33	-0.06383743
135	0x3d8fccaa	0.070214584
136	0xbda42a46	-0.080158755
137	0xbcb04eed	-0.02152201
138	0xbde9faac	-0.11424765
139	0x3b56dc1c	0.0032785004
140	0xbdc68ce8	-0.096948445
141	0xbdcfb324	-0.1014159
142	0x3be54027	0.006996173
143	0x3d9908ee	0.07472406
144	0x3d486a65	0.04892959
145	0x3dcd23e2	0.1001661
146	0xbd87ccc2	-0.06630851
147	0x3d77c70a	0.060492553
148	0xbdbe0d4c	-0.0927988
149	0x3da87678	0.08225721
150	0xbdb4dcaf	-0.088311546
151	0x3d41ed0a	0.0473452
152	0xbd65aa32	-0.056070514
153	0xbd47144e	-0.04860335
154	0xbd927e47	-0.07152992
155	0xbd1b58d7	-0.03792652
156	0xbc446ba2	-0.011988552
157	0x3dfc1d36	0.12310259
158	0xbdec6b8e	-0.11543952
159	0x3d506a88	0.050882846
160	0xbd1bbf60	-0.038024306
161	0xbc92d6e9	-0.017924743
162	0x3df18a8b	0.11794003
163	0xbde83981	-0.11339093
164	0xbdb91785	-0.09037689
165	0x3de140dc	0.10998699
166	0xbd8745e7	-0.0660513
167	0xbcd4f511	-0.025995763
168	0x3db7c482	0.08973028
169	0x3cb4ec26	0.02208526
170	0xbd1e46fc	-0.038641915
171	0x3e0e8486	0.13917741
172	0x3e18b1d6	0.14911589
173	0x3d8d639b	0.06903764
174	0xbd9d6281	-0.07684804
175	0x3d4af862	0.049553283
176	0x3c4e9489	0.012608656
177	0x3c2c12de	0.010502545
178	0xbdf691c5	-0.12039522
179	0x3dd12399	0.10211868
180	0xbd09ec93	-0.03367288
181	0x3caa090a	0.020756263
182	0x3d68a29c	0.0567957
183	0xbddd14eb	-0.107950054
184	0x3dc94119	0.098268695
185	0xbdb935d9	-0.09043474
186	0xbdf1cd63	-0.118067525
187	0xbd020931	-0.031747047
188	0x3b9715a3	0.0046107336
189	0xbcc38985	-0.023869285
190	0x3d559966	0.052148245
191	0xbd841903	-0.06450083
192	0xbcebdc77	-0.02879165
193	0xbdc50b6d	-0.0962132
194	0x3de9085b	0.11378547
195	0x3c89a282	0.016801123
196	0xbd3e8e88	-0.046522647
197	0x3d9de981	0.07710553
198	0xbd51cec8	-0.051222593
199	0x3d4805a0	0.04883349
200	0xbde72d4f	-0.11287939
201	0x3bf47386	0.0074600605
202	0xbd5185e7	-0.05115309
203	0xbdb3713a	-0.08761831
204	0xbca1ad03	-0.019735819
205	0xbdf0a469	-0.11750109
206	0x3d9a7dd3	0.0754353
207	0x3cbb0aa7	0.022832228
208	0xbd662ba1	-0.05619395
209	0xbdeedc1d	-0.11663077
210	0xbd728acb	-0.059214395
211	0x3db71741	0.08939982
212	0x3dd24ef7	0.102689676
213	0xbdd92b22	-0.1060393
214	0xbd8a623c	-0.06757018
215	0x3df007e2	0.117202535
216	0x3d9d79eb	0.0768927
217	0x3c78bc67	0.015181637
218	0x3e1a6fe5	0.15081747
219	0xbdbdb6f5	-0.09263412
220	0xbb58c779	-0.003307788
221	0x3d871fce	0.06597863
222	0xbd946de3	-0.07247522
223	0x3d37530d	0.044756938
224	0x3cfaaec6	0.030600917
225	0xbd1a2d11	-0.037640635
226	0x3de9ad8f	0.11410057
227	0xbdef264e	-0.11677228
228	0xbda339d7	-0.079700164
229	0xbd0399d0	-0.03212911
230	0x3db46f94	0.08810344
231	0xbc54addb	-0.0129809035
232	0x3c94cac6	0.018163096
233	0xbdbf4986	-0.09340195
234	0x3bed4d7b	0.0072419024
235	0xbce0c071	-0.027435513
236	0x3c947d61	0.018126192
237	0x3cc655db	0.024210861
238	0x3cc9e734	0.024646379
239	0x3db1e0ed	0.08685479
240	0x3da829f4	0.08211127
241	0x3d3f3fa9	0.04669157
242	0x3d342a6f	0.04398578
243	0xbd3b3824	-0.045707837
244	0x3d6be80e	0.05759435
245	0x3d6163d4	0.055026844
246	0xbd5c1dbc	-0.053739294
247	0xbdea5e77	-0.11443799
248	0xbdb0a4f6	-0.08625214
249	0xbdbbb887	-0.09166055
250	0x3d747a14	0.059686735
251	0x3c016a24	0.007898841
252	0x3c9898fe	0.01862764
253	0x3dad976c	0.08476147
254	0xbc7a8179	-0.015289658
255	0xbdef18cd	-0.11674652

hidden1_Y1.bias f4 [200]
0	0xbcdf3dda	-0.027251173
1	0xbd38ae04	-0.04508783
2	0xbbf2d3f8	-0.0074105226
3	0x3c8ae876	0.01695655
4	0x3bf1a23e	0.007374077
5	0xba05e240	-0.0005107261
6	0x3c93ba9d	0.01803332
7	0xbc7237d4	-0.014783818
8	0x3c42592a	0.011862079
9	0xbd1396f4	-0.036032632
10	0xbd7d75f2	-0.06188006
11	0x3c9e1201	0.019295694
12	0x3d30981f	0.043113824
13	0x3d48210d	0.048859645
14	0xbd8c68fb	-0.06855961
15	0xbd8f7f86	-0.07006745
16	0x3d55d9e7	0.05220976
17	0xbc3074c8	-0.01077003
18	0x3cd27c3d	0.025694007
19	0xbc32bd91	-0.010909454
20	0x3c4960ee	0.012291176
21	0xbc6dcb55	-0.01451381
22	0x3d56bb57	0.052424755
23	0xbcc8658e	-0.024462488
24	0x3ca80bbf	0.020513413
25	0xbcce51dd	-0.02518552
26	0xbd8262e3	-0.063665174
27	0xbcceea79	-0.02525829
28	0xbbbc4e39	-0.0057466296
29	0x3d7fd264	0.062456504
30	0xbd2dccad	-0.042431522
31	0x3d4e9c8f	0.050442275
32	0xbc1ae748	-0.009454556
33	0x3cb2d9b6	0.021832328
34	0x3d214927	0.039376404
35	0x3d5f6115	0.054535944
36	0xbd90737a	-0.070532754
37	0xbbede85d	-0.007260366
38	0x3c6ecfff	0.014575957
39	0xbd03735c	-0.032092437
40	0x3d4fdc14	0.050746992
41	0xbc91f25f	-0.017815767
42	0x3d62c82a	0.055366673
43	0x39abdc40	0.0003277976
44	0xbd690c10	-0.05689627
45	0x3cec3102	0.028831962
46	0xbd56bdda	-0.05242715
47	0x3c67314b	0.014110873
48	0xbb1d51bd	-0.0024005019
49	0xbbbd484d	-0.005776441
50	0xbd88c725	-0.06678609
51	0x3d73fd0b	0.059567492
52	0x3ce5f1f9	0.028069483
53	0x3cb1714a	0.021660466
54	0x3d9ad454	0.075600296
55	0x3d441133	0.047867965
56	0x3cf843bf	0.030305741
57	0xbd57910b	-0.052628558
58	0x3d719c63	0.058987033
59	0xbca32660	-0.01991576
60	0xbd6edef4	-0.058318093
61	0x3cf464f5	0.029833296
62	0x3ce5d445	0.02805532
63	0x3cb9b7c4	0.022670634
64	0xbcac412d	-0.021027172
65	0x3d66ec9d	0.056377996
66	0xbd34054b	-0.04395036
67	0x3d22d5f1	0.03975481
68	0x3d8e3d9f	0.06945347
69	0xbd4916c7	-0.049093988
70	0xbc3ee009	-0.011650094
71	0x3d784ab7	0.06061813
72	0xbd16789a	-0.03673611
73	0xbc99108a	-0.018684644
74	0xbc964e51	-0.018347891
75	0xbd1294b4	-0.035786346
76	0xbdaa2ef9	-0.083097406
77	0x3db6bbbd	0.08922527
78	0x3d78d7e0	0.06075275
79	0xbd757975	-0.059930284
80	0xbcb9cd26	-0.02268083
81	0x3b8378e6	0.004012215
82	0x3d3d8cf4	0.046277
83	0xbd4c51e0	-0.04988277
84	0xbca1493f	-0.019688247
85	0xbd59e7fb	-0.05319975
86	0x3cc9ed33	0.024649238
87	0xbd5cbf72	-0.053893514
88	0x3d86563e	0.06559418
89	0xba85de59	-0.001021336
90	0xbd5409fa	-0.051767327
91	0x3d3a57d3	0.045493912
92	0xbd6b1871	-0.057396356
93	0xbaccd5bf	-0.0015627666
94	0x3d2d2963	0.042275798
95	0xbd801efd	-0.062559105
96	0x3cf8108f	0.030281333
97	0x3d2247ba	0.039619185
98	0xbd803fb4	-0.062621504
99	0xbda0c6e3	-0.07850435
100	0xbd8b660e	-0.06806575
101	0xbd506f21	-0.05088723
102	0xbcb77f4c	-0.022399567
103	0xbca2215f	-0.019791303
104	0x3d6c3bf8	0.05767438
105	0xbceb47c8	-0.028720751
106	0xbc87f318	-0.016595408
107	0xbd7648c3	-0.060127985
108	0xbd057afe	-0.032587998
109	0xbd455b4d	-0.048182774
110	0x3ce8ba41	0.028409125
111	0xbd37d721	-0.044882897
112	0x3d7dd789	0.06197313
113	0xbbb2a71e	-0.005452051
114	0xbc8bceca	-0.017066378
115	0xbd852304	-0.06500819
116	0x3be05801	0.0068464284
117	0xbd2f8ca3	-0.04285873
118	0x3d58bb42	0.052912958
119	0x3d58f75b	0.05297027
120	0xbd086555	-0.033299763
121	0x3d6b8921	0.057503823
122	0x3c46975e	0.01212105
123	0xbd090d0a	-0.0334597
124	0xbd78b885	-0.060722847
125	0xbd44216d	-0.04788344
126	0x3b83d1d2	0.0040228153
127	0x3c8aa407	0.016923917
128	0xbd290488	-0.041264087
129	0x3d4149c3	0.047189485
130	0x3d8f005f	0.06982493
131	0xbd5fa2ea	-0.054598726
132	0x3cceccae	0.025244083
133	0xbd3b73a5	-0.045764584
134	0xbda183c7	-0.07886463
135	0x3c414a32	0.011797475
136	0xbd8c6829	-0.068558045
137	0x3c2c4ec0	0.010516822
138	0xbd28adf8	-0.041181535
139	0xbd757c51	-0.05993301
140	0x3d8620f6	0.065492555
141	0xbd630022	-0.05542005
142	0xbc1cead9	-0.009577476
143	0xbc0a4f1d	-0.008441714
144	0x3d7bdb48	0.06148842
145	0x3d2a24fe	0.041539185
146	0x3d812cd0	0.063073754
147	0xbd6484a9	-0.055790577
148	0xbcb22e27	-0.021750523
149	0xbd04140d	-0.032245684
150	0x3cb54d85	0.02213169
151	0x3c58cfec	0.013233166
152	0xbc222d10	-0.009898439
153	0x3d3cc383	0.046084892
154	0x3b46f4f1	0.0030358399
155	0x3c71d456	0.0147600975
156	0x3ccfb314	0.025353946
157	0xbda4226f	-0.0801438
158	0xba1e7b0e	-0.0006045558
159	0x3d4ef2eb	0.050524633
160	0x3cd84919	0.026402043
161	0xbd820800	-0.06349182
162	0x3d32bf8d	0.04363971
163	0xbce359d4	-0.027752794
164	0x3d911b78	0.070853174
165	0xbd688463	-0.05676688
166	0xbd1ce057	-0.038299885
167	0x3ca982c7	0.020692242
168	0xbd451ada	-0.04812131
169	0x3d07c78f	0.0331493
170	0x3d167bff	0.036739346
171	0xbd8e268c	-0.06940946
172	0xbb9e9e57	-0.004840653
173	0xbd8a7fc6	-0.06762652
174	0x3d18fa81	0.037348274
175	0xbcbcedf2	-0.02306268
176	0xbc7d8435	-0.015473415
177	0xbd8880ee	-0.066652164
178	0xbb8073a0	-0.0039200336
179	0x3c9e5967	0.01932974
180	0xbd0447e7	-0.032295134
181	0x3d4ccf5a	0.050002433
182	0x3d0323c5	0.032016534
183	0xbba3690b	-0.0049868873
184	0xbd8263b6	-0.063666746
185	0x3d0363ca	0.03207759
186	0xbcd31b7a	-0.025769938
187	0xbd84ab20	-0.06477952
188	0xbd439a50	-0.047754586
189	0x3ce7eda4	0.028311558
190	0x3d157f94	0.03649862
191	0xbd13ff95	-0.036132414
192	0x3cf96ebd	0.030448312
193	0xbd3827ae	-0.044959716
194	0xbd9c4d62	-0.07631947
195	0x3b8d4768	0.004311491
196	0x3d8aa30c	0.0676938
197	0xbcce78fc	-0.025204174
198	0xbb8a4c8a	-0.00422055
199	0x3b1699a5	0.0022979763

hidden2_Y1.weight f4 [200, 200]
0	0x3c7b958c	0.015355479
1	0x3d86d9b7	0.065844946
2	0xbaef4c08	-0.0018256912
3	0xbd4dbe63	-0.050230395
4	0xbb8ba84f	-0.0042620073
5	0xbd78cef9	-0.06074426
6	0xbd61b1e2	-0.055101283
7	0xbd98f873	-0.07469263
8	0xbd974fc3	-0.0738826
9	0x3dded410	0.108802915
10	0x3d1670c1	0.036728624
11	0xbde4aff7	-0.11166375
12	0xbda113d9	-0.07865114
13	0x3b98686a	0.004651119
14	0xbd6c2a93	-0.05765779
15	0xbd971e21	-0.073787935
16	0xbdaf55d0	-0.08561289
17	0x3beda9e5	0.007252919
18	0xbb7bbe11	-0.003841285
19	0xbd961358	-0.07327908
20	0x3d5add0c	0.053433463
21	0xbd5e59c9	-0.054284845
22	0x3d914f23	0.07095172
23	0x3c3b62a9	0.011437097
24	0xba4894f9	-0.0007651593
25	0xbd665c7a	-0.056240536
26	0x3ca8e41a	0.02061658
27	0xbdb4aa4b	-0.08821543
28	0x3c8ccf48	0.017188683
29	0xbdc628f8	-0.09675783
30	0x3d0b2499	0.03397045
31	0x3e0fa855	0.14029057
32	0xbdbb0d97	-0.091334514
33	0x3da22517	0.079172306
34	0x3cfa6e26	0.030570101
35	0xbd23dfc2	-0.040008314
36	0xbd916302	-0.07098962
37	0x3d3a769f	0.045523282
38	0xbcd259f3	-0.025677657
39	0xbd38fcd1	-0.04516298
40	0x3dc686e3	0.09693696
41	0xbda281b6	-0.07934897
42	0x3d52eb53	0.051493954
43	0x3de0e849	0.10981805
44	0x3d6fddc8	0.058561116
45	0x3d58a4b4	0.05289145
46	0xbddd9158	-0.10818738
47	0x3bc52e9f	0.0060175206
48	0xbd405cb5	-0.046963412
49	0x3d08d437	0.03340551
50	0x3d23ae84	0.039961353
51	0xbd3f0599	-0.046636198
52	0xbda80d38	-0.08205646
53	0x3dc46a4f	0.09590589
54	0xbddf1a5f	-0.10893702
55	0xbdb25ea5	-0.08709458
56	0xbd08c8b7	-0.03339454
57	0x3ad1a8ab	0.0015995702
58	0xbd841aa5	-0.064503945
59	0x3dff4421	0.124641664
60	0xbdb8fb7b	-0.09032341
61	0x3db3e13c	0.087831944
62	0xba2179a7	-0.000615979
63	0x3c1d4d95	0.0096010165
64	0x3dd1e8cb	0.1024948
65	0xbd399ef0	-0.04531759
66	0x3dcc3462	0.09970929
67	0xbda60562	-0.081064954
68	0xbd762af3	-0.060099553
69	0xbd2f04bd	-0.04272913
70	0xbde6d5f5	-0.11271278
71	0xbdc38b4f	-0.095480554
72	0xbdaa3dc6	-0.083125636
73	0xbde64ab5	-0.11244718
74	0xbd38e60b	-0.04514126
75	0xbd98f0c9	-0.07467801
76	0xbc6319d4	-0.013861138
77	0xbd0fce5c	-0.03510891
78	0x3ca0d61d	0.019633347
79	0xbbdf5412	-0.006815442
80	0xbdc8b1b1	-0.09799517
81	0xbd0e5b03	-0.034754764
82	0x3d26405e	0.04058873
83	0x3d6aaf8f	0.057296332
84	0x3e07dbe1	0.13267471
85	0xbda80cf4	-0.082055956
86	0x3d26f6f8	0.04076287
87	0xbdd03305	-0.10165981
88	0x3ca9399f	0.020657359
89	0x3d95d2bc	0.07315585
90	0x3da67c37	0.08129161
91	0xbd704781	-0.05866194
92	0x3dea1dcf	0.11431467
93	0x3ccd89d9	0.025090145
94	0x3deacd42	0.11464931
95	0xbd2f3367	-0.04277363
96	0x3d1302ba	0.035891272
97	0x3def01cb	0.11670264
98	0x3de84b1e	0.113424525
99	0xbdc1a2b3	-0.094548605
100	0xbc80eda3	-0.015738314
101	0x3aaceacf	0.0013192537
102	0x3dd870f7	0.10568421
103	0xbc9e7b8e	-0.019346025
104	0x3c8abcea	0.016935784
105	0x3d5f8a2d	0.054575134
106	0x3cf6525c	0.030068569
107	0x3c5c303c	0.013439234
108	0x3dadbb35	0.084829725
109	0x3dd53412	0.10410322
110	0x3dc8495a	0.09779616
111	0xbde58d18	-0.11208552
112	0xbdf595c5	-0.11991457
113	0x3dcd34c4	0.1001983
114	0x3dd11371	0.10208786
115	0x3dd389f5	0.103290476
116	0xbc2306ac	-0.009950321
117	0xbd5dc8f4	-0.054146722
118	0xbd347fcd	-0.044067193
119	0x3a6bca8a	0.0008994719
120	0x3d37aa58	0.044840187
121	0x3c887c91	0.01666096
122	0x3c35706c	0.011074167
123	0xbd3f21e1	-0.04666317
124	0xbde875ca	-0.113505915
125	0xbd87603b	-0.066101514
126	0xbc7409ea	-0.014894942
127	0x3c566d35	0.01308756
128	0xbc62c695	-0.013841291
129	0x3b5f2ba8	0.003405312
130	0x3c397fe9	0.011322
131	0xbd63ef92	-0.055648394
132	0x3dc5827e	0.0964403
133	0x3dd7d251	0.105381615
134	0xbda9fa11	-0.082996495
135	0xbda80a1a	-0.08205052
136	0xbdb22192	-0.08697809
137	0x3e042dbb	0.1290807
138	0x3c1207ff	0.008913039
139	0xbde87a41	-0.11351443
140	0xbc9ee947	-0.019398345
141	0x3da75853	0.081711434
142	0x3dfc05a7	0.123057656
143	0x3d594aa6	0.053049706
144	0xbc970afc	-0.018437855
145	0xbd72861a	-0.05920992
146	0xbaf0247c	-0.001832142
147	0x3a9d6f78	0.001201137
148	0xbcd807c5	-0.026370892
149	0x3d7d96ab	0.061911266
150	0x3d9a6595	0.075389065
151	0x3b781382	0.0037853424
152	0xbd9c9f09	-0.07647521
153	0x3db48214	0.08813873
154	0x3c9c8f98	0.01911144
155	0x3dd58c06	0.10427098
156	0x3dae0934	0.08497849
157	0x3debcf17	0.11514109
158	0x3d218671	0.039434854
159	0x3dcff9b9	0.10155053
160	0xbdaf5130	-0.08560407
161	0x3dc44f20	0.095854044
162	0xbcb0f136	-0.021599393
163	0xbdab57f3	-0.08366384
164	0xbc55af1b	-0.013042237
165	0xbc819fe0	-0.015823305
166	0x3d9cc0b9	0.076539464
167	0xbccf4ed7	-0.025306148
168	0xbc9b931c	-0.018991046
169	0x3da50446	0.08057456
170	0x3e0febee	0.14054844
171	0xbd914d6b	-0.070948444
172	0x3c9e3876	0.019314032
173	0x3a53cb35	0.00080792914
174	0x3d5f08e9	0.054451857
175	0xbdf62457	-0.1201865
176	0xbdc93f54	-0.09826532
177	0x3d9e4d4d	0.07729588
178	0xbd382c10	-0.044963896
179	0xbb47bf4c	-0.0030479012
180	0xbdb72b02	-0.0894375
181	0xbd582910	-0.052773535
182	0xbda1cd67	-0.079005055
183	0x3dc8b895	0.09800831
184	0x3dd2a23c	0.1028485
185	0xbcc73938	-0.024319276
186	0x3da741b4	0.08166829
187	0x3da12876	0.078690454
188	0x3bc60074	0.0060425345
189	0x3d4ac60a	0.04950527
190	0xbb6d539f	-0.0036213172
191	0x3d9170b5	0.07101575
192	0x3de959b4	0.11394063
193	0xbdd85a15	-0.10564057
194	0x3ddb63da	0.107124045
195	0x3d85d83e	0.065353855
196	0xbadcca53	-0.0016844965
197	0x3cfbb829	0.030727463
198	0xbd3426f8	-0.043982476
199	0x3c274342	0.010208907
200	0x3dd3a8de	0.10334943
201	0xbddad1b2	-0.106845275
202	0xbb4cb9eb	-0.0031238745
203	0xba99df77	-0.0011739571
204	0x3de53b43	0.11192944
205	0xbddbf57e	-0.10740183
206	0x3e02d7cf	0.12777637
207	0x3b3fef9f	0.0029287112
208	0x3dd15f1c	0.10223219
209	0xbda9d6c3	-0.08292916
210	0xbd52bce8	-0.051449686
211	0xbdd2a334	-0.10285035
212	0xbcd06336	-0.025437932
213	0x3d57350d	0.052540828
214	0xbd0c1bd5	-0.03420623
215	0xbd1f5865	-0.03890266
216	0xbd6760ef	-0.056488927
217	0xbcffb8d7	-0.031216068
218	0x3dca9551	0.09891761
219	0xbd1432d0	-0.03618127
220	0x3db30668	0.08741456
221	0xbdc24f48	-0.09487778
222	0x3d76f384	0.06029083
223	0xbd9ed467	-0.07755356
224	0xbd8325f4	-0.06403723
225	0xbd087c29	-0.033321533
226	0xbdcf2691	-0.10114778
227	0xbcaf00de	-0.021362718
228	0x3dc8c2d0	0.098027825
229	0x3d2d0cf0	0.042248666
230	0x3d5bc0d5	0.053650696
231	0xbe000487	-0.12501727
232	0x3da10076	0.07861416
233	0xbcebf97c	-0.028805487
234	0x3da3d141	0.079988964
235	0x3c8ad80c	0.016948722
236	0xbcfb6e8a	-0.030692358
237	0x3dd9acdc	0.106286734
238	0xbd88cd62	-0.06679799
239	0xbd8c947d	-0.068642594
240	0xbdf8d307	-0.12149625
241	0x3d574f7f	0.052566048
242	0x3d79d259	0.06099162
243	0x3d59b4ad	0.05315082
244	0xbd40efbd	-0.047103632
245	0x3cd36350	0.025804192
246	0x3ddf5932	0.109056845
247	0x3d4738f4	0.0486383
248	0x3d252434	0.04031773
249	0x3dc2aa2d	0.09505115
250	0x3d8607b8	0.06544441
251	0x3c8c3435	0.017114738
252	0x3c1739b2	0.009230064
253	0xbdf1af48	-0.1180101
254	0x3c2d181c	0.01056483
255	0xbc0b34e3	-0.008496496

hidden2_Y1.bias f4 [200]
0	0x3d5506cf	0.052008446
1	0x3d376cde	0.04478156
2	0x3c8692d5	0.016427437
3	0x3d1bb737	0.038016524
4	0xbcc2802e	-0.023742761
5	0xbd4f4d08	-0.050610572
6	0xbc3d0b14	-0.011538286
7	0xbd4675c8	-0.04845217
8	0xbd9295f4	-0.071575075
9	0xbccc805c	-0.02496355
10	0xb896c731	-7.18966e-05
11	0xbc1d4ff6	-0.009601584
12	0xbd81ead1	-0.06343616
13	0x3b135446	0.002248065
14	0xbd23f0a8	-0.04002443
15	0x3bc04bee	0.0058684265
16	0x3d898872	0.06715478
17	0xbd74daa8	-0.05977884
18	0x3cc39708	0.023875728
19	0x3d0afdc2	0.03393341
20	0xbd6849b2	-0.056710906
21	0xbd22d59a	-0.039754488
22	0xbd761e9a	-0.060087778
23	0x3d71b134	0.059006885
24	0x3cfe8400	0.031068802
25	0xbd6d3610	-0.057912886
26	0x3d31459e	0.043279283
27	0xbd15b355	-0.036547977
28	0xbd0870f2	-0.033310838
29	0x3d364d7f	0.0445075
30	0x3bff4a84	0.0077908654
31	0x3cedc34c	0.029023789
32	0xbd81b262	-0.06332852
33	0xbd22aecc	-0.03971748
34	0xbc741154	-0.0148967095
35	0xbd23170c	-0.0398169
36	0xbc2bcd3b	-0.0104859425
37	0xbd5d3c8c	-0.05401282
38	0xbad6697f	-0.0016358345
39	0xbd815ddc	-0.063167304
40	0xbbdeecee	-0.0068031466
41	0x3c48065b	0.0122085465
42	0x3d5241df	0.05133235
43	0x3ccd9d54	0.025099434
44	0xbd4bcd98	-0.049756616
45	0x3bf2b14f	0.0074063907
46	0x3cf87dcd	0.030333424
47	0xbc092239	-0.008369976
48	0xbca02348	-0.019548073
49	0x3ce7c4b4	0.028292038
50	0xbca448a5	-0.02005417
51	0xbc2a4e10	-0.010394588
52	0x3d362ecb	0.04447822
53	0x3d029c7a	0.03188751
54	0xbbad0016	-0.0052795513
55	0xbd0d55a8	-0.034505516
56	0x3c7e7c33	0.015532541
57	0xbc14486c	-0.00905047
58	0xbca60847	-0.020267619
59	0x3ca13536	0.019678693
60	0xbdb8b9b9	-0.09019799
61	0xbbdc1af7	-0.0067170816
62	0xbcfbb482	-0.030725721
63	0xbabd0c31	-0.0014423189
64	0xbd618a61	-0.05506361
65	0xbd8d64b0	-0.0690397
66	0xbd70f6da	-0.058829166
67	0x3cb3867f	0.021914719
68	0x3d095a77	0.03353354
69	0xbd3dbe3e	-0.046324007
70	0xbd0999dc	-0.033593997
71	0x3cf1f427	0.029535366
72	0x3d2711f7	0.040788617
73	0xbd47da3b	-0.048792105
74	0x3d07c261	0.03314436
75	0xbd82b88c	-0.06382856
76	0x3d8dd8ec	0.0692614
77	0xbd74bf6f	-0.059752878
78	0x3d0b6c71	0.034038965
79	0x3c68cbb3	0.014208722
80	0xbd0396de	-0.0321263
81	0x3cacfd07	0.021116747
82	0x3d04b9fb	0.032403927
83	0x3d15dd3f	0.03658795
84	0xbd4668db	-0.04843984
85	0xbca858fb	-0.020550242
86	0x3d56634e	0.052340798
87	0xbc9a6d8a	-0.01885106
88	0x3c9f27ce	0.01942816
89	0x3ca6efe5	0.020378063
90	0x3c89e619	0.016833352
91	0x3c8e8edc	0.017402105
92	0x3b7a72f5	0.0038215492
93	0xbc450d89	-0.012027153
94	0xbc6e9037	-0.014560751
95	0xbdaac261	-0.08337856
96	0x3ae0b795	0.0017144555
97	0xbd2aea4c	-0.04172735
98	0xbbcb8a33	-0.006211543
99	0xbaf56b2e	-0.0018723959
100	0x3d3bb50d	0.04582696
101	0x3d3d348a	0.046192683
102	0xbd386229	-0.045015488
103	0xbc7a1e5f	-0.01526603
104	0xbd182134	-0.03714104
105	0xbd82a708	-0.06379515
106	0x3d3fdd39	0.046841834
107	0xbd17a75e	-0.03702485
108	0xbd95ae01	-0.07308579
109	0x3d613512	0.054982252
110	0xbc0b9e8c	-0.008521687
111	0xbd84c8ae	-0.06483589
112	0x3d39cfd5	0.04536422
113	0x3d34130a	0.04396347
114	0x3d2240ec	0.039612696
115	0xbd40d3a8	-0.04707685
116	0xbb0210e2	-0.0019846489
117	0xbb82e0a8	-0.0039940663
118	0x3a35cbb9	0.0006934959
119	0x3d9074cc	0.07053527
120	0x3d43c35f	0.047793742
121	0xbd8755b5	-0.06608144
122	0x3cb708d3	0.022343075
123	0xbcaa0e64	-0.020758815
124	0xbd1d793c	-0.038445696
125	0xbd6aacf4	-0.057293847
126	0x3bb1c8f7	0.005425568
127	0xbcc56cc5	-0.024099717
128	0x3d97d54d	0.07413731
129	0x3d8b16eb	0.06791481
130	0xbd0afa01	-0.03392983
131	0xbd92a50d	-0.07160387
132	0x3d204453	0.03912766
133	0x3ca2c179	0.019867646
134	0x3d1de3d1	0.03854734
135	0x3c90c292	0.017670903
136	0x3d719458	0.058979362
137	0xbd372619	-0.044714067
138	0x3d03a4d5	0.032139618
139	0xbc279de8	-0.010230519
140	0x3d803d6a	0.06261714
141	0x3c80d1ed	0.0157251
142	0x3d912a87	0.070881896
143	0xbd11a7c1	-0.035560373
144	0xbd80b114	-0.06283775
145	0xbd2c6461	-0.042087916
146	0x3d9d6e67	0.07687073
147	0x3d2974ea	0.041371264
148	0x3ca7841a	0.020448733
149	0xbc64c937	-0.013963989
150	0x3d931c26	0.07183103
151	0x3bf08c58	0.007340949
152	0x3d04d535	0.032429893
153	0x3d8e343a	0.06943555
154	0xbd4b6da7	-0.04966512
155	0x3cac1518	0.021006152
156	0x3c66bdfc	0.014083382
157	0xbd7a00e6	-0.061036013
158	0x3d87ba1e	0.06627296
159	0x3cbf3bff	0.023344038
160	0x3d00a254	0.03140481
161	0x3d9655cf	0.073405854
162	0x3c061f8b	0.008186231
163	0x3d7d1cd6	0.06179508
164	0xbd9470f8	-0.072481096
165	0xbd9ef1e8	-0.07760984
166	0x3c99411c	0.018707804
167	0x3cae8d53	0.021307623
168	0xbceb0d27	-0.028692795
169	0x3d4c874a	0.04993371
170	0x3d146d66	0.036237143
171	0xbc43c309	-0.0119483555
172	0xbc8cc33c	-0.017182939
173	0x3a3accf2	0.0007125876
174	0xbc81f653	-0.015864527
175	0x3d589c22	0.052883275
176	0xbc3297c4	-0.010900442
177	0x3d8c7b12	0.06859411
178	0x3d6f7f23	0.058470856
179	0x3da659a9	0.0812257
180	0x3c699688	0.014257081
181	0xbd68d163	-0.05684031
182	0x3d2c1e9d	0.042021383
183	0x3d828fe0	0.06375098
184	0x3b1b151b	0.0023663703
185	0xbcbb971d	-0.022899205
186	0x3d0d5739	0.03450701
187	0x3ce2eddb	0.027701309
188	0xbca9b4ef	-0.020716159
189	0x3c96c0b9	0.018402444
190	0x3d375b04	0.044764534
191	0x3bfa5c39	0.0076403883
192	0xbca694ef	-0.020334689
193	0x3d9833f8	0.07431787
194	0x3bacbae3	0.005271302
195	0x3cde92d2	0.027169619
196	0xbd883bd6	-0.06652038
197	0x3d20d22d	0.03926294
198	0xbdaf5197	-0.08560484
199	0xbda1d015	-0.079010166
