Results/Models/SAE_stacked_cur_DCN_model_iter_id_0_epoch_400_lr_0.0001_mmd.pth (torch, 833462 bytes, 14 tensors)

shared1.weight f4 [200, 25]
0	0x3e093a68	0.13401186
1	0xbe227e5e	-0.15868518
2	0xbdf015b7	-0.11722892
3	0x3d59a8c1	0.053139452
4	0x3d807397	0.06272047
5	0x3b9cc9f1	0.0047848155
6	0xbdf86171	-0.121279605
7	0x3cf2837a	0.029603709
8	0x3c22582b	0.009908716
9	0x3d7ac739	0.06122515
10	0x3da0cd5d	0.0785167
11	0xbd948dfa	-0.072536424
12	0x3ccad843	0.024761325
13	0x3e2be2ac	0.16785687
14	0x3d5f735d	0.05455338
15	0xbd63cb36	-0.05561372
16	0x3d88ac17	0.066734485
17	0xbdbe058e	-0.09278403
18	0x3d81f59d	0.06345675
19	0x3d72ebb9	0.059306834
20	0x3d8fe011	0.07025159
21	0xbd86666e	-0.06562506
22	0x3d5e16a9	0.05422083
23	0x3ca10d9e	0.019659813
24	0x3ccc118d	0.024910713
25	0x3d0835a4	0.03325428
26	0x3d6cdb58	0.05782637
27	0xbe2daad8	-0.16959703
28	0xbe433d43	-0.19066338
29	0xbe0b9aaf	-0.13633226
30	0x3d3e2be1	0.046428565
31	0xbdeffe66	-0.117184445
32	0xbe05d22d	-0.13068457
33	0xbe050856	-0.12991461
34	0x3e0e7b60	0.13914251
35	0x3e38e703	0.18056874
36	0xbe0efb1c	-0.13962978
37	0xbe0b0eb4	-0.13579828
38	0xbd53e6e5	-0.05173387
39	0x3d744f8e	0.05964618
40	0x3da7590a	0.0817128
41	0x3e0a2617	0.13491093
42	0x3d048f33	0.032363128
43	0x3e2d47f7	0.16921984
44	0x3dfcdfb1	0.12347353
45	0xbdc9e4de	-0.09858106
46	0xbd98a0e7	-0.07452565
47	0xbde858fd	-0.11345098
48	0xbc5a0b62	-0.013308378
49	0x3e25ee0f	0.16204093
50	0x3e0fef25	0.1405607
51	0x3dfb0628	0.122570336
52	0x3e00261d	0.12514539
53	0xbd3013ad	-0.042987514
54	0x3de6e9ff	0.112751
55	0x3de74e5e	0.11294244
56	0xbe144569	-0.14479603
57	0x3ca640d9	0.020294594
58	0x3c959158	0.018257782
59	0xbc8cfbde	-0.017209943
60	0xbcaef5a1	-0.02135736
61	0xbd9054ae	-0.07047401
62	0x3de08275	0.10962383
63	0xbce8dfe6	-0.028427076
64	0x3d98d384	0.074622184
65	0xbdd08925	-0.10182408
66	0xbdc7d9c2	-0.09758331
67	0xbbd5c2f3	-0.006523484
68	0xbd20e483	-0.039280426
69	0xbddcece6	-0.10787372
70	0xbd916515	-0.07099358
71	0x3df0acb1	0.11751688
72	0x3db4facc	0.08836898
73	0x3dec3026	0.11532621
74	0x3cd3e3ac	0.025865398
75	0x3e1aa58d	0.15102215
76	0xbd858b5b	-0.065207206
77	0x3d9a624b	0.07538279
78	0xbc814768	-0.01578112
79	0xbcc9d475	-0.02463744
80	0x3d8cd67c	0.06876847
81	0x3dc6e368	0.09711343
82	0x3db683a7	0.089118294
83	0xbd965246	-0.07339911
84	0x3d6fd725	0.058554787
85	0x3d33fa26	0.043939732
86	0x3dc780fd	0.097413994
87	0x3de2d991	0.11076654
88	0xbc2d4801	-0.010576249
89	0x3b90d371	0.004419737
90	0x3d547d2c	0.051877186
91	0xbbb250e4	-0.005441772
92	0x3dbf638a	0.093451574
93	0x3d7bdf5e	0.061492316
94	0xbd988d36	-0.07448809
95	0x3a88dbc5	0.0010441473
96	0xbd7ecc6a	-0.062206663
97	0xbd1e2fdc	-0.03861986
98	0xbd86a4e8	-0.06574422
99	0x3d820b01	0.06349755
100	0x3c5b01da	0.013367141
101	0xbd3eb32a	-0.046557583
102	0x3dfd0858	0.12355107
103	0x3ddf5b66	0.10906105
104	0x3c43f728	0.011960782
105	0x3da785c3	0.0817981
106	0xbe055603	-0.13021092
107	0x3c925b4a	0.017865796
108	0xbc875f62	-0.016524974
109	0xbd54be5e	-0.05193936
110	0xbcfcf020	-0.03087622
111	0x3dfefc0c	0.12450418
112	0xbdcfdd72	-0.10149659
113	0xbc7d72e1	-0.015469284
114	0xbd254dc7	-0.040357377
115	0xbe189ee5	-0.14904363
116	0x3dfd313c	0.12362906
117	0xbd95461d	-0.07288764
118	0x3dbfbdf6	0.09362404
119	0x3e14f2eb	0.14545791
120	0xbe130388	-0.14356816
121	0x3d18b50a	0.037282027
122	0xbd43b9c0	-0.047784567
123	0xbdb7acd2	-0.0896851
124	0xbdd3ca51	-0.10341323
125	0x3de6c32f	0.11267697
126	0xbe16a72d	-0.1471221
127	0xbd763599	-0.06010971
128	0x3d5fc7b2	0.054633804
129	0x3d753689	0.059866462
130	0xbcee7990	-0.0291107
131	0xbe20be55	-0.15697606
132	0x3df17462	0.117897764
133	0xbd5c8f37	-0.053847518
134	0x3c42c317	0.011887333
135	0xbc44a6c2	-0.012002649
136	0xbe07274a	-0.13198581
137	0xbd991400	-0.07474518
138	0xbe1d3baa	-0.15354791
139	0x3d547222	0.051866658
140	0xbbdcca97	-0.006738018
141	0xbd81be78	-0.06335157
142	0xbdcdd952	-0.10051216
143	0x3d150825	0.03638472
144	0xbdcd235c	-0.1001651
145	0x3cfdef66	0.030997943
146	0xbdc17c30	-0.09447515
147	0xbe18c2c3	-0.14918046
148	0xbd4cf977	-0.050042596
149	0xbb2d9bdf	-0.0026490611
150	0xbdc78055	-0.09741274
151	0x3d850f54	0.06497064
152	0x3d77c7ea	0.060493387
153	0x3b20d02f	0.002453815
154	0xbd9be400	-0.07611847
155	0xbdcc5f98	-0.099791706
156	0xbdf90480	-0.121590614
157	0x3b9a36b4	0.004706228
158	0xbd93a3f9	-0.0720901
159	0x3d3fd423	0.04683317
160	0x3c458db1	0.012057708
161	0xbe1db9df	-0.15402935
162	0xbd9c548f	-0.07633316
163	0xbd034228	-0.032045513
164	0xbdcf7123	-0.10129001
165	0x3d34cbc0	0.044139624
166	0x3daf26cb	0.08552321
167	0xbe0e47e2	-0.13894609
168	0xbda2b522	-0.079447046
169	0x3ddf80ad	0.10913215
170	0x3d8cbb7f	0.068716995
171	0xbd3b7d44	-0.04577376
172	0xbcf1172f	-0.02943
173	0x3ca75f52	0.020431194
174	0x3e2aff78	0.16699016
175	0xbdfab065	-0.12240676
176	0x3dd87bd7	0.105704956
177	0xbd1b1641	-0.03786302
178	0x3d9dd755	0.07707087
179	0x3b1df503	0.0024102337
180	0x3cab17d4	0.020885386
181	0x3d96b5b3	0.07358875
182	0xbe1edc64	-0.1551376
183	0xbe076687	-0.13222705
184	0xbd63d013	-0.055618357
185	0xbd99e85b	-0.075150214
186	0xbd5979a3	-0.053094517
187	0xbd0c066e	-0.03418582
188	0x3df4f2ec	0.11960396
189	0x3ce9f59d	0.0285595
190	0x3d85ea0f	0.06538784
191	0x3dc4984c	0.09599361
192	0x3d3122b5	0.04324599
193	0x3ccd3104	0.025047787
194	0xbd262dbc	-0.04057096
195	0x3dc45212	0.09585966
196	0x3d3a9b26	0.045558117
197	0xbda75467	-0.08170395
198	0xbd8b4ff9	-0.06802363
199	0x3dcbecc8	0.09957272
200	0x3d996b6c	0.07491192
201	0xbe03ea0b	-0.12882249
202	0xbd766651	-0.06015617
203	0xbd10773b	-0.035269957
204	0xbd657a75	-0.056024987
205	0x3dfeb9bf	0.12437772
206	0xbdb56ec4	-0.088590175
207	0xbe17e40c	-0.14833087
208	0xbd3438c0	-0.043999434
209	0xbb54af14	-0.0032452988
210	0xbd4156e8	-0.04720202
211	0xbc1fded7	-0.009757719
212	0x3b35852c	0.0027697785
213	0x3d582f0e	0.05277925
214	0xbe0f5c08	-0.13999951
215	0x3d4faa05	0.050699253
216	0xbd90487c	-0.07045075
217	0x3be2b175	0.006918127
218	0xbdafd2d6	-0.08585136
219	0xbdb177fb	-0.086654626
220	0xbcf598e8	-0.029980138
221	0xbdc36c73	-0.095421694
222	0xbdb6a79a	-0.08918686
223	0x3e05e192	0.1307433
224	0x3dc29869	0.09501726
225	0x3e1a762e	0.15084144
226	0xbd83c9b1	-0.06434954
227	0x3daa3c4a	0.083122805
228	0xbe036116	-0.12830004
229	0x3d960bea	0.07326491
230	0x3d03acce	0.03214722
231	0x3df225eb	0.118236385
232	0xbdb3eed2	-0.08785786
233	0xbe3d2ee1	-0.18474914
234	0xbe1ffd2f	-0.15623926
235	0x3df22015	0.118225254
236	0x3cc8ed6f	0.02452728
237	0x3de857c2	0.113448635
238	0xbdb38465	-0.08765487
239	0x3e1dbfd3	0.15405206
240	0x3c933b29	0.017972546
241	0xbc70cfae	-0.014697952
242	0x3ca5ddb4	0.020247318
243	0x3dc75f99	0.09735031
244	0x3da433eb	0.08017715
245	0x3d90187c	0.0703592
246	0x3d046a4e	0.032327943
247	0x3e150698	0.14553297
248	0x3dfce886	0.12349038
249	0x3d894d9f	0.06704258
250	0x3d44b220	0.048021436
251	0x3e100bb7	0.14066969
252	0xbb802e40	-0.0039117634
253	0xbd6ecb7c	-0.058299527
254	0xbd61cbaa	-0.05512587
255	0xbdc29a4a	-0.095020846

shared1.bias f4 [200]
0	0x3e26f90c	0.16305941
1	0xbdeb83c1	-0.114997394
2	0xbd7028f9	-0.058632825
3	0x3dd8984c	0.10575923
4	0x3daf0cca	0.08547361
5	0x3d5b5d15	0.053555567
6	0x3c75822f	0.0149846515
7	0x3d66815f	0.05627572
8	0xbe2416a4	-0.16024262
9	0xbddc077d	-0.10743616
10	0xbdd306dd	-0.103040434
11	0xbe227d7b	-0.1586818
12	0xbc051f9f	-0.008125215
13	0xbe1f22a0	-0.15540552
14	0xbe150523	-0.14552741
15	0xbb9fea23	-0.004880206
16	0xbe3958ba	-0.18100253
17	0x3d2f5879	0.042808983
18	0xbe79a2a8	-0.24378455
19	0xbe1e9d86	-0.15489778
20	0xbcd2ca99	-0.025731372
21	0x3d8ce121	0.068788774
22	0x3e141d1e	0.14464232
23	0x3e4034f8	0.18770206
24	0x3e06ef1c	0.1317715
25	0x3e3137f2	0.17306498
26	0x3e30ae8d	0.17254086
27	0x3dac313f	0.084078304
28	0xbe599ec5	-0.21251972
29	0xbe47ea65	-0.19523008
30	0xbe23aef1	-0.15984704
31	0xbd70f529	-0.058827553
32	0xbe27f25a	-0.16401044
33	0x3bcf3851	0.006323852
34	0x3d808460	0.062752485
35	0x3b389d5a	0.002816996
36	0x3d9abba7	0.07555323
37	0xbdd0f752	-0.102034226
38	0x3e316367	0.17323075
39	0xbd0319b5	-0.032006938
40	0xbdd6f9b5	-0.104968466
41	0xbe22d3b3	-0.1590107
42	0xbe1e7d53	-0.15477495
43	0xbe1d5a82	-0.15366557
44	0xbe31ca3d	-0.17362304
45	0x3d9ae845	0.07563833
46	0x3cf21609	0.029551523
47	0x3d3e7d62	0.046506293
48	0x3d329875	0.043602426
49	0xbdf1cab8	-0.11806244
50	0xbe07cae8	-0.13260996
51	0x3e10d858	0.14145029
52	0xbda0ca8f	-0.07851135
53	0x3d832389	0.06403262
54	0x3e7feaf1	0.24991967
55	0xbd4ffd4a	-0.050778665
56	0x3e06c30e	0.13160345
57	0x3e20c3be	0.1569967
58	0xbd702f5b	-0.05863891
59	0x3d37d72b	0.044882935
60	0x3d682ec0	0.05668521
61	0xbd82eb2a	-0.0639251
62	0xbd7d3aeb	-0.061823767
63	0xbe304e9a	-0.17217484
64	0xbd9e2796	-0.07722394
65	0x3e4afcf7	0.19823061
66	0xbbd62d86	-0.0065361885
67	0x3c810cd0	0.01575318
68	0x3e18a226	0.14905605
69	0xbe490da1	-0.19634105
70	0x3dc53c16	0.09630601
71	0x3d05ed02	0.03269673
72	0x3c6b8c17	0.014376662
73	0xbd522718	-0.051306814
74	0xbe4903d1	-0.19630362
75	0xbe29b780	-0.16573906
76	0xbe145d37	-0.14488684
77	0xbe038940	-0.12845325
78	0x3db1cbc9	0.08681447
79	0xbcccc404	-0.024995811
80	0xbdb966b9	-0.09052796
81	0x3dc68e53	0.09695115
82	0x3ca908a8	0.02063401
83	0xbdc5052a	-0.096201256
84	0x3cfd2d70	0.030905455
85	0x3c6d1da3	0.014472398
86	0xbdf9017b	-0.121584855
87	0xbe582e7e	-0.21111485
88	0x3dfe4739	0.124159284
89	0x3e0b143d	0.13581939
90	0x3d0ec14e	0.03485232
91	0xbd5b5a77	-0.05355307
92	0xbe1804a0	-0.14845514
93	0x3daacc8d	0.08339796
94	0xbe4b29e4	-0.19840199
95	0xbe6713b0	-0.22566104
96	0xbe0cd777	-0.13754068
97	0xbca18252	-0.019715462
98	0x3de5f61f	0.112285845
99	0x3dd9723a	0.1061749
100	0x3e00ec8b	0.12590234
101	0xbe29a9a4	-0.16568619
102	0x3e3e3d02	0.1857796
103	0xbc95354f	-0.018213896
104	0xbe1cb020	-0.15301561
105	0x3e20bcfb	0.1569709
106	0x3dac1638	0.084026754
107	0x3e4c86de	0.19973323
108	0x3dcb9ba2	0.09941794
109	0xbcb192e3	-0.021676486
110	0x3d4d4c7f	0.05012178
111	0x3b8c0130	0.0042726025
112	0xbe23b278	-0.15986049
113	0xbdc01070	-0.09378135
114	0xbd96c1a2	-0.07361151
115	0xbd24fcaf	-0.04028004
116	0x3e44c4a9	0.19215645
117	0x3d2af6a0	0.041739106
118	0xbde5623a	-0.11200376
119	0x3e1746dc	0.14773124
120	0xbe176c96	-0.14787516
121	0x3d79ac5f	0.0609554
122	0x3df01ce7	0.11724263
123	0xbd6aa0ed	-0.057282377
124	0xbe3ffa51	-0.18747832
125	0x3e01ae88	0.12664235
126	0xbbb546bb	-0.0055321134
127	0xbe2afb4c	-0.16697425
128	0xbbfa580d	-0.007639891
129	0x3de804a8	0.11329013
130	0xbe2cf3e2	-0.16889909
131	0x3e1e8f13	0.15484266
132	0xbd62fe98	-0.05541858
133	0x3e019e41	0.12658025
134	0x3d85baa7	0.06529742
135	0xbe5199c6	-0.20468816
136	0x3dbba560	0.09162402
137	0x3c290c73	0.0103179095
138	0xbe1e0c58	-0.15434396
139	0x3d510491	0.051029745
140	0xbbc6ea0f	-0.0060703824
141	0x3c817595	0.015803138
142	0xbe37e483	-0.17958264
143	0x3e35c447	0.17750655
144	0xbe65aa0d	-0.2242815
145	0xbdc62adf	-0.09676146
146	0xbd076383	-0.033053886
147	0xbe1ccb82	-0.15312007
148	0xbdb95664	-0.09049681
149	0xbcf57514	-0.029963054
150	0x3cb3d11d	0.021950299
151	0xbe06cc10	-0.13163781
152	0xbdb350f1	-0.08755673
153	0xbc92bd15	-0.017912427
154	0x3df63d74	0.1202344
155	0xbd3e471f	-0.046454545
156	0xbdac9429	-0.08426697
157	0xbd8b6f8b	-0.068083845
158	0xbe0a7b1e	-0.13523528
159	0xbd14cfa0	-0.03633082
160	0xbcd506a8	-0.02600415
161	0x3e24f11d	0.16107602
162	0x3e35ff31	0.17773129
163	0xbdbf73c5	-0.09348253
164	0xbbea3f91	-0.007148691
165	0xbca73649	-0.020411627
166	0x3e21b776	0.15792641
167	0xbe0fbcd9	-0.14036883
168	0x3d9203d4	0.071296364
169	0x3e3aea72	0.18253496
170	0xbd27cf9f	-0.040969487
171	0x3dac85c3	0.084239505
172	0x3e435b46	0.19077787
173	0x3e582ab3	0.21110038
174	0xbda56865	-0.08076552
175	0xbdc6e91c	-0.09712431
176	0xbd7cb8d5	-0.061699707
177	0xbe473690	-0.19454408
178	0xbddbd430	-0.10733831
179	0x3d455aa8	0.04818216
180	0xbda1b184	-0.078951865
181	0xbccc8be6	-0.024969053
182	0xbe248f17	-0.1607021
183	0x3bc68676	0.0060585095
184	0x3d919279	0.071080156
185	0x3e2b2adf	0.16715573
186	0xbe3e7f8f	-0.18603347
187	0x3d640e0a	0.05567745
188	0x3df7259f	0.120677225
189	0x3d70a801	0.05875397
190	0xbc57a221	-0.013161213
191	0xbdf9e669	-0.122021504
192	0xbe44b63a	-0.19210139
193	0x3d0acb1b	0.033885103
194	0x3e149890	0.14511323
195	0x3c8ff9cd	0.017575169
196	0x3e2c9354	0.16853076
197	0xbe14c571	-0.14528443
198	0xbdfdc23e	-0.123905644
199	0xbe7006e8	-0.23440135

shared2.weight f4 [200, 200]
0	0xbe01e20f	-0.12683891
1	0x3dcc8e96	0.099881336
2	0xbd11f68e	-0.035635523
3	0x3d1e7616	0.038686834
4	0x3d573684	0.052542225
5	0x3d34b8ee	0.044121675
6	0xbe0c5f5b	-0.1370825
7	0xbd9b1993	-0.07573237
8	0x3d58d073	0.052933168
9	0xbd4e2410	-0.05032736
10	0xbd85a700	-0.06525993
11	0x3ca62c66	0.020284843
12	0xbbcbd0b1	-0.0062199463
13	0xbc869cae	-0.016432133
14	0xbdef12ec	-0.11673531
15	0x3cbfd835	0.023418525
16	0x3ae820f3	0.0017710015
17	0x3dc64a87	0.09682184
18	0x3c4fb094	0.012676377
19	0xbd6cc22a	-0.057802357
20	0xbd0ecb46	-0.034861825
21	0x3d223d50	0.039609253
22	0xbe08a3ac	-0.13343686
23	0xbe0cc877	-0.13748346
24	0x3ca656f4	0.020305134
25	0x3cc46c23	0.023977345
26	0xbd8716c0	-0.06596136
27	0xbcdcd87c	-0.026958697
28	0x3dbee369	0.09320719
29	0xbc2123a3	-0.009835157
30	0xbd10e78b	-0.035377067
31	0xbdaa37ae	-0.08311401
32	0x3cd5ab8f	0.026082782
33	0xbdfc9d27	-0.12334662
34	0x3d6ee39a	0.058322527
35	0x3d8a49c8	0.06752354
36	0xbd24cde7	-0.040235426
37	0xbc658501	-0.014008761
38	0xbd238bcb	-0.03992824
39	0xbe07339a	-0.13203278
40	0xbd5f0190	-0.05444485
41	0xbd7334c3	-0.05937649
42	0x3d2c9287	0.042131927
43	0xbdc96a9e	-0.09834789
44	0xbe01d327	-0.12678204
45	0xbcace228	-0.021103933
46	0x3d547c00	0.051876068
47	0x3afcb138	0.001927889
48	0xbd8ff05f	-0.07028269
49	0x3d30f405	0.043201465
50	0xbdd67cf6	-0.10473053
51	0xbd2f1b0a	-0.042750396
52	0xb9a6d7ea	-0.00031822856
53	0x3df173fd	0.11789701
54	0xbd9e1fa8	-0.07720882
55	0xbda956ea	-0.08268531
56	0x3d1164d2	0.03549654
57	0x3d448c34	0.04798527
58	0xbcb49a6b	-0.022046288
59	0x3d408252	0.046999283
60	0x3db85209	0.09000022
61	0xbdf51d7f	-0.119685166
62	0x3d382761	0.04495943
63	0x3d2415f7	0.04006001
64	0xbd0d1555	-0.034444172
65	0xbdb8a880	-0.09016514
66	0xbc7fd97d	-0.015615818
67	0x3c7cb988	0.0154250935
68	0xbca504d8	-0.020143911
69	0x3d7f5aa7	0.062342312
70	0xbddf7325	-0.10910634
71	0x3da7087a	0.08155914
72	0xbd7462b5	-0.059664447
73	0x3db4acad	0.08821998
74	0xbc1b2a98	-0.009470604
75	0xbdfb6135	-0.122744
76	0xbd72a535	-0.059239585
77	0x3d55baf9	0.052180264
78	0x3bf8de84	0.0075948853
79	0xbd247dfe	-0.040159218
80	0xbd3fc578	-0.04681918
81	0x3d38a9bd	0.04508375
82	0xbd95ad90	-0.07308495
83	0x3d02ed19	0.031964395
84	0xba94d7a8	-0.0011355774
85	0xbd39b4ff	-0.045338627
86	0x3d312d5f	0.04325616
87	0xbdffc415	-0.124885716
88	0x3c412b7f	0.011790155
89	0x3db216f4	0.08695784
90	0x3d7c807f	0.06164598
91	0xbe0b9147	-0.13629638
92	0xbcf19904	-0.029491909
93	0x3dbaf184	0.09128097
94	0xbced54bc	-0.028971069
95	0xbd96c689	-0.07362086
96	0x3daf852c	0.085703224
97	0xbdf8cb39	-0.12148137
98	0xbd9044b8	-0.07044357
99	0x3d949c23	0.07256343
100	0x3bbbc127	0.0057298127
101	0x3dd0169b	0.10160562
102	0x3d1a9ce3	0.037747275
103	0x3d98857f	0.07447337
104	0xbd8907b5	-0.06690923
105	0x3dbec80c	0.093155
106	0x3dd96e5b	0.10616752
107	0x3d194fb1	0.037429515
108	0x3d1ce481	0.038303856
109	0xbded7f39	-0.115965314
110	0x3d60a0e8	0.054840952
111	0xbdfe2432	-0.124092475
112	0x3dd5fb61	0.10448337
113	0xbdbee969	-0.09321863
114	0xbcdbb3e7	-0.026819183
115	0xbc9c23e5	-0.019060085
116	0xbdbb3f0c	-0.091428846
117	0x3d28d881	0.0412221
118	0x3d3873f0	0.04503244
119	0xbdd7c1b5	-0.105349936
120	0xbda1fbd8	-0.079093635
121	0xbdf83249	-0.12118966
122	0x3d82e523	0.063913606
123	0x3d1f0c0e	0.038829856
124	0xbdb04230	-0.08606374
125	0xbdbe5869	-0.09294207
126	0xbc9f335b	-0.019433668
127	0xbba5e6f9	-0.0050629345
128	0xbdb6d474	-0.08927241
129	0xbd8ff988	-0.07030016
130	0x3c414511	0.011796252
131	0x3d9d2e5b	0.07674857
132	0x3d27e4c6	0.04098966
133	0xbbccc239	-0.006248739
134	0xbdeca9aa	-0.11555798
135	0x3d6b0f8e	0.05738788
136	0xbcb85e24	-0.022505827
137	0xbdcb79ce	-0.09935342
138	0x3dc93808	0.0982514
139	0xbc9fc4a8	-0.019502953
140	0x3d05aebb	0.03263734
141	0xbd7025cf	-0.058629807
142	0xbd0e3711	-0.034720484
143	0xbdb723eb	-0.08942398
144	0x3bc4323e	0.0059874346
145	0xbdbf6107	-0.09344678
146	0x3d3c80c0	0.046021223
147	0xbdd9611a	-0.10614224
148	0x3d87b3c7	0.06626087
149	0xbbd5127f	-0.006502449
150	0x3cfdf663	0.031001275
151	0xbdcd7073	-0.100312136
152	0x3d6a6a53	0.057230305
153	0x3da1cd4e	0.07900487
154	0xbdc4bd86	-0.09606461
155	0xbd68c1a3	-0.05682529
156	0xbc4dc399	-0.012558841
157	0x3dce662b	0.10078081
158	0xbd20fff2	-0.03930659
159	0xbd8fe4f2	-0.0702609
160	0xbbcfea6c	-0.006345084
161	0xbba5a73c	-0.0050553363
162	0xbd94a18f	-0.07257377
163	0x3d1d134c	0.03834848
164	0x3daa47f7	0.083145075
165	0xbce0f7d5	-0.027461926
166	0xbd87be50	-0.06628096
167	0x3db271a7	0.08713084
168	0x3d07d0b3	0.033158015
169	0x3b6dbe4e	0.003627676
170	0xbd00f26a	-0.031481184
171	0xbd996e2a	-0.07491715
172	0xbda39fda	-0.07989474
173	0xbdb8eb79	-0.09029288
174	0x3c799533	0.015233326
175	0xbde03bb1	-0.10948885
176	0xbcc5f939	-0.02416669
177	0xbcc2a768	-0.023761466
178	0x3d8542e4	0.06506899
179	0xbdc64f94	-0.09683147
180	0xbe098e90	-0.1343329
181	0xbd893e28	-0.067013085
182	0xbddd408e	-0.108033285
183	0xbd549c45	-0.051906843
184	0xbd6dae7e	-0.058027737
185	0xbdea5241	-0.1144147
186	0xbd0c51a4	-0.034257546
187	0x3cc51da0	0.024061978
188	0xbd0e43f6	-0.03473278
189	0x3ce06817	0.027393384
190	0xbccca55e	-0.024981197
191	0xbe0a7faf	-0.1352527
192	0x3d9e8163	0.07739522
193	0xbd6bf574	-0.05760713
194	0xbdb40c2f	-0.08791386
195	0x3c3a7dc9	0.011382529
196	0x38fb7c0c	0.00011991718
197	0x3d096055	0.033539135
198	0xbd895f50	-0.067076325
199	0x3d384964	0.044991866
200	0xbdcdd004	-0.100494415
201	0xbdd65666	-0.10465698
202	0x3da9caf3	0.082906626
203	0x3daab6be	0.083356366
204	0xbde27823	-0.110580705
205	0x3d0ded65	0.034650225
206	0x3cd3e9cf	0.025868325
207	0x3d6a4db1	0.057203
208	0x3d62006c	0.055176184
209	0xbd9b0d7f	-0.075709336
210	0x3d0cf814	0.034416273
211	0xbdbbaabb	-0.09163424
212	0x3d57e1c8	0.052705556
213	0xbca2da84	-0.019879587
214	0xbda8eec4	-0.08248666
215	0xbddae131	-0.10687483
216	0x3d5d55b8	0.054036826
217	0x3ca7ca6c	0.020482264
218	0x3da868a4	0.082230836
219	0x3d9c42ac	0.07629904
220	0x3d910b23	0.07082202
221	0xbd3cd151	-0.046098057
222	0x3c83a8c0	0.016071677
223	0xbd96e087	-0.07367044
224	0x3dad54a6	0.08463411
225	0xbddf5682	-0.10905172
226	0xbd76d30b	-0.06025986
227	0x3da137f1	0.07871998
228	0x3d62c7a1	0.055366162
229	0xbd48347d	-0.04887818
230	0x3c8dc46b	0.017305573
231	0x3dafcb30	0.08583677
232	0x3ddf007f	0.108887665
233	0xbcf06bce	-0.02934828
234	0x3cb61d86	0.022230875
235	0x3c147265	0.009060477
236	0x3d5c1aa0	0.05373633
237	0xbdd3d7fe	-0.103439316
238	0xbe093ab6	-0.13401303
239	0xbdffc443	-0.12488606
240	0xbdc1b567	-0.09458428
241	0x3d772641	0.060339216
242	0xbbca3770	-0.0061711594
243	0x3d1005ec	0.035161898
244	0x3c419b03	0.011816743
245	0xbd0e3488	-0.034718066
246	0x3dbb73aa	0.091529205
247	0x3da4f37e	0.08054255
248	0xbcf4ad97	-0.02986793
249	0xbdc7b296	-0.097508594
250	0xbdddbb7c	-0.108267754
251	0x3bcb4f0b	0.006204491
252	0xbdf9701b	-0.121795855
253	0x3d8bcf6c	0.06826672
254	0xbcf4f7f4	-0.02990339
255	0xbcb0c3cb	-0.021577736

shared2.bias f4 [200]
0	0xbd8d948d	-0.069130994
1	0xbddd30d5	-0.108003296
2	0xbce34919	-0.027744817
3	0xbdcacd2a	-0.09902413
4	0xbda81e57	-0.08208912
5	0xbd470d30	-0.04859656
6	0xbdb1a755	-0.08674494
7	0xbde121d6	-0.10992782
8	0xbd667bcd	-0.05627041
9	0xbc426e44	-0.01186711
10	0xbde870a7	-0.11349612
11	0xbd9a6db1	-0.07540453
12	0xbd682718	-0.056677908
13	0xbd68705e	-0.056747787
14	0xbc4957f2	-0.012289034
15	0xbd87e6bd	-0.06635807
16	0xbdf61eec	-0.12017617
17	0xbc51d7ba	-0.012807781
18	0xbb04caf0	-0.0020262562
19	0xbd85f1af	-0.06540238
20	0xbe0448e8	-0.12918437
21	0xbacdcbaf	-0.0015700961
22	0xbd1ff676	-0.039053403
23	0xbd836137	-0.06415027
24	0xbdf38f09	-0.11892516
25	0xbdedc372	-0.11609544
26	0xbd72d139	-0.05928156
27	0xbddb2d02	-0.10701944
28	0xbe053233	-0.1300743
29	0xbd1a48b5	-0.037666995
30	0xbddcf528	-0.10788947
31	0xbd5e8f04	-0.05433561
32	0xbcd569b2	-0.026051376
33	0xbd965220	-0.07339883
34	0xbd112bb8	-0.035442084
35	0xbdbd1da5	-0.0923417
36	0x3b4806ae	0.003052156
37	0xbd184de1	-0.037183646
38	0xbc3a273e	-0.011361895
39	0xbde365ac	-0.11103377
40	0xbca336f5	-0.019923666
41	0xbde92a1f	-0.11384987
42	0xbcf0b24f	-0.0293819
43	0xbe0e6da1	-0.13909008
44	0xbdfd4bc8	-0.1236797
45	0xbdbb5bb2	-0.09148349
46	0xbd8448ab	-0.06459173
47	0xbd064fa4	-0.032790795
48	0xbd956236	-0.07294123
49	0xbd52bb8c	-0.05144839
50	0xbcd509bf	-0.026005624
51	0xbd9e882e	-0.07740818
52	0xbdab5e15	-0.08367554
53	0xbcc5ff48	-0.02416958
54	0xbcf085f9	-0.029360758
55	0xbd862815	-0.06550614
56	0xbe008ec7	-0.12554465
57	0xbd0578e6	-0.032586
58	0xbc17baec	-0.009260874
59	0xbd130204	-0.035890594
60	0xbd61ab6f	-0.055095132
61	0xbb615038	-0.003438009
62	0xbc916924	-0.01775033
63	0xbd2bae8d	-0.04191451
64	0xbdb439b8	-0.088000715
65	0xbdebf7ba	-0.115218595
66	0xbca5d63e	-0.02024376
67	0xbdaab383	-0.083350204
68	0xbd3e8b32	-0.046519466
69	0x3c45a5d0	0.012063459
70	0xbc98a2c4	-0.0186323
71	0xbd088693	-0.033331465
72	0xbc9a563e	-0.018839952
73	0xbda51431	-0.08060492
74	0xbd808dd8	-0.062770545
75	0xbdce24ac	-0.10065588
76	0xbddc1695	-0.10746495
77	0xbd8c03ca	-0.0683666
78	0xbdefecd6	-0.11715095
79	0xbce23903	-0.027615076
80	0xbd398240	-0.04529023
81	0xbdbe7cd4	-0.09301153
82	0xbde80f4f	-0.11331045
83	0xbd801e43	-0.06255772
84	0xbd57202b	-0.052520912
85	0xbda0f206	-0.07858662
86	0xbcd21aa6	-0.025647473
87	0xbda70908	-0.081560194
88	0xbd60d672	-0.05489201
89	0xbc07d0b6	-0.008289507
90	0xbda21b2b	-0.07915338
91	0xbdb56bad	-0.08858428
92	0xbdd04595	-0.10169522
93	0xbd361d22	-0.044461377
94	0xbd13b6df	-0.03606307
95	0xbc2c9377	-0.010533205
96	0xbddf5fab	-0.10906919
97	0xbe05a23c	-0.13050169
98	0xbd293581	-0.04131079
99	0xbdc4f0da	-0.09616251
100	0xbc888709	-0.016665952
101	0xbe02a78f	-0.12759231
102	0xbdc269b8	-0.094928205
103	0xbe042816	-0.12905917
104	0xbd9cfd06	-0.07665448
105	0xbdc1efa5	-0.09469537
106	0xbc883262	-0.016625587
107	0xbc1df065	-0.009639834
108	0xbdde7008	-0.10861212
109	0xbd8ab364	-0.06772497
110	0xbd98749a	-0.07444115
111	0xbc9b5545	-0.018961558
112	0xbd852588	-0.06501299
113	0xbdb39051	-0.087677605
114	0xbd190525	-0.03735842
115	0xbde0eb19	-0.10982341
116	0xbd454dfc	-0.048170075
117	0xbd355d55	-0.04427846
118	0x3a6e6871	0.00090945425
119	0xbdd42173	-0.103579424
120	0xbccb5fae	-0.024825897
121	0xbd60ddd6	-0.05489906
122	0xbd81f46f	-0.0634545
123	0xbca39c22	-0.01997191
124	0xbc823762	-0.01589555
125	0xbde4ba85	-0.11168388
126	0xbc9e8154	-0.019348778
127	0xbd27ab8a	-0.040935077
128	0xbcfd5e21	-0.030928673
129	0xbdd0d7bd	-0.10197399
130	0xbd9a74ff	-0.075418465
131	0xbdabec41	-0.08394671
132	0xbd95d05d	-0.07315133
133	0xbcac6d49	-0.021048205
134	0xbdc3d1c3	-0.09561493
135	0xbd258268	-0.04040757
136	0xbd6e49dd	-0.05817591
137	0xbbdf6249	-0.0068171364
138	0xbddf3ccd	-0.10900269
139	0xbd65c129	-0.056092415
140	0xbd8eb25e	-0.069676146
141	0xbdbd8b37	-0.09255069
142	0xbd95f7ac	-0.0732263
143	0xbdaaa343	-0.08331921
144	0xbd88285c	-0.06648323
145	0xbdd4d7c5	-0.10392717
146	0xbd067750	-0.03282863
147	0xbd8785be	-0.06617306
148	0xbccc2263	-0.02491874
149	0xbe0247d6	-0.12722716
150	0xbde766b0	-0.11298883
151	0xbc947f57	-0.018127127
152	0x3d00c6a3	0.031439435
153	0x3b34d632	0.002759349
154	0xbc877d7e	-0.016539332
155	0xbd936017	-0.07196062
156	0xbdf9ba58	-0.121937454
157	0xbdd0f615	-0.102031864
158	0xbdfbcc4c	-0.12294826
159	0xbddf6758	-0.10908383
160	0xbe0d83ad	-0.13819762
161	0xbd80a143	-0.06280758
162	0xbd864c32	-0.06557502
163	0xbd17dc86	-0.037075542
164	0xbdc61946	-0.09672789
165	0xbd89d055	-0.06729189
166	0x3c15439a	0.009110356
167	0xbd7176bd	-0.05895113
168	0xbd719608	-0.05898097
169	0xbdf629ba	-0.120196775
170	0xbdd95861	-0.1061256
171	0xbdd71623	-0.10502269
172	0xbd239f12	-0.039946623
173	0xbdaebe49	-0.08532388
174	0xbe1886e1	-0.14895202
175	0xbd89209b	-0.06695672
176	0x3ba99cc7	0.00517616
177	0x3a1d65f4	0.0006004267
178	0xbcae2ed3	-0.021262562
179	0xbd5b635a	-0.053561546
180	0xbce0be5b	-0.027434519
181	0xbdb74775	-0.08949176
182	0xbcc89729	-0.024486141
183	0xbceefc47	-0.02917303
184	0xbcd24828	-0.025669172
185	0xbda78185	-0.08179001
186	0xbcbf2c84	-0.023336656
187	0xbe010387	-0.12599002
188	0xbde87b70	-0.11351669
189	0xbdf20cdd	-0.1181886
190	0xbd1032f2	-0.035204835
191	0xbdc47074	-0.09591761
192	0xbdb04116	-0.08606164
193	0xbb8e2f15	-0.0043391087
194	0xbdf11654	-0.11771837
195	0xbc86ac0d	-0.016439462
196	0xbdbc4e5c	-0.09194633
197	0xbd4a00a7	-0.04931703
198	0xbd417b40	-0.04723668
199	0xbd02517d	-0.031815995

hidden1_Y1.weight f4 [200, 200]
0	0x3d86204c	0.06549129
1	0x3cb4cbe5	0.02206988
2	0x3def7669	0.11692507
3	0x3dafed34	0.08590165
4	0x3d28a387	0.041171577
5	0xbd2ad019	-0.041702364
6	0x3d340343	0.043948423
7	0x3d77037c	0.060306057
8	0x3e046b08	0.12931454
9	0xbdbf4284	-0.09338859
10	0x3d8cd479	0.068764634
11	0xbc819300	-0.015817165
12	0x3dbf8d4b	0.09353121
13	0x3dfac5f3	0.12244787
14	0x3d5c7744	0.053824678
15	0xbc6ef817	-0.014585516
16	0xbb1ff8c7	-0.0024409757
17	0xbdd25922	-0.10270907
18	0x3d8493fd	0.06473539
19	0xbb53765b	-0.003226659
20	0xbd8b231c	-0.06793806
21	0xbcf9e08f	-0.030502586
22	0x3dfaa175	0.12237827
23	0xbcd15242	-0.025551919
24	0x3ccb3e36	0.024809938
25	0xbcec0cb5	-0.028814653
26	0xbd9955c9	-0.07487065
27	0xbda91324	-0.08255604
28	0xbc86e5ac	-0.016466938
29	0xbd552bc1	-0.05204368
30	0x3d399ed1	0.045317475
31	0xbabd8b87	-0.0014461138
32	0x3b48bc04	0.0030629644
33	0xbd64a0db	-0.055817466
34	0xbd068477	-0.032841172
35	0xbd9d9861	-0.076950796
36	0xbd7002f5	-0.05859657
37	0x3df35128	0.11880714
38	0x3dbffa0f	0.09373867
39	0xbccde769	-0.025134759
40	0xbd93abbb	-0.07210489
41	0x3da0ad99	0.07845611
42	0xbda83266	-0.08212738
43	0xbde8061f	-0.113292925
44	0xbd3dee8e	-0.04637008
45	0x3cf8e719	0.030383633
46	0x3da4ee7c	0.080533
47	0xbd3bcc30	-0.045849025
48	0xbd3e0d93	-0.046399664
49	0x3d876802	0.06611635
50	0x3dce772a	0.100813225
51	0x3c0d88ee	0.008638604
52	0x3ca2b5d0	0.019862086
53	0xbc252bd1	-0.010081247
54	0xbdd4549a	-0.10367699
55	0x3e033de4	0.12816578
56	0xba644eda	-0.00087092596
57	0xbdca11aa	-0.098666504
58	0x3df92735	0.12165681
59	0x3d88d3cb	0.06681021
60	0xbd80bbd7	-0.062858276
61	0x3bf062d3	0.0073359995
62	0x3cfcb38c	0.030847333
63	0xbcb1b9a5	-0.021694968
64	0x3cdd3513	0.027002847
65	0xbd505e0b	-0.050870936
66	0x3cc91b57	0.02454917
67	0xbdb89545	-0.09012846
68	0x3df232f3	0.11826124
69	0x3d9cea65	0.07661895
70	0x3dc907cb	0.098159395
71	0xbd1e14e8	-0.038594157
72	0xbd492060	-0.04910314
73	0x3d9894c8	0.07450253
74	0xbc32b5d3	-0.010907608
75	0x3a8a7f4d	0.0010566503
76	0x3e06473b	0.1311311
77	0x3d7ae238	0.061250895
78	0xbdcdd362	-0.10050084
79	0x3da8ec46	0.082481906
80	0xbd2a38fc	-0.04155825
81	0x3dc112d3	0.094274186
82	0x3d2bd222	0.041948445
83	0x3d27403a	0.040832736
84	0x3def7bc0	0.11693525
85	0xbca064ae	-0.019579258
86	0xbd6db991	-0.058038298
87	0x3da817db	0.08207675
88	0xbd606c02	-0.054790504
89	0xbd265f1b	-0.040618043
90	0xbd9287fe	-0.07154845
91	0x3c2819d7	0.010260067
92	0xbdb31281	-0.08743764
93	0xbb859586	-0.0040766625
94	0xbd2d041a	-0.04224024
95	0xbde2f41b	-0.11081716
96	0xbd723176	-0.0591292
97	0x3da772cd	0.081761934
98	0xbd29b11a	-0.041428663
99	0xbc2dd605	-0.010610108
100	0x3cd446c5	0.025912652
101	0x3df5c487	0.12000375
102	0xbdb51b43	-0.088430904
103	0x3d1c76fc	0.03819941
104	0x3db96dd4	0.09054151
105	0xbd247321	-0.040148858
106	0xbc605c00	-0.0136938095
107	0xbc977c2d	-0.018491829
108	0xbd67113f	-0.05641293
109	0x3df634fb	0.12021824
110	0xbdd6e0c4	-0.104920894
111	0xbd68e237	-0.05685636
112	0x3da3f9c9	0.08006627
113	0xbcca3c2b	-0.024686893
114	0x3daa2fbb	0.08309885
115	0xbc6a6a0a	-0.014307508
116	0x3cfe9de0	0.03108114
117	0xbd9d2047	-0.07672172
118	0x3b7af5bd	0.0038293444
119	0x3dfc1a27	0.12309676
120	0xbd8084ae	-0.06275307
121	0xbd9a5fbc	-0.07537791
122	0xbbc8c33c	-0.0061267894
123	0x3d8d7726	0.069074914
124	0xbcad1f23	-0.021133011
125	0xbdf155d5	-0.11783949
126	0xbbf956e9	-0.0076092375
127	0x3dc17cf1	0.09447659
128	0x3d1eb393	0.038745474
129	0x3df22239	0.11822934
130	0x3dd89218	0.1057474
131	0xbc903f56	-0.017608326
132	0x3d2a5291	0.041582648
133	0x3df2874b	0.11842211
134	0x3ce3854e	0.027773526
135	0xbdd62579	-0.10456366
136	0x3daea26d	0.08527074
137	0xbd02af84	-0.031905666
138	0x3df81752	0.12113823
139	0x3dd2d5d1	0.102946885
140	0x3d9983a1	0.07495809
141	0xbc1949be	-0.00935596
142	0xbdd80fb6	-0.105498716
143	0x3d4a290d	0.049355555
144	0xbdaf73bd	-0.08566997
145	0x3d126ba2	0.035747178
146	0xbdb078fc	-0.08616826
147	0x3d8bc080	0.06823826
148	0x3dabed0b	0.08394822
149	0xbcbc1235	-0.0229579
150	0xbd620ff1	-0.055190984
151	0x3df018ac	0.11723456
152	0x3d8c3e4c	0.0684782
153	0xbda0203c	-0.07818648
154	0xbd85f99e	-0.06541751
155	0x3d8e0453	0.069344185
156	0xbcf36d71	-0.029715272
157	0x3d585c55	0.05282243
158	0x3d6dddba	0.058072783
159	0xbd809171	-0.06277741
160	0xbddf9381	-0.10916806
161	0x3c7fa9f8	0.015604489
162	0xbdb3a51c	-0.087717265
163	0x3d7e6d9d	0.062116254
164	0xbd2dd2c1	-0.04243732
165	0xbd941642	-0.07230808
166	0x3cc4b278	0.024010882
167	0x3dc147ae	0.094375
168	0xbb1f557f	-0.0024312434
169	0xbb237563	-0.0024941794
170	0x3d9d46f6	0.0767955
171	0x3da62492	0.08112444
172	0xbcf38ee3	-0.02973122
173	0x3bd5c12f	0.0065232734
174	0x3d3defe1	0.046371344
175	0x3d5abb03	0.053401005
176	0x3e034a45	0.128213
177	0x3d2333d3	0.039844345
178	0xbddfc1df	-0.1092565
179	0x3bd118a0	0.0063811094
180	0xbd8c23da	-0.06842776
181	0x3d32d64d	0.043661404
182	0x3dd31adc	0.103078574
183	0x3cf6a53b	0.030108085
184	0x3b0445dc	0.002018324
185	0xbd86b577	-0.065775804
186	0x3d82f941	0.06395198
187	0xbcd961a1	-0.02653581
188	0x3cd670b2	0.026176784
189	0x3dffda70	0.124928355
190	0x3c9685e5	0.018374393
191	0xbd41a96b	-0.04728071
192	0xbc8bb60a	-0.017054576
193	0x3d996f52	0.07491936
194	0x3c8d7d27	0.017271591
195	0x3d20df45	0.039275426
196	0x3d2e9cdf	0.042630073
197	0xbdd05822	-0.1017306
198	0xbdc26d89	-0.094935484
199	0x3cdba6a0	0.026812851
200	0xbd33bfb8	-0.04388401
201	0x3dab7b58	0.08373135
202	0xbd8b331d	-0.067968585
203	0x3b98ed90	0.0046669915
204	0x3db2eb3a	0.08736272
205	0x3d58943e	0.05287575
206	0x3cfdeaf7	0.030995829
207	0x3e038d3b	0.12846844
208	0x3d246226	0.040132664
209	0x3dd4d16b	0.10391506
210	0x3df1fbaf	0.11815583
211	0xbdb17889	-0.086655684
212	0x3d8d58f2	0.069017306
213	0x3c16bfa1	0.009200961
214	0xbd9fe4fd	-0.07807348
215	0xbd740f2d	-0.059584785
216	0x3d34e137	0.044160094
217	0xbcfaf927	-0.030636383
218	0x3db8abbd	0.090171315
219	0xbd97de7b	-0.07415482
220	0x3dd5e2af	0.10443627
221	0xbdab46ca	-0.08363111
222	0x3d8947b2	0.06703128
223	0xbcdd6ec3	-0.027030354
224	0x3daeb127	0.08529883
225	0xbd81fab3	-0.06346645
226	0x3bdaaf50	0.006673731
227	0x3cd95f3a	0.026534665
228	0x3df586d6	0.119886085
229	0xbdc12e23	-0.09432628
230	0x3dd0cafc	0.10194966
231	0x3d98e664	0.074658185
232	0x3d0c4359	0.034243915
233	0xbdb8333e	-0.08994149
234	0x3dc18204	0.09448627
235	0x3c981aef	0.01856753
236	0xbc9a0b1d	-0.018804127
237	0x3d9b5954	0.07585397
238	0x3d96aa6c	0.07356724
239	0xbdd9857c	-0.10621163
240	0x3b4133d8	0.0029480364
241	0x3df753c4	0.12076524
242	0x3d19c5da	0.0375422
243	0x3deebd76	0.116572306
244	0xbd7be169	-0.061494265
245	0x3d899769	0.06718332
246	0xbddbd3f7	-0.107337885
247	0x3de82c7f	0.11336612
248	0xbc00eb66	-0.007868623
249	0xbda3aa65	-0.079914846
250	0x3dd3bb24	0.103384286
251	0xbd479cb1	-0.048733417
252	0xbc6cb205	-0.01444674
253	0xbc8540f7	-0.01626633
254	0xbc52cfe6	-0.01286695
255	0x3de6c598	0.11268157

hidden1_Y1.bias f4 [200]
0	0x3a81bfac	0.0009899042
1	0x3dfeea5a	0.12447043
2	0xbc7251c6	-0.014790004
3	0xbd18819c	-0.03723298
4	0x3d0bb3e3	0.0341071
5	0x3dd15a25	0.10222272
6	0x3dcd0eda	0.10012598
7	0xbd85d8e4	-0.06535509
8	0x3d293ce5	0.04131784
9	0xbd504746	-0.05084922
10	0x3e09b996	0.13449702
11	0xbcd47418	-0.025934264
12	0x3cc60a00	0.02417469
13	0x3dd68bf6	0.10475914
14	0x3df71072	0.120636836
15	0xbcf2187e	-0.029552694
16	0x3ded273f	0.11579751
17	0x3d0ef7c4	0.034904256
18	0x3df6a359	0.12042875
19	0xbcdc67da	-0.026904989
20	0x3c8e9ad6	0.017407816
21	0x3d3868d3	0.045021843
22	0x3e11abc8	0.14225686
23	0x3b7a6e8e	0.0038212868
24	0x3dec5e0f	0.11541378
25	0x3dab353d	0.08359764
26	0x3da7dc42	0.08196308
27	0x3d99f971	0.0751828
28	0x3ac4598e	0.0014980303
29	0x3de82873	0.1133584
30	0x3df61942	0.12016536
31	0x3cd82df2	0.026389096
32	0x3dd917be	0.106002316
33	0x3dc68b00	0.09694481
34	0xbc7c9e60	-0.015418619
35	0x3d1da87f	0.03849077
36	0xbd5171f1	-0.051134054
37	0x3d932e36	0.071865484
38	0x3dac6b18	0.08418864
39	0x3e003dec	0.12523621
40	0x3dd3ebb4	0.10347691
41	0x3d9eb739	0.07749791
42	0x3d91b378	0.07114309
43	0x3d64a752	0.05582363
44	0x3df21802	0.118209854
45	0x3e136ec8	0.14397728
46	0xbd83ca42	-0.06435062
47	0xbd80abfc	-0.062828034
48	0x3d3fd49f	0.04683363
49	0x3e130a45	0.14359386
50	0xbd7e18f0	-0.0620355
51	0x3d161088	0.03663686
52	0xbd4d731d	-0.05015861
53	0x3e03fc0a	0.12889114
54	0x3de4c042	0.11169483
55	0xbcd30740	-0.025760293
56	0x3c9966c0	0.018725753
57	0x3df0cc18	0.11757678
58	0x3d57f3f6	0.052722894
59	0x3d5ad6d2	0.053427525
60	0x3df027fe	0.11726378
61	0xbd88ec43	-0.06685688
62	0x3d27f428	0.04100433
63	0x3dbec502	0.0931492
64	0x3dcc1f9f	0.09966969
65	0xbd211173	-0.03932328
66	0xbd481ede	-0.048857562
67	0xbd1f1884	-0.03884174
68	0x3dc65b3b	0.096853696
69	0x3dbf4bef	0.09340655
70	0x3d0554d7	0.032551613
71	0xbcdbb333	-0.026818847
72	0x3cc247e5	0.023715923
73	0xbd729be6	-0.059230708
74	0x3a759a8b	0.0009369037
75	0x3dce8415	0.100837864
76	0x3dd05a1e	0.101734385
77	0x3d910d5e	0.07082628
78	0xbcc04587	-0.023470653
79	0x3ddc7af6	0.107656404
80	0xbce859b6	-0.02836309
81	0x3c43e47c	0.01195633
82	0xbc8e1553	-0.017344153
83	0xbced3d66	-0.028959941
84	0x3d001909	0.031273875
85	0x3db0cb1d	0.08632491
86	0xbd606fc1	-0.054794077
87	0x3d1708a5	0.03687348
88	0xbbbb83b7	-0.0057224887
89	0x3c9de708	0.019275203
90	0x3df2ed2c	0.11861643
91	0x3de4fcda	0.1118104
92	0xbca06493	-0.019579208
93	0xbd48162a	-0.048849262
94	0xbce500c7	-0.027954472
95	0x3dd1c98a	0.10243519
96	0xbd4836ae	-0.04888027
97	0x3d850496	0.06495015
98	0x3e017073	0.12640552
99	0xbcc325e4	-0.023821779
100	0x3deefaff	0.116689675
101	0xbcd772a4	-0.026299782
102	0x3ca214ab	0.019785246
103	0xbce9cef2	-0.028541062
104	0x3d4192b5	0.04725905
105	0xbc6684c6	-0.014069742
106	0x3dd2c8fb	0.1029224
107	0x3dc0e48f	0.09418594
108	0xbcc4fe7f	-0.024047134
109	0x3d7d1090	0.061783373
110	0x3dfd046c	0.12354359
111	0xbd38d192	-0.045121737
112	0x3d2a953f	0.04164624
113	0x3dc92df3	0.09823217
114	0x3dd00784	0.101576835
115	0x3dff8550	0.12476599
116	0x3dd57c4e	0.104241
117	0x3db94559	0.0904643
118	0x3d260282	0.040529735
119	0x3de7f0bc	0.11325213
120	0x3d793eeb	0.06085102
121	0x3e0836ec	0.13302201
122	0x3ddeddef	0.10882174
123	0xbba614c2	-0.0050683925
124	0x3e0f7c85	0.14012344
125	0x3ddbdf80	0.107359886
126	0x3dd883ef	0.10572039
127	0x3d8ea8ef	0.06965815
128	0x3db4c9ee	0.088275775
129	0x3d9cb648	0.07651955
130	0x3e1a19d4	0.15048915
131	0xbcf5c437	-0.03000079
132	0x3e190967	0.14944993
133	0x3dadfdf4	0.08495703
134	0x3d99cf88	0.075102866
135	0xbcea722b	-0.028618893
136	0x3d9aaa8c	0.075520605
137	0xbc9598d7	-0.018261356
138	0x3dd94a80	0.10609913
139	0xbc92ef29	-0.017936306
140	0x3db58505	0.08863262
141	0xbd8c4334	-0.068487555
142	0x3de2c1dd	0.11072133
143	0x3d6427f5	0.05570217
144	0x3d70cd15	0.05878933
145	0x3d55c671	0.0521912
146	0x3ce7287c	0.028217547
147	0xbaa230ae	-0.0012374127
148	0xbd50cc77	-0.050976243
149	0x3cf0f943	0.029415732
150	0x3db0d547	0.086344294
151	0x3df9e431	0.12201727
152	0x3db3e551	0.08783973
153	0xbd6c8f47	-0.057753827
154	0xbd76e778	-0.06027934
155	0xbd55d625	-0.052206177
156	0xbd976a1b	-0.07393285
157	0xbda26b3f	-0.07930612
158	0xbcab858f	-0.02093771
159	0x3dfd60b9	0.12371964
160	0xbd9a59a9	-0.075366326
161	0x3db6a8b9	0.089189
162	0x3db1bec8	0.08678967
163	0x3dc6cb46	0.0970674
164	0xbc4d5f52	-0.012534933
165	0xbd6b6a73	-0.057474565
166	0x3e019e6a	0.12658086
167	0x3c9a78bc	0.018856399
168	0x3d404046	0.046936296
169	0x3e03db10	0.12876534
170	0xbd882fd9	-0.06649751
171	0xbcf4757b	-0.029841175
172	0xbd4a1a65	-0.049341578
173	0xbd69cf14	-0.05708225
174	0x3bc2e3e1	0.0059475754
175	0x3e03d894	0.12875587
176	0xbd8a34cb	-0.06748351
177	0x3d82a097	0.06378286
178	0x3da29d3a	0.07940145
179	0xbd5cde94	-0.053923205
180	0x3d9c0b5b	0.076193534
181	0x3d50b6cf	0.05095559
182	0x3d89651a	0.06708737
183	0x3e0607b0	0.1308887
184	0x3de5f9d2	0.1122929
185	0x3d039ac8	0.032130033
186	0x3d1cf43b	0.038318854
187	0x3d5dfe72	0.054197736
188	0x3dc2a579	0.09504218
189	0xbd86ff0d	-0.06591616
190	0xbd950a97	-0.072774105
191	0x3d8ba51f	0.06818604
192	0xbc176788	-0.009240992
193	0x3d0d7379	0.03453395
194	0x3dc9dfc9	0.09857137
195	0x3e044e5e	0.1292052
196	0xbd255385	-0.040362854
197	0x3dd0134d	0.10159931
198	0xbc8aa4a4	-0.01692421
199	0x3db2b821	0.08726526

hidden2_Y1.weight f4 [200, 200]
0	0x3cc7d3b9	0.02439295
1	0xbd010fe2	-0.031509288
2	0xbd92b2b8	-0.07162994
3	0x3d1bb4a7	0.03801408
4	0x3cf7e335	0.030259708
5	0xbd074a5b	-0.033029895
6	0xbd8047ee	-0.062637195
7	0x3dc2ed10	0.09517872
8	0x3d0217c9	0.031760965
9	0x3dd1f1bb	0.102511846
10	0x3e0fde1b	0.1404957
11	0x3d27c714	0.04096134
12	0xbce61815	-0.028087655
13	0x3df3d771	0.119063266
14	0x3e11bbf7	0.14231859
15	0x3cdbca9e	0.026830014
16	0x3d9a5b3c	0.07536933
17	0x3b765f1e	0.0037593315
18	0xbd7bd43a	-0.061481692
19	0xbda658c0	-0.081223965
20	0x3bf529d1	0.0074817915
21	0x3ccd02ec	0.025025807
22	0x3cebb985	0.028774986
23	0xbd698789	-0.057014022
24	0x3e067279	0.13129605
25	0x3c60f7f0	0.013730988
26	0x3df62881	0.12019444
27	0xbd77e58a	-0.06052164
28	0xbc229d43	-0.009925189
29	0xbd86adda	-0.06576128
30	0x3dc66cf0	0.09688747
31	0xbd0f024b	-0.034914296
32	0x3d094fcb	0.033523362
33	0xbd286163	-0.0411085
34	0xbdb60157	-0.08886974
35	0xbd808523	-0.06275394
36	0xbd20a671	-0.03922123
37	0x3e019dc7	0.12657844
38	0x3db2756f	0.08713805
39	0x3c07cf1c	0.008289125
40	0x3d24fe70	0.040281713
41	0xbdb16c24	-0.08663204
42	0xbda55522	-0.080728784
43	0x3e014309	0.12623228
44	0x3df4ab9c	0.119467944
45	0x3dd42ffd	0.103607155
46	0x3d3d6cdb	0.04624639
47	0x3daa7d40	0.08324671
48	0x3d5bf799	0.053702924
49	0xbbebe25e	-0.007198616
50	0xbdaa8b16	-0.0832731
51	0x3c92f3d0	0.017938524
52	0xbcc4aeed	-0.024009192
53	0x3e18f1f5	0.1493605
54	0x3d21479b	0.03937493
55	0x3d742fce	0.059615903
56	0x3ce84a2e	0.028355684
57	0x3db9765b	0.09055778
58	0xbbeb12c1	-0.0071738665
59	0x3d87c077	0.06628507
60	0x3e099c35	0.13438495
61	0x3d7a3eb3	0.06109495
62	0x3d222c38	0.03959295
63	0xbc9af540	-0.018915772
64	0x3d8074ca	0.06272276
65	0xbd9ca35a	-0.07648344
66	0xbd72f13d	-0.059312094
67	0xbdb5d0fa	-0.0887775
68	0xbd0a221f	-0.033723947
69	0x3d845dc5	0.064631976
70	0x3ca5e848	0.020252362
71	0xbbd45dec	-0.006480923
72	0x3bb4afab	0.0055141053
73	0x3ca91834	0.020641424
74	0xbce3e3fa	-0.027818669
75	0x3b7996bf	0.0038084236
76	0x3e11e304	0.14246756
77	0xbc8076cd	-0.015681649
78	0xbdbe3abc	-0.092885464
79	0x3d3e6e01	0.046491627
80	0x3d3c38f5	0.045952756
81	0x3ceae282	0.02867246
82	0x3d43cd06	0.047802947
83	0x3dcebf01	0.10095025
84	0x3d029c82	0.03188754
85	0x3dc3a8ee	0.09553705
86	0x3db0286a	0.08601458
87	0xbd2f3b3f	-0.04278111
88	0xbc620397	-0.013794801
89	0x3e0b4d3e	0.13603684
90	0x3d684d92	0.0567146
91	0x3d6e4979	0.058175538
92	0x3dc092ff	0.09403037
93	0x3d305352	0.04304821
94	0xbd9c6a0d	-0.07637415
95	0x3d72ee93	0.059309553
96	0xbd06c4ca	-0.032902516
97	0x3bac3374	0.005255157
98	0xbd32cca0	-0.043652177
99	0x3d37ba26	0.04485526
100	0xbd0f932a	-0.035052456
101	0x3d4dbf9a	0.050231554
102	0x3d85e94f	0.06538641
103	0x3daf4818	0.08558673
104	0x3d68e43a	0.05685828
105	0xbdd46621	-0.10371042
106	0x3c2690ca	0.010166356
107	0xbc517d1d	-0.012786177
108	0xbcdb1c8e	-0.026747014
109	0x3d749e69	0.059721384
110	0xbd654645	-0.055975217
111	0xbddb9c12	-0.107231274
112	0x3d8b9392	0.06815256
113	0xbc8e5d05	-0.01737834
114	0x3be9b0df	0.0071316804
115	0x3e077c52	0.13231018
116	0x3e091caf	0.13389848
117	0xbdb2287d	-0.08699129
118	0x3dc912ac	0.098180145
119	0xbbb6804e	-0.0055694943
120	0x3d811847	0.06303459
121	0x3e07ba73	0.13254718
122	0x3dfb13ca	0.12259634
123	0x3e03e331	0.12879635
124	0x3c4fe849	0.012689658
125	0x3c75dd08	0.015006311
126	0xbd9673b6	-0.07346289
127	0x3d8f66ad	0.07002006
128	0xbc4e97fc	-0.012609478
129	0x3e0a293e	0.13492295
130	0x3d37a30f	0.04483324
131	0x3d933015	0.07186905
132	0x3e112734	0.14175111
133	0xbcf85ccc	-0.030317686
134	0xbd9be9c7	-0.07612949
135	0xbd17ec21	-0.037090424
136	0xbd567e15	-0.052366335
137	0xbd80bb61	-0.0628574
138	0x3c940326	0.018067908
139	0x3dc9643b	0.098335706
140	0xbd74aeb8	-0.059736937
141	0x3d24ffab	0.040282886
142	0x3cc891bd	0.024483556
143	0x3dd125b5	0.1021227
144	0xbd7bc41d	-0.061466325
145	0x3df201d1	0.11816753
146	0x3d918245	0.07104925
147	0x3daa03a9	0.08301479
148	0xbd9d438e	-0.07678901
149	0x3dcb314f	0.09921514
150	0x3d981ec5	0.07427744
151	0xbcc2a826	-0.02376182
152	0x3d995846	0.0748754
153	0xbcb47549	-0.022028582
154	0x3d9fe68c	0.07807645
155	0x3dac0dc2	0.084010616
156	0x3d7f1fce	0.06228619
157	0x3d602f55	0.05473264
158	0xbd15fc02	-0.036617287
159	0xbb410a4f	-0.0029455607
160	0x3dfb247c	0.12262818
161	0xbd57c823	-0.0526811
162	0xbd97385b	-0.07383796
163	0x3a02a5f3	0.0004983835
164	0xbda0b789	-0.078475066
165	0x3d9b9393	0.07596507
166	0x3c965a4a	0.0183536
167	0x3d00c346	0.031436227
168	0xbd8b5b7c	-0.06804559
169	0xbc67fe7a	-0.014159793
170	0x3d07ae2a	0.03312508
171	0xbdcb5a86	-0.09929375
172	0x3d23bfc4	0.039977804
173	0xbc327495	-0.010892053
174	0x3dad1987	0.084521346
175	0xbc6ce2a4	-0.014458332
176	0xbdde169f	-0.108441584
177	0x3ddc246b	0.10749134
178	0xbd4ab08d	-0.04948478
179	0xbdf89bbf	-0.12139081
180	0xbcc67a92	-0.024228368
181	0x3e0c7d0c	0.13719577
182	0x3c0a4b8a	0.0084408615
183	0x3e17fccb	0.14842527
184	0x3dadd0bd	0.08487079
185	0x3d756141	0.0599072
186	0x3dd7f338	0.10544437
187	0x3d55e7fe	0.052223198
188	0x3d907a29	0.0705455
189	0x3d907824	0.07054165
190	0xbdd84805	-0.10560612
191	0x3e1798d4	0.14804393
192	0xbdae56cb	-0.08512648
193	0xbd4725bc	-0.04861997
194	0xbcc299bd	-0.023754949
195	0x3ccb62d8	0.024827406
196	0xbd22a4d6	-0.03970798
197	0x3d906d70	0.070521235
198	0xbddbac3a	-0.10726209
199	0xbd0618b2	-0.032738395
200	0xbdba5733	-0.09098663
201	0x3d85d988	0.065356314
202	0x3dc483a2	0.095954195
203	0xbda772d1	-0.08176196
204	0xbd2079ab	-0.03917853
205	0x3d494410	0.049137175
206	0x3dda8f0c	0.10671815
207	0x3c04154a	0.008061716
208	0xbde18d1a	-0.11013241
209	0x3d06b94b	0.032891553
210	0xbc0c70f3	-0.008571851
211	0xbd81d182	-0.063387886
212	0x3dab7c1e	0.08373283
213	0xbdf06287	-0.117375426
214	0x3ca62ed8	0.020286009
215	0xbd1366bf	-0.03598666
216	0xbdd65395	-0.10465161
217	0xbdca3f53	-0.098753594
218	0xbdbb3db4	-0.09142628
219	0x3decd76b	0.11564525
220	0xbd9765bb	-0.073924504
221	0xbcae10eb	-0.021248301
222	0x3d7fe3f7	0.062473264
223	0x3d4cdc37	0.0500147
224	0xbda5ed44	-0.081018955
225	0x3dc75e94	0.09734836
226	0xbd94b371	-0.07260788
227	0xbbbde7a9	-0.0057954383
228	0x3d95a1ba	0.073062375
229	0x3d0b3cd9	0.033993576
230	0xbc132800	-0.008981705
231	0xbd3b366b	-0.045706194
232	0xbdb9c364	-0.09070471
233	0x3cbbbd54	0.022917427
234	0xbe0247d5	-0.12722714
235	0x3dc3a78f	0.09553444
236	0xbdb9522d	-0.09048877
237	0x3ccd56e4	0.025065847
238	0xbd88c0f5	-0.06677429
239	0xbb88802e	-0.004165671
240	0xbd103a6f	-0.035211977
241	0xbdc2f419	-0.09519214
242	0xbd920945	-0.07130674
243	0xbd4a9977	-0.04946276
244	0x3d1bfff2	0.038085885
245	0x3d0a408f	0.033752974
246	0xbddb5c54	-0.107109696
247	0x3dc0e26a	0.09418185
248	0x3d09f11b	0.0336772
249	0xbde957ab	-0.113936745
250	0xbdf3680c	-0.1188508
251	0xbd1968ae	-0.037453346
252	0xbcab591f	-0.02091652
253	0xbd115ce3	-0.035488974
254	0x3dd90d32	0.1059822
255	0x3cc820a2	0.024429623

hidden2_Y1.bias f4 [200]
0	0x3e0059c9	0.1253425
1	0xbc3139b2	-0.010816978
2	0xbc214aab	-0.009844462
3	0xbd8f75ad	-0.07004867
4	0xbd48f472	-0.049061246
5	0x3de9c225	0.11413983
6	0x3de18ebd	0.11013553
7	0x3d8877f1	0.06663502
8	0x3dd9b016	0.10629289
9	0x3d861843	0.06547596
10	0x3c66a2af	0.014076873
11	0x3d3ea354	0.04654248
12	0xbcd66550	-0.026171356
13	0x3db3d098	0.087800205
14	0xbd337bc9	-0.043819223
15	0xbd253935	-0.04033776
16	0xbc1c8646	-0.009553498
17	0x3c87c5f5	0.016573885
18	0xbd4b5b3f	-0.049647566
19	0xbac5c62d	-0.0015088968
20	0x3e05a363	0.13050608
21	0xbd5524d3	-0.05203707
22	0xbd190118	-0.03735456
23	0x3d390baf	0.045177158
24	0x3e0a7c23	0.13523917
25	0xbcdcc281	-0.026948215
26	0xbd6e9809	-0.05825046
27	0xbcdc1ea8	-0.026870087
28	0xbd74c47b	-0.05975769
29	0xbd8a8884	-0.067643195
30	0x3c947716	0.01812319
31	0x3b166ba5	0.0022952345
32	0x3e0902ba	0.13379946
33	0x3c8a9c02	0.016920093
34	0x3d60e288	0.054903537
35	0x3b9ffa82	0.004882158
36	0xbd3b439d	-0.045718778
37	0x3db8522f	0.0900005
38	0x3dc2859f	0.094981425
39	0xbcb68942	-0.022282247
40	0xbd6a13e5	-0.05714788
41	0xbd4621ef	-0.048372205
42	0x3c7846c0	0.015153587
43	0x3dc130ae	0.09433113
44	0x3dc81bde	0.0977094
45	0xbcd4eb27	-0.025991036
46	0xbd9cd828	-0.07658416
47	0x3c9b8b03	0.018987184
48	0xbd0faba0	-0.035075784
49	0xbc5d5a00	-0.013510227
50	0x3d1ce7ea	0.038307108
51	0x3cca8ee6	0.024726342
52	0x3d15ddd9	0.036588524
53	0x3ccb58de	0.024822649
54	0x3dd52175	0.10406772
55	0x3e04f36d	0.12983485
56	0x3e0f6e19	0.14006843
57	0x3d9bfa06	0.076160476
58	0x3d3196d4	0.04335673
59	0x3cd2e219	0.025742577
60	0x3cb8737f	0.02251601
61	0x3d8c1d82	0.06841566
62	0xbd071014	-0.032974318
63	0x3d143296	0.036181055
64	0x3bdeee99	0.0068033454
65	0x3dfef67c	0.12449357
66	0xbd987271	-0.07443703
67	0xbd3b6d64	-0.04575862
68	0x3e07dfd1	0.13268973
69	0xbd69c051	-0.057068173
70	0x3dc500f2	0.09619321
71	0x3dffc642	0.124889866
72	0x3d8e7715	0.06956307
73	0x3caf6dbe	0.021414634
74	0xbcb1f010	-0.021720916
75	0xbcfcb160	-0.030846298
76	0x3d813562	0.0630901
77	0xbb479306	-0.0030452623
78	0xbd8c1fd6	-0.0684201
79	0xbd959236	-0.07303278
80	0x3de308ef	0.11085688
81	0xbd5e5d41	-0.054288153
82	0xbcc74d7d	-0.024328941
83	0x3c170a01	0.009218694
84	0x3db0ef23	0.08639362
85	0x3d762dd8	0.060102314
86	0xbb911c39	-0.004428413
87	0x3d4cd5eb	0.050008696
88	0xbd6b5aac	-0.05745952
89	0xbc3f34a7	-0.011670268
90	0xbd121b21	-0.035670403
91	0x3d79c59f	0.06097948
92	0xbcc31b83	-0.02381683
93	0xbce342fd	-0.027741903
94	0x3d6130b9	0.054978106
95	0x3dd163fa	0.10224147
96	0x3d3b4837	0.045723166
97	0xbd8dd5ee	-0.069255695
98	0x3db4885f	0.08815073
99	0xbd84c1a1	-0.06482244
100	0x3d932873	0.071854495
101	0x3c86b37f	0.016443012
102	0x3daac091	0.083375104
103	0xbcf9dcfa	-0.030500878
104	0x3cdd81c4	0.027039416
105	0xbd953dc6	-0.07287173
106	0x3d240a99	0.04004917
107	0x3df07f8d	0.117430784
108	0x3dab29b0	0.08357561
109	0xbcd61efc	-0.026137821
110	0xbd4c884c	-0.04993467
111	0x3dd6df19	0.10491771
112	0x3e053ff5	0.13012679
113	0x3dfe64d8	0.12421578
114	0x3d41320c	0.04716687
115	0xbb34655b	-0.0027526233
116	0x3dc7b6bc	0.09751651
117	0x3e08ce09	0.13359846
118	0x3ba6019e	0.0050661108
119	0xbbe46e04	-0.0069711227
120	0xbd420320	-0.04736626
121	0x3dcca2e3	0.09992006
122	0x3d4224be	0.04739832
123	0x3d103a40	0.0352118
124	0xbd851883	-0.06498816
125	0xbdaa90ba	-0.08328386
126	0x3d5ae8e5	0.05344476
127	0x3c108eed	0.008823139
128	0x3d937f03	0.0720196
129	0xbd5eba02	-0.05437661
130	0xbd5dc8d0	-0.054146588
131	0x3db190f3	0.08670225
132	0xbc964ae7	-0.018346263
133	0x3e0e3e0d	0.13890858
134	0x3db982d1	0.090581544
135	0x3c47a410	0.012185112
136	0x3dd00397	0.10156935
137	0xbb4c7ff0	-0.0031204186
138	0x3be407c4	0.0069589335
139	0xbd88f7a7	-0.06687861
140	0xbd04e740	-0.0324471
141	0xbab67dd0	-0.0013922993
142	0xbcf18be7	-0.029485656
143	0x3cf8f64e	0.030390885
144	0x3dfe99ae	0.12431656
145	0x3d339c57	0.04385027
146	0xbd8ee636	-0.06977503
147	0x3b50b441	0.003184572
148	0x3d145250	0.03621131
149	0x3dcbefb7	0.09957831
150	0x3dd71443	0.105019115
151	0x3d913ab5	0.070912756
152	0x3cd124a0	0.02553016
153	0x3d7eb996	0.062188707
154	0xbd82a28d	-0.0637866
155	0xbc035c84	-0.008017663
156	0x3de43f34	0.111448675
157	0x3ddf4652	0.109020844
158	0x3dc7600e	0.09735118
159	0xbcb1f685	-0.021723995
160	0x3d11f626	0.035635136
161	0x3d210fbe	0.039321654
162	0x3cceeb56	0.025258701
163	0x3d3d9093	0.046280455
164	0xbd843069	-0.06454546
165	0x3d57fb7f	0.05273008
166	0x3e0ad4c6	0.13557729
167	0xbcc18c28	-0.023626402
168	0x3d4943c9	0.04913691
169	0x3c89c95f	0.016819654
170	0x3d92e41d	0.071724154
171	0x3cce041c	0.025148444
172	0x3d179fc5	0.037017602
173	0x3da91d7a	0.08257575
174	0x3e2133f6	0.15742478
175	0xbb423d20	-0.0029638484
176	0xbd726ca0	-0.059185624
177	0x3db42337	0.08795779
178	0x3ca9f608	0.0207472
179	0x3c3d6815	0.01156046
180	0x3d6f64a2	0.05844558
181	0x3b1a0680	0.002350241
182	0x3df5db57	0.120047264
183	0x3c42cb6e	0.011889322
184	0x3dd4d87c	0.103928536
185	0xbcd0cded	-0.025488818
186	0xbb3b32e8	-0.0028564278
187	0x3d636e73	0.055525254
188	0x3e0e64a9	0.13905586
189	0x3e0bcfd2	0.13653496
190	0x3db4f69a	0.08836098
191	0x3c86b66d	0.01644441
192	0xbd1c1deb	-0.03811447
193	0xbcdb7e1f	-0.026793538
194	0x3b6a40c6	0.0035744174
195	0x3bde7569	0.0067888987
196	0x3dbc43c4	0.09192613
197	0x3c06e400	0.00823307
198	0x3d9265fc	0.07148358
199	0xbd21f124	-0.03953661
