Results/Models/SAE_E2E_DCN_model_iter_id_9_epoch_400_lr_0.0001_mmd.pth (torch, 828374 bytes, 16 tensors)

shared1.weight f4 [200, 17]
000000 83 f1 12 be 94 85 62 bd a7 a8 81 bd 31 b1 3f 3d
       -0.14349942 -0.05530317 -0.06330996 0.046799842
000010 b6 cf 26 3d 77 3a 0c bd f8 47 e1 3c 01 48 1c bc
       0.040725432 -0.034235444 0.027500138 -0.009538651
000020 3e 89 69 3d 6a 43 00 be e1 09 e4 bd ea 22 36 3d
       0.05701565 -0.12525716 -0.11134697 0.04446689
000030 e9 19 5d bd 58 61 d7 bd a7 0d f7 bd 75 0f d4 bd
       -0.053979788 -0.10516614 -0.12063151 -0.10354511
000040 a6 90 99 3c e6 89 9b bb 1e f5 d4 3d 88 28 da 3b
       0.018745732 -0.0047466634 0.10398315 0.0066576637
000050 da bc 4e bd dc 4b ab 3a 84 41 1d be 2f 5b 1a 3e
       -0.05047307 0.0013068873 -0.15357023 0.15073846
000060 04 2a b3 3c 69 81 ce 3d 46 a6 d1 3c bd e5 96 bd
       0.02187062 0.10083277 0.02559198 -0.07368038
000070 a6 fd 3d be ce 48 b4 bc 64 27 5f be 4f 43 3f be
       -0.1855379 -0.022007372 -0.2179237 -0.1867802
000080 67 56 fb 3a c9 31 19 bd 6f 5e 12 3d f4 38 80 bd
       0.001917553 -0.037400994 0.03573459 -0.06260863
000090 b5 41 18 bd db 34 86 3e 70 a9 16 bc d6 c7 50 be
       -0.037172038 0.262122 -0.0091956705 -0.20388731
0000a0 fa 13 c8 bd bc 53 82 bd 95 7f 4b 3d 8f 04 07 be
       -0.09769435 -0.06363627 0.04968222 -0.13185333
0000b0 c4 df e0 3b d8 da 96 bd a1 3b 86 bd bf 0e 45 3d
       0.0068626124 -0.0736596 -0.06554342 0.048109766
0000c0 bd d8 c3 bd 34 e4 59 3e 55 23 12 3e 64 78 1d 3e
       -0.09562824 0.21278459 0.1427129 0.15377957
0000d0 bf ed 14 be 92 ee 98 3d 3e b4 16 3e ba 17 b3 bd
       -0.14543818 0.07467379 0.14717194 -0.0874476
0000e0 a5 12 2a 3e 7a b9 ad 3d af 42 59 3e 64 54 c3 bd
       0.16608675 0.084826425 0.21216844 -0.095375806
0000f0 59 84 af 3c d3 a4 74 bd b8 de 42 3d da 3a b8 3d
       0.021425413 -0.0597275 0.047575682 0.089956
000100 a7 6d 04 be 42 3f 36 be 4c cb 43 3d c9 05 98 bd
       -0.12932454 -0.17797568 0.0478013 -0.074229784
000110 84 6a 5c bd d5 26 15 be d6 8e a0 3c a9 f9 7a 3d
       -0.05381252 -0.14565594 0.01959936 0.06127325
000120 e9 6e 54 be 7a 34 92 3d 7c ea 5c bc 16 0b b7 bd
       -0.20745434 0.07138915 -0.01348364 -0.08937661
000130 6f 0f 82 bd d7 5b fc bc cc 1c 63 3d d6 3c be 3d
       -0.063506 -0.030805511 0.055447385 0.09288947
000140 57 be 09 3e 13 4e 6d bb 87 d8 0e be 5c df a1 3d
       0.13451515 -0.0036209866 -0.13949786 0.079039305
000150 49 1d e4 3d 60 42 79 bd 50 19 42 3d 57 9b 97 3d
       0.11138398 -0.060854316 0.04738742 0.074026756
000160 53 19 ef bd fa 7e de 3c 8b 7f 15 3d a5 57 8f 3d
       -0.11674752 0.027160157 0.036498588 0.06999139
000170 c7 03 94 bc 3f db 6d 3d 52 de 45 bd d2 9a ca bd
       -0.018068207 0.058070417 -0.048307724 -0.09892811
000180 5a 71 92 bd bf 64 e5 3d b8 6c ef bd da 4d ff bd
       -0.07150526 0.112008564 -0.11690658 -0.12466021
000190 2b 8d 75 3c 34 25 20 be c5 25 67 bd 0d 3c 2d bd
       0.01498727 -0.15639192 -0.056432504 -0.042293597
0001a0 b9 7e 49 be 81 87 c8 bd 20 57 9e bd 27 07 2a bd
       -0.19677247 -0.0979147 -0.077314615 -0.041510727
0001b0 4a d0 3c 3c e2 73 24 3d b5 2c 17 3e 19 2d 10 be
       0.011524269 0.040149577 0.14763148 -0.14079703
0001c0 08 55 e4 bd c8 96 20 be f7 f8 8d bd 0e 3a 64 be
       -0.11149031 -0.15682518 -0.06932252 -0.22287771
0001d0 55 4e 67 3d dd d7 b7 3c 44 b0 2d be 7e 3e 9b 3d
       0.056471188 0.022441799 -0.16961771 0.07580279
0001e0 50 3a b8 3d 71 27 ae bd 9e 67 0a 3e cc ad 1a be
       0.08995497 -0.085036166 0.1351609 -0.15105361
0001f0 d0 ac 04 bd 00 e8 c7 bd 0b d3 bd bd c3 61 c5 bd
       -0.03239137 -0.09761047 -0.09268769 -0.09637787
000200 73 0f a7 3d 43 2d a8 bc a8 16 86 bd 8f 60 f5 bd
       0.081572436 -0.020529395 -0.0654729 -0.11981308
000210 f6 4d 79 3d 95 72 2d bc 55 84 43 3e eb 25 99 3d
       0.060865365 -0.0105864005 0.1909345 0.074779354
000220 67 6b 0f 3e c5 ce 92 bb 84 93 09 bd 2a e9 28 3e
       0.14005814 -0.0044802153 -0.033587947 0.16495195
000230 4d d3 5b bc df f8 06 be 53 be af bd a2 75 ba 3d
       -0.013417077 -0.13180874 -0.08581223 0.09104468
000240 69 7f 8e 3d 17 96 f1 bd 1b 42 0d bd dc 67 12 bb
       0.06957895 -0.117962055 -0.03448687 -0.0022339737
000250 f3 88 21 be 00 e6 2a be 94 f4 19 bd 60 5a af 3d
       -0.15774898 -0.166893 -0.037586764 0.085621595
000260 59 cb 81 be 6a d8 f8 3d 46 71 a2 bc 48 38 96 3c
       -0.25350454 0.12150653 -0.019829404 0.018337384
000270 c2 74 c4 bd c1 ea 8e 3c 94 7f da bd 6d c9 43 3d
       -0.09592582 0.017445924 -0.10668865 0.047799516
000280 38 ba 43 bc 0c 46 9a bd 9c f5 3a bc 64 84 b1 3d
       -0.0119462535 -0.07532892 -0.011411097 0.0866783
000290 07 be 46 ba 69 a9 bd 3c cc e3 ee bd dc 76 a2 3c
       -0.0007581417 0.02315207 -0.116645426 0.019832067
0002a0 dc da 1a bd 0c 41 d3 bd 38 ba 33 3e 1f 4a 0b bd
       -0.037806377 -0.10315141 0.17551506 -0.034006234
0002b0 64 11 8d bd 0b 4d b1 3d 3d cf 9d 3d b9 d1 26 3d
       -0.068880826 0.08657273 0.07705543 0.04072735
0002c0 60 cf 43 3d f9 14 33 3e 13 43 3d bd 52 d9 8c bd
       0.04780519 0.17488469 -0.046206545 -0.06877388
0002d0 2a fa cd 3d 69 c7 2b bd 80 58 91 bd 01 17 01 3e
       0.10057481 -0.04193822 -0.07096958 0.12606432
0002e0 71 e6 24 be 34 45 91 3c 74 d2 cd bd c0 b4 8d 3c
       -0.16103531 0.017733194 -0.100499064 0.017298102
0002f0 d5 f2 ff 3d 53 ca 60 3e 5d b2 6c 3e 6d 38 e3 bd
       0.124974884 0.2195218 0.23114915 -0.11094747
000300 c2 09 20 3b 64 27 cc 3c 70 b5 51 3e 9e ef c3 3d
       0.0024419879 0.024921127 0.20479369 0.09567188
000310 81 31 c9 bd e9 9d fd 3b 90 21 2d 3c 57 07 c0 bd
       -0.09823895 0.0077397716 0.010567084 -0.093764
000320 0b c9 1b 3e 4c 16 b5 bd e3 e9 89 bd 15 35 d6 bd
       0.1521341 -0.088421434 -0.067340635 -0.10459343
000330 77 6a c3 3c da 27 bf bd 92 b6 b2 3c e4 1a c5 3d
       0.023854477 -0.09333773 0.021815572 0.096242696
000340 56 b3 5f 3e 5b 2e e2 3d 43 ae 9b bd 32 bd dc 3d
       0.21845755 0.11043998 -0.07601597 0.10778274
000350 ab bd b8 3d e8 a5 1a bd f3 64 9d bd 52 e9 0f 3e
       0.09020551 -0.037755877 -0.0768527 0.14053848
000360 59 23 3f 3e 71 3e 03 3c 9b ad 4a bd 0c 93 e6 3d
       0.18665828 0.008010493 -0.04948197 0.11258516
000370 fe 7b e1 3d 62 1f 86 bc 2b 16 ea 3d 5e 5e f8 3d
       0.11009978 -0.016372386 0.114300095 0.12127374
000380 19 70 6a 3e 83 c8 33 be c4 bb a6 3b 87 39 da 3d
       0.22894324 -0.17556958 0.0050883014 0.10655504
000390 52 b3 54 3c e1 34 6f bc f9 93 96 3d 51 25 27 be
       0.012982206 -0.01460001 0.07352442 -0.16322829
0003a0 ae 59 22 3b 94 82 e9 3d a1 3f 37 be c2 3d e2 3d
       0.0024772692 0.11401859 -0.17895366 0.110469356
0003b0 c0 e3 80 bd e5 f9 28 be a2 fd 58 bc a9 65 a8 3c
       -0.0629344 -0.16501577 -0.0132440645 0.020556288
0003c0 81 c1 7c bd 16 0b c5 bd 58 28 be 3d 58 e6 9d 3d
       -0.061707977 -0.09621255 0.09285039 0.0770995
0003d0 a4 60 d6 3d f6 b8 96 3d 0b 52 ad bd 8a b8 b7 bd
       0.104676515 0.07359497 -0.08462914 -0.08970745
0003e0 7d 2a 3b be f4 b3 50 3d 5f bb 18 bd 1d 90 81 3d
       -0.18277927 0.050952867 -0.037288066 0.063263156
0003f0 89 76 7e bd 63 ce 02 bd 26 02 24 bd 37 04 39 be
       -0.062124763 -0.031935107 -0.04004111 -0.18068014

shared1.bias f4 [200]
000000 a0 e1 6b be 6f de 39 3e 3a 0c 72 3d 31 f3 66 3d
       -0.23035288 0.18151258 0.05909369 0.05638427
000010 f4 68 ee bd 4f a0 ef 3d 07 5f e6 3d e2 8e d1 3a
       -0.11641112 0.11700498 0.11248594 0.0015988017
000020 7d 5b ef 3d 46 c8 ff 3d d3 21 3e 3d 21 a6 3c be
       0.11687372 0.12489371 0.046418976 -0.18422748
000030 38 a2 af 3d 7d 8c 01 3e f7 90 1b bd bc 54 c4 3d
       0.08575863 0.12651248 -0.037980046 0.09586474
000040 ac 9c 91 bb 68 9c 78 be 75 20 bb bc a7 15 11 3e
       -0.0044437256 -0.24278414 -0.022842625 0.14168416
000050 14 16 3a 3e a6 64 f3 3d de 44 ca 3d d5 80 01 3d
       0.18172485 0.118844315 0.098764166 0.031617004
000060 72 37 93 be 3f 0f da 3c 20 2d 0a 3e 79 2f 28 3e
       -0.2875324 0.026618598 0.13493776 0.1642436
000070 4d 87 2b be 4d b8 93 3c 36 48 33 3e 42 65 f0 3d
       -0.16750832 0.018032217 0.17508015 0.117380634
000080 d9 63 f2 3b a6 64 14 3e 96 2b 22 3e ce 5d 6b be
       0.0073971567 0.1449152 0.15836939 -0.22985002
000090 86 30 2d be 4f 9e 1a be 0b 81 76 be 44 43 24 3e
       -0.16913041 -0.15099452 -0.24072663 0.16041285
0000a0 fb e8 44 3d cc bc 6f be 17 8c 8d be 8c 83 58 3d
       0.04807375 -0.23411864 -0.27645943 0.052859828
0000b0 1e c7 15 3e 10 6c 34 be a8 56 f9 3d 07 95 15 be
       0.14626738 -0.17619348 0.121747315 -0.1460763
0000c0 cc dd 2d 3e 96 ae 0a be 7b 17 46 3e 4d b9 e4 3d
       0.1697914 -0.13543162 0.19344895 0.11168156
0000d0 e4 a0 dc 3d ed c1 15 3c ed 3f 24 3e 14 17 93 be
       0.10772875 0.009140474 0.16040011 -0.28728545
0000e0 5d f1 f3 3c ad b9 d1 bc ba d1 13 3e 89 46 a2 3c
       0.029778177 -0.025601232 0.14435473 0.019809024
0000f0 4f 7c e2 3d e4 45 20 3d b1 f2 37 bd fb ad 5e be
       0.11058866 0.039129153 -0.044909183 -0.21746056
000100 d0 b0 d8 bd 24 f4 9a bd bf 55 8c be b5 26 74 be
       -0.10580599 -0.075660974 -0.2740917 -0.2384289
000110 49 68 05 be 35 56 d7 bd da 9c 54 be 02 ec 55 3e
       -0.13028063 -0.105144896 -0.20762959 0.20890811
000120 60 32 59 3e a5 e1 8d 3d 63 21 7e bc d4 17 bd bc
       0.21210623 0.06927804 -0.01551089 -0.023082651
000130 c1 55 44 bd f4 9b 69 3e bf b6 53 3d 85 56 6a 3c
       -0.047933344 0.22813398 0.051687952 0.014302854
000140 c6 60 90 be a5 27 83 3d b4 8c a8 bd 2e c4 39 be
       -0.28198832 0.06404046 -0.08229962 -0.18141243
000150 52 0d a4 bd 04 91 30 3d 6a 17 0b be 42 76 0e 3d
       -0.08010353 0.043107048 -0.1358315 0.03478075
000160 9e b1 f5 3c b0 45 a4 bd 40 d1 ed ba 84 1e fe bd
       0.029991921 -0.08021104 -0.0018144026 -0.12408164
000170 9c 5a 7c be 92 5e ff bd 0e ce 10 bc 75 37 ae bd
       -0.2464394 -0.1246921 -0.00883819 -0.08506671
000180 74 b0 5a bd c6 54 c4 3d 84 e9 60 be f7 17 b7 bd
       -0.053390935 0.09586482 -0.21964079 -0.08940118
000190 13 74 6d be 38 03 f4 bb 51 77 3c be 3d fb 01 3e
       -0.2318881 -0.007446673 -0.1840489 0.12693496
0001a0 8a d1 02 be 57 49 ec bb b4 1c 89 3d 20 5b 55 3e
       -0.12775245 -0.007210891 0.06694928 0.20835543
0001b0 4f 35 13 3e 55 45 81 be af 71 f9 bd 8f 38 8c be
       0.14375804 -0.2524821 -0.121798865 -0.273869
0001c0 af b3 5d 3e 62 b9 1f 3e 70 4a c1 bc 48 4e 25 be
       0.21650575 0.15598062 -0.023595065 -0.16143143
0001d0 63 06 16 3e 5b 24 0c 3e c4 ca 28 3e 30 38 22 bd
       0.14650874 0.13685744 0.16483599 -0.039604366
0001e0 6b 3c 10 be 61 4c b3 3b 08 1e 2d bd 61 e5 18 3e
       -0.14085548 0.0054717516 -0.04226497 0.14931251
0001f0 15 37 b5 bd 1f b4 3c be ef c6 ab 3c a4 d6 e7 3d
       -0.08848397 -0.18428086 0.020968882 0.11320236
000200 37 d2 c6 bd 51 13 b0 bd 83 c4 fc 3d 87 c0 c0 3d
       -0.09708064 -0.08597434 0.12342169 0.09411722
000210 e8 d6 68 3d 08 ae 10 3b ec 8b fa 3d 81 2e 8b be
       0.056845576 0.0022076387 0.12233719 -0.27183917
000220 7c a9 56 be 35 d1 07 3e 74 82 c3 bd dc c5 04 3d
       -0.2096309 0.132634 -0.09546366 0.032415256
000230 72 65 34 bb 69 71 1a bd 1f b2 34 be 18 bb 41 be
       -0.0027526286 -0.037705813 -0.17646073 -0.18919027
000240 bb 46 f9 3d a1 d7 9b 3d 6d b0 1b 3e 40 51 a6 3c
       0.12171694 0.07609487 0.1520402 0.020302415
000250 5f 84 9c be 2f ff 48 bd 08 f8 bf bd 69 3d 2c be
       -0.3056974 -0.049071487 -0.0937348 -0.16820301
000260 55 9b 4c be ed f9 4b 3d fa 78 8e 3c ba 44 03 3e
       -0.1998113 0.049798895 0.01739167 0.12819186
000270 83 cb e9 3d fd 19 be 3d c2 a3 e1 bd 0f 31 5a bd
       0.1141577 0.092823006 -0.110175624 -0.053269442
000280 1a e6 6e be 18 a1 dd bd 10 a9 38 be 29 be 14 bd
       -0.23329964 -0.10821742 -0.18033242 -0.036314163
000290 74 f0 f8 3d 61 a8 c1 3d b7 4a 41 be f7 8a 00 3e
       0.12155238 0.09455944 -0.18876158 0.12553011
0002a0 85 6c c1 bd f3 33 d8 3d 65 8c 00 3e 60 0b 4e 3e
       -0.094445266 0.105567835 0.12553556 0.20121527
0002b0 da a1 52 be 2d f6 04 be 84 9b 3e 3e 46 c9 c9 bd
       -0.20569554 -0.12984534 0.18614012 -0.09852843
0002c0 82 93 cd bd e5 db c8 3d 60 3f 38 3e dd 71 eb bd
       -0.100379005 0.098075666 0.17992926 -0.11496327
0002d0 0d 4f b7 bc f6 d4 5b bd d9 d4 80 bd 13 74 ec 3d
       -0.022376562 -0.053669892 -0.062905975 0.11545577
0002e0 c9 7c a2 bc bd 89 32 be 90 cf a5 3c d2 fe 15 3e
       -0.019834893 -0.17435355 0.020240575 0.14647987
0002f0 ae 46 00 3e e5 03 09 3e d3 c7 ad bb e9 69 b4 3d
       0.12526962 0.13380392 -0.005303362 0.08809263
000300 fd 36 20 3e 74 dc e9 3b c2 9e 61 be c0 e1 55 be
       0.15645976 0.0071368758 -0.22033218 -0.20886898
000310 e0 6d 0c be 83 5b 38 3e c0 68 27 3e 74 61 dc 3d
       -0.13713789 0.18003659 0.16348553 0.10760775

shared2.weight f4 [200, 200]
000000 3d bc fa bc 78 3b 6c bc 68 13 13 3e a2 8d 2b 3d
       -0.030607337 -0.014418475 0.14362872 0.04188312
000010 4c 78 ca bd 04 3b 05 bc 59 c2 e9 3d 24 f6 c9 3d
       -0.09886226 -0.008131746 0.11414022 0.09861401
000020 aa b2 57 3d cb 10 ba 3d eb ca 84 3d 28 36 9b bd
       0.05266062 0.09085234 0.06484016 -0.07578689
000030 9a 23 28 3e 7a d8 04 bc 6d 3b 0e 3d c0 e3 0c 3a
       0.16419831 -0.008108253 0.03472464 0.00053745136
000040 97 d4 27 bc 0e da a2 3d 57 2d cb 3d cc 9c 02 3d
       -0.010243556 0.07951747 0.09920757 0.031887814
000050 dc d9 42 3d 46 a7 d6 bd da 01 82 3d 12 c8 a5 3c
       0.04757105 -0.104811236 0.063480094 0.020237003
000060 c4 61 10 bd c9 8c cb 3d 6c 5e 37 bd 1e 1b ec bc
       -0.035249487 0.09938962 -0.044767782 -0.028821524
000070 67 07 24 3d 6a 5d 71 bc e7 d9 18 3e 03 df 9c 3d
       0.040046122 -0.014731744 0.14926873 0.076597236
000080 05 95 c8 3b 9a b5 dc 3d fe b8 15 3e e0 2b 04 3a
       0.00612128 0.10776825 0.1462135 0.0005041938
000090 b7 8b 05 3e fb 5a 8d bc 98 38 8a 3d a2 d9 b1 3c
       0.13041578 -0.017255297 0.06749076 0.02171022
0000a0 df 97 83 3d ca 6f 8a bd 3c bb 4b 3e b5 ad 76 bd
       0.064254515 -0.06759603 0.19895643 -0.060224254
0000b0 f1 cc 67 3d eb f2 13 bc ae 3b 98 bd 04 2f 94 bd
       0.05659193 -0.009030084 -0.07433258 -0.0723553
0000c0 44 1d 3f 3d 26 5f fb bc 1a 03 ba 3d ee 48 b3 bd
       0.04665877 -0.030685019 0.09082623 -0.087541446
0000d0 89 9c fa bd b0 7d 94 bd 09 93 9d bd 8b 2d 3e 3e
       -0.12236888 -0.072505355 -0.0769406 0.18572061
0000e0 23 95 56 3e bc 0b 3d 3d f2 89 e5 3d cc a0 a0 3d
       0.20955329 0.04615377 0.112079516 0.078431696
0000f0 fb 88 95 3d aa 61 11 3c 61 42 ed 3b fd 4c 13 3e
       0.073015176 0.008873383 0.007240579 0.14384837
000100 b3 8e 6b 3d 12 0f 97 bc 86 18 7f bd a8 09 1b 3a
       0.057509135 -0.018439803 -0.062279247 0.00059142197
000110 8b 68 c4 3c f3 2f 32 bd 14 ff ab 3c b3 8f c3 bc
       0.023975631 -0.04350276 0.020995654 -0.023872232
000120 3a 3e ea 3c 0d dd c1 bc 44 c4 b8 3c 45 d1 e6 bd
       0.028594125 -0.023664976 0.022554524 -0.11270384
000130 cf 9d c3 bd 2b fe 62 3d 95 38 ec bc 6e 92 44 bb
       -0.09551584 0.055418175 -0.028835574 -0.0029994505
000140 68 9b 32 3e a2 7a 85 bd 28 c4 1f 3c f3 c6 0f bd
       0.17442095 -0.06517531 0.009751357 -0.035101842
000150 85 45 8f 3c ba cf 67 bd e4 72 d4 bb aa 4d ec bd
       0.017489204 -0.056594588 -0.0064834226 -0.11538251
000160 83 81 93 bc c1 3a 07 bd e2 0c a2 3c dd 86 ab bd
       -0.018006092 -0.033015016 0.019781534 -0.083753325
000170 91 64 08 be 65 22 a4 bb 73 62 de 3c 0d e5 23 3e
       -0.13319613 -0.005008983 0.027146554 0.16005345
000180 4f a6 0e bd 6a b6 71 3d 63 c1 ba 3d 05 c0 f4 bc
       -0.034826573 0.059011854 0.09118917 -0.029876718
000190 0b b5 52 3e af 0e 2f bb 9a 6e 0c 3d f5 ec d6 3d
       0.20576875 -0.0026711633 0.034285165 0.10494415
0001a0 ed e7 8c 3b a0 78 d1 3c ea 59 a4 bd 2e b2 32 bc
       0.0043001086 0.025570214 -0.08024962 -0.010906739
0001b0 7f bb 9c 3c ef 7e fe 3d 40 0f 41 3e 8c 0a a8 bc
       0.019132374 0.124265544 0.18853474 -0.020512842
0001c0 80 bf 77 3d f1 f7 6f 3c 9d 53 e4 3b 9f 18 9b bd
       0.060485363 0.014646516 0.0069679753 -0.075730555
0001d0 df b7 db 3c 64 18 70 3d 73 b4 01 3e d5 99 cc 3d
       0.026821075 0.05861701 0.12666492 0.09990279
0001e0 ef 0a c0 3d f9 46 19 bb 5a e7 06 be 3f 8e 6e bd
       0.093770854 -0.002338825 -0.13174191 -0.058241125
0001f0 a6 ec 78 bd a6 18 9e 3d 5f dc 91 3d df f2 ab 3b
       -0.06077256 0.07719545 0.071221106 0.0052474583
000200 c6 ec 04 bd 88 16 5d bc 6b c3 b8 3c 42 d7 c4 3d
       -0.032452367 -0.013494141 0.02255412 0.0961137
000210 d0 f1 20 3e ff e6 6f bd 6c 16 4f 3d 77 2c dd 3d
       0.15717244 -0.058569904 0.050558493 0.107994966
000220 5f 42 9e bd 3d 38 bb 3d 6f 42 af bd 7e b8 95 3d
       -0.07727503 0.09141586 -0.08557593 0.0731058
000230 90 3b 20 3c 3f d3 64 bd ec bf f3 3d 9a d1 65 bb
       0.009779826 -0.055865522 0.119018406 -0.003506756
000240 57 d1 a1 3d bc 01 1d bd 0e 88 aa bc 53 d6 e5 bc
       0.079012565 -0.038331732 -0.020816829 -0.0280563
000250 22 ce 2f bd 53 e3 03 be 8a fe 9c 3d 0e c2 94 bc
       -0.042921193 -0.12879686 0.07665737 -0.018158939
000260 28 7c 49 3d 25 00 00 3e 1c 35 71 bd 22 8d 5b bd
       0.04919067 0.12500055 -0.05888854 -0.05360139
000270 46 35 84 bd d6 a7 af bd 71 26 61 3d b0 16 4b bd
       -0.064554736 -0.08576934 0.0549683 -0.049582183
000280 9b f4 bb 3c 71 76 4b 3c 4f 45 7a bd d4 13 7a 3c
       0.022943785 0.012418375 -0.061101254 0.015263516
000290 37 b5 08 bd 5f 6e cc bd 77 97 58 bd 31 66 04 bd
       -0.033375945 -0.09981989 -0.052878823 -0.03232402
0002a0 7d d4 50 3c c3 f2 5f 3c c6 bd bb 3d d9 40 83 3d
       0.012745974 0.013668719 0.09167056 0.06408853
0002b0 81 99 a6 3d fa 48 ae 3d 83 c9 3e 3e 1f e8 0c 3d
       0.08134747 0.08510013 0.18631558 0.034401055
0002c0 ff 3e eb 3d 1e 34 f2 bd a9 57 94 bd 5c 90 ab bc
       0.11486625 -0.11826347 -0.07243282 -0.02094286
0002d0 a5 2c cc bc 71 d0 91 bd 10 b4 7f bc 3d e9 de bd
       -0.024923632 -0.07119835 -0.015606895 -0.108843304
0002e0 db 26 5d 3d 96 40 df 3d 28 0e cf bd 2d cc 1b bd
       0.053992134 0.10900991 -0.10110122 -0.038036514
0002f0 98 63 27 3e 6e 18 3b bd 40 d8 f8 3d d7 30 e1 bc
       0.16346586 -0.045677595 0.121506214 -0.027489109
000300 79 d5 26 3d 09 cf 80 bd 6d b6 73 bb 37 4c 99 bc
       0.040730927 -0.06289489 -0.0037187592 -0.0187131
000310 93 2e 85 3d 43 28 98 bc 48 b0 ed 3d 38 f7 31 bc
       0.06503024 -0.018573886 0.116058886 -0.010862164
000320 17 ae 0e 3d ab d2 1b bd bc b2 20 bd cc cc a1 bd
       0.034833994 -0.038042706 -0.039232954 -0.0790039
000330 67 e6 06 be e6 b8 59 3d 3e 86 18 bd c5 03 89 3d
       -0.13173829 0.05315485 -0.0372374 0.06690172
000340 68 1f 4e bd 6c e1 c3 3d b9 dc 61 be 5b ba 3e 3d
       -0.05032292 0.0956448 -0.22056855 0.04656444
000350 ff 3e b9 3b 70 6f 71 bd 67 72 08 3b ab a9 d4 bd
       0.0056532617 -0.058944166 0.0020820142 -0.10383924
000360 74 9b 5b 3d 7a f9 5c 3d 03 48 f7 bb b2 8e 0e 3b
       0.05361505 0.053948857 -0.0075464263 0.0021752534
000370 f7 61 7a 3c 81 38 cc 3d a2 b1 32 3d b3 56 df bd
       0.015282146 0.09971715 0.043626435 -0.109052084
000380 34 1a 6a bd f2 a1 ca 3d 41 50 34 ba 2d 79 12 bd
       -0.057153895 0.0989417 -0.0006878414 -0.035760093
000390 33 b9 e3 bd 7b e5 f1 bd 56 57 84 3d 09 f9 e0 3c
       -0.11119308 -0.11811348 0.064619705 0.0274625
0003a0 30 62 23 bd 98 eb fb bd 22 a4 ee bd 37 29 24 3c
       -0.03988856 -0.12300795 -0.116523996 0.010019592
0003b0 f3 ca 01 3e 95 23 b8 bd cb f1 83 bd aa d6 80 3d
       0.12675075 -0.08991162 -0.06442603 0.06290944
0003c0 c3 e0 ea 3c 23 ce b4 3c 2a 24 4f bd 36 53 05 be
       0.028671628 0.02207095 -0.050571598 -0.13020024
0003d0 d5 64 c5 bd 6a 46 c0 bd d7 bd 57 3d 25 e3 d5 3c
       -0.09638373 -0.093884304 0.05267128 0.026109288
0003e0 71 ab 9e bd 15 a0 f5 3d 4a 19 fb bd 6d 76 38 bd
       -0.077475436 0.11993424 -0.12260683 -0.045034815
0003f0 d3 c1 29 bd 24 ed 36 bb 08 de 10 be 12 78 76 3c
       -0.04144461 -0.0027912343 -0.14147198 0.015043275

shared2.bias f4 [200]
000000 de 6c 07 3d 3c ab 15 bd 8c 5e 58 bd 9f 7b 7d bc
       0.03306281 -0.036540255 -0.052824542 -0.015471368
000010 3d 0f 21 bd 49 65 17 3d 05 5c 42 bd e2 e6 d0 3c
       -0.039321173 0.036961827 -0.047451038 0.025500719
000020 a2 6d 29 3d 92 e8 57 bc a8 99 9b 3c 02 fd 43 bb
       0.04136432 -0.013178008 0.018994167 -0.0029905443
000030 97 f6 2e bd fb 41 c0 bc 14 b2 58 bd a8 cb 5e bd
       -0.042715635 -0.023468962 -0.052904204 -0.05439344
000040 f9 a3 d4 3c b6 e8 f4 bd 9e b1 dc bc d6 10 01 bd
       0.025957095 -0.119584486 -0.026940163 -0.031510197
000050 26 7c 27 bd 77 96 79 bc 73 29 e6 bc 1e 14 5b 3c
       -0.04088988 -0.0152336275 -0.028095936 0.0133714955
000060 01 7d af 3d f9 4c 17 bd 0a 8c 7e bb 97 f0 63 bc
       0.085687645 -0.03693864 -0.0038840794 -0.013912342
000070 bf 5d b8 bc c4 5d 8a bd 9b fa 81 bd 82 ad b3 bd
       -0.02250564 -0.067561656 -0.06346627 -0.08773328
000080 23 b9 07 be ad 82 a9 bc 52 80 6a 3c a8 14 a0 bd
       -0.13254218 -0.020692194 0.0143128205 -0.0781644
000090 62 d7 76 bd 91 1a 29 bd 95 69 fd bd fe c2 37 3d
       -0.060264 -0.0412851 -0.12373654 0.044863693
0000a0 6e c4 40 bd 66 5d 83 bd 96 96 e0 bc fe ff 94 bd
       -0.04706233 -0.06414299 -0.027415555 -0.07275389
0000b0 06 97 6d bd 56 ef ed bb 6b 8c ae bd 1e df 1d bd
       -0.058005355 -0.007261197 -0.08522876 -0.03854286
0000c0 cf f3 47 bd 7e fc 97 bc 76 c2 a4 bc 90 90 3c 3d
       -0.0488165 -0.018553015 -0.020112257 0.046036303
0000d0 a4 47 8f bd 0f ba 45 3d 22 b8 cb 3c ab 6f 1f bd
       -0.06996086 0.048273142 0.024868075 -0.038924854
0000e0 aa 4c 97 bc 82 79 b3 3c 58 b3 c4 bd 3b e8 1a be
       -0.018469173 0.021908525 -0.096045196 -0.15127651
0000f0 c2 41 e6 bc 3d fc f3 3c bb 67 92 bd 3f f1 02 be
       -0.028107528 0.029783363 -0.07148691 -0.1278734
000100 95 e6 26 bc 07 97 c4 3c c9 db 7e 3c d6 81 b3 bd
       -0.010186811 0.023997797 0.015555331 -0.087649986
000110 fb 45 2e 3c 5d 00 b8 bd c5 d8 e0 bd 5a 50 39 3d
       0.010636802 -0.08984444 -0.109788455 0.045242645
000120 71 9e 9c bd d6 eb c7 bd 34 1b f2 3c c1 e1 03 be
       -0.07647408 -0.09761779 0.029553987 -0.12879087
000130 8a 75 6b bc a7 c5 83 3d a4 54 d7 bd f9 7b e3 bd
       -0.014371285 0.064341836 -0.10514191 -0.1110763
000140 ed f7 bb bd 9d 47 c0 3c 01 8c 59 bd 41 b3 a2 bc
       -0.091781475 0.023471648 -0.053112034 -0.019860866
000150 d3 9d e9 bc 02 16 4b bd 9c b3 8a bd 94 1f 17 bd
       -0.02851764 -0.049581535 -0.06772539 -0.03689535
000160 0a a2 f2 3c a5 80 3f 3d 6f 89 bc bd 54 60 1e bd
       0.029618282 0.046753544 -0.09205901 -0.038666084
000170 ca 3c c5 bc 78 ff 56 bd 4a cb a5 3b b5 d3 98 bd
       -0.024076838 -0.052489728 0.0050596343 -0.07462255
000180 d4 f7 6e 3d 8a 4d c5 3b e8 2c 28 3d 19 e4 25 3d
       0.058341816 0.0060212063 0.04105845 0.040500734
000190 c8 ef 16 bc 96 7a 20 bc 1c 2a b2 bd 0e d6 23 bd
       -0.009212442 -0.009794852 -0.08699438 -0.03999906
0001a0 cc 05 b7 3d 9c 57 49 3c 92 62 5d bc 11 b3 b7 bd
       0.089366525 0.012288954 -0.0135122705 -0.08969701
0001b0 01 1d c6 3a 1c fa cb bd f5 8f b3 bd 3d 73 3c bd
       0.0015114845 -0.09959814 -0.08767692 -0.046008337
0001c0 8a 6d 05 be 82 14 49 bd b7 75 ab bd 6b df 9e bc
       -0.13030067 -0.049091823 -0.08372062 -0.019393643
0001d0 f9 39 0e 3c 4f d1 0f bd 54 57 ec bb ea ea 23 3d
       0.008680814 -0.03511172 -0.0072125588 0.040018953
0001e0 a5 12 4e 3d 38 51 f5 bd 46 7f 2e bd b3 a2 1f 3d
       0.05031075 -0.11978382 -0.042601846 0.03897352
0001f0 4f d3 a2 bd 6a ec 43 bd 72 fe c3 bd 96 cd c1 bd
       -0.0795046 -0.047832884 -0.09570016 -0.094630405
000200 7f 16 0b 3c 7b 1f 5e bd 8a 47 98 bd e0 2a ea 3c
       0.00848925 -0.05422924 -0.0743552 0.028584898
000210 aa 12 8e 3c 0c 7e 74 bd ee 68 c2 bb 65 ec a8 bd
       0.017342884 -0.05969052 -0.0059329187 -0.08248214
000220 02 5b 45 bd 06 7f 55 bd d4 d6 c8 bd 79 1f f4 3c
       -0.048182495 -0.052123092 -0.098066 0.029800164
000230 dd c9 c5 bc 6d 9e 6d 3c 88 b9 7f bd 68 53 aa bd
       -0.024144107 0.014503104 -0.062432796 -0.0831669
000240 8e c8 11 bd e8 9f e3 bb 4b 6e 8a bc 45 64 3e ba
       -0.035591654 -0.0069465525 -0.016898295 -0.0007262866
000250 45 8f 77 bd 6c ec 94 3b 65 fe 94 3d a6 0e bb bb
       -0.060439367 0.0045447852 0.072750844 -0.0057085333
000260 80 a1 ab bc 38 7a 58 3c 9c e7 da bc ca 10 c7 bd
       -0.020951033 0.013212733 -0.026721768 -0.09719999
000270 9c 92 fc 3c 99 a1 03 3d cf 1f 5e 3c 67 ab d9 bd
       0.030831628 0.032136533 0.013557388 -0.106283955
000280 2e bb 8e bd c6 04 ab bd fa 54 be 3c b8 54 57 3c
       -0.069692954 -0.0835052 0.02323388 0.013142757
000290 85 3a 20 3d d0 fa 13 bd a1 28 75 bd 6d b1 1a 3c
       0.03911831 -0.036127865 -0.0598532 0.009441716
0002a0 ac 20 27 3d 1d e5 e1 bc 0c 7c 1e bc f9 4f 8a bd
       0.040802643 -0.02757507 -0.00967313 -0.06753535
0002b0 30 84 e9 bc 5b 6a e1 bd 60 23 bc bc 07 d1 c6 bd
       -0.028505415 -0.11006614 -0.022966087 -0.097078376
0002c0 b3 33 68 3c 42 98 06 bd eb 1b a3 bb db cf ee bd
       0.014172482 -0.032860048 -0.0049776933 -0.11660739
0002d0 db 7d d4 bc a1 a9 9e 3d 29 71 f4 bd 14 7a 3f 3d
       -0.025938919 0.07747198 -0.11935646 0.046747282
0002e0 57 8a 4b bc e8 fb 36 3d 83 81 10 3d 0e d6 cc bd
       -0.0124231195 0.04467383 0.035279762 -0.10001765
0002f0 cd ff 07 3d 5d ae cd bd 31 a3 86 bd 0a b3 d3 bd
       0.033202935 -0.10043023 -0.06574095 -0.10336883
000300 ff de 4f 3d f3 27 a5 bd 94 3c 89 bc bf 27 42 bd
       0.050749775 -0.0806426 -0.016752519 -0.047401186
000310 ee 64 7a 3c e6 64 c1 bd 9a f1 aa bd ac b5 82 bc
       0.015282853 -0.09443073 -0.08346863 -0.015955769

hidden1_Y1.weight f4 [200, 200]
000000 88 e4 6b 3d 4b e1 1f bd 3a ac c2 bc a4 85 b9 bd
       0.05759099 -0.039033215 -0.023763765 -0.09058693
000010 ea 9a c8 3d 6f d2 da 3c 3c 14 ba 3d f0 93 99 3a
       0.097951725 0.02671167 0.09085891 0.0011717062
000020 fb 17 a5 bd a6 10 35 3d c7 49 b9 3b 66 c7 d0 bd
       -0.080612145 0.04420533 0.005654547 -0.10194282
000030 69 8b 6f bd 4b a8 bf 3d 2f c7 a0 3d ea 68 08 bd
       -0.05848256 0.09358271 0.07850491 -0.03330318
000040 ed 01 a3 bd 82 77 d6 bc ab 8f ab 3d fa 51 87 3c
       -0.07959352 -0.026180033 0.08377012 0.016518582
000050 69 a8 fa 3c a6 c2 ae bd 64 ea e5 bd 14 75 d4 3d
       0.030597882 -0.0853322 -0.11226347 0.103738934
000060 f8 f8 37 3c 88 04 23 3c a7 2b 9a bd a2 26 01 bc
       0.011228792 0.009949811 -0.07527857 -0.007882746
000070 4b 52 cb bd 96 4e 51 bd ae a4 73 3d 8e 64 02 3d
       -0.099278055 -0.051100336 0.059483223 0.031834178
000080 84 df d6 bd d1 b9 9d 3d 0a 2b df 3d 37 0f d1 bd
       -0.10491851 0.07701457 0.10896881 -0.1020798
000090 99 0a 19 3d 16 b0 f3 3d 17 22 f0 3d 85 df cd 3b
       0.037363622 0.1189882 0.11725252 0.006282749
0000a0 a6 66 63 3d 40 0c ed bc c4 61 6b bd 07 47 fd bd
       0.055517815 -0.028936505 -0.057466283 -0.12367063
0000b0 6f d6 e7 3d e7 29 09 3d b6 92 5d bd 73 ba eb 3d
       0.11320197 0.033487227 -0.054094993 0.11510172
0000c0 f4 6a 00 3e b2 0c ce bd 8c e5 1c bd fe 86 e0 bc
       0.125408 -0.10061015 -0.03830485 -0.02740812
0000d0 50 b5 0d bd 2a 86 4f bc ca 46 e6 bd d3 a7 bb 3d
       -0.03459674 -0.012666265 -0.11243971 0.09162869
0000e0 a6 bd d8 3d 9e 2b 1a 3d fc 7b df 3d ef 22 30 3d
       0.105830476 0.037639253 0.1091232 0.043002065
0000f0 e8 c0 2f bd 69 cb a3 3d cf 91 02 3e 63 f8 97 bc
       -0.04290858 0.07997782 0.12750934 -0.018551057
000100 45 d5 17 bb cd 8c ca 3d 57 d9 aa 3d f0 c0 dc 3d
       -0.002316789 0.09890137 0.083422355 0.107789874
000110 bb 17 89 bb 7d 9b a9 bd bb 55 d2 bd 71 ce f4 3c
       -0.004183737 -0.0828161 -0.10270258 0.029883595
000120 d2 5f 48 bc 0b c6 50 3d 86 b9 78 3b df 35 87 3d
       -0.012229877 0.05097012 0.0037952377 0.06602072
000130 62 a8 f5 bd a4 95 0f bd 2f 28 de bd 2a 5d a3 3d
       -0.11995007 -0.035054818 -0.10847508 0.07976754
000140 4e e6 82 3d 61 f1 61 bd 7b 33 de 3c f7 8d ca 3d
       0.063915834 -0.055161837 0.027124157 0.09890359
000150 1c df 99 bd 3f 03 5d bd 0e 57 c4 bd e9 93 de bc
       -0.07513258 -0.053958174 -0.09586917 -0.027170138
000160 26 ab 9c bd 0c 88 df bd c4 42 79 bd 60 99 92 bd
       -0.076498315 -0.10914621 -0.06085469 -0.0715816
000170 23 2e 84 3d a2 db 8f bd 43 97 ae bd 4f 00 92 3d
       0.064541124 -0.070243135 -0.08524945 0.07128965
000180 68 2b 3b 3d 1f f4 cb 3d d8 ae e3 bc a1 56 7b bb
       0.045695692 0.09958672 -0.027793333 -0.0038351195
000190 a8 c1 69 3d 98 4c 10 3d f0 9f 0b be 25 53 8e bb
       0.05706945 0.035229295 -0.1363523 -0.0043434077
0001a0 fc 9d 10 3e 2c 82 98 3d 2d b3 ad bd 64 86 07 3d
       0.14122766 0.07446703 -0.08481441 0.03308715
0001b0 32 6f 41 bd 66 10 e1 bd 13 cb 02 bd 41 8b b7 bc
       -0.047225185 -0.10989456 -0.031931948 -0.022405269
0001c0 44 dc c1 3d 80 f1 0d bd 9f 4d b1 bc ec b3 0a 3d
       0.094658405 -0.03465414 -0.021643458 0.033862993
0001d0 a2 cc 9d bd 53 e6 c9 bc 49 9c 5e 3c f3 e8 eb bb
       -0.07705046 -0.02464596 0.013587066 -0.0071994006
0001e0 d5 ba af 3d ef 81 1f 3c c4 d5 5f 3d 18 2b 8b bd
       0.08580557 0.009735568 0.054647222 -0.06795329
0001f0 29 00 21 3c d9 00 58 ba 16 c3 23 bb 14 51 1c 3d
       0.009826698 -0.00082398724 -0.0024988106 0.03816326
000200 2e 36 e9 bd 50 d5 57 bd 6f df 1a 3d e8 17 5f bd
       -0.11387287 -0.052693665 0.03781074 -0.05446616
000210 ad e8 6d bb 34 e0 11 3d cf 22 24 3d 89 23 29 3d
       -0.0036302016 0.035614207 0.04007226 0.041293655
000220 98 4b bf bd d6 d4 dd 3d 3f 7b 8a 3c d6 e3 8b 3d
       -0.0934059 0.10831611 0.016904471 0.06830566
000230 6d 03 9e 3d 25 cf da 3d 0d 3a 9d 3d c3 21 07 be
       0.07715497 0.10684041 0.07677088 -0.13196473
000240 2a 42 90 3d 9e 2d 60 3d 65 b8 97 bc 10 1e b2 bd
       0.0704387 0.054731004 -0.018520543 -0.0869714
000250 71 d2 0f 3e 6f 66 e3 3d 31 51 86 bc 26 80 b2 bd
       0.14045121 0.11103522 -0.016396137 -0.087158486
000260 04 29 19 bd aa 03 52 bd b7 0d 35 b8 47 b7 d3 3d
       -0.03739263 -0.051273026 -4.3166536e-05 0.10337692
000270 f8 d4 df 3d 34 36 99 3d 39 6f 77 bd 9a 4d a6 3d
       0.109292924 0.074810416 -0.060408805 0.0812027
000280 1f c3 c1 bd d0 ae b1 3c 9c 31 d8 3a 8e b2 03 bc
       -0.094610445 0.021689802 0.0016494277 -0.008038176
000290 f6 80 66 bd b6 c3 20 3d c9 3d ce bd 25 cb a6 3c
       -0.05627533 0.039249144 -0.10070378 0.020360539
0002a0 9f 6a 94 3d 83 ab 2e bd a2 d3 f4 3d 3c ed 7a bc
       0.07246899 -0.042644035 0.11954428 -0.01531535
0002b0 48 d3 8b b9 b8 09 28 3d 67 cb c1 bd 12 6c f0 bd
       -0.00026669563 0.041024894 -0.09462624 -0.11739363
0002c0 17 08 82 3d 0d 0b d8 3d 42 7b 9a bd 84 94 b1 3c
       0.06349199 0.10548983 -0.07543041 0.021677263
0002d0 3c 0b c0 bd 61 2d 8e bd 7a 51 d2 bd be 30 e4 3d
       -0.09377143 -0.06942249 -0.10269447 0.11142109
0002e0 ad b9 8c 3d 73 5d 27 bd 85 d5 b5 bd b3 d1 c2 3c
       0.06871352 -0.040860604 -0.08878616 0.023781633
0002f0 c2 39 94 bd b8 dd 31 3d 9c d8 b6 bd 37 b9 92 3c
       -0.07237579 0.043424338 -0.08928034 0.017910583
000300 3a 90 ab bc 1a 96 c6 3d 88 24 63 3d 42 e9 bf 3d
       -0.020942796 0.09696598 0.05545476 0.09370662
000310 3d a2 d5 bd 7c 35 b7 3d 00 d7 16 bd a3 36 34 bd
       -0.10431335 0.08945748 -0.036826134 -0.043997418
000320 80 68 33 bd 0a 15 47 bb 91 8b fd bd 92 3e 29 3c
       -0.04380083 -0.003037753 -0.12380136 0.010329859
000330 6e 85 06 3d 08 b2 48 3d d0 68 c3 3d b7 be ba 3c
       0.032842092 0.04899791 0.09541476 0.022796018
000340 b8 3c af ba 0d ff d3 bd 3d 57 87 3d ef b4 01 be
       -0.0013369536 -0.103513815 0.06608436 -0.12666677
000350 00 e5 35 3c ee 62 04 3d b5 80 0d 3d a1 9a c3 bc
       0.011101961 0.03232091 0.034546573 -0.023877444
000360 06 f1 b3 3d 09 ac e4 3d bc df a1 3d e1 01 fc bd
       0.08786206 0.111656256 0.07904002 -0.12305046
000370 40 04 4a 3d 4a 26 d6 bd 27 61 ba bc da 8e 94 3c
       0.04932046 -0.10456522 -0.022751404 0.018134523
000380 98 7d 51 bd b3 63 7d bd 05 84 e8 3d 57 49 92 3d
       -0.051145166 -0.06186266 0.11353306 0.07142895
000390 93 08 b7 bd 7c 6a bc 3d 9c eb ad 3d cd a4 d4 bd
       -0.08937182 0.09199998 0.084922045 -0.10382996
0003a0 b1 40 0c 3c 18 2d c5 bd e3 f7 0e 3d f6 63 6c bd
       0.0085603455 -0.096277416 0.034904372 -0.057712518
0003b0 f5 98 03 bd 4c 40 aa bb 1f 1c cc bd a2 3d bf 3d
       -0.032128293 -0.005195653 -0.09966301 0.093379274
0003c0 e8 73 10 3d 1d eb 1b bd 73 7b c8 bd 5c da 87 3c
       0.035266787 -0.03806602 -0.09789171 0.016583614
0003d0 22 8e 30 3d 22 05 75 bd 00 a2 c3 3d 7c d3 b7 3d
       0.0431043 -0.05981935 0.095523834 0.08975884
0003e0 fb 8f 37 3d de f4 ed bd cd 9f 37 bd 2d 77 19 bb
       0.044815045 -0.1161897 -0.044830132 -0.0023416982
0003f0 15 fa 62 3d 49 b3 e0 bd f4 ab c2 3c 3b a3 18 3d
       0.055414278 -0.10971696 0.023763634 0.037265044

hidden1_Y1.bias f4 [200]
000000 2a 78 e6 3c 7c 16 18 3c ab 60 ea 3b da 0b 61 3d
       0.02813347 0.009282704 0.007152637 0.054942943
000010 11 5d 85 3c 5c 8f b2 3c 60 50 42 3d c3 c9 ce bc
       0.01627973 0.021796875 0.047439933 -0.025242692
000020 c7 8a f3 3c 99 9c cf 3c 53 57 cc bb 9a 3e aa 3d
       0.02972926 0.025343226 -0.006235996 0.083127216
000030 84 51 a6 bc 09 21 0b 3d 30 19 c2 bc 61 6a 7a bd
       -0.020302542 0.03396705 -0.023693651 -0.061136607
000040 74 f9 22 bc 7b 97 06 bd 95 88 de bc f6 d8 61 bc
       -0.00994717 -0.032859307 -0.027164737 -0.013784638
000050 9b 80 83 3b f3 ea 29 bd 56 22 8c 3c 1d 45 68 bc
       0.0040131337 -0.04148383 0.017106216 -0.014176634
000060 0b 2a 10 bd 59 62 7f 3d 8a 56 bd bc 75 7a a1 bd
       -0.035196345 0.06234965 -0.023112554 -0.07884685
000070 d3 ee d6 3b 86 61 60 3d 46 d4 05 bd c7 95 69 3d
       0.006559232 0.054780506 -0.032673143 0.057027604
000080 0e d5 9c 3c ca a1 db bc 50 e8 24 bd f2 c9 dd bc
       0.019144561 -0.026810545 -0.040260613 -0.027073834
000090 0e f7 ac 3c 80 5e 84 bd ba bd 1d 3d 95 21 2c 3d
       0.021113899 -0.06463337 0.038511015 0.042024214
0000a0 3c 62 24 3d 9a b2 f0 3c a4 df 38 bd 1c d0 c2 bc
       0.040132746 0.029382039 -0.045135155 -0.023780875
0000b0 ea 21 17 3d 10 08 f7 bc 90 e8 6b bd bd 65 4f bd
       0.036897577 -0.030155212 -0.057594836 -0.050634135
0000c0 64 d3 80 3d 9d 37 ca bc 8a 0f 9c bd df 58 c7 3c
       0.062903196 -0.024684722 -0.07620151 0.02433437
0000d0 d0 12 35 bc 12 88 cd 3c 73 e8 94 3d a0 96 8a bd
       -0.0110518485 0.025089297 0.07270899 -0.06767011
0000e0 e6 29 03 3c 8b 0a 4a 3d a0 b7 83 3d 46 9b 2e 3c
       0.008005595 0.04932646 0.06431508 0.010657137
0000f0 94 90 d1 3c ed 5b 63 3d 72 f4 33 3d 64 3f e8 3c
       0.025581636 0.05550759 0.043934293 0.02835054
000100 b2 0e 30 bd 11 df 8d bd ae 8e 94 bc 67 1a 20 3d
       -0.042982765 -0.06927312 -0.018134441 0.03908768
000110 8f 8c 7c bd 50 72 51 3d 79 26 4f 3d ce 85 8f 3d
       -0.061657485 0.051134408 0.0505738 0.07007943
000120 28 f6 9d bd 75 15 07 3d 3f 49 3e 3d 79 43 1d bd
       -0.07712966 0.032979447 0.04645657 -0.038394425
000130 fd a9 d7 3c c9 cb 82 3c dd 57 3e 3c 13 9d 5b bd
       0.026326174 0.015966313 0.011617628 -0.053616595
000140 db c2 5c 3d 84 67 5b 3d bc 05 7b bd 4e 5d 6a bc
       0.053896766 0.053565517 -0.061284766 -0.014304472
000150 01 15 12 3d 89 7c 05 bd f4 90 6c 3d 57 e1 32 bc
       0.035664562 -0.03258947 0.057755426 -0.010917983
000160 cf 70 23 bd b7 40 84 bc 1a 9f d7 bc 0b c1 7b 3d
       -0.039902505 -0.01614414 -0.026320983 0.061463397
000170 59 9b a0 bc ff 3c dc 39 0e 36 fc 3c 66 a1 14 3d
       -0.019605326 0.00042007116 0.030787494 0.036286734
000180 d6 66 5a 3d 3a 6d c3 bc 0a ca 83 bc f2 0c 20 3d
       0.05332073 -0.023855794 -0.01608755 0.039074846
000190 39 02 29 3d 4d f8 f8 bb c5 95 3a bd cf 1d 6c bd
       0.041261885 -0.007597959 -0.045552988 -0.057645615
0001a0 c7 88 51 3b 93 47 1b 3c 12 45 36 3d 78 bd 2f bd
       0.0031972395 0.009477514 0.044499464 -0.0429053
0001b0 90 82 16 3d 5a 66 94 bc 89 e4 1a bd 61 ae 9e bd
       0.036745608 -0.018115211 -0.037815604 -0.07748104
0001c0 64 1f 6b 3d e1 4b c1 ba c8 8d cc bc c5 2e 24 bd
       0.057402983 -0.0014747345 -0.02496995 -0.040083665
0001d0 20 b4 1d bd 82 0b e4 bb 30 2e 30 3a 64 0f f6 3c
       -0.03850186 -0.0069593797 0.00067207497 0.030036636
0001e0 c6 13 00 3d c0 72 b0 bc 41 d1 3e bd 7c 2e d4 3c
       0.031268857 -0.021539092 -0.04658628 0.025901072
0001f0 9f 36 46 bc 6f 1a 3e bd 5f 3d c7 3c d3 5a 45 bc
       -0.012097984 -0.046411928 0.024321256 -0.01204558
000200 30 c4 d6 bb 20 68 8e 3c 4e 05 6d 3d 64 3f 85 bc
       -0.006554149 0.017383635 0.057866387 -0.016265579
000210 24 1f 86 3d 6c 47 bd 3b b5 39 51 bd d6 1c 86 3a
       0.06548908 0.0057763364 -0.051080424 0.0010231982
000220 ea 1d 62 bd 20 ba c5 bb da c1 51 bd 82 6f 80 bd
       -0.05520431 -0.0060341507 -0.051210262 -0.062712684
000230 11 40 b2 bc 73 37 28 bb e3 06 5d 3d 6a 00 88 bd
       -0.021759065 -0.0025667816 0.053961646 -0.06640704
000240 aa ad fa 3b 02 73 49 3d 03 0c 8f ba aa ae 15 bd
       0.007650097 0.049181946 -0.0010913614 -0.036543526
000250 4d 44 37 3d a9 40 c1 3b 31 7f 54 b9 ef 2b 4d bd
       0.04474287 0.0058976007 -0.00020265278 -0.050090726
000260 13 fe 1e 3d 79 3f 7d bd fe 95 b0 3c ec 8b 4d 3d
       0.038816523 -0.06182811 0.021555897 0.050182268
000270 6d 5d 13 bb c5 db 18 3d 58 30 f6 bc 9d 58 00 3d
       -0.0022486106 0.037318964 -0.030052349 0.03133451
000280 14 41 47 bd 55 49 0a 3d 33 7c e3 bc a7 24 bc 3c
       -0.048646048 0.03376134 -0.027769184 0.022966696
000290 e2 26 22 3d 26 0a 10 bd bc b9 6c bd 01 fd 36 3b
       0.039587863 -0.03516593 -0.057794318 0.0027921798
0002a0 2c 32 bd 3c 53 6b fe 3c a2 af 71 bd d0 a3 68 3d
       0.023095213 0.031057036 -0.059005387 0.05679685
0002b0 81 fc ba 3c c0 aa 69 3d d9 16 a1 bd 3f 35 72 3d
       0.022825481 0.057047606 -0.07865686 0.05913281
0002c0 35 6e 6b bd a8 3e 6d bc 28 11 a4 bc 5a 41 dd bc
       -0.05747815 -0.01448027 -0.020027712 -0.027008701
0002d0 a5 6f 1e 3d 14 40 18 3d 4a 66 99 bd c9 95 cd 3b
       0.03868069 0.037170485 -0.07490213 0.0062739593
0002e0 c9 06 14 bd 67 e5 f6 bc 26 98 0c bd 39 23 75 3d
       -0.036139283 -0.030138684 -0.034324788 0.059848044
0002f0 06 49 d0 3c 35 6b a0 ba 06 b6 19 3d 75 e0 26 3d
       0.025425445 -0.0012238981 0.037527107 0.040741403
000300 3d 60 1f bd df 46 a2 bd 71 d5 80 3c 06 61 50 bd
       -0.03891014 -0.07923674 0.015726777 -0.05087378
000310 5d 05 b5 3b 17 fe d6 3c 66 40 01 3d 8a af 3b 3d
       0.005524321 0.026244206 0.031555556 0.045821704

hidden2_Y1.weight f4 [200, 200]
000000 6f 43 35 bd 00 ce fd bd 18 78 79 bd de d6 3f bd
       -0.044253763 -0.12392807 -0.060905546 -0.046835773
000010 92 b0 d6 bd e9 1c 87 3d ae d0 a6 bd 53 af 9b bc
       -0.10482897 0.06597311 -0.08145271 -0.0190045
000020 4e 3a 7e bd 55 f0 16 bd 3d 09 35 bc 79 48 d1 3c
       -0.062067322 -0.036850292 -0.011049566 0.025547253
000030 be fd 07 bd a9 09 24 3d 47 10 bb 3d 03 07 a4 3d
       -0.03320097 0.040048275 0.09133964 0.0800915
000040 d8 00 57 3d 92 f0 6e 3c a0 9e de bd e8 46 27 3d
       0.05249104 0.014583724 -0.10870099 0.040839106
000050 03 b2 b8 bb 18 dd 86 bd 79 d2 74 ba 39 b3 a2 bd
       -0.005636455 -0.06585139 -0.0009339224 -0.0794434
000060 0c 3d d9 bd 19 a2 9d 3d 2f a1 f6 3d 56 cc 8e bc
       -0.10607347 0.07696933 0.12042462 -0.01743142
000070 21 3c 4b bd 52 37 91 bd 77 3c 92 bd db 57 08 bd
       -0.04961789 -0.0709063 -0.07140439 -0.03328691
000080 65 6c d0 3c 8e 85 b0 3d e8 d6 18 bd 25 ed 76 3d
       0.025442312 0.086192235 -0.037314326 0.060284752
000090 3f d1 ed bd d8 0e c3 bd 86 b2 a2 bd a9 b2 e8 bd
       -0.11612176 -0.095243156 -0.07944207 -0.11362202
0000a0 d0 00 bf 3d 0a f7 a8 3d c6 2d bd bd 6d b7 b1 bd
       0.09326327 0.08250244 -0.09237246 -0.08677564
0000b0 91 d6 ea bc 79 ed 46 bd b8 75 da bc ab 56 de 3d
       -0.028666766 -0.048566315 -0.02666746 0.10856374
0000c0 27 6e b2 3d bc b7 a4 3d e1 be 89 3d e5 07 26 bd
       0.08712416 0.08042857 0.067258604 -0.040534873
0000d0 a1 dc 4d bd da 07 40 bd 85 10 06 be b7 90 81 bd
       -0.050259236 -0.046882488 -0.13092239 -0.0632643
0000e0 e1 56 e9 bd 23 e2 5d 3c 8d dc 0c bc 40 0c 04 be
       -0.11393524 0.013542685 -0.008597505 -0.12895298
0000f0 79 1c 17 3d cd ba 04 3c 9e a4 f6 bc b6 a2 c0 3d
       0.036892388 0.008101177 -0.030107792 0.09406035
000100 e4 b6 1b 3d 2c 3e f7 bd 34 6b db bd 2c 7a 3a 3d
       0.038016215 -0.12072405 -0.10713807 0.04552667
000110 fc 01 5d 3d dd 60 0b 3d 45 fa 85 3d 33 b3 98 3d
       0.05395697 0.034027923 0.06541876 0.074560545
000120 45 fc 47 3c a4 33 31 3d f6 43 a9 bd 43 83 d5 bd
       0.012206142 0.04326214 -0.08264916 -0.10425427
000130 d9 94 bd ba ee f3 6f bd 54 64 2c 3c 25 b6 2e 3d
       -0.0014463916 -0.05858224 0.010521967 0.042654175
000140 30 57 d4 3d 52 6b 17 bd 70 04 e3 3d 2e 66 92 3c
       0.10368192 -0.036967583 0.11084831 0.017870989
000150 49 de b2 3d bb 30 89 bd ef bf af bd 59 61 6c 3d
       0.08733804 -0.06698748 -0.0858153 0.057710025
000160 35 c6 a8 3c 5b 80 84 bc da 91 ea bd e0 cf 14 bd
       0.020602325 -0.016174486 -0.114536 -0.036331058
000170 9f 4a 4f 3d 23 73 9b bd 8e 17 cc bd 20 77 67 bd
       0.050608274 -0.0759032 -0.0996543 -0.05651009
000180 2e cd 76 3d 1c b8 97 bd b7 98 df 3c 0d dc 0c 3c
       0.06025427 -0.07408163 0.0272945 0.008597386
000190 26 6b 9c 3d 7f 5f 90 bd c0 31 cd 3c 0c ee 7e bb
       0.076376244 -0.070494644 0.025048137 -0.0038899211
0001a0 7b 5d 98 3d c8 c5 ac 3c 5e f2 99 bd 3f d0 cd bd
       0.07439705 0.021090403 -0.07516931 -0.100494854
0001b0 b2 3c 94 3c 25 4b 80 bb 27 c1 41 3d 54 89 a1 bc
       0.018095348 -0.003915208 0.047303345 -0.019718803
0001c0 73 c6 9c bd 73 e7 21 3d c9 89 14 bc 89 56 e0 bc
       -0.07655039 0.039527368 -0.009066054 -0.027385013
0001d0 08 2e 47 bc ad 43 e3 bd c9 10 9d bc f3 55 a6 3d
       -0.012156971 -0.110968925 -0.019173043 0.08121862
0001e0 26 8c ed bd be e6 e0 3d 25 83 b4 bc 0f 64 cc 3c
       -0.11598997 0.109815106 -0.02203519 0.024950055
0001f0 70 df 69 bd 6c 6d b3 3d 01 b3 7f bc d8 70 82 3d
       -0.057097852 0.08761105 -0.015606643 0.063691795
000200 b9 42 92 bd c0 bb e2 3d 5e 01 8f bc 8a dc 0e 3d
       -0.071416326 0.11070967 -0.017456707 0.03487829
000210 26 be c2 3d 80 74 2c 3d 16 83 f9 bd c9 de 9a bb
       0.09508924 0.04210329 -0.12183206 -0.004726265
000220 13 dc ff 3b 54 d7 e3 3d 38 02 c7 bc fd ca 35 3c
       0.0078082173 0.11125055 -0.02429305 0.011095759
000230 8a 03 36 bc 30 3e 0d bd ac 4c 0d bd c9 fc 95 bb
       -0.011109242 -0.034483135 -0.034496948 -0.0045772535
000240 e7 34 cd bd 56 53 e5 3d 89 e1 50 bc 9c c5 9f 3c
       -0.10019856 0.11197536 -0.012749084 0.019503407
000250 1e 91 fb bc 65 86 bf 3d d3 ef 9a 3d 3c 4d ef 3c
       -0.030708846 0.093518056 0.07565274 0.029211633
000260 32 b2 86 bc 91 0c 12 bc 1a 31 e4 3d e8 d9 ec bd
       -0.016442392 -0.008914129 0.11142178 -0.11565
000270 bb 23 33 bd b7 c9 c0 bd 26 d4 71 3d 5f bb e7 3c
       -0.043735247 -0.09413474 0.05904021 0.028287588
000280 ca 07 be 3c f8 7c 5b bd 8e 58 ad bd 31 5c e2 bd
       0.023197073 -0.053585976 -0.08464156 -0.1105274
000290 a7 8b e4 3d c9 46 2f bc 38 b5 b8 bd 67 98 43 3d
       0.11159449 -0.010698029 -0.0901894 0.047752764
0002a0 ec 97 b0 3d 8e d7 81 bd 84 4d d3 bd c1 d1 c8 bc
       0.08622727 -0.06339942 -0.10317519 -0.024514081
0002b0 47 38 67 3d cf 5c 4b bd f2 b0 14 3c b4 74 0c 3d
       0.056450155 -0.049649056 0.00907539 0.034290984
0002c0 f8 bb e1 3b a2 36 77 3d 2d 06 02 bd f0 34 af bd
       0.0068888627 0.060354836 -0.03174417 -0.08555019
0002d0 61 9f 95 3d 46 f6 9b bd f3 5e 4a 3d e3 c6 01 bc
       0.0730579 -0.07615332 0.049406957 -0.007920953
0002e0 a9 a6 87 bd b3 b0 96 3c 69 ba d0 bd e7 9b c7 bd
       -0.06623585 0.018394804 -0.10191805 -0.09746533
0002f0 0d 48 af bd b9 d2 a1 bd 18 2c d5 bd e8 46 e4 3d
       -0.085586645 -0.0790152 -0.10408801 0.11146337
000300 97 0a df 3c d2 7c 86 bd 36 ef 2a 3d 56 3c 98 bd
       0.02722673 -0.06566776 0.041732036 -0.07433383
000310 19 94 da bd 0c 72 b2 bd ff 23 11 3d d9 f7 a5 bd
       -0.10672779 -0.08713159 0.03543472 -0.08103914
000320 04 3c 0b 3e 3c 6b c6 3c 6b b5 16 3c 91 81 18 3d
       0.13597113 0.024221055 0.009198527 0.03723294
000330 48 77 dd bd e5 89 37 bd 4d 20 85 3c c5 3f 83 bd
       -0.10813767 -0.04480924 0.016250754 -0.064086474
000340 5f 64 15 bc 7f e9 8c bd 71 0e 38 3d 65 ec d3 3d
       -0.009118169 -0.06880473 0.044935647 0.10347823
000350 68 1e b6 bd d3 5c 7d bd f7 23 57 3c c5 59 ec 3d
       -0.08892518 -0.061856102 0.013131133 0.1154056
000360 8f 12 3a 3d 33 c9 54 3d eb 13 af 3d 57 34 8f 3c
       0.045427855 0.05194969 0.08548721 0.017481012
000370 b7 09 3a bc 84 30 0a bd 7c 94 17 3d 65 e2 57 3d
       -0.011354855 -0.033737674 0.03700684 0.05270614
000380 16 16 03 3e f9 33 2b bc 65 2d c0 bd 59 56 58 bd
       0.12801394 -0.010449403 -0.09383658 -0.052816723
000390 56 6f c6 bd e4 ae e4 3d e0 7f 83 3d 64 b7 b9 bd
       -0.096892044 0.1116617 0.064208746 -0.09068182
0003a0 fb d0 d8 3d 07 95 98 bd 9d 75 e8 ba 8a 76 eb 3d
       0.10586735 -0.074503 -0.0017735247 0.11497219
0003b0 e9 40 f1 3d 81 6f a9 3d 26 aa a3 bd 5e 0f a5 bc
       0.11779959 0.08273221 -0.079914376 -0.02014893
0003c0 5e 68 78 3d 97 21 5c bd ad 9d f2 bc 4a be bd 3d
       0.060646407 -0.05374297 -0.029616201 0.092648104
0003d0 ff 35 91 bd de 00 4e 3d a5 f2 1c bd 4e 39 e9 3d
       -0.07090377 0.050293796 -0.03831734 0.11387883
0003e0 31 3b 61 bc 88 f6 74 3d 18 43 00 bd ff 9a 2f 3d
       -0.0137470225 0.059805423 -0.031313986 0.042872425
0003f0 9d 9f 1c bc 2f 04 23 bd 32 df af 3d dd c7 2b 3b
       -0.009559539 -0.03979891 0.08587493 0.0026211657
