Results/Models/SAE_stacked_cur_DCN_model_iter_id_8_epoch_400_lr_0.0001.pth (torch, 828518 bytes, 16 tensors)

shared1.weight f4 [200, 17]
00000000: 52e0 5f3c 85f4 e93d d5d3 5a3b 7238 f5bc
00000010: f62b 84bc 495b afbc 719e 00be 8729 cebd
00000020: c446 0bbe 4016 fb3d 6476 a9bd e05e 22be
00000030: 550f 093e 7c74 1dbe 8daa fbbd ddcf 513d
00000040: 793b 113e 3e35 dc3d caf6 31bb cbac 0b3e
00000050: 1651 d6bd 5574 61bd c7a9 e8bd bfca 443d
00000060: 94a8 3a3c e532 e23c 1753 84bd 5950 1cbe
00000070: b727 863c 460c 3fbd e541 203e d987 2cbd
00000080: 92cc a83d 43e6 883d 44b3 5cba a284 b73d
00000090: fff7 153e 4fd7 29bd ac36 edbc 43a7 353d
000000a0: 0caf a6bd 54e8 103e d621 293e 981f d2bd
000000b0: 11b8 b13d e363 ac3d 6c71 85bd 15df b7bd
000000c0: f0e8 00bd 8140 abbd a369 cabc 6895 a93c
000000d0: b308 533d 79be c5bd 29ce 013d 3e0c 2d3d
000000e0: 536c 363d 979e e1bd 95ec 4abd e460 433d
000000f0: 4690 783d 0a88 c3bc 9f19 de3d 14e7 c5bd
00000100: 2eb6 b33d 9a58 04bd 7539 0a3e 8416 443e
00000110: f49d 07bd def1 13bd 9487 643d d69d 2b3e
00000120: e9b7 8b3d 664e 41be 8eed 053e 13db 86bc
00000130: 392b 143e 8c71 20bd 0e84 a9bd 57f3 13be
00000140: c252 15bd 7728 7a3d 9a5c 38bd 6f25 c73d
00000150: b804 4cbe 062c 50bd d393 debd 7ac7 503d
00000160: 988a 95bd 9f04 70bd c376 d03d 8ff1 003e
00000170: 4c06 953b 59ea 9abd ca51 e9bc 82e6 25be
00000180: 26e6 3abd 4ba2 143d 8787 c63d 4b93 36be
00000190: d7f4 ea3d 09e3 c93d f525 f6bd a295 c53a
000001a0: ba9b d73d b125 043e 71b0 7abd 7f27 b73d
000001b0: b861 d23d 57e5 1e3e 9d39 8c3d fa04 11bc
000001c0: 659b acbd f6f6 24be 3934 353c f9f3 f43d
000001d0: 401a 013e bf72 e43d e011 88be fda3 c13d
000001e0: ab4e a33d 2e1a 323c 4bb8 8fbc 1a1f a2bd
000001f0: f422 05bd a88e e2bb 11cb 5e3d 7fca 03be
00000200: 325f d43d 6acc 0bbe 6f02 54bd 8ced 0cbd
00000210: c9da a4b9 d28a 023c ca27 6b3d 62af 14be
00000220: a480 233d 3bdd a93d e650 083d 6f97 433e
00000230: 2b3e b13d b559 adbd 0cca 763d a558 b03d
00000240: f347 d5bd 748d 3a3c 208c b4bd b698 4bbc
00000250: 3414 67bd 6220 38be d569 ef3c 5106 bcbd
00000260: 4b9a 063e d033 163d 7ba6 893d 0f1e 953d
00000270: 3322 863d 7fe3 9c3d 9c7b 703c f5d9 61bd
00000280: 9b71 8ebd 3f61 8b3d 2325 8d3d 90e1 ab3c
00000290: 8605 33be 6c9e 403c 25ba a0bd 8d68 b73c
000002a0: 07c9 513d 193d 893d 9830 063e 05d2 083c
000002b0: 1de5 50be 41b8 77bd f42a 9a3d 3126 dd3d
000002c0: 7253 04be 7c35 6dbd 6fa0 103c e49a c2bd
000002d0: b634 c93c ad18 b53d 789a dcbd 3c28 8bbe
000002e0: 749f 50bc 0873 193c 363f 2e3d d637 6cbd
000002f0: f00a 0d3e 6b15 353e 0748 3b3e 6586 05bd
00000300: 4b07 973d 2b22 e03c 2ee8 fbbd 8bf0 863d
00000310: 23ad d4bb f7fd dc3d 7a7c fa3d 0a0d 31bd
00000320: 3c62 32be 02b4 2f3d 42ab 873c 898d 15be
00000330: 3db7 15be 4494 f5bd a965 e7bc ee40 dbbc
00000340: 5b02 0f3d cadc b6bc d552 45bd 9a31 56bd
00000350: 79c6 8bbd fdbf f9bd 50bf 02be e83f f43d
00000360: ea9c f23d 73d1 4cbc 7a1d d1bd fd60 423e
00000370: aec5 4bbd 153a 09be 8b9f 793d 9a54 5abe
00000380: f847 1cbe a9b6 2ebe 16d6 34bd 62e4 f33b
00000390: a299 5f3d 0c67 63bd 4253 03be e6d7 12be
000003a0: 7d06 193d 237c e33d 1aba 7cbb 0740 cdbc
000003b0: 0685 1fbe e22a b73b 564e 08be 7d1a d13c
000003c0: 6128 49be 3ed9 8a3d e835 dabd fce1 fe3d
000003d0: 964c 833c 3edb de3d 1312 9d3d 1dea 763d
000003e0: 7c55 83bd 1882 bd3c e44d 83bd ad73 58be
000003f0: 6723 a9bd 6c4c bdbd 4eba febd cbea 21bd
0.013664322 0.114235915 0.0033390422 -0.029934142 -0.016134243 -0.021405833 -0.1256044 -0.100665145
-0.13601214 0.12260103 -0.08274534 -0.15856504 0.13384755 -0.15376467 -0.12288389 0.051223624
0.14182843 0.10752343 -0.0027155154 0.13640134 -0.10464685 -0.055042583 -0.113605075 0.048044916
0.011392731 0.027612159 -0.06461161 -0.15265025 0.01637636 -0.046642564 0.15650137 -0.042121742
0.08242144 0.06684544 -0.00084190466 0.089608446 0.14645384 -0.0414651 -0.028956734 0.044348966
-0.08138856 0.14151126 0.16516814 -0.10259932 0.08677686 0.084174894 -0.06515774 -0.089780964
-0.031472147 -0.083619125 -0.024708575 0.020701125 0.051521968 -0.096554704 0.03169075 0.042248003
0.0445369 -0.11016577 -0.04954203 0.047699824 0.060684465 -0.02386858 0.108447306 -0.09663215
0.087749824 -0.03231106 0.1349848 0.19149214 -0.03310962 -0.036119334 0.05579336 0.16759428
0.068221875 -0.18877563 0.13078901 -0.016461885 0.14469613 -0.039170787 -0.082771406 -0.14448296
-0.036455877 0.061073747 -0.045010187 0.09723937 -0.19923675 -0.050823234 -0.10868039 0.050971486
-0.07301825 -0.058598157 0.10178902 0.12592147 0.00454787 -0.075642295 -0.028481383 -0.16201213
-0.045629643 0.036287587 0.096938185 -0.17829625 0.11472481 0.09857757 -0.120189585 0.0015074501
0.10527749 0.12905003 -0.061203424 0.0894308 0.102725446 0.15517174 0.06846926 -0.008851284
-0.08428077 -0.16109833 0.011059814 0.119605966 0.1260767 0.111546986 -0.26576138 0.094551064
0.07973989 0.0108705 -0.017543932 -0.079160884 -0.032504037 -0.0069139786 0.054392878 -0.12870215
0.103697196 -0.13652197 -0.051760133 -0.03440623 -0.00031443525 0.007967668 0.057410993 -0.14520028
0.039917603 0.082941495 0.033280276 0.19100736 0.08654436 -0.08464376 0.06025128 0.086106576
-0.10414114 0.011386264 -0.08815789 -0.012426546 -0.05641575 -0.17981103 0.02922527 -0.09180892
0.13144796 0.036670506 0.06721207 0.07281124 0.06549492 0.07660579 0.014677908 -0.0551395
-0.06955262 0.068056576 0.06891849 0.02098158 -0.17482576 0.011756521 -0.07848004 0.02238872
0.051217105 0.067011066 0.13104475 0.008350854 -0.203999 -0.060478453 0.07527724 0.107983
-0.12922457 -0.057912335 0.008827313 -0.09502199 0.024561267 0.08842597 -0.1077165 -0.27179134
-0.012733329 0.0093658045 0.04254075 -0.057670437 0.13773704 0.17683952 0.18289195 -0.03259887
0.07374438 0.027360043 -0.12300144 0.06588849 -0.006490366 0.107906274 0.12230773 -0.043225326
-0.17420286 0.04289628 0.016561154 -0.14604773 -0.14620681 -0.1199117 -0.028246718 -0.02676436
0.034914356 -0.022322077 -0.048174698 -0.052293397 -0.06824965 -0.12194822 -0.12768292 0.11926252
0.11846335 -0.012501108 -0.102107 0.1898231 -0.04974907 -0.13401063 0.060943168 -0.21321335
-0.15261829 -0.17061867 -0.04414948 0.007442997 0.054589875 -0.055518195 -0.12824729 -0.14340171
0.037359703 0.111076616 -0.0038563074 -0.025054945 -0.15578088 0.005589829 -0.13311133 0.025525326
-0.1964431 0.06779717 -0.10654813 0.12445447 0.01602773 0.10881661 0.07669463 0.06028186
-0.06412789 0.023133323 -0.06411341 -0.21137877 -0.082587056 -0.09243092 -0.124378785 -0.039530557

shared1.bias f4 [200]
00000000: 8201 5b3c 2ed4 a1bd f50b 4bbe a299 8dbe
00000010: ef6e 153d 60ec 5fbd 7f86 c93c 85a4 ab3d
00000020: 1a9d a63c f07b 9cbe b853 b3bd 0db3 ae3d
00000030: 9753 ab3b d726 c33d f9df e73d eff4 18be
00000040: 3d35 62bb 231f a4bd c24d 013e 41e4 36bc
00000050: 3848 3ebe 4b59 503d 613d 02be b714 ab3c
00000060: 7f66 f6bd 9993 d7bd 6888 07be 1c85 92bd
00000070: 3751 e63d c767 b6bd 881f 633e b655 45be
00000080: 6058 a03d c617 a53d 11a2 20bc 2de8 fe3d
00000090: cd7a 293d 1702 96bd 1652 41be 603d 083d
000000a0: 0e6b 083e 69a1 51bd d5ad e6bd 0b08 7c3d
000000b0: 87e3 563e ec93 dbbd 931c 2abe 5b72 42be
000000c0: 1191 2d3e ffc8 613d 235c b4bd 919a be3d
000000d0: 914d 323e 936e 4fbd 3857 92bd c459 78be
000000e0: 82e3 023d 1ed8 7a3d 3638 18be 0b55 973d
000000f0: 6b71 fa3d 411d c43d a4e3 113e 6d69 053d
00000100: b39c 193e 30b6 0fbe c756 0ebe 62e9 23be
00000110: 5847 4cbe c2ca b2bd 50c5 50be e74d 113d
00000120: 1b54 df3c f64a adbd 0fa5 0cbe 60c2 3abe
00000130: db23 dabc c731 8cbe 0eb3 01bd 2610 f7bd
00000140: 9cd9 e1bd 269e 60be b8ef 463e cd1a 393a
00000150: f7a5 b13d d9c7 15be e1f7 4ebe f6e9 fdbd
00000160: 00c2 953d f515 8ebd a9db 9c3d fa75 173e
00000170: b12f f13d ace1 87be f4ed 303e 01ff 123e
00000180: af0e dbbd 9417 03be 693f 073e 115c 1fbe
00000190: 6634 e83d 98c9 62be 1ce0 87be b8ab 49b9
000001a0: 607e 3abe 577e 41bd 3f68 60be 5205 8c3c
000001b0: bf7d 8ebd 31b7 3d3e 321b b23d 64d6 ac3d
000001c0: acf5 1f3e 90da 58be 5561 bb3d 219e f43c
000001d0: 9b42 133e d40a 88be 062a 92be 1203 a13d
000001e0: f665 28be 5438 4b3d 0abc b33d 88e8 d63d
000001f0: e6c6 0e3d 4d97 2fbe 9b03 febc afa2 81be
00000200: 3640 71bd ed3c 623e 7b12 023a a290 033e
00000210: ca6a a43c 8228 063e 3915 80bd d7d8 f7bd
00000220: f847 92be 932a 9f3d 2684 82bd e82e 4abe
00000230: ed2d 493e 1d74 513e feeb ecbd 81ec d2bd
00000240: f1d7 683d 1d30 53be 52bf da3c df44 8bbe
00000250: 91d6 ee3d 899e 2fbe 58e9 8b3d 92f7 70be
00000260: 1d1d 3cbe 2d91 2dbd c833 3a3e 498e 18be
00000270: 8afd f43d 31f5 0e3e bfde 60be d629 c9bd
00000280: a0d6 ed3c 5e70 21be 7e03 02be 4887 7cbe
00000290: 0343 333e fba4 2abe cedb 0dbe 0f2d 61be
000002a0: 1f58 f43d d7e6 013e 726e 5abe 36d5 ad3d
000002b0: 35ae cabd 9ee6 83be 6577 32be aae4 9ebd
000002c0: 8a68 25be c9c9 273d 32d0 4bbe faa5 2f3d
000002d0: 73d3 3bbe dc5b c3bd 31a6 0abe 624d f6bc
000002e0: 3c20 853d f984 21be 93ae 3bbe 7c71 43be
000002f0: e0d8 20bd ea30 9cbe 6132 df3d 23f9 c4bd
00000300: 767a 863d 554e 6dbe 4f46 4d3d 8ddd 053e
00000310: f25b c1bd f50c 94ba b18a 6abe 16df 1abe
0.013367059 -0.07901798 -0.1982878 -0.27656275 0.036482748 -0.054668784 0.024600266 0.08380989
0.020338584 -0.30563307 -0.087562025 0.08530245 0.0052284705 0.095288925 0.11322016 -0.14937185
-0.0034516596 -0.08013751 0.12627319 -0.011162818 -0.18582237 0.050866406 -0.12718727 0.020883901
-0.12031268 -0.10526199 -0.13235629 -0.07154295 0.11245959 -0.08906513 0.22179997 -0.19270977
0.07829356 0.08061175 -0.009804265 0.12446628 0.041376878 -0.07324617 -0.1887897 0.033261657
0.13322088 -0.051179323 -0.112636246 0.061531108 0.20985232 -0.10721573 -0.16612463 -0.18988936
0.1694987 0.055123325 -0.08806636 0.09306825 0.17412402 -0.05064256 -0.07145542 -0.24252993
0.03195525 0.06124126 -0.14865193 0.073892675 0.12228664 0.09575892 0.14246994 0.032571245
0.15001182 -0.14034343 -0.1390029 -0.16006997 -0.1994909 -0.08730079 -0.20387769 0.035474684
0.027261784 -0.08461563 -0.1373484 -0.1823821 -0.026628425 -0.27381727 -0.0316649 -0.12063627
-0.11027834 -0.21935329 0.19427383 0.00070611836 0.086742334 -0.14627017 -0.20211746 -0.1239814
0.07312393 -0.06937782 0.07659084 0.14791098 0.117766745 -0.2653936 0.17278272 0.14355089
-0.1069616 -0.12801963 0.13207783 -0.15562464 0.11338119 -0.22147214 -0.2653817 -0.00019232824
-0.1821227 -0.047239628 -0.21914767 0.01709238 -0.06957578 0.18526913 0.08696593 0.08439329
0.1562106 -0.21177125 0.09149424 0.029860558 0.14380877 -0.2657076 -0.28547686 0.07861914
-0.16445145 0.049614266 0.087761 0.104935706 0.034857653 -0.1714756 -0.031007579 -0.2531943
-0.058899127 0.22093554 0.000496186 0.12848142 0.020070452 0.1310139 -0.06254048 -0.12101906
-0.28570533 0.07771792 -0.063728616 -0.19744456 0.19646426 0.2045445 -0.115684494 -0.10299016
0.056846563 -0.20623823 0.026702557 -0.27200982 0.11662019 -0.1715032 0.06831616 -0.2353194
-0.18370481 -0.04237478 0.18183815 -0.14898027 0.11962421 0.1396072 -0.21959971 -0.09822433
0.029033005 -0.15765521 -0.12696645 -0.2466098 0.17506032 -0.16664498 -0.1385338 -0.21989845
0.1193087 0.12685715 -0.21331194 0.084879324 -0.098965086 -0.25761884 -0.17428358 -0.07758458
-0.1615316 0.04096392 -0.19903639 0.042882897 -0.1834238 -0.09539005 -0.1353996 -0.030066196
0.06500289 -0.15773381 -0.18328314 -0.1908626 -0.039269328 -0.30506068 0.10898281 -0.096178316
0.06566326 -0.23174413 0.05011588 0.13072796 -0.09441365 -0.0011295365 -0.22904469 -0.15124163

shared2.weight f4 [200, 200]
00000000: 7e0c 143d 61de 35bd 0f85 073e 6429 183e
00000010: be63 42bd 74d2 0f3e 87f9 bfbd 6b57 41bd
00000020: 7de9 063e 51ff a03d 4fa4 983c c296 523d
00000030: 2043 20be 5486 99bd b97d 0d3b c0b2 963d
00000040: c813 04bd a60c 073e e6ef 803d 4b4e 89bc
00000050: ab85 043e f39a 113e cbca 573d 0627 d0bd
00000060: 004f 91bd a235 3d3d 7d5c 133e 4c25 6a3d
00000070: 04e2 68bd 924b 0e3d c3ee b13c 5521 503e
00000080: 5b60 4cbd ef4d 253d 0f94 e53c 245b b8bb
00000090: 4008 a03d 0292 623d 3d93 eb3c d3cc f23d
000000a0: 641c 693d 299e 54bd b2fd 8c3c 02af 33bc
000000b0: 5e05 e2bd f1fa a13c d20d 793d f9a8 37bd
000000c0: 9d33 cdbd 148a 863d 7549 cb3b 24cc 103d
000000d0: 158a d83d 6f33 123c 260b 253e 2960 fc3d
000000e0: 80e4 14bd a148 513d 5391 823d f3b7 e63c
000000f0: 02e4 bd3d 6dd5 2c3d 7aaf 063e 9737 4d3d
00000100: 2157 c43d a0c9 aa3d f8de 75bd a288 f73d
00000110: 5091 8ebb 7af3 29be 35de f33d cc5e fbbd
00000120: 06b4 753d 11ec a73a 1801 2e3e dc69 1b3d
00000130: 32cb fd3c 1aa5 0e3e 35c3 023e 9e45 fb3d
00000140: 2481 6dbc 404e b2bd d619 4d3d e717 633e
00000150: d584 33bd 1507 14bb 1764 0a3d b3bb 073d
00000160: 297a 063e 993d 093e 823f 273e 0fb8 31bd
00000170: e8fa 9b3d 0199 f43d e5a3 383d 86d8 adbc
00000180: 62fe 173e 4d56 873d 2894 febc c763 54bd
00000190: 2ac0 3dbd c1c9 7c3e 3681 373d 2b6b 5d3d
000001a0: a30f 28be 691a 4f3e 2487 d73d f126 1dbd
000001b0: 6fed 8abc 7a5f 22bd bab3 c93c 503a 50bc
000001c0: 236e 9cbd 4ca3 14bd 0570 b7bd 1673 d13c
000001d0: b996 cbbc 5355 843e 846f 3e3d 78e6 de3d
000001e0: 2c3c 203d 0273 f9bc 5aee f8bd b401 133e
000001f0: b256 4abd 2316 0c3e d372 87bc 669b b13d
00000200: 90dc 283d dd2d 9fbd 49bb 7cbc 55ba a2bd
00000210: 188c 88bd 384e b9bd 73e9 89bc ed6c d63d
00000220: dc83 b33d a128 05be a4ec acbd 3c06 e1bd
00000230: 16ef ac3d 9a60 10be c32c 203d fb53 f03d
00000240: bff0 93bc 9130 a73d 7f70 1abe b903 493d
00000250: 6b86 f03d c695 01be fc64 453c ceed c43d
00000260: 8a13 03bd 96f8 b0bd 9b5d cebd 2b3f 87bd
00000270: dde7 cf3d a753 09bd 0725 313d 23cc c33d
00000280: 1681 93bd d3f2 91bd 704c 903d e86b 2c3e
00000290: 09d2 c9bc 8cdf c83d 5c21 333e 97c4 e53d
000002a0: 20f4 9fbd 1aa6 0dbd 1210 e93d 06b9 043d
000002b0: 34cb 60bb e693 2d3e 7746 483e 965a 043b
000002c0: 36f5 ebbc e7f7 bebd 2599 2a3d 41d7 87bd
000002d0: ed69 3e3d 170a 453e 6a4e 86bd 53de 8d3d
000002e0: 365b 85bd a22e d43d 310e d9bd 2aff f23d
000002f0: 0d69 cb3b e843 cebb 9437 97bd cb08 5cbc
00000300: a842 2cbb 70b0 d8bd aec2 02bd 94ee a6bc
00000310: a9a0 6d3c 80b1 48bd 7b5a 8a3d 2eab 0f3e
00000320: 999b 03be 3db9 b03d 9dc2 ad3c 0f69 633d
00000330: 059d f6bd e402 e9bc 22ad 0ebd 3466 d0bd
00000340: 429d fa3c 7951 1abd bd2b 1c3d afc5 de3d
00000350: 9da7 cb3d e9d3 b03d 6fc0 9abd e537 02bd
00000360: 265f d3bb cd08 743d 6d23 d13d d792 88bc
00000370: 46a8 bdbd 5b26 013e 77ed 49bd ef4f 43bd
00000380: 4ce1 e8bd e015 9a3d 1b2a b13d b84d 3a3b
00000390: 753f d63d 8cba 3d3e 353f ccbd 0461 9ebd
000003a0: f426 46bd 19e5 75bd 94a4 1dbd 8ea8 6f3d
000003b0: ccd8 49bd 9526 d13c dee6 bd3d 7306 bfbb
000003c0: b7f5 30bc 7bc1 4d3c 7bf1 babd 5823 0d3e
000003d0: 1b0a 73bd b1da 053e 1691 233d 4cea 96bd
000003e0: 78c8 9c3d c3ef 83be 8d51 c3bd 5d13 b2bd
000003f0: db27 aa3c 0220 22be a5f4 65be 8157 1abe
0.036144726 -0.04440153 0.13234352 0.1485954 -0.047458403 0.14045125 -0.093737654 -0.04720251
0.13175006 0.07861198 0.018633036 0.051413305 -0.15650606 -0.07496324 0.002158983 0.073583126
-0.032245427 0.13188419 0.06295757 -0.016760966 0.12941615 0.14219265 0.052683633 -0.10163693
-0.07095146 0.046193726 0.1439075 0.057164475 -0.05685617 0.03474004 0.021720296 0.20325215
-0.04989658 0.040357526 0.028024701 -0.005626099 0.078140736 0.055315025 0.028756732 0.11855473
0.05691184 -0.051908646 0.017210815 -0.010967018 -0.1103618 0.019772978 0.060804196 -0.04483888
-0.1001961 0.06569305 0.006203825 0.035350934 0.10573212 0.008923396 0.16117534 0.123230286
-0.036350727 0.051094655 0.06375375 0.028163886 0.09272005 0.042195726 0.13152876 0.050101843
0.09586931 0.08339238 -0.060027093 0.120866075 -0.0043508187 -0.16596785 0.11907617 -0.122739404
0.059986137 0.0012811442 0.16992605 0.037942752 0.03098068 0.13930169 0.12769778 0.12269138
-0.014496122 -0.08706331 0.050073467 0.22177087 -0.04382785 -0.002258723 0.03378686 0.03313799
0.13132538 0.13402404 0.1633282 -0.043388423 0.07616216 0.11943246 0.045078177 -0.02122141
0.14843133 0.066082574 -0.031076506 -0.051852968 -0.04632584 0.24686338 0.04480096 0.05405728
-0.16412215 0.20224918 0.10523823 -0.038367216 -0.01695892 -0.039641835 0.024621833 -0.012709215
-0.076381944 -0.036288545 -0.08956913 0.025567573 -0.024852144 0.25846347 0.04649307 0.10883802
0.039119884 -0.030450348 -0.12154837 0.14356118 -0.049399085 0.1368032 -0.016534245 0.08672218
0.04122597 -0.077724196 -0.015425512 -0.07945696 -0.06667346 -0.09048122 -0.01683495 0.10469995
0.087653846 -0.1300378 -0.08443573 -0.10987517 0.084440395 -0.1409935 0.039105188 0.11734768
-0.018059133 0.0816356 -0.15081976 0.049075816 0.11744388 -0.1265479 0.012048002 0.0961567
-0.032001056 -0.08641164 -0.100764476 -0.06603845 0.10151646 -0.033527043 0.043248203 0.0956042
-0.072023556 -0.07126393 0.07045829 0.16838038 -0.024636285 0.09808263 0.17493194 0.11219137
-0.07810235 -0.034582235 0.11380018 0.032403015 -0.0034300806 0.1695095 0.1955813 0.0020195595
-0.02880345 -0.09324627 0.041649956 -0.06632853 0.046487737 0.1924213 -0.06557925 0.069271706
-0.06511538 0.10360457 -0.1059841 0.11865075 0.0062075914 -0.006294716 -0.073836476 -0.013429831
-0.0026284847 -0.10580528 -0.031923942 -0.020377435 0.014503636 -0.048997402 0.06755539 0.14030144
-0.12852325 0.086290814 0.021210963 0.055520114 -0.12041668 -0.028443761 -0.03483308 -0.10175744
0.030592564 -0.037675355 0.03812765 0.10877549 0.09944079 0.08634169 -0.07556235 -0.031791586
-0.0064505516 0.059578706 0.10211835 -0.016671581 -0.09260611 0.12612288 -0.04929873 -0.047683652
-0.11371097 0.075237036 0.08650609 0.0028427672 0.10461322 0.18528193 -0.09972993 -0.07733348
-0.048376992 -0.060032938 -0.038487032 0.058510356 -0.04927902 0.025531093 0.0927255 -0.005829626
-0.0108007705 0.012558336 -0.0912809 0.13783014 -0.05933581 0.13071705 0.039933287 -0.07368907
0.07655424 -0.2576886 -0.09537039 -0.086950995 0.020770958 -0.15832523 -0.22456606 -0.15072443

shared2.bias f4 [200]
00000000: 147b 89bd 9d3c 0c3d 1a45 4bbd 0f6a cdbd
00000010: 4b8a 47bd 840e a73c 3149 86bc a76d c6bd
00000020: 8242 02bd ab97 d83c 5524 d7bb 6236 5b3d
00000030: 1259 da3c 6022 053d 845e 97bd 7162 a0bd
00000040: f67d 83bd 5366 b3bd 9680 83bd 1111 90bd
00000050: 5198 b8bd 503d 86bc 4d6b 2f3d 5edc 54bd
00000060: 9a50 44bd 5d3c aa3c 0a85 033d 9484 54bd
00000070: aeee 47bd 2961 c2bd 8ac5 bfbb 34b0 483c
00000080: 5eae 8fbc d722 c73b 8fa3 48bd 9a1e d6bd
00000090: 2996 6bbc 0bff 333c 08c7 9d3c 6025 673c
000000a0: a872 2e3c 57fc a4bd 53ec aabd ad6d ac3c
000000b0: aa2e 39bd 7227 b13c a3b8 e4bd 8415 53bd
000000c0: fe12 f83c 3aa5 b1bd 72c3 13bc e4e2 cdbc
000000d0: 37bf 0ebd 89a7 91bd 0fc4 89bb 916e c2bd
000000e0: 7810 16be a047 2fbd 793d 3d3b 9ea9 ec3c
000000f0: 29be 723d 17e9 773c edd9 0fbc 546c 66bd
00000100: 51b3 f03c ec47 7abc d9eb 28bd 09fe c9bc
00000110: 0516 e6bd 084d 8a3c 0913 fdbc a14e 303c
00000120: 3894 7fbd 59e2 6e3d 5fec dfbc c9ec 623d
00000130: f869 713d 3ec8 46bc d71b eabd cc3a ff3b
00000140: d473 9d3d b922 b3bc 056b 983c 6fac 40ba
00000150: 625b 8abc e342 a03c 0f36 85bd 44ad 27bd
00000160: d5f8 f8bd 96ff cdbc eff0 fe3c 5960 ce3c
00000170: c221 d53c 04c4 553d 10cf b4bd 81e9 cfbc
00000180: b42a a5bd da03 1abb a6bc ae3c a97e ad3c
00000190: 2c19 2fbb 173b d23c 3d55 a9bd 47c9 01bd
000001a0: cfd7 55bc c345 14bc 6956 7dbd a8df aebd
000001b0: fc41 b33c 2c5b 50bb 1160 a4bd 974d 46bd
000001c0: 7007 663d 15de 36bd f615 59bd b1d3 2d3d
000001d0: 35fc 93bd 4a8e 61bb c576 483d 4a08 a2bc
000001e0: 84ea 5dbd f6ec bfbd 6475 593d 5a31 2abe
000001f0: 357d 84bd 4e14 bcbc 0e4c 74bd 92cc 193d
00000200: 6b24 71bd 5151 123d 5b65 76bd 40bc e4bb
00000210: 71df ba3c 400d ec3c 0c6d b43d b958 073d
00000220: 894a 07bd 8f54 923d 16be 84bc d06a 7b3d
00000230: 67b0 503b 05ac d03c ffde 8e3c 92f3 2bbd
00000240: c904 afbb 9dac ee3c 940e b1bd b0e1 63bd
00000250: 1009 4c3c b19f 07bd 081f 3ebd 1d30 d7bd
00000260: e08a 323d 81ff 243c 2fd5 9bbc abc5 243d
00000270: d0f4 8f3c 36d6 ff3c 9ad5 90bb a039 a8bc
00000280: 1878 38bd e977 7bba f25d e8bc d937 303d
00000290: a95e 053d 0da4 83bd f35d be39 9049 743b
000002a0: cc02 993d ccda 0b3d eafb 833c 08af 51bc
000002b0: 5831 8b3d 41a4 a5bc 3a7f d43c 65f9 8e3d
000002c0: fdb3 5ebd affd 3abd d2ac 593d f341 063d
000002d0: aaf4 f3bc 3845 cabd b947 f13c f20d 97bd
000002e0: 0ab2 38ba ba87 363d 0a45 89bc c26a 25bd
000002f0: c924 d8bd 3072 173d 4617 33bd bef5 453c
00000300: 9f2e a6bd 5e2a 24bd fda5 c1bd 5874 163d
00000310: bf5a 7ebd fbc6 d3bc 9020 1abd d69a 1e3d
-0.067129284 0.034237493 -0.049626447 -0.10029995 -0.04871587 0.020392664 -0.016392322 -0.09688883
-0.031801708 0.026439508 -0.0065656104 0.05351866 0.0266538 0.032503486 -0.07391074 -0.07831276
-0.064205095 -0.08759751 -0.0642101 -0.07034505 -0.09013427 -0.016386658 0.04282694 -0.05196797
-0.04792843 0.020780737 0.032109298 -0.05188425 -0.048811607 -0.09491188 -0.005852406 0.012249041
-0.0175392 0.0060771513 -0.048984107 -0.104550555 -0.014379063 0.0109861 0.019259945 0.014108032
0.010647453 -0.080559425 -0.083458565 0.021048391 -0.045210518 0.021625254 -0.11168029 -0.05153419
0.030282494 -0.086740926 -0.009018766 -0.025132604 -0.034850325 -0.07112033 -0.00420428 -0.09493745
-0.1465472 -0.042792916 0.0028875752 0.028889474 0.059263382 0.015131257 -0.008779985 -0.056255654
0.02938238 -0.015275937 -0.041240547 -0.024657266 -0.11234669 0.016882434 -0.030892866 0.010760934
-0.06239721 0.05832133 -0.02733439 0.055401597 0.05893895 -0.012132702 -0.11431091 0.0077889916
0.07688108 -0.021867143 0.018605718 -0.00073499134 -0.016889278 0.019563144 -0.065044515 -0.040936723
-0.12156836 -0.025146287 0.031120745 0.025192427 0.026017074 0.05218889 -0.088285565 -0.025379898
-0.080647856 -0.002350083 0.021330189 0.02117856 -0.0026717884 0.025662942 -0.08268211 -0.031686094
-0.013051941 -0.009049836 -0.061849985 -0.08538753 0.02188205 -0.0031792624 -0.08026136 -0.04841384
0.056159437 -0.044645388 -0.05299946 0.042438213 -0.07225839 -0.0034417086 0.048941392 -0.019779343
-0.05417873 -0.093713686 0.053090468 -0.16620389 -0.06469194 -0.0229589 -0.059642844 0.03754861
-0.05887262 0.03572208 -0.060155254 -0.006980449 0.022811623 0.028814912 0.088098615 0.033043597
-0.033030067 0.071450345 -0.016203921 0.06138116 0.0031843425 0.02547265 0.017440317 -0.041980334
-0.0053411466 0.029135043 -0.08645359 -0.055635154 0.012453333 -0.033111278 -0.046416312 -0.10507224
0.043589473 0.0100706825 -0.019022552 0.040227573 0.01757279 0.031230073 -0.0044199945 -0.02053529
-0.045036405 -0.0009592758 -0.02836511 0.04302201 0.032560978 -0.064277746 0.00036309622 0.0037275292
0.074712366 0.034144208 0.016111333 -0.012798078 0.06796521 -0.020219924 0.025939573 0.06981162
-0.05437087 -0.045652088 0.05314333 0.032777738 -0.02977975 -0.09876484 0.029453145 -0.07375707
-0.0007045573 0.044563033 -0.016756553 -0.040385015 -0.10553891 0.036974132 -0.043723367 0.012082515
-0.08114361 -0.040079467 -0.09455488 0.036732048 -0.06209826 -0.025851717 -0.03762871 0.03872188

hidden1_Y1.weight f4 [200, 200]
00000000: 1a34 a93d 7a9c 3abd 43dd babd 2dbf 0c3a
00000010: 588b 1e3d 45bb e53c 677a 383d b17c cfbd
00000020: c027 c43d a9b4 6e3d 94c2 993d b584 7f3d
00000030: bea8 383d fc81 8a3d 5a48 eb3d 07c0 04bd
00000040: c871 8b3d 73c0 873c f371 b53d b728 f03c
00000050: 0905 2d3d e604 0b3e 6929 61bc 8b16 023e
00000060: f543 8ebd b524 5c3b 5348 253c d4e7 8e3d
00000070: 75bd c7bd 5953 653b b358 9fbc 152b 2ebd
00000080: c9bc b9bb 505d f93d a6d2 dc3d c744 8ebc
00000090: 0664 e0bd 6c22 b8bd 94e4 ea3d 0745 b53d
000000a0: f288 04bd 239b bdbd 3343 8cbd 6938 26bc
000000b0: 4a74 c63b 4e6a 2d3d d0b9 88bd be5e a03a
000000c0: 089b e33d d317 d8bd fbd1 4a3d bec0 a03b
000000d0: 1ae4 2abd c141 a43d 0341 8a3c 243e 863d
000000e0: 424d 693d 2eac 9dbd fe50 ba3d 719c a93c
000000f0: 1ea6 83bd 4b66 0d3e dc75 2abd 1330 193d
00000100: deca 91bd 4174 79bd d81d dabd 41b0 25bd
00000110: 419e 9e3d a223 5b3d 915b ccbd a0c6 82bd
00000120: 0b7f 9fbd b0ea 9fbd 851f 52bd f9a4 c0bd
00000130: 8f01 91bc f632 4cbd faa0 943b 17b1 e7bd
00000140: b8b5 9cbd 30e7 c33d b5d9 783d 4323 5ebd
00000150: 0c8a 213d 71b4 bc3d f1bd 9a3d 54a2 c93d
00000160: 751a ba3c f8f1 2d3d f1a2 c2bc ecc8 b53d
00000170: 5169 783d ac15 993d f7f3 87bd 2e2b 893d
00000180: afb1 c53d 92a5 a1bd 86f1 6bbd 7fe6 0e3e
00000190: f066 75bd 5e86 2a3c 4e45 963d b34f c7bc
000001a0: d03e 8e3d 2038 013e 74a5 b6bd c787 a0bc
000001b0: 85f7 81bd 2cf1 b03d b02b bfbc 39e4 b2bd
000001c0: 53a7 b23d f5d0 2e3b 2cc6 163e 52b3 903d
000001d0: 57af b7bd f10c cc3d 4c05 c7bc 74ea b3bd
000001e0: 6ba5 e83c b69f 693d 7554 68bc 5db1 a13d
000001f0: 4689 d1bd a664 763d 70db ff3c 3076 b9bd
00000200: 4e77 d8bd 2f8a 3b3d 2f24 54bd 8cd6 943c
00000210: ca0c 163d fc83 90bc e2eb 27bb 0716 24bd
00000220: 69a1 853d 44e9 b33d a77d 433d 5d98 75bd
00000230: d4b4 a8bd 57f1 da3d 14d6 753d b6a5 01bc
00000240: 58bc 3ebd 88c2 81bc 05f8 debd ffb7 a9bc
00000250: ed32 973d 7312 bc3c 3287 803d 1300 f53d
00000260: bcdf 73bd 77c4 333d 897d 843d 2ba7 37bc
00000270: d014 bebd 4b3e 72bd 03e2 033e 9258 1cbc
00000280: 03cf 033e e812 423b 6359 78bd 0aa2 f73d
00000290: 6727 f73d 7a3c 003e 3f08 bdbd 2f6a 19bd
000002a0: 6ca4 8fbd 1919 1cbd 1073 a73d 5e5b cc3d
000002b0: 1163 04bd fdf9 57bd 6f01 cabd 6384 c73c
000002c0: 9a7e 743d 7f00 efbc b04d 9d3d 4046 073e
000002d0: b4fa 743d 22a8 c0bc 0208 943c 28e1 dcbd
000002e0: 9a8d c6bd d4a6 a2bc 449e e7bc 547b 323d
000002f0: e30a 073e e9e1 1abd e5ae df3d 965b d13d
00000300: 0aea e33d 1203 71bd 44bd 1f3c 6cf7 ba3c
00000310: afce 073d ce3c e33d ec95 19bd ccf7 f63d
00000320: 0302 d3bd 010f 943d 8c30 a43d 52dd 07be
00000330: 3e25 babd 6e4f a83d daff c5bd de89 f3ba
00000340: 970c af3d 85e8 abbd 7dd1 d1bb 6a69 8cbd
00000350: cea2 b63d 1006 d23d efb6 b0bd 0fe6 02bd
00000360: 198c e4bc 8b6e c3bd ec77 44bd c0c3 eabd
00000370: d96f a03d 6bcf e63d 640f d43d 82a0 64bd
00000380: 9feb 0d3e 0599 c53d 5358 03bc 07b0 013e
00000390: e102 03bd c291 473d 0d58 c5bd 0191 00be
000003a0: 9236 5e3c 2eb5 cd3c 66ec bb3d d0bd a7bd
000003b0: 22b4 a33d e8f1 823d e730 8cbd c478 a4bd
000003c0: fd9f 20bc d06b 92bd 0523 6f3d 0074 e0bc
000003d0: bb79 823d 8041 cc3d a01f 4dbc c35d 6e3d
000003e0: cedd 2cbd a4af 683d 27bf 04be b963 afbd
000003f0: 2305 acbd d6ad 86bd 69c8 533c 5cea 7ebc
0.08261891 -0.045559384 -0.091242336 0.00053690636 0.038707107 0.028043399 0.045038607 -0.10131205
0.09577894 0.05827776 0.07507816 0.06238242 0.0450828 0.06763074 0.11488409 -0.032409694
0.068088114 0.01657126 0.08859625 0.02931629 0.04224113 0.13576087 -0.013742783 0.12703912
-0.069465555 0.0033591215 0.010088044 0.069778115 -0.09752933 0.0034992306 -0.019451475 -0.042521555
-0.005668257 0.12176001 0.107823655 -0.01736678 -0.10956578 -0.089909405 0.11469379 0.088510565
-0.032357164 -0.092581056 -0.06848755 -0.010145285 0.006056343 0.04233771 -0.06676066 0.0012235267
0.11113554 -0.10551419 0.04951666 0.004905789 -0.04172144 0.08020354 0.016876703 0.06554821
0.056958444 -0.07698856 0.09097479 0.02070448 -0.06428169 0.13808553 -0.041616306 0.037399363
-0.07118772 -0.060901884 -0.106502235 -0.040451292 0.07745028 0.05350078 -0.099784024 -0.06385541
-0.077879034 -0.07808435 -0.05129959 -0.09406466 -0.017700939 -0.049853288 0.0045357915 -0.11313074
-0.076518476 0.0956558 0.060754497 -0.054232847 0.039438292 0.09214104 0.0755576 0.09845415
0.022717694 0.042467088 -0.023759337 0.088762134 0.060647313 0.07474837 -0.066383295 0.06697689
0.09653031 -0.07892908 -0.05760338 0.13955115 -0.059912622 0.010408012 0.073374376 -0.024329996
0.06945574 0.12619066 -0.089182764 -0.019595994 -0.06346039 0.0863975 -0.023336262 -0.08734936
0.08723321 0.002667484 0.14724034 0.07065453 -0.0896899 0.09963406 -0.024294518 -0.08784953
0.02839919 0.057037078 -0.014180292 0.078951575 -0.10231261 0.06015458 0.031232566 -0.090557456
-0.105696306 0.04578608 -0.05179232 0.01816871 0.03663329 -0.01764106 -0.0025622775 -0.04006007
0.06524927 0.08784726 0.047727253 -0.059959758 -0.08237615 0.10690563 0.060018614 -0.007913044
-0.046566337 -0.01583983 -0.1088715 -0.020717619 0.0738276 0.022958016 0.062757865 0.11962905
-0.05953954 0.043888535 0.064692564 -0.01120929 -0.092813134 -0.05914144 0.12879185 -0.009542601
0.12871937 0.002961332 -0.06063212 0.120914534 0.12068062 0.1252307 -0.092300884 -0.03745478
-0.07013783 -0.038109872 0.08176243 0.099783644 -0.03232104 -0.05272864 -0.09863555 0.02435512
0.05969105 -0.029175041 0.07680833 0.13210392 0.0598094 -0.023517672 0.018070225 -0.10785133
-0.09694977 -0.01985494 -0.02827371 0.043574646 0.13187747 -0.0378131 0.1092203 0.10222547
0.11128624 -0.05884082 0.009749714 0.022823058 0.033156093 0.11095582 -0.037496492 0.12058982
-0.10303118 0.07229424 0.08017072 -0.13268021 -0.09089135 0.08218275 -0.096679404 -0.0018580516
0.08547323 -0.08393959 -0.006403147 -0.06856044 0.08917771 0.102550626 -0.08628642 -0.031957682
-0.027898835 -0.09542569 -0.04796593 -0.114631176 0.07833833 0.112700306 0.10354498 -0.055817135
0.13859414 0.09648327 -0.008016664 0.12664805 -0.031985167 0.04872299 -0.09635935 -0.12555315
0.013562815 0.025110807 0.09175949 -0.08190501 0.07993342 0.06393796 -0.06845265 -0.08030847
-0.009803769 -0.0714947 0.058383007 -0.027399063 0.063708745 0.09973431 -0.012519747 0.058194887
-0.042203717 0.05680813 -0.12963544 -0.085639425 -0.08399417 -0.06576125 0.0129261995 -0.015558805

hidden1_Y1.bias f4 [200]
00000000: 7f4d cfbc 0854 4b3d a002 373d a669 1b3d
00000010: ec8e 2a3d 725d 0838 9dc1 85bd 41c3 e43b
00000020: a9fc 5ebd 70c2 4b3d 63ab 41bd 7d31 a53c
00000030: 55b9 c9bc bf7f 423d 9852 43bd 4c68 653b
00000040: e17d 16bd 92fa 873c f860 9f3c 6b51 1b3d
00000050: 2254 03bd 952e ba3c aa52 d5bb 10cd 5cbd
00000060: 2070 83bd 333d 633c 7add 85bb 3bbc 7c3d
00000070: 8294 5ebd 6d54 1bbd 1f1d 04bc 3921 89bd
00000080: 0acc 1bbd 66f6 d0bb 5d14 423c 2d81 713c
00000090: 10ca b0bc fe78 f2bc 3573 943c a4ef 3bbd
000000a0: 0e2e 51bd d233 a2bc 86d1 873d f7c3 c3bc
000000b0: 7f94 e6bc bf27 243d 6ae9 59bd d229 dd3c
000000c0: 30c9 b13c a589 3ebd 3e68 643d 0fc3 27bd
000000d0: 68ee f13c 3422 38bd 45ce 44bb 5b2e 5ebd
000000e0: 9b63 293d e2a6 1bbd f5da 2f3c 1ec3 473d
000000f0: af03 b1bb c075 6c3c 5499 55bd cb67 83bd
00000100: 651a 213c 1a93 023d 9729 273c 1e5c d53b
00000110: fabb 81bd e390 41bd bcfe 6e3d a68c cc3b
00000120: 7ddf 613d 1c92 98bc d85c 823d 9f4f a2bd
00000130: b3be 33bd cd78 db3c 4e95 1c3d a581 bb3b
00000140: b266 093d 45f9 63bd 4c83 58bd abe6 903c
00000150: b6a0 2b3d d486 9ebc b383 43bd ced8 953d
00000160: 652f e03c 1dce 8f3d 1789 723d cad1 8abd
00000170: 09bd 983c 226c 3ebd eb1b 273d efa1 c03c
00000180: b1b4 3c3c c60d 45bc 9201 95bc 9db9 593d
00000190: 3f21 d1b8 74ca f1bc 0567 313c 6f8e 83bd
000001a0: d3fd 80bc 61db 3a3d ff29 06bd 9993 2c3d
000001b0: 2d66 8bbd 2763 a2bd 93a8 113d 420f 763d
000001c0: b5a8 413d 13a0 7abd 3cd6 dabb f47d 4ebd
000001d0: 0bd8 3ebc ea88 48bd 4ad6 bebc 4aef 553d
000001e0: 48cd c7bc 31c9 663c 2288 5dbd 0330 f4bb
000001f0: 137e 91bd 4194 7abc 58cd 1e3d 1979 1fbd
00000200: ba92 e53c b4af abbd c02c 763d 8c4d 70bd
00000210: 28d2 4f3b 28ac 423d aaea 0abc 0753 4e3d
00000220: f329 51bd 53a2 c83a 5335 33bd f690 9a3d
00000230: e026 0dbd ea76 6bbd 2663 8abc 056d 75bd
00000240: 8f6d 00bd e94a 313d 0a61 37bd 8a36 e23c
00000250: 8d59 1bbd 9280 d6bc 5015 9abc 2d30 44bd
00000260: 5802 36bd 377a 38bd 7f12 f6bc 68d3 94bc
00000270: 0e93 663d 767c 3fbc 7230 83bc 3e48 8d3d
00000280: 9649 d03c 9813 6cbd 2449 553c 4463 9abc
00000290: fc10 0f3d 1088 1b3c 5cc3 82bd ab58 15bd
000002a0: d44f 0cbc b4fa 823c 88c2 243d 20da 3d3d
000002b0: 7ac2 ac3a b4c8 b93c 3031 79bd 637c fdbc
000002c0: 188a 15bc 4107 c73c bd6a 69bb 7ea2 703d
000002d0: c8b5 423d be86 533d de53 9f3c 020e 40bd
000002e0: 4270 833d 56d2 a5bd 704a 863c 8bb9 a93c
000002f0: b363 1abd 9182 e83c 1993 8f3c 0b17 e93c
00000300: 5bee 6d3d 2546 67bd cfb2 363d 960f 723c
00000310: bf7b 34bd f26a a8bc eedd bc3c 699e 853c
-0.025305508 0.049640685 0.044680238 0.03794255 0.041640207 3.2511954e-05 -0.065310694 0.006981284
-0.054440174 0.049745977 -0.047282588 0.0201652 -0.024624506 0.04748511 -0.04768619 0.0035004793
-0.03674114 0.016598973 0.019455418 0.037919443 -0.032062657 0.02272729 -0.0065100985 -0.0539065
-0.064178705 0.0138695715 -0.00408524 0.061702948 -0.054340847 -0.03792231 -0.008063584 -0.0669579
-0.038036384 -0.006377029 0.011845675 0.014740271 -0.021580726 -0.02959871 0.018121341 -0.045882836
-0.05106931 -0.0198001 0.0663176 -0.023897154 -0.02814698 0.040076967 -0.053201117 0.02699748
0.021702379 -0.046517987 0.055763476 -0.040957507 0.029532626 -0.044954494 -0.0030030173 -0.054243427
0.041354757 -0.03800095 0.010733356 0.048770063 -0.0054020504 0.014432371 -0.05214818 -0.06416281
0.009832953 0.03187857 0.010202787 0.0065112254 -0.06334682 -0.047257315 0.058348402 0.0062423525
0.055144776 -0.018624358 0.06365365 -0.07925343 -0.043883037 0.026791 0.038228326 0.005722242
0.033545204 -0.055657644 -0.05285959 0.017688116 0.041901313 -0.0193514 -0.04773302 0.07316743
0.02736635 0.07021735 0.05921277 -0.06778295 0.018644826 -0.046489842 0.04079811 0.023514716
0.01151769 -0.01202721 -0.018189225 0.05315553 -9.972089e-05 -0.029515482 0.010827784 -0.064236514
-0.015746033 0.045619372 -0.032754894 0.042132948 -0.06806598 -0.07929068 0.035561156 0.060073145
0.047280032 -0.061187815 -0.0066783708 -0.050413087 -0.011648188 -0.048958696 -0.02329554 0.052230157
-0.024389878 0.014086054 -0.054084904 -0.0074520125 -0.07104125 -0.015294136 0.03877005 -0.038933847
0.028024066 -0.08383122 0.06010127 -0.058667704 0.0031710956 0.047527462 -0.0084788 0.05037215
-0.051065397 0.0015307165 -0.043752026 0.0754718 -0.034460902 -0.057486452 -0.01689298 -0.059918422
-0.031354483 0.04328433 -0.044770278 0.027613897 -0.0379272 -0.026184354 -0.01880899 -0.047897507
-0.04443583 -0.04503843 -0.030038116 -0.018167213 0.056292586 -0.011687389 -0.016014311 0.06898545
0.025425714 -0.057635874 0.013017926 -0.018846162 0.034928307 0.009492889 -0.06384918 -0.036461513
-0.008563954 0.015988685 0.040224582 0.0463506 0.0013180517 0.02267871 -0.060837924 -0.030943101
-0.009127162 0.024295451 -0.00356166 0.058748715 0.04753664 0.051642172 0.01944917 -0.04688836
0.06417896 -0.08096759 0.016392916 0.020718357 -0.037692737 0.028382571 0.017526196 0.02845337
0.05808864 -0.05646338 0.04460412 0.014774224 -0.044063326 -0.020558808 0.023055043 0.016310887

hidden2_Y1.weight f4 [200, 200]
00000000: 702d be3d cf77 d63d 64d2 b0bc 4b9a c93c
00000010: bd09 2b3d 0b5d 0abd 39bc b23c 23e8 0fbd
00000020: 7672 8b3d be7e 773d c891 833d 3913 6c3d
00000030: 9e18 f23c c731 f03d 6bac cc3d a7de 063d
00000040: 29ec bcbd df83 0f3d b755 81bd 9789 03bd
00000050: 8c33 d3bc 2be7 86bd a67f d33c addd babd
00000060: 8367 833d 3b61 553b f5f0 04bd 175f 09be
00000070: e208 98bc eccf 943b 3592 a4bd a01d 883d
00000080: 21c0 6bbc 46f2 97bd 639e baba 6d33 c23c
00000090: 244c ab3d d82c b7bd c354 06bd f6f2 a6bd
000000a0: 5aef e13d 57fe a3bd 720f ee3d 29c8 b93d
000000b0: 5ce2 bebc cf80 8d3d d880 fcbc ba52 52bd
000000c0: 5139 053d a2d2 14bd de73 743d 0969 b4bd
000000d0: b395 9dbd d62a a5bc 154e 933d 82c2 bfbd
000000e0: aa32 de3b 4c24 943d 101d fd3d b490 0bbe
000000f0: 3c40 5bbd 0ad2 03bd 2023 d93d 66bd b8bd
00000100: be60 82bd b244 b4bd 6d83 3a3d f07e bc3d
00000110: 33a1 6dbd 5064 b4bd f7d8 50bd 1e3a 8abd
00000120: 9cec d03d f6b1 c83d 9206 353d 081c 95bd
00000130: 5f98 f0bd 9c7d 95bd 3723 6abb 8d1f 40bd
00000140: 77a1 34bc 0202 d83d c9c4 06bd 96cd 77bd
00000150: b988 abbc 617a 7abd 166b 41bc 9824 e43d
00000160: bd71 823d a641 fc3d fbca 72bd bfc5 bb3d
00000170: e863 b0bd b00c 0abe 65e6 c3bd ce8d c5bd
00000180: db94 f1bd 7882 07be eb1c a9bd bf53 edbd
00000190: 5341 bbbc b120 ebbd e985 943d 7e6a 303c
000001a0: ee04 acbd 9714 e9bd d25c 6bbd a9e9 23bd
000001b0: 9811 e63d bd25 e13d 7906 7fbd eaa5 e53d
000001c0: 7d23 bd3c 7389 21bc 67ed 8d3d cb6a 9d3d
000001d0: e6b7 453d c803 5b3d f4f1 acbd 3446 5ebd
000001e0: 2cdc 8b3d 8728 e4bd 98d0 b5bc dbb7 c7bc
000001f0: f497 333c 64a4 1c3d d066 493d b260 253d
00000200: ce3e 753d b8ab c3bd 10cf 6dbd 4499 fb3d
00000210: a0f7 a5bd e32c 553c 5ecf 89bd ec07 223d
00000220: e810 293d cc1f 5abd fb5a 69bd caf5 da3d
00000230: d480 d93b f2e7 a73d e805 333d 7180 9b3d
00000240: ab74 493d 1688 ca3d c630 cebd 3e59 ef3d
00000250: 2de5 b3bd ccbf 3e3a 2d34 e5bc 4cee 593d
00000260: 3d49 f13d d3b8 283d 415c be3d 40b7 dc3d
00000270: d7c0 2fba 8461 2c3d ea85 a73d 3ae4 673d
00000280: b23e d23d f32e e2bb 7279 b6bd 28b4 543d
00000290: 92b2 013e 5d5e eabd 6ba3 b23d 30f2 98bd
000002a0: cfef 66bd 8794 cdbd e9df f13c b0e4 de3d
000002b0: ea48 1c3c 340f b7bd 333a e13d 5bc7 573b
000002c0: 65f0 66bd d15a da3d bdf2 4ebc 0628 bebd
000002d0: b3ef 8e3d a4aa 4f3d a5a9 c53d 936f 6fbd
000002e0: a793 293d ffde 8fbd bf33 4e3d dadb d83c
000002f0: 7e17 9cbd 1e11 ae3d 530c c2bd 66b6 37b9
00000300: a37f d1bd 1644 413d 227c d9bd 01ef 80bb
00000310: 244a a93c 2fc0 b2bb 4c66 c739 515f 01ba
00000320: 83d6 b13d d334 cf3d 4161 e3bd e647 75bd
00000330: a208 323d af4f 45bc 25c0 7bbd fd99 91bc
00000340: 3168 0cbe 03cd e23d 58e8 b53b 9ad0 a7bc
00000350: 4b93 683b 7583 713d e362 8a3d 090a ae3c
00000360: c368 e43d de31 763d 72c2 9dbd e5c7 a33c
00000370: 74ec e93d cd3e d5bc 6643 da3d 2da0 ad3c
00000380: 5696 583d 069d b8bc 936c 4c3d 11a7 82bd
00000390: 043d 8c3d 7cad d8bd 0197 a4bd aa32 2ebd
000003a0: 4bee 3f3d 4b2e 8dbd bb72 543d c9eb a1bd
000003b0: 2f37 eb3c e556 78bd d357 e038 b21e bb3d
000003c0: 9f91 aabc 6904 c63a 82b1 023c e25a ea3c
000003d0: c772 d6bd cc43 b03d 3491 633d 5845 633d
000003e0: 8c35 e2bc c6ad 21bd 4cea 823d bdbe 8ebd
000003f0: 9ff6 c53d b18f 583d 2afa 9cbd 6450 963d
0.0928601 0.104720704 -0.021584697 0.024609705 0.041757334 -0.03378014 0.021818267 -0.035133492
0.06808941 0.060423605 0.0642429 0.05763552 0.029552754 0.11728244 0.099938236 0.03292718
-0.092247315 0.03503787 -0.06315177 -0.032113638 -0.025781415 -0.065870605 0.025817703 -0.091243125
0.06416228 0.0032559175 -0.032456357 -0.1341518 -0.018558923 0.004541388 -0.08035699 0.066462755
-0.014389069 -0.07419257 -0.0014237877 0.023706162 0.08364132 -0.089441 -0.03279568 -0.0815181
0.11031981 -0.08007496 0.1162404 0.09071381 -0.023301296 0.06909334 -0.030823156 -0.051348425
0.032525364 -0.036333688 0.059680812 -0.08809096 -0.076945685 -0.020162027 0.07192627 -0.09363271
0.006780942 0.072334856 0.12359059 -0.13629419 -0.053528056 -0.03218273 0.10602403 -0.090205
-0.06366108 -0.08802165 0.045535494 0.09203899 -0.05801506 -0.088081956 -0.050988164 -0.06749366
0.1020138 0.09799568 0.04419572 -0.07280737 -0.117478125 -0.07299349 -0.0035726556 -0.04690509
-0.011024824 0.10547258 -0.032902513 -0.060498796 -0.020939218 -0.061151866 -0.011805316 0.11139792
0.0636935 0.12317209 -0.05927561 0.091685764 -0.086128056 -0.13481402 -0.09565429 -0.09646188
-0.1179597 -0.13233364 -0.08257469 -0.11588239 -0.022858297 -0.11480845 0.07252104 0.010767577
-0.08399378 -0.1138088 -0.057461567 -0.040017758 0.112338245 0.10993526 -0.062262032 0.11213286
0.023088211 -0.009859431 0.069300465 0.07686385 0.048271082 0.053470403 -0.084445864 -0.05426617
0.06829104 -0.111405425 -0.022194192 -0.024379661 0.010961521 0.038242713 0.049170315 0.04037542
0.05987435 -0.09554237 -0.0580588 0.122850925 -0.08103871 0.01301119 -0.06729005 0.039558336
0.04127589 -0.05325298 -0.05697153 0.10691412 0.006637672 0.08198537 0.043706805 0.07592858
0.04918353 0.098892376 -0.100678965 0.116869435 -0.08783946 0.0007276505 -0.02797898 0.053205773
0.11781547 0.041191887 0.0929494 0.1077714 -0.00067044556 0.042085186 0.08179839 0.05661414
0.102658644 -0.0069025694 -0.089098826 0.051929623 0.12665775 -0.114437796 0.08722576 -0.074680686
-0.056381043 -0.10038095 0.029525714 0.108834624 0.009538868 -0.08938447 0.10997429 0.0032925222
-0.0563816 0.10661853 -0.0126311155 -0.092849776 0.06979313 0.050699845 0.09651498 -0.058456015
0.041400578 -0.07024955 0.050342318 0.02647202 -0.07621668 0.084993586 -0.09475007 -0.00017520189
-0.10229423 0.047184072 -0.106193796 -0.0039347415 0.020665236 -0.005455039 0.00038032455 -0.0004935163
0.08683493 0.10117497 -0.11102534 -0.05988302 0.043465264 -0.012042924 -0.06146254 -0.017773623
-0.13711621 0.11074259 0.005551379 -0.020485211 0.0035488184 0.058963258 0.067571424 0.02124502
0.11152794 0.06010615 -0.07703103 0.019992778 0.11422053 -0.026030922 0.106573865 0.021194542
0.052877747 -0.022535812 0.049908232 -0.06379522 0.06847575 -0.105799645 -0.08036614 -0.042528786
0.046858113 -0.06893595 0.051867228 -0.079063006 0.028712837 -0.060629744 0.00010697511 0.09136714
-0.02082139 0.0015107516 0.0079768915 0.02860779 -0.10471111 0.08606681 0.0555584 0.055486053
-0.027613424 -0.039472364 0.06392345 -0.06969974 0.0966618 0.05287141 -0.076649025 0.07339552

hidden2_Y1.bias f4 [200]
00000000: 4b13 4e3d 65c2 0a3c 0ad5 69bd 0d9b 533d
00000010: 707c 64bd eec5 843d e907 cd3c ed38 273d
00000020: b39d cd3c aead d3ba 92df 563d a6e3 50bd
00000030: af1f aebd 46d7 9abc aec3 833d 4051 3abd
00000040: 042e 4cbd 7754 4c3c 72a3 bfbc 98ea 7a3d
00000050: 3566 a33b e77d 21bd 1f93 8cbd 2dca c13c
00000060: 8b2d 5e3d 8989 f73c 7827 133d a04a 663c
00000070: 8be7 58bd 97d8 27bd de6f 66bd 00aa 423b
00000080: 8cec 37bc 9cfe 4a3d 964d 3a3d 75c8 32bc
00000090: 1915 30bd 2ee7 0dbd 2470 34bc a905 713c
000000a0: b268 75bd 439a 45bd 64c0 efbc 429f babc
000000b0: 5aa6 a9bd 1b8a b03c d938 62bd 37c2 0d3d
000000c0: 028d e13b f354 4a3c fa12 5f3d 40c0 9fbc
000000d0: e03d 643c adef 513d f28d 343d 5c55 ec3c
000000e0: 022c 88bd 9b1b 803d ad44 87bd 8d13 8abd
000000f0: a648 57bd e5c7 913c eeaf aabd 0665 f13c
00000100: 3033 503c 7f7d 183c 5aee 9e3d ed72 853c
00000110: 8a03 633c 3298 663d ee7a 0ebc 035a 71bd
00000120: 563f ca3b 4f25 58bc 6883 ebbc 930e f638
00000130: f025 acbb 0f5e 30bc 6f1d 293d c809 67bd
00000140: 8b53 41bc 0a24 c5bc 18b6 d3bc bd8b 6abc
00000150: edc9 0ebd 2c7b 673d 1095 6c3d e672 68bd
00000160: 035f 723d 5101 783d 2df0 ab3b 36d2 7bbd
00000170: 971c cebc 92ce 56bb 53d9 44bc dc85 bfbb
00000180: 2ff7 3c3c 2852 cd3c 032f ef3a 1429 6f3c
00000190: c288 803d 1f21 143d de63 283d 3bc8 053d
000001a0: d5bf d63c 4155 373d 15ce 2bbc f17e 02bd
000001b0: bc94 ed3c bb3e 3abd 7619 753c 3c03 bc3c
000001c0: ad83 403c 87e6 703d d730 87bd 8faf 6a3d
000001d0: 9cd9 34bd 6ffe 2cbd a020 d7bc 6320 383d
000001e0: 37f7 8f3d b10c 923d d7d1 4c3d 502a b3bc
000001f0: 5c55 0fbd 7007 343c 95fe 6c3d 28d1 e1bc
00000200: 1069 28bb 0008 e5bb c83f 283b 8b04 b4bc
00000210: df78 f63c 73d4 9f3d 565c 47bd 6858 5dbd
00000220: 9bf0 8cbd 9e89 223d 4d53 8ebd d610 5d3c
00000230: 628f d5bc 4ca8 253d d5aa c0bc 2cc3 703c
00000240: c365 01bd b23a ad3b 07bd 65bc 9796 163c
00000250: 81a6 4d3d 469a 053c c3e8 27bd 61ab 113c
00000260: ef21 813d 1d1c 5bbd b818 183c b705 bd3b
00000270: 52b4 3a3d c16e 78bd 375e 2e3d 7e1d 19bd
00000280: 177b c1bd a1a9 06bd 4960 a33c dbf5 09bd
00000290: 5837 5bbd 27ba 62bd 70f8 95bd 3ca1 26bd
000002a0: 7a22 60bd 4e2a 67bc d297 e1bc 72a5 8abd
000002b0: c09e 03bd a03b 8abd 231d 97bc 03db 29bd
000002c0: 5cdd 4abd c475 ab3c b8cd 5f3d 1d0b 9cbc
000002d0: 9b52 86bd f950 f03c 17d3 31bd 2bb9 373d
000002e0: 743a 0dbc 1bb2 9d3d db84 623c 8cf5 73bc
000002f0: 2fe3 353d a969 80bd 32ba 67bc 3802 e53c
00000300: 2a33 18bd 958f 513d 34b2 eabc 8b07 663d
00000310: c5b2 b23c 8c61 803d 95c0 b43c 80d0 0a3d
0.050311368 0.008469199 -0.057087936 0.05166154 -0.055782735 0.064830646 0.025028186 0.040825773
0.02509961 -0.0016149783 0.052459307 -0.050998352 -0.08502137 -0.018901478 0.06433807 -0.045487642
-0.04984857 0.01247131 -0.023393366 0.061258882 0.0049865493 -0.03942671 -0.068639986 0.023655975
0.054242652 0.030216949 0.035926312 0.014055878 -0.05295519 -0.04097804 -0.05625903 0.0029703379
-0.011225831 0.04955922 0.045484148 -0.0109120505 -0.04298887 -0.0346443 -0.0110130645 0.014710822
-0.0599143 -0.04824282 -0.029266544 -0.022781018 -0.08283682 0.021550229 -0.055229995 0.034609046
0.0068832645 0.012349355 0.054461457 -0.019500852 0.013930768 0.051253963 0.044080682 0.028849296
-0.06649019 0.06255265 -0.06604896 -0.0674201 -0.052559517 0.017795512 -0.08334337 0.029467117
0.012707517 0.009307264 0.07760306 0.016290152 0.013855824 0.05629749 -0.008696301 -0.058923732
0.006172101 -0.013192489 -0.028749183 0.00011732909 -0.005253546 -0.010764613 0.041287836 -0.056405813
-0.011799703 -0.024065036 -0.025843665 -0.014315543 -0.03486054 0.05651395 0.057759345 -0.0567502
0.05917264 0.06054813 0.005247137 -0.06147977 -0.025160117 -0.0032776934 -0.012014705 -0.0058448147
0.011533543 0.02506359 0.0018248264 0.014597196 0.062760845 0.0361644 0.041110866 0.032661658
0.02621452 0.04475904 -0.0104861455 -0.031859342 0.029001586 -0.04546998 0.014959684 0.022950761
0.011750144 0.058813598 -0.06601112 0.057296332 -0.04415284 -0.042234834 -0.026260674 0.04495276
0.07029574 0.07131327 0.050004806 -0.021870762 -0.034993514 0.010988101 0.057859976 -0.027565554
-0.0025697388 -0.006989479 0.0025672782 -0.021974823 0.030086933 0.07804193 -0.048672043 -0.05403939
-0.06881829 0.039682023 -0.06949482 0.0134927835 -0.026069347 0.040443704 -0.023518959 0.01469497
-0.03159119 0.005286538 -0.014022118 0.009191177 0.05020762 0.008154457 -0.040993463 0.008890958
0.063053004 -0.053493608 0.009283237 0.0057685035 0.045582123 -0.0606525 0.04257032 -0.03738164
-0.09447306 -0.032876614 0.019943373 -0.03368173 -0.053519577 -0.05535331 -0.07322776 -0.04068111
-0.05472038 -0.014109207 -0.027538214 -0.067698374 -0.032133818 -0.06749654 -0.01844651 -0.04146863
-0.04952751 0.020930178 0.054639548 -0.019048268 -0.065587245 0.029335486 -0.0434142 0.044854324
-0.008619893 0.076999865 0.0138256205 -0.014890086 0.044406112 -0.06270153 -0.0141435135 0.02795516
-0.03715817 0.05116232 -0.028649427 0.056159537 0.02181376 0.062686056 0.022064487 0.033890247
