Results/Models/SAE_stacked_all_DCN_model_iter_id_7_epoch_400_lr_0.0001_mmd.pth (torch, 828598 bytes, 16 tensors)

shared1.weight f4 [200, 17]
0	0x3d541a27	0.051782753
1	0xbe01f86a	-0.12692419
2	0x3ca2de7e	0.019881483
3	0xbdbf2f5b	-0.09335204
4	0x3bf9ad7a	0.007619557
5	0xbdba11df	-0.0908544
6	0xbd546e31	-0.0518629
7	0xbda09c7f	-0.07842349
8	0xbd1f0db7	-0.03883144
9	0xbdd00fc7	-0.10159259
10	0xbc037a7d	-0.008024809
11	0xbc416cd9	-0.011805736
12	0x3c8f48f2	0.017490838
13	0xbe657f05	-0.22411735
14	0x3dd5c0a5	0.10437135
15	0xbdc216b8	-0.094769895
16	0xbdfe418c	-0.12414846
17	0xbcda2dc1	-0.026633145
18	0xbd67ec68	-0.05662194
19	0xbc88336f	-0.016626088
20	0x3cbe6448	0.023241177
21	0xbc472f10	-0.012157217
22	0x3cb95e97	0.022628112
23	0x3e0436ed	0.12911578
24	0x3dd1fe1d	0.102535464
25	0xbccbc887	-0.024875892
26	0xbd6d623e	-0.05795502
27	0x3d6c8966	0.05774822
28	0xbce22bd8	-0.027608797
29	0xbe137893	-0.14401464
30	0x3d98f969	0.07469446
31	0x3b6b9411	0.0035946409
32	0xbc251fbf	-0.01007837
33	0x3e5a828c	0.21338862
34	0xbe1ae237	-0.15125357
35	0xbc430616	-0.0119033065
36	0xba129fea	-0.0005593287
37	0x3d01814a	0.03161744
38	0x3d1c93c5	0.03822686
39	0x3e0b4de4	0.13603932
40	0xbde41878	-0.111374795
41	0x3e084915	0.13309129
42	0x3d21eb51	0.039531056
43	0x3e276337	0.16346441
44	0x3d1d502a	0.03840653
45	0x3de76a1c	0.11299536
46	0xbdfda7ab	-0.12385496
47	0x3d8f44c9	0.069955416
48	0xbe5d2505	-0.21596153
49	0xbcc8f9cf	-0.02453318
50	0x3cd6e6e9	0.026233153
51	0x3b1a5250	0.0023547597
52	0x3def523e	0.11685608
53	0x3dc92c3d	0.09822891
54	0x3cf3c10c	0.029755138
55	0xbba8dd9f	-0.0051533724
56	0x3dbebe4a	0.093136385
57	0x3c8481e9	0.016175227
58	0x3cb3f36f	0.021966664
59	0x3d5b0501	0.05347157
60	0x3d8caca5	0.06868867
61	0xbbf5b6d5	-0.007498602
62	0x3db9c2d5	0.090703644
63	0xbd67e496	-0.05661448
64	0xbdcea129	-0.100893326
65	0xbe5988f3	-0.21243648
66	0x3dbb49b9	0.09144921
67	0x3d99eb7f	0.075156204
68	0xbe436bf2	-0.19084147
69	0x3d2c90da	0.04213033
70	0xbd9df9ba	-0.07713647
71	0xbd5babfa	-0.053630807
72	0xbd4d90ba	-0.05018685
73	0x3dd00be5	0.10158519
74	0xbd7f7702	-0.062369354
75	0xbdd98101	-0.10620309
76	0x3e057086	0.13031206
77	0xbd2a02f0	-0.041506708
78	0xbded273e	-0.115797505
79	0xbe08a998	-0.13345945
80	0x3dc45780	0.09587002
81	0xbd66f943	-0.05639006
82	0x3d50c40c	0.050968215
83	0x3e3adb60	0.18247747
84	0xbd25435c	-0.040347442
85	0xbd44bb22	-0.048030026
86	0x3d446be0	0.04795444
87	0x3d05a429	0.03262726
88	0x3d648bb0	0.05579728
89	0xbe14a08d	-0.1451437
90	0x3e1eed83	0.15520291
91	0x3e39a2d2	0.18128517
92	0x3d932624	0.07185009
93	0x3c968a3a	0.018376458
94	0x3d4fc421	0.050724152
95	0x3cf159d3	0.029461777
96	0xbd64aecb	-0.055830758
97	0xbd797440	-0.06090188
98	0xbda419bd	-0.08012722
99	0xbdad7e56	-0.08471362
100	0x3cdce396	0.02696399
101	0xbddd1a53	-0.107960366
102	0x3dd332bb	0.103124104
103	0xbd1d7269	-0.03843919
104	0x3ddc032d	0.10742793
105	0xbc3e12c0	-0.01160115
106	0xbdf9bc50	-0.12194121
107	0xbd0bd3d8	-0.034137577
108	0xbbccb18e	-0.006246752
109	0x3cb9864f	0.022647051
110	0x3dc8c998	0.09804076
111	0xbd7188ff	-0.05896854
112	0x3db202e2	0.08691956
113	0xbdba3a5c	-0.090931624
114	0xbce38392	-0.027772699
115	0xbe70a6bd	-0.23501106
116	0xbd999a47	-0.07500129
117	0x3df42d31	0.11922682
118	0xbe3532e3	-0.17695193
119	0xbde3449b	-0.1109707
120	0xbd20972e	-0.039206676
121	0x3bd8ebe9	0.0066199196
122	0x3e3da86c	0.18521279
123	0xbe4e33db	-0.20136969
124	0xbdb08a51	-0.08620132
125	0x3d976af8	0.073934495
126	0x3e0179c0	0.126441
127	0xbdc67e66	-0.09692077
128	0xbe08abe6	-0.13346824
129	0x3db7c78c	0.089736074
130	0x3c5dcded	0.013537866
131	0x3c2533d0	0.010083154
132	0x3da1e9e7	0.079059415
133	0xbd4c62ed	-0.04989903
134	0xbb990ac9	-0.004670475
135	0x3d9d122e	0.07669483
136	0xbde9e2bf	-0.114202015
137	0x3c471fc6	0.0121535715
138	0x3dd7cde9	0.10537321
139	0xbe072e6c	-0.13201302
140	0x3e0c17fe	0.13681027
141	0xbe3c8515	-0.18410142
142	0xbd14379a	-0.03618584
143	0xbc915bf4	-0.017744042
144	0xbc3456d8	-0.011007033
145	0x3d615aa7	0.055018093
146	0xbdf4e17e	-0.11957072
147	0xbc933eb0	-0.017974228
148	0xbd9a6997	-0.07539671
149	0x3e0a2fc1	0.13494779
150	0x3e18ee8c	0.14934748
151	0x3debe7f0	0.11518848
152	0xbe3347bf	-0.17507838
153	0xbe2455ce	-0.16048357
154	0xbdaa65a8	-0.08320171
155	0xbe03fc39	-0.12889184
156	0x3e0ed7e1	0.13949539
157	0x3c9cb6b1	0.019130083
158	0x3e39bbb7	0.18138014
159	0x3d448b76	0.047984563
160	0x3dd5fd92	0.10448755
161	0xbdbb3dd5	-0.09142653
162	0x3dcbc764	0.0995014
163	0xbd2bf444	-0.041980997
164	0x3dad9e7d	0.08477495
165	0x3d1af29f	0.037829038
166	0xbadb3fe6	-0.0016727417
167	0xbe1eec0f	-0.15519737
168	0xbd6c261b	-0.057653528
169	0xbd1a4384	-0.037662044
170	0xbe257779	-0.16158856
171	0x3d35e450	0.04440719
172	0xbdb00fcf	-0.08596765
173	0xbe4325c1	-0.1905737
174	0x3d044070	0.032288015
175	0x3d21c20c	0.0394917
176	0x3e02c8a3	0.1277185
177	0xbd4c17fb	-0.049827557
178	0x3e0074b0	0.12544513
179	0xbc26e3d8	-0.010186158
180	0x3de99e3a	0.114071324
181	0x3df425a2	0.119212404
182	0xbded845f	-0.115975134
183	0x3e2d0085	0.1689473
184	0x3dfd57f6	0.12370293
185	0x3c052af1	0.008127914
186	0xbe134172	-0.14380434
187	0x3cf23efe	0.029571053
188	0x3d16dbda	0.03683076
189	0xbe0e955f	-0.13924168
190	0x3deb52ef	0.11490428
191	0x397b699c	0.00023976568
192	0xbd589fcb	-0.052886765
193	0xbb863949	-0.0040961844
194	0x3c3ce4ab	0.011529128
195	0xbd0d5659	-0.034506176
196	0x3d82fc26	0.0639575
197	0xbd887282	-0.06662466
198	0xbc75930b	-0.014988671
199	0xbd8dea4b	-0.069294535
200	0x3decd875	0.115647234
201	0xbe537049	-0.20648302
202	0xbdcd2214	-0.100162655
203	0x3e795a81	0.24350931
204	0x3df1a81f	0.11799645
205	0xbd835b09	-0.06413848
206	0xbdfe8b30	-0.12428892
207	0x3e1c5bef	0.15269445
208	0xbde33aaa	-0.11095174
209	0xbd7da38e	-0.061923556
210	0x3da547d3	0.0807034
211	0x3dda8b6e	0.10671125
212	0x3df9e880	0.12202549
213	0xbe00c1b3	-0.1257389
214	0xbde0f851	-0.109848626
215	0x3c02e36c	0.007988792
216	0xbd25bdea	-0.04046432
217	0xbe6e37f9	-0.2326354
218	0xbdb9e31f	-0.09076523
219	0xbd796450	-0.06088668
220	0xbd58d528	-0.052937657
221	0xbe1d3b3d	-0.15354629
222	0x3c5f0149	0.013611146
223	0xbd3107a6	-0.043220185
224	0xbd912268	-0.070866406
225	0xbdb8a8fa	-0.09016605
226	0x3e161af1	0.14658715
227	0xbde9208d	-0.11383162
228	0xbdbdf526	-0.09275274
229	0xbe2af38d	-0.1669447
230	0x3d311844	0.043236032
231	0x3da7eb9b	0.08199235
232	0x3d6f0f41	0.058364157
233	0x3e36cbb1	0.1785114
234	0x3e305f01	0.17223741
235	0xbe10ea8a	-0.1415197
236	0xbdc7803a	-0.09741254
237	0xbe88c74b	-0.26714548
238	0x3db14345	0.08655409
239	0x3dcfa909	0.10139663
240	0xbdca589a	-0.09880181
241	0x3e05b1ed	0.13056155
242	0xbda622d3	-0.08112111
243	0xbc9ee846	-0.019397866
244	0xbe1a0369	-0.15040363
245	0x3e2e4bf2	0.17021158
246	0x3d09b7d5	0.03362258
247	0xbe201e53	-0.15636568
248	0xbb4ea349	-0.003153043
249	0x3d9c84bc	0.076425046
250	0xbda4ae94	-0.08041111
251	0xbd3fe23a	-0.046846606
252	0xbe158f0d	-0.14605351
253	0xbd739236	-0.05946561
254	0x3dacf4c8	0.08445126
255	0x3dac2dca	0.08407171

shared1.bias f4 [200]
0	0xbca502d4	-0.02014295
1	0x3da13ede	0.07873319
2	0x3c6c47f5	0.014421453
3	0x3c5e7c03	0.013579371
4	0x3e2952cc	0.16535491
5	0xbc6ef417	-0.014584563
6	0x3e21e1a5	0.15808733
7	0xbce5542a	-0.027994234
8	0xbdb1ddf3	-0.086849116
9	0x3e2f23d0	0.17103505
10	0xbe32bed7	-0.17455612
11	0x3dbcb897	0.09214895
12	0x3e1d30cc	0.15350646
13	0xbd07f3bf	-0.03319144
14	0x3def74c6	0.11692195
15	0x3e01443a	0.12623683
16	0xbdf33cfd	-0.11876867
17	0x3c6991c1	0.014255942
18	0x3d7967d7	0.060890045
19	0xbda837c3	-0.08213761
20	0xbe71d9ed	-0.23618288
21	0xbd8bd23c	-0.068272084
22	0x3d49e1da	0.049287654
23	0xbd67fc4e	-0.0566371
24	0x3d4c376c	0.049857542
25	0x3decd173	0.11563387
26	0xbcc16357	-0.02360694
27	0xbb5002e8	-0.0031740014
28	0xbe813ef8	-0.25243354
29	0xbdfd9696	-0.123822376
30	0xbc92e383	-0.017930752
31	0x3d36972b	0.04457776
32	0xbdafa9f9	-0.085773416
33	0xbd123a72	-0.03570027
34	0x3dee3f91	0.11633218
35	0x3d9953bb	0.074866734
36	0xbc846ee1	-0.016166152
37	0xbcc52df4	-0.024069764
38	0xbc021e5f	-0.007941811
39	0xbd167016	-0.036727987
40	0xbe439b53	-0.1910222
41	0xbe82c821	-0.2554331
42	0xbd115642	-0.035482652
43	0x3d7d1416	0.061786734
44	0x3df424ed	0.119211055
45	0x3d788479	0.06067321
46	0x3d1302d1	0.035891358
47	0x3dac598c	0.08415517
48	0xbe47405a	-0.19458142
49	0xbd6e4d4d	-0.05817919
50	0xbdbf559f	-0.09342503
51	0x3daa46c2	0.08314277
52	0xbce7c175	-0.02829049
53	0x3e33a72d	0.17544241
54	0xbe327c61	-0.1743026
55	0x3c69597a	0.014242524
56	0xbe79d26b	-0.24396674
57	0xbe737256	-0.23774084
58	0x3e3cba93	0.18430547
59	0x3e50539e	0.20344397
60	0xbd380a99	-0.04493198
61	0xbe263d21	-0.16234256
62	0x3c76e2b1	0.015068696
63	0xbe0e590c	-0.13901156
64	0x3dcc4a89	0.09975154
65	0xbe2d48ee	-0.16922352
66	0xbe5fe0ca	-0.21863094
67	0xbe03dc0f	-0.12876914
68	0x3e394ca9	0.1809565
69	0x3ce7513a	0.028236974
70	0x3de98e70	0.11404121
71	0xbdf2b210	-0.11850369
72	0xbe35c2a0	-0.17750025
73	0x3d792942	0.060830362
74	0x3ded42cf	0.11585008
75	0x3e145719	0.1448635
76	0xbcd59aba	-0.026074756
77	0x3e0c0b49	0.1367618
78	0x3e0dd2df	0.13849972
79	0xbd5a9a9c	-0.053370103
80	0x3e02c761	0.1277137
81	0xbdac5ab3	-0.08415737
82	0xbe58af12	-0.21160534
83	0xbe78ec6f	-0.24308942
84	0xbe86626b	-0.26246962
85	0x3bf3a6cd	0.0074356557
86	0xbe125082	-0.14288524
87	0xbe61cfd3	-0.22051935
88	0x3dce44f3	0.10071745
89	0xbe267475	-0.16255362
90	0x3da6165d	0.08109734
91	0xbe028619	-0.12746467
92	0x3da9412a	0.08264382
93	0xbe483c36	-0.19554219
94	0xbd6d4b58	-0.05793318
95	0xbe957051	-0.29187253
96	0x3c5e879f	0.013582139
97	0xbe5ec047	-0.21753035
98	0xbe071c2f	-0.13194345
99	0xbd85fed8	-0.06542748
100	0xbdd0b09f	-0.10189938
101	0x3df5734f	0.11984884
102	0xbbfafc53	-0.007659474
103	0x3d9e2479	0.077218
104	0xbd8b4923	-0.06801059
105	0x3ddc4697	0.107556514
106	0x3c89a3bd	0.01680171
107	0x3c8c5aa9	0.017133074
108	0xbdbdeb54	-0.09273401
109	0xbe4ae0c7	-0.19812308
110	0xbe01b2ea	-0.12665907
111	0x3b3a9382	0.002846927
112	0x3df6b904	0.12047008
113	0xbe1a1572	-0.15047243
114	0xbd72f147	-0.05931213
115	0xbe90577d	-0.28191748
116	0xbda7226e	-0.08160864
117	0x3dd8b1c1	0.10580779
118	0x3d80ba29	0.06285507
119	0x3e0c8101	0.13721086
120	0x3e1f63ce	0.15565416
121	0xbe54076f	-0.2070596
122	0xbd293622	-0.04131139
123	0xbb92b510	-0.0044771507
124	0x3daf44d3	0.08558049
125	0xbdb26c1a	-0.08712025
126	0x3d394875	0.045235116
127	0xbde4fdc3	-0.11181214
128	0xbe04eb6e	-0.12980434
129	0xbe3892a1	-0.18024684
130	0x3d50315f	0.050828334
131	0xbd7a47bc	-0.061103567
132	0xbe376711	-0.1791041
133	0x3da4cc69	0.08046801
134	0xbdaa9a1d	-0.08330176
135	0xbd9967f2	-0.07490529
136	0xbd0cf0bf	-0.03440928
137	0x3dc62837	0.09675639
138	0x3c5ad0d6	0.013355454
139	0xbe02810d	-0.12744541
140	0x3d1cbf2c	0.038268253
141	0xbd76b2e8	-0.060229212
142	0xbdb51546	-0.08841948
143	0xbbc2808b	-0.0059357337
144	0xbe33af8c	-0.17547435
145	0x3d8ddf78	0.06927389
146	0x3dbfdd86	0.09368424
147	0x3cadb3b6	0.021203857
148	0xbe59d2fd	-0.21271892
149	0xbe027bbe	-0.12742516
150	0xbe97ffa0	-0.29687214
151	0xbe880e4c	-0.26573408
152	0x3d85983e	0.065231785
153	0xbe5a7c8a	-0.2133657
154	0xbe019ece	-0.12658235
155	0x3d976106	0.073915526
156	0x3d6d2181	0.05789328
157	0xbdc2eac8	-0.09517437
158	0x3be2fa5a	0.006926817
159	0x3dba7f67	0.09106331
160	0xbcbf131f	-0.023324547
161	0x3e3d56e6	0.1849018
162	0xbe65042a	-0.2236487
163	0xbe0ad4b5	-0.13557704
164	0xbe329b72	-0.1744211
165	0xbb043df4	-0.0020178529
166	0xbe6a926d	-0.2290742
167	0x3cff278b	0.031146785
168	0xbe6fcaf9	-0.23417272
169	0xbd89b940	-0.06724787
170	0xbe886910	-0.26642656
171	0x3d7cd7f0	0.06172937
172	0x3e099e55	0.13439305
173	0x3dcb0ed8	0.099149406
174	0xbdfca2f4	-0.12335768
175	0xbd828f62	-0.06375004
176	0xbb3b53b8	-0.0028583836
177	0xbd809e2e	-0.062801704
178	0xbd9f5385	-0.07779602
179	0x3c8ad578	0.016947493
180	0x3e3287b3	0.17434578
181	0xbe688c42	-0.22709754
182	0xbde8c2d2	-0.11365284
183	0x3d1a18fd	0.037621487
184	0xbd36bd4d	-0.044614125
185	0x3e04014d	0.12891121
186	0x3de5d590	0.112223744
187	0xbe280532	-0.16408232
188	0x3e2cbf7f	0.16869925
189	0x3dc63ccb	0.09679564
190	0xbdf03bc4	-0.117301494
191	0x3da7d0d7	0.0819413
192	0x3e48f427	0.19624387
193	0x3e45fe4f	0.19335292
194	0xbe6c0474	-0.23048574
195	0x3ccafaac	0.024777733
196	0x3d449331	0.047991935
197	0x3d9fd17e	0.07803629
198	0x3e3b538f	0.18293594
199	0x3c2609ed	0.010134202

shared2.weight f4 [200, 200]
0	0xbdd02a50	-0.101643205
1	0xbcccefa8	-0.02501662
2	0x3e0d98a4	0.13827759
3	0x3d560375	0.05224939
4	0xbcc93264	-0.024560161
5	0xbdf9172a	-0.12162621
6	0x3d308b46	0.04310157
7	0x3c23be93	0.009994167
8	0x3e108b26	0.14115581
9	0xbd6c2874	-0.057655767
10	0xbac74004	-0.0015201573
11	0x3dfa38ca	0.12217863
12	0xbd79f8bd	-0.06102823
13	0x3d95cda3	0.07314613
14	0x3c7ca887	0.015421039
15	0x3d212e3c	0.039350733
16	0x3ccfecb3	0.025381422
17	0xbd12da5a	-0.035852768
18	0xbc731b37	-0.0148380315
19	0xbdaee317	-0.08539408
20	0xbd0288e7	-0.03186884
21	0x3c67eda7	0.014155782
22	0x3d161974	0.036645368
23	0xbbf19339	-0.0073722866
24	0xbda34cb6	-0.07973616
25	0xbd56f71e	-0.052481763
26	0x3d7b4cf7	0.061352696
27	0x3ced81a0	0.028992474
28	0xbda9d429	-0.082924195
29	0x3d098651	0.03357536
30	0xbdb82a26	-0.08992414
31	0x3df5c510	0.12000477
32	0x3de49a9b	0.11162301
33	0xbdedf4c2	-0.116189495
34	0xbda78672	-0.0817994
35	0xbde4db16	-0.111746
36	0x3d0e82dd	0.03479277
37	0xbe2ba7f3	-0.16763286
38	0x3d01896a	0.03162519
39	0x3bff01b9	0.007782188
40	0x3de32627	0.11091261
41	0x3e475716	0.19466814
42	0x3d32d73c	0.043662295
43	0x3d9f4c9e	0.077782854
44	0x3dadb51a	0.08481808
45	0x3e02630e	0.12733099
46	0x3c2b5370	0.010456905
47	0xbce1f677	-0.027583344
48	0xbbda5bc4	-0.0066637713
49	0xbe0bcaa5	-0.13651522
50	0xbe1d2043	-0.15344338
51	0xbcf7657a	-0.030199755
52	0xbdf3a532	-0.11896743
53	0x3d443e3d	0.047910918
54	0x3d8b0c31	0.06789435
55	0xbce07df0	-0.027403802
56	0x3d42b0d3	0.047531914
57	0x3cf02bd8	0.029317781
58	0xbd1c139a	-0.03810463
59	0xbd849bab	-0.06475004
60	0x3de1d9aa	0.11027844
61	0xbd629e15	-0.05532654
62	0xbd80b869	-0.062851734
63	0xbdf7a39d	-0.12091754
64	0xbdbafe2e	-0.09130512
65	0x3d2510fb	0.040299397
66	0x3dd37dad	0.10326705
67	0x3d21e404	0.039524093
68	0xbdbad884	-0.09123328
69	0xb9d81662	-0.00041215407
70	0xbdb114ce	-0.08646546
71	0xbcfd3a37	-0.030911548
72	0x3d5d6651	0.054052655
73	0x3d6aba77	0.057306733
74	0xbda339ef	-0.07970034
75	0x3d348d04	0.044079795
76	0x3d8e153d	0.06937645
77	0xbdbbd916	-0.09172265
78	0x3dbafcd9	0.09130258
79	0x3e111b02	0.14170459
80	0x3d4527c6	0.048133634
81	0xbdf48643	-0.11939671
82	0x3decb07a	0.11557098
83	0x3d8e0d42	0.069361225
84	0x3d14bf89	0.036315475
85	0xbddf91db	-0.109164916
86	0x3d138c97	0.03602275
87	0x3d7e1edf	0.06204116
88	0xbd4eacae	-0.05045765
89	0xbd868553	-0.06568398
90	0xbe087d50	-0.13329053
91	0x3c801f6b	0.015639981
92	0xbddfd249	-0.109287806
93	0x3d1fce31	0.039015
94	0xbd41cd6c	-0.047315046
95	0x3d18372a	0.037161984
96	0xbd9ea433	-0.07746162
97	0x39cc4ad3	0.0003896566
98	0x3ba78b42	0.0051130364
99	0xbdbce924	-0.092241555
100	0xbdae93d1	-0.085242875
101	0xbe0ac4be	-0.13551614
102	0x3dba6d33	0.09102859
103	0x3ccbd74e	0.024882939
104	0xbd914c78	-0.070946634
105	0x3d575e86	0.05258038
106	0x3bf7818e	0.007553286
107	0xbda5c14e	-0.080935106
108	0x3da43ce9	0.0801943
109	0x3d33de7e	0.043913357
110	0xbcd26c87	-0.025686515
111	0x3bb283e2	0.0054478506
112	0xbe1ad5c2	-0.15120605
113	0xbd371e55	-0.04470666
114	0x3dc43ecc	0.0958229
115	0x3bc249ea	0.0059292214
116	0x3ce238f0	0.02761504
117	0xbcadb08f	-0.021202354
118	0xbd986aff	-0.07442283
119	0xbe16e66d	-0.14736338
120	0xbd032543	-0.032017957
121	0x3d3a97fe	0.045555107
122	0xbe19dfc0	-0.1502676
123	0x3cf44616	0.029818576
124	0xbd7bae54	-0.06144555
125	0xbdf8601b	-0.12127706
126	0x3c64852d	0.013947767
127	0xbda57752	-0.08079399
128	0x3e1cdf36	0.15319523
129	0x3d648cd1	0.055798355
130	0x3d17440a	0.03693012
131	0x3c8bef47	0.01708187
132	0xbd60f3c6	-0.05491998
133	0xbc3b3eb5	-0.011428525
134	0xbdef55c5	-0.11686281
135	0xbd921ea6	-0.07134752
136	0x3d9bd634	0.076092154
137	0xbe4edbdc	-0.20201057
138	0x3d8524a6	0.06501131
139	0xbce86ecf	-0.02837315
140	0x3dc7eeca	0.09762342
141	0x3d2c6a0e	0.04209333
142	0xbde99a2b	-0.11406358
143	0x3d4388f7	0.04773804
144	0xbdae88b2	-0.08522166
145	0x3d5b0db7	0.053479876
146	0xbdbb4c67	-0.09145432
147	0xbe023848	-0.12716782
148	0xbe06ef65	-0.1317726
149	0xbd99f3d0	-0.07517207
150	0xbdd7d146	-0.105379626
151	0x3c9831e9	0.018578487
152	0xbce05f05	-0.027389059
153	0x3dad34a2	0.084573045
154	0xbdfdaf9e	-0.12387012
155	0xbceed37c	-0.029153578
156	0xbcd11126	-0.025520872
157	0xbca97d51	-0.020689638
158	0x3dbedbed	0.09319291
159	0xbcd18ec1	-0.025580766
160	0xbd901179	-0.07034583
161	0xbd15087a	-0.036385037
162	0x3d923bd0	0.071403146
163	0x3c85568f	0.016276626
164	0x3d43f5b5	0.047841746
165	0xbd1a5e3f	-0.037687536
166	0xbe1a7afd	-0.15085979
167	0x3d0a4406	0.03375628
168	0xbe159c04	-0.14610296
169	0x3d3ae7ae	0.045631103
170	0xbd84d259	-0.06485433
171	0xbd3a3633	-0.045461845
172	0x3e040f21	0.12896396
173	0x3d15fcda	0.03661809
174	0xbcc6c542	-0.024263982
175	0xbd3244ad	-0.043522526
176	0xbc8406e2	-0.016116563
177	0x3e111398	0.1416763
178	0xbe116c25	-0.1420141
179	0xbdbe8e8c	-0.093045324
180	0x3dbbb06c	0.09164509
181	0xbd6f4913	-0.0584193
182	0x3ce6217f	0.028092144
183	0x3dceae2e	0.10091816
184	0x3df84921	0.12123323
185	0x3cf932af	0.030419676
186	0x3cc8c86c	0.024509631
187	0x3e141b8e	0.14463636
188	0x3dbcd94f	0.09221136
189	0xbd2413ed	-0.040058065
190	0x3dad949f	0.08475613
191	0x3af7b06c	0.0018897182
192	0xbddc13cf	-0.10745966
193	0xbdcb72fa	-0.099340394
194	0xbcd8d9b8	-0.026471004
195	0xbdcf5395	-0.10123364
196	0xbe04e1d2	-0.12976769
197	0x3dbae0f9	0.091249414
198	0xbdb692d9	-0.08914728
199	0x3da28eab	0.07937368
200	0x39ef3bcc	0.00045630184
201	0xbda7b40c	-0.08188638
202	0x3d027426	0.03184905
203	0x3da3f747	0.08006149
204	0xbda83aa7	-0.08214312
205	0x3e1fc109	0.15600981
206	0xbc97a6af	-0.018512098
207	0x3d86e58f	0.065867536
208	0x3dc38317	0.09546488
209	0x3d720811	0.059089724
210	0xbd33412c	-0.043763325
211	0xbd0340cf	-0.03204423
212	0xbd2ea195	-0.042634565
213	0xbd984bee	-0.074363574
214	0x3d7a096b	0.061044138
215	0x3da11594	0.07865444
216	0x3dbf9f7f	0.09356593
217	0x3c59527b	0.013264294
218	0x3d665ce7	0.056240942
219	0xbc33c7ed	-0.010972959
220	0x3d6a0e39	0.05714247
221	0x3d5b4e33	0.053541373
222	0xbd1c4949	-0.038155828
223	0x3dde45f6	0.10853188
224	0x3ac0bb75	0.0014704304
225	0xbcdad0bc	-0.02671086
226	0x3d935a1f	0.071949236
227	0xbc01c52d	-0.0079205455
228	0xbdc9767c	-0.09837052
229	0xbdaef94f	-0.085436456
230	0xbd8117fb	-0.06303402
231	0xbd86f58c	-0.06589803
232	0x3db000b9	0.08593888
233	0x3d006dab	0.031354588
234	0x3dd5dc7f	0.10442447
235	0xbdd3899d	-0.10328982
236	0x3de144dc	0.10999462
237	0x3dcccfed	0.10000596
238	0x3d534067	0.05157509
239	0x3ab662d8	0.0013914956
240	0x3e0c3326	0.13691387
241	0x3d052b95	0.032512266
242	0xbe02da83	-0.12778668
243	0x3dad0994	0.084490925
244	0xbd7edec5	-0.06222417
245	0x3d709401	0.058734898
246	0xbd80db50	-0.062918305
247	0xbc28a290	-0.010292664
248	0x3e0ea25b	0.13929121
249	0x3d5f960b	0.05458645
250	0x3dd57b0b	0.10423859
251	0x3e0ed605	0.1394883
252	0x3e023649	0.1271602
253	0x3dc6dfff	0.097106926
254	0x3d827511	0.06369985
255	0xbd853655	-0.06504504

shared2.bias f4 [200]
0	0xbcc22902	-0.023701195
1	0xbc1ce7cf	-0.009576752
2	0x3cd46cc2	0.025930766
3	0xbd32a06f	-0.043610033
4	0xbb9505ef	-0.0045478265
5	0x3bc285e5	0.0059363716
6	0xbd873a79	-0.0660295
7	0xbcff4cfa	-0.031164635
8	0xbc131298	-0.008976601
9	0xbd5d0f03	-0.053969394
10	0x3b27b0eb	0.002558763
11	0x3d13fe4c	0.03613119
12	0x3cb9ce29	0.022681313
13	0x3bbb6b04	0.0057195444
14	0x3c8afddd	0.016966755
15	0x3d021502	0.031758316
16	0x3d62cd5f	0.05537164
17	0xbdd14016	-0.102173015
18	0xbe15f556	-0.1464437
19	0xbcd02a21	-0.025410714
20	0xbe0049f3	-0.1252821
21	0x3aa1d5ed	0.001234708
22	0xbda3bfd7	-0.07995575
23	0x3d1cb55c	0.038258895
24	0xbcbfac1a	-0.023397494
25	0x3cc00c16	0.023443263
26	0xbd885810	-0.066574216
27	0xbd133904	-0.035943046
28	0xbd97a49e	-0.07404445
29	0xbdf82c49	-0.12117822
30	0x3cf5080c	0.029911064
31	0x3d134e18	0.035963148
32	0x383e9aa1	4.544354e-05
33	0xbc82a457	-0.015947504
34	0xbd1338b4	-0.03594275
35	0x3d4b5f57	0.04965147
36	0x3c27bf60	0.010238498
37	0x3d48f7e6	0.04906454
38	0xbde3dc61	-0.11126018
39	0xbd5e8f80	-0.05433607
40	0xbde32de1	-0.11092735
41	0xbdd887c1	-0.10572768
42	0x3d83f395	0.06442944
43	0x3c817238	0.015801534
44	0x3cdcd1fa	0.026955593
45	0xbc784b34	-0.015154649
46	0xbce271c2	-0.027642135
47	0xbd57d750	-0.052695572
48	0x3d783172	0.06059403
49	0xbdbb90d5	-0.09158484
50	0xbb7d5491	-0.0038655142
51	0x3b834619	0.004006159
52	0xbda131e3	-0.07870843
53	0xbdae1a2d	-0.085010864
54	0xbdf59c97	-0.11992758
55	0xbdaf7c12	-0.085685864
56	0xbb71e49b	-0.003690994
57	0xbce0942e	-0.027414408
58	0x3d6e0847	0.058113363
59	0xbcf856b1	-0.030314775
60	0xbe11d952	-0.14243057
61	0xbd4b08af	-0.04956883
62	0xbc1a668f	-0.009423866
63	0xbcdd8a4a	-0.02704348
64	0x3db7e37d	0.08978937
65	0xbd0d69f8	-0.034524888
66	0x3d867b64	0.06566504
67	0xbdbf2807	-0.093338065
68	0xbd94843d	-0.07251785
69	0xbd9c147b	-0.07621094
70	0x3cb9081a	0.022586871
71	0x3d8054e3	0.06266191
72	0xbd56d927	-0.052453186
73	0x3d687870	0.056755483
74	0xbdb60a85	-0.08888725
75	0x3d33aceb	0.04386608
76	0xbd270505	-0.04077627
77	0xbdea83a9	-0.114508934
78	0x3d2d245e	0.04227101
79	0xbc561152	-0.013065653
80	0xbd24cbc9	-0.040233407
81	0xbd16aa0b	-0.03678326
82	0xbd644f42	-0.05573965
83	0xbc0f4d4d	-0.008746457
84	0x3b857fd2	0.0040740753
85	0xbb119bc7	-0.0022218095
86	0x3c8f8661	0.017520132
87	0xbd9d4dc9	-0.07680852
88	0xbe23e732	-0.16006163
89	0xbd4c2108	-0.04983619
90	0xbd91c1c8	-0.07117039
91	0xbc1c88e4	-0.009554122
92	0x3d0c21f4	0.034212068
93	0x3cdfa1ef	0.027298896
94	0xbd5f9838	-0.054588526
95	0xbd9229a7	-0.07136851
96	0xbd57decd	-0.052702714
97	0x3d3512fd	0.04420756
98	0x3bc39145	0.005968245
99	0x3d375efe	0.044768326
100	0x3d27e1b4	0.04098673
101	0xbdc3ff57	-0.095701866
102	0xbdf121e9	-0.11774046
103	0xbd3e3b65	-0.04644336
104	0xbd9c9954	-0.076464325
105	0xbc44ae24	-0.012004409
106	0xbd8ac260	-0.06775355
107	0x3af7bb2e	0.0018900388
108	0x3cac8437	0.021059139
109	0x3be4d76c	0.006983688
110	0xbbe859e7	-0.0070907953
111	0xbd8c7924	-0.06859043
112	0xbc2edab2	-0.010672258
113	0x3d08b982	0.03338004
114	0xbc5c5221	-0.013447315
115	0xbdcb5743	-0.09928753
116	0xbcb79e33	-0.022414302
117	0xbd02903f	-0.031875845
118	0xbd08df15	-0.033415873
119	0xbd67b25d	-0.056566585
120	0xbcb32b0c	-0.021871112
121	0xbe00be6f	-0.12572645
122	0xbddeb27f	-0.10873889
123	0xbba5d71f	-0.005061045
124	0x3bf6b646	0.007529053
125	0x3b780d39	0.0037849678
126	0x3cfe10e3	0.031013912
127	0x3cc0a5cd	0.02351656
128	0xbd3a083c	-0.04541801
129	0x3c19b2d2	0.009381013
130	0xbcf1e322	-0.02952725
131	0xbce54f55	-0.02799193
132	0xbb5beeef	-0.0033559164
133	0xbddabca1	-0.10680509
134	0xbd600464	-0.054691687
135	0x3cc8e14e	0.024521496
136	0xbd1f83df	-0.03894412
137	0xbca85f0b	-0.020553133
138	0xbc691514	-0.014226217
139	0x3c697770	0.0142496675
140	0x3d951a25	0.07280377
141	0xbd80dd87	-0.06292253
142	0xbd980bad	-0.07424102
143	0x3cf34ffc	0.029701225
144	0xbceb2ce9	-0.028707938
145	0x3d4ef581	0.0505271
146	0xbc8cf43c	-0.017206304
147	0xba19c544	-0.00058658817
148	0xbdb88def	-0.09011447
149	0x3ccdbeef	0.025115458
150	0x3d352122	0.04422105
151	0xbd3abaf6	-0.045588456
152	0x3d040963	0.032235514
153	0x3d686bfe	0.056743614
154	0x3c0bafa1	0.00852576
155	0xbd85d6ee	-0.06535135
156	0x3cb4f1e2	0.022087995
157	0xbdd57bdc	-0.10424015
158	0x3d25854a	0.040410317
159	0xbd543863	-0.051811587
160	0x3d324555	0.04352315
161	0xbd120f1a	-0.035658933
162	0x3d004551	0.031316105
163	0x3d8355bd	0.06412838
164	0xbc9d74ec	-0.019220792
165	0x3d43010c	0.04760842
166	0xbc72f228	-0.014828242
167	0xbccfd531	-0.025370212
168	0xbcae7b31	-0.021298977
169	0xbcdcc580	-0.026949644
170	0x3d173ec4	0.036925092
171	0xbd72748b	-0.059193175
172	0xbb6ddb8f	-0.0036294197
173	0xbd39dd12	-0.045376845
174	0x3b521afa	0.0032059536
175	0xbd80270d	-0.06257448
176	0xbd82f713	-0.06394782
177	0xbd45a70c	-0.04825501
178	0xbca4daef	-0.020123927
179	0xbdaac7fc	-0.08338925
180	0x3c52aa33	0.0128579615
181	0x3cdc1155	0.026863733
182	0x3c96306b	0.018333634
183	0x3a8127de	0.00098538
184	0xbdd62dd1	-0.104579575
185	0xbc131f6a	-0.008979658
186	0x3d2ed5ec	0.04268448
187	0xbd926b87	-0.071494155
188	0xbc8b2258	-0.01698415
189	0x3b060474	0.0020449432
190	0x3d294fd0	0.04133588
191	0x3cc1c06e	0.023651328
192	0xbd72558e	-0.059163623
193	0xbd75b427	-0.05998626
194	0x3cd3d2f8	0.025857434
195	0x3d38569e	0.04500448
196	0xbc4eb25a	-0.0126157645
197	0xbcc8174d	-0.024425173
198	0x3b5978b0	0.0033183508
199	0xbb7a8132	-0.003822398

hidden1_Y1.weight f4 [200, 200]
0	0x3d333328	0.04374996
1	0xbd12bd6f	-0.03582519
2	0xbd213c08	-0.03936389
3	0x3dcde76c	0.10053906
4	0xbdcf634e	-0.10126363
5	0xbd4d890c	-0.050179526
6	0xbd15e216	-0.036592565
7	0x3ab84690	0.0014059115
8	0xbd78193d	-0.060570944
9	0xbda04854	-0.078262955
10	0x3d9f8467	0.077889256
11	0xbc5b9c98	-0.013404034
12	0x3ca15538	0.019693956
13	0x3dbae500	0.091257095
14	0xbd4d6163	-0.050141703
15	0xbd816285	-0.06317619
16	0x3d9d8bd4	0.07692686
17	0x3de64cfe	0.11245154
18	0x3de47ccf	0.11156618
19	0xbd832b7b	-0.064047776
20	0x3cacdabe	0.021100398
21	0xbbfcc190	-0.007713504
22	0xbdc97dd4	-0.09838453
23	0xbda14079	-0.07873625
24	0x3dfb1b43	0.12261059
25	0x3d91483f	0.07093858
26	0xbdba7177	-0.09103673
27	0x39006dff	0.00012248008
28	0x3da4a4ad	0.08039222
29	0x3db9de5e	0.09075616
30	0xbc8a57d2	-0.01688758
31	0xbd83192f	-0.06401288
32	0x3c728b2e	0.014803691
33	0xbd990129	-0.074709244
34	0xbd8da231	-0.06915701
35	0x3d5c0bfc	0.053722367
36	0xbda90905	-0.082536735
37	0xbd2c8fce	-0.04212933
38	0x3d530262	0.051515944
39	0xbddeeee8	-0.108854115
40	0xbd03cfba	-0.032180525
41	0x3dcf9394	0.1013557
42	0xbd0d0ce6	-0.03443613
43	0xbd869988	-0.065722525
44	0x3d51dcb2	0.051235862
45	0x3dc8c353	0.0980288
46	0x3db487e0	0.088149786
47	0x3d775f23	0.060393464
48	0xbdaea091	-0.08526719
49	0xbce38a5e	-0.02777594
50	0x3cd37522	0.02581269
51	0x3d89832c	0.06714472
52	0xbe0279ce	-0.12741777
53	0x3d9b47c1	0.07582045
54	0xbd8455e2	-0.06461693
55	0xbdbc60e3	-0.09198167
56	0xbde39fec	-0.11114487
57	0xbde2e443	-0.11078694
58	0xbd23f665	-0.040029902
59	0x3baf3919	0.0053473827
60	0xbd584bd3	-0.052806687
61	0xbdf1977f	-0.11796474
62	0xbdd65351	-0.1046511
63	0xbd8eb8f5	-0.069688715
64	0xbdc6f4bd	-0.09714649
65	0xbd38fd47	-0.04516342
66	0x3d09830b	0.033572238
67	0xbd2bf0ea	-0.0419778
68	0xbcef448f	-0.029207496
69	0xbb69f437	-0.0035698542
70	0xbd886eb1	-0.06661738
71	0xbdc4b9d9	-0.0960576
72	0x3de8ae48	0.113613665
73	0x3da358d5	0.07975928
74	0xbdd74b20	-0.10512376
75	0x3ddbf73f	0.10740518
76	0x3d78198b	0.060571235
77	0x3cfbc0f6	0.03073166
78	0x3ba9c7b0	0.0051812753
79	0xbdfcc092	-0.12341417
80	0x3d360db6	0.04444667
81	0x3d875f41	0.06609965
82	0xbd363eb2	-0.044493385
83	0xbdf37067	-0.118866734
84	0x3d2c96af	0.04213589
85	0x3d352bdf	0.04423129
86	0xbce0271a	-0.027362395
87	0xbde125a9	-0.10993511
88	0x3dde2c80	0.108483315
89	0xbdeead71	-0.11654175
90	0xbd3e33b2	-0.04643602
91	0xbdb75508	-0.08951765
92	0xbce3b7c3	-0.027797585
93	0x3ce2946a	0.02765866
94	0x3da808e0	0.08204818
95	0xbd79e627	-0.061010506
96	0x3dafb624	0.085796624
97	0x3de90b2b	0.11379083
98	0x3d6b6003	0.05746461
99	0xbccd5289	-0.02506377
100	0x3cc5f0a0	0.02416259
101	0x3c9c6aea	0.01909395
102	0x3db29cd2	0.08721317
103	0x3c2396c8	0.0099846795
104	0xbd83e67a	-0.06440444
105	0x3d86b3f2	0.065772906
106	0xbb778269	-0.003776694
107	0x3de20488	0.110360205
108	0x3cb6b64a	0.02230372
109	0xbd56a180	-0.052400112
110	0xbdd5b7ed	-0.10435472
111	0xbd0dec99	-0.034649465
112	0xbd9a2d33	-0.07528152
113	0x3d23fe97	0.040037718
114	0xbdf4255d	-0.11921189
115	0x3d2e3d2d	0.04253881
116	0xbd13069f	-0.035894986
117	0x3dfbd253	0.122959755
118	0xbd5be33e	-0.053683512
119	0xbdc071f0	-0.09396732
120	0xbd4eab89	-0.050456557
121	0x3dd3feb3	0.103513144
122	0x3be6c33f	0.007042318
123	0x3df10aed	0.11769662
124	0x3d82a258	0.06378621
125	0xbdc5df38	-0.09661716
126	0xbdaaadfa	-0.08333965
127	0x3dfa27ff	0.1221466
128	0xbdf9f9da	-0.122058585
129	0x3ade9f01	0.0016984643
130	0xbe070b01	-0.13187791
131	0x3ddda27b	0.10822006
132	0x3e000af2	0.12504175
133	0x3d42ad3e	0.047528498
134	0xbdbee43d	-0.09320877
135	0x3d6682c7	0.056277063
136	0xbdc448f1	-0.09584225
137	0xbdc48426	-0.09595518
138	0xbd6ba27a	-0.057527997
139	0xbd8547ed	-0.065078594
140	0xbc869376	-0.016427737
141	0x3d84ebe0	0.06490302
142	0xbd97d6ed	-0.07414041
143	0xbd026bf9	-0.031841252
144	0xbdb7d898	-0.08976859
145	0xbdd02804	-0.101638824
146	0xbbb375fc	-0.0054767113
147	0x3cd1a891	0.025593074
148	0x3d51f32f	0.05125731
149	0x3cbfea3b	0.02342712
150	0x3db227ae	0.086989745
151	0xbdf65303	-0.12027552
152	0xbd798f3d	-0.06092762
153	0x3d19259e	0.03738939
154	0xbdd37555	-0.10325114
155	0x3e02acac	0.12761182
156	0xbd565281	-0.052324776
157	0x3beeae80	0.0072839856
158	0x3d503ff5	0.050842244
159	0xbd40ad6f	-0.0470404
160	0x3dde0297	0.10840338
161	0x3cf89faf	0.03034958
162	0x3dc93fdc	0.09826633
163	0x3cce8374	0.025209166
164	0xbde4f06f	-0.111786716
165	0xbdc71fe9	-0.09722883
166	0xbdf83939	-0.12120289
167	0x3b8aee61	0.0042398428
168	0xbdc8cfb4	-0.09805241
169	0xbd41fcf1	-0.047360364
170	0xbe03e25d	-0.1287932
171	0x3dfb0eaa	0.12258656
172	0xbdcfee0f	-0.10152828
173	0x3dce7b68	0.100821316
174	0x3e020d66	0.12700424
175	0xbd9c9a52	-0.07646622
176	0x3d1611f8	0.03663823
177	0xbd39c146	-0.045350336
178	0x3db25ede	0.08709501
179	0xbd22827c	-0.03967522
180	0xbd42fc93	-0.047604155
181	0x3ceb4599	0.02871971
182	0x3d8e206c	0.06939778
183	0xbdb3b990	-0.087756276
184	0x3c15c500	0.009141207
185	0xbd35ef9b	-0.04441796
186	0x3daf1749	0.08549363
187	0x3ca4bec6	0.0201105
188	0x3d52a45d	0.05142628
189	0x3db4b5a8	0.08823711
190	0xbdca1ccf	-0.09868776
191	0xbdd3a5aa	-0.10334332
192	0xbd4f610e	-0.050629668
193	0x3dcbc7ec	0.099502414
194	0x3db936f2	0.09043683
195	0x3de31f30	0.11089933
196	0x3dd8ae50	0.105801225
197	0x3dba960e	0.09110652
198	0xbdeb5faa	-0.11492856
199	0xbcfe6a08	-0.031056419
200	0xbd6345e1	-0.055486564
201	0x3d141a5f	0.036157962
202	0xbd3b6dc0	-0.045758963
203	0xbd3629ea	-0.044473566
204	0xbdcb0a65	-0.09914092
205	0x3d62116c	0.055192396
206	0x3dd3a65c	0.10334465
207	0xbdab31b8	-0.083590925
208	0xbd47c2a8	-0.048769623
209	0x3dcc8fad	0.099883415
210	0x3d90e03a	0.07074018
211	0xbddf7f85	-0.10912994
212	0xbd48492b	-0.048897903
213	0x3d33e466	0.04391899
214	0x3d3d7e53	0.04626305
215	0xbd9cbc01	-0.076530464
216	0xbdabd9d8	-0.0839116
217	0x3d15dc24	0.036586896
218	0xbd019f76	-0.031646214
219	0x3dd13163	0.10214498
220	0xbd56b596	-0.052419268
221	0xbd49a938	-0.049233645
222	0xbd6fd7ac	-0.05855529
223	0xbc738715	-0.014863749
224	0xbc51812c	-0.012787145
225	0x3dd68de1	0.1047628
226	0x3de43dc2	0.11144592
227	0xbc9a9506	-0.018869888
228	0x3cb57fea	0.02215572
229	0xbb2f4917	-0.0026746446
230	0xbd6bded4	-0.057585552
231	0xbd7b64b2	-0.061375327
232	0xbc9f8aa2	-0.019475285
233	0x3c033bc5	0.008009856
234	0xbdb36c9b	-0.08760949
235	0xbd3fad12	-0.046795912
236	0x3d10da6f	0.035364565
237	0xbd3826af	-0.044958767
238	0xbdac791b	-0.084215365
239	0x3dc7a669	0.09748537
240	0x3cd302c1	0.02575815
241	0x3da8bac5	0.082387485
242	0xbdd528af	-0.104081504
243	0xbd688f75	-0.056777436
244	0xbd096f0b	-0.033553164
245	0x3db69aa4	0.08916214
246	0xbdb0ba3b	-0.08629271
247	0xbd9dad2e	-0.07699047
248	0xbd8c972c	-0.06864771
249	0xbae0a7c7	-0.0017139845
250	0xbdb9d2c5	-0.09073404
251	0xbb909aa5	-0.0044129663
252	0xbc9dc459	-0.019258665
253	0xbc09c429	-0.008408585
254	0x3ca96ebc	0.020682685
255	0xbd5caf0b	-0.05387787

hidden1_Y1.bias f4 [200]
0	0x3a58aa6b	0.00082651403
1	0xbcd72a9e	-0.026265439
2	0xbd04bb03	-0.03240491
3	0x3d504d68	0.05085507
4	0xbc7ed67b	-0.015554066
5	0xbd011367	-0.031512644
6	0x3d455423	0.048175942
7	0x3cf46772	0.029834483
8	0xbd8e15ad	-0.06937728
9	0x3d4acef3	0.04951377
10	0x3c187396	0.009304902
11	0xbd8c397c	-0.06846902
12	0x3d015bd5	0.03158172
13	0x3c223ac2	0.009901704
14	0x3d5cab22	0.053874142
15	0xbc358ca5	-0.011080896
16	0xbd7455c7	-0.059652116
17	0x3c8c5794	0.017131604
18	0xbcd7cf2e	-0.026343908
19	0x3d930ad5	0.071798004
20	0x3d51c3f1	0.051212255
21	0xbcacc61f	-0.021090565
22	0xbc76fe1b	-0.015075232
23	0xbc521aaf	-0.012823745
24	0xbd0ae2c5	-0.03390767
25	0x3d01dbdb	0.03170381
26	0x3d0d8f29	0.034560356
27	0x3d280122	0.041016705
28	0x3d27d472	0.040974088
29	0x3ce6e398	0.028184697
30	0xbc836bd2	-0.016042624
31	0x3d06b0cb	0.032883447
32	0xbca5fdc6	-0.02026261
33	0xbd1102b7	-0.03540298
34	0x3c630ed1	0.013858513
35	0xbd364fc1	-0.044509653
36	0xbcc03598	-0.023463055
37	0x3d7edbbc	0.062221274
38	0x397d8bf4	0.00024180097
39	0x3d01e220	0.03170979
40	0xba3bcb0f	-0.0007163742
41	0x3c312944	0.010813061
42	0x3cff20cc	0.031143568
43	0x3d363807	0.044487026
44	0x3c8710f4	0.016487576
45	0x3d21ceab	0.039503735
46	0x3d24ce8c	0.04023604
47	0xbcb746f5	-0.022372702
48	0xbbae7cbd	-0.0053249286
49	0x3d2a7e13	0.04162414
50	0xbc48a15f	-0.012245505
51	0x39b8e19b	0.00035263304
52	0x3d4c0fe5	0.049819846
53	0x3d9c4142	0.076296344
54	0x3d89c85a	0.06727667
55	0xbcf3dace	-0.02976742
56	0x3dad712c	0.084688514
57	0xbce1af6d	-0.02754947
58	0xbdb34105	-0.08752636
59	0x3d45d001	0.04829407
60	0x3c45c21a	0.012070203
61	0x3b7b56f6	0.0038351393
62	0xbd937b97	-0.07201307
63	0xbc8ce6be	-0.01719987
64	0xbcecbc83	-0.028898483
65	0xbd8bd30a	-0.06827362
66	0x3d8b4b10	0.068014264
67	0xbd59b0d1	-0.05314714
68	0x3cb8f3f9	0.022577273
69	0xbc1ffcbf	-0.009764849
70	0x3d71075e	0.058844917
71	0x3d78e113	0.060761523
72	0xbd572fa8	-0.052535683
73	0xbd78369c	-0.060598955
74	0xbd70785a	-0.058708526
75	0xbd7e18f3	-0.062035512
76	0x3d5e0c3f	0.054210898
77	0x3d084170	0.03326553
78	0xbc9bdaaa	-0.019025166
79	0x3cabd702	0.020976547
80	0xbb4d0f42	-0.0031289612
81	0x3c684fab	0.014179151
82	0x3d9a82cc	0.07544479
83	0x3cf0dabd	0.029401178
84	0x3d7fb2ed	0.062426496
85	0xbccc741e	-0.024957713
86	0xbd42ce44	-0.04755999
87	0x3b086786	0.0020813658
88	0x3d91f8b7	0.07127517
89	0x3c96202d	0.01832589
90	0x3ca1e072	0.019760344
91	0x3d62ea76	0.05539938
92	0xbc724892	-0.01478781
93	0xbb9f279c	-0.0048570167
94	0x3cd4aa50	0.025960118
95	0x3d010c57	0.03150591
96	0x3d081f92	0.033233233
97	0x3c27fc07	0.010252959
98	0x3d838f2e	0.06423794
99	0x3d4357f1	0.04769129
100	0xbc336049	-0.010948249
101	0x3d40f8de	0.04711234
102	0x3cc8b81f	0.024501858
103	0x3ca74e44	0.020423062
104	0xbd9f7d70	-0.07787597
105	0xbd6eaeea	-0.05827228
106	0x3b825afa	0.0039781304
107	0x3ce7a34c	0.028276108
108	0xbbb8204b	-0.005619084
109	0x3b45d696	0.0030187718
110	0xbd523722	-0.05132211
111	0xbd908f91	-0.07058633
112	0x3c9d4cfc	0.019201748
113	0x3d5b9fb1	0.05361909
114	0xbd3456d7	-0.04402813
115	0x3bae7728	0.005324263
116	0xbd80cf09	-0.06289489
117	0x3d4ce688	0.05002454
118	0x3d12377a	0.035697438
119	0x3ba295a7	0.0049616876
120	0x3d67317d	0.05644368
121	0x3d273f0d	0.040831614
122	0x3d81351b	0.06308957
123	0x3d59b662	0.05315245
124	0xba2adf99	-0.0006518304
125	0xbc02e373	-0.007988798
126	0x3c49f0cf	0.01232548
127	0x3c0153fa	0.007893557
128	0xbd848844	-0.06471303
129	0x3d2ce94a	0.04221467
130	0x3c88d040	0.016700864
131	0xbd715490	-0.058918536
132	0x3d23ba34	0.0399725
133	0xbd6cd5b3	-0.057820987
134	0xbd93d271	-0.07217873
135	0xbd33a668	-0.04385987
136	0x3d34bf46	0.044127725
137	0xbcc240fe	-0.023712631
138	0xba548e8e	-0.00081084005
139	0xbd1fde30	-0.039030254
140	0x3d62b9c1	0.05535293
141	0xbcc03cf3	-0.023466563
142	0x3cb5041e	0.02209669
143	0xbd5d4a04	-0.054025665
144	0x3ca61962	0.020275775
145	0x3cd51eca	0.026015658
146	0xbd6f3e27	-0.058408882
147	0x3d058a4a	0.032602586
148	0xbd3bf645	-0.045889158
149	0x3a61608b	0.0008597455
150	0x3cde74c2	0.027155284
151	0x3d7bb9d1	0.061456505
152	0xbc5e7814	-0.013578434
153	0xbd326030	-0.043548763
154	0xbbcd67b0	-0.006268464
155	0xbbd66625	-0.0065429383
156	0xbd589faf	-0.05288666
157	0x3b288bdd	0.002571813
158	0xbd6c7c53	-0.057735752
159	0x3d4b8a9d	0.04969274
160	0x3d0c54ee	0.034260683
161	0x3acf5528	0.0015818225
162	0xbbbe0448	-0.00579885
163	0x3cb5dd07	0.02220012
164	0xbce9e372	-0.028550837
165	0x3d44d106	0.048050903
166	0x3d21ccce	0.039501958
167	0x3c0c997c	0.008581515
168	0x3d8f7c2d	0.070061065
169	0xbd2314f8	-0.03981492
170	0x3c98d646	0.018656861
171	0xbcba8853	-0.022770083
172	0xbd8756bf	-0.066083424
173	0x3d68e14b	0.05685548
174	0xbc30f914	-0.010801572
175	0x3c3afc5a	0.011412704
176	0xbd976da5	-0.0739396
177	0x3d19c51e	0.0375415
178	0x3d1ecbd6	0.03876861
179	0x3cf8857e	0.030337092
180	0xbb495106	-0.003071846
181	0x3d214aa3	0.03937782
182	0xbd61f5de	-0.055166118
183	0xbd700885	-0.058601875
184	0xbce12191	-0.027481826
185	0xbd823189	-0.06357104
186	0xbd2ecf89	-0.04267839
187	0x3cf129ba	0.029438842
188	0xbc89e34f	-0.016832022
189	0xbc883178	-0.016625151
190	0x3cfb17ce	0.030651
191	0xbd9ad2d6	-0.07559745
192	0xbc338b16	-0.010958454
193	0x3c143438	0.009045653
194	0xbd5837a1	-0.052787427
195	0x3d63249a	0.055454828
196	0x3d6b20e7	0.057404425
197	0x3c7c718d	0.015407932
198	0xbd1dcd0b	-0.038525622
199	0xbb455907	-0.003011288

hidden2_Y1.weight f4 [200, 200]
0	0x3da3fb1a	0.08006878
1	0x3deedc61	0.11663128
2	0xbdd58231	-0.10425223
3	0xbdcce20f	-0.10004055
4	0x3d9202a8	0.07129413
5	0xbbf17bb2	-0.007369482
6	0x3d07e9d6	0.033181988
7	0xbde4e8b8	-0.111772
8	0xbdbe9f82	-0.093077675
9	0x3da77664	0.08176878
10	0x3d240310	0.040041983
11	0x3dd60708	0.1045056
12	0xbcd87026	-0.026420664
13	0x3de72af3	0.11287489
14	0x3ccc1230	0.024911016
15	0xbddc4fff	-0.107574455
16	0xbd28674f	-0.041114148
17	0xbd5f403a	-0.05450461
18	0x3d6eef57	0.05833372
19	0x3dbdb70c	0.09263429
20	0xbd3c0167	-0.045899775
21	0xbdb3e301	-0.08783532
22	0xbdabb9da	-0.08385058
23	0x3a516d54	0.00079890084
24	0xbd4c7a88	-0.049921542
25	0x3df77664	0.12083128
26	0xbd191e65	-0.037382502
27	0x3d7d90b5	0.06190558
28	0xbd2931a6	-0.041307114
29	0xbdff9f93	-0.12481608
30	0xbd8bae1c	-0.06820318
31	0x3d89f829	0.06736786
32	0xbe06ab55	-0.13151295
33	0xbd31aa6d	-0.04337542
34	0x3d8f280a	0.06990059
35	0xbd86a562	-0.06574513
36	0x3c31ad55	0.010844548
37	0x3dd6c160	0.10486102
38	0x3d524692	0.051336832
39	0x3d0bfa76	0.034174405
40	0x3c87799b	0.016537478
41	0xbdc74d8f	-0.0973159
42	0xbcaa03b0	-0.020753711
43	0xbdf3a3a1	-0.11896444
44	0x3c9ffb9d	0.019529158
45	0xbdd47359	-0.10373563
46	0xbc42e820	-0.011896163
47	0x3d86f8fa	0.06590457
48	0xbd14051f	-0.036137696
49	0xbdc06e28	-0.09396011
50	0xbdc99529	-0.09842903
51	0xbd20e373	-0.039279412
52	0x3d426a1f	0.047464486
53	0xbd7a3c17	-0.061092462
54	0x3d63809c	0.055542573
55	0x3dc1c22e	0.09460865
56	0xbdd6d8cd	-0.1049057
57	0xbd9ceb0f	-0.07662021
58	0xbdf084f7	-0.11744111
59	0xbde5c0cc	-0.11218414
60	0x3dddccc4	0.108300716
61	0x3dd2e876	0.10298245
62	0xbcf20d96	-0.029547494
63	0xbe112df2	-0.14177683
64	0xbdaacac6	-0.08339457
65	0xbdde6fc2	-0.1086116
66	0xbda9090c	-0.08253679
67	0xbcc36b88	-0.023854986
68	0x3d051f74	0.0325007
69	0xbd984747	-0.0743547
70	0xbd4afcd6	-0.04955753
71	0x3d622ba4	0.0552174
72	0xbd271314	-0.04078968
73	0x3ca91611	0.020640405
74	0xbc71d324	-0.0147598125
75	0x3b129c40	0.0022370964
76	0x3ce2c64a	0.027682442
77	0x3d680196	0.056642137
78	0xbdb965b4	-0.090526015
79	0x3d35974c	0.04433374
80	0xbe0849c5	-0.13309391
81	0xbd873542	-0.06601955
82	0x3d7d3f74	0.06182809
83	0xbda56bf8	-0.08077234
84	0x3d884a97	0.06654852
85	0xbdb2c02e	-0.087280616
86	0x3c393cf9	0.011306041
87	0x3c98c650	0.01864925
88	0x3bb70d85	0.0055863285
89	0x3d7337ac	0.059379265
90	0x3da03029	0.07821686
91	0x3d39c901	0.045357708
92	0x3dde9886	0.10868935
93	0x3d2237e2	0.039604075
94	0xbd875956	-0.06608836
95	0xbe03de6c	-0.12877816
96	0x3daddd70	0.084895015
97	0x3cd3d127	0.025856568
98	0xbc4c74d3	-0.012479025
99	0xbbbaf4eb	-0.005705466
100	0xbcfa69a2	-0.030567948
101	0x3d64081f	0.055671807
102	0x3d667ed8	0.05627331
103	0xbcb4ccb0	-0.022070259
104	0x3c25ae44	0.010112349
105	0x3c4eb196	0.012615582
106	0xbdae9e68	-0.08526307
107	0xbdcd716a	-0.10031398
108	0x3d3e6d9d	0.046491254
109	0x3d7f4e46	0.062330507
110	0x3d7593c0	0.05995536
111	0xbd24c8f4	-0.040230706
112	0xbdd0c6a7	-0.1019414
113	0x3da330aa	0.07968266
114	0x3da11c2a	0.078667
115	0xbdf57ff4	-0.11987296
116	0xbdcfac37	-0.10140269
117	0xbcf2761f	-0.02959734
118	0xbc42986d	-0.011877161
119	0xbcce8ca4	-0.025213547
120	0x3d8adb2b	0.06780084
121	0xbdc14f4c	-0.09438953
122	0x3dcabb0b	0.09898957
123	0xbdf62ba7	-0.12020045
124	0xbd5c1997	-0.053735342
125	0x3d9eafa0	0.077483416
126	0xbcf826a4	-0.030291863
127	0x3dd00a72	0.10158242
128	0xbc112e24	-0.008861098
129	0x3cb0f238	0.021599874
130	0xbc9c5c48	-0.019086972
131	0xbd5b8948	-0.05359772
132	0x3daf0520	0.085458994
133	0x3bdb69ba	0.006695953
134	0x3ddad990	0.10686028
135	0x3d1a18d0	0.03762132
136	0xbda40c02	-0.08010103
137	0xbc6680ea	-0.014068821
138	0xbdfbc08f	-0.12292587
139	0xbdf42455	-0.11920992
140	0xbd8911d5	-0.06692854
141	0xbe18b62b	-0.14913242
142	0x3c9a43e2	0.018831197
143	0xbd3fd27f	-0.046831604
144	0x3cb4f139	0.02208768
145	0xbd2d0042	-0.042236574
146	0x3de16236	0.110050604
147	0xbde304cf	-0.110849015
148	0xbcb320d8	-0.021866247
149	0xbde7e5d3	-0.11323132
150	0xbd8e73f1	-0.06955708
151	0xbd24b4b6	-0.040211402
152	0xbd30d427	-0.043171074
153	0xbd12d267	-0.035845187
154	0x3dde4f7d	0.10855005
155	0xbcea1bfe	-0.0285778
156	0x3db44f4d	0.08804188
157	0xbbdb5865	-0.006693887
158	0xbd143332	-0.036181636
159	0xbbf9b2c0	-0.0076201856
160	0xbcd44cfa	-0.025915612
161	0xbdd9efa1	-0.10641409
162	0xbdf54249	-0.119755335
163	0xbdc365c1	-0.095408924
164	0x3d84a006	0.064758345
165	0x3dccd372	0.100012675
166	0x3dce2378	0.10065359
167	0xbde87135	-0.113497175
168	0xbd37ddc5	-0.04488923
169	0xbcb8682d	-0.022510612
170	0x3dc95926	0.09831457
171	0x3d616ca1	0.055035237
172	0x3ca18d78	0.019720778
173	0xbdaba1e4	-0.083804876
174	0x3de3b468	0.11118394
175	0xbd97f21b	-0.07419225
176	0xbe045781	-0.12924005
177	0xbcecac5c	-0.028890781
178	0xbd5f0c42	-0.05445505
179	0xbdc9d41b	-0.09854909
180	0xbd6c7ab7	-0.057734217
181	0xbc86b4db	-0.01644366
182	0xbdf57adc	-0.11986324
183	0xbe1eac2b	-0.15495364
184	0xbc25696b	-0.010095934
185	0xba8f941a	-0.0010954172
186	0xbda003b0	-0.07813203
187	0x3c96e5c0	0.0184201
188	0xbdac3aa3	-0.084096216
189	0x3d2afa51	0.041742627
190	0xbdc799ca	-0.0974613
191	0x3cd0e82d	0.025501335
192	0x3d2ddc32	0.042446323
193	0x3c1cc211	0.009567753
194	0xbd448602	-0.047979362
195	0x3da471cd	0.08029518
196	0xbaf46cfc	-0.0018648203
197	0x3ca6db60	0.020368278
198	0xbd527e20	-0.051389813
199	0x3bd9b11d	0.006643428
200	0xbdc8010d	-0.097658254
201	0xbcafabef	-0.021444289
202	0x3d48702d	0.048935104
203	0x3db83cbb	0.089959584
204	0xbdb76c16	-0.08956163
205	0xbdb1e969	-0.086870976
206	0x3d2b761c	0.041860685
207	0xbcabf483	-0.020990616
208	0x3dda1494	0.10648456
209	0xbd914c55	-0.07094637
210	0x3dbb4843	0.09144642
211	0xbd302bc3	-0.043010484
212	0xbdc382ff	-0.0954647
213	0x3c9ca806	0.019123089
214	0xbdd208db	-0.10255595
215	0xbd3c7a98	-0.046015352
216	0x3dd3538a	0.10318668
217	0xbe0fc5d6	-0.14040312
218	0x3d0f2b2d	0.034953285
219	0x3cbd3376	0.023095828
220	0x3dd51a67	0.104054265
221	0xbd92ec0f	-0.07173931
222	0x3b228381	0.002479762
223	0x3d8307f4	0.06398001
224	0xbda9fc69	-0.083000965
225	0xbc834889	-0.016025798
226	0x3d8d3be1	0.068961866
227	0x3c513a12	0.012770193
228	0xbdae5360	-0.08511996
229	0x3db5c033	0.0887455
230	0xbddcc24c	-0.10779247
231	0xbdc76598	-0.09736174
232	0xbd5e04e0	-0.054203868
233	0x3d339e14	0.043851927
234	0xbd4b9af0	-0.049708307
235	0x3c099ef3	0.008399713
236	0x3d82341e	0.06357597
237	0x3c816a62	0.015797798
238	0xbdfbf0d1	-0.123017915
239	0x3cc9dde3	0.024641937
240	0x3bbee0a1	0.0058251177
241	0xbb4517db	-0.0030074033
242	0xbe12f346	-0.14350614
243	0xbdd51212	-0.10403837
244	0x3dd34968	0.103167355
245	0x3cbe193e	0.023205396
246	0xbdb74490	-0.08948624
247	0x3db0583b	0.086105786
248	0xbc27dfd5	-0.010246237
249	0xbd9b388e	-0.07579146
250	0x3d40dab2	0.047083564
251	0x3c3040be	0.010757623
252	0x3cc63948	0.024197236
253	0x3c1d97b9	0.009618693
254	0x3d86d944	0.06584409
255	0xbd2dd4ac	-0.042439148

hidden2_Y1.bias f4 [200]
0	0xbd8fe471	-0.070259936
1	0x3d355f53	0.04428036
2	0x3d030f89	0.031997237
3	0x3c6af729	0.014341154
4	0x3c40d75c	0.011770096
5	0xbd934fbf	-0.07192945
6	0xbc95e686	-0.018298399
7	0xbd4ed46c	-0.05049555
8	0x3c63d4ff	0.013905763
9	0x3cd338d4	0.025783934
10	0x3be03c16	0.0068431003
11	0x3d4034f9	0.04692552
12	0xbd12e330	-0.035861194
13	0xbd2b984b	-0.041893285
14	0x3d85a92b	0.06526407
15	0x3d24d08a	0.04023794
16	0x3c11684c	0.008874964
17	0x3b800b76	0.0039076163
18	0x3d24846e	0.040165357
19	0x3d7ef9d8	0.06224999
20	0xbda44ab3	-0.0802206
21	0x3d7d2a22	0.06180776
22	0xbd853160	-0.06503558
23	0xbc3420e3	-0.010994169
24	0x3d5d3ef5	0.05401512
25	0x3b14b6c6	0.002269195
26	0xbd71ae57	-0.059004154
27	0x3cc3757b	0.02385973
28	0xbd7e3fe6	-0.062072657
29	0x3a560432	0.00081640773
30	0x3d494053	0.04913361
31	0x3d832f9c	0.06405565
32	0xbcd07526	-0.025446486
33	0xbd34ef61	-0.044173602
34	0xbdab0a7c	-0.08351609
35	0xbd5256ac	-0.051352188
36	0xbcc5ece1	-0.024160804
37	0xbb418bf1	-0.0029532874
38	0xbc0d73f0	-0.008633599
39	0x3c3bd272	0.011463748
40	0xbce792dc	-0.02826827
41	0x3d7becf0	0.061505258
42	0xbd681fc4	-0.05667092
43	0x3d92b4dd	0.07163403
44	0x3d0bc06e	0.034119062
45	0xbda22245	-0.07916693
46	0xbd0a12a4	-0.033709183
47	0x3b8ed094	0.0043583605
48	0x3d862790	0.06550515
49	0xbb371dad	-0.0027941272
50	0x3cb5e374	0.022203185
51	0xbd1d8324	-0.038455144
52	0x3c9a6934	0.018848993
53	0x3d01cbe7	0.031688597
54	0xbd5bbb86	-0.053645633
55	0x3c284b07	0.010271794
56	0x3d062d11	0.032757822
57	0x3d0a3031	0.033737365
58	0xbcc0e558	-0.02354686
59	0xbd1a0e87	-0.03761151
60	0x3cee35ca	0.029078383
61	0xbc62b629	-0.013837376
62	0x3d607bde	0.05480563
63	0x3d74a897	0.059731092
64	0xbc89479a	-0.016757775
65	0xbb272b1e	-0.0025507878
66	0xbca2321c	-0.019799285
67	0x3d40602c	0.046966717
68	0x3d0752ed	0.03303807
69	0xbd48aff0	-0.048995912
70	0xbd771a47	-0.060327794
71	0xbc3b9aba	-0.011450464
72	0xbd856ecd	-0.06515274
73	0xbd95fce8	-0.07323629
74	0xbcf0488a	-0.029331464
75	0x3c855e7a	0.016280401
76	0xbd0ee384	-0.034884945
77	0xbca13177	-0.019676907
78	0x3d13ecad	0.036114383
79	0x3c3da606	0.011575228
80	0x3ccf25c0	0.025286555
81	0xbd186ee5	-0.037215132
82	0x3d816fa4	0.06320122
83	0x3d1514d1	0.036396805
84	0xbd39e6c7	-0.045386102
85	0x3d246592	0.040135927
86	0xbbccd0b4	-0.0062504653
87	0xbd7834a2	-0.06059707
88	0x3a94e917	0.001136097
89	0xbda2fdf4	-0.07958594
90	0xbd29204a	-0.04129056
91	0x3c00fdd0	0.007873014
92	0xbcc3890b	-0.023869058
93	0xbd24a6a3	-0.04019798
94	0xbd4f4d48	-0.05061081
95	0x3c887931	0.016659351
96	0x3d7afcab	0.06127612
97	0x3ca1ffbd	0.019775266
98	0x3d3fc65b	0.046820026
99	0x3d794309	0.060854945
100	0x3d504c9e	0.050854318
101	0xbd88a360	-0.06671786
102	0xbd821167	-0.063509755
103	0x3d307a6f	0.04308551
104	0xbd1d4c61	-0.03840292
105	0xbd4e401b	-0.050354104
106	0x3c89d699	0.016825961
107	0xbc80bf76	-0.015716296
108	0x3d680bc2	0.056651838
109	0xbd6577db	-0.056022506
110	0xbd82288c	-0.0635539
111	0xbd79c9b8	-0.06098339
112	0xbd82d8f9	-0.063890405
113	0x3ca4b541	0.02010596
114	0x3d836e6c	0.06417546
115	0xbc29f3af	-0.01037304
116	0xbcbfa67b	-0.023394814
117	0xbb62e758	-0.0034622755
118	0x3d68a008	0.056793243
119	0x3d6a13d4	0.057147816
120	0xbcaa94da	-0.020822931
121	0xbd54451e	-0.051823728
122	0xb998dd4e	-0.00029156584
123	0x3cef30f0	0.02919814
124	0xbd58654a	-0.05283097
125	0xbd42c682	-0.047552593
126	0xbb3fd724	-0.002927252
127	0x3d81ad44	0.06331876
128	0xbd9496ca	-0.07255323
129	0xbab59302	-0.0013853016
130	0x3d472baa	0.048625626
131	0x3c801ca9	0.015638666
132	0x3d6f75e3	0.058462035
133	0xbd90dcc5	-0.070733584
134	0xbd89f7d0	-0.067367196
135	0x3c93067b	0.017947426
136	0x3d681d0d	0.05666833
137	0x3d8e6ad8	0.069539726
138	0x3d7a54d3	0.06111605
139	0x3cc1d932	0.023663137
140	0x3d746387	0.05966523
141	0x3c952cc8	0.01820983
142	0x3d235964	0.03988017
143	0x3d5a772a	0.0533363
144	0xbd802363	-0.062567495
145	0x3d285d25	0.041104455
146	0x3d2d4714	0.042304114
147	0x3d7a8a51	0.061167065
148	0xbda1edfd	-0.07906721
149	0xbd8b03e8	-0.067878544
150	0x3d30701e	0.043075673
151	0x3d5426d4	0.051794842
152	0xbd72bd5f	-0.05926263
153	0x3d2573ef	0.040393766
154	0x3c68ba85	0.014204626
155	0xbd10c463	-0.03534354
156	0x3d6ea15b	0.05825935
157	0x3d152ce5	0.036419768
158	0xbd3ca9ca	-0.04606036
159	0x3c3cffc0	0.011535585
160	0x3d921446	0.07132773
161	0x3d02135b	0.03175674
162	0x3d6f5737	0.058432784
163	0x3d8c4933	0.06849899
164	0xbd27cdb8	-0.040967673
165	0xbd91a070	-0.07110679
166	0x3d0f4308	0.034976035
167	0x3d5492cb	0.051897805
168	0xbd625b0b	-0.055262607
169	0x3d2c47c7	0.04206064
170	0x3cee89d8	0.029118463
171	0xbcf63b84	-0.030057676
172	0xbd89f1cc	-0.06735572
173	0xbd09504d	-0.033523846
174	0xbbea505d	-0.0071506933
175	0x394774b2	0.00019021591
176	0xbd8f787d	-0.07005403
177	0xbbe2bc3f	-0.0069194133
178	0x3a540d7a	0.00080891664
179	0x3d161cc0	0.036648512
180	0xbcf6780d	-0.030086542
181	0xbcb2a5e7	-0.021807624
182	0x3d80ef25	0.06295613
183	0xbd25e980	-0.040505886
184	0xbd0894be	-0.033344977
185	0x3ca7b24e	0.020470764
186	0x3d8600e6	0.0654314
187	0xbb57bba9	-0.003291825
188	0xbc5d7ff3	-0.013519275
189	0x3d08c726	0.033393048
190	0x3cd7c809	0.026340501
191	0x3d600111	0.054688517
192	0xbd2a1eba	-0.04153321
193	0xbb3403e8	-0.0027468149
194	0xbd807840	-0.06272936
195	0xbcf5fd4e	-0.030028012
196	0xbd8e9d8f	-0.06963646
197	0xbd374c4e	-0.044750504
198	0xbb9ae11c	-0.004726542
199	0xbd0a5aa2	-0.03377784
