Results/Models/SAE_E2E_DCN_model_iter_id_5_epoch_400_lr_0.0001.pth (torch, 828294 bytes, 16 tensors)

shared1.weight f4 [200, 17]
00000000: f4de 3d3d 8d89 123d 713d b1bc f6c5 4a3c
00000010: 5319 2fbc 5147 0fbe 3277 1dbe 7bf2 72bc
00000020: 8b81 db3c dab0 573d 2596 72bd e3b1 8f3d
00000030: dfb7 6ebd 632a 37bb 6df9 283d cb08 00bc
00000040: 8957 853e 9ee5 8f3d 009f de3d 3e0b f5bd
00000050: 9155 043d a6b8 6e3d cfe6 853b 251e 743d
00000060: a31c 9c3c 3612 c63d 0cef 9dbd 7534 debc
00000070: 9b9b 3dbd c529 033e c60d 75bd 3a0e 34be
00000080: 92c1 51bd b548 91bc 1fa7 db3d 9672 1a3d
00000090: f5da 6fbd f851 a63d 3bc2 013d 85b7 27bc
000000a0: 7856 c03d cef4 d03c e371 e0bc 4464 13be
000000b0: 9cbc efbd b5b9 babd f43d 0cbd 28b3 f3bd
000000c0: 2fb1 f0bd 6498 10bc bb72 363e 455a 713b
000000d0: 7262 1fbd a5a3 90bd 18fa 923d 28f2 223e
000000e0: 3c22 d83c e833 a4bd bf83 f03d 450e 233e
000000f0: f518 11be b936 93bd beb6 623d 4ed5 7ebd
00000100: 6e06 e9bd f1a8 213e 08a2 a8bd 86bc e03d
00000110: c445 e43b 43eb 8dbd a57e ff3d d188 063e
00000120: 12f3 32be 24f6 34be 09c4 543c 113a c0bd
00000130: 80e3 04be c737 28bd 6a96 ec3c 3fd6 7a3d
00000140: 7bec dd3d b2e7 16be 4fe2 73bd dcb8 16bd
00000150: c20a e5bd 4bed 22bd 8516 0bbd 0e36 9abd
00000160: 7a81 093e 2912 e2bd a9b3 e2bd 8d5d e33d
00000170: f8a3 0dbe ebfa 873d e478 553d b464 e9bd
00000180: 9555 37be 1145 d33d 2c05 f93d 7b57 473d
00000190: 29fb 72bc 2290 c23c 95d7 ef3d c84e 06bd
000001a0: 289a bebd 295c cd3d e4bb c43d bd3b f33d
000001b0: bb09 353d 0a87 b43d 3dd8 793d 9f1c 10be
000001c0: 21fa e73d 4fbc 12be 0b5f dfbd 2991 4ebe
000001d0: f2d0 e13c c097 1b3d a667 dbbd 26d0 17be
000001e0: 6a36 a4bd c057 4abe e031 723d c621 fbbd
000001f0: 32ba 3739 187f fabd e9b0 963c 9002 e8bd
00000200: c0cd aabd d701 d73d b174 c73d f143 fb3c
00000210: 2302 1abd dd80 eabd ef10 653d bbf1 9ebb
00000220: 0c87 bbbd 6211 a9bd ed94 ca3d f668 38bd
00000230: 3881 1dbe 5785 afbc 765c 073c c6e5 0bbd
00000240: 7232 a33d 3192 023e 2752 b73d ebcd 0bbe
00000250: dd32 e3bc 288e a2bd 4873 113d 4e6d ab3d
00000260: 659e 963d 8fb2 94bd ccd5 d6bc 2662 7dbd
00000270: 2d4b 2a3d ab83 293e 8f78 5bbd 84da 943d
00000280: 1a4d 1d3d 6309 b1bb c790 38bc dff6 f9bd
00000290: 33bb cebc e2b5 9abd 0681 13bc d787 33be
000002a0: bbcb 133d fa34 11be a6da b03a 9e3e 9c3c
000002b0: c3be 2bbe c9be 3b3e c45c debd 0ac2 e0bd
000002c0: fb3f 953d f6d9 b9bd f8d1 06be ac13 dabd
000002d0: c709 f2bd cccb 1ebe d670 d03c 8208 23bc
000002e0: f0e9 713d 0d6c 373d 9930 d1bd 6d37 fbbd
000002f0: c42d 8c3d 11e2 383e 6a07 643e 7f7c bcbd
00000300: 7c6d d8bd 444d a03d ca43 b93d bffe 81bd
00000310: ce1f e8bd 30d3 863d 5d44 c53c 160a 02be
00000320: d5c9 a3bd 61bf 47bd cd02 853c 6a87 ebbc
00000330: 8054 66bb 8e90 35be c2a8 82bd 2cd4 3a3d
00000340: 031f cc3d 5207 88bd f4e9 9e3d e600 bcbc
00000350: 5b19 12be f9cd 99bd 5f9d 36bd c012 fa3d
00000360: 6a85 643d 1dc4 debd 1196 f03d 803d 873d
00000370: da05 b43d 9944 22be 4602 11be ab02 0bbe
00000380: f7f1 3d3e 787b 543d 2109 b9bd 3db8 c1bc
00000390: f297 9bbb 6aa2 de3d cb1b b63d fed2 b4bc
000003a0: f3eb 06be eda7 27bd 69f9 63bd 5ffa 833d
000003b0: 4d32 01be 7583 0c3c bdfb 503d e285 b33d
000003c0: 547d ad3d 0430 e13d 31cf 183d b857 6c3d
000003d0: c072 abbd a55a 373e 098b 4dbd 325e c63d
000003e0: b410 0f3d bb66 823d c76c 06be 0217 22be
000003f0: 463a ee3c a686 77bd fcca 81bd 8a22 b0bb
0.046355203 0.03577571 -0.021635743 0.012376299 -0.01068719 -0.13992049 -0.153775 -0.01482832
0.02679517 0.052658893 -0.05922522 0.07016351 -0.058280822 -0.0027948848 0.041253496 -0.007814596
0.26043347 0.07026218 0.108701706 -0.11965035 0.032308165 0.058281563 0.0040863524 0.05959906
0.019056624 0.09671442 -0.0771161 -0.027124623 -0.046290975 0.12808903 -0.05982759 -0.17583552
-0.051209994 -0.017734865 0.10725235 0.037706934 -0.058558423 0.08121103 0.031679373 -0.010236626
0.093914926 0.025507357 -0.027398055 -0.14393717 -0.11705896 -0.09117452 -0.03423877 -0.11899406
-0.11752545 -0.008825395 0.17817204 0.0036827486 -0.038912244 -0.07062463 0.07176608 0.15912688
0.026383512 -0.08017713 0.117438786 0.15923412 -0.14169677 -0.07188172 0.055350058 -0.062215142
-0.113781795 0.15787102 -0.0823403 0.10973458 0.0069663245 -0.06929638 0.124753274 0.13138129
-0.17475536 -0.1767202 0.012986192 -0.09386075 -0.1297741 -0.04106882 0.028880317 0.061239477
0.10836121 -0.14736822 -0.059541997 -0.03679739 -0.111836925 -0.03977708 -0.033957023 -0.07529841
0.13428298 -0.1103862 -0.11069424 0.11101828 -0.1383208 0.06639656 0.052117243 -0.11396161
-0.1790374 0.10315908 0.121591896 0.048667412 -0.014830389 0.023750369 0.11711041 -0.032789975
-0.09306747 0.10027344 0.0960615 0.118766285 0.044198733 0.08814819 0.060997237 -0.14073418
0.11327005 -0.14329647 -0.109068 -0.20172562 0.027565453 0.037986517 -0.10713129 -0.14825496
-0.08018191 -0.19760036 0.059129596 -0.12262301 0.00017521603 -0.122312725 0.018394904 -0.11328614
-0.08340025 0.10498398 0.09739054 0.030672045 -0.037599694 -0.1145036 0.055924352 -0.004850594
-0.091566175 -0.08255269 0.098916866 -0.045021974 -0.15381324 -0.021425886 0.0082617905 -0.034154676
0.07968606 0.1275108 0.08951216 -0.1365277 -0.027734214 -0.079372704 0.03551033 0.083704576
0.0735443 -0.0726062 -0.026224993 -0.06186118 0.0415756 0.16554134 -0.05358177 0.07268241
0.038403608 -0.0054027303 -0.011264986 -0.1220529 -0.025235748 -0.07554223 -0.00900293 -0.17532288
0.036082964 -0.14180365 0.0013492897 0.019072827 -0.16771989 0.18334498 -0.108575374 -0.1097451
0.07287594 -0.09074776 -0.13166034 -0.10648283 -0.11818271 -0.1550743 0.02544443 -0.009950759
0.05906099 0.04478078 -0.102143474 -0.12266431 0.068446666 0.18054987 0.22268453 -0.09203433
-0.105677575 0.07827237 0.09046133 -0.06347417 -0.11334191 0.065832496 0.02408045 -0.1269916
-0.07997481 -0.048766498 0.016236687 -0.028751094 -0.003514558 -0.17730924 -0.06379844 0.0456125
0.099668525 -0.06642021 0.07759467 -0.022949647 -0.14267485 -0.07509989 -0.044583675 0.122106075
0.055791296 -0.108772494 0.11747373 0.06603527 0.087901786 -0.1584648 -0.14161023 -0.13575236
0.18549334 0.05187556 -0.09034944 -0.023647422 -0.004748338 0.10870822 0.0889202 -0.022073265
-0.13175945 -0.04093163 -0.055657778 0.06444239 -0.12616844 0.008576264 0.051021326 0.087657705
0.0847117 0.109954864 0.037306968 0.057700843 -0.08371496 0.17905672 -0.050181422 0.09685935
0.03492804 0.063672505 -0.13127433 -0.1582909 0.029080521 -0.060431145 -0.06337544 -0.005375211

shared1.bias f4 [200]
00000000: 2324 61be 224d 153d 4291 bb3d cea5 3cbe
00000010: 6da8 1f3e c0f5 5dbc 5893 bc3b e753 1b3e
00000020: 6a1a 4fbe cfad a53d 62e2 cfbd d33a 1cbe
00000030: ff31 7bbe 4b34 3cbe f042 08ba 34f0 2ebe
00000040: 6b10 1bbe d9e6 ccbd 7c86 08bd 19c7 5d3d
00000050: 3c56 533e e0f3 d0bd 0c91 263e 81cf 2cbe
00000060: 8984 f9bd 8ed7 8abd bab3 59be b69e 61be
00000070: 201a f6bb 1471 673c 4c2d 2f3d 20a7 27bd
00000080: f94c 9ebd 8482 20be 5c38 08bd ef51 fdbc
00000090: 29f4 573e e8cc 2f3e b4cf 813d 7dee e3bd
000000a0: 0e5e e2bd c54a 9dbc 4cae 1b3e 5ec8 6ebe
000000b0: 72be 143e 9915 5dbd 865b 8a3d 0514 783d
000000c0: 262d b03d 0482 03be 9732 923d 9457 913d
000000d0: 9da2 f33d 1cab 77bc 5ca0 3e3c 45f0 76bc
000000e0: af3e 02be 322b 1cbe fe2e 493e e818 8dbc
000000f0: b8ac 3b3e 96dd 08bd 3664 59be ac41 bbbd
00000100: ce26 843d 4416 c6bd afd9 3bbd 8e9b 3c3e
00000110: d5cf d73d 21f7 7fbd 82f0 b0bd d1aa 1fbe
00000120: 3d82 963d d2e8 c6bd 7eee ef3d 4e96 d3bd
00000130: 6ebe 7b3d 6570 c7bd 1770 433d fb44 acba
00000140: ea22 5ebd 40b6 6abe 58fe 9b3d a3b0 ae3d
00000150: 4929 f5bd 1fc3 eebd cf0a 48bc a180 77be
00000160: 1019 de3d 9290 483d 4eda 30be fa9c 4f3e
00000170: 0807 bebd de5b f3bd 6149 163e d723 a93d
00000180: 5e7c 403e 6625 653e 374b 043e 32bb 0f3d
00000190: 9afd 2d3d b392 0c3e d918 9abc 6641 2c3e
000001a0: dd48 74be 3c1a 1ebe 45a0 003e 7573 303e
000001b0: 46ee dabd eb07 ae3d f933 4abd 9863 cfbc
000001c0: c463 e6bd 8f7f 363d 4aaa 493d e233 f33c
000001d0: aa41 e33d 7ca5 13bc eee3 933d 20ab b93c
000001e0: 173a b43d 946d febd 17d7 c4bd 16b1 733d
000001f0: 3e48 97be eeba ba3d e2f6 08be 7c13 e6bd
00000200: e755 8ebc 5de2 dabd ccd5 2abe 03c3 81be
00000210: 0a83 e03d 69ea 0bbe ed35 af3d 273d d2bb
00000220: f046 6c3d 6a9d 34be 14c9 6bbe b6b8 afbd
00000230: e4dc 2f3e d9c9 8dbe 0d69 e43b c6c9 1b3e
00000240: e670 6e3d 157c e2bd 398f c43d a132 8cbe
00000250: 63d9 a63d 52d5 8c3d 242d bbbd 0630 43bd
00000260: 5c4b 83be 3778 f1bd 15d0 4f3e 0b71 39bd
00000270: eac2 7b3d ccb6 d0bd 614a 49be 21c6 983d
00000280: 30ab 283e 5350 133e 4570 4dbd 58cc 0abe
00000290: b5df bb3d 5e25 e1bd c137 dbbd 77be ddbd
000002a0: d358 c4bd 62b3 06be abd2 89bd 7bce 903d
000002b0: 925f d23d b4ea 4a3e f76b 423e c8cb 2dbe
000002c0: 5e0a 583e a529 c1bd e159 4bbe aa02 2bbd
000002d0: 5942 5bbe 79c8 65be a59c 0a3e 8f66 253d
000002e0: d7a8 20be 2ceb 9fbd 4650 d5bd 53eb f7bd
000002f0: f93a 0b3d e113 503e 0f6b 6ebe dfc6 63be
00000300: 62ac 71be 5e52 6ebe 4e89 743d db01 ec3d
00000310: f87a 6cbe 2e94 85be 2b88 57be baec 193e
-0.21986441 0.036450513 0.09158565 -0.18422624 0.15591593 -0.013547361 0.0057548694 0.15168725
-0.2022492 0.08089792 -0.10150601 -0.15256815 -0.24530791 -0.18379323 -0.0005197963 -0.17083818
-0.15142982 -0.10004968 -0.03333138 0.054144952 0.20638365 -0.102027655 0.16266268 -0.16876031
-0.12183482 -0.06779395 -0.21259966 -0.220332 -0.0075104386 0.014126081 0.042767808 -0.040930867
-0.07729525 -0.15674788 -0.033256873 -0.030922858 0.21089233 0.1716801 0.06338444 -0.111294724
-0.11053096 -0.019200692 0.15203208 -0.23318622 0.14525774 -0.053975675 0.06755738 0.060565967
0.086023614 -0.12842566 0.071385555 0.07096782 0.118962504 -0.015116479 0.011634912 -0.015071933
-0.12719224 -0.15250853 0.19646832 -0.01722379 0.18327606 -0.033414446 -0.21229634 -0.09143385
0.06452714 -0.096722156 -0.045861896 0.18418714 0.10537688 -0.06249154 -0.08639623 -0.15592505
0.0734906 -0.09712376 0.11715411 -0.10331403 0.061460905 -0.097382344 0.04771432 -0.0013143116
-0.054232515 -0.22921085 0.076168716 0.085297845 -0.11970765 -0.1165831 -0.012209608 -0.24170162
0.10844624 0.048965998 -0.17270777 0.20274726 -0.09278685 -0.11882757 0.1467643 0.08258789
0.18797442 0.22377548 0.12919317 0.035090633 0.04247818 0.13727836 -0.018810676 0.16821823
-0.2385592 -0.15439695 0.12561138 0.17231543 -0.10689978 0.08497604 -0.04936597 -0.025316045
-0.112494975 0.044555243 0.049234666 0.029687826 0.11096509 -0.0090116225 0.072212085 0.022664607
0.08800142 -0.12423244 -0.09611338 0.059495054 -0.29547304 0.09117685 -0.13375428 -0.11234185
-0.017374946 -0.106877066 -0.1668312 -0.25344095 0.10962494 -0.13663639 0.085552074 -0.0064159813
0.05768484 -0.17638174 -0.23025924 -0.08580153 0.17174107 -0.2769306 0.006970531 0.15213689
0.058213137 -0.11058823 0.0959763 -0.27382377 0.08146932 0.06876625 -0.09139469 -0.04765322
-0.25643432 -0.11790507 0.20294221 -0.04527382 0.06146518 -0.10191116 -0.1965728 0.07459665
0.16471553 0.1438611 -0.050155897 -0.13554513 0.09173528 -0.10993455 -0.107039936 -0.10827344
-0.095872544 -0.13154367 -0.06729635 0.07070633 0.10272135 0.19816095 0.18986498 -0.16972268
0.21097705 -0.09431771 -0.19858505 -0.041750588 -0.21412028 -0.22439755 0.13536318 0.04038101
-0.15689407 -0.07808527 -0.104157016 -0.121054314 0.033991788 0.20320083 -0.23283027 -0.22243832
-0.23600915 -0.23273608 0.059701256 0.115237914 -0.23093784 -0.26089615 -0.21048038 0.1503171

shared2.weight f4 [200, 200]
00000000: de0c 013e 751b 7abd 5157 e9bd 34e8 0fbd
00000010: c1e3 d5bd f599 cf3d 4d8e dbbc beb9 e7bd
00000020: d810 8c3c 7a83 86bd 4836 7d3b e6e2 fdbd
00000030: 5d50 853d 72cf ff3d 785d 8ebd ef1b e7bd
00000040: 22e3 8bbd 1ed8 85bd 51ab 2e3d c4cf f03c
00000050: 668b 57bd 52b4 393d 1d18 383a ab81 cc3d
00000060: 3e5a 653d 3618 e5bd 9e14 1bbe a0fc dd3c
00000070: 981c 39bd d078 33be 1199 df3d 4a60 9fbd
00000080: 06fe 883d f3de 8f3d eb90 9d3d fd40 41be
00000090: 9b66 893d f7f7 3cbd 1e2f d53c 711f bb3c
000000a0: 7964 ecbc 8440 d23c 2ab3 0bbe d075 3a3d
000000b0: 4cf8 9abd a6c5 b13c 3ace 1f3c e0a1 3abe
000000c0: 61a5 9fbb d973 c7bc c15e b3bc ec4e d4bd
000000d0: 3957 ca3d 0f1b 15be 6187 93bb 935f b4bd
000000e0: f61a 4fbe c291 69bd 05ee 0cbe 56b8 babc
000000f0: 9c68 17bd 10fe 6c3c 8720 e03c 20d3 85bd
00000100: 70c7 813d 6de0 a13d a345 82bd 9661 933d
00000110: 8af8 d83b 364c 933d 330b 413d 1155 82bd
00000120: d157 9cbd a84f 363e 0e68 c1bd c563 d03d
00000130: 7c96 9dbb 257a 1ebd 51fb a83c 7dd5 363d
00000140: f8ea 243e b7a3 18bd ff9c d93d 311a 59bd
00000150: 0b28 28be 8608 ca3d 6e58 9cbd fcd1 be3d
00000160: 011d c9bd e64c 2cbe 88ed 10bd 39d5 28bd
00000170: c987 ff3c bf99 1bbe 5801 8ebd 91f9 683d
00000180: 2fd0 9c3d c0d1 1bbc ca04 32be 6787 83bd
00000190: fec1 c3bc 5262 0cbe 5e54 803d e4e1 a7bd
000001a0: 1653 0f3e ca3c 683d be8e edbd 9280 a83d
000001b0: 7077 efbc 9605 f8bd f130 933d da2b aa3d
000001c0: 2d9b d53c f5a1 c83d c79e 28bc 4dee 88bd
000001d0: a29c 103d b6a8 903d 29e4 53bd 35fa d43b
000001e0: 38fa ecbb 7257 64bd 1f58 0f3d 21c0 d33d
000001f0: b2de 43bd 31f7 a1bd dce2 f83c f321 be3d
00000200: ce6b 9f3d 5edb 6a3c 5b1e 8b3c 9f76 973d
00000210: 6359 e0bb 51b4 043e 3373 803d 92cd 20be
00000220: 9c1a 97bd ddca f03d a725 7fbc 47e6 303d
00000230: 7487 20bd 42ac 92bd b44d b03b c614 c4bd
00000240: fc26 e73c cf4e 4dbd d1e2 05bd 8312 003d
00000250: 1440 8d3d 0f17 103d 30b7 c3bc 3f41 6ebd
00000260: 9585 9a3c 4c98 573c 1a94 ad3c bc8a a23d
00000270: cc34 1dbe 0204 003e 3861 8dbd 7333 be3d
00000280: 1faf 44be d780 85bd eb92 f73d 5163 21bc
00000290: c659 9fbd 2c7e 0dbd c2a7 d93d 7657 f5bd
000002a0: 9277 0c3d c364 adbd ff33 a1bd 11fd 43bd
000002b0: 9271 cdbd 2c22 aabd 6ff2 5cbd ea1b 643d
000002c0: f532 e0bd 1ad0 cbbd 4207 0dbe 5dcf 0a3d
000002d0: 873d 92bd 37c5 84bd ff11 eb3d 22ee 1abd
000002e0: ce0e febd 58a5 703d 2b67 ac3d 5c8f b0bb
000002f0: e2b6 863d 0d46 9e3d 0f22 623d e085 923d
00000300: 4732 583d 0bfd b83d 461d ebbd ea15 163e
00000310: f586 1b3d f653 923d c2f6 4bbc 749a 47bd
00000320: fe7b 67bb 7de2 0bbe 05e9 0c3d a9cb 58ba
00000330: f493 2fbd 8232 a1bd ba7a d4bb 63e1 c73b
00000340: 38a5 11bc bf17 cebd db9f e13d b781 133e
00000350: bd99 8e3d b8ee 563d 906e 323e 9e31 17bc
00000360: 9114 9e3d 51e5 98bd 8ab7 7ebc f60c adbc
00000370: 7b18 4a3d 90db 98bc b1f9 b23d ad4e 3cbd
00000380: 841a fd3d 6f1a c83d 029b 9b3d a868 063e
00000390: afaf 353d ea05 013e 991c 713d 8c54 b93d
000003a0: 1d6d fabd ad92 033e 7811 00bd 1b91 e43d
000003b0: c4f7 2ebd 4a82 e2bb cb43 59bc 09a8 f13d
000003c0: 0cfc d93d 11a0 9fbd f0bf b93c caa6 d6bc
000003d0: 1633 20be 5f00 4f3e b438 a1bd 10f7 463d
000003e0: fda2 b63d 3d85 0a3d 3955 edbc c171 163e
000003f0: 51d6 21bd 1887 323d 1394 f9bd 2bf8 8bbd
0.12602565 -0.06106134 -0.113936074 -0.035133556 -0.10443831 0.10136787 -0.026801253 -0.113147244
0.017097875 -0.06568046 0.003863709 -0.12396793 0.06509469 0.12490739 -0.069514215 -0.11284625
-0.068304315 -0.06535362 0.04264385 0.029395945 -0.052623175 0.045337982 0.0007022636 0.0998567
0.055994265 -0.111862585 -0.15144584 0.027098 -0.045193285 -0.17526555 0.10917867 -0.077820376
0.06689076 0.07024946 0.076936565 -0.18872447 0.067090236 -0.046134915 0.026023444 0.02284214
-0.028856503 0.02566553 -0.13642564 0.04552251 -0.0756689 0.021700691 0.009753758 -0.18225813
-0.0048720096 -0.024347233 -0.021895768 -0.10366616 0.09879918 -0.14561103 -0.0045022224 -0.08807292
-0.20225129 -0.05702377 -0.13762672 -0.022792976 -0.036964998 0.01446487 0.02735926 -0.065344095
0.06336868 0.07904134 -0.063609384 0.071963474 0.006621425 0.071922705 0.04712982 -0.063638814
-0.07633937 0.17803824 -0.09443675 0.101752795 -0.004809199 -0.038690705 0.02062765 0.044637192
0.16105258 -0.037265506 0.10625648 -0.053003494 -0.16421525 0.09864907 -0.07634054 0.09317395
-0.09819985 -0.1682621 -0.035382777 -0.04121897 0.031192677 -0.15195368 -0.0693385 0.05687863
0.07656895 -0.0095104575 -0.1738464 -0.0642231 -0.023896214 -0.13709381 0.06266092 -0.08197382
0.13996539 0.056698598 -0.115994915 0.08227648 -0.029231757 -0.121104404 0.07187069 0.08309145
0.02607497 0.09796516 -0.010291762 -0.06686077 0.035305627 0.07063429 -0.051731262 0.0064995536
-0.007231977 -0.055747457 0.03499615 0.1033938 -0.0478198 -0.07908476 0.030381612 0.09283819
0.07784234 0.014334528 0.016982248 0.07395672 -0.006846593 0.1295941 0.062719725 -0.15703419
-0.07378122 0.11757443 -0.015572942 0.04318836 -0.03919168 -0.07161762 0.0053803567 -0.09574275
0.028216831 -0.050123986 -0.032687012 0.031267654 0.068969876 0.03517824 -0.023891062 -0.058167692
0.018862525 0.013158869 0.021188784 0.07936618 -0.15352172 0.12501529 -0.06903309 0.09287157
-0.19207428 -0.06518715 0.12088569 -0.009850339 -0.07780795 -0.034544155 0.106277004 -0.119795725
0.03429372 -0.084664844 -0.078712456 -0.047848765 -0.100314274 -0.08307299 -0.05394214 0.055690683
-0.10947219 -0.099518016 -0.137723 0.033889163 -0.07140642 -0.06482928 0.11478042 -0.037824757
-0.124051675 0.058751434 0.08418115 -0.0053881835 0.06577851 0.07728205 0.055208262 0.07154441
0.052782323 0.09032639 -0.11480193 0.14656797 0.037970502 0.071449205 -0.012448968 -0.048731282
-0.0035321708 -0.13660617 0.034401912 -0.0008270094 -0.04286571 -0.07870962 -0.0064843567 0.0060998662
-0.008889489 -0.10063123 0.11016818 0.14404951 0.06962917 0.052473754 0.17424989 -0.009228138
0.077187665 -0.07465614 -0.015546689 -0.021124344 0.049339753 -0.018659383 0.08739031 -0.04597347
0.12358573 0.09770667 0.07597925 0.1312586 0.044356998 0.12599912 0.058865163 0.09049329
-0.12227843 0.12848921 -0.03126666 0.11160489 -0.042716756 -0.0069125043 -0.013260792 0.11799628
0.10643777 -0.07794202 0.02267453 -0.026202578 -0.15644488 0.20214985 -0.078721434 0.04857546
0.08917806 0.033818472 -0.028971301 0.14691831 -0.03951103 0.043585867 -0.12186446 -0.06834444

shared2.bias f4 [200]
00000000: 4933 81bd 82e6 1dbd a354 c6bd 8bb0 34bd
00000010: a1b2 7b3d 9a6d 80bd 0072 90bd 352e a5bd
00000020: ce0f f2bd 19b3 80bd 8f61 ecbb 476d 0dbd
00000030: 6d2b 1bbc 6596 acbd 9c15 9a3d 4bc6 d7bd
00000040: 4509 abbd 365f d63c 5500 1a3c 1e63 353b
00000050: 4243 2abd 96a6 8b3d cf76 69bc f6b8 e7bc
00000060: f554 8abd 3585 c83c c716 a23d e7f8 0bbd
00000070: 0687 b5bd ae43 693b 9eba 1fbd af60 6dbd
00000080: 50c4 f4bc 1e62 7e3c c932 c23c 5cee 86bd
00000090: 39fd 54bc e5ac 893c 487f c7bc 2dd0 ca3c
000000a0: ec83 9dbc 779b 103d 491f 81bc 5f5b 5e3d
000000b0: e4ad c6bc d3c4 5fbc 3738 19bc 2d8d b13b
000000c0: 01e3 59bc a4f3 fcbc c94e efbd c16f 96bd
000000d0: 5de8 9dbc 48cc 89bd 6c8f 8cbc b1e3 7cbd
000000e0: dc92 30bd 3363 8f3d 465e 69bd 0c31 6bbd
000000f0: 3e0b 403b 28ed 4bbd 386d 9c3b 66f2 d6bd
00000100: daf7 d7bd ef18 9fbd 8749 24bd d82a 91bd
00000110: c4a3 88bb 9097 b33d b23a f23c 135e 5dbd
00000120: 4eae fe3b 95af 0dbd 74e6 37bd 3d23 ab3c
00000130: 4827 12bd ee13 a1bc 34d9 86bd a071 b6bc
00000140: de76 19bd d20e 17bd b76a 8c3d ca7e 1dbe
00000150: abd9 98bd f286 91bd ebec 483d c11d 873c
00000160: 5340 2d3d c94d 063d f58d 68bd b807 dfbb
00000170: 8420 c53c a28e 983c f74a eebd 6a61 4c3d
00000180: 09e6 20bd 00fd e0bc 2b0d e33b fc14 69bd
00000190: ee8a 8d3c 174a 96bc dd8b 863d 2d6e 98bc
000001a0: fae4 243c 2f93 463d 156d 113d 4156 7dbd
000001b0: cac1 eebc 197f 1dbe cb68 9cbc 5432 96bd
000001c0: 038f 183d 04c9 423c a986 063d 6288 64bd
000001d0: 3e73 51bd 9dc8 7abd 4a50 2cbd 3692 1c3d
000001e0: 113a a13b b28a 20bd c043 b6b9 2933 bc3d
000001f0: 2c33 45bd a46e 203c 65c7 243c fa6d ed3a
00000200: e384 0ebd d3e2 123d 5fd3 0ebc 3f7a 5bbd
00000210: dfe8 c3b9 78c2 48bd ce2d 303d 9c6d 17bd
00000220: 1464 133d 7801 69bc 442b 25bd fbc6 df3c
00000230: 4535 c8bd 7744 3b3d 3454 013c 06ad 0abe
00000240: 77c4 483d bffb d03b d0f4 22bd aa39 43bd
00000250: ef43 aabb 15cc 8f3c ccc0 a5bd 2da8 113d
00000260: 0add ea3c 4067 bb3c 1534 ce3b 3dff 3abd
00000270: 31ee 52bd 9d28 943d e152 85bd 4b91 0b3c
00000280: 6114 edbd 54dd 853c abee dabd 1593 d1bb
00000290: 2bc0 debd c023 e73c 8b16 91bd fc48 72bd
000002a0: 04d1 91bb db7f 91bc 08fa 40bd b49d 94bd
000002b0: d310 02bd 6a06 2cbd 12a4 b13c 721a 6bbd
000002c0: b48f cebc 5f96 ed3c 9477 96bb d971 4dbc
000002d0: 6c86 46bd 4c02 773d e41a b13c 6fdc dbbc
000002e0: 2d80 fabc 88cc 08bd 3f36 733b 1664 87bd
000002f0: 58fe bcbd 3d18 983c a6a5 09bc 4ee7 fb3c
00000300: 5ce1 73bd 7638 a9bd c77c 43bd 38da 06bd
00000310: 608a 93bd 5f95 33bd 480a 7d3d 5bb6 08bd
-0.0630861 -0.038549908 -0.09684112 -0.044113677 0.06144965 -0.06270905 -0.07052994 -0.08065454
-0.11819421 -0.0628416 -0.0072137783 -0.034528043 -0.009470803 -0.08427123 0.07523653 -0.10535868
-0.083513774 0.026168447 0.009399493 0.0027677487 -0.04156805 0.06818883 -0.014249518 -0.028286438
-0.067544855 0.02447758 0.07914501 -0.03417292 -0.08863644 0.0035593319 -0.03899633 -0.057953533
-0.029878765 0.015526323 0.023705857 -0.06588432 -0.012999826 0.016806075 -0.024352685 0.02475747
-0.019227944 0.035304513 -0.015761988 0.054286357 -0.02425284 -0.013657766 -0.009351782 0.005418441
-0.013298751 -0.030877896 -0.11684949 -0.07345534 -0.019275839 -0.06728417 -0.017158233 -0.06174058
-0.043108806 0.070013426 -0.05697467 -0.05741982 0.0029303576 -0.049786717 0.004773762 -0.104954526
-0.10545321 -0.077684276 -0.040109184 -0.0708825 -0.004169913 0.08769143 0.029569004 -0.054044794
0.0077722436 -0.034591276 -0.04489751 0.020890826 -0.035681993 -0.019662824 -0.06584397 -0.022270977
-0.037466876 -0.036879368 0.06856292 -0.15380397 -0.07463392 -0.07105817 0.049054068 0.01649368
0.042297672 0.032789025 -0.056776006 -0.00680634 0.024063356 0.0186227 -0.11635392 0.04989759
-0.03928188 -0.02746439 0.00692906 -0.056904778 0.01727816 -0.018345876 0.065696456 -0.018607223
0.010064358 0.04848021 0.03550442 -0.061849836 -0.02914514 -0.15380515 -0.019092938 -0.07333818
0.03724576 0.011888746 0.032843266 -0.055794127 -0.051135294 -0.061226476 -0.042068757 0.038225375
0.004920252 -0.03919477 -0.00034764223 0.091894455 -0.048144504 0.009792004 0.010057305 0.0018114441
-0.0347947 0.035860848 -0.008717387 -0.05358338 -0.000373668 -0.049013585 0.043012433 -0.036969766
0.035984114 -0.014221542 -0.040324464 0.027316561 -0.09775785 0.04571959 0.007893611 -0.13542566
0.04901549 0.0063776667 -0.039784253 -0.047662415 -0.0051960866 0.017553369 -0.08093414 0.035560776
0.028669853 0.022876382 0.0062928298 -0.04565357 -0.05149669 0.07234309 -0.065099485 0.008518527
-0.115761526 0.016340889 -0.106900536 -0.0063957074 -0.10876497 0.02821529 -0.07084378 -0.059151635
-0.0044499654 -0.017761162 -0.04711345 -0.07256642 -0.031754326 -0.041998304 0.02168468 -0.057398267
-0.025215007 0.029002367 -0.0045918915 -0.01253935 -0.04846804 0.060304925 0.021619268 -0.02683851
-0.030578697 -0.03339818 0.003711119 -0.06610887 -0.092282 0.018566245 -0.00840131 0.030749943
-0.05954109 -0.08262722 -0.04772642 -0.032922953 -0.07204127 -0.043843623 0.061777383 -0.033377033

hidden1_Y1.weight f4 [200, 200]
00000000: f93b 63bd 13ab c6bd e07a febd aa17 b43d
00000010: 946a 003e 0233 a73d 3e00 a73d 225e 033d
00000020: 78b1 c13d c000 0dbe 35a9 08be 83a2 a5bd
00000030: 4962 263d 9db8 913d 270f 2fbd d0aa b63c
00000040: d07e b0bd 3789 f7bd 7956 f5bd c916 3c3d
00000050: 2af9 f93d 5154 5a3d 503b b83c 858e 4dbc
00000060: 6825 a4bc fc31 08be c997 0fbc fb98 c63d
00000070: 7f81 d33d 6aa7 943d db51 e2bd 4a8a fcbd
00000080: 3e28 9e3d 7d53 e5bd 94cf f7bc 3faa 0b3c
00000090: 1a1a ecbd 97ab de3d 1b10 acbd f8a5 a83d
000000a0: 4603 f33d f045 01bd 9143 1a3d a2ef d13d
000000b0: 6d11 f8bc 7fb9 c1bd 2737 b23b 7f1e 923d
000000c0: 83ce 16bc 09cf c13d 16f3 d4bd 06e3 f3bd
000000d0: c6b3 ba3d 8a6d a23d 3c25 05be 4390 a73d
000000e0: 075c 043d 600f 9bbd 2aa6 b6bd 8a79 cdbd
000000f0: 06c7 88bd 1979 a7bd 2111 923d 2975 9cbd
00000100: 40b6 a53d ad45 ecbd 56d1 d73c fcb3 e73d
00000110: 32ee 903b f105 913d 7fd4 a13d 9960 82bd
00000120: be1b e73c 9d97 0ebd d692 e53d 459f f6bd
00000130: a548 f0bc c863 aebd 9cc2 edbd 30cd e1bd
00000140: 2235 5fbd 179d 23bd 3b78 c73d 04bc a6bb
00000150: 26fc aabd 1374 c8bd 56a6 b23c d1e1 3cbd
00000160: 8d9b 93bd b996 e8bd 5a6b b5bd bdcd 2bbc
00000170: 7dbe ed3c a9b7 eebd 3892 193d a089 69bc
00000180: 1afa 03be 86e3 f03d ceed 6ebc 427b af3d
00000190: ecd9 bcbd 744f 8dbd c5d3 c6bd 0704 a4bd
000001a0: 125e f3bd 5cc5 303c b807 59bd b639 933d
000001b0: db09 bcbc 6e14 55bd 51a2 f7bd 38dd 483d
000001c0: f900 bc3d dfb2 6bbd dc48 cc3d 3ea4 313d
000001d0: 1691 c03d 8546 c73d 69a6 1ebd 9f4f 3c3d
000001e0: 0c51 f1bc 07a5 c93d c840 94bc 2c0c bfbd
000001f0: 8671 df3c d977 803d cf28 13be c262 b5bc
00000200: 9dee bcbc 39fe 72bc bffa 003d 0144 e5bd
00000210: 9129 b1bd c368 903d 1365 adbd 2257 9abc
00000220: efc9 bc3d 866c 57bd f011 acbd de90 77bd
00000230: ef0f 683c d049 ebbc d552 13bc 3626 e2bd
00000240: 1ce6 313b f073 f2bd 36f8 b8bd a845 cebd
00000250: 22c0 00be ea23 b73d 1261 17be d93c f73d
00000260: 6ee0 573d 50aa 293d ef3a b2bd b89a c53d
00000270: a03b da3c 8b3e 89bc f0dd 083b 9919 3f3d
00000280: 0d0b 01bd 430f 09bd b976 ca3d 81cf 85bd
00000290: af35 643c 49f8 dd3b f172 b23c d2ed 09bd
000002a0: ffc5 cb3d a41d df3c 496a e1bd ad3e d93c
000002b0: a7b1 3d3d 3b33 0a3d 5961 503b 3ade 16bd
000002c0: 700c 91bd ac86 743b 6ca2 d7bd 7930 be3d
000002d0: c3d3 babc 6e9d c7bd 4bdb 973d d52c a13d
000002e0: f62e c13d 4b31 a6bd 2082 ddbd c4ed 81bd
000002f0: ae6e 403d 694d 483c 88cd 833d 5b54 8b3d
00000300: 63d0 fdbc 9594 ecbd b1e8 0abe 5fa3 e23b
00000310: 9a2a a33d 07a1 ef3d 4d65 c8bb 1df9 033d
00000320: 1a05 173e 3af4 c4bc 4471 933d c222 da3d
00000330: 94c7 88bc 7009 a2bd c5e6 313d 5dac 673d
00000340: 13e2 a3bd 28d3 66bd 013a a63a 8ee7 bbbd
00000350: 0b03 92bb a12a 5dbc 5ee4 083e 5e46 c53c
00000360: 90b1 1e3c a3ed a93d 43a5 8c3d 3bce 913d
00000370: 3970 cd3d 5caa a53d 6c5e fb3a 2384 583d
00000380: 07a9 20bd aa68 adbc 7564 e83c faf9 ac3d
00000390: 66af 0d3b 301e 81bd cf1b 2f3d ab07 fcbd
000003a0: af83 be3d f245 883c 545d 373d ccc7 a23d
000003b0: 3ca0 fe3c 5c38 883d c5f2 fb3d dd1f 45bc
000003c0: 1ce7 c3bd e85d d23d 014f e03d 7e41 0ebd
000003d0: 4d4a c3bb 2fdf c4bd 2f45 e4bd c540 183d
000003e0: 0dac 55bd 4c7a f03d 2b97 e03d 90e6 eb3d
000003f0: 5a18 343c 00c0 16bd 91bc 603d ae56 b23d
-0.055477116 -0.097005986 -0.1242578 0.08793576 0.12540656 0.08164026 0.08154343 0.032072194
0.094576776 -0.13769817 -0.13345797 -0.08087637 0.040621076 0.0711529 -0.04273906 0.022298247
-0.086179376 -0.120867185 -0.11979384 0.045920167 0.122057274 0.053303067 0.02248922 -0.012546186
-0.020037368 -0.13300318 -0.008764216 0.096971475 0.10327434 0.07258494 -0.11050769 -0.12331064
0.07722519 -0.11197565 -0.030250348 0.008524477 -0.11528416 0.10872572 -0.084015094 0.08234781
0.11865859 -0.03156084 0.037662093 0.102507845 -0.030281747 -0.09459209 0.0054387036 0.07134723
-0.00920451 0.09463317 -0.103979275 -0.11908536 0.0911632 0.07931049 -0.13002485 0.081818126
0.032314327 -0.07571292 -0.08918412 -0.10032947 -0.06678586 -0.081773944 0.07132173 -0.07639534
0.08091402 -0.11536727 0.026344936 0.11313626 0.0044229263 0.07081211 0.079018585 -0.06366081
0.02821147 -0.03481256 0.11209647 -0.12042097 -0.029331515 -0.085151255 -0.116093844 -0.110254645
-0.05449403 -0.039944734 0.09739729 -0.005088331 -0.08348875 -0.097877644 0.02180783 -0.046113793
-0.07207403 -0.11356873 -0.08858366 -0.010486064 0.029021496 -0.11656124 0.03749296 -0.014254004
-0.12888375 0.11762147 -0.014583064 0.085684314 -0.09221253 -0.0689992 -0.097083606 -0.08008581
-0.11883177 0.010789242 -0.052985877 0.07188742 -0.022953918 -0.052021436 -0.12091506 0.049039096
0.09179873 -0.05754363 0.09974834 0.043369524 0.09402673 0.097302474 -0.03873292 0.04597437
-0.029457591 0.098459296 -0.018097296 -0.093284935 0.027275812 0.06272859 -0.14371036 -0.022141818
-0.023062998 -0.014831119 0.03148913 -0.11194611 -0.08650506 0.07051232 -0.08466544 -0.018840376
0.09218203 -0.05259373 -0.08401859 -0.06044089 0.014163955 -0.02872172 -0.008991917 -0.110424444
0.0027145213 -0.118385196 -0.090317175 -0.100718796 -0.12573293 0.08942397 -0.14783123 0.12072153
0.052704267 0.04142219 -0.08702647 0.09648651 0.02663976 -0.016753456 0.0020884238 0.04665527
-0.03150468 -0.03346182 0.09885926 -0.06533719 0.013928815 0.0067739827 0.021783324 -0.03367407
0.09949874 0.027235813 -0.110066004 0.026519144 0.046312 0.033740263 0.0031796305 -0.036833026
-0.070824504 0.0037311716 -0.105290264 0.09286589 -0.022806054 -0.09746824 0.07414874 0.07869879
0.09432785 -0.08114871 -0.10815835 -0.06344178 0.046980552 0.012225487 0.06435686 0.06803199
-0.030983156 -0.11551777 -0.13565327 0.006916448 0.0796711 0.117006354 -0.0061155916 0.032219995
0.1474804 -0.024042238 0.07199338 0.10651161 -0.016696729 -0.07911956 0.04343297 0.056560863
-0.080021046 -0.056353718 0.0012682081 -0.09175025 -0.004455929 -0.013498933 0.13368365 0.024081405
0.009685889 0.08297279 0.06867459 0.071194135 0.100311704 0.08089134 0.001917792 0.05286039
-0.039223697 -0.021168072 0.028368214 0.08446117 0.0021619438 -0.06304586 0.04275113 -0.1230615
0.093024604 0.016634915 0.04476674 0.079482645 0.031082265 0.06651375 0.12302164 -0.012031523
-0.09565565 0.102718174 0.10952569 -0.034730427 -0.005959785 -0.096128814 -0.11146008 0.037171144
-0.052166034 0.11742076 0.10966333 0.11518586 0.010992134 -0.0368042 0.05486733 0.08707939

hidden1_Y1.bias f4 [200]
00000000: 424b b83c 7a38 abbc 312d 50bd 5e9c 583d
00000010: ccf7 793d 1f6b 883d 8674 36bd 3530 053c
00000020: 203d 803d 1725 d3bc 9113 89bd 3d6e f7bc
00000030: 7cc9 2d3c 6c43 753d 02ca 37bd 2794 483d
00000040: f337 29bd 3bd9 843c a5eb e33c c91f 153c
00000050: a945 1d3d e60f 2f3d 5f4c 17bd 2f73 2abd
00000060: e443 6cbb eaf6 39bd 0fae 76bc 75b8 963d
00000070: 14c2 7fbd b453 82bd 0f89 063d ee69 273c
00000080: a380 0dbd 305c 1e3d 8e0c 903d 3bee 87bd
00000090: dbf8 1c3c 9d7c c1bc 886f 96bd ad6d be3c
000000a0: f544 9dbd 530f 71bd 8439 ec3c 6a8d 3a3d
000000b0: 8b06 e43c 0aa4 4f3d 467e 8f3d e19e 6bbd
000000c0: a8f8 81bc 280d d7bb ca6a 933d 3ea4 483c
000000d0: f96a 21bd ca33 8fbd 2b7c 4dbd 04d0 713d
000000e0: d0c3 bc3c 89bf 1a3d 7d51 75bb b5e2 20bd
000000f0: 55e9 00bb 40a1 37bc bf60 bfbb a81e 233d
00000100: a04d 023d 0047 91bc a7a6 db3c 3041 353d
00000110: a907 98bd 9db8 513d 7d66 093d 94ef 8cbc
00000120: 3b0e d4bb 0d13 433d 1263 113d 3222 e4bb
00000130: 0953 e93c f353 80bd 9e47 473c 4a04 593d
00000140: a088 92bc 890b 6a3d d57e e9bc 2815 6ebb
00000150: c5d5 4b3d 1dd2 6bbd dd86 373d 7745 563d
00000160: b76a 1d3c 3f6b 32bd 96d2 4e3d 9c93 923c
00000170: 6971 583d 3e67 92bc 6b34 3d3d 7fb8 dfbc
00000180: 7b3d 283d 500c 973d 5a55 dfbc 36b9 3e3c
00000190: 07fa 443d 2a0f a1bc d4d2 86ba c86d 2fbd
000001a0: cc36 dabc 022c 8ebd c9ae 533d 180d 76bd
000001b0: beeb 96bd 2b36 1ebc b415 52bb dd35 53bb
000001c0: 7a54 33bb bb6f 26bd fd9e 103c c0cc 09bd
000001d0: 28d2 85bc a85c a8bd c0b4 8dbb 9e8a e43c
000001e0: c8ed 5cbd 10e9 1f3c bd34 32bd 835a 603b
000001f0: 4890 40bc b27d 72bd eeec 253d d8c2 b2bc
00000200: 80a7 9a3c 25d8 833d 7ff7 063d aefb 8cbc
00000210: ed37 0abd 0212 c8bc 6a35 0abd 7640 abbd
00000220: 2ec5 cc3c c2af 603d 701c 343d 9c7b b8bc
00000230: 1878 0c3d 0ac2 eb3c f763 a0ba f83b 523c
00000240: 587c 01bc 6be5 8cbd 2906 04bd 60c1 a3bc
00000250: c0e4 fc3c 1fe7 7f3d b5fd 91bc 8c13 713c
00000260: de31 cabc b8f7 c9bb 6b2d 4aba e8d0 21bd
00000270: 6fb9 a0bc e281 d23b dd4b 923d 58c3 1e3c
00000280: 09a6 b4bc e1d1 1c3c 9294 be3c 5040 91bd
00000290: 374e fd3b 9ae6 533d 372b 073c 9b4e 5ebd
000002a0: 33d0 29bc 05af 523c 8894 bf3c dc5d 80bb
000002b0: b7b8 6dbd 5f69 f53b 9563 00bd b53a 51bd
000002c0: 91b5 873c 0474 4cbc 016e 683b 1786 1f3d
000002d0: ec1a 613d 9978 ecbb b407 7f3c 7f35 ddba
000002e0: a885 ff3c b28a 0bbd a862 b93c 1291 093d
000002f0: 9815 823d 2df6 9b3d bf5f 103d dbf3 8bbd
00000300: 4e4e 773c 25b3 5c3d 1ed7 133d 1279 36bd
00000310: 30bc f0bc ec66 b3bc 9fa2 8e3d 4a51 373d
0.022496823 -0.020900954 -0.050824348 0.0528835 0.061027333 0.06661057 -0.04454472 0.008129169
0.06261659 -0.025774522 -0.06693185 -0.030203933 0.01060712 0.05987875 -0.044870384 0.048969414
-0.041313123 0.016216865 0.027822325 0.009101816 0.03839651 0.04273977 -0.036938068 -0.041613754
-0.0036051208 -0.04540149 -0.015056147 0.07359401 -0.062440947 -0.06363621 0.032845553 0.010218127
-0.034546506 0.038662136 0.070336446 -0.06637236 0.009580816 -0.02361899 -0.07345492 0.023245657
-0.07679168 -0.058852505 0.02883602 0.04554502 0.027835151 0.05069355 0.070065066 -0.057524566
-0.015865639 -0.0065628476 0.07198103 0.01224619 -0.039408658 -0.069923 -0.050167244 0.05903627
0.02304259 0.03778032 -0.0037432604 -0.039278705 -0.0019670327 -0.011207879 -0.0058403905 0.039824158
0.03181231 -0.01773405 0.026812864 0.04425162 -0.07423336 0.05120145 0.033545006 -0.017204084
-0.006471423 0.04762559 0.03549487 -0.006962084 0.028481977 -0.06266012 0.012163071 0.052982606
-0.017887414 0.057139907 -0.028502861 -0.0036328528 0.049764413 -0.057573427 0.04480635 0.05231234
0.009607962 -0.04355931 0.0504938 0.017892651 0.05284253 -0.017871495 0.046192568 -0.027309654
0.041074257 0.07375395 -0.027262378 0.011640837 0.048090007 -0.019660551 -0.001028622 -0.042829305
-0.026637457 -0.069419876 0.05168036 -0.06007108 -0.07369183 -0.009656469 -0.0032056393 -0.003222815
-0.0027363584 -0.0406339 0.008826968 -0.03364253 -0.016335562 -0.08220798 -0.0043245256 0.02789813
-0.053937703 0.009760156 -0.043507326 0.0034233637 -0.011753149 -0.059201904 0.040509157 -0.021821424
0.018878698 0.06437711 0.032950874 -0.017209854 -0.03374474 -0.02442265 -0.033742346 -0.08361904
0.024996366 0.054855116 0.043972433 -0.022519879 0.034294218 0.028779048 -0.0012236823 0.0128316805
-0.007903181 -0.068796955 -0.032232437 -0.01998967 0.030870795 0.062476274 -0.017821172 0.014714133
-0.024681982 -0.0061635636 -0.0007712456 -0.03950587 -0.019619672 0.0064241746 0.07143376 0.009690128
-0.022051828 0.009571523 0.023264203 -0.07092345 0.007730271 0.05173359 0.008250049 -0.054274183
-0.01036458 0.012859111 0.023386255 -0.003917439 -0.058037486 0.007489368 -0.03134497 -0.051081378
0.01656607 -0.012478832 0.0035465958 0.038946237 0.054957315 -0.007216525 0.015565801 -0.0016876905
0.031191662 -0.034067817 0.02263005 0.033585615 0.06351775 0.07615314 0.03524756 -0.06833621
0.015094353 0.053881783 0.036093824 -0.044549055 -0.02938661 -0.021899663 0.06964611 0.044755258

hidden2_Y1.weight f4 [200, 200]
00000000: f72e f6bd 8975 fbbd 2196 033d de8c 3f3d
00000010: ed0b 983d d777 463d b1cb 453a 7e88 8c3d
00000020: f59f 333c 474c 9fbd b909 873d 2bd8 e73d
00000030: 7d08 7abd c04b 8b3d 5a6a fa3c 966f 10bd
00000040: 9680 f6bd 5f28 0a3d 246c 86bd 26f1 363d
00000050: 33e1 953c b7de b0bd 72d4 d0bd 934c edbd
00000060: ba41 703d 00b9 d4bd 4066 ab3d 5484 973d
00000070: 3388 66bc 6d98 f2bd fa6d 82bd 9f05 cfbb
00000080: b15d a1bd b62e afbd 50d5 393d 320c 00be
00000090: 6a89 ebbd c7c4 acbd 880b 6cbd 1cec c0bd
000000a0: 1487 c93d 1658 c53d 6f0b ba3d bb24 6cbd
000000b0: 1ef2 e8bd bfc2 9fbd edd7 d23d 72df c2bd
000000c0: 61e0 debd f007 e8bd 808e 973c eb29 93bd
000000d0: ec68 c63d a38f b3bc 308a 77bc 4d4c b0bd
000000e0: f541 7cbd fe22 24bc d4f1 b83c 8ca3 d43c
000000f0: b2c5 a0bc 91dc 0c3d 31ae c23c cd2e dd3d
00000100: 8fb2 94bd 1ea8 813d fb34 b8bd ad88 c33c
00000110: 03ea 9a3c f398 763b 6607 af3c 73dd 5f3d
00000120: cc36 49bd 4a31 47bd c653 cc3d db04 5cbd
00000130: 7814 9dbd 13a0 9ebd 284b cb3d 3cf7 debc
00000140: 7150 ae3d 7c25 dc3d a65e 4d3d 315e 06be
00000150: a683 d8bd d236 7cbb 5bde a93d 760d bd3d
00000160: 4cb9 ca3d fd39 27bd b6d4 3b3d bc0f fdbd
00000170: af44 31bd 8af5 68bc 03dd cabd c488 c33d
00000180: cca8 163d d722 5ebd e4c9 a53c 1c1d 153d
00000190: 1251 af3d 8229 7cbd 9e82 02be f6a6 873d
000001a0: 05d2 4dbc 1f2a c9bd 2a34 b63d 05bc 313d
000001b0: 03e9 973d ce0f ac3d 8d90 32bd 4c2a d8bd
000001c0: b71f f8bc 17b4 c3bd 9a0a a23c 6fde e7bd
000001d0: 740c 353d 1e61 12bc 8f31 e73d 223b 44bd
000001e0: 651c edbd 8c4a e73a a199 20ba d528 b93d
000001f0: 33fd a2bd 5ff7 f7bd 435a 42bb 8b81 a03d
00000200: 3207 b3bd b482 083d 877e 633d cc35 aabc
00000210: 4825 553c 2fa8 07bd 8cca 173d f5dc 21bd
00000220: e0de ac3d 0d48 d9bd de0d 513d 80e8 22bd
00000230: e239 383d e0a2 febd 809d 4c3d 0725 b0bd
00000240: 2158 65bd 328d cfbc cba0 bbbd 08da c0bc
00000250: 6101 383d 17d9 903d 20c7 b03c e3d5 05bd
00000260: de85 563c 68f5 d53d cf00 89bd 8841 41bd
00000270: e4e2 7dbd d326 71bd 2383 adbd 4f24 80bd
00000280: 97a1 963c f234 8e3d c297 87bd 971c ae3b
00000290: ceec a3bc 0bbe f2bd 263c 86bd 2424 9a3d
000002a0: 3868 d83c 7186 adbc 64fb ca3d 81f3 a63d
000002b0: 23d1 7c3c d8ee 733d c170 cc3c f57c edbd
000002c0: 28ec f1bd d615 80bb 0e27 d1bd 8f8b 8f3d
000002d0: 009b aa3c b5a3 da3d 4616 d4bd 51a1 b2bd
000002e0: b48b 66bd cb6b d13c 2c84 11bd 7a01 92bd
000002f0: 7b16 cdbd f225 ad3d bda9 de3d 0f6d 95bc
00000300: 9998 aa3d d054 3ebd 9d23 833d d9ac 5e3d
00000310: 96f5 1cbd 24c9 d5bd 22a5 86bc 5916 23bd
00000320: 609f 64bd 6a45 0b3e 9b2a c13d 0e3f b43d
00000330: 73d6 84bd 964d 893d 3b5a bf3c 7742 8fbb
00000340: 6378 aebd 1f57 9e3c 7f2e a2bd cc20 97bd
00000350: 5736 22bd f486 c8bd 61ac 55bd 6c6a 173e
00000360: fb1d b4bd 255a 343d dd72 6dbb ccb1 c73d
00000370: 194e 803b 966b e2bc 143c 7cbd 4a75 363d
00000380: 5023 2c3d bf9b be3c fc4f 2a3d 9572 f53d
00000390: c293 743d e276 87bd 8c39 83bd 10e7 edbd
000003a0: 401d 023e 2cc7 d43b b1d0 f13d af52 a83d
000003b0: b702 8d3d 7f5b 66bd ee15 9e3d d5b9 aabc
000003c0: 014a b93d bdfa 393c 54e8 cabd 8a77 8d3b
000003d0: 8496 07bd e38b 8f3d 4ce8 2abd 95cd 913d
000003e0: ac34 9e3d 6e82 d03d 8009 bc3d dd23 b8bd
000003f0: d3c9 a23d 740f 0d3d 2145 17bd 17b1 76bd
-0.120206766 -0.122782774 0.032125596 0.0467652 0.0742415 0.048454132 0.0007545306 0.06861971
0.01096343 -0.077782206 0.06593651 0.11320528 -0.06104325 0.068015575 0.03056829 -0.035262667
-0.120362446 0.033729907 -0.06563595 0.04466357 0.01829586 -0.086362295 -0.10196771 -0.11586871
0.05865643 -0.103868484 0.08369112 0.073982865 -0.014070558 -0.11845479 -0.063686326 -0.0063178088
-0.07879198 -0.08553831 0.045369446 -0.12504652 -0.11500819 -0.0843597 -0.057628185 -0.09420034
0.09840217 0.09635942 0.09084212 -0.057652216 -0.11374305 -0.07800817 0.10295091 -0.09515275
-0.10882641 -0.11329639 0.018500566 -0.071857296 0.09687981 -0.021919077 -0.01510863 -0.08608303
-0.06158634 -0.010018108 0.02257625 0.025956891 -0.019625518 0.034390036 0.023764702 0.10799942
-0.0726062 0.06330894 -0.0899448 0.023868883 0.018910414 0.0037627786 0.021365833 0.05465455
-0.049124524 -0.04863099 0.09976916 -0.053715568 -0.0766992 -0.077453755 0.09926444 -0.0272175
0.08511437 0.10749337 0.050139092 -0.13121869 -0.10571985 -0.0038484824 0.08294364 0.09231083
0.09898624 -0.040826786 0.045857154 -0.12356517 -0.043278392 -0.014218697 -0.09905436 0.0954757
0.03678207 -0.054232445 0.02023787 0.036404714 0.08560385 -0.061563022 -0.12745139 0.06623642
-0.01256228 -0.09822487 0.08896668 0.0433922 0.0741749 0.08401452 -0.043594886 -0.105549425
-0.03028856 -0.09555834 0.019780446 -0.11321723 0.04420133 -0.008934287 0.112887494 -0.047907956
-0.115776815 0.0017646118 -0.0006126408 0.09040991 -0.0795845 -0.12107729 -0.002965585 0.07837208
-0.08741607 0.033327773 0.055540588 -0.020777605 0.013009377 -0.033119377 0.037058398 -0.03951736
0.084409475 -0.10609446 0.051038615 -0.03977251 0.044977076 -0.1243341 0.04995489 -0.086008124
-0.05599225 -0.025335882 -0.09161528 -0.023541465 0.04492319 0.070726566 0.021579325 -0.03267468
0.01309344 0.10447198 -0.06689607 -0.047181636 -0.061983958 -0.058874916 -0.08472278 -0.06256925
0.018387599 0.06943692 -0.066207424 0.005313467 -0.020010378 -0.11852654 -0.06554441 0.075264245
0.026416883 -0.02118227 0.0991123 0.081519134 0.015430721 0.05955395 0.024956109 -0.11596099
-0.11812621 -0.003908853 -0.10212527 0.070090406 0.020825863 0.10675756 -0.10355811 -0.08722175
-0.056285575 0.025564095 -0.03552644 -0.07129188 -0.100140534 0.08454503 0.10872219 -0.01824048
0.08329887 -0.046467602 0.06403277 0.05436406 -0.038320147 -0.10438755 -0.016436163 -0.039816234
-0.055816054 0.13600698 0.094319545 0.08801089 -0.064862154 0.067042515 0.023358455 -0.004371937
-0.08519056 0.019328652 -0.07919025 -0.073793024 -0.039602604 -0.09791365 -0.052166346 0.1478669
-0.08794781 0.04403128 -0.0036231794 0.09750709 0.00391556 -0.027639192 -0.061580732 0.04454545
0.042025864 0.023267625 0.041580185 0.119847454 0.059711225 -0.06614472 -0.064074606 -0.11616337
0.1270647 0.0064934697 0.11807383 0.08218896 0.068852834 -0.0562396 0.077190265 -0.020840565
0.09047318 0.011351285 -0.09907594 0.0043172287 -0.033102527 0.07009103 -0.04172544 0.0711929
0.0772489 0.101811275 0.091814995 -0.089912154 0.07948651 0.034438565 -0.03693116 -0.06022748

hidden2_Y1.bias f4 [200]
00000000: 611f 8bbd a3fa 9b3c 1336 563c f949 a73d
00000010: 435c f3bb 315e 113d a106 efbc 49ac 1c3c
00000020: 47dc 753d 5fb0 92bb 3d61 863d f6c1 2dbb
00000030: 75fb 343d 7d0b 25bc a333 7d3d 4467 56bd
00000040: afa8 0d3c a61a 613d 5354 96bd 5df1 fd3c
00000050: ebc0 5dbd fd64 3c3d 9071 8ebc 6025 28bc
00000060: 8808 913c d00a 92bd 01b1 e53c a9fd 433d
00000070: 0695 f3bc 99aa abbd 7ac7 a93c dfe0 f23c
00000080: 2968 87bc 8b9e 2f3d 56ee 51bd db52 65bd
00000090: 05bb 4d3d 48aa c1bc 872d c33c 2afa 4cbd
000000a0: 7cb7 54bd adbd 413d 9bfd b8bc 8752 7f3d
000000b0: 46b4 30bd 3cf8 19bd ab92 8cbd 18dc 873d
000000c0: 243d d2bc a65f c33c 7dda e6bc 0cd7 16bc
000000d0: 0f95 183d 3285 023d c8e8 9e3c 011c 893a
000000e0: a191 293d 8ba9 7ebc fb55 83bd 2882 6a3d
000000f0: c0ab 2d3c 1623 8e3d 0c21 903d 2aaa 593d
00000100: 68a8 103d 5d4f 3cbd 186d 64bd 4cff bf3c
00000110: 280b 59bd c147 63bd 305c e9bc bdad d6ba
00000120: 4b30 69bd 7740 bc3c 03df 85bd cb98 093d
00000130: 88fb 853d 9cf7 4fbd 0844 33bd 77be 7ab9
00000140: ba83 e2bc f8fc ee3c 20c8 3cbd adbd 683d
00000150: 7d27 3abc 2b55 2b3d 9ee0 4c3d a5b3 82bd
00000160: 40e5 5f3d b0d5 b93c ffac 2b3d 4e45 ef3c
00000170: 32bc 6f3d e8d5 383c 82dc a5bc e527 e03b
00000180: a619 8dbd 7ab4 c2bc e1b4 f4bc 8e87 0a3d
00000190: d4eb 21bd 127d 55bd 2c92 6bbd 78cf 143d
000001a0: cf95 6abd 982f ae3c 5c25 5a3d 24ba 3f3d
000001b0: e200 573b 1103 1d3d 0474 a93c f842 d23b
000001c0: 40eb bebc b019 8c3d e762 46bd 794e fcbc
000001d0: 40f6 ae3c f9ac 8a3d 2b58 58bd fb27 f03c
000001e0: b626 35bd c9b8 753d 454c 1bbd f51d af3c
000001f0: c165 963c 5e54 38bc b69e 12bd 32f0 1e3c
00000200: 506b 84bd a289 a03c 976c 973c efac 1d3d
00000210: 6a2b 383c e172 b6ba 8185 353d 712b 17bc
00000220: afec 59bc fcdb 3cbd ca61 ddba 8c58 3d3b
00000230: 0928 9dbd d787 3a3d fcea 79bd a5e4 5c3d
00000240: 49ca 7abb e2e2 9abc 5186 91bb 1da4 63bc
00000250: c5c0 8fbc b1b5 943d 2d53 95bd a690 123d
00000260: 4a30 703d b07f 1fbb 357e 86bd 28d8 263c
00000270: 25de f3bb 27be bc3c 4b0c c9bc 3c9f 353d
00000280: b11e 47bd 148d 4abd 78f9 8f3d 35df 7c3c
00000290: 5c96 0e3d ff60 8f3c b7a6 903d fbea 643d
000002a0: 4824 953c 1668 ec3c 8f67 08bd 6184 553d
000002b0: a5eb 653d 219c abbd aee5 5b3c e417 54bd
000002c0: bea5 12bd 66c1 a0ba ac8e f13c c409 943c
000002d0: 6002 053d 65a6 42bc 4229 e1bc c34f 6fba
000002e0: d8a5 06bd f5a7 78bd e0b7 25bd 2510 ea3b
000002f0: 1769 ec3b d21c 473d 34d4 abbd dad4 5b3d
00000300: c87c cb3b 219e 6c3c 0a6f 3ebb 7bc6 24bc
00000310: 8523 f5bc d74a 36bd 2052 013d 5000 a83c
-0.067930944 0.019040411 0.013074416 0.08168406 -0.00742677 0.03549022 -0.029177966 0.00956256
0.060024526 -0.0044765915 0.065615155 -0.0026513315 0.04418512 -0.01007354 0.061816823 -0.052344576
0.008646174 0.054957055 -0.07340302 0.03099888 -0.05413906 0.045994747 -0.017388135 -0.010262817
0.017704263 -0.071309686 0.028038504 0.04784933 -0.029734146 -0.08382148 0.020725 0.029648243
-0.01652916 0.042875808 -0.051252685 -0.05598722 0.050227184 -0.023640767 0.02382542 -0.050043263
-0.051932797 0.04730003 -0.022581866 0.062334564 -0.043140672 -0.03759025 -0.06863912 0.066337764
-0.02566392 0.02384932 -0.028180355 -0.009206545 0.03725153 0.031865306 0.019398108 0.0010460616
0.04139865 -0.015543352 -0.06412884 0.057253033 0.01060003 0.06940286 0.07037553 0.053140797
0.035316855 -0.045974124 -0.055768102 0.023437165 -0.052989155 -0.05548835 -0.028486341 -0.0016378682
-0.05693082 0.022979958 -0.06536677 0.03359298 0.065421164 -0.050773248 -0.04376605 -0.00023912812
-0.027650703 0.02917336 -0.04608929 0.056821514 -0.011361954 0.04182927 0.0500189 -0.06381921
0.05466199 0.022684902 0.04191303 0.029207852 0.058529086 0.011281468 -0.020246748 0.0068406933
-0.06889658 -0.023767699 -0.029871406 0.03382068 -0.039531544 -0.05212123 -0.057512447 0.03633067
-0.057271775 0.021262929 0.053258285 0.046808377 0.0032806923 0.038333002 0.020685203 0.0064166747
-0.023305535 0.06840837 -0.048434164 -0.030799137 0.021357656 0.06771273 -0.05281846 0.02931594
-0.04422637 0.059990678 -0.037914533 0.02137659 0.018359067 -0.011250583 -0.03579589 0.009700822
-0.06465781 0.019596878 0.018484397 0.038495 0.0112408195 -0.0013919735 0.044316772 -0.009226666
-0.013301059 -0.04610823 -0.0016890105 0.002889189 -0.07673652 0.045539703 -0.061015114 0.05392899
-0.0038267544 -0.018907014 -0.0044410606 -0.013894108 -0.017547974 0.072612174 -0.07291255 0.03578248
0.058639802 -0.0024337582 -0.06567041 0.010183372 -0.007442253 0.02303989 -0.024541995 0.04434131
-0.048613254 -0.04945095 0.07030004 0.015434076 0.034811363 0.017502306 0.07063048 0.055888157
0.018205777 0.028858226 -0.033301886 0.0521282 0.05613293 -0.083793886 0.013421459 -0.051780596
-0.035802595 -0.0012264668 0.029486977 0.018071063 0.032472968 -0.011880492 -0.027485494 -0.0009129012
-0.032873005 -0.06070705 -0.04045856 0.007143038 0.007214676 0.04861147 -0.08390084 0.053669788
0.0062099434 0.014441998 -0.0029057884 -0.010057087 -0.029924164 -0.044504967 0.03157246 0.020507962
