Results/Models/SAE_stacked_all_DCN_model_iter_id_1_epoch_400_lr_0.0001.pth (torch, 828518 bytes, 16 tensors)

shared1.weight f4 [200, 17]
0	0x3e0d2cbf	0.137866
1	0x3de3c4cb	0.1112152
2	0xbe79d463	-0.24397425
3	0xbd8213c2	-0.06351425
4	0xbe518db7	-0.20464216
5	0xbdbdd2c4	-0.09268716
6	0x3db8b1e2	0.090183035
7	0xbd7fb00b	-0.062423747
8	0xbcaa0c47	-0.020757807
9	0xbe1d9732	-0.15389708
10	0xbe0ebe4b	-0.13939779
11	0xbe0afceb	-0.13573043
12	0x3b3e1117	0.0029001886
13	0x3e2db95e	0.16965243
14	0x3c302df9	0.010753148
15	0x3d637117	0.055527773
16	0x3e64ab2a	0.22330919
17	0xbc878b2a	-0.01654585
18	0xbca464bd	-0.020067567
19	0x3d423097	0.04740962
20	0x3e54aea5	0.20769747
21	0x3dfed025	0.12442044
22	0x3d60587d	0.05477189
23	0xbdc18c34	-0.0945057
24	0x3e2757d0	0.16342092
25	0xbdd38d96	-0.1032974
26	0xbd41bcb6	-0.04729911
27	0xbc5d5904	-0.0135099925
28	0xb9a32108	-0.00031114393
29	0x3d3f5882	0.046715267
30	0xbe83d678	-0.25749564
31	0x3e119d01	0.14220048
32	0xbd9748d1	-0.073869355
33	0xbdf8de5a	-0.12151785
34	0xbdfb90ee	-0.122835025
35	0xbd13ebfe	-0.03611373
36	0x3d89ad9e	0.06722568
37	0xbb2a487a	-0.002598314
38	0x3d227f22	0.039672025
39	0x3d9e5bd0	0.077323556
40	0x3c057b9e	0.008147148
41	0xbe18f030	-0.14935374
42	0x3c6b4436	0.0143595245
43	0x3d8b9ab9	0.068166204
44	0xbcd299e7	-0.025708152
45	0xbd6b2ed7	-0.057417717
46	0x3d873e54	0.06603685
47	0x3e12f715	0.14352067
48	0x3e005421	0.12532093
49	0x3dad799a	0.08470459
50	0xb9fc79c1	-0.000481559
51	0xbc968250	-0.018372685
52	0xbc9d4321	-0.019197049
53	0xbd9510f8	-0.07278627
54	0xbdbe0ff6	-0.09280388
55	0x3d4b6718	0.049658865
56	0x3d75ad2f	0.059979614
57	0x3d9b173e	0.075727925
58	0xbd225e53	-0.039640736
59	0x3e1f76e2	0.15572694
60	0xbdb5e852	-0.08882202
61	0x3cc305b6	0.023806434
62	0x3e31c088	0.17358601
63	0xbd8c6892	-0.06855883
64	0x3d8b5ec4	0.068051845
65	0xbe4d4e61	-0.2004943
66	0x3bb1367c	0.0054081064
67	0xbaa71197	-0.0012746331
68	0x3c2c13d3	0.010502773
69	0xbdd4be77	-0.10387891
70	0xbe2186fb	-0.15774147
71	0x3c1b1357	0.00946506
72	0xbdc13fe2	-0.09436013
73	0x3cce2ab5	0.025166849
74	0xbde5dd2b	-0.11223825
75	0x3dc9f4b7	0.09861129
76	0xbbb7d58f	-0.005610175
77	0xbe12a0c2	-0.14319137
78	0xbd1b657d	-0.037938584
79	0x3dc7cbaf	0.097556464
80	0xbdb017e4	-0.08598307
81	0x3cb9df44	0.02268947
82	0xbe124cdf	-0.14287136
83	0x3dc17384	0.09445861
84	0xbd4bc89a	-0.049751855
85	0x3df1ec7c	0.11812684
86	0xbd08fcf5	-0.033444364
87	0x3df4b159	0.11947889
88	0xbe2597f7	-0.16171251
89	0xbe0f1ef4	-0.13976651
90	0xbe291946	-0.16513547
91	0x3c8c0f3f	0.017097114
92	0xbda62979	-0.08113379
93	0xbc5cad04	-0.0134689845
94	0xbdaca895	-0.08430592
95	0xbda8c4a7	-0.082406335
96	0xbd566fcc	-0.05235271
97	0xbd36ac81	-0.044598106
98	0xbe34af4b	-0.17644994
99	0x3da92a11	0.08259977
100	0x3de1e4e0	0.110299826
101	0xbdb0dd2e	-0.08635937
102	0xbe0027b6	-0.12515149
103	0xbe039ffc	-0.12853998
104	0xbd843366	-0.06455116
105	0xbe281529	-0.16414322
106	0xbdfc6e1f	-0.123256914
107	0x3c4158b5	0.011800935
108	0x3d07f277	0.033190217
109	0x3d845ed3	0.06463399
110	0xbc56507c	-0.013080712
111	0x3d648a2a	0.055795826
112	0xbd95481a	-0.07289143
113	0x3e2631fe	0.16230008
114	0xbd45fb24	-0.04833521
115	0x3d9de0d7	0.077089004
116	0xbc7b9972	-0.015356408
117	0x3d23bf20	0.039977193
118	0x3d265a8d	0.0406137
119	0x3dbd6317	0.092474155
120	0x3ddb1ffd	0.10699461
121	0x3da04a69	0.078266926
122	0x3d4fd780	0.050742626
123	0x3d3d3a9a	0.046198465
124	0xbddca806	-0.107742354
125	0x3ce839f5	0.028347949
126	0x3ddc5813	0.10758986
127	0x3d37b6a5	0.044851918
128	0xbe104593	-0.1408904
129	0xbe2565b0	-0.16152072
130	0xbd38860a	-0.045049705
131	0xbe1c85d3	-0.15285425
132	0xbdebc6c8	-0.11512524
133	0xbd2e4f2e	-0.04255598
134	0x3d014e55	0.031568844
135	0xbe167c0c	-0.14695758
136	0xbcfbeed6	-0.030753534
137	0xbdf7ba54	-0.12096086
138	0xbc455f95	-0.012046714
139	0xbd2f76b8	-0.04283783
140	0xbd32e43d	-0.043674696
141	0x3e183839	0.14865197
142	0xbd9254f8	-0.07145113
143	0xbe0d24f1	-0.13783623
144	0x3d7544ab	0.05987994
145	0x3b9353c7	0.004496071
146	0x3e0a8ba2	0.13529828
147	0x3dea4b13	0.114401005
148	0x3d78a81c	0.060707197
149	0x3dc01a63	0.09380033
150	0x3dba0448	0.09082848
151	0x3e1fc75c	0.15603393
152	0xbd52a668	-0.05142823
153	0xbbbc9ea1	-0.0057562147
154	0x3ceab977	0.02865289
155	0x3e570ff7	0.21002184
156	0x3e813b19	0.252404
157	0xbe817f6a	-0.25292522
158	0xbd8d344f	-0.06894743
159	0x3d2ee9df	0.042703506
160	0x3d975733	0.07389679
161	0x3ccf31b4	0.025292255
162	0x3daeba53	0.08531632
163	0x3dc18694	0.09449497
164	0xbde35daa	-0.111018494
165	0xbca2699e	-0.019825753
166	0x3df8ab39	0.12142033
167	0x3d8e4735	0.069471754
168	0x3d89a226	0.067203805
169	0x3c730772	0.014833318
170	0x3e186692	0.14882877
171	0xbd15c9a0	-0.036569238
172	0x3e0d6774	0.13808995
173	0x3e131036	0.14361653
174	0xbd973583	-0.073832534
175	0xbe2b5b97	-0.16734158
176	0xbd1499c7	-0.036279466
177	0x3cc3d588	0.02390553
178	0xbde8edf0	-0.11373508
179	0xbd1e86de	-0.038702838
180	0xbd0db994	-0.03460081
181	0xbdc7ab3c	-0.09749457
182	0x3c3b30fa	0.011425251
183	0x3d43a23e	0.047762148
184	0x3d4c5b68	0.04989186
185	0x3e17aa83	0.14811139
186	0xbe31ea87	-0.17374621
187	0x3d8a34be	0.06748341
188	0xbdfd77a4	-0.12376335
189	0xbd7f1ae8	-0.06228152
190	0xbe21318f	-0.15741561
191	0xbd671033	-0.056411933
192	0xbd725710	-0.05916506
193	0xbda64bfe	-0.08119963
194	0xbd3a276b	-0.04544775
195	0xbde0d8b4	-0.10978833
196	0xbdfb4fb4	-0.122710615
197	0x3c78f3c7	0.01519484
198	0xbdbf1cd6	-0.09331672
199	0xbdf1c9fb	-0.11806103
200	0xbcc2fe22	-0.02380282
201	0xbe29d573	-0.1658533
202	0x3c942991	0.018086227
203	0x3e5b06e4	0.21389347
204	0x3d1c9a1b	0.038232904
205	0x3dc0c5d0	0.0941273
206	0xbda72a75	-0.08162395
207	0x3de20b8e	0.1103736
208	0x3d922a24	0.07136944
209	0x3d9b1118	0.0757162
210	0x3ddfbabf	0.10924291
211	0x3e1ad968	0.15121996
212	0x3d8721f3	0.06598272
213	0xbdf07263	-0.117405675
214	0xbcdc7f4a	-0.026916165
215	0xbdd08167	-0.101809315
216	0xbdaaf6d0	-0.08347857
217	0x3e0bfd5c	0.13670868
218	0xbe80a264	-0.25123894
219	0xbd412da4	-0.047162667
220	0xbdb6a396	-0.0891792
221	0x3de164bc	0.11005542
222	0x3e0febe6	0.14054832
223	0xbd102e96	-0.035200678
224	0x3e2310ba	0.1592435
225	0xbe3397c2	-0.1753836
226	0x3e11e18e	0.14246199
227	0xbcaf8579	-0.02142595
228	0x3e034d65	0.12822492
229	0xbdb05c58	-0.08611363
230	0x3ded8e28	0.1159938
231	0x3df59d5f	0.11992907
232	0x3dfc66a4	0.12324265
233	0xbd2b748d	-0.0418592
234	0x3d465c19	0.048427675
235	0xbdfbcb1e	-0.12294601
236	0xbdee5dde	-0.116389975
237	0xbd0d4f84	-0.03449966
238	0xbd69c199	-0.057069395
239	0xbded11e4	-0.11575678
240	0xbd92d0b2	-0.07168712
241	0x3cc7150c	0.024302028
242	0x3e30ec3e	0.17277619
243	0xbc9620ca	-0.018326182
244	0x3d2a16ef	0.041525777
245	0xbce6d78c	-0.028178953
246	0x3cc14753	0.02359358
247	0x3c7acea0	0.015308052
248	0x3d82a5aa	0.06379254
249	0x3c5289b8	0.0128502175
250	0xbdb609ec	-0.08888611
251	0xbe8d3c15	-0.275849
252	0xbde9f7ce	-0.11424218
253	0xbd97ece0	-0.07418227
254	0x3c8d30be	0.017235156
255	0xbd066c44	-0.032818094

shared1.bias f4 [200]
0	0x3e15ac8e	0.14616606
1	0xbd838931	-0.064226516
2	0xbd428576	-0.04749056
3	0x3e41f40e	0.18940756
4	0xbdd14961	-0.10219074
5	0x3e51e838	0.2049874
6	0x3d9c2dab	0.07625898
7	0x3db456f2	0.08805646
8	0xbd0c7f85	-0.0343013
9	0xbe095c38	-0.13414085
10	0x3d2644fc	0.040593132
11	0xbddf934f	-0.10916769
12	0x3dd900c7	0.105958514
13	0xbdc7d881	-0.09758092
14	0xbd4a4d01	-0.049389843
15	0x3e405577	0.18782602
16	0xbdfecd05	-0.12441448
17	0xbd7d6bba	-0.061870314
18	0xbe815a60	-0.25264263
19	0x3e1d5307	0.15363704
20	0xbe48dc3a	-0.1961526
21	0xbe5af1f9	-0.21381368
22	0xbcf46325	-0.029832432
23	0xbe3c012d	-0.18359824
24	0xbe833de2	-0.2563315
25	0x3e0283c0	0.12745571
26	0x3e567be5	0.209457
27	0xbd9d773d	-0.076887585
28	0xbe0a759a	-0.13521424
29	0xbe17d6c1	-0.14828016
30	0xbe5ac917	-0.21365772
31	0x3e0116ca	0.1260635
32	0xbd6014fb	-0.05470751
33	0xbe0c0a41	-0.13675787
34	0xbe743320	-0.23847628
35	0xbb562c35	-0.0032680158
36	0x3dd786b5	0.1052374
37	0x3e33ddf1	0.17565133
38	0x3c68f34b	0.014218162
39	0xbd65ba3a	-0.056085803
40	0xbc86e783	-0.016467815
41	0x3d75f16b	0.060044687
42	0xbc85a3eb	-0.016313514
43	0x3e22b611	0.15889765
44	0xbe066bbc	-0.13127035
45	0xbe9a78fd	-0.30170432
46	0xbd3867d9	-0.04502091
47	0xbde5d7bd	-0.112227894
48	0x3dd587dc	0.10426304
49	0xbdae41f1	-0.08508671
50	0x3d15f47d	0.036610115
51	0xbe31368f	-0.17305969
52	0xbe9abecc	-0.3022369
53	0x3e0e05f7	0.13869463
54	0x3e13498e	0.14383528
55	0x3da77c26	0.08177976
56	0x3cf8a978	0.030354246
57	0xbe6702c8	-0.22559655
58	0xbdae9e93	-0.085263394
59	0xbe00c169	-0.1257378
60	0xbe5fb528	-0.2184645
61	0xbdb50584	-0.08838943
62	0xbe373fcb	-0.17895429
63	0xbd15e626	-0.03659644
64	0xbd28f6be	-0.041250937
65	0xbd87ef96	-0.06637494
66	0x3e1f3043	0.15545754
67	0x3e08e8ea	0.133701
68	0x3c5d44dc	0.013505187
69	0x3cb8b067	0.022545053
70	0xbe38831c	-0.18018764
71	0xbe292f38	-0.16521919
72	0xbd1b8ed8	-0.037978023
73	0xbd3330c4	-0.04374768
74	0xbe8743a4	-0.26418793
75	0x3dc5f43a	0.09665723
76	0x3d4db3ec	0.050220415
77	0xbd47da0d	-0.048791934
78	0x3e183b8a	0.14866462
79	0xbca41e2a	-0.020033915
80	0xbe5f69d3	-0.21817712
81	0xbe35713e	-0.1771898
82	0x3d29fbb2	0.0414998
83	0xbe6db55f	-0.23213719
84	0x3d08010c	0.033204123
85	0xbdd3055a	-0.10303755
86	0xbd62d39f	-0.0553776
87	0xbe1e0764	-0.15432507
88	0xbcfd40ea	-0.030914742
89	0x3e663863	0.22482447
90	0xbe496e2d	-0.19670935
91	0xbd28b7c0	-0.041190863
92	0xbe34af76	-0.17645058
93	0x3dcea6d0	0.10090411
94	0x3d996eb7	0.0749182
95	0xbd6d7bae	-0.05797928
96	0xbd07eb52	-0.033183403
97	0xbe65aaab	-0.22428386
98	0x3d8072d4	0.06271902
99	0x3d5201dc	0.051271304
100	0xbd00df58	-0.031462997
101	0x3e256c37	0.16154562
102	0x3cc9e1af	0.024643747
103	0xbe0bdae7	-0.13657723
104	0xbe467b25	-0.19382913
105	0xbda1666e	-0.07880865
106	0x3e15f183	0.1464291
107	0xbb0f70ea	-0.002188737
108	0xbd01f500	-0.03172779
109	0xbc344722	-0.0110032875
110	0xbe5c43b3	-0.215102
111	0xbe18d846	-0.14926252
112	0xbe1caa08	-0.15299237
113	0xbb118f39	-0.0022210611
114	0xbd77244b	-0.060337346
115	0x3cc4c65e	0.02402037
116	0x3e08b2b6	0.13349423
117	0xbdee022d	-0.11621509
118	0xbdb9d133	-0.09073105
119	0xbe7d0804	-0.24710089
120	0x3e1ff179	0.15619458
121	0x3e42c6b9	0.19021119
122	0xbe81533f	-0.25258824
123	0xbe33e7a6	-0.17568836
124	0x3d6d10ba	0.05787728
125	0xbd987e6a	-0.074459866
126	0xbe5f570a	-0.21810547
127	0xbd5af9a2	-0.053460725
128	0x3da400bc	0.080079526
129	0xbe5d4506	-0.21608362
130	0xbe365998	-0.17807615
131	0x3d5bce14	0.05366333
132	0xbd581a18	-0.05275926
133	0x3e0c7905	0.1371804
134	0x3dec9263	0.115513586
135	0x3d2d4b90	0.04230839
136	0xbcf4f251	-0.029900702
137	0x3dabfbfa	0.0839767
138	0xbdfa5f62	-0.12225224
139	0xbe1195ab	-0.1421725
140	0xbe54308c	-0.20721644
141	0xbe5a4588	-0.21315587
142	0xbe3055ba	-0.17220202
143	0xbdf6ce0b	-0.12051018
144	0xbd4142b3	-0.04718275
145	0xbd6a3318	-0.057177633
146	0xbd851c9e	-0.06499599
147	0xbe077af1	-0.13230492
148	0x3df29bd1	0.11846126
149	0xbe0c9115	-0.1372722
150	0xbe3054e7	-0.17219888
151	0xbe6b00ed	-0.22949572
152	0x3e198569	0.14992298
153	0xbe4b123e	-0.19831178
154	0xbe770cac	-0.24125928
155	0x3d1de8ed	0.038552213
156	0x3e2099e9	0.15683712
157	0x3e0f98aa	0.1402308
158	0x3e20db78	0.1570872
159	0x3db4a5e1	0.088207014
160	0x3bde2a33	0.006779933
161	0x3e4d8319	0.20069541
162	0xbdd34407	-0.103157096
163	0xbd4be4dd	-0.049778808
164	0x3d4b0424	0.049564496
165	0xbe8283bc	-0.2549113
166	0xbdf60d02	-0.120142
167	0xbe09dfbf	-0.13464259
168	0xbc97c45c	-0.018526249
169	0x3da71a17	0.08159273
170	0xbe859843	-0.2609273
171	0x3cf8261f	0.030291615
172	0xbe3bc5e7	-0.18337213
173	0xbd9c6e4e	-0.076382264
174	0xbdd8bf89	-0.105834074
175	0x3da54c90	0.08071244
176	0x3e086f1d	0.13323636
177	0xbdf33180	-0.11874676
178	0x3e29f81b	0.16598551
179	0xbe2c9a29	-0.16855682
180	0x3db91d94	0.09038845
181	0xbdb0a05b	-0.086243354
182	0xbdd4302a	-0.10360749
183	0x3e3a39fb	0.1818618
184	0x3e45d194	0.19318229
185	0xbe80f0dc	-0.2518376
186	0xbe1e58c1	-0.15463544
187	0xbe2a32cd	-0.16620941
188	0xbdcd0d12	-0.100122586
189	0x3bbe3727	0.0058049145
190	0xbde8fccf	-0.113763444
191	0xbe7e1992	-0.24814442
192	0xbdffb3f1	-0.12485493
193	0x3dccb11a	0.09994717
194	0x3d11aa9a	0.03556309
195	0xbe852838	-0.26007247
196	0xbe2829ad	-0.16422148
197	0x3d21a679	0.0394654
198	0x3d58a4fd	0.05289172
199	0xbe182e58	-0.14861429

shared2.weight f4 [200, 200]
0	0x3db9c7fd	0.09071348
1	0xbd4da89c	-0.050209627
2	0xbe0d92b3	-0.13825493
3	0x3d750022	0.05981458
4	0x3e2e44e3	0.17018466
5	0xbd96dd88	-0.073664725
6	0x3cc04d03	0.023474222
7	0xbd5a1f8a	-0.053252734
8	0xbdf3ab62	-0.11897923
9	0x3ddb1286	0.106968924
10	0x3c9ed8c8	0.019390479
11	0xbc44b602	-0.012006285
12	0x3d832125	0.06402806
13	0x3da5308d	0.08065901
14	0xbd70e625	-0.058813233
15	0xbd79c06d	-0.060974527
16	0x3da8ab8b	0.08235844
17	0xbdc399bf	-0.09550809
18	0x3b902e24	0.0044000316
19	0xbc2a405f	-0.010391324
20	0x3d03c6ea	0.03217212
21	0xbd67dd25	-0.056607384
22	0x3d983a72	0.074330226
23	0x3e2f4675	0.17116721
24	0x3e1b3ea5	0.15160616
25	0xbc4257c3	-0.011861744
26	0x3b38f27b	0.0028220701
27	0x3db53a29	0.08848984
28	0x3dab0344	0.08350232
29	0x3ddc4c1c	0.10756704
30	0x3de2002b	0.11035188
31	0x3dff5a03	0.1246834
32	0x3cf77053	0.030204928
33	0x3d3c2307	0.045931842
34	0xbdb7120d	-0.0893899
35	0x3d63e932	0.055642314
36	0x3c86a48f	0.01643589
37	0x3c4d99d2	0.012548881
38	0x3d3d0c58	0.04615435
39	0x3c9bc1d4	0.019013323
40	0xbbd6909d	-0.006548001
41	0xbd91a4d9	-0.0711152
42	0x3e551ae5	0.2081104
43	0xbb3f7f07	-0.0029220001
44	0xbb28104a	-0.0025644475
45	0x3d26795c	0.04064308
46	0xbc3c91b4	-0.011509348
47	0x3daaac98	0.08333701
48	0x3d3ba5a3	0.04581226
49	0x3e04921f	0.12946366
50	0x3d0978ce	0.033562474
51	0xbcd70292	-0.026246343
52	0x3d4d58b3	0.05013342
53	0x3d9f281d	0.07771323
54	0xbd7d4c7d	-0.061840523
55	0xbd02cea4	-0.03193535
56	0x3d43ebcb	0.04783229
57	0xbcb03afb	-0.0215125
58	0xbb7cc8c2	-0.003857181
59	0xbd6d7bf1	-0.057979528
60	0x3e8013f2	0.25015217
61	0x3d2129fa	0.039346673
62	0x3e8dfb0d	0.277306
63	0x3ce30d0b	0.02771618
64	0xbd09a010	-0.033599913
65	0x3d822a3e	0.06355713
66	0xbd44d9bb	-0.048059206
67	0x3ccec060	0.025238216
68	0xbdb47799	-0.08811874
69	0xbd6eb326	-0.058276318
70	0x3e0a5d22	0.1351209
71	0xbd378938	-0.044808596
72	0xbdbb28ae	-0.091386184
73	0xbd9f5425	-0.07779721
74	0xbb8f0fa6	-0.004365879
75	0x3c1635cf	0.009168102
76	0x3d25f119	0.04051313
77	0x3badae65	0.0053003305
78	0x3de7758d	0.11301718
79	0xbd6b829b	-0.057497602
80	0x3dd27c3c	0.10277602
81	0x3de4087f	0.11134433
82	0x3dd54251	0.104130395
83	0xbd3dbaef	-0.046320852
84	0x3daba594	0.08381191
85	0x3e3e782d	0.18600531
86	0xbcd8fbb0	-0.026487201
87	0x3da8084b	0.08204707
88	0x3dcf6470	0.10126579
89	0x3d60f11f	0.05491745
90	0x3e08c135	0.13354953
91	0x3db1e464	0.0868614
92	0x3d51cf45	0.05122306
93	0xbd82099b	-0.06349488
94	0xbc953dd1	-0.018217953
95	0xbce0a6d9	-0.02742331
96	0xbd830482	-0.06397344
97	0x3d5fd2c6	0.05464437
98	0x3da820e5	0.08209399
99	0xbcea263b	-0.028582683
100	0x3c92db00	0.017926693
101	0x3c1ed25b	0.009693707
102	0x3d9edd67	0.07757073
103	0xbd9acf48	-0.07559067
104	0x3d6634b5	0.05620261
105	0x3ccbd4bd	0.024881715
106	0x3c8f8825	0.017520973
107	0x3e26821b	0.16260569
108	0x3df4afb4	0.11947575
109	0x3e0397fc	0.12850946
110	0x3e15eb02	0.1464043
111	0x3e450684	0.19240767
112	0xbe1c7052	-0.15277222
113	0x3d1d9dcf	0.038480576
114	0xbcafd366	-0.021463107
115	0x3b8ef404	0.004362585
116	0x3d7fc325	0.062441964
117	0x3d4c6365	0.049899478
118	0xbd700a35	-0.058603484
119	0x3c22edeb	0.009944419
120	0x3bb2c644	0.005455764
121	0x3dca5615	0.098797
122	0x3c76d25e	0.015064804
123	0xbd531708	-0.051535636
124	0x3db850fb	0.08999821
125	0xbd1f97b4	-0.038963035
126	0x3d4c6d8d	0.049909163
127	0xbcae1eb4	-0.021254875
128	0x3d34cc8d	0.044140387
129	0xbcb377d3	-0.021907723
130	0x3cb206bd	0.021731729
131	0xba8e6f6c	-0.0010866947
132	0xbc3d00af	-0.0115358075
133	0xbbd40e4d	-0.0064714313
134	0x3d07a4c0	0.033116102
135	0x3d93a8b7	0.07209914
136	0x3c9fb3b6	0.019494873
137	0xbdd73de9	-0.10509855
138	0xbd05133c	-0.032489046
139	0xbddfaeb3	-0.10921993
140	0x3e20cfe3	0.15704302
141	0x3b998e23	0.0046861335
142	0x3b97505d	0.0046177343
143	0xbe21602a	-0.1575934
144	0xbda22702	-0.079175964
145	0x3d8c63a6	0.06854944
146	0xbd96d405	-0.07364658
147	0x3de15120	0.110018015
148	0xbcfdd27c	-0.030984156
149	0xbd73ae4f	-0.059492406
150	0xbcb14998	-0.021641538
151	0x3d926678	0.071484506
152	0xbd6c35f7	-0.057668652
153	0x3d27e59d	0.04099046
154	0x3ced876e	0.028995242
155	0x3dd7eab4	0.10542813
156	0x3df6109d	0.120148875
157	0x3c88eea6	0.016715359
158	0x3d48fbb8	0.049068183
159	0x3da181ad	0.07886062
160	0x3e3c2a09	0.1837541
161	0xbd89d850	-0.067307115
162	0xbd7f6592	-0.062352724
163	0xbdcdf3f6	-0.100562975
164	0x3db9d4e2	0.09073807
165	0x3d83a56b	0.06428035
166	0xbcb0bd8e	-0.021574762
167	0x3cb010a7	0.021492315
168	0xbd9aaa2e	-0.075519904
169	0x3d461f3a	0.048369624
170	0xbd11b7c0	-0.03557563
171	0x3d31710b	0.043320697
172	0xbdbd2395	-0.09235302
173	0xbe2aec78	-0.16691768
174	0x3df16ccd	0.1178833
175	0xbc3ce296	-0.011528632
176	0x3d62c9c3	0.055368196
177	0x3ddbc78e	0.107314214
178	0xbbfbdf09	-0.0076865
179	0x3d6daf17	0.058028307
180	0xbd3ce58e	-0.046117358
181	0x3e0cd880	0.13754463
182	0x3da06932	0.078325644
183	0xbd62e6a2	-0.05539573
184	0xbd2951d1	-0.04133779
185	0xbdff1f37	-0.12457126
186	0x3de80025	0.113281526
187	0x3d431d7e	0.047635548
188	0xbdc5a235	-0.09650079
189	0x3b43b418	0.0029861983
190	0x3d534548	0.051579744
191	0x3d98968e	0.07450591
192	0x3e2a16fb	0.16610329
193	0x3d63f0eb	0.05564968
194	0xbd00b12b	-0.03141896
195	0xbcce6a15	-0.025197068
196	0x3e1f2e46	0.15544996
197	0xbdc53936	-0.09630053
198	0x3c339508	0.010960825
199	0x3d84f738	0.06492466
200	0x3defadfa	0.11703105
201	0x3e35eaee	0.177654
202	0xbd830555	-0.063975014
203	0x3dbf03fd	0.093269326
204	0x3da56a18	0.080768764
205	0xbc841314	-0.016122378
206	0x3cfddffa	0.03099059
207	0xbcc30744	-0.023807175
208	0x3d887364	0.06662634
209	0x3dee5536	0.116373464
210	0xbcc981a2	-0.024597947
211	0x3d7e5201	0.062089924
212	0x3e1c5a33	0.15268783
213	0xbdba77a1	-0.09104849
214	0x3da5759d	0.080790736
215	0x3d2cc369	0.042178545
216	0xbc99fb1f	-0.018796502
217	0x3c6e5aaa	0.014547983
218	0xbd1548e5	-0.03644647
219	0xbd09a036	-0.033600055
220	0x3d0a3620	0.033743024
221	0xbdc78807	-0.09742742
222	0xbd4155e9	-0.04720107
223	0x3b848d7b	0.004045186
224	0x3e164e8c	0.14678401
225	0xbda7c34f	-0.08191549
226	0x3cb1f67b	0.021723976
227	0xbd20abda	-0.03922639
228	0x3e1a23ad	0.15052672
229	0xbd642201	-0.05569649
230	0x3cacbadf	0.0210852
231	0xbd969d56	-0.07354228
232	0x3e07b0a2	0.13250974
233	0x3d818d8f	0.06325828
234	0x3c50e9ba	0.012751037
235	0x3dd7816c	0.10522732
236	0x3c6bc7e3	0.014390918
237	0xbd8461d3	-0.06463971
238	0x3d3223a1	0.04349101
239	0xbd315150	-0.043290436
240	0xbd93d116	-0.07217614
241	0x3de6f2d5	0.11276785
242	0x3d9b51c0	0.07583952
243	0x3cf63d54	0.03005854
244	0x3caab183	0.020836597
245	0x3e04ab33	0.12955932
246	0xbd163491	-0.036671225
247	0xbd9c8c31	-0.07643927
248	0x3e253764	0.16134411
249	0x3b3c6a3b	0.0028749842
250	0x3c948f9e	0.018134888
251	0x3d76a33e	0.060214274
252	0xbcfe47e8	-0.031040147
253	0x3d62182b	0.05519883
254	0x3a719e6f	0.0009217029
255	0x3db523ab	0.08844694

shared2.bias f4 [200]
0	0xbd3b00d9	-0.045655105
1	0xbc274192	-0.010208504
2	0xbdb0f371	-0.08640183
3	0xbd003fe4	-0.03131093
4	0xbc57e11d	-0.01317623
5	0xbc23c676	-0.009996047
6	0xbc3b45df	-0.011430233
7	0xbcc399ff	-0.023877142
8	0x3d31ca8c	0.043406054
9	0x3cecc042	0.02890027
10	0x3bde407d	0.00678259
11	0x3ba3a93e	0.0049945405
12	0xbd6711df	-0.056413528
13	0xbd05a373	-0.03262658
14	0x3d1adb37	0.037806716
15	0x3c71c7a3	0.01475707
16	0xbdfecb77	-0.124411516
17	0xbb291b96	-0.0025803796
18	0x3d1d76cb	0.038443368
19	0xbd8472db	-0.064672194
20	0xbd6bc861	-0.057564143
21	0x3da50db4	0.08059254
22	0xbd936b69	-0.07198221
23	0xbca576b1	-0.020198198
24	0xbd6622e7	-0.05618563
25	0x3d9c322d	0.07626758
26	0x3c49eb54	0.012324173
27	0xbd47f2ce	-0.04881554
28	0xbb4f8b2f	-0.0031668653
29	0xbcc14ec4	-0.023597129
30	0xbcd95819	-0.026531266
31	0xbd873eac	-0.066037506
32	0x3d73449a	0.059391595
33	0x3cbb892c	0.022892557
34	0xbce0fc72	-0.027464125
35	0x3c9fb17c	0.01949381
36	0x3bdbe0ad	0.006710133
37	0x3c7cb139	0.015423113
38	0xbd4d74ca	-0.050160207
39	0xbcdf669a	-0.027270604
40	0xbcfa8e8c	-0.03058555
41	0xbd3e139e	-0.046405427
42	0xbe000977	-0.1250361
43	0xbdef0152	-0.11670174
44	0xbd9756c1	-0.07389594
45	0xbd9da807	-0.07698064
46	0xbdac49b2	-0.08412494
47	0xbd90be15	-0.07067505
48	0xbd3f4498	-0.046696275
49	0x3c7c8126	0.015411651
50	0x3b999e89	0.0046880883
51	0xbda7766b	-0.08176883
52	0xbc72488a	-0.0147878025
53	0xbdde9672	-0.10868539
54	0x3ce775cf	0.028254418
55	0x3d4bff1c	0.049803838
56	0x3c56b16c	0.013103824
57	0xbd283c36	-0.041073047
58	0x3d19181d	0.03737651
59	0x3d340e61	0.043959025
60	0x3cfbeeee	0.030753579
61	0xbd309097	-0.04310664
62	0xbd081d09	-0.033230815
63	0xbd7eca06	-0.062204383
64	0xbba37750	-0.0049885884
65	0xbd393ccd	-0.045224
66	0x3d2243c6	0.039615415
67	0x3d54e09e	0.051972024
68	0x3d2d0a3c	0.04224609
69	0xbd43a3a1	-0.04776347
70	0x3d032094	0.03201349
71	0x3c1ea2aa	0.009682337
72	0xbd4d39b5	-0.05010386
73	0xbe0cb8d9	-0.13742389
74	0xbb717abe	-0.0036846842
75	0xbda68307	-0.0813046
76	0x3d2abe25	0.041685242
77	0x3d1d2725	0.03836741
78	0x3c933633	0.01797018
79	0x3cf3d131	0.029762836
80	0xbdcaf62c	-0.09910235
81	0xbde1c09a	-0.11023064
82	0x3d2f14c0	0.042744398
83	0x3d429441	0.047504667
84	0x3ca17ef9	0.019713866
85	0x3c6c5f55	0.014427026
86	0xbbe34a4d	-0.0069363476
87	0x3a38e163	0.0007052628
88	0xbc80eec3	-0.01573885
89	0xbd245aee	-0.04012578
90	0x3cb91728	0.02259405
91	0x3cfa9a18	0.030591056
92	0xbda67e44	-0.08129552
93	0xbdbc6016	-0.091980144
94	0x3cf15a47	0.029461993
95	0x3b5d1604	0.0033735046
96	0xbd27a08c	-0.040924594
97	0x3cd18c5f	0.02557963
98	0xbd7e2259	-0.062044475
99	0xbe06c3f7	-0.13160692
100	0x3d3ee3c1	0.04660392
101	0xbd23e152	-0.040009804
102	0xbd09fb7a	-0.033687092
103	0x3d39b6e3	0.04534043
104	0xbd07edac	-0.033185646
105	0xbd85d89c	-0.065354556
106	0x3c905ecc	0.017623328
107	0xbd81049d	-0.06299708
108	0xbdf665f2	-0.12031163
109	0xbd08d5b1	-0.033406917
110	0x3d244e2c	0.040113613
111	0xbd87c531	-0.06629408
112	0xbcf6528f	-0.030068664
113	0xbcc40122	-0.023926321
114	0xbd2f0c5f	-0.042736407
115	0x3da37821	0.07981897
116	0xbc4b278d	-0.012399566
117	0xbc84212d	-0.0161291
118	0x3d0378a9	0.032097492
119	0xbbe8fd39	-0.0071102646
120	0xbd77b344	-0.060473695
121	0xbdfdcde3	-0.123927854
122	0xbdf65877	-0.12028592
123	0xbcdf1e8a	-0.027236242
124	0x3ce58ea8	0.028022125
125	0xbbeb66f8	-0.0071839057
126	0xbd59d2e4	-0.053179637
127	0xbd980810	-0.07423413
128	0x3c329f42	0.010902228
129	0xbd16eac2	-0.036844976
130	0xbd16ee76	-0.036848508
131	0xbd1d4df7	-0.03840443
132	0xbcd2403e	-0.025665399
133	0xbd542e5b	-0.05180202
134	0x3d2d8658	0.04236445
135	0xbd2ebbb5	-0.04265948
136	0xbd6900ad	-0.05688541
137	0xbc9a1bde	-0.018812116
138	0xbda4797c	-0.08030984
139	0x3c3b56a8	0.011434235
140	0xbd50bc3c	-0.050960764
141	0xbd5a81f6	-0.053346597
142	0x3c9a675f	0.01884812
143	0xbcf4d9a7	-0.029888941
144	0xbd9e32fb	-0.077245675
145	0xbbc035de	-0.0058657965
146	0x3c1441dc	0.009048905
147	0x3afeb3bd	0.0019432228
148	0xbc014d8a	-0.007892022
149	0xbd8b6ba2	-0.06807639
150	0x3c072b86	0.008250123
151	0xbdacaa21	-0.08430887
152	0xbc13ab0c	-0.009012949
153	0x3dad40dd	0.08459637
154	0xbd66cb68	-0.056346327
155	0xbc9194db	-0.017771175
156	0x3d8bd357	0.06827419
157	0x3bd93e9f	0.0066297795
158	0xbd6c4e33	-0.057691764
159	0xbd8f2ca7	-0.06990939
160	0xbd8a402e	-0.067505226
161	0xbd1b9b3b	-0.037989836
162	0xbd313df9	-0.043271992
163	0x3da0e590	0.078562856
164	0x3c69b1ca	0.01426358
165	0xbd9c816d	-0.076418735
166	0xbc8a0711	-0.016849073
167	0x3cdafd98	0.026732251
168	0x3d208577	0.039189782
169	0x3b592e29	0.0033139086
170	0x3d0344f9	0.0320482
171	0xbc9744fa	-0.018465508
172	0xbbecb543	-0.0072237565
173	0x3d8977b2	0.06712283
174	0x3d2c1ff3	0.042022657
175	0xbc2bfb12	-0.010496872
176	0xbcb78bec	-0.022405587
177	0x3d459cba	0.04824517
178	0xbcb2f30c	-0.02184441
179	0x3c5a5a09	0.01332713
180	0xbd95f29e	-0.07321666
181	0xbdae6cda	-0.085168555
182	0x3d59b630	0.053152263
183	0x3cb96fa5	0.022636244
184	0xbc7a9da2	-0.015296372
185	0x3bb47212	0.0055067623
186	0xbd9efad1	-0.07762683
187	0xbd5081b6	-0.050904952
188	0xbd231a15	-0.039819796
189	0xbd2e2513	-0.042515825
190	0xbcb237cd	-0.021755124
191	0xbcecdda8	-0.028914288
192	0x3d83703a	0.0641789
193	0xbe1b70aa	-0.15179697
194	0x3d3cf883	0.046135437
195	0x3d6f945f	0.058491107
196	0xbba13649	-0.0049198014
197	0x3c219dae	0.009864254
198	0xbcef1242	-0.02918351
199	0x3ad9de5c	0.0016622054

hidden1_Y1.weight f4 [200, 200]
0	0x3d9f0b3b	0.07765814
1	0x3d3d5597	0.046224203
2	0xbd72a0ba	-0.059235312
3	0xbd9d42e0	-0.07678771
4	0x3df13c1a	0.117790416
5	0x3d25d2f2	0.040484376
6	0x3d804e88	0.06264979
7	0xbc63fb70	-0.013914928
8	0x3c2c1d9e	0.010505108
9	0xbd84b77f	-0.064803116
10	0x3d69c440	0.057071924
11	0xbd986a12	-0.07442106
12	0xbd721ec6	-0.05911138
13	0x3dbad6c1	0.09122992
14	0x3d54326a	0.05180589
15	0xbd87196f	-0.06596648
16	0xbc1863ba	-0.00930112
17	0xbbe63298	-0.007025074
18	0xbcd57b6f	-0.026059834
19	0xbdb3217b	-0.0874662
20	0x3c3c43bc	0.0114907585
21	0xbc38947c	-0.01126587
22	0xbd2cdd68	-0.042203337
23	0xbd1458ad	-0.03621738
24	0xbda2afca	-0.07943685
25	0xbd9ae1a2	-0.07562567
26	0xbc015868	-0.007894613
27	0x3dc8866e	0.097912654
28	0xbdd25150	-0.102694154
29	0xbda3411e	-0.079714045
30	0xbcec4fb2	-0.028846595
31	0xbdf33498	-0.11875266
32	0x3db995d9	0.09061784
33	0xbd0dd2ca	-0.034624852
34	0xbbf31aae	-0.007418952
35	0x3c4c08d8	0.01245328
36	0x3c00d2c9	0.007862755
37	0x3dafaa7f	0.085774414
38	0x3cd79147	0.02631439
39	0x3d2ff9e3	0.04296292
40	0xbd984929	-0.07435829
41	0x3dd820c1	0.10553122
42	0xbd17e445	-0.03708293
43	0xbdbf17f0	-0.093307376
44	0x3d82cc56	0.0638663
45	0x3dc1b76f	0.09458815
46	0xbdd79265	-0.105259694
47	0x3d922dd6	0.07137649
48	0xbde752e4	-0.11295107
49	0x3b9fe1e3	0.0048792227
50	0xbc137479	-0.008999937
51	0xbb4d2fed	-0.0031309084
52	0x3dc7d263	0.09756925
53	0xbcfb229c	-0.030656151
54	0xbc3348c6	-0.0109426435
55	0x3def8d02	0.11696817
56	0xbda5e8d1	-0.08101047
57	0x3db2df22	0.087339655
58	0xbd82c88a	-0.06385906
59	0x3a808526	0.0009805306
60	0xbca4c608	-0.02011396
61	0x3d34217b	0.043977242
62	0x3b48036a	0.0030519613
63	0x3d3ee39a	0.046603777
64	0x3e00f773	0.12594394
65	0x3d8a51df	0.06753897
66	0xbb9601bf	-0.004577845
67	0xbd3461d3	-0.044038605
68	0x3dd5a83f	0.10432481
69	0x3e03e090	0.12878633
70	0x3cb802d2	0.022462282
71	0xbdb23852	-0.087021485
72	0xbcd65fb0	-0.026168674
73	0x3d521baf	0.051295932
74	0x3d879ae3	0.06621339
75	0xbc087777	-0.008329264
76	0xbc5016a0	-0.012700707
77	0xbde0a042	-0.10968067
78	0xbc2a7d20	-0.010405809
79	0x3d10b9df	0.03533351
80	0x3c4598f9	0.012060397
81	0xbd8e466a	-0.06947024
82	0xbd74144e	-0.059589677
83	0x3ccbdf68	0.024886802
84	0xbb9e6ed6	-0.00483499
85	0xbd309144	-0.043107286
86	0x3de54796	0.111952946
87	0x3d05625b	0.032564502
88	0x3bd5e549	0.006527577
89	0xbc01d98f	-0.007925405
90	0xbd66a1d9	-0.056306694
91	0xbde255f3	-0.1105155
92	0x3db296a7	0.08720141
93	0x3dedae68	0.11605531
94	0x3df0de1c	0.11761114
95	0xbd9d901c	-0.07693502
96	0xbd42851b	-0.04749022
97	0xbc8f38d2	-0.017483149
98	0xbc9d0e8a	-0.019171972
99	0xbdb5b6bd	-0.08872745
100	0x3cfd4349	0.030915873
101	0xbd600e85	-0.054701347
102	0x3d29cee9	0.04145709
103	0xbcf4f2b6	-0.02990089
104	0x3dcce2dc	0.100042075
105	0xbc9a80ba	-0.01886021
106	0x3d94467d	0.07240007
107	0xbd8825ed	-0.06647859
108	0xbd10fa3a	-0.035394885
109	0x3c9971d0	0.018731028
110	0x3d85c340	0.065313816
111	0x3dbfb4c2	0.09360649
112	0x3dcc62ab	0.09979757
113	0x3daf8a0d	0.08571253
114	0x3dbfb3c5	0.0936046
115	0x3dc1b859	0.0945899
116	0x3d0372ec	0.03209202
117	0x3df9396b	0.12169155
118	0x3d40bd75	0.04705568
119	0x3dde82ca	0.1086479
120	0x3b51c0d9	0.0032005815
121	0xbdcab24a	-0.09897287
122	0x3e0baa1b	0.13639109
123	0x3e0166b7	0.12636839
124	0xbd2967fe	-0.04135894
125	0xbc67bc1b	-0.014143969
126	0x3de60dfa	0.112331346
127	0xbcf099dd	-0.029370243
128	0x3a05bd2e	0.00051017373
129	0x3da65c30	0.08123052
130	0xbe019d92	-0.12657765
131	0x3cf545fe	0.029940601
132	0xbdc02e93	-0.09383883
133	0xbdf7032e	-0.12061153
134	0xbdcd4401	-0.10022736
135	0x3d36dd13	0.044644427
136	0xbd341491	-0.043964926
137	0xbda55241	-0.08072329
138	0x3d37cd1a	0.044873334
139	0x3c2d47b5	0.010576178
140	0x3d11325e	0.035448425
141	0x3bdaf631	0.0066821803
142	0xbd75e6e3	-0.060034644
143	0x3de9de60	0.11419368
144	0xbda7355a	-0.08164473
145	0xbe0efd8d	-0.1396391
146	0xbd06073d	-0.032721747
147	0xbc11694e	-0.008875204
148	0xbd754566	-0.059880637
149	0x3dae18d0	0.08500826
150	0x3d98f09a	0.07467766
151	0x3d865e27	0.06560927
152	0x3ce84a58	0.028355762
153	0xbd520cea	-0.051281847
154	0x3cd22c77	0.025655968
155	0x3c380a60	0.011232942
156	0x3a44befa	0.00075052644
157	0xbd9704ba	-0.073739484
158	0x3e14f376	0.14545998
159	0xbd2b8851	-0.04187805
160	0xbccf8d60	-0.025335968
161	0xbd7e6a68	-0.062113196
162	0x3ab28058	0.0013618572
163	0xbc44ef28	-0.01201991
164	0xbda02e7a	-0.07821365
165	0x3df4abf7	0.11946862
166	0xbb7176ab	-0.0036844413
167	0x3d6eb853	0.058281254
168	0x3dc264a5	0.09491853
169	0x3ae2a742	0.0017292278
170	0xbc257166	-0.010097837
171	0xbd2d0e45	-0.042249937
172	0x3dc39b46	0.095511004
173	0x3d9bada3	0.07601478
174	0xbbf75ec4	-0.0075491387
175	0xbc99955b	-0.018747976
176	0x3da15fc3	0.07879593
177	0x3ddcd251	0.10782302
178	0x3d558e5e	0.052137725
179	0xbdc1afb9	-0.094573446
180	0xbdd6a9ac	-0.10481581
181	0x3dc1234f	0.09430563
182	0xbd2fea11	-0.042947832
183	0xbd922437	-0.07135814
184	0x3dbad60a	0.09122856
185	0xbd55cfda	-0.052200176
186	0xbb312fb2	-0.0027036485
187	0xbd9b4b36	-0.07582705
188	0x3dafaf64	0.08578375
189	0xbe016f4c	-0.12640113
190	0x3dcfaefd	0.10140798
191	0x3df430ad	0.11923347
192	0xbcb634fd	-0.022242064
193	0xbd049acc	-0.03237419
194	0xbdb553b9	-0.088538595
195	0x3d21e924	0.03952898
196	0xbdefcbd0	-0.11708796
197	0xbd1436cf	-0.036185082
198	0xbcc189d8	-0.0236253
199	0xbd5b70f6	-0.053574525
200	0xbdde5931	-0.10856856
201	0x3ad52640	0.001626201
202	0xbd6b2dac	-0.057416603
203	0xbc7d52b9	-0.015461617
204	0x3cca51f1	0.024697276
205	0xbdc23552	-0.09482826
206	0x3d4a77b4	0.049430564
207	0xbdd58baf	-0.10427033
208	0x3ddcb018	0.10775775
209	0x3d66cd31	0.05634803
210	0xbdefbff7	-0.11706536
211	0xbd3b81e4	-0.04577817
212	0x3dac1a4b	0.084034525
213	0xbcf7b1a7	-0.030236078
214	0x3dfed49f	0.12442898
215	0x3d84652e	0.06464611
216	0xbdb46c77	-0.088097505
217	0xbda5b151	-0.08090461
218	0xbd84c7d3	-0.06483426
219	0x3dda0e08	0.106472075
220	0x3de08462	0.1096275
221	0xbd1f5ac3	-0.038904916
222	0xbd2affe4	-0.041747943
223	0xbd81884d	-0.063248254
224	0xbcac9743	-0.021068221
225	0xbd73eaf9	-0.05955026
226	0xbcc51c4f	-0.02406135
227	0x3dc439a6	0.09581308
228	0x3d558321	0.052127007
229	0xbdbab4a4	-0.09116486
230	0xbd5fd69f	-0.054648038
231	0x3d302731	0.043006126
232	0xbcc86314	-0.024461307
233	0xbd1bc065	-0.03802528
234	0x3d2e80e5	0.042603392
235	0x3c1b2668	0.009469606
236	0x3ce1ccdd	0.027563507
237	0x3d82e63c	0.0639157
238	0xbdab42d4	-0.08362356
239	0x3c6359b0	0.013876364
240	0x3d81596a	0.063158825
241	0x3d9b1647	0.075726084
242	0xbdac2350	-0.08405173
243	0xbc83f76e	-0.016109195
244	0xbc49e5e0	-0.012322873
245	0xbba15f3c	-0.004924683
246	0xbd4340b0	-0.047669113
247	0x3db75127	0.089510255
248	0x3d8891ad	0.066684105
249	0x3c8f8710	0.017520458
250	0xbdf200a6	-0.1181653
251	0x3c9ed5ea	0.019389112
252	0xbd77355a	-0.060353614
253	0x3da2f4a3	0.07956817
254	0x3d4ef78f	0.05052906
255	0x3cd4d4bf	0.025980351

hidden1_Y1.bias f4 [200]
0	0x3d5ed83e	0.054405443
1	0xbd8609ca	-0.06544836
2	0xbcd5ffa6	-0.02612288
3	0x3c969eb6	0.018386226
4	0xbd04ad9f	-0.03239214
5	0xbcc0e880	-0.023548365
6	0xbc30432a	-0.010758201
7	0x3d67d820	0.056602597
8	0x3cda54c8	0.026651755
9	0xbcf829d9	-0.030293392
10	0xbda5c99c	-0.080950946
11	0xbcc48f35	-0.023994068
12	0xbd2d84cb	-0.04236297
13	0x3d6bb2c4	0.05754353
14	0x3cf37f44	0.02972377
15	0x3d8c5ed1	0.06854022
16	0x3d775df7	0.060392346
17	0xbb39573f	-0.0028280762
18	0x3cc6ebba	0.024282325
19	0xb99f1222	-0.00030340353
20	0x3d25e697	0.04050311
21	0x3c3e3b50	0.011610821
22	0xbd4f3413	-0.05058677
23	0x3d84ee17	0.064907245
24	0xbd834351	-0.06409324
25	0xbdb6d141	-0.08926631
26	0x3ce8c5cd	0.028414631
27	0x3d00d310	0.031451285
28	0xbd8da163	-0.06915548
29	0x3c988a7a	0.018620718
30	0xbc89996c	-0.01679679
31	0xbd015012	-0.0315705
32	0xbd9ecf85	-0.07754425
33	0x3caf6010	0.02140811
34	0xbd8fb6b2	-0.07017268
35	0x3aa7a990	0.0012791622
36	0xbd38e93f	-0.045144316
37	0xbd207929	-0.039178047
38	0xbcfbd620	-0.030741751
39	0xbd625a03	-0.055261623
40	0xbd85f4ab	-0.06540807
41	0x3d812f5a	0.0630786
42	0xbaf8fc6c	-0.0018996126
43	0xbd05f579	-0.032704804
44	0xbca17f4c	-0.01971402
45	0xbbac6f63	-0.005262302
46	0xbc35d1dc	-0.011097398
47	0xbabe8f1c	-0.00145385
48	0x3c9b980b	0.018993398
49	0xbce5188c	-0.027965806
50	0x3d1be987	0.038064506
51	0x3cda58a0	0.026653588
52	0xbcaed0c9	-0.02133979
53	0xbd9791dc	-0.07400867
54	0x3ca7b57f	0.020472286
55	0x3d7ac215	0.061220247
56	0x3d1d860f	0.038457926
57	0x3cb3bc6e	0.021940436
58	0xbd6410df	-0.055680152
59	0xbce12319	-0.027482556
60	0xbd1cf2d9	-0.038317535
61	0x3c9198e5	0.017773101
62	0xbb979b29	-0.004626651
63	0x3bca0f8a	0.006166403
64	0xbd3a6930	-0.04551047
65	0xbd2ac89f	-0.041695233
66	0x3c85e0fd	0.016342634
67	0xbb845042	-0.004037888
68	0x3d68ef03	0.056868564
69	0x3d686255	0.0567344
70	0x3d6bde50	0.05758506
71	0xba12f38e	-0.00056057505
72	0x3cbc5505	0.02298976
73	0xbd074a6f	-0.03302997
74	0x3c87b528	0.016565874
75	0xbd4b40a8	-0.049622208
76	0xba3cef02	-0.0007207246
77	0x3d3193ec	0.04335396
78	0x3d81e836	0.06343119
79	0xbd4ceddf	-0.05003154
80	0x3ba56a08	0.0050480403
81	0x3c58c571	0.013230667
82	0x3c49f9c2	0.012327613
83	0x3d57782c	0.05260484
84	0xbd5bdba6	-0.05367627
85	0x3d53348c	0.051563784
86	0x3d3fed1e	0.046856992
87	0xbd9551b5	-0.07290975
88	0x3ab4a88e	0.0013783143
89	0x3d650a57	0.055918064
90	0x3d12b9d2	0.035821743
91	0xbc57316b	-0.013134341
92	0x3ce5ea0c	0.028065704
93	0x3b345c8a	0.0027520978
94	0xbc59f90d	-0.013304007
95	0xbd81fb32	-0.0634674
96	0xbd113595	-0.03545149
97	0x3c9c2dd7	0.019064827
98	0xbc177f6d	-0.009246689
99	0x3c94c7a9	0.018161612
100	0xbccc2843	-0.024921542
101	0xbca3885a	-0.019962478
102	0xbd101be5	-0.035182852
103	0x3d20f6c1	0.039297823
104	0xbd20125f	-0.03908002
105	0xbc758b05	-0.014986758
106	0xbd74f545	-0.05980422
107	0xbcf8020a	-0.03027441
108	0x3c0ad19e	0.008472828
109	0xbad2afe5	-0.0016074149
110	0xbca3d6b0	-0.019999832
111	0xbd8bab23	-0.06819751
112	0xbd46e8d5	-0.04856189
113	0x3c9bc28e	0.01901367
114	0x3cbcb29e	0.02303439
115	0xbd4955cd	-0.04915409
116	0xbd35b2f2	-0.04436011
117	0xbd8728c3	-0.065995716
118	0x3b1e3bdf	0.0024144573
119	0x3d828e29	0.06374771
120	0xbd441276	-0.04786917
121	0x3caa8c50	0.02081886
122	0xbbd15c16	-0.0063891513
123	0xbce46bcc	-0.027883433
124	0xbd85fc00	-0.06542206
125	0x3c0edeef	0.008720144
126	0x3d3b12d9	0.04567227
127	0xbcde50b6	-0.027138095
128	0x3d0cb990	0.034356654
129	0x3ca9344a	0.020654816
130	0xbc38aa0d	-0.011271012
131	0x3d88fd00	0.06688881
132	0xbd04974e	-0.032370858
133	0x3d1a01ee	0.037599497
134	0x3ce97665	0.028498838
135	0xbc52839c	-0.012848761
136	0x3c92b5b1	0.017908903
137	0xbd1b4dac	-0.03791587
138	0xbd88c642	-0.0667844
139	0xbd5ef760	-0.054435134
140	0xbd0e30c2	-0.034714468
141	0xbd2ab10a	-0.041672744
142	0xbae1c24f	-0.0017224046
143	0x3d49487b	0.04914139
144	0x3d61034f	0.054934796
145	0x3d1691ad	0.03676002
146	0xbc8b7375	-0.017022828
147	0x3cc6d66b	0.024272164
148	0xbd4aaa2a	-0.049478687
149	0xbc2ca629	-0.010537663
150	0xbd387296	-0.045031153
151	0xbc8aae9b	-0.016928962
152	0xbd044da0	-0.03230059
153	0xbd1a109d	-0.0376135
154	0xbc17135e	-0.009220926
155	0x3d0d7bf4	0.03454204
156	0xbd495f9c	-0.049163446
157	0x3d49711d	0.04918014
158	0x3d2436b3	0.040091228
159	0xbd091e65	-0.033476252
160	0xb9398971	-0.00017694176
161	0xbc3f55c0	-0.011678159
162	0xbcdfcc98	-0.027319238
163	0xbb438ad3	-0.0029837384
164	0xbcd58961	-0.026066484
165	0xbc061af3	-0.008185136
166	0xbb9703f7	-0.004608627
167	0x3cb77ec7	0.02239932
168	0x3d55f55b	0.052235942
169	0xbcb2181e	-0.021740016
170	0xbd3709bf	-0.04468703
171	0xbd1bc59b	-0.038030248
172	0xbd050ed2	-0.032484837
173	0xbd440060	-0.04785192
174	0x39807172	0.00024498586
175	0xb9d6c0f9	-0.00040961037
176	0xbc98c48d	-0.01864841
177	0xbd5a82d4	-0.053347424
178	0xbd21c409	-0.039493594
179	0xbd4443d0	-0.047916234
180	0xbc064123	-0.008194241
181	0x3d037817	0.03209695
182	0xbd480686	-0.048834346
183	0xbcdf21b8	-0.027237758
184	0x3d6566cd	0.05600624
185	0x3c80ff6a	0.01574679
186	0x3d7664f3	0.060154866
187	0x3a821ad0	0.0009926204
188	0x3d2b38c1	0.04180217
189	0xbc709ac6	-0.014685338
190	0x3c6e7624	0.014554534
191	0xbccde782	-0.025134806
192	0xbcd8ce20	-0.026465476
193	0xbd97abe9	-0.07405836
194	0x3d995141	0.07486201
195	0xbd6f236f	-0.0583834
196	0x3d323491	0.043507162
197	0xbd21482c	-0.03937547
198	0x3cc3ec57	0.023916407
199	0xbc83f4b5	-0.016107896

hidden2_Y1.weight f4 [200, 200]
0	0xbdd643a5	-0.10462121
1	0x3bcd1221	0.0062582646
2	0xbe0a473e	-0.13503739
3	0xbc53df13	-0.012931603
4	0x3ded0850	0.11573851
5	0x3db00740	0.08595133
6	0xbdece543	-0.11567166
7	0xbda1f527	-0.07908087
8	0xbb7df0d3	-0.0038748279
9	0xbd12cb9c	-0.03583871
10	0x3d9239fa	0.071399644
11	0xbde8a07c	-0.11358735
12	0x3d817a28	0.063221276
13	0x3da9d9ed	0.08293519
14	0x3da83322	0.08212878
15	0x3d997dda	0.074947074
16	0x3df426e8	0.11921483
17	0x3c06a820	0.008218795
18	0xbdc8e579	-0.098093934
19	0xbd4a9ca1	-0.04946578
20	0x3dbbcd39	0.091700025
21	0xbd6df722	-0.058097012
22	0xbd7c6c66	-0.061626814
23	0x3d7f0e98	0.062269777
24	0xbcbc08fe	-0.022953507
25	0xbdf70ca8	-0.12062961
26	0x3dbf78da	0.093492225
27	0x3cdef785	0.027217636
28	0x3d610732	0.054938503
29	0xbdc1f2e7	-0.09470158
30	0x3c52c80e	0.01286508
31	0x3d4ab57e	0.04948949
32	0x3d7b00a1	0.061279897
33	0xbcc4b85f	-0.024013696
34	0x3bc9c9c3	0.006158085
35	0xbb06d9d6	-0.0020576618
36	0xbd99b8bf	-0.07505941
37	0xbe15b496	-0.1461967
38	0xbdba81bb	-0.091067754
39	0x3e06d54a	0.13167301
40	0xbd094a5d	-0.033518184
41	0x3d2dbc2e	0.04241579
42	0x3dd35832	0.10319556
43	0x3c68e509	0.0142147625
44	0x3dcb2322	0.099188104
45	0xba01637f	-0.00049357855
46	0xbd9e931d	-0.077429034
47	0x3d753acc	0.059870526
48	0xbdd4e5be	-0.10395382
49	0x3d0788dc	0.033089504
50	0xbce0cb1d	-0.027440602
51	0xbc44cf5b	-0.012012328
52	0x3d9e9ec7	0.07745128
53	0x3dc865a1	0.09785009
54	0x3de8fb21	0.11376024
55	0x3b5f6567	0.003408754
56	0xbcf1c784	-0.029514082
57	0xbd6550ca	-0.05598525
58	0xbce804dc	-0.02832263
59	0xbdb6bb05	-0.0892239
60	0x3cead570	0.028666228
61	0xbd8649e3	-0.065570615
62	0xbd7b3c59	-0.06133685
63	0xbd369952	-0.04457981
64	0x3d60733c	0.054797396
65	0xbd496f11	-0.049178187
66	0xbce3f428	-0.027826384
67	0x3b7981b5	0.0038071696
68	0xbb8d364d	-0.0043094517
69	0xbd3b93a9	-0.045795117
70	0x3af3f0e2	0.0018611217
71	0x3db74841	0.08949328
72	0x3dcccfc9	0.100005694
73	0x3ca6e103	0.020370966
74	0xbdc7d346	-0.09757094
75	0x3d8ac6b2	0.067761794
76	0x3d9af572	0.07566346
77	0x3de0be9a	0.10973854
78	0x3dd7287e	0.1050577
79	0x3d929a81	0.071583755
80	0xbd987cfc	-0.07445714
81	0xbdfc3d87	-0.12316423
82	0x3d536702	0.051611908
83	0x3b9a74d6	0.004713635
84	0xbd1c743b	-0.038196784
85	0x3d3264c0	0.043553114
86	0x3cbc1693	0.022959983
87	0xbd1e1dbb	-0.038602572
88	0x3d83d58f	0.064372174
89	0x3d5a21f3	0.053255033
90	0xbd4925fc	-0.04910849
91	0xbd942cc7	-0.07235103
92	0xbcd75f34	-0.026290514
93	0xbe01b836	-0.12667927
94	0x3dcc7468	0.0998314
95	0x3d560ac2	0.052256353
96	0xbd12b958	-0.03582129
97	0x3e08751e	0.13325927
98	0x3d8d0ae4	0.06886843
99	0xbd44b04e	-0.0480197
100	0xbe0def96	-0.13860926
101	0xbd6e53da	-0.058185436
102	0x3dae0b8f	0.084982984
103	0x3da87984	0.08226302
104	0x3d136269	0.035982523
105	0xbd0196ec	-0.03163807
106	0xbbb92667	-0.00565033
107	0xbd131ada	-0.03591428
108	0xbc39bbda	-0.011336291
109	0x3da4065f	0.08009028
110	0x3d0dae60	0.034590125
111	0x3cd3f73f	0.025874732
112	0xbcfad696	-0.0306199
113	0xbddbfaba	-0.10741182
114	0xbd9905f4	-0.074718386
115	0x3ccea195	0.025223533
116	0x3d274eae	0.04084652
117	0x3d33d760	0.04390657
118	0xbde20755	-0.11036555
119	0x3dbf68ed	0.09346185
120	0xbd9dfa23	-0.077137254
121	0x3d15efd7	0.036605682
122	0xbd4c9d08	-0.049954444
123	0x3d98a6cc	0.07453689
124	0xba98b9b3	-0.0011652022
125	0x3db20421	0.08692194
126	0x3dd8eb37	0.10591739
127	0x3c56c029	0.013107338
128	0x3d81bce7	0.063348584
129	0x3d692d55	0.056927998
130	0x3d8d327b	0.06894394
131	0x3b2c899f	0.0026327146
132	0x3dca5b46	0.0988069
133	0x3dd6abbd	0.10481975
134	0x3daadcfd	0.083429314
135	0xbdddf0ba	-0.108369306
136	0x3c3392e8	0.010960318
137	0x3daee2fe	0.08539389
138	0x3d816f8b	0.06320103
139	0xbda8e2a2	-0.08246352
140	0xbdf9afd3	-0.12191739
141	0x3dcf803a	0.10131879
142	0xbdc99b39	-0.098440595
143	0x3d8efc6d	0.0698174
144	0x3db0a8d8	0.086259544
145	0x3cb825f7	0.02247904
146	0x3df62272	0.12018289
147	0xbdfb07c4	-0.122573406
148	0xbcca153f	-0.024668334
149	0xbd6bd9da	-0.057580806
150	0xbdc3ada2	-0.09554602
151	0x3d3bb71b	0.04582892
152	0x3d186bd0	0.037212193
153	0x3bb7be93	0.005607435
154	0xbd556773	-0.05210061
155	0xbdabc2a0	-0.08386731
156	0xbd96cbf5	-0.073631205
157	0x3da7c9e9	0.08192808
158	0xbcbc6037	-0.022995098
159	0xbdf32b7a	-0.11873527
160	0xbd8ad84a	-0.06779535
161	0x3dadcdbc	0.08486506
162	0xbe0b665b	-0.13613264
163	0x3bca3dd6	0.006171922
164	0x3a8a4c94	0.0010551387
165	0x3c56d283	0.013111713
166	0x3da3e4bd	0.08002613
167	0x3d9a10e8	0.07522756
168	0x3d79ba42	0.060968645
169	0xbd1f4797	-0.038886633
170	0xbd88a98e	-0.06672965
171	0xbbecb0b2	-0.007223212
172	0xbdf34617	-0.11878603
173	0x3d1a5de0	0.037687182
174	0x3c49c198	0.012314223
175	0x3c5644b6	0.013077905
176	0xbd0ccf3d	-0.034377325
177	0xbd1738bd	-0.036919344
178	0x3d2c665a	0.042089798
179	0x3d452be2	0.048137553
180	0x3c11749d	0.0088779
181	0xbdb65fff	-0.089050286
182	0xbd87f36c	-0.06638226
183	0x3d31496d	0.043282915
184	0x3dc5e273	0.096623324
185	0x3dd0d319	0.10196514
186	0xbd92b0d6	-0.07162635
187	0xbc86ed7e	-0.016470667
188	0x3c60bee2	0.013717385
189	0xba45147b	-0.00075180054
190	0xbd3a5a77	-0.04549643
191	0xbdda0015	-0.10644547
192	0xbdfc662b	-0.123241745
193	0xbddffd65	-0.10937003
194	0xbda2ac48	-0.07943016
195	0xbd297a22	-0.04137624
196	0x3d446d6a	0.047955908
197	0xbc6b51c0	-0.014362752
198	0x3d702f35	0.05863877
199	0x3d4c9d24	0.04995455
200	0x3c6d343c	0.014477786
201	0x3d2942c5	0.041323442
202	0xbce9def4	-0.028548695
203	0x3d9d63f5	0.07685081
204	0xbd64e6ca	-0.05588416
205	0xbd751f9a	-0.05984459
206	0xbc699024	-0.014255557
207	0x3d7bb5b6	0.06145259
208	0xbd376e39	-0.04478285
209	0xbdd7139b	-0.10501786
210	0x3cfd9a6e	0.030957427
211	0x3de41a3f	0.111378185
212	0x3e0407d9	0.12893619
213	0xbdec0671	-0.11524666
214	0xbd80b47d	-0.062844254
215	0x3c577693	0.013150829
216	0xbc8280e3	-0.015930599
217	0xbd61ad63	-0.055096995
218	0x3d1db72e	0.038504772
219	0x3c55f277	0.013058296
220	0x3d2732ba	0.04081986
221	0x3d6a3d51	0.057187382
222	0x3c8e9bcb	0.017408272
223	0x3d4eb3f1	0.050464574
224	0x3d6707b5	0.056403834
225	0xbd3d7b22	-0.046260007
226	0x3daa2f18	0.08309764
227	0x3dd6b1a2	0.104830995
228	0xbba7e866	-0.0051241396
229	0x3de1fb19	0.11034221
230	0x3c0cabe4	0.008585904
231	0xbdcddbac	-0.10051665
232	0xba825a2e	-0.0009945089
233	0x3d6dc053	0.058044743
234	0x3dec9ab9	0.115529485
235	0x3dd111ab	0.10208448
236	0x3d02b541	0.03191114
237	0x3dab56b6	0.08366148
238	0xbdb4e78e	-0.08833228
239	0xbcdcf9e5	-0.026974628
240	0x3db686e6	0.089124486
241	0x3d363f4e	0.044493966
242	0xbdf1c94e	-0.11805974
243	0x3b152ca6	0.0022762208
244	0x3cd62861	0.026142301
245	0xbbb9495f	-0.0056544985
246	0xbd5450b9	-0.051834796
247	0x3d66b901	0.056328777
248	0xbdfbff1b	-0.12304517
249	0xba0753fa	-0.0005162355
250	0xbcea97a7	-0.028636767
251	0x3dbf421d	0.09338782
252	0xbad12908	-0.0015957663
253	0xbb8cec35	-0.004300619
254	0x3da81847	0.082077555
255	0xbd019188	-0.03163293

hidden2_Y1.bias f4 [200]
0	0x3d731b59	0.059352253
1	0x3d4eddbb	0.050504427
2	0xbce5e89e	-0.028065022
3	0xbb9c44c4	-0.0047689397
4	0xba2fbd43	-0.00067039224
5	0x3d235f4c	0.039885804
6	0x3cc3ea5d	0.023915464
7	0xbd49f0c4	-0.049301878
8	0x3d9ab50f	0.075540654
9	0x3c22f443	0.009945932
10	0x3d0853c6	0.033283018
11	0xbbbd6b33	-0.0057806014
12	0xbc5dc75c	-0.0135363005
13	0xbb938af8	-0.0045026504
14	0xbd47011c	-0.048585042
15	0xbd56fdce	-0.05248814
16	0xbc95ae3c	-0.018271558
17	0xbdab71dd	-0.08371327
18	0x3d866d64	0.06563833
19	0xbbd6b60a	-0.0065524625
20	0x3d30b38e	0.043139987
21	0x3d4eaa9d	0.05045568
22	0x3d3146f4	0.043280557
23	0xbd5e81c2	-0.054322965
24	0x3c719250	0.014744356
25	0xbd34d350	-0.044146836
26	0xbae88a34	-0.0017741383
27	0x3d26586c	0.04061167
28	0xbcfdeb3c	-0.030995958
29	0x3c228301	0.009918929
30	0x3d29efdb	0.04148851
31	0xbc57cb47	-0.013171024
32	0xbd0609cd	-0.03272419
33	0xbd8737d9	-0.06602449
34	0xbd78f7e3	-0.06078328
35	0x3d104601	0.03522301
36	0xbd78d74e	-0.060752206
37	0xbd0e8f61	-0.034804706
38	0x3d65fe70	0.056150854
39	0x3d0c1549	0.034199987
40	0x3d8139ad	0.06309829
41	0xbd9241d4	-0.07141462
42	0x3d45bbf8	0.048274964
43	0xbd5afe77	-0.053465333
44	0xbc66c481	-0.014084936
45	0xbd6b1f14	-0.057402685
46	0x3c115db3	0.008872437
47	0xbd954ae2	-0.072896734
48	0xbd82d9fd	-0.06389234
49	0xbd1094ac	-0.035298035
50	0x3d11b20b	0.035570186
51	0x3d92e311	0.07172216
52	0xbc59ba37	-0.013289026
53	0xbd7f82b4	-0.062380508
54	0x3d6ed8f4	0.05831237
55	0x3c5f8c16	0.013644239
56	0xbd11ddae	-0.0356118
57	0x3cff94bd	0.031198854
58	0xbce6646b	-0.028124055
59	0x3d86b51a	0.06577511
60	0x3a40b2bd	0.0007350853
61	0xbd1f52c2	-0.038897283
62	0xbd856124	-0.06512669
63	0xbc92cfe1	-0.01792139
64	0x3d5b1053	0.053482365
65	0xbd26cdca	-0.0407236
66	0x3d6db4ea	0.05803386
67	0x3d539326	0.051654004
68	0x3c27ce16	0.010242006
69	0xbd56cf3c	-0.052443728
70	0xbc9d6e71	-0.019217702
71	0x3d2b4598	0.041814417
72	0xbd1aad8a	-0.037763156
73	0x3c843047	0.016136302
74	0x3ce82c51	0.028341444
75	0xbd584949	-0.052804265
76	0x3d136811	0.035987917
77	0x3d906061	0.07049633
78	0xbcfeac9b	-0.031088164
79	0xbcff513a	-0.031166662
80	0x3c87197d	0.016491646
81	0xbcc42e52	-0.023947868
82	0x3c0ee302	0.008721115
83	0x3d825d1c	0.063654155
84	0xbc97350e	-0.018457916
85	0x3d1f7c5c	0.038936958
86	0xbd4eb2d2	-0.050463505
87	0x3d532ca3	0.05155624
88	0xbd1628b7	-0.036659922
89	0xbc90fbee	-0.017698254
90	0xbd63642a	-0.055515446
91	0xbd2297f3	-0.03969569
92	0xbce2e640	-0.027697682
93	0xbd41698a	-0.04721979
94	0xbd4311e0	-0.04762447
95	0x3ce78625	0.028262207
96	0xbbfbe2d2	-0.007686951
97	0xbd495364	-0.049151793
98	0xbc41f675	-0.011838545
99	0xbb413359	-0.0029480068
100	0xbb1a7b40	-0.0023571998
101	0xbbb033bc	-0.005377261
102	0xbc9c89c2	-0.019108657
103	0x3ca0e411	0.01964
104	0xba191a68	-0.00058404217
105	0xbc8396a2	-0.016063038
106	0x3cb41de8	0.021986917
107	0x3c483f9f	0.0122222
108	0xbcc4bbb2	-0.024015281
109	0xbd32c96b	-0.04364912
110	0xbc486846	-0.012231892
111	0x3cb96c92	0.022634778
112	0xbd8344d0	-0.06409609
113	0x3ca6f080	0.020378351
114	0x3ce9b662	0.02852935
115	0x3d0a077b	0.03369854
116	0xbce400b4	-0.027832367
117	0xbd0a26bb	-0.033728343
118	0x3d430d77	0.047620263
119	0xbd3aab20	-0.045573354
120	0x3c50ef17	0.012752316
121	0x3c185cea	0.009299496
122	0x3c03fc21	0.008055718
123	0xbb17b55d	-0.0023148872
124	0x3d6e8eb3	0.058241557
125	0x3c7ab1a0	0.015301138
126	0x3cbe5bd9	0.023237156
127	0x3d1a7dfa	0.037717797
128	0x3d428e0d	0.04749875
129	0x3d423381	0.0474124
130	0x3c267506	0.0101597365
131	0x3c870219	0.016480492
132	0xbd817dae	-0.063227996
133	0xbbb037f6	-0.005377765
134	0xbd29f9f2	-0.041498132
135	0xbc9451c0	-0.018105388
136	0xbd52f4e8	-0.051503092
137	0xbd993ad5	-0.074819244
138	0x3d935b8c	0.071951956
139	0x3cf5f2d9	0.030023025
140	0x3d38d6c9	0.04512671
141	0x3d85afb5	0.06527654
142	0x3cd5bbae	0.02609047
143	0x3da586b3	0.080823325
144	0x3c167321	0.009182722
145	0x3b12bd84	0.0022390792
146	0x3c6c27ad	0.014413756
147	0xbd2b4423	-0.041813027
148	0xbc524a62	-0.012835117
149	0xbcdb5ae3	-0.026776737
150	0xbc28f33c	-0.010311898
151	0x3d4f4777	0.050605264
152	0x3d70d731	0.058798973
153	0xbba2a0e4	-0.0049630273
154	0xbd3988f1	-0.045296613
155	0x3c39c6db	0.011338915
156	0xbd50594b	-0.050866406
157	0x3c9dda86	0.01926924
158	0xbb697d3e	-0.0035627629
159	0x3db5dbf1	0.08879841
160	0xbcb56180	-0.022141218
161	0xbb582ba3	-0.0032984994
162	0xbcd210f5	-0.025642851
163	0xbc55ea46	-0.013056343
164	0xba8bfc52	-0.0010680056
165	0xbd8aa6fa	-0.067701295
166	0xbc95f77c	-0.018306486
167	0xbd123642	-0.035696276
168	0xbcba0e91	-0.022712024
169	0x3c94d938	0.018169984
170	0xbc61d74d	-0.013784242
171	0x3cd31934	0.025768854
172	0xbd83326f	-0.06406104
173	0x3d9203a8	0.071296036
174	0x3d03723e	0.03209137
175	0xbcade219	-0.021225976
176	0xbd1b6307	-0.037936237
177	0x3c9d60c2	0.019211177
178	0xbc92b682	-0.017909292
179	0x3d31a95b	0.0433744
180	0xbd1ce741	-0.03830648
181	0xbca80f38	-0.02051507
182	0xbc3945a4	-0.0113081075
183	0x3d29ea20	0.041483045
184	0xbd04d7c7	-0.032432344
185	0xbc4d0ee7	-0.01251576
186	0xbd88e3b9	-0.0668406
187	0x3d1eead2	0.03879816
188	0x3d855536	0.06510393
189	0x3c9c67ad	0.019092405
190	0x3cdab304	0.02669669
191	0x3d74f0a1	0.059799794
192	0xbb19856d	-0.0023425475
193	0x3d847194	0.06466976
194	0xbce3dc9f	-0.027815161
195	0x3c8b9c1c	0.017042212
196	0x3d5ab21b	0.05339251
197	0xbd92027d	-0.07129381
198	0x3d29d6fd	0.041464794
199	0x3d65ce33	0.05610485
