Results/Models/SAE_stacked_cur_DCN_model_iter_id_0_epoch_400_lr_0.0001.pth (torch, 828518 bytes, 16 tensors)

shared1.weight f4 [200, 17]
000000 5a d7 e0 3d 56 80 08 3e ec a0 a8 bd fd 3f a3 bd
       0.10978575 0.13330206 -0.082338184 -0.07971189
000010 d0 b6 fd bc ea 91 ed bb 47 91 88 bd 31 f3 d6 bd
       -0.03097096 -0.0072500603 -0.066683345 -0.10495604
000020 98 e6 b9 bd 48 58 4b 3d d4 fd 17 be 6a c7 cc 3d
       -0.090771854 0.04964474 -0.14842921 0.09998973
000030 b4 28 9e 3d af 4b ef bd 21 d4 d1 3b e7 71 0f 3e
       0.07722607 -0.116843574 0.0064034616 0.14008294
000040 dc 14 c0 3d c0 d6 ba bd a7 0b 17 be 50 61 e3 bd
       0.093789786 -0.091229916 -0.14750539 -0.11102545
000050 d3 8f 25 be 3c 96 06 3e 5c 65 88 3d c4 d4 23 3e
       -0.16168146 0.13143247 0.06659958 0.15999132
000060 36 7b 8d bd d9 16 30 3d d1 56 47 bd e8 f9 38 bc
       -0.06908266 0.04299054 -0.04866678 -0.011290051
000070 77 46 07 be 8b fe 53 3c ed 53 e9 3d 6c c1 bc bd
       -0.13210474 0.012939106 0.11392961 -0.0921658
000080 12 ba 05 bd cb 0b 33 bd b8 7d 18 be c0 35 0f be
       -0.032648154 -0.04371242 -0.14891708 -0.13985348
000090 c8 ef 21 be 64 e4 9a 3d 80 8b e3 3d 2a d8 90 3d
       -0.15814126 0.07563093 0.11110592 0.0707248
0000a0 3d ed 20 bc cf e9 e1 3c cf 4a 53 bc b4 ec 9d 3c
       -0.009822187 0.027577309 -0.012896254 0.019277908
0000b0 e9 10 06 be 0c ac 08 3e 59 2c 1d 3e 5e 13 17 3e
       -0.13092388 0.1334688 0.15348949 0.14753482
0000c0 8d af 16 be 47 12 90 bd 27 6e 09 3d d4 bf 05 bd
       -0.14715405 -0.07034736 0.033552315 -0.032653645
0000d0 c5 bb 02 be d3 7b 84 bd b8 8c 38 bd 48 2d d2 bb
       -0.12766941 -0.0646893 -0.045056075 -0.0064140894
0000e0 49 98 f6 bd 1b 2a 08 3e 2f ee 58 3c fa 89 75 bc
       -0.12040765 0.13297312 0.013240381 -0.014986509
0000f0 ff 03 bc bb e1 b0 88 bd e3 2c 13 be 8d 25 c3 bd
       -0.005737781 -0.06674362 -0.14372592 -0.095286466
000100 48 24 0b bd 84 c5 f3 bc d1 09 c5 3c 10 54 31 be
       -0.033970147 -0.029757269 0.024052532 -0.17317224
000110 42 2e c0 bd b7 9d f3 bd 72 68 f3 3d 07 54 8f 3c
       -0.09383823 -0.11895316 0.11885156 0.017496122
000120 2c ca 94 3b 04 ea f3 bd 64 29 42 3d 1b 30 fe bd
       0.0045407023 -0.11909869 0.047402754 -0.12411519
000130 42 d6 80 bd 6b 18 1c 3e dd 42 e3 ba 68 57 2d 3d
       -0.062908664 0.1524369 -0.0017338652 0.042319685
000140 ee 3a 13 be 75 f9 17 be b4 8c f8 3d d4 1b fe 3c
       -0.14377949 -0.14841254 0.12136212 0.031019129
000150 8d 81 f5 bd 79 30 f6 bc 09 64 20 be da f3 49 be
       -0.119876005 -0.03005241 -0.1566316 -0.19721928
000160 d6 72 46 3e 25 7b e2 bb e2 b1 52 3d 96 18 d2 bd
       0.19379744 -0.0069116526 0.051439174 -0.10258596
000170 d8 57 3d bd cc 6c fc 3d 4c 61 7c bd c1 f7 92 3d
       -0.046226352 0.12325439 -0.061616227 0.071761616
000180 5b 5b ff bd ba c5 ee 3d 83 9c f8 bd f5 b3 dc 3d
       -0.124685965 0.11658807 -0.12139227 0.107765116
000190 c2 6f 1c 3d 68 4e 4d 3e b0 3e 66 bd 36 b0 d1 bd
       0.038192518 0.20049441 -0.056212127 -0.10238688
0001a0 74 f6 9a 3d b0 3c 0f be 9f 72 55 3d db 9f bd bd
       0.075665385 -0.13987994 0.052111264 -0.09259006
0001b0 42 e9 2b 3d bd 04 87 3c b3 f2 05 bd 57 e6 60 bc
       0.0419705 0.016481752 -0.03270216 -0.013726792
0001c0 f2 03 fe 3c e6 74 bf bc 77 6b df bb d2 51 61 3a
       0.03100774 -0.023371171 -0.0068182307 0.0008595261
0001d0 ba d3 3d bd f5 ae 23 3d f9 04 13 be f0 e7 80 3d
       -0.046344496 0.039961774 -0.14357366 0.062942386
0001e0 69 3e 19 be 7f 6a dc 3c 9c 5c d6 3c b4 6b 4f bd
       -0.14965214 0.02690625 0.026167206 -0.050639823
0001f0 09 32 1a 3d d9 c7 9c 3b be ba 1b 3d cd c5 ca bd
       0.037645373 0.004784566 0.038019888 -0.09901009
000200 bc ea be 3d 7f 82 d7 3d ba 1f f9 3d 86 b6 e7 3c
       0.09322116 0.10522937 0.121642545 0.028285276
000210 87 15 7f 3d c5 c2 85 3d 72 e1 c0 bb b6 4e 89 bd
       0.06227639 0.0653129 -0.00588625 -0.06704466
000220 87 de 30 bc 97 4c a2 bd ad bc 5f bd 7c 0c f4 bd
       -0.010795242 -0.079247646 -0.054623295 -0.11916444
000230 3b 60 c0 3d 12 57 4a 3c 6c 3f 14 3d c0 b0 a4 3d
       0.093933545 0.012349861 0.036193296 0.08041525
000240 e8 b3 2f bb d6 fc da bd 12 09 3b bd 3d 75 28 be
       -0.0026810113 -0.10692756 -0.045662947 -0.16450973
000250 ec 62 81 bd fa 41 05 bd ed d6 ab bd bb 42 bf 3d
       -0.06317696 -0.032533623 -0.08390603 0.093389
000260 3a 7c e1 bc a5 9d 19 3d 7d b2 f4 3d 9e af 11 be
       -0.027525056 0.037503857 0.119481064 -0.14227149
000270 c8 e9 f7 3d 8a cd 35 be 62 95 f6 bd c0 74 ea 3d
       0.12105137 -0.17754188 -0.12040211 0.114480495
000280 62 e6 08 bc 5c 3c 2e be c0 71 46 bd e3 a2 09 be
       -0.008355709 -0.17015213 -0.048448324 -0.13441043
000290 e5 7f c6 3d 44 c3 87 3d 19 32 1e bd e4 be 9d 3d
       0.09692363 0.06629041 -0.038621996 0.07702425
0002a0 a6 4a 89 bd 2c 3a 1f be 34 1f bf 3d d3 77 d8 3c
       -0.06703691 -0.15549535 0.093321234 0.026424324
0002b0 5e c0 85 3e a6 f5 a2 3d d6 f8 55 be 48 50 d6 bc
       0.26123327 0.0795701 -0.20895705 -0.026161328
0002c0 d9 a4 ab 3d 60 75 a2 bd 3d ce 84 3d 0c a8 15 3d
       0.083810516 -0.07932544 0.06484649 0.036537215
0002d0 90 9e f4 3d 81 8b 2f 3c 05 9f 91 3d 39 59 f5 bd
       0.11944306 0.010714413 0.07110409 -0.119799085
0002e0 68 c7 81 3b 3c 5c e6 3c 4d 96 55 bd 6e 4d ac 3c
       0.0039605387 0.028120153 -0.05214529 0.021033015
0002f0 b7 6d 6f bd 23 d9 e5 3c 46 c1 16 3e 6f 8c 8c bd
       -0.05845424 0.02805764 0.14722165 -0.06862723
000300 b4 0b 16 be ff 0e fd 3d 4c ce ba 3b de b1 a1 3d
       -0.14652902 0.12356376 0.005700862 0.078952536
000310 8d 24 7c 3d a5 3c a1 3d b2 2b 24 bd 55 67 b7 3d
       0.061558295 0.07872895 -0.040080734 0.08955256
000320 c0 0f d2 3c 2d 3a 9b 3d 5f 97 c6 3d ae 60 cd 3c
       0.025642276 0.075794555 0.096968405 0.025070515
000330 dc 9e c8 bd cc b6 42 be 70 67 80 3d fc 13 5e 3c
       -0.09795925 -0.19015044 0.06269729 0.013554569
000340 2c f4 b6 bd 12 85 d9 bd 2e a3 8c 3d 13 5d b8 bc
       -0.08933291 -0.10621084 0.068670616 -0.022505319
000350 1f bc a0 bd 70 6b e1 3b 9a 6f ec 3d 23 03 cd bd
       -0.07848381 0.0068792626 0.11544724 -0.10010364
000360 56 6e 8b 3d e7 de 03 be 23 c1 31 be be a1 f3 3d
       0.06808154 -0.12877999 -0.17358832 0.11896084
000370 09 f9 d9 3c 9a f3 8a 3d a5 6b a6 bc 74 f7 ec 3d
       0.026608007 0.067847446 -0.020315 0.115706354
000380 8b 76 5e 3c f3 5d ff 3c 5d f6 f8 bc 52 29 98 bd
       0.0135780675 0.031172728 -0.030390913 -0.07429756
000390 a6 62 d0 bd 5c 57 69 bd a0 de ce bd e9 37 e9 3d
       -0.10175066 -0.056968078 -0.10101056 0.11387617
0003a0 c7 4b 2c bd 00 80 bc bd 6f 6b 14 3e 41 fa 61 bd
       -0.042064454 -0.092041016 0.14494108 -0.0551703
0003b0 f6 0c 37 3e 0a 65 3b 3e cb 43 40 bd 2e 4e bc 3d
       0.17876038 0.18300262 -0.046939652 0.09194599
0003c0 eb 18 32 be 9d a3 f9 3d 28 b2 a8 bc 7a e2 86 3d
       -0.17392318 0.1218941 -0.020592764 0.06586166
0003d0 cb 50 f8 3d f3 77 90 bd 92 52 b3 3b 83 32 ad bd
       0.12124785 -0.070541285 0.0054724896 -0.084569
0003e0 b4 5b b6 bc b5 5d 17 be 62 04 e4 3c b0 35 cc 3c
       -0.022260524 -0.1478184 0.027834121 0.024927944
0003f0 8b e7 0a 3e 38 1d f2 3d 13 09 1f bd 34 26 d7 bd
       0.13564889 0.11821979 -0.038827013 -0.105053335

shared1.bias f4 [200]
000000 21 a3 e3 3d b0 86 23 bd 6a f3 0f 3d d4 f1 ed 3d
       0.11115099 -0.03992337 0.035144247 0.11618391
000010 4c 05 3f be 8e 1c b0 3a c2 9a f1 3d b3 43 d5 3d
       -0.18654364 0.0013436244 0.11797096 0.10413303
000020 f1 c0 ce 3c 69 b7 6a be f8 47 91 be 39 e9 ba 3d
       0.025238486 -0.22921528 -0.2837522 0.09126515
000030 a8 4f 50 3e eb 6b d3 bc ee d0 83 be e2 4b d4 bd
       0.20342886 -0.025808295 -0.25745338 -0.10366036
000040 91 e3 c9 3d 70 71 1b 3e 76 ee 96 bd 29 b5 4b 3d
       0.09857858 0.15179992 -0.073697016 0.049733315
000050 f5 6b 4c be 63 7b 7b 3d 7f 99 82 3c d4 91 70 be
       -0.19963057 0.061396968 0.015942333 -0.23493129
000060 6b 2f 1b 3d f9 d9 1f 3e 21 c8 6e bd 28 fb 65 3d
       0.03788702 0.15610494 -0.058296327 0.056147724
000070 d5 27 98 bd 67 ef 32 be a3 4a 09 be a7 7a 88 be
       -0.07429472 -0.17474137 -0.13407378 -0.26656076
000080 56 5f bd bd 61 a9 fc bd 34 f0 33 be b1 ba 1c be
       -0.092466995 -0.12336994 -0.17572099 -0.15305592
000090 9e 62 1a 3e 12 59 ff bd 6c b8 32 3e 92 13 96 bc
       0.15076682 -0.12468161 0.17453164 -0.018319879
0000a0 a7 96 eb bc f2 78 0b 3e c4 d8 0f 3b 74 e2 ee 3c
       -0.02875836 0.13620356 0.002194927 0.029160716
0000b0 11 a2 3b be cf ea cf bd bc b3 5e be 1c bc 91 3d
       -0.18323542 -0.10152208 -0.2174825 0.07115957
0000c0 88 fc 73 be 38 d5 e3 3c 81 60 50 3d 59 56 72 be
       -0.23826802 0.027811632 0.050873283 -0.23665752
0000d0 e9 24 44 be 6b 1e 10 be 81 9e 19 bd 83 d2 43 bd
       -0.19154705 -0.14074104 -0.037504677 -0.04780818
0000e0 c3 29 e5 3d c7 37 83 be 26 68 0f 3e a7 23 02 be
       0.11189606 -0.25628492 0.14004573 -0.12708913
0000f0 3b c4 5a bd 38 ca bc bb 09 9e 5f be 85 2b 15 3e
       -0.053409796 -0.005761411 -0.2183763 0.14567383
000100 7a cb 79 bd 21 3b 03 3e 90 60 06 be a3 82 0c bd
       -0.060985066 0.12815525 -0.13122773 -0.034304272
000110 d1 3d c3 3c a9 c2 6a be e3 ed 2a 3e ec 94 b1 3d
       0.023833187 -0.2292582 0.16692309 0.08670983
000120 c3 aa 39 be 49 a4 57 be 8e 57 1e be dd 0e 0e be
       -0.18131547 -0.21058764 -0.15463087 -0.13872857
000130 91 72 67 3e b4 22 e1 3d 37 13 f1 3d fe 2a 85 3d
       0.22602297 0.10992947 0.11771243 0.06502341
000140 ed 35 cc bc 53 53 5a 3e 20 aa 15 3d 35 47 a1 3d
       -0.024928058 0.21320848 0.036539197 0.0787491
000150 44 8f 17 3d b3 22 7d 3d 9e da c1 bd 4b 43 e4 3c
       0.037001863 0.06180067 -0.09465526 0.027864119
000160 fd 7c 28 3e ef f7 2b be b5 5b 1f 3e 2f 32 0d 3e
       0.16453929 -0.16793798 0.15562327 0.13788675
000170 1c 3a 52 bd 20 34 50 3d 76 27 5f bd 5a 0b 36 3e
       -0.05132495 0.05083096 -0.054480992 0.17777768
000180 00 c5 43 be 9b 64 d8 3d ee 6c 4c be 0d b0 a2 bd
       -0.19118118 0.10566064 -0.19963428 -0.07943735
000190 8d 18 e0 bd c9 8e 2c be a7 09 89 be 90 c3 b1 bc
       -0.10942183 -0.16851343 -0.26765177 -0.021699697
0001a0 07 b8 20 3e 17 39 e7 bd 75 64 4e 3e 00 0f 9b 3d
       0.15695201 -0.11290186 0.20155509 0.075712204
0001b0 35 65 28 be 81 ab cb bb ed 34 ef bd 89 94 5d be
       -0.16444857 -0.006215513 -0.11680017 -0.21638693
0001c0 36 68 88 3d 6d 65 8b 3d 17 97 db bd 4b 0a f1 bb
       0.06660502 0.06806455 -0.107221775 -0.0073559633
0001d0 96 69 48 ba a5 d2 5e 3d e1 ac 39 be 23 3b d3 bd
       -0.0007645128 0.054400105 -0.18132354 -0.10314014
0001e0 93 1d 80 be 7f 98 d7 bd 73 cf 02 3e 6b 6a ea 3d
       -0.25022563 -0.10527133 0.12774448 0.11446079
0001f0 37 7b ab 3b 8a 6a a1 3d 3c a3 7a be d9 64 4e be
       0.005233194 0.07881649 -0.24476331 -0.20155658
000200 94 e1 52 3d 53 98 03 be 2c 9c 57 be 41 3c 55 be
       0.05148466 -0.12851076 -0.21055669 -0.20823766
000210 55 76 21 be 5e 8f 28 be 82 de 14 3e de dc 8c be
       -0.15767796 -0.1646094 0.14538005 -0.27512258
000220 27 ab 82 be a7 bb 3b 3e de 5a 83 be be 4a d3 bd
       -0.25521204 0.18333302 -0.25655264 -0.1031699
000230 d5 ca 80 be e0 dd 57 3e 11 c0 68 be f9 5d ad 3b
       -0.2515475 0.21080732 -0.22729518 0.0052907434
000240 87 b5 1e be e5 62 c5 bd 30 56 4d be fc 29 2e be
       -0.15498935 -0.09638003 -0.20052409 -0.17008203
000250 19 26 fa bc ad 90 51 be 1a d6 4e 3c c7 d4 24 3e
       -0.030535745 -0.20465346 0.012624288 0.16096793
000260 86 eb 56 3d da 56 67 bc 4d d1 0f be d6 b8 da bd
       0.052470706 -0.014119828 -0.14044686 -0.10679786
000270 b8 e5 aa bd ac 69 d1 3d 7e 47 51 3d 19 41 78 be
       -0.083445966 0.102252334 0.05109357 -0.24243583
000280 b6 36 a0 3b df a9 5f bd 9a 37 22 be 1c ec 86 be
       0.0048893346 -0.05460536 -0.15841523 -0.26352012
000290 43 22 0c bc d1 3b 06 be e2 fb 56 bd eb 33 65 bd
       -0.0085530905 -0.13108756 -0.052486308 -0.055957716
0002a0 5a f3 11 bd 2e 28 c0 3a 5d 8c 4d bd db 36 16 3e
       -0.03563247 0.0014660412 -0.05018269 0.14669363
0002b0 28 d3 95 bd a4 b3 03 b8 d8 04 1b 3d 96 5a 21 be
       -0.073156655 -3.1400137e-05 0.037846416 -0.15757212
0002c0 5b 3a bd bc 5e 0f 83 bd c4 c4 57 bc fa ff d5 3d
       -0.023099115 -0.063994154 -0.013169471 0.10449214
0002d0 1e 12 6d be 05 64 31 be 4d ff 01 bd 36 8e bc bb
       -0.23151442 -0.1732331 -0.031737614 -0.0057542576
0002e0 4f 7b 57 be 9e db df 3d 11 b5 0c 3c 2b 33 ea 3d
       -0.21043132 0.109305605 0.0085880915 0.11435541
0002f0 80 33 00 3e 2f 01 eb bd 72 26 03 3e 22 cb c3 3d
       0.12519646 -0.11474835 0.12807634 0.09560229
000300 7c 93 19 3e 13 8c 2b bd db 94 75 be f5 f7 4a bd
       0.14997667 -0.041881632 -0.23982565 -0.049552877
000310 04 2f 92 3d fa b5 88 bd b7 26 cf bd 5f 67 50 3d
       0.07137874 -0.06675334 -0.10114806 0.050879832

shared2.weight f4 [200, 200]
000000 17 7e 2f bd 1c 25 f1 3d 5f 24 7c 3d 4a 93 9f 3d
       -0.042844858 0.11774656 0.061558124 0.07791765
000010 0e 3a f7 3b 60 a4 cb bd f6 26 7a 3d 8a c4 8e bd
       0.0075447625 -0.099434614 0.061072312 -0.069710806
000020 93 c2 00 3e 8e 50 4d bd e5 87 65 bd ce 46 96 3d
       0.12574224 -0.05012565 -0.056037802 0.07337724
000030 40 1e e3 3d 55 09 29 be bd 86 a6 3c 21 b5 ef 3d
       0.11089754 -0.16507466 0.02032792 0.117044695
000040 87 79 bd bd a2 10 61 3d 7a 42 32 3c fd 33 90 3d
       -0.09251695 0.054947503 0.010880107 0.07041166
000050 91 21 08 be a4 c3 87 3b ea ef e3 3d 56 54 60 3d
       -0.13294055 0.004143195 0.11129744 0.05476793
000060 99 2e 21 3e 6d 88 cb 3d ea 42 7a bd 9c 1e 18 3d
       0.15740432 0.099381305 -0.06109897 0.037138566
000070 cb db 6f bb c6 e2 b0 bd fb 51 1f bb 26 e8 9b 3c
       -0.0036599513 -0.086370036 -0.0024310339 0.019031595
000080 b1 fe 61 bd ea e7 2d 3e 9e 65 33 3d 55 14 05 bd
       -0.055174533 0.16983 0.04379808 -0.032490093
000090 62 fb 83 3d 0e a9 04 3e c3 6a cd 3d 78 ec 7e 3b
       0.06444432 0.12955114 0.10030129 0.003889827
0000a0 7c cf 81 3d 8e 3f 15 3d 9b d9 a9 3b d8 ea 92 bd
       0.06338403 0.036437564 0.0051834113 -0.07173699
0000b0 6d e5 84 3c 80 54 db 3d 6e 75 0d 3d 71 31 fb 3d
       0.01622268 0.107094765 0.034535818 0.122652896
0000c0 49 5e 06 3e 74 a7 cc bd fc a0 7b 3d 6a a4 f3 3c
       0.13121904 -0.09992877 0.061432824 0.029741485
0000d0 a3 9f d1 3d 0d 05 b4 3c 9c 98 f0 bd b7 57 9e 3d
       0.102355264 0.021975065 -0.11747858 0.07731574
0000e0 2c 5b f2 3d 30 e0 7b 3c 2d 84 74 3d cc 14 bc 3c
       0.11833796 0.015373275 0.059696365 0.022959135
0000f0 59 c8 45 3e 9b cc 75 bd ad 06 20 3d 52 44 10 bd
       0.19314708 -0.06000958 0.039068867 -0.035221405
000100 e9 96 b2 3d c9 40 5b bd 4c 87 06 3d f8 17 d6 bd
       0.0872019 -0.05352858 0.032843873 -0.104537904
000110 88 d2 06 bc d9 76 da bc 7f f3 3e 3d 18 79 1e 3d
       -0.0082289055 -0.026668 0.046618935 0.038689703
000120 dc 70 37 3e 54 b5 0b 3e 41 f5 b9 bc d3 3f 47 3e
       0.17914146 0.1364339 -0.022699954 0.19457941
000130 17 17 b6 bd 0c 56 16 3e 33 d2 b6 3d 12 af 05 3e
       -0.08891123 0.14681262 0.08926811 0.13055065
000140 4d da 43 bb 35 e0 5f bd a3 5c 54 bd 6a ba c6 3d
       -0.0029884756 -0.05465718 -0.051846158 0.097035244
000150 cd 00 0f 3e 9b 7e 07 be 46 e9 9c 3d a5 eb ad bb
       0.13965149 -0.1323189 0.07661681 -0.005307632
000160 da bb 10 3e ba ee 88 3d 5f 90 6d 3d a8 d9 e1 3d
       0.1413416 0.066861585 0.05799901 0.11027843
000170 3a f9 9f 3d 14 f9 a1 3c fc b6 76 3d ea fe 28 3e
       0.07811208 0.01977209 0.0602331 0.16503492
000180 78 e1 2f be 3b 6d 99 bc e3 37 d8 bb b7 09 8f 3d
       -0.17175853 -0.018728843 -0.006598459 0.06984275
000190 2a fb 14 bd ec 06 9b bd 95 6a 5a bd 80 c1 c2 bd
       -0.03637234 -0.075696796 -0.0533243 -0.095095634
0001a0 3e b7 98 3d f7 59 f1 bd 38 8c a3 3c 6c fa e5 bc
       0.07456826 -0.117847376 0.019964322 -0.028073512
0001b0 c2 ef 0a 3e 19 fc 3f 3d af af 83 3d db e7 cb 3d
       0.13568023 0.04687128 0.06429993 0.09956332
0001c0 14 39 98 bd 8e 6f 0a 3e fd 3c 9e 3b 6e f2 85 3d
       -0.07432762 0.13519117 0.0048290477 0.065403804
0001d0 31 e7 20 3d c9 6a c3 bc ac 6c 2e 3e 0f 1d 24 3d
       0.03928298 -0.02385463 0.17033643 0.040066775
0001e0 92 8c e9 3c 5c c7 e5 3c a1 1c a0 bd ea af 6e 3c
       0.028509412 0.028049164 -0.078179605 0.014568308
0001f0 21 ff 1c ba 5d e6 d0 3d a8 10 6c 3d 51 fa e2 bc
       -0.0005988945 0.10200188 0.057633072 -0.02770725
000200 ef b8 af 3d e3 33 bc bc 2f e2 81 3d 57 e9 6d bd
       0.08580195 -0.02297396 0.06341969 -0.05808386
000210 f3 6f 0e bc d3 76 c4 3d 13 14 77 bd 90 bf e3 3d
       -0.008693683 0.095929764 -0.06032188 0.11120522
000220 bf 4e 97 bd a8 67 88 3d 5b 64 62 3c a6 6b aa bd
       -0.073880665 0.06660396 0.013817872 -0.083213136
000230 8c 4d 57 3e cf 67 a5 bc e2 e8 66 bd d1 1d 02 3d
       0.21025676 -0.020191101 -0.056374438 0.031766716
000240 e0 9a b6 bd 80 f8 a0 bd 2e 94 1b 3e 7c a1 ee 3d
       -0.08916259 -0.078598976 0.15193245 0.116518945
000250 c3 1b 01 be fe 83 d8 3d f7 3a bc 3d 6d 22 fd 3d
       -0.12608247 0.105720505 0.09190934 0.12360082
000260 9f ee 73 bd 50 65 d1 bc 5f 43 31 3e f2 06 9b 3d
       -0.05955374 -0.025561005 0.17310856 0.07569684
000270 25 8b 57 bd 6b 0b 22 bd e0 b4 16 3d 29 7c 2d 3e
       -0.052622933 -0.03956167 0.03679359 0.16941895
000280 33 b8 e6 3d ea 11 1a 3e 9f be 03 3e 2b f1 bd 3d
       0.11265602 0.15045896 0.12865685 0.09274515
000290 d6 83 00 3e 5e 99 87 3d cf fa 98 3d de db 85 bd
       0.12550291 0.06621049 0.07469713 -0.06536077
0002a0 cf db 99 bd e1 a0 e7 3d e6 c1 3d 3e 62 eb b7 bd
       -0.07512628 0.11309982 0.18530998 -0.089804426
0002b0 74 91 e5 bb fb 89 83 3d 79 f7 59 bd b1 03 0b 3e
       -0.0070058648 0.06422802 -0.053214524 0.13575627
0002c0 0b 0d 01 be 7f ba 96 bc 62 dd 0b 3e 1f 36 8a 3d
       -0.12602632 -0.018399475 0.1365867 0.06748604
0002d0 09 59 91 3d 4f 0f ed bd 6e d7 06 be 14 b6 07 bc
       0.0709706 -0.115751855 -0.13168117 -0.008283157
0002e0 44 6e b5 3d a8 c5 07 bd ce 01 f6 bc a7 4a 87 bd
       0.08858922 -0.033147484 -0.030030157 -0.06606036
0002f0 db 0d 4e 3d 83 a4 4b bd 38 16 31 be fb 29 a1 3d
       0.050306182 -0.049717437 -0.17293632 0.07869335
000300 32 9b 87 3d a3 3e 05 3e d0 62 a4 3d a9 2d 94 3c
       0.06621398 0.13012175 0.080266595 0.018088179
000310 2d a6 68 bd e0 f8 5d bb e7 ba 19 bd 10 01 15 3d
       -0.056799103 -0.0033870265 -0.03753176 0.036377966
000320 f4 35 09 be 79 a1 a4 bd 53 30 e2 bd 85 5b b1 bd
       -0.13399488 -0.08038611 -0.11044373 -0.08660034
000330 d7 31 bc bd 92 75 bf 3d 71 2f 38 3d 36 03 11 be
       -0.09189194 0.09348597 0.04496712 -0.14161381
000340 7a 39 3b 3d ed 2e 28 bb 9d d9 21 3e 04 ae 83 3c
       0.04570911 -0.0025662736 0.15805669 0.016074188
000350 2d 3b c3 bd 3b 13 e2 bd 88 ae b3 3d 38 93 58 bc
       -0.09532771 -0.11038824 0.087735236 -0.013218693
000360 f2 a0 87 bd c2 d0 a8 3d a5 3c 94 3d 6f c1 c6 3d
       -0.06622495 0.082429424 0.072381295 0.09704863
000370 63 18 12 be 84 d6 83 3d 6d d9 9c 3d 17 87 07 3e
       -0.14267115 0.064374 0.07658658 0.13235126
000380 77 1d b7 3d 65 64 57 bc 88 f4 f3 bd 53 3d 09 3e
       0.08941167 -0.0131464945 -0.11911875 0.134023
000390 72 05 5e 3d 28 14 c5 3c 7f 34 21 be ae 44 02 be
       0.05420441 0.024057463 -0.15742682 -0.12721512
0003a0 a5 89 bb 3d c6 b8 9d 3d bc ad 9a bd b2 ce 84 bd
       0.09157113 0.07701258 -0.075526685 -0.064847365
0003b0 25 12 df 3d d6 48 b6 3c fa f8 cb 3c 29 d0 d4 bd
       0.10892133 0.022251528 0.024898995 -0.10391266
0003c0 74 7b df 3c 0a 55 d2 3d e4 f9 67 bd 2f 2b be bc
       0.027280547 0.10270126 -0.0566348 -0.02321395
0003d0 a5 1c a7 bd 38 f9 ad 3d 2c 50 4a bd 6d 1c 82 bc
       -0.081597604 0.084948 -0.049392864 -0.015882695
0003e0 9c 09 d3 3d c7 0d 10 3d e9 2f 98 bd 45 4d 6e 3d
       0.10304567 0.03516939 -0.07431013 0.05817916
0003f0 d0 5e 46 3a 67 19 4d 3d 71 fb ad bd c6 fa ca bd
       0.0007567229 0.050073054 -0.08495224 -0.099111125

shared2.bias f4 [200]
000000 2f e8 6a 39 03 15 91 3c 9a 77 c8 3b 7e f9 5b bd
       0.00022402474 0.017710214 0.0061177732 -0.05370473
000010 d7 9d 1b 3d ab f4 b6 3d 9c 0a cb bd eb 0f bf bd
       0.037992325 0.089333855 -0.09914133 -0.09329208
000020 52 b9 0c bd 33 3c 06 bd cf 48 49 3c 5b 7c e1 3c
       -0.034356423 -0.032772254 0.012285425 0.027525118
000030 c3 af 5c 3c a4 f0 24 3d bb e3 60 bc 43 23 81 bb
       0.013469639 0.040268555 -0.01372617 -0.003940971
000040 96 1b 9d 3b 63 a4 d5 bd 9a 0c cc 3c cd 6a 71 bd
       0.0047945483 -0.10431745 0.024908353 -0.058939744
000050 21 61 7d 3d ea e2 d4 bb 45 9f 44 3d 72 9c 7f bd
       0.061860207 -0.006496777 0.048003454 -0.062405057
000060 c3 b4 8c bd 7a f4 eb bd 6c 6c c4 bc b4 81 60 3d
       -0.06870415 -0.115212396 -0.02397748 0.054811195
000070 64 cd 8e 3d c4 e5 2c bd 7b 2a 81 bd b5 fa 94 bd
       0.06972769 -0.04221131 -0.06306931 -0.07274381
000080 cc 1d 31 3d be 20 f5 3b 32 f5 30 3c 23 6f 0c 3d
       0.043241307 0.00748071 0.010800647 0.034285676
000090 44 8c 6e bd 84 4a 75 3d ad fe 8d 3c 30 4d c3 3b
       -0.058239236 0.059885517 0.017333353 0.005960129
0000a0 24 60 dc 3c 83 97 a3 3c 6c 78 30 bd 1b 79 ca 3c
       0.026901312 0.019969707 -0.043083593 0.02471595
0000b0 c4 d6 c0 3d fe ce b8 3c dd 67 2d 3d 15 5c a4 bc
       0.09415963 0.022559639 0.04233538 -0.02006344
0000c0 21 8c 81 bd aa 67 d0 bd a9 67 9c bd a7 9e c6 bb
       -0.063255556 -0.10176022 -0.07636959 -0.0060613933
0000d0 30 f3 37 3d 04 13 a1 bc 59 b6 af bb ae 2b 1b bd
       0.044909656 -0.019662388 -0.0053623137 -0.037883453
0000e0 dc e0 80 bc 45 06 1e 3d 0b 29 6d 3c 25 ab 4a 3b
       -0.015732221 0.038580198 0.014475117 0.0030924764
0000f0 7a 88 19 bd 81 ad 01 3c cf ae 82 bc 53 f7 b3 3c
       -0.03748367 0.007914902 -0.015952496 0.02196852
000100 ee 6d ba bc ca 26 b3 bc 75 cb 24 bd e3 93 7d bd
       -0.022757497 -0.021869082 -0.040233094 -0.061908614
000110 9d cf a8 3d 58 3d 5b 3d 7c 37 8c bd f6 df e7 3c
       0.08242724 0.0535253 -0.0684652 0.028305035
000120 eb 15 51 3d 52 11 8c 3b e8 18 81 3c 79 1c a3 bc
       0.051046293 0.0042745257 0.015758947 -0.019911038
000130 f7 ab ca bd b2 38 f3 3c e1 c6 14 bd 1b de d3 bd
       -0.09896081 0.02969012 -0.03632248 -0.10345098
000140 46 a0 de bc 45 44 c3 bc af 5f 2e 3a 70 ee a7 3c
       -0.027176034 -0.023836264 0.0006651831 0.020499438
000150 7e 1e 13 3d 9e 90 a9 bd 3f fb 4a bd c0 02 00 bd
       0.03591775 -0.08279537 -0.049556013 -0.031252623
000160 9b fe 8c bc 8e b6 1f 3d 9a 85 3e 3b 2c 7f 81 bc
       -0.01721125 0.038992457 0.0029071332 -0.01580771
000170 4e f2 07 3d a2 80 b6 bd ef 3a 76 bd 02 49 71 bd
       0.033190064 -0.089112535 -0.060114797 -0.058907516
000180 6f ec 9b 3d b2 c7 4f bc 3d 67 a3 bd 64 85 ed bb
       0.076134555 -0.012681888 -0.079786755 -0.0072485674
000190 26 9d 5c 3d f1 60 a0 3c e0 7d cb bd 43 6c 82 bd
       0.053860806 0.019577475 -0.09936118 -0.063683055
0001a0 39 4a 3b 3c 2c 67 2f 3d ed 8c 99 3a ae 32 12 bd
       0.01143127 0.042823 0.0011714973 -0.035692863
0001b0 ab e9 c6 bd 63 7b 16 bd 8e 3a 09 bd e0 00 96 3c
       -0.097125374 -0.036738764 -0.033503108 0.018310964
0001c0 36 76 e6 bc f2 a9 7b bb 72 1d c8 b7 7c 8b 45 bd
       -0.02813254 -0.0038400856 -2.385557e-05 -0.048228726
0001d0 58 09 88 bd a3 b1 ad 3d f4 11 b6 b9 98 2f da 3c
       -0.06642407 0.08481147 -0.0003472712 0.026634023
0001e0 93 f8 a7 3d b6 c4 d1 bd ff 2e 7b 38 f8 00 a4 ba
       0.08201709 -0.10242598 5.9886832e-05 -0.0012512496
0001f0 5d 86 a0 bc e2 79 de 3c ad 83 d9 3c c3 5b 80 bd
       -0.01959532 0.027157728 0.026552046 -0.06267502
000200 98 d5 a9 3c f4 d5 f6 bd 44 0c 03 3d 08 d0 85 3d
       0.020731732 -0.12052527 0.03199412 0.065338194
000210 83 93 04 be ce 40 00 3d ff b0 3c bc d9 ce 56 bd
       -0.12946896 0.031311803 -0.0115168085 -0.05244336
000220 29 0a 09 bd 94 b3 5e bc e7 af 30 bd 14 4f 23 bc
       -0.033456955 -0.013592619 -0.043136504 -0.009967584
000230 28 64 35 bd a3 63 67 3c 08 87 e2 bd 1f e1 88 bd
       -0.04428497 0.014122876 -0.110609114 -0.066835634
000240 aa 7f 65 3c e3 7b fe bc a9 f1 cd ba 1d cd d1 bd
       0.014007488 -0.031064933 -0.0015712279 -0.102442004
000250 9a 4b 5d 3d ef bf aa 3c 73 f9 3b bd ea 8f 30 3d
       0.054027177 0.020843474 -0.04589219 0.043105997
000260 88 1a 78 bd a9 08 b4 bc c3 09 bd 3d 3f 26 85 3d
       -0.060572177 -0.021976786 0.092303775 0.065014355
000270 9e a8 03 be 25 a3 f4 3c 0b 47 0e bd b3 d1 f6 bd
       -0.12857291 0.02986295 -0.03473572 -0.12051716
000280 fd 83 0d ba f8 e5 b3 bd e1 77 a0 3c 68 73 b7 bc
       -0.0005398391 -0.087840974 0.019588413 -0.022393897
000290 d1 89 5c 3b 94 8e 53 bd c9 4f d8 3b 34 6a 03 bd
       0.003365148 -0.051649645 0.006601308 -0.032083705
0002a0 7a 5e 40 3d a7 99 81 3c bf 05 13 3d 22 14 da bc
       0.0469651 0.015820337 0.03589415 -0.026620928
0002b0 17 2e 17 bd f6 e0 2e bd 83 10 d1 3c a1 ce e7 bb
       -0.03690919 -0.04269501 0.025520569 -0.0070741926
0002c0 8c f0 0f bd c6 7e 8e 3d 5d 88 ac 3c 2f a2 bb 3b
       -0.035141513 0.06957774 0.021061117 0.005726121
0002d0 23 5d 78 bd 06 1c fe 3c c9 ce 76 bd 91 4c 22 3d
       -0.060635697 0.031019222 -0.0602558 0.0396238
0002e0 33 d2 e4 bc cf 6f 9d 3d 42 95 80 bd d8 cb 69 bd
       -0.027932262 0.076873414 -0.06278469 -0.057079166
0002f0 dd 92 0a be 0d 38 65 3d 3e 66 26 3d 45 81 11 bd
       -0.13532586 0.055961657 0.04062485 -0.03552367
000300 69 fd d0 bd f8 22 6a bd 9b d5 67 bd 9a c6 8a 3d
       -0.10204584 -0.057162255 -0.056600194 0.067761615
000310 5e 7f 8b bb b1 6e 3b 3d c1 28 94 3c 81 58 ac bd
       -0.0042571267 0.04575986 0.01808584 -0.08415318

hidden1_Y1.weight f4 [200, 200]
000000 86 62 e1 3d 15 4b f0 bd 65 be 12 bd b4 9e fd 3b
       0.1100512 -0.11733071 -0.035826106 0.007739866
000010 a3 e1 5e bd 09 05 c6 bd 63 43 57 bb d3 60 c5 3b
       -0.054414403 -0.09668929 -0.0032846562 0.0060235052
000020 45 56 30 3e 3f 35 22 3d e0 8b 47 3c c5 80 a1 bc
       0.17220409 0.03960156 0.012179345 -0.019714722
000030 16 b8 c2 bd d5 de 8d 3b 37 56 1f bd 7e d9 36 3d
       -0.09507768 0.004329542 -0.03890058 0.04464101
000040 95 c2 20 bc 54 83 56 3d 7f 72 1f 3d ab 7f d2 bd
       -0.009812017 0.052371338 0.03892755 -0.10278257
000050 57 a1 87 3d e0 f1 b1 3d f0 7d 06 3e 7d 0c ed bc
       0.0662257 0.08688712 0.13133979 -0.028936619
000060 aa 74 5c 3c e7 be a5 bb 27 3e 9c bd 7d 1d 7b bd
       0.013455549 -0.0050581577 -0.07629042 -0.06130742
000070 56 e9 12 3d 44 06 8d 3d b4 74 87 ba 7f f7 34 3d
       0.035867058 0.06885961 -0.0010334463 0.044181343
000080 a5 ea 43 bc c8 4a 42 bd b3 e0 ca 3d 53 dc 93 3d
       -0.011957799 -0.0474346 0.09906139 0.07219758
000090 7b 64 b9 3d 40 79 8e 3d 23 e3 83 3c bb 5a d8 bd
       0.09052368 0.0695672 0.016099518 -0.105641805
0000a0 3b 8d 1f bd 19 75 82 bd a6 e6 ac bc f1 69 cb bd
       -0.038953047 -0.06369991 -0.021106075 -0.09932316
0000b0 3e a3 a1 bd c5 93 33 3c f0 33 69 bd 30 58 e5 bd
       -0.07892464 0.010960524 -0.056934297 -0.11198461
0000c0 35 fe 64 bd 29 77 7f 3d 49 f4 0b 3e a2 9c 99 3d
       -0.055906493 0.0623695 0.13667406 0.075005785
0000d0 a9 79 0a bd fc e0 91 3d a5 c2 9b bd 1e e9 68 bd
       -0.03380743 0.071229905 -0.07605485 -0.056862943
0000e0 40 ca d3 3d 68 0e 11 bd 48 96 42 bd 94 19 c9 3c
       0.103413105 -0.03541413 -0.0475066 0.02454833
0000f0 ff d5 aa 3a c8 99 73 bd 54 de b2 3d cd 27 f8 3d
       0.0013033747 -0.05947283 0.08733812 0.121169664
000100 6c 52 d9 bc d2 e9 dd bc 51 75 7e bd 12 17 7a bd
       -0.02652856 -0.027089033 -0.0621236 -0.061057158
000110 7b fd 99 3d 9b f3 d1 3d 5b d6 e1 3b 86 51 9c bd
       0.07519051 0.10251542 0.0068920082 -0.07632737
000120 0c f4 76 3c a1 59 e5 bb 3a 92 42 bd 12 46 cf bd
       0.015072834 -0.00699921 -0.047502734 -0.10120787
000130 4e a3 4c bc 57 9a 42 bd 21 52 02 3e 95 9c bd bd
       -0.012490107 -0.04751047 0.12726642 -0.09258381
000140 cc ca b4 3d 03 ab b3 3b f7 15 c2 bd 04 a7 07 bc
       0.08827743 0.0054830327 -0.09476846 -0.008279566
000150 96 03 a6 3c e0 0b fb bc ea 68 ac 3d 90 6f a7 bd
       0.020265382 -0.03064531 0.08418448 -0.08175576
000160 59 55 db bd 98 6c 09 be 5c 23 97 3d a0 b6 81 bd
       -0.10709638 -0.13420331 0.07379791 -0.06333661
000170 73 95 cf bd af ad 29 bd fc cc f8 3c 94 0c 00 be
       -0.10135927 -0.041425403 0.030371182 -0.12504798
000180 3d be 5c bd 3f c1 82 bd 31 93 b1 bc bb 77 d1 bd
       -0.053892363 -0.06384515 -0.021676632 -0.10227915
000190 78 28 21 bc 20 e1 cc 3d a6 b3 ab 3b 82 a1 89 bd
       -0.009836309 0.10003877 0.0052399216 -0.06720258
0001a0 1f d8 30 bd b2 d9 f6 3d 43 07 e2 3d eb 1c 25 3d
       -0.04317486 0.12053241 0.11036541 0.04031078
0001b0 d0 83 e8 bd 47 28 89 bd 46 62 cc bd 78 25 fd 3d
       -0.11353266 -0.066971354 -0.09979682 0.12360662
0001c0 cb 0c f7 bd f9 90 09 bb 98 65 06 bb 08 40 61 3d
       -0.12062987 -0.0020990951 -0.0020507332 0.054992706
0001d0 60 75 c6 3d 87 8e 42 bc 5a 6b ed ba a7 9e 1e 3d
       0.09690356 -0.0118748015 -0.0018113658 0.03872552
0001e0 76 71 66 3d 0d ee f5 bc 40 7c c9 bb 80 2d ae 3d
       0.05626055 -0.030020738 -0.006148845 0.08504772
0001f0 6d 2a 6c bd 42 3a a5 3d 1d ef c2 3d 03 ee 20 3c
       -0.057657648 0.080677524 0.095182635 0.009822371
000200 0f f1 dd 3c e2 22 83 3d 21 13 35 3d 94 b2 1c 3d
       0.027092485 0.06403138 0.044207696 0.038256243
000210 34 76 60 bd 48 f3 8f bd 57 fe 0f bd 47 4c 91 bd
       -0.054800227 -0.07028824 -0.035154667 -0.07094627
000220 55 c9 a7 3d 98 da fc 3c 11 69 bc 3b 92 4f de 3d
       0.08192698 0.030865952 0.0057498296 0.108550206
000230 58 95 dc bd a3 16 a7 bd 45 c4 68 bd 23 5a 0d bd
       -0.107706726 -0.081586145 -0.056827802 -0.03450979
000240 58 28 a9 bc db 54 a4 bd fb 03 42 3d e6 4f 46 3d
       -0.02064912 -0.080239974 0.047367077 0.04841604
000250 09 df 43 bd fd 3d be 3d 91 55 02 be c8 9c f9 3c
       -0.047820125 0.09289167 -0.12727953 0.030470267
000260 0a 8b d1 bc dd 94 c5 bd a0 2f cb bd 82 e5 be 3d
       -0.025578994 -0.09647534 -0.09921193 0.09321119
000270 13 8a 9b bd e9 6b 09 bd 55 f0 91 bd f7 47 b0 bd
       -0.07594695 -0.033550177 -0.07125918 -0.08607476
000280 83 66 23 3e 8e 47 a8 bb ff d1 d2 3d 7b 87 a8 3c
       0.15957074 -0.005135483 0.1029396 0.020572415
000290 03 c0 f6 3d 0f d8 26 3d 07 84 b7 bc 46 88 f3 bc
       0.12048342 0.040733393 -0.022401823 -0.029728066
0002a0 ef 30 ca bc 76 b8 8a bd be 37 8a bd c6 7c 95 3c
       -0.024681536 -0.067734644 -0.06748913 0.018247973
0002b0 2d 6d 2a 3d 88 ef b9 3c 27 73 0a 3d d2 31 44 bd
       0.041608024 0.022697225 0.033801224 -0.047899075
0002c0 cf f2 42 3d 64 8d 78 3d 52 ea ad bd 32 65 0a 3e
       0.04759484 0.060681716 -0.08491959 0.13515165
0002d0 4e b0 64 bd fa 22 35 3d c2 56 da bc 75 60 98 3d
       -0.0558322 0.04422281 -0.026652697 0.07440273
0002e0 aa 0e f3 3d d4 84 3d bc 02 16 a5 3d 81 1e d6 bd
       0.11868031 -0.011567313 0.08060838 -0.10455037
0002f0 06 bb a1 3d a3 6a e1 bd ac a4 d1 3d 49 8f eb 3d
       0.07897 -0.110066675 0.10236487 0.11501939
000300 6e f0 d4 3d cf df 83 3d f0 43 d6 bd 01 4c 00 be
       0.10397421 0.064391725 -0.10462177 -0.12528993
000310 59 e7 39 3d c7 1b c0 bd d7 c1 38 3d 9c b0 c0 3d
       0.045386646 -0.09380298 0.045106735 0.094086856
000320 11 61 43 bd a7 a4 d5 3c c9 6e 22 3d 4e 4a 80 bd
       -0.04769999 0.026079489 0.039656434 -0.062641725
000330 99 c1 c1 bc 0f 21 fa bd 9b 17 46 3d c0 e5 8e 3d
       -0.023651885 -0.12213337 0.048362356 0.06977415
000340 ed d9 40 bd a2 81 68 3d ec cd d9 3d 73 91 63 bd
       -0.04708283 0.056764252 0.106349796 -0.055558633
000350 b0 17 02 be 19 48 a4 bd 65 ed c3 3c 19 d3 7f bd
       -0.12704349 -0.08021564 0.02391691 -0.062457178
000360 d7 a1 49 3d 28 42 fe 3d 48 44 4b 3d 0e 48 8d 3a
       0.049226608 0.12414962 0.049625665 0.001077892
000370 d8 ef 85 bd 6c 93 a4 bd 8a c6 99 3d 0a f4 89 bd
       -0.06539887 -0.08035931 0.075085714 -0.06736
000380 22 70 c0 3d cf da ce 3d 88 05 fe bd b5 60 13 bd
       0.09396388 0.10100328 -0.12403399 -0.0359809
000390 23 d2 63 bd 60 33 96 bc 53 84 23 bd e7 9f 5d 3c
       -0.055620324 -0.018335044 -0.039921116 0.013526893
0003a0 bb 84 e3 3d db 32 88 bd 33 cc 01 be 0b fb 11 3d
       0.11109301 -0.06650325 -0.12675552 0.035639804
0003b0 a4 9d e7 bc 02 d8 0c 3d 80 8d d2 3d dc 56 2e bd
       -0.028273411 0.03438569 0.10280895 -0.042563304
0003c0 78 fa 8e 3d 93 dd 98 bd 04 73 9c bd 23 2c c3 3c
       0.06981367 -0.07464137 -0.07639125 0.023824757
0003d0 5a ba dd 3d 53 b0 fc 3c 7b 8a b0 3d 6b b4 8e 3d
       0.10826559 0.030845797 0.08620163 0.06968006
0003e0 81 f4 c7 3d 86 8a a0 3d f6 25 1b 3d 06 ec aa bd
       0.09763432 0.07838921 0.037878 -0.08345799
0003f0 1e 75 4f bd c2 b0 c9 3c 95 10 ef 3b 78 df e9 3d
       -0.0506488 0.024620418 0.007295678 0.114195764

hidden1_Y1.bias f4 [200]
000000 dd 2b fb 3c fd b8 1b 3c aa 8e 1d bd 72 94 75 bd
       0.030660564 0.009504554 -0.038466133 -0.05995602
000010 46 fb 8d 3b 54 e0 72 3d 8f 97 22 3c 73 21 94 bb
       0.0043329326 0.059295967 0.00992383 -0.004520589
000020 b0 6c 08 bd f6 9e 11 3d 09 19 ab bc 4a 49 4f bd
       -0.033306777 0.035551988 -0.020885961 -0.050607003
000030 d7 40 6d bd 0b 44 23 bd 39 34 4c ba 55 a7 0a 3b
       -0.057923164 -0.039859813 -0.0007789764 0.0021156867
000040 0f 4e 33 bd 85 9d d9 3c 01 43 8c b9 cb 71 36 bd
       -0.043775614 0.026564369 -0.00026752803 -0.044542115
000050 5c a9 2e 3d 40 8e 7c 3d 1c d1 2f bd 4e e9 31 3d
       0.042641982 0.061659098 -0.04292403 0.043435387
000060 53 24 52 3c ed 11 51 bd be b5 27 bd 2f ff 81 bc
       0.012826043 -0.051042486 -0.040944807 -0.015868751
000070 78 88 b1 bc 37 e9 b6 bb 8c 00 ec bb 2b 6b 95 bd
       -0.021671519 -0.0055820006 -0.0072022136 -0.07295831
000080 a4 02 fa 3b 4a f9 0a 3d ff 0e 86 bc 90 10 42 bd
       0.0076297093 0.033929147 -0.016364573 -0.047379076
000090 3f 3c fb 3b d8 f0 37 3c 5a 89 a1 3c 51 2e 59 bd
       0.007667094 0.011226855 0.019718815 -0.053022686
0000a0 9a 8f 70 bd 51 0d 3e 3b aa 6e d5 bc e5 00 17 bd
       -0.0587307 0.0028999636 -0.026053745 -0.036866087
0000b0 09 de 74 3d 77 b5 a9 3b 12 0f 96 bc 5e b9 90 bc
       0.05978206 0.005179103 -0.018317733 -0.017666515
0000c0 b1 96 d0 bc fa 7c 2c 3d 7e d7 bc bc ad b5 6c bd
       -0.02546248 0.042111374 -0.023051973 -0.057790447
0000d0 1b 41 63 bd 1d d6 31 bd 92 01 02 3d 34 bd df bc
       -0.05548201 -0.043417085 0.03173978 -0.027311899
0000e0 1b bd 52 bc d9 da ea 3c 34 80 69 bd 35 94 92 bd
       -0.012862469 0.028668808 -0.05700703 -0.071571745
0000f0 55 8b d2 bc 04 e3 55 3d 22 ed 81 3d 87 e0 18 bd
       -0.025701204 0.052218452 0.063440576 -0.0373235
000100 63 15 a9 bc 18 d1 84 bd d4 cf 49 3d 33 bd 15 3a
       -0.02064008 -0.06485194 0.049270466 0.0005712092
000110 ba 21 3c bd d5 67 fa bc 43 5c 24 bc fb b6 22 3d
       -0.0459306 -0.03056709 -0.0100317625 0.039725285
000120 c2 41 12 bd 46 a1 82 bd d5 8f 26 3d 20 c3 03 3d
       -0.035707243 -0.06378417 0.040664513 0.032168508
000130 1a 48 5e bc ec e2 5f bd 59 5e 30 bd f9 10 73 bc
       -0.013566995 -0.05465977 -0.043058727 -0.01483559
000140 1f f9 1a 3d 21 f3 1d 3d e5 75 5b bc 22 28 95 bc
       0.037835237 0.038561944 -0.013394807 -0.018207613
000150 e9 30 a0 bc 84 a1 3c 3d 5d 1a 34 3d c3 65 08 bd
       -0.019554572 0.04605247 0.043970454 -0.033300173
000160 4d aa 2c bd 63 e2 8f bb bb 27 d2 3c 69 a1 04 3d
       -0.0421546 -0.004391001 0.02565371 0.032380495
000170 84 76 99 bd 37 21 d2 ba f0 38 94 3c 46 c6 88 bc
       -0.07493308 -0.0016031627 0.018093556 -0.016696107
000180 ff 55 25 bd e1 75 95 bc b3 a9 0e 3c ce ba 83 bd
       -0.040365215 -0.018244686 0.008707452 -0.064321145
000190 67 96 92 bd a0 a6 0c bd 82 db 43 bd e1 0f 18 3d
       -0.07157593 -0.034338593 -0.04781676 0.03712452
0001a0 26 26 60 3d b3 ce 00 bc 85 4c 58 bd eb 1a fc bc
       0.05472388 -0.007861781 -0.05280735 -0.030774554
0001b0 43 3c 03 bd 33 20 31 3d b0 50 5b bd 1a 6a fc 3c
       -0.032039892 0.0432436 -0.053543746 0.030812312
0001c0 4b f5 d5 3c a7 ec 89 3d b1 17 0e bd 9b e8 3f 3d
       0.026117941 0.06734591 -0.034690563 0.04685269
0001d0 90 cb 3f 3d f6 96 58 bd 1e 90 a0 3a 16 78 01 bc
       0.04682499 -0.052878343 0.0012249982 -0.007902166
0001e0 c2 52 7d bc 19 dd 92 3c 02 41 29 bd ff bf a7 3b
       -0.0154616255 0.017927693 -0.041321762 0.0051193233
0001f0 70 8a 68 bd b3 60 ec 3c b6 96 67 3d bf 01 f5 3b
       -0.05677265 0.028854704 0.056540214 0.007477015
000200 07 40 cd 3c d7 55 a6 bd 29 ef 03 bd c7 bf 92 3c
       0.025054945 -0.081218414 -0.032210503 0.017913712
000210 f8 c3 ed bc b6 98 1b bb b9 2e 0a bd bd 0b c9 3c
       -0.02902411 -0.0023742146 -0.033735964 0.02454173
000220 39 34 b4 3c 31 27 1e 3d a7 93 76 3c 7a 5e a5 3c
       0.021997558 0.038611595 0.0150498515 0.020186651
000230 9f 11 b5 bc ef a3 24 3d d2 5a d5 3b d8 ac 9f bd
       -0.022103129 0.0401954 0.0065110708 -0.07796639
000240 5e 31 a5 bc f4 78 90 3d 21 95 66 bc a3 cd fa bc
       -0.020165142 0.0705432 -0.014073641 -0.030615633
000250 28 15 50 3d 22 de 82 3c f5 27 e7 bc 99 21 5d 3d
       0.050801426 0.015975062 -0.028217295 0.05398712
000260 e7 de 88 bd 1c c7 36 3d 14 f3 0a 3d fe d5 3a 3d
       -0.0668314 0.04462348 0.033923224 0.045614235
000270 f4 f2 4c 3d 42 57 8d 3c 06 49 65 3c bb ab 81 bd
       0.050036386 0.017253522 0.013994461 -0.06331583
000280 74 a6 a0 3c df bb 9a 3c 4c 04 7f bd cc f1 8a bd
       0.019610621 0.018888412 -0.062259957 -0.067844
000290 1c d0 86 bd a8 df 2a bd 2b 73 27 3d 52 06 1b bd
       -0.065826625 -0.0417172 0.040881317 -0.037847824
0002a0 53 6c 6b bd 11 47 1c 3d ab 1a b0 3c 43 85 00 bc
       -0.057476353 0.03815371 0.021497091 -0.007844272
0002b0 a9 ca 18 3d b0 22 16 bd 19 9c 8c 3b 96 13 bf 3c
       0.037302647 -0.036654174 0.004291069 0.023324769
0002c0 4f b9 6e bc 03 a4 33 3d 16 b7 a0 3c 2d 28 28 3c
       -0.014570548 0.043857586 0.019618552 0.010263485
0002d0 47 c1 97 bb 77 ae 39 3b a9 0f 85 bd 5b e9 8b bd
       -0.0046311948 0.002833275 -0.064971276 -0.068316184
0002e0 5e 6b 33 3d 2d 91 42 3d 86 27 c6 3d aa 2a bf bc
       0.043803565 0.04750173 0.09675507 -0.023335773
0002f0 a0 d7 36 3d 22 88 3a bc ce 2c 2f 3d 61 23 42 3c
       0.04463923 -0.011384996 0.04276734 0.011849255
000300 b4 62 47 bd bd d7 16 bd d3 ef d4 bc 67 b4 8e 3c
       -0.048678115 -0.036826838 -0.025993263 0.017420007
000310 6b 49 a1 3d 81 bb 47 bd c1 1d 2d 3d ef a1 00 bd
       0.078753315 -0.048762802 0.042264704 -0.031404432

hidden2_Y1.weight f4 [200, 200]
000000 c7 8f 5e bc aa c0 6a bd 40 1a c6 3d 52 c1 e0 3c
       -0.013584084 -0.057312645 0.096729755 0.027435932
000010 ea 0a a9 3d 36 2d b7 bd 7a 0a b0 3d 47 d2 2d bd
       0.08254035 -0.0894417 0.08595748 -0.042436864
000020 e3 f8 0a 3d 85 e8 f4 bc 70 81 06 3e 4a 45 92 3d
       0.033928763 -0.02989603 0.13135314 0.07142122
000030 8f 8b ca 3d f2 39 b9 bc 8f 96 13 3d ed bc 17 bb
       0.098899 -0.022610638 0.036032256 -0.002315338
000040 9b 47 17 3e fc 17 d0 3d 12 52 5b bc 8b ee 98 3d
       0.14773409 0.10160825 -0.013386266 0.074673735
000050 e4 74 ac bd a4 4f 25 bd a1 be 92 3c 8e 01 e6 3c
       -0.084207326 -0.040359154 0.017913165 0.028076913
000060 17 47 11 3d e4 a9 7d ba 62 2e 21 bd ab 8d 1f 3d
       0.035468187 -0.00096765 -0.039350875 0.038953464
000070 be f9 8d bc 96 35 97 3d 9e b6 9e 3c ff c4 ab ba
       -0.017331 0.073832676 0.019374188 -0.0013104974
000080 0d 68 be 3d b7 f6 c7 bc 97 e2 ba bd 03 8f 06 3c
       0.0929719 -0.024409635 -0.0912525 0.008212808
000090 8a e5 f7 bc 81 9d 64 bd ae a1 09 3e 26 d3 20 bd
       -0.03026082 -0.05581427 0.13440582 -0.039263867
0000a0 26 05 bc bc 3c 95 23 bd 4c 8a a2 3d f4 f1 34 bd
       -0.022951674 -0.039937243 0.07936534 -0.044176057
0000b0 a0 43 17 bd 91 a5 84 bd a0 1a c2 bc 0e 2d 44 3d
       -0.036929727 -0.06476892 -0.023694336 0.04789453
0000c0 a7 6c bd 3d 6d 79 9d bc bc d7 0a bd 04 59 58 bd
       0.092492394 -0.01922294 -0.033897147 -0.052819267
0000d0 a2 7d b5 3b 23 a1 c3 bd 8b 4c 07 3d e1 1c a0 3d
       0.0055386582 -0.09552219 0.03303198 0.07818008
0000e0 13 9c ee 3c b2 67 c2 bd ed bf 5e bd 71 9d 8c bd
       0.029127156 -0.094924346 -0.054382253 -0.06865967
0000f0 87 10 e2 3c 4e 03 a4 3d 48 75 bd bd d0 9b c7 3d
       0.027595771 0.08008443 -0.09250885 0.09746516
000100 80 a1 8f 3d 81 9e f4 bd 45 70 b9 3d f6 ca d1 3d
       0.070132256 -0.11944295 0.09054617 0.1024379
000110 d5 df 28 3d c9 20 15 3e 94 79 4d b9 66 5e 02 3e
       0.041229088 0.14563288 -0.00019595615 0.12731323
000120 d5 28 8a bd d5 3b 98 3d e1 ac cb 3c f9 39 bf bd
       -0.06746069 0.07433287 0.024862709 -0.09337229
000130 27 86 5a 3d 51 c2 9d bc a5 c0 f6 bd f4 bf 5f 3d
       0.053350594 -0.019257696 -0.12048463 0.05462642
000140 90 36 93 bd 56 35 f6 3d 7f 72 93 3d f5 fc 8e 3d
       -0.07188141 0.12021892 0.07199573 0.069818415
000150 a3 e3 9e 3d b3 f0 c3 3a fc 16 0a 3d 91 23 e5 bd
       0.07758262 0.0014949053 0.033713326 -0.111884244
000160 b2 e8 09 bc ed fe ce bc 91 ce 02 3e d5 5d b0 bd
       -0.008417295 -0.025268042 0.12774111 -0.08611647
000170 07 d0 49 3d 65 4a b4 3d 36 1c 9c bd db 7b d3 3d
       0.049270656 0.08803252 -0.07622568 0.10326358
000180 e4 55 8e bd f9 67 42 bd 7b 89 d4 bd d4 af 3c 3d
       -0.06949976 -0.047462437 -0.10377785 0.04606612
000190 4c 59 98 bb 3d 71 00 3e 8e 84 9a 3b f4 44 02 bb
       -0.004649317 0.12543197 0.004715509 -0.0019877525
0001a0 bf f8 af 3a 0f 32 1c 3d 9d 49 1b 3c 14 ec a2 3c
       0.0013425573 0.038133677 0.009478 0.019887961
0001b0 d9 1a d4 bd ad 0e b0 bc 1b 60 e4 bd 60 6a 0c bb
       -0.10356683 -0.021491373 -0.11151143 -0.002142571
0001c0 76 2a 49 bd 4c 84 3f 3d cc 0f 8d bd ee 54 71 3d
       -0.04911276 0.046757028 -0.06887779 0.058918886
0001d0 89 a5 3a bd 9f 6e e9 3d 63 75 65 3d c7 45 10 3e
       -0.045568023 0.113980524 0.05602015 0.14089118
0001e0 8d 91 96 bd 9c f7 ef 3d db 93 0b 3e 9d 49 0e bd
       -0.0735198 0.117171496 0.13630621 -0.03473817
0001f0 1c 71 36 bd 03 6e 89 3d 41 04 95 bd 66 18 d1 bd
       -0.044541463 0.06710436 -0.07276202 -0.10209732
000200 33 ea 01 3d af 55 46 3c d5 d8 e5 3d 46 64 27 3d
       0.03171749 0.0121053895 0.11222998 0.040867113
000210 ac 92 e9 bd b9 f6 2f 3d 40 11 9c 3d 76 5e 0b bd
       -0.114049286 0.042959902 0.07620478 -0.03402563
000220 ed 1d b5 bc fc f4 8a bd bf 8e a7 3d a6 73 70 bd
       -0.022108996 -0.06785008 0.081815235 -0.05870404
000230 7c 12 96 ba fb 1d 84 3d 87 48 94 bc af c6 19 3d
       -0.00114496 0.06451031 -0.01810099 0.037542995
000240 70 c0 fd 3c 4e 6d df 3d 01 b9 43 bd 24 16 0b bd
       0.03097555 0.1090952 -0.047783855 -0.03395666
000250 e5 29 57 bd 39 f5 bd bd 3d d3 e5 3d ef fe 43 3d
       -0.052530188 -0.09275288 0.11221931 0.047850545
000260 99 96 c5 3d 16 97 ea 3d 50 89 3f 3d 04 86 f5 bd
       0.09647865 0.114545986 0.04676181 -0.11988452
000270 be 24 3d 3d c0 dc af bc bf 7d 9f 3c fa 0c 2f 3d
       0.04617762 -0.021467566 0.01946914 0.042736985
000280 ac 87 ca 3d a0 d2 f0 bd 22 6b e5 bd ea 74 66 bc
       0.098891586 -0.117589235 -0.112020746 -0.01406596
000290 af b2 aa 3b de d6 83 bc 66 ae ef bd d4 04 d4 bd
       0.005209289 -0.016093668 -0.11703186 -0.103524834
0002a0 85 9e ed 3d bf 92 96 bb 97 b4 1f 3d fa 49 6b bd
       0.11602501 -0.00459513 0.038990583 -0.057443596
0002b0 2e f3 a7 3d b1 c4 db 3c 44 d5 74 3d b9 ec dc 3d
       0.0820068 0.026827188 0.0597737 0.10787339
0002c0 27 bc 31 bd b1 59 ac 3d dc 01 7d 3d 28 39 e6 3d
       -0.043392327 0.08415545 0.06176935 0.112413704
0002d0 68 58 c0 3d dc 5f b6 39 f4 22 d3 3d d3 59 53 3d
       0.09391862 0.00034785166 0.10309401 0.051599335
0002e0 f4 1f a3 3d c5 2e 46 bd 1f 47 61 3d a7 66 a1 bd
       0.07965079 -0.048384447 0.054999467 -0.078809075
0002f0 55 e9 a7 3d 65 23 2a bc e8 ea 3e 3d 6c 17 f8 3c
       0.081988014 -0.010384415 0.046610743 0.030284606
000300 73 69 56 3d 9f f9 c3 bd 58 a0 d6 3d 03 79 a3 bd
       0.052346658 -0.09569096 0.10479802 -0.079820655
000310 5c e0 88 3d 41 ef 61 3d ea e0 cf 3d 22 95 10 3e
       0.06683418 0.05515981 0.10150321 0.1411939
000320 6a c0 f1 bd 72 7b ad 3d a0 6f 9a bd 49 e0 de bc
       -0.11804278 0.08470811 -0.07540822 -0.027206557
000330 a1 f2 1e 3c fb 30 82 3d 20 be ed 3d a6 8b f7 3d
       0.009701402 0.063569985 0.11608529 0.12087183
000340 ca ab b1 3d 20 2d 9b bb 48 bf b2 bd 74 d1 87 3b
       0.08675344 -0.004735604 -0.0872789 0.004144842
000350 4a e2 9d 3d 5f 23 c0 3d 0c a0 3a bd e3 a2 89 3d
       0.07709177 0.093817465 -0.04556279 0.06720521
000360 7c 01 83 3c 97 f6 80 3d dc 5d b2 3d 52 5a 08 bd
       0.015991919 0.06297033 0.087093085 -0.03328926
000370 6c be b3 bc f0 fd f2 bd f8 f5 d4 3d b2 90 35 3d
       -0.021941386 -0.11864841 0.10398477 0.044327445
000380 8f 62 69 3c 1e 60 a8 3d 76 c9 68 3b 04 76 f6 3d
       0.01424469 0.08221458 0.003552047 0.120342284
000390 2a 86 60 3d 8d d3 c4 3d 0a 57 21 3d 7e e3 f5 3b
       0.05481545 0.096106626 0.039389648 0.007503926
0003a0 26 4c b8 bc 76 63 d9 3c 29 8f 93 bc bf ec c3 3d
       -0.022497248 0.026536684 -0.0180126 0.0956664
0003b0 51 70 d6 bd 0d 92 7d 3c 00 84 ee bd 7c 46 ed bd
       -0.104706414 0.015476716 -0.11646271 -0.115857095
0003c0 a7 ed 81 3d 33 42 fc 3c 0a 0e a1 3d 4b 52 bf bd
       0.06344157 0.030793285 0.07864006 -0.09341868
0003d0 1e a1 8b 3d 26 5f 89 3d 92 74 c5 3d 16 44 a0 3d
       0.0681784 0.06707601 0.09641375 0.07825486
0003e0 85 76 80 3d 31 1c a5 bc b2 74 f5 bd 90 79 f9 bc
       0.06272606 -0.020155044 -0.119851485 -0.030453473
0003f0 8a b6 86 3d f4 2a b9 3d 80 2a cc 3c cf 73 cf bd
       0.06577785 0.09041396 0.02492261 -0.101295106
