Results/Models/SAE_stacked_cur_DCN_model_iter_id_4_epoch_400_lr_0.0001_mmd.pth (torch, 828598 bytes, 16 tensors)

shared1.weight f4 [200, 17]
-0.08946004 -0.03362617 -0.0029711227 0.04815567 -0.11835984 -0.04782481 -0.034544062 0.049968943
-0.027582165 0.047290344 -0.053312294 -0.009915693 -0.08615931 -0.020440526 -0.07295684 0.005071573
-0.044977214 0.10631097 -0.15583898 0.24313328 0.20319225 -0.002800006 0.025394948 0.09534157
0.09606292 0.039314445 -0.07204659 0.13696761 -0.108908944 0.07648387 -0.061056107 0.046509307
0.017637143 0.05719467 0.083324395 -0.08128966 -0.2104426 0.08799852 -0.024851192 0.09908625
-0.054741975 -0.02283072 -0.021519337 -0.003568159 0.077520445 0.019521736 0.0055196015 0.17789954
0.04375384 0.052674063 -0.0021952037 0.014097297 0.10246523 0.24872647 0.30652303 0.07952683
-0.052535545 0.06536782 -0.023373162 -0.0629488 0.09136905 0.06671252 -0.07129141 0.055823848
-0.15435977 -0.104312755 -0.026515145 -0.03607924 0.028231766 0.031989645 -0.028814616 -0.052645765
-0.06656523 0.15932572 0.058062803 -0.018790321 0.0152682625 0.081999496 0.10902776 0.13810234
0.0181628 -0.095235296 -0.15023816 -0.1333426 -0.11138468 -0.09939398 0.08698612 0.11992025
0.10159933 0.13654307 0.025205776 0.0056868223 0.06961382 -0.097170755 0.09921972 -0.01083505
-0.029581008 -0.109881155 -0.25297284 0.09009655 0.11690939 -0.06662214 -0.10948404 -0.07007443
-0.00830986 0.16333592 -0.05447362 -0.048022334 0.19862014 0.16321488 0.048791 -0.06693397
0.01696556 -0.10485723 -0.109065115 0.008926426 -0.098740324 -0.07350864 -0.037799742 0.028593808
0.01069275 -0.14535633 0.14416271 0.08274922 -0.08733185 -0.09911672 0.09007732 -0.025858987
-0.087171175 -0.12230624 -0.010533279 -0.057618618 0.0007746816 -0.07977302 0.0894173 0.16682
0.07644076 -0.10027743 0.040614273 0.09646022 0.12108495 -0.11928197 -0.0687297 -0.13050993
-0.060139697 -0.038258273 -0.097048245 0.02742405 -0.04387574 0.13533248 -0.22992007 0.16080593
0.15826848 -0.058367796 0.1640769 0.14103505 0.17483106 -0.07073694 0.079302125 0.074125946
-0.05357311 0.13239026 0.06609407 -0.10865371 -0.035888087 -0.04563489 -0.14533812 -0.010429513
0.12863682 -0.098095424 0.1082662 0.005018374 0.120881744 -0.09505296 -0.17765132 0.066486284
-0.089810714 0.028664699 -0.14504665 0.14827783 -0.11296146 -0.031067595 -0.14155306 0.07903148
0.10199293 0.11199607 -0.06517008 0.08583879 -0.09363649 0.07689258 0.12353825 -0.10758233
-0.012359546 0.023762438 0.14734887 -0.17715919 0.061379313 -0.009462974 -0.02400109 -0.049273193
-0.002815876 0.08845905 0.077581964 -0.2055686 -0.013000071 0.09234553 0.30871132 0.4094561
-0.09307029 -0.031986378 0.1491203 0.030496087 -0.090526424 0.14747457 0.070398584 -0.1327345
-0.05812866 -0.11108535 -0.04042289 0.102492966 -0.08074663 0.024104401 0.0023717696 -0.0058072284
0.018835448 0.067010805 -0.05245172 0.18595506 -0.052841976 0.09078475 -0.113804564 0.047046397
0.02253022 -0.02210704 0.020845259 -0.054542173 -0.08430959 0.013087646 -0.050888557 0.103748634
0.025440386 0.17960487 -0.13813469 -0.19677383 -0.014482376 -0.008154053 -0.0863612 -0.08075419
-0.052756187 -0.022052797 0.07345685 0.09148775 -0.010275438 0.10442006 0.21297243 0.007675184
00000000: d336 b7bd 98bb 09bd 2bb7 42bb e13e 453d
00000010: a566 f2bd f3e3 43bd 137e 0dbd 3cac 4c3d
00000020: fef3 e1bc 85b3 413d fe5d 5abd 6e75 22bc
00000030: 4b74 b0bd e472 a7bc 656a 95bd 702f a63b
00000040: 073a 38bd 91b9 d93d 4194 1fbe eef7 783e
00000050: a111 503e 4e80 37bb 1109 d03c 7142 c33d
00000060: a3bc c43d 2f08 213d 2a8d 93bd 3d41 0c3e
00000070: a70b dfbd 93a3 9c3d f815 7abd 8b80 3e3d
00000080: c57b 903c f544 6a3d fba5 aa3d 317b a6bd
00000090: 447e 57be 9138 b43d ba94 cbbc bbed ca3d
000000a0: 1f39 60bd 7d07 bbbc 5249 b0bc c6d7 69bb
000000b0: 0ac3 9e3d 0cec 9f3c c6dd b43b 4c2b 363e
000000c0: 3a37 333d c2c0 573d 68dd 0fbb 59f8 663c
000000d0: 4ad9 d13d 27b2 7e3e 96f0 9c3e f6de a23d
000000e0: 832f 57bd 90df 853d 1379 bfbc 4deb 80bd
000000f0: b21f bb3d 93a0 883d 3b01 92bd 8ca7 643d
00000100: 7d10 1ebe eda1 d5bd 4a36 d9bc d3c7 13bd
00000110: 4e46 e73c 9307 033d a10c ecbc 16a3 57bd
00000120: 5a53 88bd 4826 233e 43d3 6d3d 29ee 99bc
00000130: bc27 7a3c 5aef a73d f249 df3d b36a 0d3e
00000140: 27ca 943c b90a c3bd 08d8 19be f68a 08be
00000150: a71d e4bd 128f cbbd c725 b23d bf98 f53d
00000160: 4f13 d03d f2d1 0b3e 587c ce3c 8658 ba3b
00000170: b191 8e3d 7601 c7bd b533 cb3d 7e85 31bc
00000180: df53 f2bc 5f09 e1bd a885 81be 8a84 b83d
00000190: 316e ef3d 3071 88bd 2b39 e0bd 2f83 8fbd
000001a0: 1426 08bc 8841 273e bb1f 5fbd 11b3 44bd
000001b0: 1463 4b3e cd21 273e 12d9 473d ad14 89bd
000001c0: 5cfb 8a3c 63bf d6bd 885d dfbd 2540 123c
000001d0: 5e38 cabd b38b 96bd e7d3 1abd 903d ea3c
000001e0: a530 2f3c 4ad8 14be 649f 133e 6c78 a93d
000001f0: 0adb b2bd b5fd cabd 757a b83d 3ad6 d3bc
00000200: cd86 b2bd b27b fabd c693 2cbc 8001 6cbd
00000210: 0114 4b3a 0a60 a3bd 6b20 b73d ddd2 2a3e
00000220: f98c 9c3d 415e cdbd 275b 263d f08c c53d
00000230: 63fb f73d 1b4a f4bd 28c2 8cbd 65a4 05be
00000240: 0b55 76bd b5b4 1cbd 3bc1 c6bd 67a8 e03c
00000250: 0cb7 33bd 9994 0a3e 2b70 6bbe 4faa 243e
00000260: 2211 223e 1213 6fbd c603 283e 7e6b 103e
00000270: ea06 333e 87de 90bd 2769 a23d 58cf 973d
00000280: 7a6f 5bbd 5091 073e 545c 873d d685 debd
00000290: 63ff 12bd a7eb 3abd 84d3 14be 8ce0 2abc
000002a0: 5fb9 033e 41e6 c8bd abba dd3d 2c71 a43b
000002b0: d990 f73d 20ab c2bd 3aea 35be f629 883d
000002c0: aeee b7bd 3bd2 ea3c 1c87 14be 25d6 173e
000002d0: 5758 e7bd 7881 febc 49f3 10be 42db a13d
000002e0: abe1 d03d 325e e53d e477 85bd 3fcc af3d
000002f0: 7dc4 bfbd db79 9d3d 9f01 fd3d 2054 dcbd
00000300: b17f 4abc 72a9 c23c 9fe2 163e 3869 35be
00000310: e068 7b3d 970a 1bbc ef9d c4bc b0d2 49bd
00000320: 8f8a 38bb 052a b53d 4be3 9e3d 9380 52be
00000330: 40fe 54bc a71f bd3d 690f 9e3e 3ba4 d13e
00000340: a39b bebd 2604 03bd feb2 183e eed2 f93c
00000350: eb65 b9bd 9303 173e 222d 903d 8eeb 07be
00000360: 5118 6ebd b780 e3bd 7992 25bd d5e7 d13d
00000370: 7d5e a5bd 9876 c53c b16f 1b3b 904a bebb
00000380: cc4c 9a3c f63c 893d 9dd7 56bd 016b 3e3e
00000390: d470 58bd 5bed b93d 5e12 e9bd b9b3 403d
000003a0: 4c91 b83c d319 b5bc adc3 aa3c 9d67 5fbd
000003b0: 82aa acbd 916d 563c 8570 50bd 2a7a d43d
000003c0: 5b68 d03c 57ea 373e 2e73 0dbe 147f 49be
000003d0: 7d47 6dbc 9498 05bc 24de b0bd 7462 a5bd
000003e0: df16 58bd 11a8 b4bc 8c70 963d ee5d bb3d
000003f0: 505a 28bc 2fda d53d 7215 5a3e 1c80 fb3b

shared1.bias f4 [200]
0.15275817 -0.20155804 -0.28061253 -0.24808098 -0.1649752 0.17718995 0.121709034 0.1269697
-0.13563997 -0.21276286 -0.0006697033 0.10933012 -0.2589268 0.053604577 -0.04860653 -0.040131304
-0.033310134 0.012138632 -0.06674409 0.0077022286 -0.011504056 -0.08375253 0.049718443 0.18541764
0.07457131 0.15247366 -0.082715884 -0.11720364 -0.022055717 -0.010954865 -0.24038506 -0.14489011
0.1274387 -0.17579585 -0.000916774 -0.09157959 0.03973442 -0.13713804 -0.23523311 0.07327665
0.12350556 -0.17829707 0.043799188 0.074947454 -0.100134045 -0.15967734 -0.0025703257 0.17317319
0.19625871 -0.23316665 0.03935133 0.13263628 -0.063503526 -0.02390743 -0.14881107 -0.14679755
0.15401863 0.08308461 0.11159937 0.1888825 -0.24353726 0.045622252 0.023513222 -0.19658178
-0.040494885 -0.16288997 0.004474841 -0.16230914 0.023874339 -0.1799076 -0.1412605 -0.05961096
0.11441381 -0.092461124 0.056157168 0.035910785 -0.16213201 0.1677301 -0.023291457 0.08487269
-0.08944394 0.116591826 -0.149532 -0.012196009 0.11437384 0.02347064 -0.017614365 0.14218271
-0.032167297 -0.17938197 -0.107273564 -0.053103812 0.12664711 0.07051654 0.03916996 -0.05893352
-0.026933476 0.16380256 0.04800267 -0.19342496 0.13873553 -0.0194439 -0.043005824 -0.032267496
-0.10914263 0.187029 0.035922356 0.014749038 -0.048098546 -0.2269682 0.23844014 0.14950787
-0.17903048 0.015138713 -0.12542059 -0.15128721 0.12415758 0.14944823 0.059519224 -0.23147064
0.06915047 -0.16167234 0.02906735 -0.1558592 -0.16019894 -0.17650345 0.13362055 0.22244808
-0.30308834 0.2008705 -0.1674383 -0.23396538 -0.14877649 0.14003119 -0.16133167 -0.27257156
0.0063810474 -0.03199903 -0.14183274 0.14003779 0.100803375 -0.13835011 -0.058441915 0.08243066
-0.16966842 0.05280796 -0.26410922 0.19787279 0.12172093 -0.10274348 0.03483973 -0.1476527
0.15795924 -0.031169575 0.108099855 -0.19621465 -0.045634367 -0.19801481 -0.21527587 -0.033446588
-0.11758891 -0.19890676 -0.054445907 -0.26505944 0.17140801 -0.12492609 -0.0921789 -0.07521571
0.12915745 0.14799687 -0.2681046 -0.091145776 -0.16966355 -0.22480267 0.018824348 -0.085315555
-0.1377657 -0.22786632 0.067935586 -0.0875021 -0.117463954 0.02155043 -0.013044598 -0.08056587
0.09212688 0.03572812 -0.166843 0.09649478 -0.116372086 0.075492315 -0.10610476 -0.060786378
-0.15840739 0.19286883 0.09053763 -0.18403234 -0.010014449 -0.2731548 0.12276436 -0.07193372
00000000: a36c 1c3e 3b65 4ebe 72ac 8fbe f108 7ebe
00000010: 42ef 28be 4871 353e 9642 f93d 5804 023e
00000020: 34e5 0abe 82de 59be 078f 2fba 78e8 df3d
00000030: 0e92 84be 7990 5b3d a417 47bd b960 24bd
00000040: 3570 08bd 1de1 463c 20b1 88bd fa62 fc3b
00000050: 827b 3cbc 7286 abbd 91a5 4b3d 1fde 3d3e
00000060: d8b8 983d 0e22 1c3e f266 a9bd 7608 f0bd
00000070: 31ae b4bc 097c 33bc 8027 76be 135e 14be
00000080: 4a7f 023e d403 34be a953 70ba 158e bbbd
00000090: 8fc0 223d ea6d 0cbe f3e0 70be 1112 963d
000000a0: 7cf0 fc3d 8293 36be c766 333d 0d7e 993d
000000b0: 1413 cdbd 7582 23be e972 28bb 5054 313e
000000c0: 0bf8 483e 3dc3 6ebe dc2e 213d ced1 073e
000000d0: 230e 82bd 84d9 c3bc ee61 18be 1952 16be
000000e0: 0fb7 1d3e 4428 aa3d 368e e43d 6a6a 413e
000000f0: d561 79be 66de 3a3d cd9e c03c bc4c 49be
00000100: f7dd 25bd a1cc 26be b0a1 923b 5e34 26be
00000110: 1e94 c33c b339 38be 98a6 10be 9f2a 74bd
00000120: ca51 ea3d 425c bdbd 0f05 663d 3017 133d
00000130: ef05 26be 70c1 2b3e bacd bebc bcd1 ad3d
00000140: 622e b7bd b2c7 ee3d eb1e 19be c5d1 47bc
00000150: d53c ea3d 8045 c03c 004c 90bc 5898 113e
00000160: dbc1 03bd e8af 37be 3eb2 dbbd 6283 59bd
00000170: c8af 013e fa6a 903d ae70 203d 4664 71bd
00000180: 98a3 dcbc dcbb 273e 739e 443d 3111 46be
00000190: b010 0e3e d048 9fbc e026 30bd ec2a 04bd
000001a0: 2c86 dfbd 8884 3f3e 5223 133d f3a5 713c
000001b0: fb02 45bd 5a6a 68be a729 743e 9718 193e
000001c0: c453 37be 5d08 783c 416e 00be 09eb 1abe
000001d0: 5446 fe3d f508 193e 6eca 733d a406 6dbe
000001e0: c39e 8d3d 6f8d 25be a71e ee3c 8e99 1fbe
000001f0: 310b 24be 52bd 34be d3d3 083e 6ec9 633e
00000200: 652e 9bbe ffb0 4d3e f274 2bbe 9f94 6fbe
00000210: dd58 18be 5664 0f3e 2134 25be 808e 8bbe
00000220: 1b18 d13b 6a11 03bd 9a3c 11be 1166 0f3e
00000230: 0072 ce3d a7ab 0dbe ca60 6fbd 68d1 a83d
00000240: 8fbd 2dbe 294d 583d 5339 87be 2a9f 4a3e
00000250: d348 f93d 2c6b d2bd 1bb4 0e3d 4532 17be
00000260: 11c0 213e 5657 ffbc 7563 dd3d 7eec 48be
00000270: 1aeb 3abd 65c4 4abe 4771 5cbe 4aff 08bd
00000280: 74d2 f0bd 37ae 4bbe ac02 5fbd dfb5 87be
00000290: 9585 2f3e 40d9 ffbd 4bc8 bcbd b20a 9abd
000002a0: da41 043e 7e8c 173e 0245 89be a3aa babd
000002b0: 48bc 2dbe ac32 66be 8535 9a3c ecb9 aebd
000002c0: 7412 0dbe ca55 69be d021 8b3d 4d34 b3bd
000002d0: f190 f0bd 878a b03c 02b9 55bc b8ff a4bd
000002e0: 05ad bc3d a657 123d e4d8 2abe 0e9f c53d
000002f0: 7d54 eebd b79b 9a3d 744d d9bd 23fb 78bd
00000300: 8c35 22be 687f 453e cb6b b93d f972 3cbe
00000310: a513 24bc f2da 8bbe e16b fb3d fc51 93bd

shared2.weight f4 [200, 200]
-0.11024647 -0.057935297 0.15391007 -0.14305744 0.040904477 -0.01062459 -0.08248983 -0.029407356
-0.039200887 0.08798146 0.0047871857 -0.094667844 -0.03748811 -0.021153174 0.0053044683 0.04153111
0.026388744 0.05301588 0.09948234 -0.09951192 -0.10778205 0.062893786 -0.10974116 0.01470665
0.04893487 0.06126479 -0.03162929 0.06182455 -0.06568664 -0.09754424 0.06842446 0.097610414
-0.07855848 -0.040416174 -0.008768878 -0.10764095 0.07641365 0.13905287 -0.016265957 0.10582255
-0.1388293 0.04407368 -0.07473399 -0.0121803135 0.07268461 0.06575996 0.11232792 0.013461403
-0.054988597 -0.0009176803 0.045647256 -0.09657279 0.05433613 -0.05055788 -0.016071038 0.010976474
0.08265878 -0.12877041 -0.036688406 -0.05062747 0.02925953 0.1251154 0.019511297 -0.15391505
-0.069506705 -0.14790526 0.07195416 0.15039234 -0.123395845 0.012301206 -0.05145958 -0.051141366
-0.1590836 0.07957634 -0.15078598 0.019231657 0.09372702 -0.12661052 -0.080131084 -0.078168936
-0.009887988 -0.06866797 -0.0026102832 0.05622848 -0.10172436 0.05872387 -0.044822376 -0.173776
-0.0884558 0.069823 -0.018820029 0.008104801 -0.035748076 0.10517306 0.035678033 -0.012523489
-0.017540805 -0.12015666 -0.08478053 0.09132648 0.038266685 -0.11001958 0.07546139 -0.11502531
0.08151515 -0.09697436 -0.08516079 0.04551941 -0.007377509 0.08580931 -0.08175951 -0.14411165
-0.032427598 -0.06476072 -0.049987834 -0.019152066 0.045384273 -0.015912155 -0.11367954 -0.019195229
-0.119686276 0.023649052 0.042198557 -0.106959656 -0.09243285 0.14803319 0.06738744 -0.03193398
0.082220525 0.002828891 -0.09478053 -0.064066224 -0.11818488 0.03908303 0.03632842 0.11314577
-0.05071713 -0.059244603 -0.10902287 -0.07373586 -0.007357963 0.060654297 -0.015420009 0.0218474
-0.04034778 0.10696558 -0.019589037 -0.14077756 -0.043332484 0.06698809 -0.15180384 0.18891594
0.022745129 -0.06356266 -0.14634429 0.043232214 -0.03408197 0.055930898 -0.0545293 0.08818205
-0.057726465 0.08055952 0.036914565 -0.09422867 -0.043022607 0.06175613 0.083245926 0.09319142
0.05138391 0.094608516 0.03130005 -0.040440794 -0.06303155 -0.108177364 0.09018624 -0.09972051
0.0065926495 -0.054166354 0.009881301 0.00874634 -0.053222116 -0.037812594 -0.10383377 0.060972016
-0.17123161 0.1142743 0.067763336 -0.033126693 0.08042189 0.009272656 0.0311059 0.040098388
6.0487127e-05 -0.018949848 -0.09429929 0.16767102 0.03707352 -0.10593552 -0.07495199 0.011749766
0.01658735 0.038739704 -0.08186152 0.15936433 -0.037091687 -0.04924149 0.14006121 0.116617955
-0.11047431 -0.054674707 -0.0935934 -0.066635355 0.19290753 -0.04733637 0.122765265 -0.017889382
0.051274434 0.014072624 -0.058032226 -0.10426793 -0.011080302 -0.1096926 0.04984694 -0.025055401
0.08867661 0.00061082956 -0.09603382 -0.068333305 0.024922302 0.047770645 -0.018939445 0.02821578
0.050761968 0.088431865 -0.09455499 0.022301119 -0.06058723 -0.021392055 0.13188249 -0.09936004
0.015703086 0.10084003 0.0077505237 0.058581054 -0.026735077 -0.107115 0.047752254 -0.052825566
-0.11550703 0.024217462 -0.029263603 -0.0379031 0.089026816 -0.0044414024 0.015574261 0.050282992
00000000: e7c8 e1bd 904d 6dbd 9a9a 1d3e a67d 12be
00000010: 748b 273d c312 2ebc 6ef0 a8bd b2e7 f0bc
00000020: 1c91 20bd a02f b43d d3dd 9c3b 37e1 c1bd
00000030: 228d 19bd 6c49 adbc 1bd1 ad3b 861c 2a3d
00000040: 352d d83c 2e27 593d 66bd cb3d e8cc cbbd
00000050: d6bc dcbd 75ce 803d f9bf e0bd 29f4 703c
00000060: ee6f 483d caf0 7a3d b78d 01bd bd3b 7d3d
00000070: b886 86bd 46c5 c7bd 2022 8c3d f8e7 c73d
00000080: 45e3 a0bd 6e8b 25bd 57ab 0fbc dc72 dcbd
00000090: c27e 9c3d e063 0e3e 2f40 85bc 7eb9 d83d
000000a0: 4529 0ebe 9a86 343d 220e 99bd f08f 47bc
000000b0: abdb 943d 28ad 863d 2e0c e63d 378d 5c3c
000000c0: b93b 61bd 7c90 70ba 9ef8 3a3d f4c7 c5bd
000000d0: 908f 5e3d c815 4fbd 69a7 83bc abd6 333c
000000e0: 0249 a93d 64dc 03be 9546 16bd c05e 4fbd
000000f0: afb1 ef3c 401e 003e 28d6 9f3c e89b 1dbe
00000100: 8859 8ebd 7a74 17be b45c 933d 7300 1a3e
00000110: f6b6 fcbd ff8a 493c 48c7 52bd 9c79 51bd
00000120: d0e6 22be ecf8 a23d a467 1abe b58b 9d3c
00000130: f4f3 bf3d 30a6 01be c41b a4bd 0917 a0bd
00000140: 3a01 22bc cba1 8cbd 4911 2bbb d64f 663d
00000150: dc54 d0bd 7188 703d ab97 37bd 56f2 31be
00000160: 5128 b5bd 5cff 8e3d 762c 9abc 00ca 043c
00000170: 936c 12bd f964 d73d 2123 123d 522f 4dbc
00000180: bcb1 8fbc b214 f6bd 6aa1 adbd 6109 bb3d
00000190: 87bd 1c3d f251 e1bd 808b 9a3d 6492 ebbd
000001a0: 6af1 a63d 7e9a c6bd c868 aebd 9072 3a3d
000001b0: 08bf f1bb cbbc af3d 8871 a7bd 0192 13be
000001c0: cdd2 04bd 45a1 84bd 0bc0 4cbd cbe4 9cbc
000001d0: dce4 393d 355a 82bc d2d0 e8bd 503f 9dbc
000001e0: 141e f5bd a8bb c13c 65d8 2c3d aa0d dbbd
000001f0: 6f4d bdbd 0396 173e 6d02 8a3d 34cd 02bd
00000200: 3c63 a83d ea64 393b 4b1c c2bd 2735 83bd
00000210: ea0a f2bd 8715 203d 1ccd 143d f8b8 e73d
00000220: c4bc 4fbd 78aa 72bd 6247 dfbd d402 97bd
00000230: 111b f1bb a470 783d 35a4 7cbc 52f9 b23c
00000240: b743 25bd c510 db3d 3079 a0bc fe27 10be
00000250: 677d 31bd 0d31 893d 7772 1bbe 2e73 413e
00000260: fe53 ba3c 242d 82bd 47db 15be 4314 313d
00000270: 8999 0bbd cc17 653d 1e5a 5fbd ca98 b43d
00000280: 9672 6cbd 64fc a43d ba33 173d f6fa c0bd
00000290: 7938 30bd fff3 7c3d d77c aa3d 25db be3d
000002a0: ef77 523d 1cc2 c13d 7b34 003d 3fa5 25bd
000002b0: af16 81bd 188c ddbd 90b3 b83d 443a ccbd
000002c0: 2707 d83b 8add 5dbd 2ee5 213c cf4c 0f3c
000002d0: 6fff 59bd 61e1 1abd cda6 d4bd cbbd 793d
000002e0: 5757 2fbe a508 ea3d 81c7 8a3d dbaf 07bd
000002f0: 3bb4 a43d 57ec 173c cdd1 fe3c 353e 243d
00000300: 8fb3 7d38 b63c 9bbc fc1f c1bd f4b1 2b3e
00000310: 67da 173d b9f4 d8bd 6e80 99bd 1782 403c
00000320: 32e2 873c 86ad 1e3d 03a7 a7bd 6730 233e
00000330: 74ed 17bd 72b1 49bd 356c 0f3e 65d5 ee3d
00000340: 5b40 e2bd 96f2 5fbd e6ad bfbd 1e78 88bd
00000350: 8d89 453e c8e3 41bd 5b6c fb3d c18c 92bc
00000360: 2405 523d dd90 663c 33b3 6dbd 6d8a d5bd
00000370: 288a 35bc 84a6 e0bd 4e2c 4c3d fc40 cdbc
00000380: 159c b53d 1420 203a 61ad c4bd 55f2 8bbd
00000390: db29 cc3c 27ab 433d e526 9bbc c824 e73c
000003a0: c8eb 4f3d c41b b53d 0ca6 c1bd d6b0 b63c
000003b0: 512a 78bd 643e afbc 340c 073e 477d cbbd
000003c0: c2a3 803c 3885 ce3d 1bf8 fd3b b0f2 6f3d
000003d0: 8503 dbbc 1c5f dbbd de97 433d 9f5f 58bd
000003e0: f38e ecbd b363 c63c 39ba efbc 4840 1bbd
000003f0: b153 b63d 2f89 91bb 2f2b 7f3c 8af5 4d3d

shared2.bias f4 [200]
-0.080594614 -0.020027274 0.06821443 -0.054457746 0.04322047 0.02893206 -0.05338537 -0.06259492
0.019126654 0.032314442 -0.08153651 -0.01629415 0.00057173375 -0.008896955 -0.035974775 -0.07320778
-0.080451906 0.037504066 0.030315839 -0.07296523 0.015260437 0.024318514 -0.13897449 0.050533254
0.005555642 0.00037501534 -0.07272943 -0.012633549 -0.08975006 0.020828092 0.00083642366 0.055234153
0.00438816 0.03070318 -0.0105958395 -0.041273616 -0.08104359 -0.07948951 -0.04506687 0.005963952
-0.11294832 0.002521114 -0.058325388 -0.013265476 0.053113475 0.010649228 -0.022659332 -0.0314501
0.040398076 -0.021070404 -0.04740832 -0.043026257 -0.10552238 0.035265993 -0.03016211 -0.06726456
-0.015304402 -0.081200354 -0.02237731 0.010422301 -0.08753481 -0.0054490883 -0.05179127 -0.042044338
-0.049975738 -0.03109797 -0.017769687 0.019934114 0.006170728 -0.09035341 -0.02154087 -0.04479299
-0.04003047 -0.111933775 -0.04781583 -0.0043514334 0.04226908 -0.08107646 -0.06426167 0.0096643595
0.07706297 -0.14573978 0.022401735 -0.016653756 -0.051578503 -0.08572642 0.042937998 -0.06660579
-0.03051985 -0.053643722 0.0067959563 -0.0814419 -0.105795786 -0.07036584 0.04390995 0.082656085
-0.018286645 -0.031193715 -0.07793182 0.012276453 0.0696539 -0.02134743 0.06655603 -0.05220982
-0.10424355 -0.08001923 0.013063186 -0.0404218 -0.061016258 -0.0252766 -0.10841895 0.053204156
-0.01991797 0.096981406 -0.07133363 -0.036653835 0.027750509 0.01971364 -0.042804345 -0.042898208
-0.012103893 -0.039402932 -0.07352836 0.043428175 -0.031442273 0.01106791 0.0487813 -0.018956682
-0.004438267 -0.039797764 -0.038079873 -0.015788961 -0.051301215 -0.0008069982 0.036533043 -0.014468465
0.041575767 -0.017383171 -0.013829297 -0.016236236 -0.0111299725 -0.0024029363 -0.04267825 -0.06364611
0.014147398 0.025255343 -0.030414594 -0.05244245 0.049915746 -0.122745335 0.017894134 -0.033965837
0.029617712 0.04051995 -0.100052424 -0.029358286 -0.016607495 0.0030657349 -0.03470106 0.028017862
-0.026036987 0.036388617 -0.06926548 -0.04641071 -0.029389847 -0.07600638 -0.027791483 -0.040572748
0.023505423 -0.043806527 -0.02705044 -0.03366794 0.013634591 -0.090384975 -0.020516757 -0.041459307
-0.027577212 0.036563095 -0.03813607 0.0052346266 -0.046710834 -0.08793237 -0.059178263 0.05082333
-0.07621863 -0.0419042 -0.013437573 -0.001539593 0.007937214 0.029118074 0.009870034 0.06547817
-0.07442227 -0.087056726 -0.11944138 -0.116472386 0.04990312 -0.14158955 -0.052247535 -0.017780803
00000000: ca0e a5bd 3d10 a4bc 02b4 8b3d 160f 5fbd
00000010: f307 313d ed02 ed3c 9eaa 5abd c431 80bd
00000020: 80af 9c3c 265c 043d 9dfc a6bd 4f7b 85bc
00000030: 67e0 153a 89c4 11bc 495a 13bd f6ed 95bd
00000040: f8c3 a4bd dd9d 193d ec58 f83c cb6e 95bd
00000050: e906 7a3c 9f37 c73c 544f 0ebe f5fb 4e3d
00000060: 1a0c b63b b59d c439 2bf3 94bd f2fc 4ebc
00000070: e1ce b7bd ad9f aa3c 7143 5b3a 353d 623d
00000080: 8eca 8f3b 3c85 fb3c 2c9a 2dbc 860e 29bd
00000090: 2ffa a5bd 65cb a2bd 0a98 38bd 416d c33b
000000a0: 7351 e7bd 4639 253b 9ae6 6ebd 7057 59bc
000000b0: 848d 593d 197a 2e3c 10a0 b9bc d2d1 00bd
000000c0: 7478 253d d79b acbc 3a2f 42bd 4d3c 30bd
000000d0: 1e1c d8bd 1373 103d 8816 f7bc 00c2 89bd
000000e0: 51bf 7abc 5f4c a6bd 9f50 b7bc 4cc2 2a3c
000000f0: 7345 b3bd 448e b2bb 1523 54bd af36 2cbd
00000100: 5cb3 4cbd 2cc1 febc bc91 91bc de4c a33c
00000110: d133 ca3b 350b b9bd 7b76 b0bc db78 37bd
00000120: fdf6 23bd 893d e5bd 88da 43bd 7896 8ebb
00000130: 5822 2d3d 6a0b a6bd 9f9b 83bd 4357 1e3c
00000140: 31d3 9d3d cf3c 15be d883 b73c 756d 88bc
00000150: fb43 53bd 5591 afbd c1df 2f3d 9e68 88bd
00000160: c404 fabc 85b9 5bbd 9db0 de3b 03cb a6bd
00000170: 76ab d8bd f71b 90bd ebda 333d 9847 a93d
00000180: e0cd 95bc f689 ffbc b89a 9fbd 2d23 493c
00000190: b4a6 8e3d cee0 aebc 874e 883d f7d9 55bd
000001a0: a47d d5bd 1fe1 a3bd f906 563c 5491 25bd
000001b0: 2fec 79bd df10 cfbc c10a debd 9aec 593d
000001c0: 032b a3bc 309e c63d 5e17 92bd 5522 16bd
000001d0: 0955 e33c 807e a13c 9c53 2fbd 08b6 2fbd
000001e0: 684f 46bc f864 21bd 0996 96bd bee1 313d
000001f0: 9dc9 00bd 2e56 353c e7ce 473d 0b4b 9bbc
00000200: e26e 91bb fb02 23bd a4f9 1bbd da57 81bc
00000210: 3921 52bd bc8c 53ba aca3 153d 240d 6dbc
00000220: 5a4b 2a3d 2767 8ebc 4794 62bc db01 85bc
00000230: 7d5a 36bc 957a 1dbb 64cf 2ebd e458 82bd
00000240: 7dca 673c 4be4 ce3c 0728 f9bc e5cd 56bd
00000250: 7474 4c3d e861 fbbd b896 923c c31f 0bbd
00000260: d8a0 f23c 3ff8 253d 49e8 ccbd ca80 f0bc
00000270: 710c 88bc 7fea 483b b322 0ebd b785 e53c
00000280: 854b d5bc 3b0c 153d 0fdb 8dbd 2819 3ebd
00000290: fac2 f0bc 3ca9 9bbd f7aa e3bc 9c2f 26bd
000002a0: 728e c03c 796e 33bd e298 ddbc 65e7 09bd
000002b0: 9f63 5f3c c21b b9bd c212 a8bc 3cd1 29bd
000002c0: 9be9 e1bc 2fc3 153d 9134 1cbd 3b87 ab3b
000002d0: dc53 3fbd e315 b4bd e864 72bd 202c 503d
000002e0: 8318 9cbd bda3 2bbd 4429 5cbc 2bcc c9ba
000002f0: 170b 023c 0789 ee3c ecb5 213c 6b19 863d
00000300: b46a 98bd cc4a b2bd af9d f4bd 1389 eebd
00000310: 3767 4c3d dafc 10be 8301 56bd 0ca9 91bc

hidden1_Y1.weight f4 [200, 200]
-0.051515147 0.05399558 -0.040405467 0.09932033 0.05870102 -0.022324968 0.09857929 0.13298872
0.04501602 -0.04303031 0.06479101 -0.08174655 -0.12588523 0.04119581 -0.09497936 -0.08645544
0.039938763 -0.0894634 -0.05806555 0.0074552866 -0.0832835 0.061444487 -0.122288644 0.040912613
-0.121808805 0.042192467 0.08644655 -0.11773347 0.011360511 -0.1276179 -0.015824407 -0.042824782
-0.089519255 0.07578422 -0.040806644 -0.015577481 0.049374234 -0.09215004 -0.0027468032 0.040799953
-0.07987342 0.096914515 -0.11820657 0.116145454 -0.10102326 0.008121214 0.013451866 0.017880121
0.04409438 -0.09665425 0.106025875 0.1039397 -0.0055666785 -0.00059725455 0.082375824 0.055008575
-0.029397076 -0.098157644 0.081053615 0.036583807 0.094934925 0.09763472 -0.105584934 -0.07390767
0.03612359 0.066418074 0.049914885 0.05358266 -0.07496356 0.05308937 0.08290104 -0.100933164
0.008683691 -0.051941436 -0.11429728 -0.02215381 0.12821388 0.053965382 -0.09769509 0.016623048
0.038403455 0.014254888 0.06844881 -0.06286576 -0.05900014 0.097019315 -0.042320654 -0.106328346
-0.07271444 0.059096135 -0.03702417 0.123170815 0.046933115 0.005424958 0.09432956 -0.028694032
0.052321512 0.09569898 0.0043829116 -0.07992764 -0.09050659 0.008841749 -0.06919323 0.062301107
0.11353303 -0.1131895 -0.051662493 0.031870387 0.053485036 0.13042231 0.08763925 -0.058179952
0.009704755 0.10804218 0.077856995 -0.03824016 -0.091928475 0.10063706 -0.05162174 -0.00050938135
-0.019128041 0.09411858 0.11609825 0.1053421 -0.031392775 -0.07263722 0.072527334 -0.08634186
-0.10983447 -0.088770464 0.089013115 0.02267199 0.08169257 -0.0022059772 -0.02740558 -0.09805026
-0.052791487 0.11772248 0.05463728 -0.124420874 0.030587979 -0.013423586 0.016998144 0.035899714
-0.039772004 0.04101848 -0.041608837 -0.11214965 -0.0672409 -0.00014150387 0.09364596 -0.05609819
-0.07643726 0.045514233 -0.068764284 -0.08778426 0.018145937 -0.06528236 -0.089603975 -0.026125414
0.07980823 -0.04097069 0.041553672 -0.00615975 -0.11616125 0.12445355 0.1105613 0.07106704
-0.011733484 0.0026734867 -0.01867578 0.12387071 0.10253122 -0.11829812 -0.10167824 -0.09997938
-0.08199932 -0.015791226 -0.052333433 0.05994646 0.00076622557 -0.10526971 0.00800805 0.020617237
-0.04681242 0.08386819 -0.039564196 0.05836557 0.11258607 0.059252996 0.09352957 -0.031711325
0.059758153 -0.09652424 -0.040096574 -0.09596874 0.048229694 -0.08111299 0.0076817926 0.061378833
0.024312854 -0.018845858 0.11281559 -0.058913782 -0.11846766 0.10712744 -0.07000467 -0.048500966
0.05936319 0.04883673 0.10796194 0.06373434 -0.049785975 -0.059114937 0.1141087 0.013959561
-0.10412645 0.020438584 0.10982843 -0.097739786 -0.09970101 0.041844543 -0.05501665 -0.052676998
0.07906107 0.097921304 -0.038627252 0.06107233 0.022715608 -0.045248836 -0.0055571347 -0.023537666
0.08540786 0.058947287 -0.03796099 0.14266875 0.032096572 -0.08347578 -0.0922577 -0.07221616
-0.11463807 0.01639303 0.08500829 0.055817723 -0.09361955 0.05270733 0.05635029 0.08263324
-0.007282195 0.040877894 -0.07909997 -0.031567384 0.06966097 0.1115699 0.053996444 0.014170892
00000000: 8c01 53bd 782a 5d3d 3480 25bd 7568 cb3d
00000010: 7b70 703d dae2 b6bc f0e3 c93d 322e 083e
00000020: b862 383d 8d40 30bd 26b1 843d bc6a a7bd
00000030: 0fe8 00be f0bc 283d 8a84 c2bd 8d0f b1bd
00000040: d496 233d 9638 b7bd 24d6 6dbd 7a4b f43b
00000050: 8a90 aabd 37ad 7b3d 7872 fabd fc93 273d
00000060: e576 f9bd 02d2 2c3d e40a b13d 3f1e f1bd
00000070: 7021 3a3c 44ae 02be 30a2 81bc 0a69 2fbd
00000080: df55 b7bd c234 9b3d de24 27bd b138 7fbc
00000090: a33c 4a3d 29b9 bcbd b603 34bb da1d 273d
000000a0: ad94 a3bd 1e7b c63d 4916 f2bd abdd ed3d
000000b0: 48e5 cebd d70e 053c 3765 5c3c 5579 923c
000000c0: 4f9c 343d aaf2 c5bd 1824 d93d 56de d43d
000000d0: af68 b6bb 1391 1cba a8b4 a83d ac50 613d
000000e0: 23d2 f0bc e006 c9bd 70ff a53d e7d8 153d
000000f0: 3e6d c23d b6f4 c73d ea3c d8bd e85c 97bd
00000100: 54f6 133d 3306 883d 8d73 4c3d 7e79 5b3d
00000110: 7f86 99bd 3d74 593d 05c8 a93d 0cb6 cebd
00000120: 0a46 0e3c 8bc0 54bd b114 eabd e87b b5bc
00000130: 804a 033e ce0a 5d3d 5d14 c8bd 0f2d 883c
00000140: f14c 1d3d 558d 693c e42e 8c3d c3bf 80bd
00000150: 21aa 71bd 10b2 c63d 6c58 2dbd adc2 d9bd
00000160: 4feb 94bd ca0e 723d a8a6 17bd fb40 fc3d
00000170: f03c 403d d9c3 b13b db2f c13d bf0f ebbc
00000180: 154f 563d d4fd c33d 879e 8f3b 1ab1 a3bd
00000190: 855b b9bd fcdc 103c 2eb5 8dbd 722f 7f3d
000001a0: 0184 e83d e6cf e7bd 0d9c 53bd 868a 023d
000001b0: 2013 5b3d 6d8d 053e 357c b33d 1a4e 6ebd
000001c0: b100 1f3c 3845 dd3d 7d73 9f3d b7a1 1cbd
000001d0: ff44 bcbd ce1a ce3d 5171 53bd 0188 05ba
000001e0: 69b2 9cbc 3ec1 c03d ebc4 ed3d 99bd d73d
000001f0: b695 00bd d3c2 94bd 3689 943d 00d4 b0bd
00000200: e5f0 e0bd 4acd b5bd 824c b63d 9cba b93c
00000210: 6f4e a73d 2892 10bb ab81 e0bc 93ce c8bd
00000220: e33b 58bd 7c18 f13d 57cb 5f3d 5fd0 febd
00000230: a493 fa3c 9aee 5bbc b13f 8b3c 940b 133d
00000240: f8e7 22bd fe02 283d 076e 2abd b7ae e5bd
00000250: 99b5 89bd a860 14b9 74c9 bf3d 37c7 65bd
00000260: 238b 9cbd 226d 3a3d 4ad4 8cbd 3cc8 b3bd
00000270: caa6 943c c2b2 85bd 4a82 b7bd f704 d6bc
00000280: 7f72 a33d e2d0 27bd 2f34 2a3d bad7 c9bb
00000290: f3e5 edbd 81e1 fe3d f66d e23d 998b 913d
000002a0: cd3d 40bc aa35 2f3b f3fd 98bc edaf fd3d
000002b0: e3fb d13d 4946 f2bd ae3c d0bd fdc1 ccbd
000002c0: 42ef a7bd 9a5c 81bc 955b 56bd 6b8a 753d
000002d0: 87dc 483a a597 d7bd 3234 033c 7be5 a83c
000002e0: 61be 3fbd 16c3 ab3d 110e 22bd bc10 6f3d
000002f0: 8793 e63d 45b3 723d 6e8c bf3d bce3 01bd
00000300: f7c4 743d 80ae c5bd 4e3c 24bd 428b c4bd
00000310: 808c 453d 911e a6bd 8cb7 fb3b 5f68 7b3d
00000320: c02b c73c a162 9abc dc0b e73d 944f 71bd
00000330: 2c9f f2bd a265 db3d 9c5e 8fbd f3a8 46bd
00000340: d126 733d 0609 483d 261b dd3d 2687 823d
00000350: 61ec 4bbd 8122 72bd d2b1 e93d a4b6 643c
00000360: 4040 d5bd d16e a73c baed e03d cc2b c8bd
00000370: 0b30 ccbd 2f65 2b3d 2459 61bd d6c3 57bd
00000380: c5ea a13d f78a c83d 9c37 1ebd fb26 7a3d
00000390: 1516 ba3c d856 39bd a018 b6bb 10d2 c0bc
000003a0: 51ea ae3d b672 713d fc7c 1bbd c217 123e
000003b0: b277 033d 5af5 aabd 9bf1 bcbd 11e6 93bd
000003c0: 5dc7 eabd ad4a 863c d418 ae3d 20a1 643d
000003d0: 9bbb bfbd a4e3 573d 90cf 663d 9e3b a93d
000003e0: 7b9f eebb 946f 273d 2aff a1bd cd4c 01bd
000003f0: 69aa 8e3d c27e e43d 602b 5d3d 072d 683c

hidden1_Y1.bias f4 [200]
-0.05391976 0.014917767 -0.042474616 -0.049109083 -0.02260523 0.06456777 -0.015817959 0.036421437
-0.0346794 -0.029826809 0.034110837 -0.06861559 0.0433106 0.0134676155 -0.018981783 -0.060690675
-0.0637037 0.028059646 -0.01503756 0.045979153 -0.05247387 -0.051387906 0.050246075 -0.084762916
-0.05211879 0.00012747402 -0.02088512 -0.04353808 0.0013679796 -0.0727941 0.029470522 -0.010080068
-0.029647404 0.04516397 0.0313129 0.022574872 -0.017721428 -0.021185832 0.030984037 -0.014182175
0.0139427865 0.021571904 -0.031310316 -0.027608711 -0.0051288 -0.03462015 0.055037957 0.01960838
-0.021214861 -0.05911963 -0.00041752774 0.04115426 0.04740598 0.056081403 0.0022773286 -0.06799388
0.047870826 0.015517985 0.017691681 -0.024613587 -0.021091154 -0.00781763 -0.05123395 -0.042999547
-0.013115263 0.03486496 0.023360083 0.06819583 -0.06764075 -0.027599573 -0.043328498 -0.056227162
-0.056673676 -0.0610715 -0.030106066 0.012696518 -0.0231575 0.05187137 0.044114392 -0.03186422
-0.019941382 0.059805762 0.048958838 -0.03836553 0.023536485 -0.010641881 0.058786366 -0.075784005
0.042100776 -0.043929886 -0.035026856 -0.008026804 0.036816567 0.051634137 0.022173647 0.02393393
0.01985106 -0.024455866 0.07933292 -0.032060828 0.014207621 0.020674434 -0.033550095 -0.051785283
-0.049647134 0.06641408 -0.033963177 -0.0118681975 -0.0071354634 -0.03510374 0.029689655 0.019681007
-0.016155772 0.034615323 0.07623958 -0.05139122 -0.027392589 -0.028275134 -0.037949044 -0.057957154
-0.044019952 0.057503954 -0.056353357 -0.031030348 0.036437556 -0.023808606 -0.05844468 -0.05193888
0.009125384 -0.05364497 0.018565435 0.027732614 0.01585855 -0.017643617 0.020417983 0.0384116
-0.04458609 0.012021006 -0.012586401 0.053687528 0.02382337 0.007622501 -0.004613178 0.0022177915
0.053116232 0.012155487 -0.04126846 -0.031866625 -0.05949983 -0.025330886 -0.07782049 0.03154167
-0.017130267 0.003269408 0.037627265 0.04942946 -0.039608333 -0.0017367622 0.062213194 0.014195912
0.029044908 0.00076475664 -0.017841049 0.034626618 -0.041759368 -0.029041411 0.023598932 -0.0086175315
0.033881072 0.080395065 -0.027796077 -0.025209406 0.031661082 -0.0030798519 0.043174323 0.0029876477
-0.02046839 0.038233876 0.025330374 -0.068018034 -0.013956372 0.016523048 0.050903432 0.04896219
-0.026411748 0.055090494 0.003503728 0.083909184 -0.0685647 0.02363874 0.018358296 0.04272778
0.013124329 0.053014953 -0.044424683 -0.028672539 -0.011516167 -0.025831472 -0.0030113703 0.0061137886
00000000: f7da 5cbd a669 743c ddf9 2dbd 9b26 49bd
00000010: 9a2e b9bc 1b3c 843d aa94 81bc a52e 153d
00000020: fd0b 0ebd 5a57 f4bc ceb7 0b3d 5586 8cbd
00000030: 7566 313d 46a7 5c3c af7f 9bbc c996 78bd
00000040: 1677 82bd 58dd e53c 1960 76bc a354 3c3d
00000050: d7ee 56bd 207c 52bd d4ce 4d3d 2e98 adbd
00000060: 837a 55bd 8caa 0539 4517 abbc fc54 32bd
00000070: c74d b33a 1315 95bd 2a6c f13c df26 25bc
00000080: 1ddf f2bc dbfd 383d f541 003d f0ee b83c
00000090: 872c 91bc e98d adbc 3cd2 fd3c 5a5c 68bc
000000a0: 4970 643c 90b7 b03c 3f3f 00bd aa2b e2bc
000000b0: 7e0f a8bb dccd 0dbd 7b6f 613d c1a1 a03c
000000c0: caca adbc 6d27 72bd a0e7 dab9 5f91 283d
000000d0: c62c 423d 9db5 653d 3c3f 153b 6040 8bbd
000000e0: 3314 443d 263f 7e3c 25ee 903c 6fa2 c9bc
000000f0: 5bc7 acbc 8415 00bc b1da 51bd 4b20 30bd
00000100: 66e1 56bc 8fce 0e3d a55d bf3c 41aa 8b3d
00000110: 3c87 8abd 8018 e2bc 3979 31bd 744e 66bd
00000120: a822 68bd 1c26 7abd ffa0 f6bc 0e05 503c
00000130: ccb4 bdbc 1377 543d 4bb1 343d 0e84 02bd
00000140: 1c5c a3bc e3f6 743d 1089 483d 2d25 1dbd
00000150: 96cf c03c 495b 2ebc f9c9 703d a534 9bbd
00000160: dd71 2c3d d3ef 33bd 5278 0fbd db82 03bc
00000170: f8cc 163d 517e 533d 82a5 b53c 1711 c43c
00000180: b19e a23c ab57 c8bc 4c79 a23d 3752 03bd
00000190: 15c7 683c 6e5d a93c d36b 09bd ce1c 54bd
000001a0: cb5a 4bbd 1b04 883d f91c 0bbd d472 42bc
000001b0: 9bd0 e9bb f0c8 0fbd b837 f33c 103a a13c
000001c0: 1c59 84bc ccc8 0d3d 7f23 9c3d 9a7f 52bd
000001d0: 6c66 e0bc 41a1 e7bc 7570 1bbd 7b64 6dbd
000001e0: 444e 34bd 4489 6b3d c7d2 66bd 5b33 febc
000001f0: 8c3f 153d 440a c3bc b063 6fbd ddbd 54bd
00000200: a282 153c d4ba 5bbd 8a16 983c 822f e33c
00000210: cae9 813c 5989 90bc 9d43 a73c 7b55 1d3d
00000220: e79f 36bd c1f3 443c 3137 4ebc 74e7 5b3d
00000230: 3a29 c33c 2cc6 f93b 242a 97bb 5e58 113b
00000240: 6890 593d cf27 473c 1e09 29bd 9486 02bd
00000250: 18b6 73bd b882 cfbc 5960 9fbd d731 013d
00000260: c654 8cbc 9043 563b 0c1f 1a3d 8c76 4a3d
00000270: 593c 22bd 12a4 e3ba 43d3 7e3d f895 683c
00000280: 96ef ed3c f379 483a 6427 92bc a4d4 0d3d
00000290: df0b 2bbd 41e8 edbc 8c52 c13c 8c30 0dbc
000002a0: e1c6 0a3d 2ba6 a43d 99b4 e3bc f583 cebc
000002b0: 0daf 013d 57d7 49bb 8fd7 303d 69cc 433b
000002c0: 53ad a7bc 209b 1c3d a581 cf3c 0a4d 8bbd
000002d0: 44a9 64bc 585b 873c 1e80 503d 948c 483d
000002e0: 735d d8bc 92a6 613d cd9e 653b 94d8 ab3d
000002f0: a66b 8cbd 08a6 c13c 2364 963c 5303 2f3d
00000300: 6d07 573c 3526 593d a8f6 35bd ace2 eabc
00000310: 4eae 3cbc 869c d3bc 695a 45bb 2d56 c83b

hidden2_Y1.weight f4 [200, 200]
-0.119290195 0.0041725673 0.029626554 0.00019947208 0.010084248 0.042986907 -0.002608226 -0.096454844
-0.06453385 0.019566836 0.025367236 -0.051684342 -0.008644166 -0.026580777 -0.099062465 -0.050180417
-0.022826647 -0.12758589 0.02590224 0.040184192 0.020204198 -0.079401806 -0.0070702536 -0.08190047
-0.0785761 -0.043621182 -0.02517075 -0.12205465 0.10645508 0.064518146 -0.0041587553 -0.025639607
0.115212895 0.04143942 -0.08728093 0.10321237 -0.092468195 -0.03520911 -0.12530026 -0.020052627
0.015348385 -0.006117975 0.078344904 0.09008438 -0.025340289 0.068271644 0.06640403 -0.0075896233
0.033605102 -0.037215542 0.060875025 0.097715355 0.0943856 0.0037695756 -0.12349449 0.08583175
0.07456369 -0.0069838343 -0.028223172 -0.0751224 0.03507959 0.095460765 0.10778605 0.028063858
0.08665118 -0.07558863 -0.10515587 -0.11655138 0.078777745 -0.04506972 0.076314166 -0.0866612
-0.06353217 0.012451783 -0.06457258 0.07638339 0.020008193 0.054073445 -0.105312414 -0.038705055
-0.0082000885 -0.009927951 0.015023801 0.05381019 0.029771103 0.09811881 0.048544504 -0.124145105
0.031758577 -0.07506615 0.07480415 0.05679244 0.04969387 -0.053937078 -0.078538805 -0.10093226
-0.0860181 -0.04825896 -0.09409192 0.04068902 -0.05653324 0.06934497 0.022250693 -0.10692098
-0.11404584 0.08930237 -0.03087938 -0.11638825 0.016728874 -0.018745612 -0.04674013 0.045961663
0.090677105 -0.065327466 0.08026776 0.0048315795 -0.0096936785 -0.121968634 0.034458246 -0.06528312
-0.046327658 -0.027900944 -0.0014706708 -0.02983658 0.11697743 0.016176362 -0.007176163 0.033454485
0.0296603 0.0029360107 -0.12648325 -0.0700907 0.10599581 0.04498468 -0.05402077 -0.020066852
-0.077510364 -0.010348538 -0.0938555 -0.11647142 -0.08663016 -0.1079546 0.061177555 -0.1013657
-0.12899837 0.08035791 -0.09963462 0.03725754 -0.12353402 0.017352607 0.104903854 0.091429345
-0.12266056 0.08827622 -0.12011138 0.075681165 0.08123655 -0.07786686 0.049031544 0.035866864
-0.007231028 0.07957625 -0.04884182 -0.014249049 -0.03784311 0.029828263 -0.0940193 -0.047530252
-0.118127994 0.05427548 -0.06276126 -0.0705702 -0.0038537062 -0.09475008 0.031393826 0.098857224
-0.13774858 -0.038416453 -0.04056762 0.04694766 -0.11294585 0.05244314 0.07129349 -0.06641633
-0.059325926 -0.120397635 -0.09801905 -0.09977889 0.04851358 -0.0070231 -0.10921145 -0.017209291
0.081904404 0.10578479 0.115838915 -0.10858063 -0.12347635 0.014238195 -0.11326492 -0.015986511
0.04894043 0.075550064 0.06349722 -0.06226051 -0.12400211 -0.010730826 0.07585111 0.054220278
0.05163778 0.06693644 0.07566288 0.080218345 -0.07601737 0.059299383 -0.03245628 0.082574025
-0.052065223 0.016178207 -0.051433552 -0.10835557 0.11312865 0.11044001 0.016877478 0.09620585
0.11359758 -0.026096392 -0.06043365 -0.0026029844 -0.012582132 -0.062243417 -0.060315393 0.0298153
0.08715386 -0.10600981 -0.13797218 -0.079848 -0.08044205 -0.022761008 0.025659781 0.010298787
0.092429504 0.019439055 -0.07214927 0.017608296 -0.14682072 0.09276544 -0.0054008844 -0.08069237
0.035696402 0.01149784 -0.055892542 -0.0106163 -0.03347699 -0.12740709 0.005924199 0.003036825
00000000: 6b4e f4bd 08ba 883b 63b3 f23c 6129 5139
00000010: 6738 253c 0a13 303d c5ee 2abb 1e8a c5bd
00000020: 532a 84bd a14a a03c f3ce cf3c f6b2 53bd
00000030: 43a0 0dbc eebf d9bc 43e1 cabd fb89 4dbd
00000040: f3fe babc e0a5 02be ef30 d43c 2e98 243d
00000050: 4683 a53c 6a9d a2bd 96ad e7bb 6fbb a7bd
00000060: 82ec a0bd 20ac 32bd e432 cebc caf7 f9bd
00000070: 1f05 da3d 1722 843d 2b46 88bb 270a d2bc
00000080: bdf4 eb3d 62bc 293d 58c0 b2bd 0261 d33d
00000090: f75f bdbd 6d37 10bd b64e 00be 6845 a4bc
000000a0: cb77 7b3c 4b79 c8bb 4b73 a03d 297e b83d
000000b0: 7096 cfbc 01d2 8b3d d6fe 873d 60b2 f8bb
000000c0: 81a5 093d 536f 18bd 1758 793d fd1e c83d
000000d0: 3d4d c13d fc0a 773b aeea fcbd 8ec8 af3d
000000e0: d9b4 983d a6d8 e4bb 4834 e7bc c6d9 99bd
000000f0: 9eaf 0f3d ef80 c33d efbe dc3d 2de6 e53c
00000100: 2d76 b13d 36ce 9abd f65b d7bd 7db2 eebd
00000110: 3a56 a13d 079b 38bd 9a4a 9c3d 6d7b b1bd
00000120: 281d 82bd 9002 4c3c a13e 84bd e56e 9c3d
00000130: 39e8 a33c 1e7c 5d3d 09ae d7bd 3189 1ebd
00000140: aa59 06bc d8a8 22bc 6326 763c 1368 5c3d
00000150: 87e2 f33c 84f2 c83d 9ad6 463d ca3f febd
00000160: 4815 023d 48bc 99bd eb32 993d 319f 683d
00000170: cd8b 4b3d 20ed 5cbd f4d8 a0bd 93b5 cebd
00000180: 422a b0bd 30ab 45bd 44b3 c0bd 88a9 263d
00000190: 668f 67bd bc04 8e3d 1647 b63c 63f9 dabd
000001a0: de90 e9bd 29e4 b63d c1f6 fcbc f65c eebd
000001b0: fe0a 893c 6690 99bc 9472 3fbd 4c42 3c3d
000001c0: ebb4 b93d 68ca 85bd 6c63 a43d 3a52 9e3b
000001d0: 3cd2 1ebc b1ca f9bd 1724 0d3d 28b3 85bd
000001e0: 12c2 3dbd 8590 e4bc 86c3 c0ba d86b f4bc
000001f0: dd91 ef3d 4a84 843c 0526 ebbb 9207 093d
00000200: 28fa f23c 166a 403b d384 01be b78b 8fbd
00000210: 5514 d93d db41 383d e244 5dbd 3d63 a4bc
00000220: c1bd 9ebd ea8c 29bc 5037 c0bd 9188 eebd
00000230: 276b b1bd 4d17 ddbd 5195 7a3d d298 cfbd
00000240: 2618 04be b092 a43d 3c0d ccbd 5d9b 183d
00000250: 67ff fcbd 0e27 8e3c d5d7 d63d 4f3f bb3d
00000260: 7635 fbbd 2aca b43d f5fc f5bd bafe 9a3d
00000270: 595f a63d a978 9fbd 4dd5 483d 22e9 123d
00000280: 42f2 ecbb dff8 a23d 5c0e 48bd d874 69bc
00000290: 6001 1bbd 675a f43c 318d c0bd 15af 42bd
000002a0: 17ed f1bd f74f 5e3d fa88 80bd 1c87 90bd
000002b0: 768e 7cbb 540c c2bd d096 003d a875 ca3d
000002c0: f70d 0dbe 925a 1dbd 3c2a 26bd 314c 403d
000002d0: 2750 e7bd 9ece 563d 5202 923d 4905 88bd
000002e0: beff 72bd 0993 f6bd 36be c8bd e058 ccbd
000002f0: 2db6 463d 0822 e6bb 41aa dfbd 80fa 8cbc
00000300: 7fbd a73d b2a5 d83d f43c ed3d 855f debd
00000310: 2be1 fcbd 5147 693c 70f7 e7bd 25f6 82bc
00000320: c375 483d feb9 9a3d d50a 823d e004 7fbd
00000330: d1f4 fdbd 59d0 2fbc d457 9b3d 1516 5e3d
00000340: 2382 533d f915 893d 24f5 9a3d 8449 a43d
00000350: ffae 9bbd e9e3 723d e0f0 04bd 921c a93d
00000360: 5842 55bd 2988 843c fdab 52bd 86e9 ddbd
00000370: feaf e73d 5f2e e23d a342 8a3c 9307 c53d
00000380: d9a5 e83d 1ac8 d5bc 4689 77bd d596 2abb
00000390: 4925 4ebc f4f2 7ebd 460d 77bd 373f f43c
000003a0: b97d b23d ac1b d9bd 9448 0dbe 5987 a3bd
000003b0: cdbe a4bd 4b75 babc 7634 d23c 3ebc 283c
000003c0: ae4b bd3d a73e 9f3c ffc2 93bd 463f 903c
000003d0: 2c58 16be cffb bd3d e7f9 b0bb 0b42 a5bd
000003e0: 6436 123d 7061 3c3c 94ef 64bd fdef 2dbc
000003f0: 2b1f 09bd 0177 02be c81f c23b 7805 473b

hidden2_Y1.bias f4 [200]
-0.048122097 0.020996833 0.03351705 0.05877823 -0.043144066 0.07538624 -0.027367426 -0.0099153565
0.026347158 0.052610233 0.019363921 -0.0037442315 0.003697878 0.07390983 0.012636893 0.020695664
-0.050197475 -0.07213797 -0.05904278 -0.06345457 0.029054055 0.047030818 0.02148074 -0.050113168
-0.04947327 0.03698829 -0.026460685 -0.022600936 0.03965336 0.04526236 0.06161515 -0.004646652
-0.022501552 0.022058524 0.012925451 0.031543016 -0.015510584 -0.028623052 0.056846607 0.018912377
-0.0018472675 -0.021400552 -0.047826227 0.053657424 -0.044269096 0.03530555 0.011969931 0.035555728
-0.042410165 0.054070093 0.0380861 0.023915386 -0.043196853 -0.0377973 0.0026950194 0.050322678
-0.049874656 -0.03908762 -0.009645682 0.062437505 0.0032850439 0.04816255 0.0007895194 -0.039917257
-0.0323167 -0.0664531 0.026144788 0.04188481 0.03596312 0.042054765 0.00512862 -0.05145723
0.053580392 -0.009227447 0.045587175 -0.034062807 -0.0008227355 0.018202746 -0.013500844 0.00514289
0.017127633 -0.049066972 0.009860962 -0.02886026 -0.064336054 -0.055283938 -0.026984511 0.05280584
0.066162325 0.059669834 0.041257884 0.045840304 0.017142596 -0.024416704 -0.06705089 0.013326288
-0.008051959 0.0023933307 0.036946755 0.037122574 -0.0076609273 -0.025173897 -0.01893751 -0.047777828
-0.030152576 0.064855695 0.008495476 0.057130273 0.052612048 -0.045728438 -0.048605897 0.069416545
-0.006668731 0.04908035 -0.061970837 0.035132464 0.009415788 -0.01759915 -0.06430539 -0.0567001
-0.0029450478 0.05518065 0.028594302 0.051611584 -0.047454882 0.02925784 -0.036121346 0.014153573
0.048832513 0.052275762 -0.0017261754 0.03300677 0.009317491 0.06753031 -0.03513157 0.04258026
0.04170783 0.0038711678 -0.025592187 0.03101462 0.025561733 0.006243567 -0.036236845 -0.0399642
0.047799215 0.04275162 0.059878763 0.023110446 -0.031413052 -0.033931006 0.04597161 -0.04158304
0.041407816 0.027665304 -0.06591607 -0.021325352 -0.05188236 -0.05654294 -0.075052276 0.0032790974
-0.023091974 0.06006795 0.0011483572 0.035237394 -0.072264336 0.03438029 -0.051813763 -0.008040435
-0.018983468 0.028365305 -0.015938718 0.05637663 0.041799936 -0.0031871868 -0.044197522 0.006914664
0.026923778 -0.069509365 0.020462424 0.017567296 -0.010105989 -0.030574324 0.06916778 -0.062263057
-0.024064407 -0.05554131 -0.027790481 -0.02323257 -0.021701677 0.046306252 0.03411712 -0.005645788
-0.02079452 0.028526098 -0.038467407 0.08754185 0.041553244 0.040711068 -0.06747291 0.037566677
00000000: ad1b 45bd 8d01 ac3c 2d49 093d 71c1 703d
00000010: d5b7 30bd 1a64 9a3d a731 e0bc 0574 22bc
00000020: ffd5 d73c d47d 573d 16a1 9e3c c861 75bb
00000030: 1958 723b 095e 973d f90a 4f3c f489 a93c
00000040: de9b 4dbd 12bd 93bd d8d6 71bd 78f4 81bd
00000050: c502 ee3c 63a3 403d 60f8 af3c 7743 4dbd
00000060: 7ca4 4abd 0881 173d 14c4 d8bc 9925 b9bc
00000070: 906b 223d 0665 393d 2b60 7c3d f142 98bb
00000080: 2d55 b8bc 14b4 b43c 45c5 533c 4033 013d
00000090: 1b20 7ebc e47a eabc fdd7 683d 21ee 9a3c
000000a0: 0320 f2ba 3650 afbc 6fe5 43bd e3c7 5b3d
000000b0: 8353 35bd 8d9c 103d 881d 443c e2a2 113d
000000c0: 48b6 2dbd 9a78 5d3d 2c00 1c3d 33ea c33c
000000d0: 2fef 30bd 57d1 1abd ec9e 303b 271f 4e3d
000000e0: 5e49 4cbd 571a 20bd ec08 1ebc 78be 7f3d
000000f0: e449 573b 1846 453d c0f7 4e3a 4780 23bd
00000100: 845e 04bd 9018 88bd 982d d63c 688f 2b3d
00000110: 114e 133d 9e41 2c3d fc0d a83b d1c4 52bd
00000120: 1d77 5b3d b82e 17bc 9eb9 3a3d 7185 0bbd
00000130: d8ac 57ba ed1d 953c a532 5dbc b085 a83b
00000140: 404f 8c3c 73fa 48bd df8f 213c 5a6c ecbc
00000150: 9fc2 83bd 6971 62bd 9f0e ddbc f04a 583d
00000160: 1d80 873d 5b68 743d 07fe 283d 0bc3 3b3d
00000170: a16e 8c3c 8a05 c8bc fa51 89bd 8156 5a3c
00000180: 5dec 03bc 6dd9 1c3b 7b55 173d d70d 183d
00000190: 8408 fbbb 7d39 cebc d622 9bbc afb2 43bd
000001a0: 8902 f7bc 10d3 843d 9c30 0b3c 6f01 6a3d
000001b0: bb7f 573d be4d 3bbd fa16 47bd 432a 8e3d
000001c0: 5f85 dabb 7a08 493d 22d5 7dbd 0fe7 0f3d
000001d0: ad44 1a3c 182c 90bc 8bb2 83bd 5d3e 68bd
000001e0: b401 41bb 1b05 623d 993e ea3c ab66 533d
000001f0: 0d60 42bd 23ae ef3c faf3 13bd 63e4 673c
00000200: 9a04 483d 1c1f 563d d640 e2ba 1b32 073d
00000210: 64a8 183c 554d 8a3d 1fe6 0fbd a468 2e3d
00000220: d4d5 2a3d 6bb3 7d3b b5a6 d1bc 5f12 fe3c
00000230: d766 d13c d696 cc3b 166d 14bd 80b1 23bd
00000240: 1cc9 433d 531c 2f3d 6f43 753d 1e52 bd3c
00000250: f9aa 00bd 3dfb 0abd ba4c 3c3d fa52 2abd
00000260: 3e9b 293d 59a2 e23c 01ff 86bd 81b2 aebc
00000270: 9982 54bd 9299 67bd 02b5 99bd 20e6 563b
00000280: 612b bdbc d009 763d 7984 963a 1655 103d
00000290: 53ff 93bd 59d2 0c3d ab3a 54bd 07bc 03bc
000002a0: 3883 9bbc 5b5e e83c ea91 82bc 2eeb 663d
000002b0: 6936 2b3d 1fe0 50bb 7608 35bd 6894 e23b
000002c0: 418f dc3c ed5a 8ebd d0a0 a73c 4ae9 8f3c
000002d0: 9793 25bc 0177 fabc d6a7 8d3d 8c07 7fbd
000002e0: b822 c5bc 497f 63bd dda8 e3bc 3b52 bebc
000002f0: b7c7 b1bc a0ab 3d3d 65be 0b3d 4d00 b9bb
00000300: 4559 aabc 90af e93c 0090 1dbd 2449 b33d
00000310: bc33 2a3d a6c0 263d 3d2f 8abd 84df 193d
