Results/Models/SAE_stacked_all_DCN_model_iter_id_1_epoch_400_lr_0.0001_mmd.pth (torch, 828598 bytes, 16 tensors)

shared1.weight f4 [200, 17]
000000 c2 14 9e bd 17 d1 de 3d b2 39 fb 3d 9c c6 1b be
       -0.07718803 0.108797245 0.12266864 -0.15212482
000010 6c 3f 97 3c a0 8f 22 be 4e 2c dd bc e2 1a 97 bc
       0.01846286 -0.15875101 -0.026998665 -0.018445436
000020 5d fd 15 3e 03 b4 65 bd 25 a8 2c bd 54 c9 78 3e
       0.14647432 -0.056079876 -0.042152543 0.2429555
000030 13 28 37 3c 39 b1 d8 3d 50 8c ae bd f5 88 65 bb
       0.011178988 0.105806775 -0.08522856 -0.003502426
000040 02 fb 63 be 6c 63 25 be e1 e2 13 be 0f 02 b2 bc
       -0.2226372 -0.16151208 -0.14442016 -0.021729497
000050 4d 12 e5 bb fc 0a 72 be 3e c1 0f bb 16 ec 2c be
       -0.006990707 -0.23637003 -0.002193525 -0.16886935
000060 dc d5 11 3e e3 06 d3 3d 18 1d 8e 3d 57 11 f9 3d
       0.14241737 0.10304048 0.06939143 0.121615104
000070 ff c9 0a be b5 ec 6c 3d 51 bf fe bd 6d 0a 7e bd
       -0.13553618 0.05784293 -0.124388345 -0.06202166
000080 99 9b 2c 3d 01 d5 3f bd 8c 10 86 3d 06 55 26 3e
       0.042140577 -0.046833996 0.06546125 0.16243371
000090 5d d3 8d bd 65 67 04 3e 2a fb 26 be 83 92 c3 ba
       -0.0692508 0.12930067 -0.16306749 -0.0014920983
0000a0 f2 de 1c 3d 47 d2 21 be e2 58 ad 3d 96 b4 af bd
       0.038298555 -0.1580287 0.08464219 -0.08579366
0000b0 69 2f 5c bd 6b 16 bd 3d 9c 77 be 3c af 7c e2 3d
       -0.05375615 0.092327915 0.023250394 0.11058938
0000c0 fc 66 04 be 79 85 3b 3d c1 fb 86 bc 02 5e 4f bd
       -0.1292991 0.045781586 -0.016477467 -0.050626762
0000d0 d9 94 36 3e 9d 3d e2 bd 62 cd 8f bd eb 30 c3 bd
       0.17830218 -0.11046908 -0.070215955 -0.09530815
0000e0 9d 39 8f 3d 07 f5 8d bd 65 d2 89 3d bf 52 02 3d
       0.06993411 -0.06931501 0.06729583 0.031817194
0000f0 14 5a 11 bd eb 5b 93 bd bd 12 d1 bb 4d 17 0b 3d
       -0.035486296 -0.07195266 -0.0063804076 0.03395777
000100 83 12 ac 3c ba aa 64 bd 72 e9 ff bd 1b 83 68 3e
       0.02100492 -0.05582688 -0.12495698 0.22706263
000110 0f f4 37 3d 6d d4 04 3e f6 a2 e7 3d 5a e4 8f bd
       0.044910487 0.12971659 0.11310379 -0.070259765
000120 6f c7 0e be b3 94 03 bd 10 24 7e 3d 72 cb e5 bd
       -0.13943265 -0.032124233 0.06204611 -0.11220445
000130 59 94 b7 3d b0 24 10 bd 4f 4b a5 3c a7 74 4f bb
       0.08963842 -0.035191238 0.020177511 -0.0031655224
000140 5c 98 61 bd be e4 cf bc 62 a0 73 3d 04 db 0d 3e
       -0.05507694 -0.025377627 0.059479125 0.13853079
000150 c2 3c f7 3c fd e0 c9 3d 0a ed 08 3e 32 f0 07 bc
       0.030180339 0.09857366 0.13371673 -0.008297013
000160 6a 98 9c 3d ca 7f 0b be 67 38 1f 3e 40 69 39 3d
       0.07646258 -0.13622966 0.1554886 0.04526639
000170 d5 b1 f0 3d e8 da 21 be 03 b2 e1 bb 59 78 43 3c
       0.11752669 -0.15806162 -0.0068876757 0.011930549
000180 9c 45 a3 3c 8f bb 1e bd 87 2c 5e bc b1 47 ab 3d
       0.019930653 -0.03875309 -0.013560421 0.083632834
000190 ae 14 bd bd 78 74 d1 3d c7 e5 9c 3c 99 7e e4 3c
       -0.0923246 0.10227293 0.019152535 0.027892398
0001a0 ef d4 d5 bd 11 b9 fb 3c 00 26 8a bd 8e 98 09 3d
       -0.104410045 0.030727895 -0.06745529 0.033592753
0001b0 fe 4a 0d be 4f e6 1e bd 33 c9 bb 3d 4e 11 1a 3d
       -0.13798138 -0.03879386 0.09169235 0.03761416
0001c0 48 b4 a6 bd a5 a5 e5 bd 6e c9 f1 bc 9c 66 60 3d
       -0.08139855 -0.11213235 -0.029514994 0.054785356
0001d0 63 6e 2b 3d 93 51 f8 3d 87 3e 3b 3c 3c 7c a1 3b
       0.04185332 0.12124934 0.011428482 0.00492814
0001e0 a9 b8 d0 3d f3 a9 a3 3c bc 07 bd bd a0 28 c8 3d
       0.10191471 0.019978499 -0.09229991 0.097733736
0001f0 b7 a4 7a bc 69 66 b0 bd a7 8f a4 3d c8 95 f0 3d
       -0.01529806 -0.08613283 0.08035212 0.117473185
000200 95 b4 db bd fc 9e 19 be 0e bf a0 3c 84 98 7a bc
       -0.10727803 -0.15002054 0.019622352 -0.015295152
000210 ff 07 6d be fd b3 27 be 8e ed 9c 3d ae b9 0d be
       -0.23147582 -0.16377254 0.076624975 -0.13840362
000220 b0 43 12 be 12 d5 2c 3d 36 72 d1 3d ae 0f 85 3e
       -0.14283633 0.042195387 0.10226862 0.25988525
000230 8f e8 f0 bd f4 d3 3c be c0 00 81 3d 76 db 56 3e
       -0.11763107 -0.18440229 0.06298971 0.20982155
000240 d8 e8 79 bd 07 90 0f bd 87 05 11 3c 17 2a 42 bd
       -0.061013073 -0.035049465 0.0088514155 -0.04740342
000250 36 42 7b bb cc 50 07 3e 25 47 a7 bd ab 03 11 be
       -0.0038339025 0.13214415 -0.081678666 -0.14161555
000260 4b ab 6c 3e b0 1e 03 be bb 54 a8 3d a2 20 d5 bd
       0.23112218 -0.12804675 0.08219286 -0.10406615
000270 68 3c a5 3d f0 e0 e8 3c 83 24 40 be 05 97 03 3e
       0.08068162 0.028427571 -0.18763928 0.12850578
000280 5f 73 b8 3d 61 85 03 bd 12 6f 06 3e 79 dc ed bd
       0.0900638 -0.032109622 0.13128307 -0.116143174
000290 6c 21 9a 3d 82 f4 26 be b4 30 ee 3b 37 ff 62 be
       0.07525906 -0.1630421 0.0072689895 -0.22167669
0002a0 9c ed 2a be d5 aa 6b bd f4 2c 12 bd c1 1f 0a be
       -0.16692203 -0.057535965 -0.035687402 -0.13488676
0002b0 9f b8 e2 3a bd 4d ca bd 7e 63 3d 3d 29 70 ef 3d
       0.0017297453 -0.09878109 0.04623746 0.11691315
0002c0 b5 cd 09 3e 0f ae 08 3e 65 83 f0 bc f7 40 c9 bc
       0.13457377 0.13347648 -0.029359529 -0.02456711
0002d0 52 df d5 bc b4 be 84 3d f8 be 89 bd fa de a6 3d
       -0.026107464 0.06481686 -0.067258775 0.08147998
0002e0 c9 22 3a be 2d f4 04 be 85 c0 10 3e c4 05 ab bd
       -0.18177332 -0.1298377 0.1413594 -0.08350709
0002f0 ed 67 67 3c 2d fe 32 3e ff dd 2a 3e 9d 53 85 be
       0.014123899 0.17479773 0.16686247 -0.26040354
000300 69 b2 44 bd 2e 7e d8 3c 23 3e 18 be 5a 86 34 3d
       -0.048021708 0.026427355 -0.14867453 0.04407344
000310 d4 03 17 3c cc 95 0a be ed d1 2d 3d dd cc 1b bd
       0.009217221 -0.13533705 0.04243653 -0.03803717
000320 69 4f 15 be 58 74 30 3e 73 5a 3c bd 4d 03 4e be
       -0.14581074 0.17231882 -0.045984697 -0.20118447
000330 de 8f 48 bd 4b ea db bd 5f 34 e0 3d cb 58 44 3e
       -0.048965327 -0.10738047 0.10947489 0.19174497
000340 36 7c 68 bd ff 8b cf bd eb b7 5e bd 1a 17 0e 3e
       -0.05675908 -0.10134124 -0.054374617 0.13876
000350 2a fb 39 3d 1d b9 7a 3d 12 9c ef 3d 05 22 fd bd
       0.045405544 0.061211694 0.1169969 -0.12360004
000360 f5 3f ea 3c 5b 9d 5d bd a5 ef 39 be d5 30 e3 3d
       0.02859495 -0.054105144 -0.18157823 0.11093298
000370 c5 93 31 be ef 23 e2 3c e3 18 27 bd d8 2d 46 3b
       -0.17341526 0.027605025 -0.04079522 0.0030239727
000380 94 17 dc bd 00 95 19 bd 64 08 5a 3d 04 0e e8 bd
       -0.10746685 -0.037495613 0.05323066 -0.11330798
000390 e5 91 87 3d cf 0f f5 3c 60 e8 37 be 7a 86 d7 bd
       0.06619624 0.029914765 -0.17959738 -0.10523696
0003a0 de 52 9d 3c 27 9c d4 3d 89 02 06 be c6 66 4b be
       0.019204553 0.10381346 -0.13086905 -0.19863424
0003b0 12 f1 26 bd cb 4f b7 3d c1 12 1a 3c cd 88 fb 3d
       -0.040757246 0.08950766 0.009403885 0.12281952
0003c0 d4 5f 25 be df d4 dc 3d 17 8f 88 3c 78 fc 13 3e
       -0.16149837 0.107827894 0.016669793 0.14451778
0003d0 92 8a 8c 3d b7 ec a5 bd f5 61 e5 3c fb 42 ca bb
       0.06862368 -0.081017904 0.028000811 -0.0061725355
0003e0 a4 83 97 bd 52 52 e8 bd 30 78 bd 3c a6 ea 83 be
       -0.07398155 -0.11343826 0.023128599 -0.2576496
0003f0 41 ed a5 bd 94 e7 83 3b f2 13 5a be 4a fb a1 bd
       -0.08101893 0.004025409 -0.21296671 -0.07909258

shared1.bias f4 [200]
000000 76 76 f1 3d 25 66 d8 3d 87 ea 64 3d 9a 3d 2c 3d
       0.11790173 0.105663575 0.055887725 0.042050935
000010 cc 6a 6b bc ff 57 35 be 8a a2 d3 bd 47 46 12 3e
       -0.014368724 -0.17709349 -0.10333736 0.14284621
000020 6d ff 60 bd bf e4 11 3e fb 55 d3 bb 57 19 e4 bb
       -0.054931093 0.14247416 -0.0064494587 -0.0069610286
000030 bf ea 34 3e d7 c2 0d bc a6 2b 26 bb 2a 00 f3 bc
       0.17667674 -0.0086524105 -0.0025355606 -0.029663164
000040 0f 54 2b be 39 26 07 be 13 30 e6 3d 7d bf 3f bd
       -0.16731285 -0.13198175 0.11239638 -0.046813477
000050 c3 e7 00 3d e0 7b 72 3c 80 2d 21 3e c0 7c 03 3e
       0.031471025 0.014800042 0.15740013 0.12840557
000060 ae 4a 51 3e 2a dd a6 3d 4f aa 7b be f9 00 ce bd
       0.20438644 0.081476524 -0.24576686 -0.10058779
000070 3c e3 54 bd 58 35 bc bd 78 84 26 3d 73 c9 ea 3d
       -0.05197452 -0.09189862 0.040653676 0.11464205
000080 b4 79 53 bd b1 bf 18 bd d9 44 81 be 31 57 d6 bd
       -0.051629737 -0.037292186 -0.2524784 -0.10465849
000090 55 17 93 3d 02 db 24 3e bf 5c 83 be 61 21 9e 3d
       0.071821846 0.1609917 -0.25656697 0.0772121
0000a0 bc 54 2b 3e 93 a0 62 be 71 20 48 be de 0e 32 3d
       0.16731542 -0.22131567 -0.19543625 0.04347121
0000b0 c5 bf 55 be af 46 53 3d 3a 2b c9 bc d2 12 91 3c
       -0.20873936 0.05158108 -0.024556745 0.01770917
0000c0 d0 e3 23 3e 47 83 35 be 27 2a f7 bd e8 35 a4 3d
       0.16004872 -0.1772586 -0.12068587 0.08018094
0000d0 8a 79 ad bd 40 1a 3f be 6f cb c1 3d f6 41 e2 3d
       -0.08470447 -0.18662357 0.0946263 0.11047737
0000e0 4d dd d3 3d c4 42 39 bd 16 a0 26 be cb aa 81 3d
       0.10344944 -0.04522969 -0.16272005 0.06331404
0000f0 4a 0e 3c be 2f 7f 6c be d5 17 be bd 3b 41 e4 3d
       -0.18364826 -0.23095392 -0.09281889 0.11145254
000100 cb f9 be bc 72 31 de bd f6 1d 53 be 3a c5 3d be
       -0.02331247 -0.10849275 -0.20616898 -0.18532267
000110 8b 14 f4 3c 62 1e 7a be 97 1c c8 bd 6a 29 f7 bd
       0.029794952 -0.24425653 -0.09771078 -0.12068446
000120 3e 39 f4 3d 77 54 fe bd de f8 12 3e 73 0e 45 bd
       0.119249806 -0.12418454 0.14352748 -0.048109483
000130 07 da 2d 3e bc 85 5c 3e c2 3f 37 be 7b d0 d9 bd
       0.16977702 0.2153539 -0.17895415 -0.106354676
000140 6d 71 81 3d 62 fe 53 bd 34 d9 8b 3d 76 a9 14 bd
       0.063204624 -0.05175627 0.068285376 -0.036294423
000150 a3 24 09 be 43 61 35 3e 9d 28 a0 bc 58 5f 1c 3e
       -0.13392882 0.17712884 -0.019550616 0.15270746
000160 1a d3 92 bd e3 6e 3d bd c9 ed 4f be df 2f 3e 3e
       -0.07169171 -0.046248328 -0.20305552 0.18572949
000170 28 7d b1 3d e7 3d e1 bd 83 e2 1b bd 04 90 02 bc
       0.0866645 -0.10998135 -0.038057815 -0.007968906
000180 c0 6d 28 3d b7 fb f0 bd 1e 2a 94 bd 80 27 50 be
       0.04112029 -0.11766761 -0.07234596 -0.20327568
000190 2f 77 5f 3d a9 fd 87 be 7b 2b 1c be 54 1e c7 3d
       0.05455702 -0.26560715 -0.15250961 0.097225815
0001a0 c2 fe 9b 3c 0c 5e ff bc 8b 65 a3 bd da 16 4c 3e
       0.019042376 -0.031172775 -0.07978352 0.19930592
0001b0 4e ea 2c 3e cf bf 05 3e b0 f9 e4 3d 6e 8a 2b be
       0.16886255 0.1306145 0.111804366 -0.16752025
0001c0 c9 90 c3 3c 81 e4 53 3e 6a 32 f1 bd 9b 3e f7 bd
       0.02387275 0.20692636 -0.11777194 -0.12072488
0001d0 b9 58 49 be 60 ea 17 be 0f e8 ed 3d be 98 8f 3d
       -0.19662751 -0.148355 0.11616527 0.07011555
0001e0 9e 08 10 be fc 1b b2 3d 9b 4d ba bd 0a dc 5a 3a
       -0.14065787 0.08696744 -0.09096833 0.00083488284
0001f0 bc f4 ea ba e3 69 91 3d 5d 30 ba bd db c9 14 3e
       -0.001792572 0.071002744 -0.09091256 0.14530127
000200 55 b7 2c be 51 3d 80 bb e5 78 46 be 72 28 3e 3d
       -0.1686681 -0.0039135595 -0.19382055 0.04642529
000210 8a 49 a6 3b f5 cd 5c be 2e 09 66 3c 39 1b 13 3e
       0.0050746845 -0.21562941 0.014040275 0.14365853
000220 43 c9 1b 3e d8 7b 45 3e d6 2d 5b 3e 7a 1b 18 bd
       0.15213494 0.19285524 0.21404204 -0.03713558
000230 fc 86 33 3d 6f 53 84 3d d7 20 d8 bd 66 77 14 bd
       0.043829903 0.06461226 -0.10553139 -0.03624668
000240 36 ef ac bd 9e 75 c9 3d a0 72 2a 3e 0d 21 26 be
       -0.08444063 0.09836887 0.16645288 -0.16223545
000250 1f 64 a4 bd e3 2d 83 be 27 03 e2 bd 36 6e 1e 3d
       -0.08026909 -0.25620946 -0.110357575 0.038679324
000260 9b 9e 45 3c 80 f0 8d 3d 23 ed d0 3c d0 dd 59 be
       0.01206174 0.06930637 0.0255037 -0.21276021
000270 0b 75 bf bd e9 5c da 3d 47 f1 5b be c7 a0 48 be
       -0.09348496 0.106622525 -0.21478759 -0.19592582
000280 0f 10 26 3e aa be 1c 3d 0c 92 9e bd ef d5 82 be
       0.16217063 0.03826777 -0.077427 -0.25553843
000290 c7 6c 27 be a8 94 3b be 0b 2d 60 be 9d 0b 97 3c
       -0.16350089 -0.18318427 -0.21892183 0.018438155
0002a0 2f 84 0a be 55 b2 8f 3d 87 6f 8d 3d ac bd ab 3d
       -0.13526987 0.07016436 0.06906038 0.083857864
0002b0 76 a9 38 be 87 d3 a1 3d 68 ff 0d be f8 2a 94 3d
       -0.18033394 0.07901674 -0.13866961 0.07234758
0002c0 57 00 d1 3d 27 cb 6d 3d 95 0a fd bd f7 8b 14 3e
       0.10205143 0.05805507 -0.12355534 0.14506517
0002d0 21 d1 4c be b5 1e 79 bd f9 13 97 bd 1b 32 e2 3d
       -0.20001651 -0.0608203 -0.07376856 0.11044713
0002e0 7f f1 08 3e 7b 17 30 bb e5 4b 7c be ce aa 33 be
       0.13373373 -0.0026869464 -0.24638326 -0.17545626
0002f0 af 9a f6 bd 53 f1 22 3e cf 21 32 be 5b 3f 81 be
       -0.12041222 0.1591237 -0.1739571 -0.2524365
000300 ed 83 f8 bd 71 e2 4f 3d 24 de 18 3d 65 8f b1 bb
       -0.12134538 0.05075306 0.037321225 -0.0054187053
000310 f3 66 02 3e 61 8d f8 3c a2 d8 37 3e 7e 17 be 3d
       0.12734585 0.030340852 0.17953733 0.092818245

shared2.weight f4 [200, 200]
000000 e3 da fb 3c 2f 86 34 3c ba 67 b0 bd 4a e4 ef bb
       0.030744022 0.01101832 -0.08613534 -0.0073209153
000010 04 b5 81 bd f7 96 08 3c 2b 44 d3 bd 3c 27 cb 3d
       -0.06333354 0.008336774 -0.103157364 0.09919593
000020 5a fc 6f 3c d8 7e 00 3e 7e 7b 10 3d a8 59 b3 bd
       0.014647568 0.12548387 0.03527402 -0.08757335
000030 8d 60 86 3d fc 6b 95 3d 8d cb 96 bb 6f ea 6e 3e
       0.06561384 0.07295987 -0.004601902 0.23331617
000040 33 55 8e bd aa 3a d1 bd 4e e3 b1 bd d6 88 3f bd
       -0.06949844 -0.102162674 -0.08685933 -0.046761356
000050 7b 3a bc 3d a8 10 a5 3d 46 32 a4 bd dc 03 a6 bd
       0.09190842 0.080598176 -0.080174014 -0.08106205
000060 29 9a d7 bd 8b 8f e9 bd 8d cf a4 3d 98 75 1c 3d
       -0.105274506 -0.11404332 0.080474 0.038198084
000070 3e 16 d0 3d 29 66 7d bd b6 30 30 bc 66 55 cf bc
       0.10160492 -0.061865006 -0.010753801 -0.025309276
000080 0d 82 ab bd 12 f8 e6 bd ac 29 c7 3c 7a 2a 03 3d
       -0.083744146 -0.112777844 0.024311863 0.03202293
000090 70 2c 9c bd b0 3d 19 3b a0 f8 c2 3d b4 c4 43 bd
       -0.07625663 0.0023382716 0.09520078 -0.047795013
0000a0 3e 37 d3 3c 60 7f b2 bc 31 fe 5e bb 93 49 0c 3e
       0.025783177 -0.021789253 -0.0034026022 0.13699941
0000b0 73 55 0c 3e 1d 4a d5 3d 70 05 8d bc 7b fd 00 3e
       0.13704471 0.104145266 -0.017214507 0.12596695
0000c0 f6 d0 28 3d 41 82 fb 3c 11 2b 20 3d eb 93 cb 3c
       0.041214906 0.030701758 0.03910357 0.024850806
0000d0 99 92 ac 3d c9 cc cc bd 7f 21 85 bd c5 ee ed 3d
       0.08426399 -0.09999997 -0.065005295 0.11617807
0000e0 8b 72 7b 3d b2 f3 52 3e b5 3b 49 3e 01 0a 13 bd
       0.061388534 0.20600775 0.19651683 -0.035898212
0000f0 08 d2 6c 3d 1f 04 64 3d d5 25 46 bd 04 93 bf 3d
       0.05781749 0.055667993 -0.048375923 0.09354213
000100 26 45 7c bd f8 32 a3 bd 9e 77 22 3e 46 66 ec 3d
       -0.061589383 -0.07968706 0.15865943 0.115429446
000110 6a 21 b4 bd 21 d1 32 3d bc 03 e3 bd 3f f7 18 bc
       -0.08795436 0.043656472 -0.11084697 -0.009336292
000120 55 8c 5c 3d 4f 22 95 3d 4a d6 6b bd 5a 60 17 3e
       0.05384477 0.072819345 -0.05757741 0.14782849
000130 80 75 da bc 37 6a 1c 3d cb 53 10 3e e6 02 b2 3d
       -0.026667356 0.038187232 0.14094464 0.08691959
000140 eb 00 53 bd eb 91 df bc f5 5d bb 3d 60 a9 01 bd
       -0.051514547 -0.027291259 0.0914878 -0.03165567
000150 1f 12 5c 3d a7 09 cc 3d 19 87 83 3d e1 34 ec 3d
       0.05372822 0.099627785 0.06422252 0.11533523
000160 4a 16 5e bd a4 16 25 3e cd c1 24 3d 55 c4 b9 bc
       -0.054220475 0.16121918 0.040223885 -0.022676626
000170 2e 99 9d 3d 31 f1 9e 3d 5b 03 23 bd 0e 03 b1 bd
       0.07695232 0.07760847 -0.039798122 -0.08643161
000180 2f a2 65 3c de f1 18 bc 36 7b 14 3e be ea 08 3d
       0.014015718 -0.009335009 0.14500126 0.033426993
000190 9e 2d c8 3b 61 6b 3b 3e 03 7b 0d be b9 6d 08 3e
       0.0061089536 0.1830268 -0.13816456 0.13323106
0001a0 af c7 77 3b 5d 42 b0 bd 14 1e 8f 3d 10 99 28 bd
       0.003780823 -0.08606408 0.06988159 -0.041161597
0001b0 0e 88 4e bd 53 1c 41 bd 7d fe 38 bd 2c d5 7b 3d
       -0.05042272 -0.047146153 -0.045164574 0.061482593
0001c0 f2 c5 65 bd 43 90 34 3e 25 d7 3c 3e f6 2c b8 3c
       -0.05609698 0.17633156 0.18441446 0.022482377
0001d0 ce 8f b3 bd 02 39 c6 bd 2b b8 aa bd 31 c6 df bc
       -0.08767663 -0.09678842 -0.083359085 -0.027316185
0001e0 5a 30 44 3c ea 8e d6 3d e1 2d 8a 3d ff d3 69 3d
       0.011974419 0.104764774 0.06747032 0.05708694
0001f0 36 5a 90 3d 2f 9f d6 3d 9e 63 36 be b0 94 ed 3d
       0.07048456 0.104795806 -0.17811438 0.116006255
000200 45 1d 60 3d a5 63 89 ba 55 1a d9 bd 8d 90 87 3d
       0.054715414 -0.0010481967 -0.106007256 0.06619368
000210 a3 31 61 3e 81 a6 84 3e ee 78 2b 3d 5d 36 04 3e
       0.21991591 0.25908282 0.041863374 0.12911363
000220 64 0d 40 3d 4b f1 39 bc 22 03 20 bc 04 4a 9c 3d
       0.04688777 -0.011349033 -0.009766372 0.07631305
000230 a5 10 d5 bd b7 01 ba 3d 33 87 01 bd c2 91 00 3e
       -0.10403565 0.09082358 -0.031623077 0.12555602
000240 46 a0 41 3d e4 0b 09 3e fc df 19 3e ef ad 9f 3d
       0.04727199 0.13383442 0.1502685 0.07796847
000250 d9 28 92 3d 18 63 43 3d 53 ef e1 bd f8 7e 0b 3e
       0.07136697 0.047701925 -0.110319756 0.13622653
000260 aa 93 7e bc 5e 34 1f 3e b6 62 81 bd 97 f1 df bc
       -0.015538136 0.1554732 -0.06317656 -0.027336879
000270 1b 09 ad 3b d1 cc 01 3d 51 7b 4b 3e 5c 9e 6d 3c
       0.0052806265 0.03168947 0.1987126 0.014503088
000280 9c ee c0 3d ec 74 41 bd 59 62 55 bd a0 af 19 3d
       0.09420511 -0.047230646 -0.052095745 0.037521005
000290 7f d2 20 3e 21 99 97 3d cd c7 d4 3c 44 25 d8 3d
       0.15705298 0.07402254 0.025974179 0.10553983
0002a0 58 be 2a 3d cd 64 d4 3c 52 7f f6 3d 1b f6 81 bc
       0.041685432 0.025926972 0.12036003 -0.015864423
0002b0 4e 4d 29 3e 06 1f ca 3c fb e0 af bc 91 71 7a 3d
       0.16533396 0.024672996 -0.021469584 0.06114346
0002c0 04 44 f5 3d fb 4d a2 bc 20 fa 92 bc 17 96 6e 3d
       0.119758636 -0.019812575 -0.017941535 0.058248606
0002d0 ab d1 7b 3d 54 d5 fb bd eb b4 31 bb 40 ee e5 bc
       0.06147925 -0.122965485 -0.0027115892 -0.028067708
0002e0 d9 cf d0 3c 73 e9 ab 3d 1b d3 51 3e c0 9c fd 3c
       0.025489734 0.08394136 0.20490687 0.030958533
0002f0 f0 dd c4 3d 8a 56 fa 3d e0 16 e2 3c 23 ba b0 3c
       0.09612644 0.12223537 0.027598798 0.021573132
000300 df ae d6 bd 38 d9 69 bd b0 10 7f 3d 6c 35 97 3d
       -0.10482573 -0.05709192 0.062271774 0.07383236
000310 c3 57 08 3e de 54 f1 bc 96 57 b9 3d b6 3f 05 3e
       0.13314728 -0.029459413 0.09049909 0.13012585
000320 47 10 b9 3d e8 6a 69 bc 51 71 be 3d c9 49 d7 3c
       0.09036308 -0.01424668 0.09298957 0.0262803
000330 0d 1e 96 3d 77 c1 80 3d 49 a1 d9 bd 01 34 34 bc
       0.073299505 0.062869005 -0.10626466 -0.010998727
000340 41 6c 21 3e e9 f9 cd 3d c7 24 b4 3b bc 17 97 bc
       0.15763952 0.10057432 0.0054975483 -0.018443935
000350 a3 f3 cc 3d 68 0b ca bc aa 0e a5 3d 66 22 54 3e
       0.100074075 -0.024663642 0.080594376 0.20716247
000360 e9 6e 25 bd 1c bf ef 3c 07 2e 7b bd 5b a7 2b 3e
       -0.040388975 0.029265933 -0.061323192 0.1676306
000370 7a 28 00 be 24 fb 70 bd a6 ef 6e bd 74 99 2f 3d
       -0.1251544 -0.058833256 -0.058334015 0.042870954
000380 ba ec 6d bd 00 d6 34 3c 8d 78 cd bd d1 b1 91 3c
       -0.05808709 0.01103735 -0.10032759 0.017784985
000390 a5 16 30 bc ec ab da 3d 68 0e 6a 3c 38 5a 83 bd
       -0.010747586 0.10677323 0.014285661 -0.06413692
0003a0 f2 fd 8e bd 8f 7c a8 3d ea a0 df 3d 97 3f 76 bc
       -0.0698203 0.08226883 0.10919364 -0.015029809
0003b0 93 a1 0d bc ea fc c6 bb 2c 6c e6 bc b4 8a 95 3c
       -0.008644479 -0.00607263 -0.028127752 0.018254615
0003c0 61 aa 34 bd 60 76 dd bd 74 c1 9a 3d e9 a8 9e 3d
       -0.0441078 -0.10813594 0.075564295 0.07747061
0003d0 46 ce 87 3c 3e dd fb bc 42 cd 86 3d 7f d2 04 3e
       0.016577851 -0.030745145 0.065821186 0.12970923
0003e0 39 d3 29 bc 9f 36 80 bd a8 a2 20 3e 6c d2 b6 bd
       -0.010365301 -0.06260418 0.15687048 -0.089268535
0003f0 d7 61 1c bd ac 53 32 3d a6 0a c3 3d e3 4d 18 be
       -0.038179245 0.043536827 0.095235154 -0.14873461

shared2.bias f4 [200]
000000 1d 27 fe bc 30 ad 62 3b 74 26 79 bd f3 6e aa bd
       -0.03102451 0.003458809 -0.060827687 -0.08321943
000010 21 31 85 3d bb 7b 2a bd 1e 53 0b 3d 36 b2 72 bd
       0.06503511 -0.041621905 0.034014814 -0.059251986
000020 97 72 7f bd 37 88 53 bc 63 9f ef 3b 40 72 29 3d
       -0.06236514 -0.012910894 0.0073127015 0.041368723
000030 3e c1 86 bc ad cf a0 3d 4c 4c bf bd 4e f7 27 3d
       -0.016449567 0.07852111 -0.09340724 0.041007333
000040 4d 7c 25 bd 09 5d 74 3c 99 e6 5a 3b 48 02 8a 3b
       -0.040401746 0.014914759 0.0033401607 0.0042116977
000050 f1 76 41 bd 21 98 be bd 2f ad 3a 3d 0d f0 cb 3c
       -0.047232572 -0.0930636 0.045575317 0.024894739
000060 7e 1b 9d bc 97 19 06 3d 86 45 fa 3b a1 4f a3 3c
       -0.019178148 0.032739248 0.0076376824 0.019935431
000070 5b 52 b6 bc e7 76 49 3d 5b 90 c5 bb 66 15 51 bd
       -0.022256067 0.04918566 -0.0060291714 -0.051045798
000080 6b 15 cf bd 10 54 87 bd 00 4e 96 bd 25 6a 30 3d
       -0.10111507 -0.066078305 -0.07339096 0.043069977
000090 32 dd 31 3d f1 83 d2 bc 42 fe 2e 3d bd a9 9a bc
       0.04342384 -0.02569768 0.042722948 -0.018879766
0000a0 f6 9a e5 3c 1a 52 46 bd c3 ef cd bd ae b9 26 be
       0.028027993 -0.048418142 -0.100554965 -0.16281769
0000b0 92 e1 64 bd 6c 45 1c bd 98 b1 cc bd c6 5e 1f 3c
       -0.055879183 -0.038152143 -0.09994811 0.009727186
0000c0 e9 84 29 3d eb 03 0e 3d 98 61 98 bd f3 85 78 3d
       0.04138652 0.034671705 -0.074404895 0.06067462
0000d0 08 db 68 bc 52 7c f7 bc 62 fb a2 bc db b5 65 bd
       -0.014212377 -0.030210648 -0.01989526 -0.056081634
0000e0 8b 7e 90 3d 48 e6 38 3c 01 ea c8 3b 1b 1c 86 bb
       0.07055386 0.011285372 0.006131411 -0.004092706
0000f0 c4 53 cb 3d cc 54 0d bd 9b e9 b9 bb 7d 8b 34 3d
       0.099280864 -0.034504697 -0.0056736 0.04407834
000100 fb e3 85 bc cd ab 8f 3d f6 52 56 bd fd 3e c2 3c
       -0.016344061 0.0701519 -0.05232521 0.023711676
000110 94 33 d7 bc 4e 2f e0 bc 2e 6e 64 3d 8a 8a e6 bd
       -0.026269712 -0.027366307 0.055769138 -0.11256893
000120 f3 ad 42 bc b4 3f 5c bc b8 8a f0 bc b6 9d 36 bd
       -0.011882293 -0.013442922 -0.029363021 -0.044584
000130 01 40 8a bc 7f fc bd bd 4b 0e 85 bb d8 e8 df 3c
       -0.016876223 -0.092766754 -0.0040605417 0.027332708
000140 bb 35 fa bd b3 eb 87 bc ce 32 ca bd 55 ca 4a bd
       -0.122172795 -0.016591882 -0.098729715 -0.049509365
000150 9d 09 90 3b 0c fb 9e bd 4e 55 32 bd 1a df 85 bd
       0.0043956772 -0.07762727 -0.043538384 -0.06536694
000160 05 f5 50 bc ed 49 95 bc 2a 24 33 bc 7a 78 84 bb
       -0.01275373 -0.018223727 -0.010933915 -0.0040426822
000170 bc ed 10 bd bf 14 46 3c 1c 6b 83 bd b7 5e 89 3d
       -0.03538297 0.012089907 -0.06416914 0.067075185
000180 5a 3e 14 bd 21 81 00 3c 15 a7 e5 3c f9 b0 00 be
       -0.036192276 0.007843287 0.028033772 -0.1256751
000190 50 d1 85 bc 07 f6 a1 3c 09 17 4c 3c ce fc ea bc
       -0.01633516 0.019770635 0.012456664 -0.028685
0001a0 1b 4d 45 bc ae d6 80 bd 35 0d 6c bd 79 fd 86 3c
       -0.012042309 -0.06290947 -0.057629783 0.016478287
0001b0 8a 39 0d bd c2 f8 c6 3c 06 ef 8b bc 85 bb 45 bd
       -0.0344787 0.024288539 -0.017081749 -0.048274536
0001c0 5b 91 a3 bd 1d 42 ed bd d6 ad 43 3d b8 99 d3 3c
       -0.07986709 -0.11584876 0.047773205 0.025830135
0001d0 0c 0f 1c bd e8 c0 37 bd 00 cc 6b bd 7f b2 63 3d
       -0.038100287 -0.044861704 -0.057567596 0.05559015
0001e0 15 fd 9d bd 5a 73 35 3c 93 47 6a 3b 5f ba 81 bd
       -0.07714287 0.011074865 0.0035748228 -0.063343756
0001f0 25 b6 30 bc 82 51 e8 3c d8 ea 2b 3d 8f d9 f1 bb
       -0.010785614 0.028359178 0.04197201 -0.0073806713
000200 e8 b0 6b 3c 25 f2 2c 3d 28 97 70 3c f1 53 8d 3d
       0.014385439 0.042223115 0.014684476 0.06900776
000210 60 17 86 bd 8f b5 9e bd d0 71 2b bd ef be 72 bd
       -0.06547427 -0.07749473 -0.041856587 -0.05926412
000220 da 9f 56 bd 37 a9 f2 bb d3 f0 19 bd 15 af 05 bd
       -0.05239854 -0.007405426 -0.037583183 -0.032637674
000230 2b db c1 bd 71 33 6e 3b 9a 9a 9c 3c 07 58 e7 bc
       -0.09465631 0.003634658 0.019116689 -0.028240217
000240 7d f4 ff b9 0e ff cc 3c 35 60 92 bd bb 0c 43 bd
       -0.00048819548 0.025023963 -0.07147256 -0.047619563
000250 f5 f7 c7 bc 91 1c 0d bd 77 2d 90 3d 5f de 50 bd
       -0.024410227 -0.03445107 0.07039922 -0.05099332
000260 42 30 ce bd b4 dd 8a bc fa fe a3 3c a1 72 09 3d
       -0.10067798 -0.01695142 0.020019043 0.033556584
000270 ae ca 2b 3d 91 d6 d2 3b ef ab 90 3d f6 0c 7a 3d
       0.041941337 0.0064342697 0.07064044 0.061047517
000280 70 39 a0 bd 25 9c 60 bd 77 9a c2 3d f7 73 91 3c
       -0.07823455 -0.05483641 0.09502118 0.017755492
000290 91 d8 bc bd e7 97 77 3d 7d 8e 4f 3d db 78 40 3d
       -0.09220994 0.0604476 0.050672997 0.046990257
0002a0 b3 e4 b3 bb c9 36 46 bd 36 bc a1 3b 96 d6 24 3d
       -0.0054899096 -0.04839209 0.0049357666 0.040243708
0002b0 c7 c1 ba bd d8 cf 84 bc fe 9d 19 bd ec d7 1e 3d
       -0.09118991 -0.016212389 -0.03750419 0.038780138
0002c0 12 96 a2 bc 61 03 04 bc 2b 2b b1 bd 1c 4a 94 bd
       -0.01984695 -0.008057446 -0.08650812 -0.07240698
0002d0 61 15 82 bd a5 5a 22 bd d9 0d 08 bd ff c8 24 bd
       -0.06351734 -0.039637227 -0.03321633 -0.040230747
0002e0 b2 1b 38 3d a9 65 85 bd c6 3e 62 3d 2b ca c6 bc
       0.044948287 -0.06513531 0.055235647 -0.024266323
0002f0 26 d7 2f bc 30 3f 34 bd 2d 06 d6 bd fd 6c 2d bd
       -0.010732448 -0.044005573 -0.10450397 -0.042340267
000300 04 16 7c bd b6 e3 4e bd 34 2e 13 bd f8 0d 9b bd
       -0.061544433 -0.05051013 -0.035932735 -0.07571024
000310 3c ab 8c bd 4f 4c c1 bd 2b 46 a1 bb 4f 0a 77 bd
       -0.06868598 -0.09438383 -0.0049216948 -0.060312565

hidden1_Y1.weight f4 [200, 200]
000000 9b de c1 bd 2b 33 56 bc 1c e8 1c bd 77 b8 e2 3d
       -0.09466287 -0.013073723 -0.038307294 0.1107034
000010 4a 8e 4c 3d 8e ed 77 3d 09 4b 8d bd 77 71 ab 3d
       0.049940385 0.060529284 -0.068990774 0.08371251
000020 f9 71 5b bd cb 01 8f bd 91 9a d6 3d 00 5b c7 3d
       -0.05357549 -0.06982764 0.104787 0.09734154
000030 7c 8b ba bd 6d 0d 09 3e d0 59 64 bd f3 cc 94 3d
       -0.09108636 0.13384028 -0.055749714 0.072656535
000040 65 64 a4 bd 3c 72 80 bd 5f 0a cf 3d f6 fc bd bd
       -0.08026961 -0.062717885 0.101094 -0.09276764
000050 cc 76 0f bc e2 ef a5 3d 63 ff b5 bd 0e da 8f bd
       -0.008756351 0.08102395 -0.08886602 -0.070240125
000060 59 b5 5d bd 02 44 02 bd ce 4d cd 3d cc 5c 39 3d
       -0.054128025 -0.03180314 0.10024606 0.045254514
000070 46 30 90 bc bc 6f a5 3c 9c 85 19 3d a8 26 18 bd
       -0.017601144 0.02019488 0.037480935 -0.03714624
000080 12 7c ec 3d d7 f6 ab bd 9b 1f 73 3d 38 1f 4d 3d
       0.11547102 -0.0839669 0.059356313 0.0500786
000090 f0 bf 47 3d fc f7 39 3c 46 cb 86 bd f7 83 d9 bc
       0.04876703 0.011350628 -0.0658174 -0.026552184
0000a0 bf 06 b4 bc 12 c5 ac 3c cd 17 be bd c0 07 97 bd
       -0.021975873 0.021090064 -0.092818834 -0.07374525
0000b0 8c e4 92 3d b4 d8 33 3d b5 8a b8 bd 8c 24 d0 bc
       0.07172498 0.043907836 -0.09010831 -0.025408052
0000c0 a1 78 41 bd 8c 23 d1 3d d0 17 e5 bc 90 be e2 3c
       -0.04723418 0.10211858 -0.027965456 0.027678758
0000d0 eb a7 d7 3d 3e 1d 27 3d 3c e7 c1 bc c3 7f 4c 3d
       0.10530075 0.040799372 -0.023669831 0.04992653
0000e0 a3 a3 7d 3c fd f7 b2 3b 15 0b 38 bd e2 4e 96 bd
       0.015480909 0.0054616914 -0.044932444 -0.073392645
0000f0 4c af 3a 3d 71 b3 89 3d 71 62 a8 3c 64 71 79 3d
       0.045577332 0.06723679 0.020554753 0.060899153
000100 83 53 a7 bd e8 41 a7 bd f2 c0 7f bd 1d 6e 83 3d
       -0.081702255 -0.081668675 -0.062439866 0.06417487
000110 86 45 94 bc 99 c1 c8 3d 20 3d a9 3c eb 22 52 bc
       -0.018099558 0.09802551 0.02065903 -0.012825708
000120 ab 40 4f 3d 95 04 f1 bd 29 ef 52 3d 7b 22 1c bd
       0.05059878 -0.11768452 0.051497612 -0.03811882
000130 a7 d0 ae bd 03 ea 4a bd 09 4d 67 bd 0f 43 8b 3d
       -0.08535891 -0.049539577 -0.05646995 0.067999
000140 70 82 e8 3d 5c cd b6 bd b5 01 20 3d 26 76 93 bc
       0.11353004 -0.08925888 0.039064128 -0.018000674
000150 0c f2 5f 3d 81 62 0f 3d 76 56 27 bd 78 d2 9a 3d
       0.054674193 0.03500605 -0.04085394 0.07559675
000160 84 b0 8d 3d df 61 cb 3d b8 78 8f bd 5f ea bc bd
       0.06918433 0.09930777 -0.07005447 -0.0922439
000170 29 87 4f 3d 30 dd 14 3d d5 45 aa 3d b7 68 28 3d
       0.05066601 0.036343753 0.08314101 0.04111549
000180 46 60 c7 3d be 60 02 3e a5 7d d4 bc 40 14 01 be
       0.097351596 0.12732217 -0.025938818 -0.12605381
000190 42 27 c3 bc 5a a4 bf bd 89 e5 c3 bd 1a d9 fa 3d
       -0.02382243 -0.093575194 -0.09565265 0.1224844
0001a0 4b 1f d4 3c 5d 16 be 3c 8e de 4e bd 85 50 20 bd
       0.025893828 0.023204023 -0.050505213 -0.03913929
0001b0 80 2e 6e 3d 8a e2 0b bd 7e 77 ad 3c 85 48 64 3b
       0.058149815 -0.03415159 0.021175142 0.0034833264
0001c0 79 3e 8c bd 90 60 9e 3a 65 d4 8b bb d2 6d 51 bd
       -0.06847853 0.0012083221 -0.0042672628 -0.051130123
0001d0 74 b5 ad 3d 66 c3 46 3d e2 1a e7 bd b5 48 1c 3d
       0.08481875 0.04852619 -0.11284424 0.038155276
0001e0 ab b3 42 bd eb 8c 72 3d ae a7 4c 3d 79 85 c7 3c
       -0.047534626 0.05921642 0.0499646 0.024355637
0001f0 94 b8 b7 3d 8d 51 4d 3d 7f 95 56 3d 36 9e 94 bb
       0.08970752 0.0501266 0.052388664 -0.004535462
000200 67 f1 b9 3d b4 48 00 bd 52 21 68 3d d3 ea a6 3d
       0.09079247 -0.031319335 0.0566724 0.08150258
000210 7d c4 f3 bd 77 7a 02 3e 4f 9a 45 3d 3b 11 b5 3b
       -0.119027115 0.12742029 0.048242863 0.0055257357
000220 a3 1e df 3d fc b8 9a 3d 2e da e4 bd e6 5c 42 bd
       0.10894515 0.07554814 -0.11174427 -0.047451876
000230 12 10 99 3c 29 e1 28 3c 31 72 b0 3d c1 97 c3 3d
       0.01868442 0.010307589 0.0861553 0.09550429
000240 85 5b 68 3d 0d 0f 85 bd 7f e3 ed bb eb b2 5a 3d
       0.056727905 -0.06497011 -0.0072597857 0.053393286
000250 17 8e 2a 3d 61 33 c9 bd d5 ed 08 3d 26 f1 ac 3d
       0.041639414 -0.09824253 0.03342994 0.08444433
000260 c5 7b e0 bd 6d 77 bf bc 93 a3 60 3c 26 70 bd bd
       -0.10961107 -0.023372376 0.013710874 -0.09249906
000270 f7 b1 14 3d 43 ba f5 3d 7a 88 98 bd 27 f0 e5 3d
       0.036302533 0.11998417 -0.07447906 0.11227446
000280 4e 53 fe bc 3c 34 85 3d 80 2b 7f ba cc e6 88 bc
       -0.031045582 0.065041035 -0.000973396 -0.016711615
000290 16 2a f3 bd 44 af ca bd d2 93 dc 3d 7f 0c 12 3d
       -0.11873262 -0.098967105 0.10770382 0.03565645
0002a0 b7 af 5d 3d ba 5b f8 3d 4c 9e 19 bd b7 5e 14 bd
       0.054122653 0.121268705 -0.03750448 -0.03622314
0002b0 67 1c c0 3d 48 21 83 3d d6 ba 07 be a9 75 e6 3d
       0.09380417 0.06402832 -0.13254866 0.11252911
0002c0 87 ac 22 bd 3e d7 e0 bd e4 26 aa bd da 94 b5 3c
       -0.039715316 -0.10978554 -0.08308199 0.022165705
0002d0 9e 4e 47 bd 51 e6 c6 bd 17 42 de bc ba f3 42 3d
       -0.04865896 -0.09711898 -0.027131123 0.047595717
0002e0 d2 d3 f2 3c ec 45 02 be 1d 46 53 bd 76 47 b0 bc
       0.02964202 -0.12721986 -0.051580537 -0.02151845
0002f0 7b b9 79 bc f1 4b 26 3d 9b df cb 3d 2c 16 b5 bd
       -0.015241976 0.040599767 0.09954759 -0.088421196
000300 1e 01 a5 3d 7d 11 bf 3d 7d 6c d0 bd c1 37 6e 3d
       0.08056854 0.093295075 -0.101769425 0.05815864
000310 01 fd b3 3b db 7e 47 3d 28 87 f0 bd ea 11 f2 3d
       0.005492807 0.048704963 -0.11744529 0.11819823
000320 78 2d 44 3d b0 76 6a 3d 0e b6 00 3e 5e ba d0 ba
       0.047894925 0.057242095 0.12569448 -0.0015924682
000330 25 c5 23 3d e2 9c c3 3d 76 28 9f 3c bd b8 e0 3a
       0.039982934 0.095514074 0.019428473 0.00171449
000340 00 f5 b2 3d 59 55 cd 3d 6a f0 ad bc c1 4d f2 3c
       0.08738136 0.100260444 -0.021232802 0.029578092
000350 64 18 f2 bc f9 09 bc 3d 2e ac cb 3d c0 ba df bd
       -0.029552646 0.0918159 0.0994495 -0.109242916
000360 63 77 c9 bd 61 37 da bd 27 0f 5a 3d 06 54 58 3b
       -0.09837224 -0.10655094 0.053237107 0.0033009066
000370 10 43 a2 3d a4 0e 70 3d 41 c9 f6 3d e6 03 1f 3d
       0.079229474 0.058607712 0.12050105 0.038822077
000380 fc 1b ad bd f5 b5 36 3c 40 47 64 bd 14 39 fb 3b
       -0.08452603 0.01115178 -0.05573201 0.0076667164
000390 04 22 9c 3d a3 a7 2c 3d 7b d5 0c 3d 4e 55 c8 3d
       0.076236755 0.04215206 0.03438328 0.097818956
0003a0 ad 8b ce 3d 70 a6 a4 3c da 85 73 bd b3 11 ef ba
       0.10085235 0.020098895 -0.059453823 -0.0018239528
0003b0 2d 82 b1 bd 79 b6 a1 3d da b3 e2 3c 05 ae ac bd
       -0.08667407 0.07896132 0.02767365 -0.08431629
0003c0 96 c6 92 3d 2b 3c c4 3c ee d7 82 bd 04 23 4b bd
       0.071667835 0.023954472 -0.063888416 -0.04959394
0003d0 e8 81 be bc b3 15 a0 bd c4 cc c0 bd 31 8e 8e bd
       -0.023255304 -0.07816639 -0.09414056 -0.069607146
0003e0 cc 7e bc bd 8e 4c d7 3d 3c 2f 1d 3d d2 f7 78 bc
       -0.09203872 0.105126485 0.038375124 -0.015195804
0003f0 ad de 16 bc cb 8c d0 3d 2b b3 62 bd 9f 04 b2 3c
       -0.0092083635 0.10183104 -0.05534665 0.02173072

hidden1_Y1.bias f4 [200]
000000 c8 91 74 bd 7f 27 1a 3d 9f d4 2b bd c0 97 50 bd
       -0.05970934 0.037635323 -0.04195082 -0.05092597
000010 ce 88 27 bc dd f6 71 bd 65 2f 4c bc 11 40 ba 3c
       -0.010225488 -0.059073318 -0.012462472 0.022735627
000020 fd dd 7a 3d e0 f4 7f 3d df e4 9f 3b 3a 83 5c bd
       0.06124686 0.06248939 0.0048795785 -0.053836085
000030 31 43 56 bd a9 27 31 bd fe 2f 2e bc f1 a1 38 3d
       -0.052310172 -0.043250713 -0.010631559 0.045076314
000040 bf 51 7a 3d 63 82 4c 3d b4 0b 69 3d 44 7e 2e 3d
       0.061113115 0.049929034 0.056895927 0.042600885
000050 ed be f6 bc 13 1c 18 3d be ab 38 3d 83 88 2c 3d
       -0.030120337 0.03713615 0.04508566 0.042122375
000060 29 38 14 3d 7e 94 89 bd b6 f5 a2 bc 11 a0 6f 3c
       0.03618637 -0.06717776 -0.019892555 0.014625565
000070 8b a4 6d 3d ad 11 55 bc 10 cc 26 bd ca c7 86 bd
       0.05801825 -0.0130047025 -0.040721953 -0.065810755
000080 50 db 3f bd ba 1a 5d 3d bd b3 ea bc 0c 83 e1 bc
       -0.046840012 0.053980567 -0.028650159 -0.027528308
000090 2b b6 14 bd 86 d7 ec 3b 23 97 88 3d 7d 6a 11 3d
       -0.03630654 0.007227841 0.06669452 0.035501946
0000a0 d0 f4 4d bd 09 90 9e bc 76 70 68 3c 8a 29 40 3d
       -0.0502823 -0.01935579 0.014186969 0.046914615
0000b0 10 29 51 bd a0 29 5e 3c b6 9e 8f bd ec ee 70 3d
       -0.05106455 0.013559729 -0.070126936 0.058821604
0000c0 d1 87 90 bc 1e 25 ac 3c 63 9b e1 bc 8d 97 05 bd
       -0.017642887 0.021013793 -0.027539914 -0.032615233
0000d0 10 02 4f 3d 0c 3c b0 bc c0 ea 2b bd 62 42 50 bd
       0.050539076 -0.021513008 -0.041971922 -0.050844558
0000e0 b6 85 b6 bc 68 60 6b 3d 09 af 68 bd 0a 50 c0 bb
       -0.022280555 0.057464987 -0.05680755 -0.0058689164
0000f0 19 0e 02 bb c9 df c0 bc a0 91 c0 bc a8 6c 8a 3b
       -0.0019844829 -0.02354421 -0.02350694 0.0042243786
000100 99 6f 84 bd e2 fc 01 3d 81 a6 bb 3c 39 5c dd bc
       -0.06466598 0.03173531 0.022906544 -0.027021514
000110 e8 c2 62 3d 07 12 45 bd b4 33 e3 3c a1 0f 2f 3b
       0.05536166 -0.048112895 0.027734615 0.0026712196
000120 ee 81 81 bc a0 57 ae 3c a2 30 fc 3b 65 92 5f 3d
       -0.015809026 0.021282017 0.007696227 0.054582972
000130 d9 40 14 3b 85 d2 8f bc 7a a3 91 bc 40 6b 08 bd
       0.002262166 -0.017556438 -0.017778147 -0.033305407
000140 99 b7 83 bc e2 02 8a 3d 46 d8 a2 3c ea a5 95 3d
       -0.016078757 0.06738831 0.019878518 0.07307036
000150 99 1c be 3b 65 38 c9 3c cc 22 88 3d 29 2c 21 bd
       0.005801749 0.024563024 0.06647262 -0.039348755
000160 c2 8e 96 3c 63 2a a9 bc b0 41 fe bc af de aa bc
       0.01837862 -0.020650094 -0.031037182 -0.020858137
000170 a3 53 11 bd 8f 16 01 3c 9d 5d 88 3d 80 53 3c bc
       -0.035480153 0.007878914 0.0665848 -0.011494517
000180 c8 eb 10 bd 7c 2f d1 ba 28 cd c0 3c 1a 78 26 3c
       -0.03538111 -0.0015959586 0.023535326 0.01016047
000190 13 cb 7b 3d a9 4e 08 bd e1 5d 27 bb 83 97 63 3d
       0.061472964 -0.03327814 -0.0025538134 0.055564415
0001a0 57 b2 e9 bc b9 86 65 3d 37 58 91 bd 09 11 18 bd
       -0.028527422 0.056036685 -0.07096904 -0.03712562
0001b0 f6 04 af 3c 43 58 53 bd 6c 0a 34 bd ff 7e ac bd
       0.02136467 -0.051597845 -0.04395525 -0.0842266
0001c0 12 40 02 bd 1c 6d 27 bd 76 67 0f bd d1 89 56 3c
       -0.031799383 -0.04087554 -0.035010777 0.013094381
0001d0 49 dc 2b bc 96 9f 68 3d 51 d0 ef ba aa c1 ea bc
       -0.010489532 0.056792818 -0.0018296336 -0.0286568
0001e0 2f 1f a2 bc 9e 9e 60 3c 77 28 1b 3b 99 9f e4 3c
       -0.01979026 0.013709692 0.0023675242 0.027908133
0001f0 34 61 d3 ba 57 7d 91 3c ab 99 8f 3b fc 84 6c bc
       -0.0016126991 0.017759962 0.0043823323 -0.014436003
000200 3c 56 72 3d e6 07 36 bc 2c db 7b bc 61 d0 b1 3c
       0.05916427 -0.011110282 -0.015372079 0.021705808
000210 7f 29 c4 3c 40 db f8 bc 7f 6b a7 bc 6f c5 55 3d
       0.023945568 -0.030377984 -0.020437 0.05219024
000220 6a 7b 7a 3d 13 71 22 bd ba db 12 3d a5 28 88 bd
       0.061152853 -0.039658617 0.03585408 -0.06648377
000230 fc cb 7f 3d f1 a6 84 3c c1 ad 5b bc e0 5f 67 bd
       0.062450394 0.016192885 -0.013408125 -0.056487918
000240 36 44 01 bb f1 9c 14 bd 3e 91 1e 3d b0 11 fa 3a
       -0.0019724495 -0.036282483 0.038712732 0.0019078758
000250 b1 60 47 bd b3 9f 97 3c b8 af d8 3c c2 bf 48 3c
       -0.048676196 0.018508768 0.026450977 0.01225275
000260 75 21 76 bd 7d 9f 81 bc 93 98 af 3a fc a8 e6 bc
       -0.0600905 -0.01582312 0.0013396911 -0.02815675
000270 f6 a8 cd bc 2d 8d ff 3c 5a dc 12 bd bb 8d 57 bc
       -0.02510498 0.031195248 -0.035854675 -0.01315635
000280 bf 21 a2 bd ca 7d ac bc 06 22 13 bc e5 37 6d 3b
       -0.07916593 -0.021056075 -0.00898028 0.0036196646
000290 3d 00 0e 3d 80 80 81 bd c1 e7 db 3c 69 d0 b7 3a
       0.034668196 -0.063233376 0.026843907 0.0014023903
0002a0 9f ca 15 3d ab 38 2d 3d a0 25 2e 3b 5d 2d 07 3c
       0.036570188 0.04229037 0.002657272 0.008250562
0002b0 6e 23 4e 3d 96 b0 c4 3c 4b fd 2a bd 88 6a 88 bc
       0.050326757 0.024009984 -0.041745465 -0.01665236
0002c0 f9 0b 84 bd e5 95 76 bd 93 1c 22 bd 9f 84 ff 3c
       -0.06447596 -0.060201544 -0.03957803 0.031191168
0002d0 03 00 08 3d 83 da 44 3d c6 e5 0d 3d 2f c4 6e bd
       0.033203136 0.04805995 0.034642957 -0.058292564
0002e0 f1 94 29 bd e6 f0 9c bc f1 c6 42 bc f5 ca a7 bc
       -0.041401807 -0.019157838 -0.011888252 -0.02048252
0002f0 eb de 82 bd fa 84 2f 3c 62 8a 14 bb fa 4c 81 3d
       -0.063901745 0.010712856 -0.002266549 0.0631351
000300 55 d5 91 3d c2 f9 ac 3c 23 ad 89 bb d6 47 0b bd
       0.07120768 0.021115188 -0.0042015477 -0.034004055
000310 ac 24 8b 3d 6f 30 32 bd 78 18 82 3d 2e 9c b0 bc
       0.06794104 -0.04350322 0.06352323 -0.021558847

hidden2_Y1.weight f4 [200, 200]
000000 cb 64 80 3b 3b 2f 26 3d b1 94 90 3b b6 6f dd 3d
       0.0039182655 0.040572386 0.0044122566 0.10812323
000010 8a 52 b9 bd dc f2 24 3b c5 25 df 3d ac 0d 35 bd
       -0.09048946 0.002516917 0.10895876 -0.04420249
000020 9e d3 84 3d 71 80 41 bd 73 66 d6 bd 9c f8 d5 bd
       0.06485675 -0.047241632 -0.104687594 -0.10447809
000030 aa f4 d3 3c 25 fd d9 3d 74 d6 dd bd e5 25 7a 3d
       0.0258735 0.106439866 -0.10831919 0.061071295
000040 f9 19 a4 3d 46 7f 73 3c e2 d0 53 bd 56 9b b4 3d
       0.080127664 0.014861887 -0.051712878 0.088186905
000050 62 8f ce 3d 38 25 4e 3c ce af ae bd 79 70 5c bd
       0.10085942 0.012582116 -0.08529626 -0.0538182
000060 84 6b b8 bc 00 9f 1f bc 3f 8a 77 3c a3 c4 2e bd
       -0.022512205 -0.009742498 0.015108644 -0.042667996
000070 37 69 06 3d 97 86 a1 bd d7 a9 28 bd 63 51 6a 3d
       0.032815184 -0.07886999 -0.041177597 0.057206523
000080 48 03 9c 3d 94 12 81 bd 0b 29 d0 3d 9d 23 fc 3c
       0.07617813 -0.063023716 0.10164078 0.0307787
000090 43 4c cd bd 93 55 83 3b 8a 9c d3 bc b2 30 ce bd
       -0.100243114 0.004008004 -0.02583148 -0.10067882
0000a0 c1 6c df bd a4 32 4f 3d 1f 64 64 3d c0 66 9d 3b
       -0.10909415 0.050585404 0.055759545 0.0048035085
0000b0 73 e1 18 3c 48 13 55 3d 74 1b c2 3c fb bf c3 3d
       0.009331095 0.05202034 0.023694731 0.09558102
0000c0 3a c8 43 bb 86 93 d7 3c d2 08 0c be 99 d3 a3 3d
       -0.0029873983 0.026315462 -0.1367524 0.079993434
0000d0 f4 a4 e8 bd 57 ce d7 3c 1f 78 f7 3c 8b 2b d1 bc
       -0.11359587 0.026343508 0.030208645 -0.025533458
0000e0 21 df b5 3c 3a 0a a8 3c 5e fd 3c bd 15 ea f9 bd
       0.022201123 0.020512689 -0.046140067 -0.12202851
0000f0 68 a2 ab bd e2 bf b8 bd 97 03 b2 bd 27 92 cb 3d
       -0.08380586 -0.09020974 -0.08692091 0.09939986
000100 3c ab db 3d 77 4a db 3c 53 97 bb 3c 27 29 cc 3d
       0.1072602 0.026768906 0.022899305 0.09968787
000110 c9 c6 9b 3c 1e b9 ba 3d be d9 9f 3d c7 55 78 bd
       0.019015687 0.091173396 0.07805203 -0.06062868
000120 63 84 eb bc f0 ec 64 3d b2 ef ee 3d 74 9a 41 3d
       -0.02874965 0.055890024 0.11666812 0.04726644
000130 26 ec e5 3d f1 86 d6 bb a1 ae c7 bc f3 1a d8 3d
       0.11226682 -0.006546848 -0.024375262 0.10552015
000140 a7 2c 87 bb 1e d8 8e 3d 62 ba a4 3c ac 93 27 bd
       -0.004125196 0.06974815 0.020108406 -0.040912315
000150 05 81 24 bc a6 a5 9d 3d c1 89 b3 3d 4c 4f 79 3d
       -0.010040526 0.076976106 0.08766509 0.06086664
000160 7d 06 eb bd 68 1f 3e 3d 9d 6f 65 3d fd 4c 05 be
       -0.11475847 0.04641667 0.056014646 -0.1301765
000170 bb 62 8e bd 6b 22 5b bc ce 1c ce 3d e2 3c d9 3d
       -0.06952425 -0.013374905 0.10064088 0.106073156
000180 fa bd 59 bb 6d 2c e4 3d ba 0b dd bd fa 61 77 bc
       -0.0033224807 0.11141286 -0.10793252 -0.015099043
000190 53 1e 8c bc 72 ed be 3d 6d 97 db 3d 82 60 eb 3d
       -0.017104303 0.09322633 0.107222416 0.11493017
0001a0 fb 53 43 3d 18 85 ed bd aa c9 cb 3c c6 59 bb bd
       0.047687512 -0.11597651 0.024876434 -0.09147982
0001b0 81 31 df bd 8b f0 0e 3d e9 b0 06 bd a1 e6 48 3d
       -0.10898114 0.03489737 -0.03288356 0.04904807
0001c0 09 52 cc 3d 7d de 80 3d 55 56 9d bd 63 8d 1b 3d
       0.099765845 0.06292436 -0.07682482 0.037976634
0001d0 22 b9 ef bd fd 5b 03 3d ec f3 ab bc e4 f7 c1 3c
       -0.11705233 0.03207015 -0.020990334 0.023677774
0001e0 60 d4 50 bd 64 eb f4 3c 2d 1d 96 3d 1d fe d9 bd
       -0.050983787 0.0298974 0.073297836 -0.106441714
0001f0 7a 2c 81 bd 36 d1 86 bb 55 f9 6f bd 8d 44 b9 bd
       -0.06307311 -0.0041142954 -0.05858739 -0.09046278
000200 74 1f c3 bc 7f b9 d7 bd 59 61 dc bc ad 0f 05 be
       -0.023818709 -0.105334274 -0.026901888 -0.12994261
000210 37 f4 f3 3c 37 bc c6 bc 95 6a 16 3d c1 91 a1 3d
       0.029779537 -0.02425967 0.03672274 0.078891285
000220 c9 95 8d bc 38 b2 fa 3d 4e f9 db 3b ba 97 02 bc
       -0.017283337 0.12241024 0.006713069 -0.007970745
000230 60 36 92 bd 4c 0d 15 3c 17 e5 6a bd 61 12 1c 3c
       -0.071392775 0.0090974085 -0.057347383 0.009525866
000240 e7 ee 03 be aa 6c bc bc 35 67 bc bc 2e 4c f6 3d
       -0.12884103 -0.023001034 -0.022998432 0.12026249
000250 56 61 80 bd 81 98 66 bc 97 8d 00 be 8c 14 00 bd
       -0.06268565 -0.014074446 -0.12554012 -0.031269595
000260 90 f3 65 bb f1 2f 32 bd cf ac 63 3d 13 e9 ea bd
       -0.0035087802 -0.04350275 0.055584725 -0.11470237
000270 2f 33 6c 3c 9c 00 53 3d 8a 6b 63 bd 2d 12 cf 3d
       0.0144165 0.051514253 -0.05552248 0.10110889
000280 ec 28 8e bc 07 8d 25 bd 6f a6 05 3e c2 71 84 3d
       -0.017353497 -0.040417697 0.1305177 0.0646701
000290 8a 42 95 3d c2 55 04 3c 69 30 cf 3d 52 2f d5 3d
       0.07288082 0.008077087 0.101166554 0.10409416
0002a0 e8 b8 a4 3b 74 e5 08 bd 1c 4f 05 bd 24 99 82 3d
       0.0050269254 -0.03342195 -0.032546148 0.063768655
0002b0 c9 c4 99 bd aa c5 dd bd e0 dd c8 bd 68 5b 1e 3d
       -0.07508237 -0.10828717 -0.09807944 0.03866139
0002c0 08 55 c9 3d 37 b6 cf bd 60 69 01 be e3 93 b6 bd
       0.098306715 -0.101421766 -0.12637854 -0.08914926
0002d0 cc 9a cb 3d b8 12 03 3e fe b7 b2 bd ff 29 ec bc
       0.099416345 0.1280011 -0.087265 -0.028828619
0002e0 31 a6 ac bd 80 c6 85 bd 7d 94 de 3b d7 4c 63 bd
       -0.08430136 -0.065320015 0.0067926035 -0.055493202
0002f0 74 93 eb 3d 25 29 55 bc b9 3e 3d 3b 6e 6e bf 3d
       0.11502734 -0.013010298 0.0028876497 0.09347235
000300 6d 33 0d 3d 75 6d 6f bc a1 20 a5 3d c1 be d4 bc
       0.03447287 -0.014613499 0.08062864 -0.025969865
000310 93 f5 d6 bd 5b bc 91 bd de 9b a0 bd c1 99 51 bc
       -0.10496058 -0.07116004 -0.07842229 -0.012793005
000320 0c da ac bd c1 17 86 3d 50 41 a3 3d cc 4a 60 3c
       -0.08440027 0.065474994 0.07971442 0.013689708
000330 e6 09 3c 3c fc 74 1e 3c 4f 71 bb 3d ca 55 13 3b
       0.011476969 0.009671446 0.09152471 0.0022481554
000340 69 94 c9 bd 16 fa d1 3d 36 55 ef 3d 1e 59 67 bd
       -0.0984276 0.10252778 0.116861746 -0.056481473
000350 3d 5c 31 3c ad e1 e2 bd b6 42 fd bc c6 51 9b 3d
       0.010825214 -0.110782005 -0.0309156 0.075839564
000360 5e be 79 3c 28 13 36 bd 35 58 b5 3c 1d 76 b1 3d
       0.015243141 -0.044451863 0.022136787 0.086651064
000370 b0 f4 3e 3d 8f 2c e7 bd fa 7c 58 bd 47 5d 41 bd
       0.04662007 -0.11287796 -0.052853562 -0.047208097
000380 eb 19 4a 3d e9 72 f0 bd 1e af 16 bc 7a a4 3f 3d
       0.049341124 -0.117406674 -0.009197025 0.046787716
000390 a7 f1 82 3c ce 29 7d bd f9 73 13 3e 9d c1 ab bc
       0.01598437 -0.061807446 0.14399709 -0.020966345
0003a0 00 ba a4 bd 63 1d ac 3d a6 71 be 3d ad de ad bd
       -0.08043289 0.084040426 0.092990205 -0.08489738
0003b0 10 e0 90 bd 40 b8 a5 bc d9 06 1e 3c ae 3c 98 3d
       -0.070739865 -0.020229459 0.009645187 0.07433449
0003c0 31 dd bd bd 35 36 dc 3d b2 d6 ad 3c 8a ec fc 3d
       -0.092707045 0.10752527 0.021220539 0.12349804
0003d0 40 19 bd bd a8 99 e6 3c 42 3a 97 3d b0 2d 24 bd
       -0.09233332 0.02814944 0.07384159 -0.040082633
0003e0 eb 76 2b bb 66 10 b4 bd 53 05 17 3e f7 aa cb 3d
       -0.002616341 -0.0879219 0.14748125 0.09944718
0003f0 93 5f a3 3d 6e d8 69 bd 57 66 14 3c 39 59 03 3d
       0.07977214 -0.05709117 0.009057603 0.03206751
