Results/Models/SAE_stacked_cur_DCN_model_iter_id_6_epoch_400_lr_0.0001.pth (torch, 828518 bytes, 16 tensors)

shared1.weight f4 [200, 17]
-0.045022584 -0.103277214 0.14266942 -0.1266049 -0.05543445 -0.13611417 -0.039058622 -0.14138721
-0.089953795 0.07336558 0.17050827 -0.13960858 0.034647048 0.024931155 0.014514249 0.04978648
-0.1872279 0.10091322 0.15082204 0.20844068 0.115558885 0.05946372 -0.0964776 0.1185765
-0.14808764 -0.16724208 -0.04806269 -0.12792507 -0.06185234 0.12145478 -0.12778427 -0.031573363
0.0060865255 -0.13047121 -0.14257589 0.028732538 0.094270885 0.15226208 -0.044929087 -0.13370219
0.07867439 0.11258612 -0.078558125 0.06476785 0.080233246 0.094460815 -0.114939384 0.07461329
-0.11446708 -0.03724122 -0.06584574 -0.16117848 0.016009523 -0.020721842 -0.060220186 0.023759741
-0.09226281 -0.09438308 -0.08773823 -0.054673202 0.016192239 0.04521707 -0.077600524 0.15275075
-0.049174525 -0.2198694 -0.077835225 0.17202514 -0.080243595 -0.026189648 0.056959454 -0.187607
0.14243567 -0.06549862 0.15489389 -0.14744909 0.13954951 -0.0762204 0.025769725 0.20088355
-0.018653406 0.15890275 0.08448802 -0.022968313 -0.13792762 0.11812887 0.15713775 0.20550442
-0.013488486 -0.108669624 0.091690816 -0.019027792 0.0028540466 0.037221957 -0.12988912 -0.019223595
-0.038148794 0.028148348 -0.11572309 -0.12012298 0.008922806 0.12135712 -0.12191881 -0.13236558
0.12164508 -0.11479783 -0.22197413 -0.015632242 -0.11249836 -0.03718512 -0.11581495 0.13379568
-0.014886935 0.06084566 0.18794647 -0.027125 -0.06699663 -0.04838803 0.09816602 -0.18547387
-0.01993588 -0.17866106 0.1629745 -0.07711406 -0.1474124 -0.058575194 0.059740923 -0.04982476
-0.036675956 0.047237236 0.040887002 -0.1365474 0.18925138 -0.07960361 0.10136797 0.13655971
-0.06659342 -0.0195604 -0.0046855495 -0.038995165 -0.0007987387 0.023561787 0.115229584 0.08754157
-0.03606761 -0.02943076 -0.07103895 -0.0014116351 0.034546778 -0.1007362 -0.057878885 -0.039259974
-0.043928526 0.07913927 -0.061319027 0.0919882 -0.11365994 -0.15475067 -0.013327444 -0.11127723
0.054535296 -0.1315688 -0.04400419 0.11407952 -0.012851403 0.0060709747 -0.059965383 0.006932848
-0.06486244 -0.021398505 0.07533446 -0.13113552 0.13093407 0.12909515 -0.10319168 0.059605613
0.057158176 -0.04403988 -0.104019135 0.10525978 -0.06432427 -0.011556668 -0.07626102 0.09281733
-0.018695796 -0.1906476 -0.19868638 -0.14014225 0.01982944 -0.28853714 0.08541359 -0.1209671
-0.16165248 0.09679612 -0.06766328 -0.08225536 -0.11590502 -0.09434145 0.035963595 0.0111826435
0.039765492 0.10208075 -0.04397513 0.13530608 0.11113486 -0.037399027 -0.07484637 0.006299938
0.03889508 -0.13075377 -0.004054592 -0.10432165 0.047495026 0.012481539 0.10410779 0.20207946
-0.03898302 0.11589642 -0.14185804 0.13053915 0.17766677 -0.05330654 -0.12468704 -0.18904881
0.03190291 0.009566039 0.14816467 0.1591433 -0.044088397 -0.0050045387 -0.10950748 -0.022538206
0.07373478 0.04794421 -0.14262177 -0.11773673 -0.1312211 -0.07297393 0.004743132 0.06706739
-0.106410585 -0.09912064 -0.10446996 -0.07477117 -0.0025186106 -0.09880013 -0.12952188 0.05011068
0.05302622 0.0084545985 0.18012388 0.08162291 0.10605752 0.06781487 -0.13291313 0.07634682
00000000: 9a69 38bd 0183 d3bd ef17 123e b7a4 01be
00000010: 3c0f 63bd 8361 0bbe effb 1fbd cfc7 10be
00000020: b239 b8bd b140 963d b899 2e3e 8df5 0ebe
00000030: 10ea 0d3d 6c3c cc3c 2ccd 6d3c e8ec 4b3d
00000040: acb8 3fbe 97ab ce3d 1871 1a3e 7971 553e
00000050: 23aa ec3d 3b90 733d 0c96 c5bd 3cd8 f23d
00000060: 49a4 17be 8241 2bbe 62dd 44bd cafe 02be
00000070: e158 7dbd 49bd f83d e1d9 02be 1253 01bd
00000080: 7a71 c73b 3f9a 05be 6aff 11be 8060 eb3c
00000090: 1811 c13d 97ea 1b3e 9007 38bd 3ae9 08be
000000a0: 0a20 a13d 8d93 e63d 15e3 a0bd 02a5 843d
000000b0: 5451 a43d ac74 c13d 5765 ebbd dace 983d
000000c0: b76d eabd 408a 18bd 22da 86bd f90b 25be
000000d0: 6726 833c dac0 a9bc 71a9 76bd caa3 c23c
000000e0: 49f4 bcbd eb4b c1bd 1ab0 b3bd 02f1 5fbd
000000f0: 96a5 843c 8935 393d 06ed 9ebd b16a 1c3e
00000100: 3a6b 49bd 7225 61be 1368 9fbd 5c27 303e
00000110: c156 a4bd ac8b d6bc 514e 693d 0d1c 40be
00000120: a8da 113e 2424 86bd 819c 1e3e e5fc 16be
00000130: 11e6 0e3e 7119 9cbd 081b d33c 6bb4 4d3e
00000140: 07cf 98bc 67b7 223e 0e08 ad3d 0b28 bcbc
00000150: e63c 0dbe 8ded f13d b8e8 203e c06f 523e
00000160: d0fe 5cbc 2e8e debd 65c8 bb3d 2ce0 9bbc
00000170: f50a 3b3b 0d76 183d a701 05be cd7a 9dbc
00000180: e941 1cbd 5d97 e63c 3a00 edbd 0903 f6bd
00000190: f630 123c 158a f83d 92b0 f9bd d88a 07be
000001a0: 0e21 f93d 201b ebbd 304d 63be 300f 80bc
000001b0: 8a65 e6bd 6d4f 18bd 6330 edbd bc01 093e
000001c0: 55e8 73bc 4c39 793d 0a75 403e 3f35 debc
000001d0: 8735 89bd 8732 46bd 440b c93d ddec 3dbe
000001e0: 9250 a3bc edf2 36be cae2 263e faed 9dbd
000001f0: 47f3 16be 8bec 6fbd e6b2 743d 0c15 4cbd
00000200: 8739 16bd d57b 413d 2179 273d 15d3 0bbe
00000210: 1dcb 413e 3807 a3bd 039a cf3d 4fd6 0b3e
00000220: 2262 88bd 223d a0bc 3d89 99bb 65b9 1fbd
00000230: 7262 51ba a604 c13c 7dfd eb3d ff48 b33d
00000240: a1bb 13bd c718 f1bc de7c 91bd 9d06 b9ba
00000250: ec80 0d3d c84e cebd 6912 6dbd 11cf 20bd
00000260: 66ee 33bd c513 a23d a929 7bbd 4f64 bc3d
00000270: 8bc6 e8bd f676 1ebe 5a5b 5abc 51e5 e3bd
00000280: 6760 5f3d f9b9 06be bd3d 34bd 86a2 e93d
00000290: b18e 52bc 07ef c63b 439e 75bd f22c e33b
000002a0: 99d6 84bd eb4b afbc f448 9a3d 6448 06be
000002b0: 9513 063e 8531 043e 2956 d3bd 0425 743d
000002c0: b11e 6a3d 2963 34bd fc07 d5bd 7192 d73d
000002d0: 71bc 83bd 2e58 3dbc bd2e 9cbd 0317 be3d
000002e0: ed27 99bc 2039 43be 7174 4bbe 7381 0fbe
000002f0: 5a71 a23c 24bb 93be 52ed ae3d 99bd f7bd
00000300: 3a88 25be 0b3d c63d 0c93 8abd 8075 a8bd
00000310: 9c5f edbd 1736 c1bd 904e 133d 6837 373c
00000320: 24e1 223d b60f d13d 441f 34bd ad8d 0a3e
00000330: ac9a e33d b92f 19bd 0e49 99bd b66f ce3b
00000340: 7350 1f3d 51e4 05be 62dc 84bb 97a6 d5bd
00000350: 258a 423d 5e7f 4c3c 7736 d53d ebed 4e3e
00000360: a9ac 1fbd 1a5b ed3d 3c43 11be 0eac 053e
00000370: 47ee 353e f557 5abd eb5b ffbd 0396 41be
00000380: a0ac 023d e0ba 1c3c 7bb8 173e 76f6 223e
00000390: 0996 34bd 1dfd a3bb 7545 e0bd 0ba2 b8bc
000003a0: 4302 973d 2661 443d 710b 12be f41f f1bd
000003b0: d35e 06be 5b73 95bd 466c 9b3b a15a 893d
000003c0: cbed d9bd c3ff cabd 59f4 d5bd a121 99bd
000003d0: 460f 25bb b957 cabd 62a1 04be db40 4d3d
000003e0: 0632 593d 2885 0a3c 6572 383e ea29 a73d
000003f0: af34 d93d 86e2 8a3d 611a 08be b95b 9c3d

shared1.bias f4 [200]
-0.16615483 -0.17605592 0.06913474 0.011901327 -0.1118342 0.13266109 0.16179334 -0.15340963
0.20583376 -0.19049768 -0.032864463 -0.11002871 0.12184958 -0.14547609 0.14844531 0.02233979
-0.09071728 -0.22980541 -0.12903413 -0.07366884 0.13305901 -0.030752288 0.118007235 0.24296273
-0.025199221 0.20347762 -0.12678379 0.014378132 0.05714053 -0.2644306 0.06029376 -0.025846766
0.1397387 0.004192656 -0.14251043 0.1708921 -0.18926874 -0.24664254 -0.2388419 0.07764867
-0.107439466 0.032948647 -0.04957387 0.073846616 0.030628655 -0.09812144 -0.1836956 0.13097875
-0.14226419 -0.18396409 -0.008492144 0.13873991 -0.018266 -0.13924228 -0.15880062 -0.23538136
0.09489358 -0.20314312 -0.1383823 -0.06971987 -0.24560761 0.10343096 -0.13355811 -0.1459752
-0.11878399 0.19163176 -0.14104423 0.055672083 0.052548923 -0.14643122 0.162743 0.20501788
0.1561414 -0.034440517 0.1599929 -0.24865119 -0.12745057 -0.24330208 0.0075132847 0.13704067
-0.10351443 -0.1702749 -0.19532208 0.18332963 -0.22134067 -0.22393405 0.12374873 -0.0874948
-0.08674902 0.05322569 0.1575053 0.12516856 -0.22015458 -0.050615747 -0.18020074 0.09507143
-0.031637855 -0.08031784 -0.035935875 -0.13433363 0.07821587 0.14356041 0.09859052 0.015471019
-0.20805603 -0.011333543 -0.06922295 -0.17242165 0.052835483 0.05188341 0.1309747 0.041927926
-0.09650963 -0.05916102 0.026725726 -0.087333806 -0.24133682 -0.0011338992 -0.014955569 0.1387959
0.123015575 0.016688734 0.08342407 0.09310005 -0.12391032 -0.19955623 0.20558858 0.132067
-0.113570854 -0.03303517 -0.13671982 0.06927717 -0.22358471 -0.04046685 0.08813542 0.16678119
-0.16286339 0.083486654 -0.3231666 -0.14865649 -0.19703779 -0.27226472 0.010586245 -0.10993507
0.06801164 0.2386176 0.14158659 -0.28998414 0.0027191988 -0.14944875 0.022409767 -0.023042373
-0.13573664 0.0566158 -0.10396381 -0.071471326 0.0052412366 -0.014304007 -0.26995736 0.022632603
0.1229341 0.029855665 0.024549656 -0.26119578 0.1371999 0.14598843 -0.16790512 0.13287368
-0.16742355 0.1593158 0.0520664 -0.19863857 -0.053966668 -0.15340126 -0.0905848 -0.07083336
0.13603689 -0.22277032 0.14130004 0.106351264 -0.02974759 0.018229716 -0.3043532 -0.03231008
0.06875892 0.05178676 -0.024902465 -0.18565738 -0.20624606 0.06754807 0.026836462 -0.20076899
0.034586232 -0.028002786 -0.070129804 -0.12314332 -0.17834428 -0.040834155 0.069172196 -0.13750017
00000000: 7e24 2abe 0148 34be 8496 8d3d c9fd 423c
00000010: 5409 e5bd 4fd8 073e 27ad 253e 6a17 1dbe
00000020: 16c6 523e d311 43be e39c 06bd bb56 e1bd
00000030: 468c f93d aff7 14be 0c02 183e ef01 b73c
00000040: fbc9 b9bd 1c52 6bbe 8621 04be b0df 96bd
00000050: 9f40 083e 39ec fbbc c7ad f13d 39cb 783e
00000060: 996e cebc 705c 503e 9cd3 01be 4292 6b3c
00000070: 300c 6a3d 7363 87be 97f6 763d 99bc d3bc
00000080: a917 0f3e 8c62 893b 41ee 11be 57fe 2e3e
00000090: aacf 41be dd8f 7cbe f992 74be 4406 9f3d
000000a0: 3909 dcbd 29f5 063d f80d 4bbd e53c 973d
000000b0: f2e8 fa3c e5f3 c8bd b31a 3cbe 4b1f 063e
000000c0: b4ad 11be 1561 3cbe a222 0bbc d611 0e3e
000000d0: 94a2 95bc 8795 0ebe a19c 22be d007 71be
000000e0: 9157 c23d c004 50be 17b4 0dbe 4bc9 8ebd
000000f0: 9080 7bbe 9cd3 d33d 75c3 08be 867a 15be
00000100: 0545 f3bd 1e3b 443e e66d 10be 6908 643d
00000110: 8a3d 573d 11f2 15be 1aa6 263e 35f0 513e
00000120: 88e3 1f3e 8011 0dbd 2ed5 233e 6b9e 7ebe
00000130: 6782 02be 2e24 79be 0032 f63b 6454 0c3e
00000140: 60ff d3bd 8b5c 2ebe 8302 48be c3ba 3b3e
00000150: 21a7 62be f84e 65be f96f fd3d 7930 b3bd
00000160: 78a9 b1bd 2e03 5a3d 1249 213e 302c 003e
00000170: 3470 61be 7552 4fbd 8b86 38be cfb4 c23d
00000180: b296 01bd ae7d a4bd 7f31 13bd c18e 09be
00000190: a42f a03d 8001 133e d4e9 c93d 287a 7d3c
000001a0: a40c 55be 53b0 39bc c3c4 8dbd 4d8f 30be
000001b0: 056a 583d b383 543d 3b1e 063e 9ebc 2b3d
000001c0: d7a6 c5bd d352 72bd e9ef da3c 11dc b2bd
000001d0: 0021 77be 589f 94ba 3408 75bc 8320 0e3e
000001e0: 97ef fb3d d0b6 883c 3dda aa3d 3dab be3d
000001f0: b2c4 fdbd 7858 4cbe d085 523e 923c 073e
00000200: d697 e8bd e34f 07bd 4800 0cbe 30e1 8d3d
00000210: 64f3 64be 91c0 25bd 5880 b43d b0c8 2a3e
00000220: a9c5 26be 0dfb aa3d 1876 a5be 6839 18be
00000230: 46c4 49be 4866 8bbe ee71 2d3c a325 e1bd
00000240: b049 8b3d 2c58 743e 13fc 103e cd78 94be
00000250: 9634 323b 1809 19be b094 b73c 5cc3 bcbc
00000260: 8cfe 0abe f8e5 673d faea d4bd 8f5f 92bd
00000270: aebe ab3b 5b5b 6abc da37 8abe 0268 b93c
00000280: e0c4 fb3d de93 f43c 5c1c c93c 74bb 85be
00000290: 217e 0c3e fe7d 153e 52ef 2bbe 0a10 083e
000002a0: 1471 2bbe ae23 233e 9443 553d e967 4bbe
000002b0: 270c 5dbd 3815 1dbe 8684 b9bd 1511 91bd
000002c0: 414d 0b3e e71d 64be f5b0 103e b1ce d93d
000002d0: 38b1 f3bc 7c56 953c 2fd4 9bbe 9357 04bd
000002e0: 7ad1 8c3d 5b1e 543d 4100 ccbc f81c 3ebe
000002f0: 2b32 53be a456 8a3d 24d8 db3c 6396 4dbe
00000300: 4baa 0d3d 1966 e5bc 37a0 8fbd 9132 fcbd
00000310: e29f 36be b741 27bd 27aa 8d3d d8cc 0cbe

shared2.weight f4 [200, 200]
-0.16649494 -0.08715863 0.09705992 -0.106331594 -0.1166972 -0.022218628 0.03361515 0.1667268
0.016637683 0.0075386525 -0.03372771 0.011542483 0.059028562 -0.047101375 -0.09148105 -0.020853072
0.059276752 0.07733549 0.1543863 0.123850726 0.004540952 -0.03740206 0.0070311865 -0.027038427
-0.026282927 -0.059582077 0.015826631 -0.06337953 -0.04707512 -0.044477686 0.20181653 -0.026947452
-0.0047510467 0.05148081 0.025540415 0.11636446 -0.051446013 0.049481183 -0.008056486 0.16862915
-0.15458073 -0.054820083 0.09497145 -0.081625745 -0.041548178 -0.047475692 0.037180856 -0.02369651
-0.030584013 -0.03297489 -0.08330904 0.059858143 0.16841324 -0.097500354 0.044372965 0.029619379
0.025404463 0.08040091 0.085081466 0.09833377 0.08943514 -0.06329605 -0.08357607 -0.090345256
-0.046406806 -0.0676011 0.021509109 0.04091242 -0.012592363 -0.0511369 0.12246082 -0.035627216
0.072166964 0.1484326 0.013738094 -0.13408041 0.09550921 0.021843573 0.21517488 0.0076518897
0.081792034 0.07086975 -0.07568083 -0.0348684 -0.022959437 0.049785532 -0.090286165 0.116742715
-0.0133992145 -0.1089655 0.10105494 0.038202915 0.0039695497 -0.104749344 -0.045641493 -0.067063086
0.05303754 0.0052301898 -0.071043566 0.028130658 -0.14176254 0.058228754 -0.033101045 0.16719478
0.024238141 0.056190763 0.023308692 -0.024621615 -0.05217174 -0.058726266 -0.11804209 -0.049665328
-0.07501886 -0.0963538 0.14485854 0.07653736 -0.16753273 0.090258494 -0.11755005 0.026436722
0.06106635 -0.06870623 0.08314644 -0.03432008 -0.029491343 0.056986257 -0.10028683 0.077462405
0.13071577 -0.04434538 0.14674409 0.022519201 0.08367692 0.0992663 0.004673191 0.10773514
0.0133302985 0.08867567 0.11328306 0.10683166 0.0997975 -0.0916889 0.12726784 0.0027522207
-0.027947403 -0.047804255 -0.10015492 0.109686546 -0.075668864 -0.08721492 -0.12888047 0.07250208
-0.04325688 0.02855077 0.10691396 -0.099763095 -0.02771923 0.07024419 0.02896409 -0.11902639
-0.009587999 0.061108492 0.1456573 0.11075777 -0.094342105 0.09706762 0.103763156 0.09919729
0.067699544 0.067088485 -0.10459474 0.088370055 0.072853796 0.12744638 0.058176134 -0.025564307
0.083141685 0.00068296964 -0.0048704008 0.16222762 0.18748096 0.13040976 0.05665484 0.19048515
0.004242 0.035624877 0.033290908 0.036121543 0.08361885 0.03399468 -0.013442804 0.098565035
0.15976408 -0.09133822 0.10489728 0.21766183 -0.091101125 -0.0761298 -0.076598085 0.14698215
0.044829194 0.024286667 -0.12047111 -0.017887346 0.027865846 -0.08187807 0.07617919 0.13823095
-0.084910154 0.07883587 -0.027341146 0.019737022 -0.057135798 -0.052576896 0.06774947 0.010910415
-0.050797552 0.025645373 0.035259504 -0.018370107 0.043170758 -0.12399301 -0.07195324 0.04476085
-0.07585787 0.06748738 -0.21445023 0.12227921 -0.07907759 -0.11376339 -0.112373345 -0.087406576
-0.06346092 -0.14747962 -0.03610673 -0.080410846 -0.07635998 0.0918494 -0.062404107 -0.12798959
-0.018328799 0.08781468 -0.016123498 -0.018323615 0.0033233645 -0.022120405 0.07111695 0.056612134
-0.14082551 0.0055602174 -0.006791004 -0.06146171 0.07856573 -0.12805146 -0.045135528 -0.07777023
00000000: a67d 2abe 3980 b2bd 5ac7 c63d 61c4 d9bd
00000010: f1fe eebd d703 b6bc 0ab0 093d 6eba 2a3e
00000020: c04b 883c cd06 f73b 1126 0abd af1c 3d3c
00000030: efc7 713d 5fed 40bd 6b5a bbbd 10d4 aabc
00000040: 2ecc 723d 1262 9e3d 7117 1e3e 73a5 fd3d
00000050: 44cc 943b e732 19bd de65 e63b b17f ddbc
00000060: 4b4f d7bc 560c 74bd daa6 813c 21cd 81bd
00000070: d7d1 40bd 3c2e 36bd fea8 4e3e e7c0 dcbc
00000080: abae 9bbb 8bdd 523d 223a d13c 7d50 ee3d
00000090: 0eb9 52bd c8ac 4a3d 5aff 03bc 1fad 2c3e
000000a0: 694a 1ebe 068b 60bd 6480 c23d 662b a7bd
000000b0: 6c2e 2abd df75 42bd f44a 183d 2f1f c2bc
000000c0: 538b fabc ae10 07bd ee9d aabd d02d 753d
000000d0: 8574 2c3e 44ae c7bd 6dc0 353d 57a4 f23c
000000e0: 051d d03c 3ba9 a43d 313f ae3d 3763 c93d
000000f0: c529 b73d 5ca1 81bd ee29 abbd ef06 b9bd
00000100: 1015 3ebd 7272 8abd df33 b03c c893 273d
00000110: 3350 4ebc ed74 51bd bdcc fa3d d8ed 11bd
00000120: 46cc 933d b7fe 173e be15 613c 604c 09be
00000130: 559a c33d 4bf1 b23c ce56 5c3e b4bc fa3b
00000140: 9582 a73d 2924 913d 8dfe 9abd 2bd2 0ebd
00000150: 6e15 bcbc eaeb 4b3d f4e7 b8bd ce16 ef3d
00000160: 6188 5bbc 4e29 dfbd e4f5 ce3d a97a 1c3d
00000170: ff12 823b d386 d6bd 93f2 3abd 5f58 89bd
00000180: e43d 593d 0362 ab3b 4a7f 91bd 4472 e63c
00000190: 332a 11be 4681 6e3d f694 07bd 1c35 2b3e
000001a0: 118f c63c 4928 663d dff1 be3c 45b3 c9bc
000001b0: 09b2 55bd f48a 70bd 0dc0 f1bd df6d 4bbd
000001c0: 7da3 99bd 2455 c5bd cc55 143e 9fbf 9c3d
000001d0: b38d 2bbe 72d9 b83d 15be f0bd d391 d83c
000001e0: b620 7a3d dab5 8cbd ae48 aa3d 3693 0cbd
000001f0: d497 f1bc 6c6a 693d 2e63 cdbd 9ca4 9e3d
00000200: 5bda 053e 80a3 35bd 1544 163e 307a b83c
00000210: ce5e ab3d 214c cb3d 9121 993b 3ea4 dc3d
00000220: 5367 5a3c 979b b53d f300 e83d 8fca da3d
00000230: a262 cc3d 64c7 bbbd 8052 023e 9a5e 343b
00000240: f4f1 e4bc 65ce 43bd 061e cdbd 57a3 e03d
00000250: 47f8 9abd bc9d b2bd 3ef9 03be f87b 943d
00000260: 202e 31bd 4ee3 e93c b5f5 da3d 9850 ccbd
00000270: 7013 e3bc 30dc 8f3d 1946 ed3c 1cc4 f3bd
00000280: fc16 1dbc e64c 7a3d 3027 153e f8d4 e23d
00000290: 6f36 c1bd 63cb c63d c781 d43d f327 cb3d
000002a0: 0fa6 8a3d b065 893d c435 d6bd 5cfb b43d
000002b0: 5f34 953d 4e81 023e 194a 6e3d 3d6c d1bc
000002c0: 3046 aa3d 5109 333a e297 9fbb ff1e 263e
000002d0: 02fb 3f3e 238a 053e e80e 683d 8a0e 433e
000002e0: 7a00 8b3b 64eb 113d 0c5c 083d 2ff4 133d
000002f0: 5c40 ab3d 013e 0b3d 353f 5cbc 77dc c93d
00000300: 3299 233e 880f bbbd 63d4 d63d bee2 5e3e
00000310: 3a93 babd f1e9 9bbd 75df 9cbd 7d82 163e
00000320: d19e 373d d5f4 c63c 8fb9 f6bd 7c88 92bc
00000330: ea46 e43c b1af a7bd d603 9c3d 6a8c 0d3e
00000340: 60e5 adbd b374 a13d 8afa dfbc 89af a13c
00000350: 3a07 6abd df5a 57bd 3cc0 8a3d 99c1 323c
00000360: 1811 50bd 3f16 d23c 456c 103d e87c 96bc
00000370: d2d3 303d 0cf0 fdbd 385c 93bd 2757 373d
00000380: 5f5b 9bbd d336 8a3d d798 5bbe 866d fa3d
00000390: 6ef3 a1bd c8fc e8bd ff23 e6bd 3802 b3bd
000003a0: ccf7 81bd e604 17be a7e4 13bd 71ae a4bd
000003b0: 9f62 9cbd 8a1b bc3d 739b 7fbd b40f 03be
000003c0: 4726 96bc 2fd8 b33d 6d15 84bc 681b 96bc
000003d0: cecc 593b da35 b5bc c3a5 913d 20e2 673d
000003e0: 9034 10be 7c32 b63b 1287 debb 46bf 7bbd
000003f0: 12e7 a03d ec1f 03be 08e0 38bd 0046 9fbd

shared2.bias f4 [200]
-0.06057317 0.03936051 0.0072815386 0.028889932 0.020160621 -0.10804911 -0.0029451773 -0.084425434
-0.03058179 0.002820681 0.0461964 -0.14923613 -0.0347213 -0.10599476 0.042484805 0.033297684
-0.014937789 0.019652218 0.031482525 -0.032250904 -0.10190457 -0.0303788 -0.040155116 0.069176584
-0.07480806 -0.053611584 -0.03501065 0.033951946 -0.047102045 0.04673103 -0.077631675 0.038700763
-0.007785361 0.007420117 0.040674865 -0.0321366 -0.099577144 -0.056318376 -0.11546123 0.00077523163
-0.05097639 -0.017458959 -0.028611617 0.0035438312 0.062262576 -0.003332254 0.07373732 -0.050488245
0.021929258 0.007074274 -0.005205441 0.07054462 -0.012179856 -0.054825556 0.058538634 0.020051029
0.028895972 -0.033601783 0.046593204 0.018772295 0.033306457 -0.04610364 0.08993556 -0.10363165
0.011962155 0.004784111 -0.03909368 -0.00083295925 -0.041267294 0.017342426 0.030447591 -0.06670875
-0.005498034 0.025248708 -0.15260427 -0.07005623 -0.05614572 -0.04114089 -0.10000636 -0.0127884
-0.12437647 -0.01770982 -0.05648662 0.015928036 0.022404758 -0.047047723 0.05211501 -0.10649777
0.022354325 -0.09377782 -0.017879559 -0.058222562 -0.05423936 -0.1079384 0.06600321 -0.0026366436
0.053025674 -0.009191042 -0.046631183 0.01127332 -0.035696663 -0.110540584 -0.045153808 -0.11203518
-0.07360574 -0.071166016 0.03271726 -0.077104576 -0.07969354 -0.10604156 -0.023950381 -0.0024721248
0.05211294 -0.04645252 -0.0038425396 -0.048076298 -0.0037421833 -0.07313358 -0.07335389 0.029301994
0.014117993 -0.0018032346 -0.10299247 -0.05253534 0.036229987 0.043705262 -0.042696383 -0.028178804
0.017561499 0.024210084 0.034484453 -0.004033926 -0.043703407 -0.025022684 0.036775112 -0.073904864
0.014209496 -0.07667456 -0.03909483 0.016773678 -0.030106299 -0.028847458 -0.06679567 0.0883378
0.0026715735 0.014732588 0.042634845 0.008771523 -0.014151121 0.046423607 -0.091773495 -0.07318956
-0.05596555 -0.054683935 -0.076356426 -0.018321693 -0.034944 -0.07152161 -0.056046445 0.030143606
-0.0066266567 0.041981895 -0.004424353 0.041695923 0.05031094 -0.08500409 -0.078075185 -0.1247296
-0.072909474 -0.020001065 -0.008759892 -0.014721787 0.013332905 0.00739811 -0.021673076 -0.026868878
-0.053364996 0.024889022 -0.019207602 -0.08497449 -0.08675979 -0.04103736 -0.04980754 -0.05511845
0.06589463 0.016008312 0.00198763 0.01266525 0.0047181663 -0.0653908 0.03461612 -0.10593439
0.060223103 -0.07949567 -0.085052215 -0.017721498 0.015911957 0.09291791 -0.060849037 -0.08122782
00000000: 931b 78bd 7c38 213d f999 ee3b 94aa ec3c
00000010: e327 a53c da48 ddbd e003 41bb 3ee7 acbd
00000020: a986 fabc 2ddb 383b 7038 3d3d 5bd1 18be
00000030: ec37 0ebd c813 d9bd 8c04 2e3d 2763 083d
00000040: a1bd 74bc b0fd a03c d2f3 003d 8619 04bd
00000050: 58b3 d0bd f6dc f8bc b179 24bd 74ac 8d3d
00000060: f834 99bd d297 5bbd 5467 0fbd 3211 0b3d
00000070: 13ee 40bd 0969 3f3d 5bfd 9ebd b184 1e3d
00000080: 571c ffbb 7424 f33b b09a 263d aba1 03bd
00000090: 1aef cbbd 19ae 66bd f076 ecbd ea38 4b3a
000000a0: 9ecc 50bd 1706 8fbc e962 eabc 9f3f 683b
000000b0: 0b07 7f3d f261 5abb 9803 973d c3cc 4ebd
000000c0: fda4 b33c 50cf e73b 6792 aabb b379 903d
000000d0: 058e 47bc c390 60bd 35c6 6f3d 0e42 a43c
000000e0: 3fb7 ec3c 06a2 09bd 84d8 3e3d 5bc8 993c
000000f0: 5a6c 083d 2cd7 3cbd 2330 b83d d53c d4bd
00000100: eafc 433c 08c4 9c3b b220 20bd f35a 5aba
00000110: e507 29bd b411 8e3c 3a6d f93c 999e 88bd
00000120: da28 b4bb 61d6 ce3c 4b44 1cbe a479 8fbd
00000130: 0ef9 65bd 5a83 28bd 22d0 ccbd 7086 51bc
00000140: 17b9 febd 2f14 91bc 845e 67bd 837b 823c
00000150: 2f8a b73c 1db5 40bd 8c76 553d 811b dabd
00000160: 6b20 b73c 960e c0bd 2778 92bc c87a 6ebd
00000170: 172a 5ebd cf0e ddbd b12c 873d 8acb 2cbb
00000180: 7331 593d 0696 16bc 5700 3fbd bbb3 383c
00000190: aa36 12bd 1a63 e2bd 33f3 38bd b372 e5bd
000001a0: 9bbe 96bd 7dbf 91bd 8902 063d 01e9 9dbd
000001b0: 5e36 a3bd 512c d9bd 9733 c4bc 5f03 22bb
000001c0: 6174 553d ff44 3ebd 1ed3 7bbb a7eb 44bd
000001d0: 6b3f 75bb 0fc7 95bd 903a 96bd bc0a f03c
000001e0: 284f 673c 835a ecba b7ed d2bd 4c2f 57bd
000001f0: e565 143d 4a04 333d 67e2 2ebd 3cd7 e6bc
00000200: 22dd 8f3c 3a54 c63c 923f 0d3d 062f 84bb
00000210: 5802 33bd 5ffc ccbc 80a1 163d 6f5b 97bd
00000220: f2ce 683c 8d07 9dbd e721 20bd f468 893c
00000230: 7ca1 f6bc 8151 ecbc 2bcc 88bd 73ea b43d
00000240: 9115 2f3b f460 713c e0a1 2e3d 6fb6 0f3c
00000250: 1ada 67bc ae26 3e3d bef3 bbbd 68e4 95bd
00000260: 223c 65bd 43fc 5fbd c260 9cbd 6017 96bc
00000270: 7121 0fbd ec79 92bd f590 65bd b9ef f63c
00000280: 6d24 d9bb 35f5 2b3d 2afa 90bb 58c9 2a3d
00000290: d812 4e3d a016 aebd e2e5 9fbd 3c72 ffbd
000002a0: 9051 95bd 46d9 a3bc a685 0fbc a633 71bc
000002b0: 4272 5a3c d86b f23b bc8b b1bc 1f1c dcbc
000002c0: 4195 5abd 10e4 cb3c 4359 9dbc 1b07 aebd
000002d0: 1eaf b1bd ca16 28bd fe02 4cbd e2c3 61bd
000002e0: c4f3 863d dd23 833c e642 023b e981 4f3c
000002f0: d99a 9a3b 9deb 85bd a2c9 0d3d 21f4 d8bd
00000300: 80ac 763d a0ce a2bd db2f aebd ad2c 91bc
00000310: cb59 823c bf4b be3d d73c 79bd c55a a6bd

hidden1_Y1.weight f4 [200, 200]
0.07657473 0.06653424 -0.10677182 0.04772552 0.113363124 0.023563692 0.018351538 -0.060703292
-0.055942167 0.06443193 -0.023833247 -0.029150525 -0.016808793 0.05371757 -0.014050798 -0.11185509
-0.090053424 -0.040865015 0.109543234 -0.10600709 0.05903009 0.09496821 0.09860135 0.05545104
-0.124330334 0.021470401 -0.070824794 -0.06315609 0.07635292 -0.12254499 -0.0563975 0.015791113
0.09603709 0.05842595 0.043270867 0.053314865 0.079271965 0.0050565875 -0.06702261 0.04919468
0.1024658 -0.10784778 0.06637936 0.094440416 0.06278286 -0.10496621 -0.0924096 -0.021858236
-0.12086784 -0.052296523 -0.01834944 -0.10500075 -0.018594647 0.04994241 -0.11873927 0.0108664455
-0.11686868 0.08494144 -0.026848609 -0.11227684 0.11494078 0.07697758 0.004317924 -0.0771585
-0.101486124 -0.11893726 0.05106079 0.031054586 -0.09017047 -0.011058562 -0.08676413 -0.08010941
-0.060692914 -0.08464343 -0.050923306 -0.010521155 -0.07557794 -0.09043908 -0.089113906 0.08153457
-0.08811246 0.07727528 -0.0070287604 0.047228537 0.114925824 -0.0070677493 -0.10428858 0.08297663
-0.07854108 -0.013302293 0.034520023 -0.11141125 -0.11904865 -0.058996346 -0.042274956 0.051114958
-0.017718272 0.047876745 -0.12741446 -0.11806521 0.099116504 -0.1122712 0.018819477 -0.10859006
0.08014851 0.092672214 -0.039379213 -0.11337161 -0.06898357 -0.07196253 0.07372065 -0.085653655
0.026532587 -0.05110386 -0.0062478976 0.003965412 -0.03509491 -0.11867708 -0.08007109 0.05986363
0.08184314 0.10584019 -0.0016961051 -0.009853303 -0.08298947 -0.08361754 -0.019644674 0.09623703
0.10470175 -0.039588265 -0.034109525 0.049806543 -0.05110106 -0.09952929 0.06399744 0.031101583
0.025578165 0.089545645 -0.017182339 -0.02624676 -0.116716035 -0.11312739 0.014944733 0.039651286
0.019743811 -0.0233682 -0.030178517 0.040375635 0.023846094 0.014585222 -0.100361146 0.014309592
-0.08436488 -0.005437717 -0.10469417 -0.0036876148 0.11729183 0.04138741 -0.0148929255 -0.005475675
0.04036207 0.06592077 0.08637894 0.018479457 -0.012394431 -0.07915386 0.009661817 -0.10184649
0.016022155 -0.07871055 -0.0410124 0.09125236 -0.04411107 0.08792427 -0.06332468 0.0454944
0.08115944 -0.052247126 -0.022710953 0.07726096 -0.11250468 -0.0689591 0.05984842 -0.043055177
-0.105426416 0.105029784 -0.11221513 0.03516435 -0.014707069 -0.07510025 -0.08580637 0.047481563
0.08753477 -0.08928175 0.10755595 0.016734118 -0.11789698 -0.108911574 0.030523485 -0.013248348
0.11537678 0.08127075 -0.09005522 -0.025323777 -0.11281275 -0.09058028 -0.11116056 0.00016040727
0.014478087 -0.07647768 0.07929103 -0.05692381 -0.10105323 0.008776112 0.041495603 0.09686754
-0.088759005 0.12777196 0.038995918 0.015772877 -0.06919918 0.12728883 0.025329916 -0.041050375
0.12187168 0.014536649 -0.023914196 -0.017515805 -0.10126591 -0.06666337 0.05003747 0.048516355
0.09706527 -0.10134376 -0.008967255 0.062545784 0.09449621 -0.05666995 -0.1067533 -0.08760172
-0.022657894 0.00039625546 -0.10808077 -0.065441966 -0.031336617 -0.015137334 0.04751385 0.07514314
0.04490116 0.092624895 0.11122017 0.10774912 -0.098534614 0.13990712 0.026243545 -0.046670165
00000000: 36d3 9c3d 1b43 883d 2fab dabd d67b 433d
00000010: ed2a e83d a508 c13c f755 963c 04a4 78bd
00000020: 9d23 65bd e3f4 833d f13d c3bc 15cd eebc
00000030: 98b2 89bc f406 5c3d 5135 66bc 4814 e5bd
00000040: ee6d b8bd 1362 27bd 3458 e03d 3f1a d9bd
00000050: 89c9 713d b17e c23d 81ef c93d a120 633d
00000060: e7a0 febd b2e2 af3c 970c 91bd fb57 81bd
00000070: eb5e 9c3d def8 fabd 1101 67bd 5d5c 813c
00000080: 18af c43d 0d50 6f3d cb3c 313d b060 5a3d
00000090: 5759 a23d bbb1 a53b 2643 89bd 5c80 493d
000000a0: 97d9 d13d 4cdf dcbd e7f1 873d fa69 c13d
000000b0: 4d94 803d 86f8 d6bd 3f41 bdbd 0b10 b3bc
000000c0: 8f89 f7bd e134 56bd 9151 96bc a20a d7bd
000000d0: cd53 98bc 6a90 4c3d 932d f3bd 2d09 323c
000000e0: d958 efbd c7f5 ad3d 9df1 dbbc 66f1 e5bd
000000f0: 1266 eb3d 6ca6 9d3d 5f7d 8d3b 4705 9ebd
00000100: f5d7 cfbd 6195 f3bd 1e25 513d 3066 fe3c
00000110: 4cab b8bd f92e 35bc 64b1 b1bd 6710 a4bd
00000120: 2299 78bd 8959 adbd f594 50bd ec60 2cbc
00000130: 9bc8 9abd 2038 b9bd 5a81 b6bd 99fb a63d
00000140: 4e74 b4bd 8142 9e3d 8451 e6bb b672 413d
00000150: 3b5e eb3d 9498 e7bb 4095 d5bd a7ef a93d
00000160: 25da a0bd dcf1 59bc de64 0d3d 952b e4bd
00000170: c7cf f3bd 27a6 71bd 8128 2dbd eb5d 513d
00000180: e925 91bc 681a 443d f078 02be 2ccc f1bd
00000190: 98fd ca3d 71ee e5bd 4e2b 9a3c 7764 debd
000001a0: e724 a43d eeca bd3d 194c 21bd 602f e8bd
000001b0: 4247 8dbd 1761 93bd dafa 963d 2f6b afbd
000001c0: de5a d93c 4852 51bd 2abb ccbb 49f0 813b
000001d0: aebf 0fbd f80c f3bd 50fc a3bd 9133 753d
000001e0: 609d a73d bec2 d83d d84f deba c06f 21bc
000001f0: 62f6 a9bd ac3f abbd deed a0bc ec17 c53d
00000200: df6d d63d 4e27 22bd 6eb6 0bbd f201 4c3d
00000210: 584f 51bd 03d6 cbbd 1711 833d bfc8 fe3c
00000220: 4d89 d13c b563 b73d fac1 8cbc 7203 d7bc
00000230: d108 efbd 55af e7bd c1da 743c 6369 223d
00000240: c6bd a13c ab6e bfbc f038 f7bc ec60 253d
00000250: e258 c33c dbf6 6e3c 258a cdbd c772 6a3c
00000260: 7fc7 acbd e02e b2bb e669 d6bd e9ab 71bb
00000270: b336 f03d d885 293d 7501 74bc 4b6d b3bb
00000280: b352 253d 7801 873d 71e7 b03d 3b62 973c
00000290: 0312 4bbc 6b1b a2bd 994c 1e3c e494 d0bd
000002a0: e540 833c ff32 a1bd 9efc 27bd 84e2 ba3d
000002b0: cfad 34bd a411 b43d 5fb0 81bd 5658 3a3d
000002c0: ec36 a63d 1501 56bd 520c babc ff3a 9e3d
000002d0: db68 e6bd 6e3a 8dbd 9e23 753d a05a 30bd
000002e0: cee9 d7bd db19 d73d 0cd1 e5bd 7e08 103d
000002f0: ebf5 70bc 29ce 99bd 40bb afbd 077c 423d
00000300: 6e45 b33d 5ad9 b6bd 4b46 dc3d fd15 893c
00000310: f973 f1bd 080d dfbd 630c fa3c 990f 59bc
00000320: a94a ec3d 4771 a63d df6e b8bd cf73 cfbc
00000330: 5f0a e7bd 2782 b9bd 26a8 e3bd 0033 2839
00000340: 8035 6d3c 54a0 9cbd 5663 a23d f128 69bd
00000350: fff4 cebd afc9 0f3c 4bf7 293d 7d62 c63d
00000360: 48c7 b5bd a7d6 023e 2fba 1f3d 1f36 813c
00000370: 4db8 8dbd 0158 023e af80 cf3c 7024 28bd
00000380: dc97 f93d 202b 6e3c b4e7 c3bc 4e7d 8fbc
00000390: 8064 cfbd ce86 88bd 17f4 4c3d 16b9 463d
000003a0: 28ca c63d 518d cfbd 65eb 12bc 0118 803d
000003b0: 3b87 c13d c01e 68bd 79a1 dabd 8868 b3bd
000003c0: 0c9d b9bc 82c0 cf39 7359 ddbd 7006 86bd
000003d0: d35a 00bd 9502 78bc e29d 423d a6e4 993d
000003e0: 47ea 373d 1fb2 bd3d 67c7 e33d 92ab dc3d
000003f0: 84cc c9bd d043 0f3e b4fc d63c 3729 3fbd

hidden1_Y1.bias f4 [200]
-0.017089486 0.016994994 -0.029685095 0.0404122 0.016032955 0.0038397398 -0.004286305 -0.051824793
-0.0125082 0.043071155 0.06908509 0.03936624 -0.055741735 0.0106582735 0.017191075 -0.023924127
-0.008371137 0.049976528 -0.051057395 0.015891839 -0.037684392 0.00035958245 0.07041833 -0.004727106
-0.03567526 0.04066787 -0.030195136 0.009690168 0.05943304 0.03302638 -0.012392859 0.074304536
0.034184977 0.062227927 -0.0051396796 0.06018757 -0.03568054 0.03830799 -0.017683659 -0.029541863
-0.06904721 -0.047263972 -0.01754452 -0.040865224 0.050442655 -0.05736335 0.02007481 0.037067674
0.035387576 -0.03459361 0.05824908 0.046988014 0.05201283 0.056308854 -0.0432042 0.07297721
0.039873667 0.076583356 0.04745831 -0.08645968 0.012463124 -0.04892969 -0.015485492 -0.035790477
-0.0148308175 -0.042399988 -0.03108115 -0.033906363 0.013346483 0.019212963 -0.066282935 -0.066854775
0.050409805 -0.017848317 0.05032683 0.0143685965 -0.06950147 -0.062417027 0.050018933 -0.019977976
0.022169823 -0.022383962 -0.03760003 0.03280852 0.06756682 -0.0004959824 0.001522172 -0.008305455
0.06948771 -0.0074116513 -0.06588485 0.0526721 0.021603977 0.03210241 0.001487022 -0.0060249944
-0.026647206 0.053564977 -0.035758853 0.05591078 0.018453293 -0.06499923 0.06117818 -0.049649946
0.00659102 -0.07416394 0.0031850557 -0.033839762 -0.08337204 0.026244035 0.05986056 -0.0047252127
-0.046860695 0.063478775 0.012293942 0.07289448 -0.061428245 0.018534483 -0.022160716 -0.007660698
-0.019427627 -0.029060913 -0.071855955 -0.037408207 0.062449493 0.0149089005 -0.025373848 0.013284768
-0.01165529 0.0025639005 0.060219284 0.040385798 -0.050912548 0.07146352 -0.058339264 -0.0631502
-0.06555101 -0.04645193 0.04586341 0.037289277 -0.040968984 0.0032352055 0.0024272015 -0.05266342
-0.04945658 0.07499728 -0.05656854 -0.054976318 0.037827827 0.026973031 -0.01085529 -0.017914876
0.056089398 -0.0019083153 -0.06820151 0.062382724 0.062042065 0.050278965 -0.05312991 -0.047294747
-0.007664642 0.06243885 0.028999016 0.024760995 -0.042863656 -0.061875734 -0.033018526 -0.044429176
0.052180722 -0.066015 0.047632877 0.014510665 -0.017095368 0.052935403 -0.028923942 -0.07404971
0.016666407 0.02595218 -0.049126863 0.06469711 0.027241524 0.043608703 0.0086036 -0.066776216
0.057154715 0.06383162 -0.07278723 0.022290457 0.06793008 0.062316485 0.07467765 0.001835925
-0.048496086 0.009174495 0.0029040803 0.030636106 -0.027315222 -0.056900512 -0.014363146 -0.055053465
00000000: 40ff 8bbc 1639 8b3c 282e f3bc 4387 253d
00000010: 8b57 833c 25a4 7b3b 2274 8cbb 3c46 54bd
00000020: 31ef 4cbc 616b 303d 7c7c 8d3d 7f3e 213d
00000030: 7251 64bd 0aa0 2e3c 4cd4 8c3c 88fc c3bc
00000040: 1827 09bc 30b4 4c3d 8f21 51bd 9a2f 823c
00000050: f35a 1abd 5786 bc39 7c37 903d d7e5 9abb
00000060: 3920 12bd 5a93 263d ca5b f7bc 83c3 1e3c
00000070: 0f70 733d ab46 073d 6b0b 4bbc fa2c 983d
00000080: 8c05 0c3d b6e2 7e3d c26a a8bb 3e87 763d
00000090: c225 12bd d7e8 1c3d 52dd 90bc c701 f2bc
000000a0: a068 8dbd de97 41bd 86b9 8fbc 4b62 27bd
000000b0: f59c 4e3d d5f5 6abd ee73 a43c 46d4 173d
000000c0: 90f2 103d 07b2 0dbd 9696 6e3d 8176 403d
000000d0: 680b 553d 1da4 663d e3f6 30bd 1375 953d
000000e0: 9252 233d bcd7 9c3d a563 423d c611 b1bd
000000f0: 2132 4c3c 806a 48bd dcb6 7dbc 0999 12bd
00000100: f5fc 72bc 9cab 2dbd e59d febc 66e1 0abd
00000110: 35ab 5a3c 8164 9d3c 59bf 87bd 28eb 88bd
00000120: 837a 4e3d a236 92bc 8223 4e3d 436a 6b3c
00000130: c956 8ebd ffa8 7fbd a7e0 4c3d daa8 a3bc
00000140: 7d9d b53c 925e b7bc 7d02 1abd 3a62 063d
00000150: 7960 8a3d d104 02ba 9e83 c73a 9a13 08bc
00000160: 934f 8e3d 70dd f2bb a3ee 86bd b3be 573d
00000170: d3fa b03c d17d 033d 2ee8 c23a 516d c5bb
00000180: 3e4b dabc f366 5b3d e077 12bd b402 653d
00000190: 5c2b 973c 511e 85bd f995 7a3d be5d 4bbd
000001a0: 7cf9 d73b 44e3 97bd 5ebc 503b 909b 0abd
000001b0: f6be aabd bbfd d63c 5930 753d f5d5 9abb
000001c0: 00f1 3fbd 2901 823d 886c 493c b349 953d
000001d0: 2f9c 7bbd a1d5 973c 648a b5bc 9806 fbbb
000001e0: b026 9fbc 2711 eebc 3729 93bd 5939 19bd
000001f0: 0acb 7f3d 7644 743c d1dc cfbc 5ba8 593c
00000200: d4f5 3ebc 1d07 283b 7fa8 763d 946b 253d
00000210: ad89 50bd 775b 923d 27f5 6ebd e454 81bd
00000220: 9c3f 86bd 6144 3ebd 45db 3b3d a4bc 183d
00000230: 18cf 27bd be05 543b af11 1f3b 99b5 57bd
00000240: fc92 4abd 2d98 993d 6ab4 67bd d92e 61bd
00000250: 5af1 1a3d 8cf6 dc3c 63da 31bc 38c2 92bc
00000260: ffbd 653d 7020 faba 3cad 8bbd 0785 7f3d
00000270: d21f 7e3d 51f1 4d3d c09e 59bd 23b8 41bd
00000280: ad27 fbbb e1bf 7f3d 588f ed3c 92d7 ca3c
00000290: cd91 2fbd 6971 7dbd 6f3e 07bd 5efb 35bd
000002a0: 74bb 553d df32 87bd b11a 433d 24be 6d3c
000002b0: 960b 8cbc cbd2 583d e7f1 ecbc 60a7 97bd
000002c0: fd87 883c ab99 d43c 4039 49bd eb7f 843d
000002d0: 9e29 df3c 0a9f 323d 1df6 0c3c f8c1 88bd
000002e0: 101b 6a3d 27ba 823d 7911 95bd 7a9a b63c
000002f0: ed1e 8b3d 923f 7f3d 99f0 983d 6ca3 f03a
00000300: d5a3 46bd 9f50 163c 6252 3e3b 92f8 fa3c
00000310: 2cc4 dfbc 8310 69bd 6753 6bbc be7f 61bd

hidden2_Y1.weight f4 [200, 200]
0.114855826 0.0498612 -0.09105444 0.05486811 -0.11056408 0.046993993 -0.02917574 0.008542441
-0.09551565 -0.07573543 0.0025620102 0.09205733 -0.037193168 -0.077853374 0.011494956 -0.0014822572
-0.060672067 0.0036715514 0.0061721792 -0.03466031 -0.087191425 -0.09811418 -0.008142267 0.049191687
0.10902362 -0.011979381 0.03671854 -0.09930413 -0.004798589 -0.084455594 -0.08377867 -0.031698946
0.105925776 0.035692263 -0.05376995 0.038864803 -0.102449626 0.039507 -0.024465222 -0.039247353
0.02112062 -0.016427003 0.028235711 0.09873717 -0.0694084 -0.114907384 0.06766179 0.096772656
0.045403883 -0.006786575 0.1164268 0.024629632 -0.10662649 -0.01019041 -0.045677323 -0.0879486
0.06410436 -0.13426608 -0.07038049 -0.08547806 0.104807615 0.040552843 -0.123900406 0.016301198
0.022059062 -0.07334661 -0.0059044505 -0.021410964 0.023213537 0.006855939 -0.010484825 -0.115584336
0.040878583 -0.033983108 0.063141026 -0.07910417 -0.061997652 0.06392184 0.07523526 0.009152441
-0.084341064 -0.07877138 0.12477584 -0.08051564 -0.09440077 -0.123919465 0.015109513 -0.048568394
0.108840495 -0.06886573 0.070106134 0.12068078 0.028494017 -0.01694734 -0.09437286 0.0028675532
0.064460814 0.062893994 0.11213594 0.05318646 -0.11580978 -0.008259039 -0.14460108 0.025716418
-0.014373362 -0.017477168 0.017125426 -0.0052182865 -0.13250618 -0.044740602 0.10575437 -0.13640991
-0.050935104 -0.0034911053 -0.05793229 -0.029746285 -0.01921423 0.070743635 -0.11820611 0.11333821
-0.042743925 -0.03198871 0.05117776 0.06541711 0.0212946 0.016222239 -0.058898173 -0.030226136
0.11381041 -0.11603462 -0.012476848 -0.12261993 0.0283173 -0.023062946 0.060160283 -0.0074694105
-0.12375 -0.050609026 0.1184011 0.090427905 -0.06508584 0.03642711 -0.061595745 0.043751545
0.06062208 0.10554734 0.111086726 -0.009823929 0.0047721867 -0.011983722 0.06381305 -0.06187983
0.016789898 0.032249484 -0.042593975 0.115188755 -0.03305738 0.063517556 -0.10319247 -0.09354236
-0.044711284 -0.08281007 0.10852874 -0.08144629 -0.029957447 -0.04043341 0.07103942 -0.060407065
-0.055890653 -0.010331131 0.008260113 -0.0675523 0.08245748 -0.07778346 -0.02535437 -0.102380976
-0.11457496 -0.06949458 0.0070015443 0.1092402 -0.11631366 0.028774697 0.052201897 -0.07778171
0.08003476 0.10521366 -0.008134376 -0.076350644 -0.05801246 0.043301087 0.03272666 0.0070622545
0.03434496 0.0793605 -0.0009049823 -0.049884778 0.09875101 -0.01654104 -0.09809603 0.03212266
0.019679561 -0.062534146 -0.06029395 -0.094970085 -0.058306098 0.009548323 0.016317485 0.09947771
0.015468835 0.062241383 0.017346723 0.0436471 0.054654095 -0.07234671 0.02075539 0.013900466
0.07265177 0.105235815 -0.083860524 0.027491443 -0.120149426 0.01402643 0.02172958 0.058144517
0.029734187 -0.08812094 0.036728546 0.017259743 -0.05861639 0.09130222 -0.12630911 0.09710619
0.06708574 0.07537895 0.03723903 0.09441294 -0.099737145 -0.11976553 -0.10617757 0.06397392
0.057616167 0.056679595 0.050235324 -0.07651891 -0.13308547 -0.08052784 -0.0064277747 0.023061927
-0.12271817 -0.09097183 -0.01020621 -0.12602031 -0.06797179 -0.015183969 6.758771e-06 0.03224257
00000000: 8839 eb3d 423b 4c3d c07a babd 62bd 603d
00000010: 6c6f e2bd c67c 403d f601 efbc 98f5 0b3c
00000020: b69d c3bd 2d1b 9bbd 66e7 273b 8e88 bc3d
00000030: dd57 18bd 9771 9fbd 5755 3c3c 4c48 c2ba
00000040: 4683 78bd 699e 703b fe3f ca3b f8f7 0dbd
00000050: 6b91 b2bd 16f0 c8bd 2567 05bc 397d 493d
00000060: c747 df3d 2a45 44bc 2e66 163d f75f cbbd
00000070: 7b3d 9dbb 0ef7 acbd 2794 abbd c1d6 01bd
00000080: 9def d83d 0d32 123d e13d 5cbd b330 1f3d
00000090: 1cd1 d1bd 18d2 213d 4a6b c8bc d5c1 20bd
000000a0: 2705 ad3c ec91 86bc 944e e73c b736 ca3d
000000b0: fe25 8ebd 9054 ebbd 4492 8a3d be30 c63d
000000c0: 6cf9 393d eb61 debb 2d71 ee3d 15c4 c93c
000000d0: fd5e dabd adf5 26bc 2518 3bbd 651e b4bd
000000e0: 2649 833d 0c7d 09be a523 90bd 1f0f afbd
000000f0: 60a5 d63d bd1a 263d 7fbf fdbd 178a 853c
00000100: 35b5 b43c bf36 96bd 1f7a c1bb 0c66 afbc
00000110: 512a be3c c9a7 e03b 8bc8 2bbc 7bb7 ecbd
00000120: 4d70 273d df31 0bbd 1550 813d 5e01 a2bd
00000130: 40f1 7dbd 74e9 823d f214 9a3d 1ff4 153c
00000140: 02bb acbd e452 a1bd 7a8a ff3d 62e5 a4bd
00000150: 3155 c1bd 7dc9 fdbd e48d 773c a7ef 46bd
00000160: c4e7 de3d 7a09 8dbd ce93 8f3d 7c27 f73d
00000170: 496c e93c 26d5 8abc 8f46 c1bd 8fed 3b3b
00000180: 0804 843d 91ce 803d 87a7 e53d 0cda 593d
00000190: ae2d edbd ec50 07bc 4e12 14be 3dab d23c
000001a0: 407e 6bbc 472c 8fbc 9f4a 8c3c 29fe aabb
000001b0: b3af 07be ec41 37bd bf95 d83d 0aaf 0bbe
000001c0: 54a1 50bd 07cb 64bb 694a 6dbd 7bae f3bc
000001d0: 2967 9dbc 0ae2 903d 0c16 f2bd dd1d e83d
000001e0: 4114 2fbd 9806 03bd c59f 513d 68f9 853d
000001f0: 0372 ae3c 80e4 843c 363f 71bd cd9c f7bc
00000200: 6f15 e93d 8fa3 edbd b26b 4cbc 2820 fbbd
00000210: aff9 e73c 81ee bcbc a16a 763d f5c1 f4bb
00000220: a470 fdbd 694b 4fbd 477c f23d 4432 b93d
00000230: ba4b 85bd 9834 153d d24b 7cbd d234 333d
00000240: dc4e 783d 3429 d83d 7081 e33d 8bf4 20bc
00000250: 0160 9c3b 6057 44bc 6bb0 823d b475 7dbd
00000260: f88a 893c 0918 043d 0577 2ebd 15e8 eb3d
00000270: 2d67 07bd 7e15 823d 9356 d3bd 2393 bfbd
00000280: 2e23 37bd 5398 a9bd 5144 de3d 50cd a6bd
00000290: 5269 f5bc 819d 25bd 1e7d 913d 666d 77bd
000002a0: 99ed 64bd e743 29bc 6d55 073c dc58 8abd
000002b0: 78df a83d ef4c 9fbd f8b3 cfbc 1ead d1bd
000002c0: 47a6 eabd 2d53 8ebd 366d e53b 53b9 df3d
000002d0: db35 eebd eab8 eb3c a8d1 553d 044c 9fbd
000002e0: 44e9 a33d 427a d73d 0c46 05bc ba5d 9cbd
000002f0: 799e 6dbd 7b5c 313d 640c 063d 7c6a e73b
00000300: 4dad 0c3d c287 a23d 563c 6dba fb53 4cbd
00000310: f83d ca3d 1381 87bc 92e6 c8bd 0d93 033d
00000320: 0837 a13c e711 80bd caf6 76bd ad7f c2bd
00000330: 60d2 6ebd 9270 1c3c 3fac 853c f8ba cb3d
00000340: ff70 7d3c d2f0 7e3d b71a 8e3c 4dc7 323d
00000350: f9dc 5f3d 832a 94bd 3507 aa3c c8be 633c
00000360: 74ca 943d e085 d73d 11bf abbd bc35 e13c
00000370: e710 f6bd 1dcf 653c 3b02 b23c f228 6e3d
00000380: 1c95 f33c c078 b4bd ac70 163d 4e64 8d3c
00000390: bd17 70bd a9fc ba3d 2d57 01be 9cdf c63d
000003a0: 4064 893d 4760 9a3d f487 183d 925b c13d
000003b0: fd42 ccbd a147 f5bd a073 d9bd c204 833d
000003c0: eefe 6b3d dd28 683d 8ec3 4d3d f2b5 9cbd
000003d0: 8f47 08be c8eb a4bd 15a0 d2bb 5eec bc3c
000003e0: aa53 fbbd 704f babd f337 27bc 780b 01be
000003f0: cb34 8bbd 2fc6 78bc 67c9 e236 c910 043d

hidden2_Y1.bias f4 [200]
0.0284397 0.044670735 -0.06419957 0.04838428 -0.063758954 0.051378615 0.008965246 -0.01236891
0.008441485 0.035886325 -0.013240986 0.021549115 -0.022341907 -0.033440538 -0.014654383 0.047845848
-0.055550586 -0.021783162 0.04932912 -0.041600067 0.050686464 0.038227554 0.07003729 0.068902746
0.0446148 0.048200116 -0.06796509 0.0622571 -0.023105478 -0.011975775 0.047341995 0.051206104
-0.0291429 0.05181297 0.024497228 -0.080579884 0.03790043 -0.019505573 0.041284688 0.05319677
-0.081028625 0.0272913 0.070696004 -0.026896527 -0.069123596 0.012653028 0.028089713 0.0074470923
0.0073878365 0.002469571 -0.031282216 0.028262557 -0.043534715 0.011494774 -0.0091120275 0.02456407
0.051733233 0.047680914 -0.038343295 -0.018992726 -0.028878689 0.0029136383 0.002074018 0.039108135
-0.017881854 -0.008365405 0.054548666 0.04575936 -0.0075065605 0.041755643 0.0012994811 -0.046508253
0.038857218 0.048209004 -0.030684019 -0.016667064 -0.018440856 0.008391335 -0.06757733 -0.06174726
-0.06187574 -0.03387299 -0.057740103 -0.031843398 0.054486968 0.036696523 -0.026347639 -0.0072054886
0.03493869 0.0776699 -0.07276204 0.024186732 0.027452871 -0.022115327 -0.064710796 0.033854295
0.060364302 -0.030109506 0.038674805 0.011326068 0.022153623 0.0541567 -0.071642876 0.039783552
-0.06823851 -0.061161056 0.062556595 0.031997655 0.029077766 -0.022136295 -0.027596593 0.032545526
0.038811002 -0.024830826 0.03035512 0.026609685 0.0091325035 0.029729152 -0.048835512 0.057590708
0.06344305 0.076951176 0.02826569 -0.0047236 0.03258437 0.034816816 0.059084926 0.035566635
-0.05496024 0.01970505 0.022832522 -0.051163185 -0.017004581 -0.060827028 0.06613606 0.01000699
-0.04477534 0.02759933 -0.023482144 -0.013438569 0.05391376 0.015433422 -0.038001534 -0.011935626
0.029354116 0.055660833 -0.004217617 -0.06701665 -0.03578531 0.04725315 -0.018322293 -0.012172375
-0.027615283 0.04391829 -0.05887908 -0.034030795 -0.05976107 -0.06592176 -0.031055002 0.0036445346
0.021315482 -0.026543554 0.0066435435 0.029816402 0.029996125 -0.05552502 0.02941461 -0.043053556
-0.0075770565 -0.012650057 0.037954096 0.014103136 -0.028338868 -0.025401603 0.017790135 0.03258586
0.022624841 -0.049117815 -0.0014381558 0.0744695 -0.018905127 0.034195475 0.022748828 -0.03432293
0.02974601 -0.04395301 0.057269625 -0.0635491 0.036779426 0.047204614 0.0007707687 -0.0113588525
0.0046595703 0.061589554 -0.039343983 -0.036206592 -0.009115374 -0.02531755 0.005914632 0.02253467
00000000: 60fa e83c a9f8 363d 107b 83bd 982e 463d
00000010: 0e94 82bd 6272 523d f8e2 123c f8a6 4abc
00000020: 284e 0a3c 8afd 123d b8f0 58bc c587 b03c
00000030: 6006 b7bc f2f8 08bd f018 70bc 02fa 433d
00000040: 0389 63bd 9a72 b2bc 550d 4a3d d564 2abd
00000050: 9c9c 4f3d 7f94 1c3d b66f 8f3d e21c 8d3d
00000060: 02be 363d 7c6d 453d 4831 8bbd 4d01 7f3d
00000070: b347 bdbc 0a36 44bc aee9 413d 7ebd 513d
00000080: 17bd eebc d639 543d 69ae c83c 1107 a5bd
00000090: 7b3d 1b3d 27ca 9fbc 221a 293d dbe4 593d
000000a0: 56f2 a5bd 0192 df3c 11c9 903d 1b56 dcbc
000000b0: ac90 8dbd a54e 4f3c 661c e63c bd06 f43b
000000c0: aa15 f23b 87d8 213b c821 00bd e186 e73c
000000d0: 7551 32bd 9454 3c3c 9d4a 15bc 973a c93c
000000e0: 3ae6 533d 104d 433d dc0d 1dbd a296 9bbc
000000f0: 0093 ecbc bdf2 3e3b 3fec 073b da2f 203d
00000100: f77c 92bc 0d0f 09bc 6c6e 5f3d 2b6e 3b3d
00000110: 98f9 f5bb f707 2b3d 5a53 aa3a 707f 3ebd
00000120: bf28 1f3d ce76 453d 0d5d fbbc 5e89 88bc
00000130: 4711 97bc cf7b 093c fc65 8abd b2ea 7cbd
00000140: 6a71 7dbd 68be 0abd e380 6cbd 396e 02bd
00000150: ba2d 5f3d 184f 163d 01d7 d7bc 051c ecbb
00000160: df1b 0f3d 6611 9f3d 4404 95bd 4123 c63c
00000170: d8e4 e03c 342b b5bc 1887 84bd cdaa 0a3d
00000180: 8f40 773d 36a8 f6bc 7969 1e3d f990 393c
00000190: 847b b53c 6ad3 5d3d 80b9 92bd 14f4 223d
000001a0: a2c0 8bbd 0484 7abd ac1d 803d f90f 033d
000001b0: 7f34 ee3c 2d57 b5bc 4012 e2bc 754e 053d
000001c0: 49f8 1e3d 046a cbbc 4dab f83c 8efc d93c
000001d0: 7fa0 153c 8d8a f33c bf07 48bd 3ce4 6b3d
000001e0: 6eee 813d 9498 9d3d 738d e73c 6ec8 9abb
000001f0: 3077 053d 149c 0e3d 0903 723d 52ae 113d
00000200: fd1d 61bd 7c6c a13c 450b bb3c 7d90 51bd
00000210: 314d 8bbc c325 79bd 5872 873d 5cf4 233c
00000220: 5966 37bd fd17 e23c a05d c0bc 722d 5cbc
00000230: add4 5c3d 77dc 7c3c 7fa7 1bbd a58d 43bc
00000240: 0b78 f03c 9dfc 633d f033 8abb 0740 89bd
00000250: 9e93 12bd 858c 413d a218 96bc a46e 47bc
00000260: 7239 e2bc aae3 333d 312b 71bd e063 0bbd
00000270: 06c8 74bd fd01 87bd 0f67 febc 25d9 6e3b
00000280: ce9d ae3c de71 d9bc 15b2 d93b 8741 f43c
00000290: 6fba f53c 346e 63bd e8f6 f03c ed58 30bd
000002a0: f548 f8bb 2f42 4fbc c175 1b3d d710 673c
000002b0: ea26 e8bc 0617 d0bc 9ebc 913c c078 053d
000002c0: bb57 b93c c32f 49bd 8080 bcba 7783 983d
000002d0: edde 9abc 8e10 0c3d c05b ba3c 3396 0cbd
000002e0: e8ad f33c 1208 34bd 8e93 6a3d 0826 82bd
000002f0: 06a6 163d a059 413d 690d 4a3a 7b1a 3abc
00000300: 4faf 983b 5445 7c3d 2827 21bd 5d4d 14bd
00000310: a658 15bc c066 cfbc 88cf c13b a19a b83c
