Results/Models/SAE_E2E_DCN_model_iter_id_0_epoch_400_lr_0.0001.pth (torch, 833158 bytes, 14 tensors)

shared1.weight f4 [200, 25]
0	0x3dc24f83	0.09487822
1	0xbdb51d47	-0.08843475
2	0x3cb632f5	0.022241095
3	0xbd185770	-0.037192762
4	0x3e165b68	0.14683306
5	0xbda310a1	-0.07962156
6	0x3d08419b	0.03326569
7	0xbd180f05	-0.0371237
8	0xbd951579	-0.07279486
9	0xbd87f432	-0.066383734
10	0x3c98911f	0.018623887
11	0x3d80119b	0.06253358
12	0xbd866600	-0.06562424
13	0xbd9694d4	-0.073526055
14	0xbd9f91d0	-0.077914834
15	0xbd4583d4	-0.048221424
16	0x3cd6769a	0.0261796
17	0xbe0fff06	-0.14062127
18	0x3e0294a3	0.12752013
19	0xbdf325c6	-0.11872439
20	0xbcb0e052	-0.02159134
21	0xbd251ef2	-0.040312715
22	0xbd445bdf	-0.047939178
23	0x3d84ffb0	0.06494081
24	0xbc1ab978	-0.009443633
25	0x3dbf0235	0.09326593
26	0x3bda738d	0.0066666068
27	0x3e0e7c25	0.13914545
28	0xbc23eb59	-0.010004842
29	0x3da5df00	0.080991745
30	0xbdb8d575	-0.09025089
31	0xbde08f13	-0.10964789
32	0x3d8ac1ea	0.067752674
33	0x3c80e97c	0.015736334
34	0x3dc7a1fd	0.09747694
35	0xbd1ec34c	-0.03876047
36	0x3de09ea2	0.10967757
37	0xbdfce886	-0.12349038
38	0xbd9ea6f9	-0.07746691
39	0xbce48548	-0.027895585
40	0xbc3e04e2	-0.011597844
41	0x3d852737	0.0650162
42	0xbbb17acc	-0.00541625
43	0xbd9c7d28	-0.07641059
44	0x3de8d71b	0.11369153
45	0xbe0ba64e	-0.13637659
46	0x3b9a6faf	0.0047130208
47	0x3e2535d7	0.1613382
48	0x3e273707	0.16329585
49	0x3dc67dd5	0.09691969
50	0x3db0501e	0.08609031
51	0x3b005153	0.0019579723
52	0x3b624a20	0.0034529045
53	0x3d3ffdc7	0.04687288
54	0x3d2fc270	0.04291004
55	0x3d60dbf5	0.054897267
56	0xbce0df15	-0.027450124
57	0x3db8246e	0.089913234
58	0xbd8f3806	-0.069931075
59	0xbe0e244a	-0.1388103
60	0xbcf9c822	-0.030490939
61	0xbcf4e19c	-0.029892735
62	0x3d310f0f	0.04322725
63	0xbda19a66	-0.07890777
64	0x3ddb772f	0.10716092
65	0x3d0ed0a7	0.034866955
66	0xbe1664d3	-0.14686899
67	0x3d5d0955	0.053963978
68	0xbe03839d	-0.12843175
69	0x3d500132	0.05078239
70	0xbe0871c2	-0.13324645
71	0xbcd41ecd	-0.025893593
72	0xbe2b6627	-0.16738187
73	0xbcc03362	-0.023462001
74	0x3e0b2009	0.13586439
75	0xbc0ec21d	-0.008713272
76	0x3dc4f997	0.09617918
77	0x3def5f94	0.11688152
78	0xbc422d15	-0.011851569
79	0x3ac3ed8d	0.0014948115
80	0x3d811103	0.06302073
81	0x3da6e3d4	0.081489235
82	0x3e050049	0.1298839
83	0xbccb689f	-0.02483016
84	0x3dfaab88	0.12239748
85	0x3ceafe35	0.028685668
86	0xbccd1f14	-0.025039233
87	0xbde9f0f9	-0.11422915
88	0x3d447521	0.047963265
89	0xbe0e33dc	-0.1388697
90	0x3cfef06b	0.0311205
91	0x3de9f4f9	0.11423678
92	0x3db5d167	0.08877831
93	0xbdfeab06	-0.12434964
94	0xbd93f77b	-0.072249375
95	0xbc3c7685	-0.011502867
96	0x3d87033f	0.06592416
97	0xbc33dc81	-0.010977865
98	0x3d828605	0.063732184
99	0x3e030280	0.12793922
100	0xbe04bad5	-0.12961896
101	0xbda89274	-0.08231059
102	0xbdd4e9ca	-0.10396154
103	0x3c68a231	0.014198826
104	0x3e056e0a	0.13030258
105	0xbd218ed9	-0.03944287
106	0xbd7d5979	-0.061852906
107	0xbd3c7bde	-0.046016566
108	0x3b0af920	0.002120562
109	0xbdc8cd52	-0.09804787
110	0x3e10d50e	0.14143774
111	0x3e029859	0.12753429
112	0xbdb5d575	-0.08878604
113	0xbd47010e	-0.04858499
114	0x3db8a586	0.09015946
115	0xbc90fad4	-0.01769773
116	0xbda6a837	-0.08137553
117	0xbe157397	-0.14594875
118	0x3d404199	0.04693756
119	0xbd463b12	-0.048396178
120	0xbde5fc9e	-0.112298235
121	0xbd38fc43	-0.04516245
122	0x3da5dd15	0.08098809
123	0x3d98eab0	0.07466638
124	0xbe27a40a	-0.1637117
125	0x3d836e01	0.06417466
126	0xbbf3edc7	-0.0074441168
127	0xbd5f5988	-0.054528743
128	0x3d867bb2	0.06566562
129	0xbd96d93f	-0.07365655
130	0xbd99fbc8	-0.075187266
131	0x3e00effc	0.12591547
132	0xbd97b093	-0.07406726
133	0xbc4a0b3a	-0.012331778
134	0x3da373d8	0.0798108
135	0xbcaaef42	-0.02086604
136	0x3d8d89b0	0.069110274
137	0xbd80209a	-0.06256218
138	0x3d80ffda	0.062988
139	0xbdfd8c58	-0.12380284
140	0x3dab0fbf	0.08352613
141	0x3d7c9e05	0.061674137
142	0x3d0c6a0d	0.034280825
143	0x3d5aa914	0.0533839
144	0xbd07bea3	-0.03314079
145	0xbcf68977	-0.030094845
146	0xbdd129fe	-0.102130875
147	0xbdd97720	-0.106184244
148	0x3d53ef6c	0.051742002
149	0x3d49827c	0.049196705
150	0xbd82e7ce	-0.063918695
151	0x3e0d6e5e	0.13811633
152	0xbc0a2cd0	-0.008433536
153	0xbd894ea2	-0.06704451
154	0x3d6a7ef4	0.05724998
155	0xbde8ebab	-0.11373075
156	0x3cfb4d49	0.0306765
157	0xbcb5b48e	-0.022180822
158	0x3c6d10ce	0.014469339
159	0xbd8c5b95	-0.068534054
160	0x3d70cb41	0.058787588
161	0x3e00986b	0.12558143
162	0xbd04aa98	-0.032389253
163	0xbdfbdc4f	-0.1229788
164	0xbe22fc36	-0.15916523
165	0xbe0682f3	-0.1313589
166	0x3d184c65	0.03718223
167	0xbdf76115	-0.12079064
168	0x3e15cbfd	0.14628597
169	0xbe0fa421	-0.14027454
170	0x3dff1aef	0.12456309
171	0xbc99b537	-0.018763168
172	0xbdc08324	-0.09400013
173	0xbe15f041	-0.14642431
174	0xbe01c347	-0.12672149
175	0x3cad14b4	0.021128036
176	0xbdd48ac5	-0.10378031
177	0x3d66f438	0.05638525
178	0x3e0f9ca8	0.14024603
179	0x3d966330	0.07343137
180	0xbdd2bdd2	-0.102901116
181	0xbd99fb18	-0.075185955
182	0xbdcb6a12	-0.09932341
183	0x3d7b6a55	0.061380703
184	0xbd8af232	-0.06784476
185	0x3c38d389	0.011280903
186	0xbb9d8bb2	-0.0048079127
187	0x3ddd3097	0.108002834
188	0x3e02bb57	0.12766777
189	0x3e056d0c	0.1302988
190	0xbe0ff31d	-0.14057584
191	0x3da23200	0.07919693
192	0x3cae2a48	0.021260396
193	0x3c86ba31	0.016446205
194	0xbde85182	-0.113436714
195	0x3d2bf028	0.041977078
196	0x3e23c36c	0.15992516
197	0xbddc293b	-0.107500516
198	0x3daade65	0.083432
199	0x3d11780b	0.035514873
200	0x3e306726	0.17226848
201	0xbd933dac	-0.07189497
202	0x3d790e7f	0.06080484
203	0x3da50909	0.08058364
204	0xbd8a90ca	-0.067658976
205	0x3df3f3e7	0.11911755
206	0xbe04f147	-0.12982665
207	0x3e143025	0.1447149
208	0xbdfb7c8a	-0.12279613
209	0x3d07f050	0.033188164
210	0xbd9cd576	-0.07657902
211	0x3d879bb7	0.06621497
212	0xbcbcc23f	-0.023041843
213	0x3d6d54c8	0.05794218
214	0xbd73520e	-0.059404425
215	0x3d4f4b0a	0.050608672
216	0xbd80479d	-0.06263659
217	0xbe353ca4	-0.17698914
218	0xbdfdc6f7	-0.12391465
219	0xbe1e7f0a	-0.15478149
220	0x3def7b66	0.11693458
221	0x3cf28286	0.029603254
222	0x3b9fe64e	0.0048797494
223	0x3d7e6b99	0.062114332
224	0x3c339c74	0.010962594
225	0x3cdb2f3d	0.026755923
226	0x3dfae204	0.1225014
227	0x3d6498fa	0.055809952
228	0xbd075caa	-0.033047356
229	0x3d84e641	0.0648923
230	0xbd944d15	-0.07241265
231	0xbe1621d4	-0.14661342
232	0x3c3f29cd	0.011667681
233	0xbe1adb9f	-0.15122841
234	0x3d2afc25	0.04174437
235	0x3d424c31	0.047435943
236	0xbda89506	-0.08231549
237	0x3d5b09ed	0.053476263
238	0xbdbde7df	-0.092727415
239	0xbd559061	-0.052139644
240	0xbdda18d5	-0.106492676
241	0x3c24f1c8	0.010067411
242	0xbb553385	-0.0032531929
243	0xbd72e930	-0.059304416
244	0xbe084bdc	-0.13310188
245	0xbd9f63f7	-0.07782739
246	0x3d10deee	0.035368852
247	0xbca5ca49	-0.020238059
248	0xbd424fa4	-0.047439232
249	0xbdcc7f53	-0.09985223
250	0xbc656f0d	-0.014003527
251	0xbddaedfb	-0.106899224
252	0xbdd0a963	-0.10188558
253	0x3ccb9a4d	0.02485385
254	0x3dc44802	0.09584047
255	0xbd6f445e	-0.05841481

shared1.bias f4 [200]
0	0x3d8e9f20	0.069639444
1	0xbe169006	-0.14703378
2	0xbe66041d	-0.22462507
3	0xbdae5ce0	-0.08513808
4	0x3d77f6fd	0.06053828
5	0xbcacec8b	-0.021108886
6	0x3dd526bb	0.10407778
7	0xbdde62dc	-0.108587
8	0xbe28d83f	-0.16488741
9	0xbd477da6	-0.048703812
10	0xbb18a5be	-0.002329215
11	0x3db6e84c	0.08931026
12	0xbe628223	-0.22119956
13	0xbdc5f5ac	-0.09665999
14	0xbdf96c9f	-0.12178921
15	0xbda1f2e3	-0.07907655
16	0xbdbd06ff	-0.0922985
17	0xbd673b4f	-0.056453045
18	0x3c8b7cb1	0.017027231
19	0x3d29886e	0.041389875
20	0x3dc2ee69	0.095181294
21	0xbdf6c0c1	-0.12048484
22	0xbcd598c4	-0.02607382
23	0xbdc75b7d	-0.09734247
24	0xbe00f5d6	-0.12593779
25	0x3d376e9b	0.044783216
26	0xbdb609b0	-0.088885665
27	0x3e306d11	0.17229106
28	0xbe4c17fe	-0.19931027
29	0xbcd7700d	-0.026298547
30	0xbe2dca0d	-0.16971608
31	0xbd2429fc	-0.040079102
32	0x3df5eb88	0.12007815
33	0xbe1c2773	-0.15249424
34	0x3dda353b	0.10654684
35	0x3d34ac03	0.044109356
36	0xbe04d385	-0.12971313
37	0x3d1b020d	0.037843753
38	0x3e34d55d	0.17659517
39	0x3c52eb0c	0.012873422
40	0xbd402d0f	-0.04691797
41	0xbe626329	-0.22108139
42	0xbe4d982e	-0.20077583
43	0xbe139bc1	-0.14414884
44	0xba4803d9	-0.0007629968
45	0xbda8ef70	-0.08248794
46	0x3c393b9c	0.011305716
47	0x3de3518a	0.11099537
48	0xbe0341a3	-0.12818007
49	0xbdcbd949	-0.09953553
50	0xbda3bc9b	-0.07994958
51	0xbd9fb0f7	-0.07797425
52	0x3ca94324	0.020661898
53	0xbda88812	-0.08229078
54	0xbcb7cf77	-0.022437794
55	0xbdaee4ff	-0.08539771
56	0xbd229897	-0.039696302
57	0xbdf28c17	-0.11843126
58	0xbe136c34	-0.14396745
59	0x3c843b36	0.016141515
60	0xbd770595	-0.060308058
61	0x3d0e4a39	0.034738753
62	0x3d697669	0.05699769
63	0x3dbc197c	0.09184548
64	0xbe470d44	-0.19438654
65	0x3e1d6ab6	0.15372738
66	0xbe61eca9	-0.22062935
67	0x3c5b8e1c	0.013400581
68	0x3ddc42a8	0.10754901
69	0x3ddb3da3	0.10705116
70	0xbd9189e9	-0.071063824
71	0xbe146cc8	-0.14494622
72	0x3dfe1547	0.12406402
73	0x3d8ce844	0.06880239
74	0xbd963dba	-0.07335992
75	0x3df857f9	0.121261545
76	0xbd81c7b2	-0.06336917
77	0xbd775d67	-0.06039181
78	0x3dbe0aa8	0.09279376
79	0xbe4fb9b1	-0.2028568
80	0x3e2d3eb4	0.1691845
81	0xbdb6772d	-0.0890945
82	0xbdf7e5cb	-0.121043764
83	0x3d213692	0.039358683
84	0x3d1e6b5f	0.038676616
85	0x3da92220	0.08258462
86	0xbde2f9ab	-0.11082777
87	0x3d2b098b	0.041757148
88	0x3e1ccd85	0.15312774
89	0x3d6304a6	0.055424355
90	0xbe1800fd	-0.14844127
91	0xbe01dc3b	-0.12681668
92	0x3dea3c0d	0.11437235
93	0xbd1a4f9c	-0.037673578
94	0x3dad79de	0.0847051
95	0xbc182611	-0.0092864195
96	0xbd9d8478	-0.07691282
97	0x3d1c72ad	0.0381953
98	0xbe6e231a	-0.23255578
99	0xbe0d705a	-0.1381239
100	0xbe4f0d7d	-0.20219989
101	0x3e071616	0.13192019
102	0xbe0065db	-0.12538855
103	0x3db22864	0.0869911
104	0x3e0b54c0	0.13606548
105	0xbdb96f69	-0.09054453
106	0x3e2d0c7a	0.1689929
107	0xbd9b2b25	-0.075765885
108	0xbdb8063a	-0.089855626
109	0xbdb9e929	-0.09077675
110	0x3b21095a	0.0024572224
111	0xbe375fb7	-0.17907606
112	0xbac0ef9d	-0.0014719848
113	0x3d0e67eb	0.034767073
114	0xbd9d6c9f	-0.076867335
115	0x3e089b0b	0.13340394
116	0x3c87176d	0.016490662
117	0xbd76cf04	-0.06025602
118	0xbe15639e	-0.14588782
119	0xbcf74682	-0.030184988
120	0xbd0c5c4b	-0.034267705
121	0x3de7b05a	0.11312933
122	0xbe2f19cf	-0.17099689
123	0xbc95e396	-0.018296998
124	0x3cfee335	0.0311142
125	0xbc4921a4	-0.012276087
126	0x3e15e2ca	0.14637294
127	0x3c49327b	0.012280102
128	0x3dc88aea	0.09792121
129	0xbc7dcd0d	-0.015490782
130	0xbdf0d93b	-0.117601834
131	0xbe1d7f9d	-0.15380712
132	0x3d26fd99	0.040769193
133	0xbe2f8481	-0.1714039
134	0xbe3f4893	-0.18680029
135	0xbe182cc1	-0.14860822
136	0x3dc99072	0.09842004
137	0xbd9e6c64	-0.077355176
138	0xbdb926b7	-0.090405874
139	0xbda7b8d1	-0.08189548
140	0xbbcccb72	-0.0062498385
141	0x3d412a20	0.047159314
142	0x3dc413f7	0.095741205
143	0xbd5500ac	-0.052002594
144	0x3de8655c	0.11347458
145	0x3bfe3dd6	0.0077588363
146	0x3e097dd4	0.13426906
147	0xbe36f7ac	-0.17867917
148	0xbc991d7d	-0.018690819
149	0xbe71a36b	-0.23597495
150	0xbde7844b	-0.1130453
151	0xbe6b998c	-0.23007792
152	0x3d50096c	0.050790235
153	0x3dd6c988	0.10487658
154	0x3d575528	0.052571446
155	0x3e110c07	0.14164744
156	0x3d06f909	0.032952342
157	0xbd8d1309	-0.06888396
158	0x3d7d9a7c	0.061914906
159	0xbda47898	-0.08030814
160	0x3e0989f2	0.13431528
161	0xbe259a29	-0.16172089
162	0xbc827233	-0.015923595
163	0x3d6e8b6d	0.058238436
164	0xbe3f69b6	-0.1869267
165	0x3e25c173	0.16187076
166	0x3c850401	0.01623726
167	0xbe4892f6	-0.19587311
168	0x3d0120f4	0.031525567
169	0xbd88b818	-0.06675738
170	0xbd7d2bf6	-0.061809503
171	0x3db18d00	0.08669472
172	0xbd8b8492	-0.06812395
173	0x3e021b15	0.12705643
174	0xbe306706	-0.172268
175	0xbcf406f0	-0.029788464
176	0x3d46f219	0.048570726
177	0x3d820408	0.06348425
178	0xbda9dcd6	-0.08294074
179	0x3d25fcbc	0.04052423
180	0x3e2cdcc5	0.16881092
181	0x3dc16681	0.09443379
182	0x3d633e80	0.055479527
183	0x3e1fa4db	0.15590231
184	0xbe24a470	-0.16078353
185	0xbe0e0938	-0.13870704
186	0xbe57610b	-0.21033113
187	0x3dfe9167	0.12430077
188	0x3c81477a	0.015781153
189	0xbe33b704	-0.17550284
190	0x3d2cf185	0.04222252
191	0xbdb8cb84	-0.090231925
192	0x3e113ac5	0.14182575
193	0x3df65fb9	0.120299764
194	0xbe433440	-0.190629
195	0x3e2d2444	0.16908365
196	0xbd9de5b4	-0.07709828
197	0xbd965bf8	-0.073417604
198	0x3e17100d	0.14752217
199	0xbe51f06d	-0.20501871

shared2.weight f4 [200, 200]
0	0xbb68a7f0	-0.003550049
1	0x3d7d9221	0.061906938
2	0xbd8bc147	-0.06823974
3	0xbd3dec87	-0.04636815
4	0xbd8e4f28	-0.069486916
5	0xbd00cfa5	-0.031448025
6	0x3d1e194f	0.038598355
7	0xbdb1711c	-0.08664152
8	0xbd2e31d2	-0.04252798
9	0xbd5879c0	-0.052850485
10	0x3d0a195f	0.033715602
11	0xbd4f5d1b	-0.0506259
12	0xbc8f1ea0	-0.017470658
13	0xbd37d7bb	-0.04488347
14	0x3db01078	0.08596891
15	0xbdf8dc27	-0.12151366
16	0xbded4b59	-0.11586637
17	0xbba3a903	-0.004994513
18	0x3d9c0469	0.07618029
19	0xbdabaf22	-0.08383013
20	0x3d75cbab	0.060008686
21	0xbd1ea665	-0.038732905
22	0x3b9b8952	0.0047465945
23	0x3d07b7c4	0.033134237
24	0x3d644a8f	0.055735167
25	0xbc8c53f6	-0.01712988
26	0xbddb4daa	-0.107081726
27	0xbd142660	-0.03616941
28	0xbd9bb07f	-0.07602023
29	0x3ca1625d	0.019700224
30	0x3d645b60	0.055751204
31	0x3db3d596	0.08780973
32	0x3dd03ed4	0.101682335
33	0xbdfb4e9f	-0.12270855
34	0x3c0d394d	0.008619619
35	0xbd9a33e4	-0.075294286
36	0x3d9cf3a1	0.07663656
37	0xbd66855f	-0.056279536
38	0x3d813409	0.06308753
39	0x3da35804	0.07975772
40	0xbe0e555f	-0.13899754
41	0x3d9357d5	0.07194487
42	0xbc3c2a8f	-0.011484756
43	0xbdf2095f	-0.11818194
44	0xbd1a5fb3	-0.037688922
45	0x3d54a855	0.051918346
46	0xbdf3277b	-0.11872765
47	0xbde083f9	-0.10962672
48	0xbe15b73c	-0.1462068
49	0x3d6f63c9	0.058444772
50	0xbd6067d5	-0.054786522
51	0xbd8016a1	-0.06254316
52	0xbd709083	-0.058731567
53	0xbd2bbdaa	-0.041928925
54	0x3d1db4b7	0.03850242
55	0xbd8653b8	-0.06558937
56	0xbdf80892	-0.1211101
57	0xbd6709d9	-0.056405876
58	0x3ce4ea32	0.027943704
59	0xbdf58565	-0.119883336
60	0xbd7fe5f2	-0.062475152
61	0xbdd5fd38	-0.10448688
62	0x3d9554b6	0.07291548
63	0xbdd559ec	-0.10417542
64	0x3d663c00	0.056209564
65	0xbdfb6ae9	-0.12276251
66	0x3d98bc21	0.07457758
67	0xbdb5fa1d	-0.08885596
68	0xbd083267	-0.033251192
69	0xbd4b5cc9	-0.049649034
70	0xbd020f47	-0.03175285
71	0xbd9e180f	-0.077194326
72	0x3ca54ff5	0.020179728
73	0x3cca6516	0.024706405
74	0xbe0249fc	-0.12723535
75	0x3d0dd748	0.034629136
76	0x3a6a0d97	0.00089284166
77	0xbc9a35e0	-0.018824518
78	0x3cff24ed	0.031145537
79	0x3dbcc7c9	0.092177935
80	0xbdaabc1f	-0.083366625
81	0x3dd74c65	0.10512618
82	0x3d84215b	0.064516746
83	0x3d7b15a0	0.06129992
84	0x3d3fe123	0.046845566
85	0x3df03f15	0.11730782
86	0xbdaf07e5	-0.08546428
87	0x3d749d5e	0.05972039
88	0xbd9f3cc3	-0.07775261
89	0x3dc25e04	0.09490588
90	0xbdaf9cef	-0.085748546
91	0x3db4e67d	0.08833025
92	0x3b87ddbf	0.0041463072
93	0x3d59b4a1	0.053150777
94	0xbe1506ab	-0.14553325
95	0x3d83b790	0.06431496
96	0x3d81c317	0.063360386
97	0x3c42c2a4	0.011887226
98	0xbc0951aa	-0.008381287
99	0x3d9ea81a	0.077469066
100	0xbc2b40e6	-0.010452485
101	0xbdd49554	-0.103800446
102	0x3d90e0a8	0.070741
103	0xbb57e833	-0.0032944798
104	0xbd43b91f	-0.047783967
105	0x3d8d38d4	0.06895605
106	0x3da4ca21	0.080463655
107	0x3d3d8014	0.046264723
108	0xbe0cb2d7	-0.13740097
109	0xbb462f26	-0.0030240505
110	0x3bf62303	0.007511498
111	0xbdfbc8ba	-0.12294145
112	0xbdbfb63a	-0.09360929
113	0xbda66176	-0.08124058
114	0xbde3753f	-0.11106347
115	0xbd21563c	-0.03938888
116	0x3d58c63e	0.052923433
117	0x3ca8e1ea	0.020615537
118	0x3dec85a0	0.115489244
119	0xbcfa1d93	-0.03053168
120	0x3dd10e6d	0.102078296
121	0x3bbcc48a	0.005760734
122	0x3a15c13a	0.0005712692
123	0xbde42573	-0.11139955
124	0x3d326c47	0.043560293
125	0xbd5d0195	-0.053956587
126	0xbda61b44	-0.08110669
127	0xbc892141	-0.01673949
128	0xbde69d42	-0.11260463
129	0xbde15001	-0.11001588
130	0xbd09bbd4	-0.033626392
131	0x3ccbee95	0.024894038
132	0xbd35db05	-0.044398326
133	0xbdc15be3	-0.09441354
134	0x3c654fad	0.013996047
135	0xbcd171b1	-0.025566908
136	0xbce5dbc0	-0.028058887
137	0xbdf8ee7d	-0.12154863
138	0x3d0e8dcb	0.034803193
139	0x3c9454c4	0.018106826
140	0xbd5f526d	-0.054521967
141	0xbd709b25	-0.058741707
142	0x3d9853f7	0.0743789
143	0xbd212718	-0.039343923
144	0x3d4478e4	0.047966853
145	0xbd15c505	-0.036564846
146	0xbdcab1b0	-0.098971725
147	0x3c7eb000	0.015544891
148	0xbe028dd7	-0.1274942
149	0x3da7d2d7	0.081945114
150	0xbdcfcb28	-0.10146171
151	0xbdd706fc	-0.10499379
152	0xbd341fa0	-0.043975472
153	0x3da075fa	0.07835002
154	0xbe000c0f	-0.125046
155	0x3d2bb386	0.041919254
156	0xbd8aca2d	-0.06776843
157	0xbdf51e93	-0.11968722
158	0xbd629188	-0.05531457
159	0xbd1fc00d	-0.039001513
160	0x3d80ccbe	0.062890515
161	0x3d646733	0.05576248
162	0x3d6954aa	0.056965508
163	0xbd623c28	-0.05523315
164	0xbcd1a414	-0.025590934
165	0xbdfb8c93	-0.12282672
166	0xbb9169bb	-0.004437653
167	0xbd4b1a20	-0.04958546
168	0xbdbbabe1	-0.09163643
169	0x3c869761	0.016429605
170	0xbd2d5f24	-0.04232706
171	0x3d4f80d1	0.05065996
172	0xbc727faf	-0.01480095
173	0x3cd3ba35	0.025845626
174	0x3d2899fb	0.041162472
175	0x3d8c31c7	0.06845432
176	0x3cd16611	0.025561364
177	0xbd3260b9	-0.043549273
178	0x3daf15e6	0.08549099
179	0x3dde852a	0.10865243
180	0x3ce2056a	0.027590472
181	0xbe011c8d	-0.12608548
182	0x3d948429	0.0725177
183	0xbc95ba9b	-0.018277457
184	0xbcedf365	-0.029046724
185	0xbd59913e	-0.05311703
186	0xbe0c349b	-0.13691942
187	0x3cb51be1	0.02210802
188	0xbd1d9345	-0.038470525
189	0x3d0a12a7	0.033709195
190	0x3d81c620	0.063366175
191	0x3d72224f	0.05911475
192	0x3dcc97c5	0.09989885
193	0xbdd3feb2	-0.10351314
194	0x3d7e1f1f	0.0620414
195	0xbceaae1f	-0.02864748
196	0xbc30ff71	-0.0108030895
197	0xbddf99b0	-0.109179854
198	0xbd34dd35	-0.044156272
199	0xbdf590d4	-0.119905144
200	0x3d9bfed0	0.07616961
201	0x3d598e7e	0.053114407
202	0x3dc03238	0.093845785
203	0xbdc48ef9	-0.09597582
204	0xbdb4d977	-0.088305406
205	0x3d3fa3d9	0.046787117
206	0xbddfd75c	-0.109297484
207	0xbca0d18d	-0.019631172
208	0xbc6dcfbd	-0.014514861
209	0xbd360264	-0.044435874
210	0x3a8fac17	0.0010961321
211	0x3b8bd9a4	0.004267888
212	0xbd64fa96	-0.05590304
213	0xbc0132ec	-0.007885676
214	0xbdd6e546	-0.10492949
215	0x3d339cfc	0.043850884
216	0xbd4ca372	-0.04996056
217	0x3b31e0e0	0.0027142093
218	0x3d764dcc	0.060132787
219	0xbdfee843	-0.12446644
220	0x3dc36a47	0.09541755
221	0xbdf5bf79	-0.11999411
222	0xbc748e21	-0.014926464
223	0xbdd555ce	-0.104167566
224	0x3dc473ca	0.095923975
225	0x3dcee308	0.101018965
226	0xbda340c1	-0.07971335
227	0x3c8d8ecf	0.01728001
228	0x3c935482	0.017984632
229	0xbd875e78	-0.06609815
230	0x3dc86349	0.09784562
231	0xbde14d2f	-0.1100105
232	0xbd170dc9	-0.03687838
233	0xbcb9d40b	-0.022684118
234	0xbe06d0c7	-0.1316558
235	0x3d496775	0.04917093
236	0x3c53bbd8	0.012923203
237	0x3d72575d	0.059165347
238	0x3d2738fc	0.04082583
239	0xbe00c75d	-0.12576051
240	0xbbddd56e	-0.0067698276
241	0x3d89786c	0.06712422
242	0xbd5bbe09	-0.05364803
243	0xbcb182b0	-0.021668762
244	0x3dceec55	0.101036705
245	0x3dd2428e	0.102666005
246	0x3d98b5c3	0.07456543
247	0x3b9e6b31	0.0048345556
248	0xbd2b7c36	-0.041866504
249	0xbd850896	-0.06495778
250	0xbd8281a0	-0.0637238
251	0xbdea2096	-0.114319965
252	0xbd96e94e	-0.07368718
253	0xbdc8c837	-0.09803813
254	0x3d1b1ecb	0.037871163
255	0x3d81bb19	0.06334514

shared2.bias f4 [200]
0	0xbe0b90a0	-0.13629389
1	0xbd85f3a7	-0.065406136
2	0xbdeff331	-0.11716307
3	0xbcfdddc6	-0.030989539
4	0xbd16451f	-0.036687013
5	0xbdea4f0e	-0.1144086
6	0x3d116987	0.03550103
7	0x3dbef44a	0.09323938
8	0xbdcc6098	-0.09979361
9	0xbd480165	-0.048829455
10	0xbd59a2a8	-0.053133637
11	0x3bafea81	0.005368531
12	0xbe132426	-0.14369258
13	0xbdd8e02a	-0.10589631
14	0xbd72c296	-0.059267603
15	0xbd8c63b9	-0.06854958
16	0xbdc6c9b3	-0.0970644
17	0xbd923028	-0.07138091
18	0x3c361a6f	0.011114701
19	0xbdbf2e50	-0.09335005
20	0xbd681ad1	-0.0566662
21	0xbe18d39e	-0.14924476
22	0xbc8c98e1	-0.017162742
23	0xbdecb9da	-0.11558886
24	0xbe07ee6d	-0.13274546
25	0xbd457a07	-0.048212077
26	0xbd5f43c3	-0.054507982
27	0xbd8b1365	-0.067908086
28	0xbdf2e388	-0.118598044
29	0xbcafd4f9	-0.021463858
30	0xbd9ca95a	-0.07649489
31	0xbd44237b	-0.0478854
32	0xbd105d49	-0.035245214
33	0xbe02d83d	-0.12777801
34	0xbcc3602c	-0.02384957
35	0xbd711d73	-0.058865976
36	0xbda4310f	-0.0801717
37	0xbd81bc21	-0.06334711
38	0xba8aeb0e	-0.0010598616
39	0xbd8a72a3	-0.067601465
40	0xbe00cdd3	-0.12578516
41	0xbdc35f15	-0.0953962
42	0xbd8e16dd	-0.069379546
43	0xbcf03f5d	-0.029327089
44	0xbd853780	-0.065047264
45	0xbd383174	-0.044969037
46	0xbd0c991c	-0.034325704
47	0xbc818f13	-0.015815293
48	0xbdb668cd	-0.08906708
49	0xbb9369e7	-0.0044987085
50	0xbdc282c9	-0.094976015
51	0xbdeaded5	-0.11468283
52	0xbc3886d7	-0.011262617
53	0xbe04b03c	-0.12957853
54	0xbdd0b06c	-0.101899
55	0xbca67af7	-0.020322306
56	0xbda4d3fd	-0.08048246
57	0xbde768bc	-0.11299273
58	0xbd1ce576	-0.03830477
59	0xbcf54344	-0.029939301
60	0xbdd11e63	-0.10210874
61	0xbd6ecfa0	-0.058303475
62	0xbd23f6f0	-0.04003042
63	0xbde959bf	-0.11394071
64	0xbdf704ad	-0.12061439
65	0xbd9e7dfd	-0.07738874
66	0xbd8ec776	-0.06971638
67	0xbc71c45e	-0.01475629
68	0xbd9bc417	-0.076057605
69	0xbdb8b1d8	-0.09018296
70	0xbd99550c	-0.074869245
71	0xbd6e2e85	-0.058149833
72	0xbde76483	-0.11298468
73	0xbd309129	-0.043107186
74	0xbdc04d03	-0.09389689
75	0xbdb71e7b	-0.089413606
76	0xbde450df	-0.111482374
77	0xbdd33e63	-0.10314634
78	0xbcc70030	-0.024292082
79	0xbd84d708	-0.064863265
80	0xbcd54772	-0.026035044
81	0xbde468cb	-0.111528
82	0x3c932328	0.0179611
83	0xbde69198	-0.112582386
84	0xbd25ae06	-0.040449165
85	0xbd6f848c	-0.058476016
86	0xbd165d29	-0.03670994
87	0xbd94333e	-0.07236336
88	0xbe017f4b	-0.12646215
89	0xbd7e0479	-0.062015984
90	0xbdd37d98	-0.103266895
91	0xbdc6ac58	-0.09700841
92	0xbd5ebcf1	-0.054379407
93	0xbde00c37	-0.1093983
94	0x3d697021	0.0569917
95	0xbc50f13b	-0.012752826
96	0xbc526704	-0.012841944
97	0xbcf2adf1	-0.029623957
98	0xbdf83ecf	-0.12121355
99	0xbc9701a4	-0.0184334
100	0xbde1e891	-0.11030687
101	0xbd88d9df	-0.066821806
102	0xbba33690	-0.0049808696
103	0xbdcecd67	-0.10097771
104	0xbc964be9	-0.018346744
105	0xbdd2400b	-0.102661215
106	0xbda9eb25	-0.082968034
107	0xbcc4df24	-0.024032183
108	0xbde93a4d	-0.11388073
109	0xbdd00c1b	-0.10158559
110	0xbdc42831	-0.095779784
111	0xbde72f94	-0.11288372
112	0xbde7ae28	-0.113125145
113	0xbdcc7102	-0.09982492
114	0xbd764420	-0.060123563
115	0xbda51f4d	-0.08062611
116	0xbdc92591	-0.09821618
117	0xbda33bcd	-0.079703905
118	0xbda5f846	-0.08103995
119	0xbd4a21f2	-0.04934878
120	0xbd231856	-0.03981813
121	0xbe037b20	-0.12839937
122	0xbd7ed042	-0.06221033
123	0xbcba2cd1	-0.022726448
124	0x3c8abe23	0.016936367
125	0xbc34bc6d	-0.011031252
126	0x3cd90d0c	0.026495479
127	0xbddb253c	-0.10700461
128	0xbd770763	-0.06030978
129	0xbdb7d31b	-0.08975812
130	0xbd13ac4d	-0.03605299
131	0xbdb6b3c5	-0.08921007
132	0xbda89769	-0.08232004
133	0xbc6c4e82	-0.014423015
134	0xbd52bf20	-0.051451802
135	0xbdcf6880	-0.10127354
136	0xbcef088b	-0.029178878
137	0xbd8a086d	-0.06739888
138	0xbd3139da	-0.043268062
139	0xbd6c5c85	-0.05770542
140	0xbde38ba5	-0.111106195
141	0xbdcbc46c	-0.09949574
142	0xbd17b724	-0.03703989
143	0xbdbef1c4	-0.09323457
144	0xbd67f009	-0.0566254
145	0xbdf40e15	-0.119167484
146	0xbe05ea8b	-0.13077752
147	0xbd1de42d	-0.038547684
148	0xbca4b67b	-0.020106545
149	0xbcb9e976	-0.02269433
150	0xbc3ea74d	-0.011636567
151	0xbdaa67ad	-0.08320556
152	0xbd8b8400	-0.068122864
153	0xbdc18189	-0.09448535
154	0xbdbdb7c8	-0.09263569
155	0xbd74f807	-0.05980685
156	0xbd4f8014	-0.050659254
157	0xbc6a2501	-0.014291049
158	0xbd31d010	-0.043411314
159	0xbd657147	-0.056016233
160	0xbd8320f3	-0.06402769
161	0xbd50019f	-0.050782796
162	0xbdaba3ee	-0.083808765
163	0xbdc06573	-0.0939435
164	0xbd92abe0	-0.07161689
165	0xbdfab1e8	-0.12240964
166	0xbd9e81c0	-0.077395916
167	0xbd86fb8f	-0.0659095
168	0xbe009a60	-0.1255889
169	0xbca805fe	-0.02051067
170	0xbcd0caa0	-0.025487244
171	0x3c80b648	0.015711918
172	0xbd63a40f	-0.05557638
173	0xbdf94f71	-0.12173355
174	0xbce20ecc	-0.027594946
175	0xbd23a43b	-0.039951544
176	0xbdfc1c5e	-0.12310098
177	0xbdeed36b	-0.116614185
178	0xbc34e8df	-0.011041849
179	0xbdec384f	-0.115341775
180	0xbd4a03ba	-0.04931996
181	0xbda14216	-0.07873933
182	0xbdccf7e4	-0.10008219
183	0xbd89c60c	-0.067272276
184	0xbcad010a	-0.02111866
185	0xbd622264	-0.05520858
186	0xbdf9ceb5	-0.12197629
187	0xbd7d8b2b	-0.0619003
188	0xbd40317e	-0.0469222
189	0xbda8ad0f	-0.08236133
190	0xbdefd907	-0.117113166
191	0xbcaf223f	-0.021378634
192	0xbd58b374	-0.052905515
193	0xbd9cadba	-0.07650323
194	0xbd6e43cb	-0.05817012
195	0xbda53c0c	-0.08068094
196	0xbd5a3d80	-0.053281307
197	0x3b29dc47	0.002591865
198	0xbd1b0bc2	-0.03785301
199	0xbde83ca4	-0.11339691

hidden1_Y1.weight f4 [200, 200]
0	0xbd9c001c	-0.07617208
1	0xbc490989	-0.01227034
2	0xbd86c92a	-0.06581338
3	0xbe002214	-0.12513
4	0xbc947f75	-0.018127182
5	0xbd5da8d6	-0.054116093
6	0x3dae4ea6	0.08511095
7	0x3df7d921	0.12101961
8	0x3d902901	0.07039071
9	0x3c254362	0.010086866
10	0xbdcb622f	-0.099308364
11	0xbcccf618	-0.02501969
12	0x3d2715e8	0.040792376
13	0xbc0034f9	-0.00782513
14	0xbdf83e63	-0.12121274
15	0xbd0aac12	-0.033855505
16	0x3c8e3f08	0.01736404
17	0x3d58969e	0.052878015
18	0xbd464aca	-0.04841117
19	0xbdfed169	-0.124422856
20	0x3de04911	0.10951436
21	0xbdbe3722	-0.092878595
22	0xbdc510b0	-0.096223235
23	0xbd64f0b1	-0.055893604
24	0xbd93f9a9	-0.07225353
25	0x3cde2297	0.027116103
26	0xbd66fd9e	-0.056394212
27	0x3d86fe28	0.06591445
28	0x3a6ede12	0.00091120705
29	0x3dd4ba0c	0.10387048
30	0x3d72692c	0.05918233
31	0xbde68234	-0.11255303
32	0xbd18642c	-0.037204906
33	0xbc83049d	-0.01599341
34	0xbdac310f	-0.08407795
35	0x3d2a7a1c	0.04162036
36	0x3dc69423	0.096962236
37	0xbdce954f	-0.10087072
38	0x3dc4c6de	0.096082434
39	0x3d59b1f2	0.053148217
40	0xbded86e5	-0.11597995
41	0xbd9ab942	-0.075548664
42	0xbcc0913e	-0.023506757
43	0xbba440b3	-0.0050125956
44	0xbd9be5e7	-0.0761221
45	0x3cf93702	0.030421738
46	0xbc9104a4	-0.017702408
47	0x3d343898	0.043999285
48	0xbd602cfa	-0.054730393
49	0x3dd715e3	0.105022214
50	0xbd903b9f	-0.07042622
51	0x3d034ca3	0.03205551
52	0xbce3eb21	-0.02782208
53	0x3da8ccba	0.082421735
54	0x3d381546	0.044942163
55	0xbc146aa5	-0.009058629
56	0x3ce45d37	0.02787648
57	0x3d44c35b	0.048037868
58	0x3bb9ab0e	0.0056661433
59	0xbdddfcf0	-0.108392596
60	0xbd8dab7e	-0.06917475
61	0x3d34a071	0.04409832
62	0xbd243618	-0.04009065
63	0xbceb37fe	-0.028713223
64	0x3c2ba5e9	0.010476568
65	0xbd2c9836	-0.042137347
66	0xbc7db36f	-0.015484675
67	0xbcd660d4	-0.026169218
68	0xbccd9a7c	-0.025098078
69	0x3dc65f08	0.096860945
70	0xbdbc9769	-0.09208567
71	0xbdc6c42f	-0.09705388
72	0x3dcd1389	0.10013492
73	0x3b1bad54	0.0023754435
74	0xbca94b50	-0.020665795
75	0xbd7efd31	-0.06225318
76	0xbce2e22a	-0.027695734
77	0xbd9479ca	-0.07249792
78	0xbd9f4264	-0.07776335
79	0x3d4e6bad	0.050395656
80	0x3dc19d3f	0.094538204
81	0x3c83e8f2	0.016102288
82	0x3d8ddc15	0.06926743
83	0x3de63741	0.112410076
84	0xbd94bc9a	-0.072625354
85	0x3cd6aea7	0.026206328
86	0xbdc1d354	-0.09464136
87	0x3cbd5b32	0.023114774
88	0x3dc7e95e	0.09761308
89	0xbd108029	-0.035278473
90	0x3c742fc9	0.014903971
91	0x3dcdf013	0.10055556
92	0x3db94c24	0.09047726
93	0xbd95f1a5	-0.07321481
94	0x3cc78c8b	0.024359008
95	0x3d5ccb5f	0.053904887
96	0xbcd5de19	-0.026106881
97	0xbd10d661	-0.035360698
98	0x3ddfafe0	0.10922217
99	0x3d5efda8	0.054441124
100	0x3da41699	0.08012123
101	0xbd9f4f53	-0.07778802
102	0x3a22a96d	0.0006205056
103	0x3d324bf4	0.043529466
104	0xbd0d5634	-0.034506038
105	0x3dc941a4	0.09826973
106	0x3d8750cb	0.06607207
107	0xbd7e4627	-0.06207862
108	0x3df55cff	0.11980628
109	0x3c0de3e1	0.008660288
110	0x3bff680c	0.007794386
111	0x3d25f22d	0.04051416
112	0x3cc3dcba	0.023908962
113	0xbbbf0eaa	-0.0058306055
114	0x3cfbbcdc	0.030729704
115	0xbd321dc4	-0.043485418
116	0x3b22807e	0.0024795826
117	0xbd12c551	-0.035832707
118	0xbd678195	-0.056520063
119	0xbd84528e	-0.064610586
120	0x3de36dc8	0.111049235
121	0xbda1f72b	-0.07908472
122	0xbd70dbec	-0.058803484
123	0x3d4a92fd	0.049456585
124	0xbdb9f3de	-0.09079717
125	0x3d65e52a	0.05612675
126	0x3ba2cf35	0.0049685487
127	0xbcd6a77a	-0.026202906
128	0xbd2c6be1	-0.04209507
129	0x3d590433	0.05298252
130	0xbd434274	-0.047670797
131	0xbd26220b	-0.04055981
132	0x3d01e2a5	0.031710286
133	0xbb38fcd8	-0.0028226878
134	0x3dbaed7b	0.09127327
135	0x3dd5c1a3	0.10437324
136	0xbc828d03	-0.01593638
137	0x3dd15520	0.102213144
138	0x3da51813	0.080612324
139	0xbd9dbba3	-0.077018045
140	0x3da1cc3b	0.07900282
141	0xbd71d9f5	-0.05904575
142	0x3d7375e5	0.059438605
143	0x3c2bb081	0.0104790935
144	0x3cde11b6	0.027108055
145	0x3ccb6b7f	0.024831532
146	0x3de1a21b	0.11017247
147	0x3c9082a8	0.017640427
148	0xbd8afa90	-0.06786072
149	0xbe004fa3	-0.12530379
150	0x3dddbef9	0.10827441
151	0x3d15f269	0.036608133
152	0x3dc0c68a	0.09412868
153	0x3d6dbc74	0.05804105
154	0x3dbbacad	0.09163795
155	0xbcd38c1f	-0.02582365
156	0xbdeb77d0	-0.11497462
157	0xbd30d371	-0.043170396
158	0xbcaa4971	-0.020786973
159	0x3bb921d4	0.0056497846
160	0x3dd1f778	0.10252279
161	0x3dccc058	0.09997624
162	0xbd9db98f	-0.07701408
163	0x3db0522b	0.08609422
164	0x3d816d2a	0.063196495
165	0x3dd8733f	0.105688564
166	0xbcc1a66a	-0.023638923
167	0x3ceb02e1	0.028687896
168	0x3d2d55db	0.042318206
169	0xbb061136	-0.0020457036
170	0xbd057a11	-0.032587115
171	0x3d1d1c5c	0.038357124
172	0xbdb158bd	-0.086595036
173	0xbdc4a49b	-0.096017085
174	0x3dc0b180	0.094088554
175	0xbc1a6220	-0.009422809
176	0xbd95e74c	-0.07319507
177	0xbde9112b	-0.11380228
178	0x3d51eedd	0.05125319
179	0x3d0fabf9	0.035076115
180	0x3dc1d509	0.09464461
181	0x3cc4e8bf	0.024036763
182	0xbd5f7366	-0.054553412
183	0x3d5a635c	0.053317413
184	0xbd957d4a	-0.072992876
185	0x3da3a18c	0.07989797
186	0xbd8e08e7	-0.06935292
187	0x3d393c69	0.045223627
188	0xbd53c1ab	-0.051698368
189	0xbcfc14ba	-0.030771602
190	0xbd9838dc	-0.0743272
191	0xbb98e256	-0.004665653
192	0xbd080596	-0.033208452
193	0xbd7774e6	-0.060414217
194	0x3c8c373d	0.017116183
195	0x3d93e78a	0.07221897
196	0xbcb6ace1	-0.022299232
197	0x3d829027	0.06375151
198	0xbdc6a0b4	-0.096986204
199	0xbdb7c383	-0.08972838
200	0x3bc57ddf	0.006026968
201	0xbc7e1e07	-0.015510089
202	0x3d795727	0.06087413
203	0x3dbbbbb7	0.09166663
204	0x3dbddef4	0.092710406
205	0x3bee138e	0.0072655147
206	0xbb3d145f	-0.0028851253
207	0xb99aa83e	-0.0002949852
208	0xbd3a0044	-0.04541041
209	0xbdb5cd22	-0.088770166
210	0xbd5d8275	-0.05407949
211	0xbdb474ef	-0.08811366
212	0xbd076df2	-0.033063836
213	0x3ca4750a	0.02007534
214	0xbc9589d4	-0.018254198
215	0x3da66889	0.08125407
216	0x3dcfb137	0.10141223
217	0xbc9e8b4b	-0.01935353
218	0x3d54d217	0.05195817
219	0x3d31de0e	0.04342466
220	0x3d3c47c2	0.04596687
221	0xbdecd92b	-0.11564859
222	0xbd8db0a8	-0.0691846
223	0xbd5f9d54	-0.0545934
224	0x3d656dfb	0.05601309
225	0xbd7e3369	-0.062060747
226	0x3ccbb4c8	0.024866477
227	0x3c23e545	0.010003393
228	0x3bd719b1	0.006564342
229	0xbcc34677	-0.023837311
230	0xbd956fa8	-0.07296687
231	0x3dad21c2	0.084537044
232	0xbd28c119	-0.041199777
233	0xbdb5644a	-0.08857019
234	0x3d76e722	0.06027902
235	0x3dba829a	0.091069415
236	0x3dcaeff5	0.099090494
237	0x3d87ae1c	0.066250056
238	0xbda54e3b	-0.08071562
239	0x3c4a7d73	0.012359011
240	0xbb4d5c97	-0.0031335705
241	0x3d714604	0.058904663
242	0xbc424eb1	-0.011859582
243	0xbd01ad33	-0.031659316
244	0x3d980da7	0.07424479
245	0xbc2b3229	-0.010448971
246	0x3d5e71ed	0.054307867
247	0xbc5ac5ed	-0.013352853
248	0x3dd57857	0.10423344
249	0x3d831852	0.06401123
250	0xbc9808af	-0.018558828
251	0xbda31efd	-0.07964895
252	0x3da19286	0.07889275
253	0xbd9009ab	-0.07033094
254	0xbd907c71	-0.07054985
255	0x3da4fd31	0.08056105

hidden1_Y1.bias f4 [200]
0	0xbcef6dc9	-0.029227154
1	0x3d9c4c4b	0.07631739
2	0xbcfe5dff	-0.03105068
3	0x3e05f0a0	0.13080072
4	0xbc88a4e3	-0.016680187
5	0x3c43021b	0.011902357
6	0x3d95fff4	0.0732421
7	0x3e02a74c	0.12759131
8	0xbd61d55d	-0.05513512
9	0x3dd7628d	0.10516844
10	0x3d0d282d	0.034462143
11	0xbcf6d0ee	-0.030128922
12	0xbcf8ebee	-0.030385938
13	0x3e01c005	0.12670906
14	0x3da9e6cc	0.08295974
15	0xbcc1743b	-0.023614993
16	0xbd1d4b27	-0.03840175
17	0x3d9f2f43	0.07772686
18	0x3d4a214f	0.04934817
19	0xbd2c598d	-0.04207759
20	0x3d8f086f	0.069840305
21	0xbb7f201b	-0.0038929048
22	0x3dd4f959	0.10399122
23	0x3dcd10e8	0.1001299
24	0x3d42f23a	0.047594287
25	0x3e0a6486	0.13514909
26	0x3d937c65	0.07201461
27	0x3daa73c3	0.08322861
28	0xbcd7ad95	-0.026327888
29	0x3c4aba85	0.012373571
30	0x3cef1870	0.029186457
31	0x3de8de9e	0.11370586
32	0x3d616ffb	0.055038434
33	0xbbf4cd8b	-0.0074707917
34	0xbd92742f	-0.071510665
35	0xbd5fb2de	-0.05461394
36	0x3d0960ad	0.033539463
37	0x3d899b39	0.067190595
38	0xbd656df8	-0.056013077
39	0xbd04bad7	-0.032404747
40	0x3d53c7b4	0.051704124
41	0xbc34009a	-0.010986472
42	0x3d929b8f	0.07158577
43	0x3e0284f3	0.12746029
44	0x3dd5aae4	0.104329854
45	0x3d03863c	0.032110438
46	0xbc086a10	-0.0083260685
47	0xbd249e0d	-0.04018979
48	0x3d26a704	0.040686622
49	0x3dec9945	0.11552671
50	0x3dacb9af	0.08433854
51	0xbd0d8ffa	-0.034561135
52	0xbd5512d3	-0.052019905
53	0x3e018285	0.12647445
54	0x3dea059b	0.114268504
55	0x3de9c2a3	0.11414077
56	0x3d39be1f	0.04534733
57	0x3d8a8a74	0.06764689
58	0x3d26c91f	0.040719148
59	0xbced5935	-0.028973201
60	0x3e005fd7	0.1253656
61	0xbce75e35	-0.028243164
62	0x3de33391	0.1109382
63	0x3e055136	0.13019261
64	0x3d472ae5	0.04862489
65	0x3d965acf	0.07341539
66	0x3e115009	0.14190687
67	0xbca05d73	-0.01957581
68	0x3dc9d384	0.098547965
69	0x3e019c08	0.12657177
70	0x3dc4169f	0.09574627
71	0x3e0554b7	0.13020597
72	0x3cd16e07	0.02556516
73	0x3da4334e	0.08017598
74	0x3d2e8adf	0.042612907
75	0x3e167acc	0.14695281
76	0xbd04162d	-0.03224771
77	0x3dc46a2d	0.09590564
78	0x3df4be64	0.11950377
79	0xbd4abbdd	-0.049495567
80	0x3da0248d	0.078194715
81	0x3dbec767	0.09315377
82	0x3da4b442	0.08042194
83	0x3dc39619	0.09550113
84	0x3dc81e9c	0.09771463
85	0xbc6d66c3	-0.014489832
86	0x3db3cddb	0.08779498
87	0x3d10a2c3	0.03531147
88	0x3dfee25c	0.124455184
89	0xbccc731c	-0.024957232
90	0x3c1c3ee8	0.009536482
91	0xbdadd28e	-0.08487426
92	0xbd7d62be	-0.061861746
93	0x3d913ddc	0.07091877
94	0x3da79231	0.08182181
95	0x3dc8033d	0.09766243
96	0x3d98da1b	0.07463475
97	0x3af72ae6	0.0018857389
98	0x3dc06ba0	0.09395528
99	0x3de720d5	0.11285559
100	0x3e0fe7b8	0.14053237
101	0x3bd6f216	0.0065596206
102	0x3e0688fe	0.13138196
103	0x3e11e405	0.14247139
104	0x3d4c2c8e	0.04984718
105	0x3dc96a7b	0.09834763
106	0x3e1aebc9	0.15129007
107	0x3d797472	0.060902067
108	0x3db7df91	0.08978189
109	0x3c98a13f	0.018631576
110	0x3dedae3e	0.116055
111	0xbbffe0f0	-0.007808797
112	0xbb7d7ee8	-0.0038680378
113	0x3de79e00	0.11309433
114	0x3da8ed0b	0.08248337
115	0x3e143cc0	0.144763
116	0x3d9d0159	0.07666273
117	0x3dd8c69f	0.10584759
118	0x3dc4bd82	0.09606458
119	0x3cc50dfc	0.02405452
120	0x3db4f422	0.08835627
121	0x3dd72ec2	0.10506965
122	0xbd15106d	-0.036392618
123	0x3e074101	0.13208391
124	0x3cd6a085	0.026199589
125	0x3dd9691e	0.10615753
126	0xbd08e434	-0.033420756
127	0x3d07ab60	0.03312242
128	0x3e1962fb	0.14979164
129	0x39407ddd	0.00018357435
130	0x3d19b24e	0.03752356
131	0xbd946a33	-0.072468184
132	0x3d25fbde	0.040523402
133	0xbd0650f2	-0.03279204
134	0x3dc2538f	0.09488594
135	0x3bf4e29f	0.0074733044
136	0x3d95d20a	0.073154524
137	0x3d7015c0	0.058614492
138	0x3d53b30d	0.051684428
139	0x3dd324e9	0.103097744
140	0x3d68f4f4	0.05687423
141	0x3db6f38c	0.08933172
142	0x3dceb9f8	0.100940645
143	0x3e13bfb4	0.14428598
144	0x3d8fcd6f	0.07021605
145	0xbd6ea0d2	-0.05825884
146	0x3d36bce0	0.04461372
147	0x3b5fb9a8	0.003413776
148	0x3da4e38c	0.080512136
149	0x3d5c11fb	0.053728085
150	0x3d800a47	0.0625196
151	0x3d743b2c	0.059626743
152	0x3e0d574f	0.13802837
153	0xbc4581a7	-0.012054837
154	0x3d58d115	0.05293377
155	0x3d93e161	0.07220722
156	0x3d96a15e	0.07354997
157	0x3c20ec29	0.00982193
158	0x3dcc88f4	0.09987059
159	0x3dcb49e6	0.099262044
160	0x3d5bcfeb	0.053665083
161	0x3dbbdfa9	0.09173519
162	0xbda75b55	-0.08171717
163	0xbd966e55	-0.07345263
164	0x3df6892a	0.12037881
165	0x3da56cdc	0.08077404
166	0x3d47f34b	0.048816007
167	0x3da54c5e	0.080712065
168	0x3dc99bac	0.09844145
169	0x3ccf7f65	0.025329301
170	0xbcbee300	-0.023301601
171	0xbbf621f4	-0.0075113717
172	0x3df41edc	0.119199485
173	0x3df273f7	0.11838525
174	0x3db4eff0	0.08834827
175	0x3dc52b6e	0.09627424
176	0x3ddec338	0.10877079
177	0x3d9f78ed	0.07786737
178	0x3e0dada0	0.13835764
179	0xbcc672cc	-0.024224661
180	0x3c7bc6c5	0.015367215
181	0xbd9df1ab	-0.0771211
182	0xbce42f16	-0.027854484
183	0x3e0ae957	0.13565575
184	0xbd470f38	-0.048598498
185	0x3d919276	0.07108013
186	0x3ddfb80c	0.10923776
187	0x3cefdf08	0.029281154
188	0xbc7329cf	-0.014841511
189	0x3d07214b	0.032990735
190	0x3d8f0ee2	0.069852605
191	0xbcf18576	-0.029482584
192	0x3d3f3ac8	0.046686918
193	0xb99fd688	-0.00030486681
194	0x3e016cfc	0.1263923
195	0x3e050bdd	0.12992807
196	0xbcd29c39	-0.025709258
197	0x3da0566a	0.07828982
198	0xbd0b933e	-0.034075968
199	0x3c5e40e8	0.01356528

hidden2_Y1.weight f4 [200, 200]
0	0x3d16be73	0.03680272
1	0xbd984057	-0.07434147
2	0xbd8ba985	-0.06819443
3	0x3d695970	0.05697006
4	0x3b106f16	0.0022038869
5	0xbde83777	-0.11338704
6	0x3d9ccf01	0.0765667
7	0x3ca56e59	0.02019422
8	0xbd380bc1	-0.044933084
9	0x3dd3d42c	0.10343203
10	0x3d88a62c	0.0667232
11	0x3d843b3f	0.06456613
12	0xbb3ae8c9	-0.0028520098
13	0x3d7e4bc4	0.062083974
14	0x3d8a6ce0	0.067590475
15	0x3dc57efa	0.096433595
16	0x3d9ce5e4	0.07661036
17	0xbdf06aa7	-0.11739092
18	0xbc9905ba	-0.018679488
19	0xbdc277e1	-0.09495521
20	0xb9b91695	-0.00035302775
21	0x3d61d83f	0.05513787
22	0xbde4e03f	-0.11175584
23	0x3db13592	0.08652796
24	0xbdf346dc	-0.1187875
25	0x3ce5fe62	0.0280754
26	0xbbac2c0f	-0.0052542756
27	0xbdeb560e	-0.11491023
28	0x3d48cee9	0.04902545
29	0xbd314a1a	-0.04328356
30	0xbd9e226b	-0.077214085
31	0xbd4d269f	-0.05008566
32	0x3cf48051	0.029846342
33	0x3d824d1e	0.06362365
34	0x3db1f505	0.08689312
35	0xbc9d2cbe	-0.019186374
36	0x3ca6eeb4	0.020377494
37	0x3d291379	0.041278336
38	0xbd8d2e99	-0.068936534
39	0x3d8a9d81	0.06768323
40	0x3be5f5a0	0.007017806
41	0x3d6f84d4	0.058476284
42	0xbe0083f0	-0.1255033
43	0xbde9d282	-0.11417104
44	0xbdcec087	-0.100953154
45	0x3d3434b9	0.043995593
46	0x3d3e8b02	0.046519287
47	0xbd7efdb4	-0.06225367
48	0x3d7431d9	0.05961785
49	0xbdb5ffc7	-0.08886676
50	0xbdb510fd	-0.08841131
51	0xbdbdcddc	-0.0926778
52	0x3da4642e	0.0802692
53	0xbdcb45e9	-0.09925444
54	0xbd5878d6	-0.052849613
55	0xbd63638b	-0.055514853
56	0xbd296356	-0.0413545
57	0xba97d1f9	-0.0011582962
58	0x3de1ec0e	0.11031352
59	0xbbffe915	-0.007809768
60	0x3da478f6	0.08030884
61	0xbda48348	-0.080328524
62	0x3dd85539	0.1056313
63	0xbb85e897	-0.0040865648
64	0x3d0d28ce	0.034462743
65	0xbdd5dc26	-0.104423806
66	0x3b9c389f	0.004767492
67	0x3c392b10	0.011301771
68	0xbd841ff5	-0.06451408
69	0x3d192a19	0.037393663
70	0x3d585348	0.0528138
71	0xbc1b906a	-0.00949488
72	0xbd083ed5	-0.033263046
73	0xbd8db929	-0.06920082
74	0x3d519771	0.051169816
75	0xbd8268c7	-0.06367641
76	0xbd75acb9	-0.059979174
77	0xbdf4e937	-0.11958545
78	0x3cf2dda7	0.029646708
79	0xbd3d4140	-0.046204805
80	0x3d751a4b	0.059839528
81	0xbce3c61f	-0.027804432
82	0xbdef0ff2	-0.11672963
83	0x3dd2f440	0.10300493
84	0xbdb75c44	-0.08953145
85	0x3ddfd01a	0.10928364
86	0xbdbd94cc	-0.092568964
87	0xbe02a182	-0.12756923
88	0x3da04a79	0.078267045
89	0xbd259bec	-0.0404319
90	0x3d623a14	0.05523117
91	0x3db8502d	0.08999667
92	0x3dd31c1a	0.10308094
93	0xbde9d853	-0.11418214
94	0xbdf3bbb2	-0.119010344
95	0xbdbeab11	-0.09309972
96	0x3dedbb49	0.116079874
97	0xbdaea3b4	-0.08527318
98	0xbda120be	-0.07867573
99	0x3d92ab38	0.07161564
100	0x3c939a54	0.018017925
101	0x3de7fbc2	0.11327316
102	0xbdf44236	-0.11926691
103	0xbbdf61df	-0.006817087
104	0xba274ba8	-0.0006381818
105	0xbe014328	-0.12623274
106	0x3d878439	0.06617016
107	0xbda6cf7d	-0.08145044
108	0x3c220eb1	0.009891198
109	0x3d20c0fd	0.039246548
110	0xbdf6959a	-0.12040253
111	0xbdca68e6	-0.09883289
112	0x3db298a8	0.08720523
113	0x3cb51380	0.022104025
114	0xbd0643d3	-0.032779526
115	0x3cccda55	0.025006453
116	0xba1baed5	-0.0005938833
117	0x3d9b4d57	0.07583111
118	0xbdf457c2	-0.11930801
119	0xbe004325	-0.12525614
120	0xbdae426b	-0.08508762
121	0xbd465b95	-0.048427183
122	0xbdc091af	-0.09402787
123	0x3dafc613	0.085827015
124	0xbc9a6422	-0.018846575
125	0xbd844268	-0.064579785
126	0x3c67a1ab	0.014137666
127	0x3dc07f66	0.09399299
128	0x3d0d1bf9	0.034450505
129	0x3dd8086e	0.10548483
130	0xbcf4ac20	-0.029867232
131	0x3d0da504	0.0345812
132	0xbdb70e36	-0.089382574
133	0x3cac6119	0.021042394
134	0xbcf343ba	-0.02969538
135	0xbd756ce7	-0.05991831
136	0x3dd91727	0.10600119
137	0x3d5035d1	0.050832573
138	0xbd8c6093	-0.068543576
139	0x3dd6bdcb	0.10485419
140	0xbdfbac00	-0.12288666
141	0x3db0cd95	0.08632962
142	0xbda6d261	-0.08145595
143	0xbd701683	-0.05861522
144	0xbdb1ca8d	-0.086812116
145	0xbd421ef1	-0.04739279
146	0x3d89ceec	0.0672892
147	0xbd1a21d4	-0.037629917
148	0xbdd8e76f	-0.105910175
149	0x3d9b7de5	0.07592372
150	0x3c93a01b	0.01802068
151	0xbb085561	-0.0020802843
152	0xbd30a2c4	-0.043123975
153	0x3dd57671	0.104229815
154	0xbdd43f91	-0.10363687
155	0x3ddd55a4	0.1080735
156	0xbda6e5d4	-0.08149305
157	0x3dcad04a	0.09903009
158	0xbd3e3546	-0.046437524
159	0xbd2aae7d	-0.04167031
160	0x3d70635a	0.0586885
161	0xbdfc3c3a	-0.12316175
162	0xbde6cba9	-0.11269314
163	0xbd03dee6	-0.032194994
164	0x3c2d26af	0.010568305
165	0xbd95dc51	-0.07317413
166	0x3ca6abf5	0.020345667
167	0x3d1d3ecc	0.038389966
168	0x3d1764ab	0.03696124
169	0x3ddc6c58	0.107628524
170	0x3cac29ae	0.021015968
171	0x3d82cc60	0.06386638
172	0xbdcef3bf	-0.10105085
173	0x3c66eab9	0.014094048
174	0xbd33cd90	-0.04389721
175	0xbd56d405	-0.05244829
176	0xbddcdd02	-0.107843414
177	0x3d966f3b	0.07345434
178	0x3dd3689d	0.10322688
179	0xbd15e002	-0.036590584
180	0xbdc0f144	-0.09421018
181	0xbdc74bb5	-0.09731237
182	0xbde78964	-0.11305502
183	0xbdea595b	-0.114428245
184	0x3b90ea6a	0.0044224756
185	0x3a189c0f	0.00058215944
186	0x3c673c67	0.014113522
187	0x3da7fb50	0.08202231
188	0xbdceb95f	-0.100939505
189	0xbd93f54a	-0.072245196
190	0xbe0c33b4	-0.13691598
191	0x3d23f93c	0.04003261
192	0x3cdbdd2e	0.026838865
193	0x3ddbdf11	0.10735906
194	0xbc8f0c34	-0.017461874
195	0x3dd3d69b	0.10343667
196	0xbca48bb0	-0.02008614
197	0x3d906a4b	0.07051524
198	0x3dd7b994	0.10533443
199	0xbd4199fb	-0.047265988
200	0x3b9d92c6	0.0048087565
201	0xbd213d90	-0.03936535
202	0x3bde3921	0.0067817126
203	0x3c158a86	0.009127265
204	0x3d1117d3	0.03542311
205	0xbdd956a1	-0.10612226
206	0x3c9174f2	0.01775596
207	0x3d8c753a	0.06858297
208	0x3d6a5565	0.057210345
209	0x3d3a916f	0.045548853
210	0x3de9441c	0.11389944
211	0x3d389c8f	0.04507118
212	0x3cd5297a	0.026020754
213	0xbd181724	-0.037131444
214	0xbd6a17eb	-0.057151716
215	0x3a94f979	0.0011365853
216	0x3d95c5fb	0.073131524
217	0x3d95cce0	0.073144674
218	0x3d9c4667	0.07630616
219	0x3e035393	0.1282485
220	0x3db3c5ea	0.087779835
221	0xbd82d9c2	-0.0638919
222	0xbc882e52	-0.01662365
223	0x3cbd788e	0.023128774
224	0xbda99d05	-0.08281902
225	0xbdca2fad	-0.09872375
226	0x3db1a1d6	0.08673446
227	0x3c3324d2	0.010934072
228	0x3bd87d29	0.006606717
229	0xbda4abfc	-0.08040616
230	0x3d7a620b	0.061128657
231	0xbd9fbc93	-0.077996396
232	0x3da1d3f7	0.07901757
233	0x3c06ba6e	0.008223159
234	0x3dadfb8f	0.084952466
235	0xbd9c8f22	-0.07644488
236	0xbb8c8bf5	-0.004289145
237	0xbd584810	-0.0528031
238	0xbcb72c5a	-0.022360016
239	0xbce2c07a	-0.02767967
240	0x3c5f8382	0.013642194
241	0x3b3bb97f	0.00286445
242	0x3d1a248b	0.037632506
243	0xbdb41e5e	-0.087948546
244	0xbc29314d	-0.010326696
245	0x3e00df27	0.12585126
246	0x3df58679	0.11988539
247	0xbde29bc5	-0.11064867
248	0xbd9b84c4	-0.075936824
249	0x3d27301f	0.040817376
250	0xbd605fc9	-0.054778848
251	0x3cf40bd0	0.029790789
252	0xbdb4c0b2	-0.08825816
253	0xbd91cde3	-0.07119348
254	0xbc8afae2	-0.016965333
255	0x3e082cd9	0.13298358

hidden2_Y1.bias f4 [200]
0	0x3c70e063	0.014701935
1	0x3e115b41	0.14194967
2	0x3def865d	0.1169555
3	0x3e009732	0.12557676
4	0xbdb8ac8c	-0.09017286
5	0xbd6cc665	-0.05780639
6	0x3e2cb515	0.16865952
7	0xbc47899b	-0.012178804
8	0xbd309406	-0.043109916
9	0xbd6230dc	-0.055222377
10	0xbd3648fa	-0.04450319
11	0xbcbd7edc	-0.02313178
12	0x3d1f0eea	0.038832583
13	0x3d9bb41c	0.076027125
14	0xbd0f866f	-0.035040315
15	0x3d227b49	0.039668355
16	0x3db64be3	0.08901193
17	0xbda7b544	-0.081888705
18	0x3e1535c2	0.14571288
19	0x3caa2826	0.020771097
20	0x3dfe01af	0.12402665
21	0x3c25cd65	0.010119771
22	0x3de4276d	0.11140332
23	0x3b428b9a	0.002968526
24	0x3cfee33b	0.031114211
25	0x3b35ca7f	0.0027739105
26	0xbd9c0327	-0.07617789
27	0x3c167628	0.009183444
28	0xbda6d7b0	-0.08146608
29	0x3e03af51	0.12859847
30	0x3cc552f6	0.02408741
31	0x3a4e3174	0.00078656455
32	0xbd1d6a06	-0.03843119
33	0xbcfae605	-0.03062726
34	0xbc46ae28	-0.012126483
35	0xbcb7dba9	-0.02244361
36	0x3d1643da	0.036685802
37	0x3e3539c0	0.17697811
38	0xbd8c772d	-0.068586685
39	0x3e2391ee	0.15973637
40	0x3c2b5f41	0.010459722
41	0xbb93925b	-0.004503531
42	0x3de7fde4	0.11327723
43	0x3e21c534	0.15797883
44	0x3d294847	0.041328695
45	0x3e24cd91	0.16094042
46	0xbca55464	-0.020181842
47	0xba8f4e5d	-0.0010933388
48	0xbd335d60	-0.04379022
49	0x3cec0f44	0.028815873
50	0xbd862972	-0.06550874
51	0x3e075184	0.1321469
52	0x3ddb1382	0.1069708
53	0x3e0a94c1	0.13533308
54	0x3d340637	0.04395124
55	0x3dfa93d0	0.12235224
56	0x3ac9dbf3	0.0015400633
57	0x3d759835	0.05995961
58	0xbd06251e	-0.03275024
59	0x3ce49949	0.027905123
60	0x3dcb13c4	0.09915879
61	0xbcae2174	-0.021256186
62	0xbc550628	-0.013001956
63	0x3d64dac6	0.0558727
64	0xbab769df	-0.0013993344
65	0x3e11254a	0.14174381
66	0xbd84937b	-0.06473442
67	0xbc9cb377	-0.019128544
68	0xbdc25a55	-0.09489886
69	0x3e22a1c0	0.15882015
70	0x3ca6566d	0.020304883
71	0xbc6c250f	-0.014413132
72	0x3e0a7d6a	0.13524404
73	0x3e0b4531	0.13600613
74	0x3c178233	0.0092473505
75	0x3b298919	0.002586907
76	0xbd3d27a8	-0.046180397
77	0xbc7fef2b	-0.015620987
78	0x3def590b	0.116869055
79	0x3c8a9ffc	0.01692199
80	0xbd687b64	-0.0567583
81	0x3df8b69b	0.12144204
82	0xbcfbce13	-0.030737912
83	0x3da874e6	0.082254216
84	0x3cbbb144	0.022911675
85	0x3d4c0664	0.049810782
86	0xbd0d23c3	-0.034457933
87	0x3cbf0361	0.02331704
88	0x3ce3245e	0.027727302
89	0x3e1b0be8	0.1514126
90	0x3e315158	0.17316186
91	0xbc894b24	-0.016759463
92	0x3dfb4304	0.122686416
93	0x3e12343f	0.14277743
94	0x3e0d4066	0.13794097
95	0x3c488a31	0.012239979
96	0x3cddb19f	0.027062235
97	0x3d974ea3	0.07388046
98	0xbcefa63e	-0.029254075
99	0x3b38c75b	0.0028194997
100	0x3e026dd0	0.12737203
101	0xbcf86645	-0.030322203
102	0xbcaf627a	-0.021409262
103	0x3d7da6b4	0.06192656
104	0x3e11e2ea	0.14246717
105	0x3d871745	0.06596235
106	0x3e1451ac	0.1448428
107	0xbdb13714	-0.086530834
108	0x3e198742	0.14993003
109	0xbd9ff10b	-0.07809647
110	0x3de2f642	0.11082126
111	0x3e02fb20	0.12791109
112	0x3d6682f9	0.05627725
113	0x3bf8e34c	0.0075954553
114	0x3c66f4b0	0.014096424
115	0xbd5fdf89	-0.05465654
116	0x3dbaf74c	0.091291994
117	0x3d4752b3	0.048662852
118	0x3dcc1ee8	0.099668324
119	0x3c466b3e	0.0121105295
120	0x3c8a35a1	0.016871275
121	0x3e0b4532	0.13600615
122	0x3c96a549	0.018389361
123	0xbd31a1b1	-0.04336709
124	0x3de3732c	0.11105952
125	0x3de335b3	0.11094227
126	0xb97503e4	-0.0002336647
127	0x3dbfed6f	0.09371459
128	0x3c1ea517	0.009682915
129	0x3ce073d7	0.027398987
130	0x3d1de02e	0.038543873
131	0x3d29ea6e	0.041483335
132	0x3debf461	0.11521221
133	0x3d8ae13c	0.06781241
134	0x3e04e524	0.12978035
135	0x3df4a83f	0.11946153
136	0x3e0490e6	0.129459
137	0x3d09d59d	0.033650983
138	0xbcac64be	-0.021044131
139	0xbd5b190f	-0.053490695
140	0x3ce9ab55	0.02852408
141	0xbc97ad12	-0.018515144
142	0x3d31e99d	0.04343568
143	0x3e306496	0.1722587
144	0x3d911ef5	0.07085983
145	0x3dc402e7	0.09570866
146	0xbca5b9f8	-0.020230278
147	0x3cc5c715	0.024142781
148	0x3dcef94d	0.10106144
149	0x3d1db4ca	0.038502492
150	0x3d367ab8	0.044550627
151	0x3dc64329	0.096807785
152	0xbd8da617	-0.06916445
153	0x3e078038	0.13232505
154	0x3df6ae90	0.12045014
155	0xbd363ad8	-0.04448971
156	0xbdaf387f	-0.08555698
157	0x3c8fa6bf	0.017535565
158	0xbd559abe	-0.052149527
159	0x3d71f740	0.059073687
160	0x3dd45767	0.10368233
161	0x3e1289eb	0.14310424
162	0x3d4757bb	0.04866765
163	0xbc923a14	-0.01784996
164	0x3e14b0ee	0.14520618
165	0x3c9c0dc3	0.01904953
166	0x3d94ce6d	0.07265935
167	0x3e18edcc	0.14934462
168	0xbd9c8c44	-0.07643941
169	0x3e272a70	0.16324782
170	0x3e02f919	0.12790336
171	0xbd307e60	-0.04308927
172	0x3c0f9a01	0.008764745
173	0x3d40216c	0.046906874
174	0x3d976ecc	0.0739418
175	0x3d0eab13	0.034831118
176	0x3bcc6f0b	0.0062388233
177	0x3d3c0028	0.045898587
178	0x3d84860f	0.06470882
179	0x3e042e43	0.12908272
180	0x3c877d0c	0.01653912
181	0xbd68b065	-0.056808848
182	0x3dcfc142	0.10144283
183	0x3d528258	0.051393837
184	0xbd21af6c	-0.039473936
185	0x3e21bf19	0.15795554
186	0x3dcca32f	0.09992062
187	0x3e0e10e3	0.1387363
188	0xbd9a1b31	-0.075247176
189	0x3d8c8ae1	0.068624265
190	0x3808e721	3.2640182e-05
191	0x3c36ef6c	0.011165481
192	0xbd18c827	-0.037300255
193	0x3dd3d01a	0.103424266
194	0x3d2b3e1a	0.04180727
195	0x3d34f5b1	0.044179622
196	0x3a549f6a	0.0008110913
197	0xbd42a2e0	-0.04751861
198	0x3c1b8984	0.0094932355
199	0x3c6d61c3	0.01448864
