Results/Models/SAE_E2E_DCN_model_iter_id_1_epoch_400_lr_0.0001.pth (torch, 828294 bytes, 16 tensors)

shared1.weight f4 [200, 17]
000000 e5 f9 76 bd 3d 9b 51 3d c6 70 b6 bc 2e 11 e2 bd
       -0.06029691 0.051173437 -0.022270571 -0.11038433
000010 f3 85 6b bc 22 3f 82 3c 0b 80 b7 3d e3 51 2f be
       -0.014375198 0.015899245 0.08959969 -0.17121081
000020 4e 86 c1 bd 1f 20 ad bb 25 ea 08 be 08 25 ad 3c
       -0.09449445 -0.00528337 -0.13370569 0.021135822
000030 e3 32 a4 3d 09 96 06 be b2 3a 74 bd 17 cb c8 bc
       0.08017518 -0.13143171 -0.05962629 -0.024510903
000040 0d c0 23 3e 01 66 8b bd 05 f2 04 be 79 60 b0 3d
       0.1599123 -0.06806565 -0.12982948 0.08612151
000050 ed 28 8c 3d 5f 58 1d be f0 ee 06 3d 3b c8 02 bd
       0.068437435 -0.15365742 0.032942712 -0.031929236
000060 e6 50 c5 3d 7d b7 b9 3d 74 f6 02 be 0b d0 f2 bd
       0.09634571 0.09068201 -0.12789327 -0.11856087
000070 c1 39 21 bb 04 5a 11 3e d4 ca d8 bc cd a4 42 3d
       -0.0024601074 0.14194494 -0.026463903 0.047520448
000080 78 33 1f be 29 29 99 bc c2 47 55 3d f9 c7 4d 3e
       -0.15546978 -0.018696385 0.052070387 0.20095815
000090 c1 f1 eb 3d a3 1c cd 3d 6a e3 7f bd ce 5b cd b9
       0.1152072 0.10015228 -0.06247274 -0.00039169047
0000a0 ce 4d dd bd b1 07 b7 bb e7 60 a6 bd 71 1b 70 bd
       -0.10805856 -0.0055856337 -0.081239514 -0.05861992
0000b0 ac 93 22 bc 58 49 5f 3d f4 44 6c bd 07 ff 36 bd
       -0.009922903 0.054513305 -0.057682946 -0.044676807
0000c0 13 2b 57 bd 41 d2 14 be cb d5 1d bd ba b8 de 3d
       -0.052531313 -0.1453333 -0.038533967 0.108750775
0000d0 0b 53 c6 3d 97 e3 51 3e c7 27 10 3e 82 ba 0e be
       0.09683808 0.20496975 0.14077674 -0.13938335
0000e0 97 53 03 be e2 8a dc 3c ee 3d be 3d 5c 09 76 bc
       -0.12824856 0.026921693 0.09289156 -0.01501688
0000f0 9e 16 20 be 90 ef a5 bd d8 4c 57 be ce 39 20 3d
       -0.15633628 -0.081023335 -0.21025407 0.039117627
000100 19 1c b3 bd 77 d2 ec 3d 7c 00 d6 3c 5e ca 5b bb
       -0.087455936 0.115635805 0.026123278 -0.0033537368
000110 31 a2 0e 3b c8 cb 86 3d d8 9a 35 3e 1b 5a ba 3b
       0.0021764154 0.06581837 0.1773485 0.005687011
000120 78 1a 46 be 5e bc 03 be eb 94 2b be f3 aa 82 bd
       -0.19346035 -0.12864825 -0.16756026 -0.06380262
000130 45 12 21 3e bd ff 90 bd 71 63 b7 bd c3 cd 59 3d
       0.15729626 -0.07080028 -0.08954514 0.053174745
000140 0c cb 60 3d 0d 8f b7 bd bd cf 03 be 97 2a b5 3d
       0.05488114 -0.08962832 -0.12872215 0.08846014
000150 4c 03 2c 3c c1 e5 b2 3c 9c a5 ad bd 69 43 26 3e
       0.010498833 0.02183807 -0.08478853 0.16236652
000160 12 88 f6 3c 97 87 5b be 0b c6 91 3b 1a 80 a5 bd
       0.03009418 -0.21438442 0.0044486574 -0.08081074
000170 19 d7 c5 bd d1 b9 88 3d e5 4c 3e bd f8 be 47 bd
       -0.09660167 0.06676067 -0.04646005 -0.048766106
000180 92 0d 20 bd 68 65 f5 bd 2b fe 21 3e 0e 5d 4a 3a
       -0.03907544 -0.11982232 0.15819614 0.00077195547
000190 90 52 a2 bc 12 72 15 be 02 65 11 3c 3e 49 ae 3c
       -0.01981476 -0.14594296 0.00887418 0.021275159
0001a0 93 fa 58 bd 1f f6 b4 bb 0f ab 88 bc 7c c1 a6 bd
       -0.05297334 -0.005522504 -0.01668313 -0.08142373
0001b0 69 13 16 3d 0a 60 24 3e 89 40 d4 bd be 19 b1 bd
       0.036639605 0.16052261 -0.103638716 -0.08647488
0001c0 dd bb 37 3d 29 46 0a bd 4b 70 05 be f9 cc 10 3e
       0.044856895 -0.033758316 -0.13031118 0.14140691
0001d0 37 82 00 be 6f 00 b3 bd ae a4 79 3e 59 0e 8c 3d
       -0.12549673 -0.08740317 0.24379227 0.06838674
0001e0 fc 3d 62 bc 25 cb 5e be 47 4a 8b 3d a0 1d 81 bd
       -0.013808724 -0.21757181 0.06801277 -0.06304479
0001f0 05 77 e6 bd eb f6 ad 3b 9d 92 04 bd e5 1f 45 bc
       -0.1125317 0.005308976 -0.032366384 -0.01203153
000200 6d b2 81 bc 6a d0 3f bc 3b f9 e0 b9 a5 a5 c5 bd
       -0.01583215 -0.011707405 -0.000429103 -0.09650735
000210 f9 fd b0 3d 23 a9 69 bd ef d7 75 3d 18 16 92 3c
       0.086421914 -0.057046067 0.060020383 0.0178328
000220 04 b7 11 3e ce f7 3f bc b2 d2 02 3e e9 60 03 3e
       0.14229971 -0.011716796 0.12775686 0.12829937
000230 db 22 49 bd 46 6a 5a be 4e 37 42 bd 57 19 28 3d
       -0.049105506 -0.21329603 -0.047416024 0.04103979
000240 da 39 b7 bd 26 b8 9a bb 06 6b 70 3c c2 a0 d1 3d
       -0.08946581 -0.0047216592 0.014673954 0.1023574
000250 d0 9e 0c bd 40 71 85 3d e1 6e 65 be 0f cd 03 be
       -0.034331143 0.06515741 -0.22405578 -0.12871192
000260 88 40 81 3d 1b 57 eb 3d 69 51 88 bd df b4 9d bd
       0.063111365 0.114912234 -0.06656153 -0.07700514
000270 96 45 8d bd 75 a3 0c 3d 1b 1e 7b 3b fb 4e 98 bd
       -0.06898038 0.034335572 0.0038317505 -0.07436939
000280 3f c4 b6 3d 20 3c 52 bd af 01 c9 bd 7c 00 13 bd
       0.0892415 -0.05132687 -0.09814774 -0.035889134
000290 a3 ee f6 bd a7 c5 a2 bd 0e 77 4c be 1e cf ab bc
       -0.12057235 -0.079478554 -0.19967291 -0.020972785
0002a0 8e 1e 01 3e 99 d0 1c 3d 77 17 3a bc 4d ef fe 3d
       0.12609312 0.03828487 -0.0113581335 0.12447987
0002b0 16 3c 19 3d 4d d3 43 bd f9 ee 9c 3d ae f0 1a 3e
       0.037410818 -0.047808934 0.07662768 0.15130875
0002c0 a6 5e 2e be 9d b9 56 3d 6b de ba 39 cb ca d1 bd
       -0.17028293 0.05242311 0.000356424 -0.10243758
0002d0 c4 9b 2d 3d c9 d8 ae 3d 0a 2e be bd a3 03 2e 3e
       0.042384878 0.08537442 -0.09286125 0.16993575
0002e0 df 99 be bd 60 ae ce 3d 6b 6f 08 3c bd b1 f2 bd
       -0.09306692 0.10091853 0.008327345 -0.11850307
0002f0 a7 e9 a5 3c 43 72 09 be 1f c0 b0 3c 4f 02 3a bd
       0.020253016 -0.13422494 0.021575985 -0.045412358
000300 12 83 4a bd 5d f9 ce 3b 5f fe 96 3d 3e 63 e6 bd
       -0.049441405 0.0063163475 0.07372736 -0.11249398
000310 af 87 42 3d 77 b2 e1 bd f9 0f 39 bd 77 3b 1d 3d
       0.04749268 -0.110203676 -0.04518125 0.03838679
000320 91 c9 49 3c 8e 26 9f bc 3c 57 41 3d be 8a 25 3e
       0.012316124 -0.019427564 0.047202334 0.16166207
000330 81 dc 8d 3c 93 e8 9c 3d e6 fd 01 3e 7a 69 08 bd
       0.017317059 0.076615475 0.12694511 -0.033303715
000340 62 ce 36 be 1d cb 63 3b 53 7c 95 3d 2c a9 a4 3d
       -0.17852166 0.0034758516 0.072991036 0.080400795
000350 45 f8 d9 3b 35 4e 96 3d f3 f9 2d be 16 3a c1 bd
       0.0066519105 0.073391356 -0.1698988 -0.09434907
000360 0a 7f a6 3d 62 b8 27 3e 71 55 91 3d d2 08 a9 bd
       0.081296995 0.1637893 0.07096375 -0.082536355
000370 39 63 1e bd 5f 29 38 3e de 55 27 bb 2c 78 9e 3d
       -0.038668845 0.17984532 -0.0025533359 0.07737765
000380 7a 74 25 3c 30 8e b1 3d 24 5f 66 bd ff dc 7b 3d
       0.010098571 0.08669698 -0.056243077 0.061490055
000390 5d 20 d9 3d 86 76 86 bd 6b 33 90 bd a0 91 4a 3d
       0.10601876 -0.06565575 -0.07041057 0.049455285
0003a0 0f ee 84 ba 01 4d 95 bd 87 01 23 be 68 72 95 bd
       -0.0010141748 -0.07290078 -0.15918551 -0.07297212
0003b0 c9 81 0f be 42 79 1b 3e 41 52 c4 bd 53 45 b0 3c
       -0.14014353 0.15182975 -0.09586001 0.021517431
0003c0 29 dc f4 3c a1 d2 64 3d 00 f7 2d bd da ef 86 3d
       0.029890137 0.055864934 -0.042471886 0.06588717
0003d0 b1 98 07 be 60 60 57 3e ce 4d 2d bd 1d b5 90 3d
       -0.13241841 0.21032858 -0.04231053 0.070657946
0003e0 ed c2 ec 3d ed 9f a8 bc 91 6a 2b bd 0d c6 5b 3e
       0.11560617 -0.020584071 -0.041849677 0.21462269
0003f0 bd 03 f6 bd ad ed 82 3c 2a da 79 3e 1d 43 94 3d
       -0.12012432 0.015982473 0.24399629 0.07239363

shared1.bias f4 [200]
000000 f3 f0 12 be 89 f9 69 be c0 0d c3 bd f6 56 48 3e
       -0.14349727 -0.22849096 -0.09524107 0.19564423
000010 a2 bc bf 3c 91 fd 27 bd 26 02 a5 3b 54 87 b0 3d
       0.023405377 -0.041013304 0.0050356565 0.08619562
000020 bd 24 0f 3e 4b 65 c3 3d c3 92 2f be 43 65 d8 bd
       0.13978858 0.095408045 -0.17145829 -0.10566189
000030 cb 45 9c 3c 72 d9 8e 3d d6 9d 17 be 68 e9 17 3e
       0.019076249 0.06975068 -0.14806303 0.14835131
000040 c6 63 a3 bd 11 2b e4 bd f0 4e 2a be 69 8c d5 bd
       -0.07978015 -0.11141027 -0.16631675 -0.10427172
000050 b9 55 2d 3e 85 c4 8d bd 6b d5 4b be 1c a0 61 be
       0.16927232 -0.06922249 -0.19905631 -0.22033733
000060 ef ff e0 3d 93 8f 1f be 55 91 0e 3d 2f cf b0 3c
       0.109863155 -0.15582113 0.03480657 0.021583168
000070 6e 90 89 3a ca 9b c4 3d b5 76 da bd d2 00 91 be
       0.0010495314 0.09600027 -0.10667173 -0.28320938
000080 54 ce 81 be db d1 27 3c 3e 52 28 3e 54 60 40 3d
       -0.25352728 0.010242905 0.16437623 0.046966866
000090 8b 5c 1a be 65 07 2d be 37 1e cf bd 9a d1 a1 bd
       -0.15074365 -0.16897352 -0.10113185 -0.079013065
0000a0 89 9b 68 be c8 8a 02 3d f0 eb 5d be 69 79 e8 3d
       -0.22715582 0.031870633 -0.21672034 0.11351282
0000b0 8a bc 89 b8 9b eb 92 bd f9 10 2c 3e 6e c5 10 be
       -6.567787e-05 -0.071738444 0.1680335 -0.14137813
0000c0 95 c7 e6 3d a2 fd ce 3b 04 c1 ae 3d 9e 1b 3d be
       0.11268536 0.0063168565 0.085329086 -0.18467566
0000d0 17 96 e1 bd 36 fe 8f be bb e8 1c be 28 ba 0b 3e
       -0.110149555 -0.28123635 -0.15323155 0.13645232
0000e0 9a 61 12 3e fa 27 32 3d 72 13 10 be 64 14 4c be
       0.14295045 0.043495156 -0.14069918 -0.19929653
0000f0 03 11 7a be df 1d 90 bd ae 60 3d be d9 6f 76 3d
       -0.24420552 -0.070369475 -0.18493912 0.06016526
000100 fe eb c5 3d a2 84 8d bd 2a f0 c0 bd b3 26 3e be
       0.096641526 -0.06910063 -0.09420808 -0.1856945
000110 21 29 c4 3c 90 3a 02 3e 88 ec 2a be 93 02 16 3e
       0.023945393 0.12717652 -0.16691792 0.1464942
000120 e3 7c 51 be 16 50 b8 bd 9a 05 12 be 6d 77 5d be
       -0.20457797 -0.0899965 -0.1425995 -0.21627589
000130 8e 31 85 be 97 73 6a 3d c9 aa 4a be 10 b3 42 3d
       -0.2601437 0.05723914 -0.19791712 0.04753405
000140 d9 c0 4b 3e 56 02 84 bd 90 a0 a1 bc 72 77 8f 3c
       0.19897784 -0.06445758 -0.019729882 0.01751301
000150 94 a5 17 be dc 82 51 be f7 41 11 3e 4a 5a ae 3d
       -0.14809257 -0.20460075 0.1418532 0.08513315
000160 04 ea 57 3e 97 ba 21 be d8 55 0b 3e 4b 65 a9 bb
       0.21085364 -0.15793835 0.13606966 -0.0051695458
000170 06 e5 ea bd 15 d3 e3 bd d2 e4 ec bd f4 70 25 be
       -0.11469464 -0.11124245 -0.115670815 -0.1615637
000180 92 87 c2 bc 16 48 12 bd 31 82 2c be 31 68 aa 3c
       -0.023746286 -0.035713278 -0.16846539 0.020801635
000190 2f 34 03 3e 47 af 7b be ab 38 ed 3b b3 3e 82 be
       0.12812875 -0.24578582 0.0072394214 -0.2543846
0001a0 14 ab 93 ba 5f e9 f1 3d f5 15 e5 bd b8 03 53 be
       -0.0011266195 0.1181209 -0.111858286 -0.20606887
0001b0 4b 7c 5f bd a5 2b 3f 3c 84 b0 84 be 08 e7 f7 3d
       -0.054561894 0.0116681205 -0.2591592 0.121046126
0001c0 f1 d3 57 3d 20 a0 59 be 1c 85 88 3d e8 c9 7b be
       0.052692357 -0.21252489 0.066660136 -0.2458874
0001d0 e5 1d f3 3d 93 0e 09 3e 4b 2b 72 3d 37 ce 7a be
       0.11870936 0.13384466 0.05912332 -0.24492727
0001e0 66 3f 1b be 82 4b b9 3d 46 94 03 3e de cd 2a 3d
       -0.15160903 0.09047605 0.1284953 0.041700236
0001f0 b8 a2 92 bc b3 11 38 3e 6e 4e 76 be 2d 40 2f 3e
       -0.017899856 0.17975502 -0.24053356 0.17114325
000200 52 db 82 be a6 cd 38 bd 92 1d 96 3c 7d bc 36 3d
       -0.25557953 -0.045117997 0.018324647 0.04461335
000210 f0 a0 53 3e 50 57 e9 bb 2f 05 c3 bd a0 09 32 3d
       0.20666862 -0.007121004 -0.09522473 0.04346621
000220 79 63 41 be 6f 52 52 3e ec 60 31 3d a2 13 34 3e
       -0.18885602 0.20539258 0.043305323 0.17585614
000230 52 55 17 be c2 f9 28 3d bc 91 41 be 80 06 3f 3e
       -0.14778641 0.041253813 -0.1890325 0.18654823
000240 55 7c 2d bd 50 de 57 be 04 ad 49 be 11 04 00 be
       -0.0423549 -0.21080899 -0.19694906 -0.12501551
000250 16 8a 52 3d 96 a2 86 bc e3 ff b8 3d e6 7d 08 3e
       0.05140122 -0.016434949 0.090331815 0.13329276
000260 4b f1 95 3d f0 38 c0 bc 33 a6 34 3e ae 3b e4 3d
       0.073214136 -0.02346465 0.17641525 0.111441955
000270 ea 95 74 3d 84 c9 86 be 08 7c 14 be 46 78 bc 3d
       0.05971328 -0.2632562 -0.14500439 0.09202628
000280 5e 4a 83 3d 79 9b 16 3c 47 5c a1 be 99 32 4e bd
       0.06410669 0.009192341 -0.31515715 -0.050341222
000290 cb 64 18 be 61 c0 3f be a5 8e 02 be de 99 6e be
       -0.148822 -0.1872573 -0.12749727 -0.23300883
0002a0 db 38 fd 3d f6 1e ba bd 16 44 33 3e 09 be 18 3e
       0.1236436 -0.090879366 0.17506441 0.14916243
0002b0 88 39 c4 3d 14 e9 40 be 44 08 87 bd 2d 77 08 be
       0.09581286 -0.18838912 -0.065933734 -0.13326712
0002c0 e5 19 17 be a4 33 2d be 27 2e 2d be 25 13 cd 3d
       -0.14755972 -0.1691423 -0.16912137 0.10013417
0002d0 b4 9b 80 be a0 31 f3 3d 12 30 5a be 62 4c 46 3d
       -0.25118792 0.118746996 -0.213074 0.048412688
0002e0 93 e5 8d bd 56 28 12 be f9 dc 53 be 4f f1 92 3d
       -0.069285534 -0.142732 -0.20689763 0.07174932
0002f0 bc 25 71 be 75 5e 96 3d c4 08 82 bd 49 42 3a 3e
       -0.23549551 0.07342235 -0.06349328 0.18189348
000300 c8 12 fe 3d 6d e6 04 be b0 67 82 bd a1 79 0d be
       0.12405926 -0.12978525 -0.06367433 -0.13815929
000310 05 ea df 3d 85 da 15 be 6e 99 0f be 2e 89 40 bd
       0.109333076 -0.1463414 -0.14023373 -0.047005825

shared2.weight f4 [200, 200]
000000 96 1f b9 b9 f9 51 c0 bd bf 08 99 3d 73 3e d6 3d
       -0.00035309483 -0.09390635 0.07472371 0.1046113
000010 29 b0 17 3d eb a0 63 bd 1c d9 c9 bd 97 08 0d 3e
       0.037033234 -0.055573385 -0.098558635 0.13772808
000020 af 5e 88 bd ed a6 bc 3c 8f 88 09 3e 3e 62 0d bd
       -0.066586845 0.023028815 0.13430999 -0.03451752
000030 9c 64 88 3d a0 33 d5 3d c4 c6 af 3d 1a ac bb 3c
       0.06659815 0.10410237 0.085828334 0.022909213
000040 8e e5 1b 3e d9 ab b2 3c 58 0b 80 3c 55 55 bc 3d
       0.15224287 0.021810459 0.01563041 0.09195963
000050 06 43 7d 3c 29 03 c6 3d 15 40 7c bc 69 f9 12 bc
       0.015457874 0.096685715 -0.015396138 -0.008970597
000060 22 63 31 3c 67 25 4a 3d 9f f1 f0 3d bf ee 10 3c
       0.010826858 0.049352076 0.117648356 0.008845984
000070 b7 33 a4 bd cf fe c4 bc bf eb 0b 3e 16 2e 17 3e
       -0.08017676 -0.024047283 0.13664149 0.14763674
000080 b5 a4 1d 3e 8e 44 cb 3d 4d 7f dc 3b f6 f0 d1 3d
       0.15394862 0.09925185 0.0067290426 0.10251038
000090 f1 50 e4 3d 7e 81 d7 3d d7 70 9e 3d f7 ad 24 bd
       0.11148251 0.105227455 0.07736366 -0.04020497
0000a0 f5 15 0e 3e a7 03 89 3d 75 c7 45 bd 3f c4 ab 3d
       0.13875563 0.0669015 -0.04828592 0.0838704
0000b0 4e 2e f3 3d 09 71 6c 3d aa 4d cd 3d 87 75 9b 3d
       0.11874066 0.057724986 0.10024579 0.07590776
0000c0 d6 57 2e 3e 3f e4 c2 3d 90 20 44 3d 80 18 22 3d
       0.17025694 0.09516191 0.047882617 0.039574146
0000d0 35 b4 1c bd d8 0c 04 bb 24 10 9d bc 5d 63 53 bd
       -0.038257796 -0.0020149257 -0.019172736 -0.051608432
0000e0 68 57 4b 3b 18 fb b5 bd b5 63 d5 3c 6a 50 27 3e
       0.003102744 -0.08885783 0.02604852 0.1633927
0000f0 f0 f7 46 3c f4 4e 96 bc 5d 83 10 3e 7c 55 93 bc
       0.012144074 -0.018348195 0.14112611 -0.017985098
000100 a2 71 0c be 4f 5f 96 3d 6e d0 6a 3d 48 e4 65 bd
       -0.13715222 0.073423974 0.05732768 -0.05612591
000110 90 20 5d 3e 0f 1f b8 3d 8a db e5 bc a5 af a3 3d
       0.21594453 0.08990299 -0.028058786 0.07992486
000120 3a 28 4b 3d f3 e7 ba 3b 59 ec 03 bd 5a 72 ad bc
       0.04959891 0.00570392 -0.03220782 -0.021172691
000130 6e 19 3a 3e a5 a3 88 3d 5a d2 94 3d 74 b7 f5 bd
       0.18173763 0.06671838 0.07266684 -0.119978815
000140 87 69 43 3c e4 23 b7 3c 5e 82 df bc 2f ef 4e bd
       0.011927015 0.022355981 -0.027283844 -0.050521072
000150 b5 8e e9 bc 8e 78 88 3d 8d 65 cb 3c 35 c0 19 3e
       -0.02851043 0.06663619 0.024828697 0.15014727
000160 06 b4 18 3d d4 1d 06 3e 67 89 31 3e 64 21 05 3e
       0.03728106 0.13097316 0.17337571 0.13001019
000170 c1 33 02 3e 28 e7 2f 3d 92 8e af bd 5c 4b 0e bd
       0.12715055 0.042945057 -0.08572115 -0.034739837
000180 5b 81 b3 bc cd e1 c5 3d f9 b4 aa 3d 7e 2e b1 bd
       -0.021912267 0.09662209 0.08335299 -0.08651446
000190 08 b6 01 3d 77 87 68 ba ef 6c c1 bd a7 bb 4d 3e
       0.03166774 -0.00088702835 -0.094446056 0.20091115
0001a0 69 bf df bd 78 64 2b bd 53 63 43 bd f8 cf dd 3c
       -0.109251805 -0.04184386 -0.047702145 0.027076706
0001b0 d5 46 21 3e a4 1a e2 bd 12 78 66 3c bd d1 34 3e
       0.15749677 -0.110402375 0.014066713 0.17658134
0001c0 90 2e b6 3d d7 a9 eb 3c d4 fd 2c 3e 42 a1 ed 3d
       0.088956 0.02876751 0.16893703 0.11603023
0001d0 4f e8 d5 3c bd 58 d7 bc e5 1d 8c bd a6 0d f3 3d
       0.02611175 -0.02628743 -0.068416394 0.118678376
0001e0 17 a8 18 3d a1 b4 1d be e8 44 a6 bd 87 a2 aa bd
       0.037269678 -0.15400936 -0.081186116 -0.08331781
0001f0 b4 df 33 3d 81 38 85 3d 97 99 12 3e 88 18 0b 3d
       0.04391451 0.06504918 0.14316402 0.03395894
000200 ee 4d 85 3c 17 59 cd ba 80 ec e1 3c 8b 25 b8 bc
       0.016272511 -0.001566681 0.027578592 -0.02247884
000210 64 0a 34 bd 39 93 66 3b d3 9c f6 bd 61 d8 13 3e
       -0.04395522 0.0035182966 -0.120416306 0.14438011
000220 f1 cf ac 3d c8 7c 81 bd 9e 5c 2f bd ba 2b 0a 3c
       0.08438099 -0.06322628 -0.042812936 0.008433277
000230 29 01 4c bd e7 ca 9f bd 26 f6 94 bd 32 ca 62 3d
       -0.049805794 -0.078023724 -0.072735116 0.05536861
000240 f8 af b9 3d 01 1e c3 3c 56 0c 0d 3d 58 80 9c bd
       0.090667665 0.023818018 0.034435593 -0.07641667
000250 f7 7b f7 3d 42 8c c3 3b 3a 16 99 3d b9 10 47 3c
       0.12084191 0.005967648 0.074749425 0.012149983
000260 52 5e 40 3d d2 30 9c bd ae f3 3b bc 4f 88 ca 3d
       0.04696495 -0.07626499 -0.011471672 0.0988928
000270 c3 3f a1 bd d7 2f 22 3d fe 40 56 bd aa d4 69 bd
       -0.0787349 0.039596405 -0.052308075 -0.057087578
000280 a7 d9 c8 bb 96 11 9d 3d b7 5c fe bc 5f 28 22 3b
       -0.006129462 0.0766937 -0.03105007 0.0024743301
000290 f2 37 09 3d b6 88 ee 3d b8 b1 21 bd 4c 06 5f bc
       0.03350062 0.11647169 -0.039476126 -0.013612341
0002a0 27 9f 9a bd 24 0f 8a bc 9b d6 2b bd 23 6e 22 be
       -0.07549887 -0.016852923 -0.04195271 -0.15862326
0002b0 d8 b5 51 bd 15 bf a4 3d 31 65 ba 3d 0c 8a 8d bd
       -0.05119881 0.080442585 0.09101332 -0.06911096
0002c0 44 c3 b1 3d 93 da 86 bd f9 5b 35 bd 43 92 d8 3d
       0.08679822 -0.065846585 -0.044277165 0.10574772
0002d0 46 12 fd 3d 12 68 64 bd 20 4d 68 3d c4 9c 64 3d
       0.12357001 -0.05576331 0.056714177 0.055813566
0002e0 8e bc 6c 3c c3 4c ca 3c 14 94 d2 bd 89 da e9 3d
       0.014449252 0.024694806 -0.1028215 0.114186354
0002f0 3f d4 45 bc 3a 66 98 bc 1b 7d 95 39 b4 b9 d8 bd
       -0.012074529 -0.018603433 0.00028512705 -0.10582295
000300 a1 58 a4 3d bc 83 6e bd da 9c 14 bd 5f ab 1a 3d
       0.08024717 -0.0582311 -0.036282398 0.03776109
000310 ad 85 98 bd a9 80 43 3d cf 08 8f bd 54 93 c6 3d
       -0.07447372 0.04773012 -0.06984102 0.09696069
000320 b1 98 99 3d bb b6 8b 3d d9 26 c4 3d ac 04 1a bd
       0.07499827 0.068219624 0.09577722 -0.03760211
000330 36 0e 02 3d 6e 61 7c 3d f2 27 30 3e 74 89 3c 3d
       0.031751834 0.061616354 0.17202738 0.046029523
000340 55 14 07 3e e4 77 cb bb 9e e5 27 bd 17 4a 47 3e
       0.1319135 -0.0062093604 -0.040990464 0.19461857
000350 20 75 f5 3c 16 4e 88 ba a6 01 22 3e 2b f4 a2 bd
       0.029963076 -0.0010399248 0.15820941 -0.079567276
000360 4c 19 17 3d 95 2b 90 3d f6 47 bb 3d 63 dc ec 3c
       0.03688936 0.070395626 0.09144585 0.028913682
000370 2f 74 30 bd 5b 2b 12 3e 3c e2 dd bd 90 cb fb 3c
       -0.04307955 0.14274351 -0.108341664 0.030736715
000380 41 94 e1 3d 49 2c 05 3e 4b 5d 79 3e 8c 9e 23 3d
       0.11014605 0.13005175 0.24351995 0.039946124
000390 86 a8 31 bc 25 0a f3 bc b9 73 fd 3d e9 8d c3 3b
       -0.010843402 -0.029667923 0.12375588 0.0059678447
0003a0 a4 b2 a6 bc 54 e1 be 3d da 9f af bd 21 cc b3 3d
       -0.020348854 0.09320322 -0.08575411 0.08779169
0003b0 2f 73 9e bd 19 80 e7 bc 9c 00 45 3c fd 83 b4 bc
       -0.07736813 -0.028259324 0.012024071 -0.022035593
0003c0 f5 a9 90 3d 92 61 2d be 3a 18 e1 bd 8c f4 14 bd
       0.07063667 -0.16931751 -0.10990949 -0.03636603
0003d0 f4 3d 11 bd cf 63 82 3d ba a3 43 bd 9a 0b 68 bd
       -0.035459474 0.06366693 -0.047763564 -0.05665169
0003e0 3a d8 e8 3d c3 4c 1b 3d 76 23 57 3d ce 27 41 bc
       0.11369367 0.037915003 0.052524053 -0.011789275
0003f0 74 e7 a1 3d 7c 77 03 3d 9a f0 fc bc be 53 e3 bc
       0.07905474 0.03209637 -0.030876447 -0.027749892

shared2.bias f4 [200]
000000 65 04 99 bc da 5f 45 bd 26 8c f5 3c b5 51 41 bc
       -0.018678853 -0.048187114 0.029974055 -0.011799266
000010 d4 8b 0e 3d d6 61 1f 3d 05 aa cd bd 60 dc 59 bd
       0.03480132 0.038911663 -0.10042194 -0.05318868
000020 9a c3 37 bd 11 f3 a3 3b 67 f2 a8 bb ac 76 89 3c
       -0.044864275 0.005003341 -0.0051558497 0.01678022
000030 c1 c6 28 bd 74 02 af bc ae 09 39 bd 49 e4 83 bd
       -0.04120517 -0.021363474 -0.045175247 -0.06440026
000040 b4 bb 92 bd 18 0b 92 3c 98 85 5e bd c4 72 d1 bc
       -0.07164708 0.017827556 -0.054326624 -0.02556742
000050 c0 ac cc bd 43 d9 6a 3b a5 64 4c 3d 52 3a 04 bd
       -0.09993887 0.0035835064 0.04990067 -0.03228218
000060 8d f0 f8 bd f9 23 05 bd e4 97 53 bd 99 3d 13 3c
       -0.121552564 -0.03250501 -0.051658526 0.008986854
000070 68 52 9a bd 80 12 07 3d 73 ac 03 bc c2 b2 79 bc
       -0.07535249 0.032976627 -0.008036721 -0.015240373
000080 f6 e9 77 bd 53 6c e4 bc b7 e3 48 bd 21 b9 4e 3c
       -0.060525857 -0.027883684 -0.04904529 0.01261738
000090 92 00 d7 bd b0 14 21 bd ec c1 e2 3c 8c ba 4c 3a
       -0.10498156 -0.03932637 0.02768036 0.000780978
0000a0 a9 64 e4 bd 09 2e 3f 3d 7e b2 bf bc 3a 5b cf 3c
       -0.11152012 0.046674762 -0.023400541 0.025312055
0000b0 d0 a0 85 bd 67 09 67 bd 71 5c 6c 3d 61 f0 bc bd
       -0.06524813 -0.05640545 0.057705346 -0.09225536
0000c0 4c c0 2f bd 6c 76 f5 3c c0 fe d2 bd e8 bb 46 3d
       -0.042907998 0.029963695 -0.10302496 0.048519045
0000d0 ec d4 bc bd 59 ae f4 bb d7 da 05 3d 72 16 39 bd
       -0.09220299 -0.007467073 0.032679405 -0.04518742
0000e0 62 a8 93 3c 8d 7c af bb 98 ff 80 ba 62 cb 3e bd
       0.018024627 -0.005355424 -0.0009841798 -0.04658068
0000f0 52 6d fd 3c d4 17 42 bd 03 ce f3 bc 07 a9 67 bc
       0.030935917 -0.047386006 -0.02976132 -0.01413942
000100 c5 5b 57 bb 36 91 8b bd 30 ea 88 3b 14 8d 04 3d
       -0.0032861095 -0.06814806 0.004178308 0.032361105
000110 43 ef 38 3d ec ef ba bd 04 fe 82 3d 4b 7f 91 bd
       0.045150053 -0.09127793 0.06396106 -0.07104357
000120 2f c4 32 bc 1a 2b 99 3c 20 98 aa bb 41 c1 86 bd
       -0.010911032 0.01869731 -0.005206123 -0.06579829
000130 cb a2 70 3c 5b 64 6b bd 77 f5 1f 3c e3 44 50 3c
       0.01468725 -0.057468753 0.009763113 0.012711736
000140 42 06 81 bc 1d a5 a2 bd 40 a5 da bc 5a f0 9d bc
       -0.015750054 -0.07941649 -0.026690125 -0.019279648
000150 5f cb 04 bd 29 5a 99 bd cc e6 37 bd b1 2d 51 3d
       -0.032420512 -0.074879 -0.04489784 0.051068965
000160 13 89 63 bc c0 67 cf bc 05 d9 95 bd ed 1d 20 bd
       -0.0138876615 -0.025318027 -0.07316784 -0.03909104
000170 68 a8 b6 3b 5e 8f 8f bd 18 21 3c bd 95 1c ed bc
       0.005574275 -0.07009767 -0.04593 -0.028944293
000180 9d 47 26 3d 7d 3e 90 bd a3 d9 f6 3a c3 a5 4b bd
       0.04059564 -0.07043169 0.0018833171 -0.04971863
000190 53 0c c6 bd 13 86 ba 3c 26 06 29 3c 7c 1b 0c 3d
       -0.096703194 0.02276901 0.010316407 0.0342059
0001a0 79 17 5b 3d a9 7c 52 bd cd 61 92 3c ae 54 b7 bc
       0.053489182 -0.051388416 0.0178689 -0.022379246
0001b0 b0 84 e8 bc c5 c8 a6 bb d3 66 a6 bd ca a0 f9 bc
       -0.028383583 -0.0050898516 -0.08125081 -0.030472178
0001c0 da d0 95 3c ec f6 48 bc 23 1d a1 bd 53 4a 05 3c
       0.018288065 -0.012265902 -0.078668855 0.008135396
0001d0 ca 67 d8 3b 21 45 00 be 3a e5 7c 3c 3d 95 db bd
       0.0066041695 -0.1252637 0.015435511 -0.10721824
0001e0 83 b1 79 3d fc c1 f8 bc 4c 0e 64 bd 11 06 2a bc
       0.060960304 -0.030365936 -0.055677697 -0.010377423
0001f0 7a d8 85 bd 33 ee 7b bc 4c 9b 1c 3c 1d 42 6e bd
       -0.0653543 -0.015376615 0.00955851 -0.05816852
000200 d2 0a b0 bd 16 3c 6f bc 2f 04 be bc 5e 4c 13 bd
       -0.08595814 -0.014601728 -0.023195354 -0.0359615
000210 52 04 2e bc 65 74 81 bc e3 10 77 bc af a2 19 3d
       -0.010621147 -0.015802572 -0.01507971 0.037508663
000220 4e 1e bf bb 9d b5 a5 bb 3c e7 35 bc e2 6e 26 3d
       -0.00583247 -0.0050570504 -0.011102494 0.04063309
000230 9d 67 94 bd b1 ee 76 bc a1 4c 13 3d 62 67 c3 ba
       -0.07246325 -0.015071557 0.03596175 -0.001490813
000240 8f 9e d6 3b 30 78 11 3c ae 5e fa bd ac 80 6c 3d
       0.0065496634 0.008878753 -0.1222509 0.0577399
000250 8d 22 0a bd a5 41 76 bb 61 84 e7 3b ed 37 2d bd
       -0.033724356 -0.0037575748 0.0070653413 -0.042289663
000260 b2 d1 09 bd de ef c6 bc 35 a1 44 3d ac 69 37 bd
       -0.033647247 -0.0242843 0.0480053 -0.04477851
000270 58 d6 00 3d 7d 18 50 bd 0a c1 55 bd fc 1c 08 bd
       0.031454414 -0.050804604 -0.05218605 -0.033230767
000280 b3 e4 33 bd d5 20 86 bd b7 f3 9f bd 70 b1 40 bd
       -0.043919276 -0.06549231 -0.07810157 -0.047044218
000290 fc 79 10 bb 2d 05 05 bd 7d 6d 37 3d 3a 9c 56 bd
       -0.0022045365 -0.03247564 0.04478215 -0.052395083
0002a0 03 38 5a 3c 60 13 4b bd ed 05 8c bd 88 4c bd bd
       0.013319018 -0.049579024 -0.06837068 -0.09243113
0002b0 91 a8 09 be f7 2d 90 ba 83 63 b9 bb c4 75 db bc
       -0.13443209 -0.0011000027 -0.0056576147 -0.026789553
0002c0 56 57 f6 bd 44 8d d3 bd 00 0e 1a bd d8 8a 50 3d
       -0.12028377 -0.10329679 -0.037611008 0.05091366
0002d0 1f 49 3f bd 32 88 15 3d aa 2f b7 bd 19 55 dd bc
       -0.046700593 0.03650684 -0.08944638 -0.027018117
0002e0 bf 23 90 b9 3a 42 2d bd 6c 12 b7 bd b8 3e 93 bc
       -0.00027492453 -0.042299487 -0.089390606 -0.017974243
0002f0 a0 27 bf bc 85 6b 14 be ce 65 b6 3c de ee 88 bd
       -0.023334324 -0.1449414 0.022265341 -0.06686185
000300 eb dc 9d bb b3 03 74 3d 42 09 08 3d 24 ed 4d bd
       -0.0048175952 0.05957384 0.033211954 -0.050274983
000310 87 b7 b0 bc a0 18 10 bc 1a b9 a0 bd 99 9e eb bd
       -0.021571888 -0.008794934 -0.07847805 -0.115048595

hidden1_Y1.weight f4 [200, 200]
000000 9a 88 35 3c d6 78 a0 3d fc 46 f1 3d 8f f9 ba bd
       0.011079932 0.078355476 0.11781117 -0.09129631
000010 0f 78 b1 bd 86 92 1f 3d 53 f4 2b bd 60 86 95 bd
       -0.086654775 0.038958095 -0.041981053 -0.073010206
000020 18 78 d5 bd e1 e8 57 3d 74 47 8a 3d ac 7e 1a 3d
       -0.10423297 0.052712325 0.0675191 0.03771846
000030 f8 67 db 3a 8e 29 1c bd 1b da 46 3c f9 19 87 3b
       0.0016739359 -0.038125567 0.012136961 0.004122969
000040 6c 59 82 3d 91 4a 2c bd 20 8f 7f 3c 21 18 82 bd
       0.06364712 -0.0420633 0.0155980885 -0.063522585
000050 f7 bb 74 3d 5a f2 80 bd c5 9c 4f 3d 2f 5b 9d bb
       0.05974957 -0.06296225 0.050686616 -0.0048021297
000060 83 a0 9f 3d 63 88 7b bd 65 ae be 3d eb 1d d2 bd
       0.07794287 -0.061409365 0.09310607 -0.10259613
000070 02 eb e0 3d cd 4d 34 bb e2 68 a4 3d e6 34 eb bb
       0.10982324 -0.0027512193 0.08027817 -0.007177937
000080 3d 58 9f 3c 5a 3c 66 3d 58 bd ed 3d 13 cc 7c bd
       0.019451255 0.0562099 0.1160838 -0.061718058
000090 9a b4 d5 bc 1a b6 86 b9 18 a8 8d bc 93 c1 31 bd
       -0.026087094 -0.00025694148 -0.017292067 -0.043397497
0000a0 88 a9 c1 3c 20 36 21 bd 3d e5 65 bd 74 05 4d bd
       0.02364041 -0.03935826 -0.05612682 -0.05005403
0000b0 91 db 3f bd c6 61 7f 3d e5 22 a4 3b ef bd fd bd
       -0.046840254 0.062349103 0.0050090426 -0.123897426
0000c0 a2 a1 01 3d fc 3d 4a bd 8d d0 aa bd da 5b fc 3c
       0.031648286 -0.04937552 -0.08340559 0.030805517
0000d0 df 67 d5 bd e2 bd 0d be f3 a8 07 3e 25 de 15 3d
       -0.104202025 -0.13841966 0.13248043 0.036588807
0000e0 b2 23 77 bd 2d 4a b2 bd 9a 87 f7 bb 76 bd 32 bc
       -0.060336776 -0.08705554 -0.0075540068 -0.010909429
0000f0 d4 15 96 bd d6 db 8e bd bb 9e 08 3c 4b 36 b3 bd
       -0.07328382 -0.06975524 0.008338626 -0.0875059
000100 0b 2c bc 3d 0b 18 9b bd af 71 5b bd 8e cd ad 3d
       0.09188088 -0.07572945 -0.053575214 0.08486472
000110 ef d7 41 3c c4 4c e0 bd 12 2a 6f bc 17 8c 7e 3d
       0.011831268 -0.10952142 -0.014597433 0.06214532
000120 c9 8f 8f 3c 05 19 34 bd 22 a5 87 3d df 49 8f 3d
       0.017524617 -0.043969173 0.066232935 0.06996512
000130 23 26 7b 3d 1c 4c 08 bd c5 16 bd bc b4 c5 95 bd
       0.061315667 -0.03327571 -0.023082146 -0.073130995
000140 a0 e3 ad bd 39 88 27 bd ae 27 c5 bb 53 bb 00 3c
       -0.08490682 -0.040901396 -0.006016693 0.007857162
000150 3a 82 13 3c b6 01 a3 3c 74 80 80 3b 12 ee e0 bd
       0.009003216 0.019898277 0.003921563 -0.10982908
000160 4e c7 4f bd 2f 02 21 bd c2 5c de 3d df e8 a6 bd
       -0.05072718 -0.039308723 0.10857536 -0.081498854
000170 29 05 ca bc ce 91 9b bd 6a 2b 56 3d 33 6e 1b 3d
       -0.024660664 -0.075961694 0.052287497 0.03794689
000180 eb f3 f4 3d 8d 69 95 bd 3b 5f 9f bd 63 21 92 bd
       0.11960586 -0.07295523 -0.07781836 -0.07135274
000190 9f 82 20 3d e4 65 ba bd c0 27 e7 bd 97 2a 98 bd
       0.03918707 -0.09101465 -0.112868786 -0.07429998
0001a0 2d 3a fc bd bd 72 c0 3d b9 f4 b3 bd 6a 90 44 3d
       -0.12315784 0.093968846 -0.087869115 0.047989286
0001b0 0e ce b8 bc 61 ea 14 3e 81 ef ca bd f5 94 78 bd
       -0.022559192 0.14542533 -0.09908963 -0.06068893
0001c0 e5 fd 45 3d 6b ab a8 bd 3f e5 c4 bd 88 46 89 bd
       0.048337836 -0.082358204 -0.09614038 -0.06702906
0001d0 41 50 3c 3d b4 b3 01 3e b0 7e e8 3d e0 c9 09 3d
       0.045974974 0.12666208 0.11352289 0.03363979
0001e0 b2 21 97 3c a8 30 6f 3d af f5 1e 3b 37 ce b9 3d
       0.018448684 0.05839601 0.0024255326 0.090725355
0001f0 44 9e 6e 3d 43 23 bf 3d 49 86 d5 3d 8a 9c ae 3d
       0.058256403 0.093328975 0.104260035 0.08525951
000200 3b b0 c4 bd e2 33 fe bd c6 17 d3 bd 66 b7 ad bd
       -0.09603926 -0.124122396 -0.10307269 -0.08482246
000210 9c a4 3b 3d 19 96 fc 3d b3 9b 48 bd ee 0d 94 3b
       0.04581128 0.12333316 -0.04897661 0.004518262
000220 1e a6 a3 bd 10 20 f6 3d 57 49 a4 3d e6 5b 0a 3e
       -0.07990669 0.12017834 0.08021801 0.13511619
000230 9b 24 04 bd 23 db 8f 3d 2a 26 00 3d c7 aa 81 bd
       -0.032261472 0.07024219 0.031286396 -0.06331401
000240 97 94 70 bd e5 14 9c bd 9f 1c 92 bd 1e 56 94 3d
       -0.058735456 -0.07621173 -0.07134365 0.07242988
000250 e7 4d 02 3e 7b 5d d9 3d 57 e0 b2 3d 16 7f a3 3d
       0.1272503 0.10613533 0.08734196 0.07983224
000260 de 36 d6 bd 19 bf c8 bc 52 d0 1f 3d 54 2b 34 bc
       -0.10459684 -0.024505185 0.03901703 -0.010996658
000270 51 da b0 bc 6b 98 e0 3d 8c d6 c4 bd 71 d8 e4 bd
       -0.021588476 0.109665714 -0.09611234 -0.111740954
000280 d8 4c fe bc 9c fd b8 3d 2f c1 35 bd 6f 88 1c bd
       -0.031042501 0.09032747 -0.044373687 -0.03821605
000290 fa 9d cf bd 20 91 94 3d 8d a8 34 bd e1 e6 b7 bc
       -0.101375535 0.07254243 -0.044106055 -0.022448959
0002a0 2e 99 8d 3d b2 1c 8d bd 9a 59 84 3d 39 15 c6 3d
       0.06913982 -0.06890239 0.06462403 0.09672017
0002b0 4c 7e a8 3b cb 61 1f bb c9 5d 64 bd 44 b2 af 3d
       0.005142009 -0.0024319764 -0.055753503 0.08578923
0002c0 da c3 ec 3d 69 45 35 3d 8f a0 ad bd bc d0 48 3d
       0.11560793 0.044255648 -0.0847789 0.04902719
0002d0 f7 08 55 bd c6 ee e9 3d 15 8a 2d 3c 04 b6 b9 bd
       -0.052010503 0.114224955 0.010592003 -0.0906792
0002e0 b2 09 f2 bc 23 8c 8e bd 3f 03 4c bd 9a 95 c6 3d
       -0.029545639 -0.06960323 -0.049807783 0.09696503
0002f0 95 69 83 bc a1 38 47 3d 0b 4b 7b 3d 46 4c 08 3e
       -0.016041556 0.04863799 0.061350863 0.13310346
000300 ff e2 0c 3d 94 83 b4 bd 1d 8e ab bd 43 c1 0c 3e
       0.034396168 -0.08814159 -0.08376715 0.13745598
000310 8d 0c 23 bc 34 17 ea 3c 5b 5d 6e 3d d0 38 6d 3d
       -0.009951723 0.028575517 0.0581945 0.05791551
000320 a9 5b 56 bd 6c 5d 82 3d 4c f3 a7 3d a9 05 88 3d
       -0.052333508 0.06365475 0.08200702 0.066417046
000330 d6 83 c2 3d ef a8 7d bb 12 e3 17 bb 5b 48 09 3d
       0.09497802 -0.0038705429 -0.0023176116 0.03351627
000340 62 46 82 3d 04 8d cc 3d 7a cd 84 bc 65 1e 57 3d
       0.06361081 0.09987834 -0.01621126 0.05251922
000350 48 a5 5e bc 24 a5 c8 bd da 9b 12 3a 86 ae 08 3d
       -0.013589211 -0.09797123 0.00055926817 0.033369564
000360 8b 41 b7 3d 35 d6 5c 3c 91 a5 bd bc 59 78 bb 3c
       0.08948048 0.013478805 -0.023150237 0.022884535
000370 2b 26 c4 bd f1 57 26 3d bf 2d 18 bd 27 c5 4b 3d
       -0.095775925 0.04061121 -0.037153002 0.049748566
000380 86 f0 03 bd 28 6e a2 bd 5b a2 a0 3d 2b 3f bd bd
       -0.032211803 -0.07931167 0.07843467 -0.09240564
000390 f1 f3 b5 3d d1 48 40 3d 56 b0 4f bc 69 43 2f bd
       0.08884419 0.046944443 -0.012676319 -0.042788897
0003a0 98 83 ac bd f7 8f 01 3e a1 d2 51 3c 24 33 3b 3d
       -0.08423537 0.12652574 0.0128065655 0.04570307
0003b0 11 18 cd 3d 73 5f d2 3c d4 4c 8e bd df 72 8a 3d
       0.10014356 0.02568028 -0.069482476 0.06760191
0003c0 aa 65 e3 bd dc c0 da 3d ed 74 c7 3b 3d e2 12 bd
       -0.11103375 0.10681316 0.0060869367 -0.03586029
0003d0 58 91 28 3d e3 40 b7 3c 9a 75 d6 3d d3 08 d7 bd
       0.041154236 0.022369808 0.104716495 -0.1049973
0003e0 cc 63 6a bd 86 2d c4 bd 8b e6 cd b9 e2 5b 22 3c
       -0.05722408 -0.095789954 -0.00039272415 0.009909602
0003f0 63 03 19 bc 39 07 5f 3c ef 89 b7 3d 26 e6 39 3d
       -0.009339186 0.013612562 0.089618556 0.045385502

hidden1_Y1.bias f4 [200]
000000 b0 cc 8e bd 04 6d 2e bd 59 a2 3d bd 13 1d 8e 3d
       -0.06972635 -0.042584434 -0.046297405 0.06939139
000010 10 df 31 bd 7c 46 4d 3c 2e 27 5e 3d 1e 71 92 bd
       -0.04342562 0.012529012 0.054236583 -0.07150482
000020 7b c0 7e bd bc e7 e1 bc 8a 65 27 bd 14 60 00 bd
       -0.062195282 -0.02757632 -0.04086832 -0.031341627
000030 84 9f 86 bd 0e 8d d9 3c 9a 3b 61 bd 30 9b 30 3d
       -0.06573394 0.026556518 -0.05498848 0.04311675
000040 35 01 80 3c cb 33 89 3c 43 eb 3e bc fd eb 3d 3d
       0.015625576 0.01674833 -0.01165277 0.046367634
000050 df 49 5a bd 86 cc 68 3d a3 8c c0 bc 9d 8d 19 bd
       -0.053293105 0.056835674 -0.02350456 -0.03748857
000060 c3 0b 81 3d ef 56 3e 3b d9 0c 16 3d f2 49 25 3d
       0.063010715 0.0029043516 0.036633346 0.040353723
000070 c3 b6 15 3c 6b 01 3f 3d ae ba e2 bb b7 40 32 3c
       0.009137812 0.04663221 -0.0069192266 0.010879687
000080 1e 62 46 3d a6 e8 f2 bc 24 78 0a bd 83 9e 85 bd
       0.048433416 -0.029651951 -0.03380598 -0.06524374
000090 ea 18 32 3a 34 ca 5a bd 1a 29 0f bd a0 13 4d bd
       0.00067938736 -0.053415492 -0.034951307 -0.050067544
0000a0 61 27 af 3c 63 c8 10 3c d7 b6 17 bd 90 00 f6 bb
       0.021381082 0.008836838 -0.037039604 -0.0075073913
0000b0 50 7d 94 b9 42 d8 c8 bc 0b 89 93 bc 3e 09 8b 3d
       -0.00028322125 -0.024517182 -0.018009683 0.06788872
0000c0 5e 4d 38 bd 2d 58 25 bd e6 f3 10 ba 0e ca 60 3d
       -0.044995658 -0.040367294 -0.0005529508 0.054880194
0000d0 32 6c 07 bd b0 18 4d 3d 5b 9e 57 3d 4f 9e 16 3d
       -0.033062167 0.050072372 0.052641254 0.03677207
0000e0 54 57 7b 3c 42 07 80 bd d5 ac 77 3c 5b e5 91 bd
       0.015340645 -0.06251384 0.01511689 -0.07123824
0000f0 50 fc 04 3d 48 c1 96 bd 30 86 06 3c 16 45 69 bd
       0.032467186 -0.07361084 0.008210704 -0.05695065
000100 1b c2 b4 3c 2c e0 26 ba c9 1a 64 bd ab 9a 24 3d
       0.022065213 -0.00063658017 -0.055689607 0.040186565
000110 ec 73 73 3c 81 f3 25 3c e0 9b 0a 3d 98 b6 51 bc
       0.014859181 0.010128857 0.03384006 -0.012799881
000120 5b bc 52 3d 92 93 2f bd 40 69 57 3c 91 a1 4c 3d
       0.05144916 -0.042865343 0.013147652 0.04995877
000130 41 7a 43 3d bd d0 64 bc c3 5a 8e bd b2 91 42 3d
       0.047724012 -0.013965783 -0.06950905 0.047502227
000140 11 78 2b 3c 18 fd 9e 3c 06 e9 35 bd 71 5c b3 bc
       0.010465638 0.019407794 -0.04441168 -0.021894665
000150 ee 64 83 3d 9e fa 8d 3d f5 80 50 3c 18 d9 5c 3d
       0.06415735 0.06932567 0.012726058 0.053917974
000160 80 fa d3 3c 79 44 62 bd 4b b6 c8 bb f5 a0 89 bc
       0.025876284 -0.055241082 -0.0061252466 -0.016800383
000170 43 fa 0f bd 99 b4 8f bd db 3a 43 bd 41 42 53 bc
       -0.035150778 -0.07016868 -0.04766355 -0.012894214
000180 5d 37 16 3c 75 c0 95 bc d2 6c c1 3c 88 f4 27 bd
       0.009168473 -0.018280247 0.02361146 -0.041004688
000190 22 16 96 3c 8c 6e 69 bc de e2 87 3d ba 3b 23 bc
       0.0183211 -0.014247548 0.06635068 -0.00996297
0001a0 77 64 0c 3d 60 1b 58 3a e3 4b 4d bd 97 b0 9b 3c
       0.0342755 0.0008243825 -0.0501212 0.019005103
0001b0 ba 44 46 3b 98 95 96 bd f9 9e 80 bd 63 2e 8c 3d
       0.0030253367 -0.073527515 -0.06280322 0.06844785
0001c0 73 35 a6 bc d7 95 2b bd 2c db 67 bb c1 56 62 bd
       -0.020289158 -0.041890945 -0.003537844 -0.055258516
0001d0 93 1d b8 bc 05 58 67 bd c9 52 10 3c 42 a0 26 bd
       -0.02247504 -0.056480426 0.0088088 -0.040680178
0001e0 3b c3 32 bd 58 d8 13 3d 1c 03 de 3c b2 d4 d3 3c
       -0.043643218 0.036094993 0.027101092 0.025858257
0001f0 12 a3 8a 3c 4d 2d 72 bd a4 9d 81 bd 00 e5 26 3d
       0.016923461 -0.059125233 -0.06328896 0.040745735
000200 26 6a a9 bd e8 ad 18 3d a4 a5 e6 3c c4 16 05 3c
       -0.08272199 0.037275225 0.028155155 0.0081231035
000210 4f ce 68 3b 79 f1 94 bc c4 ea ca 3c 63 5a f3 bc
       0.003552336 -0.01818155 0.024770148 -0.029706186
000220 40 d1 06 bc 17 06 81 bd 7c e3 db 3c 97 f0 3d bd
       -0.0082286 -0.0629999 0.026841871 -0.046372022
000230 30 46 2a bc 8a ab 8b bd ec 31 56 bd 8e 42 43 3d
       -0.010392711 -0.06819828 -0.052293703 0.047670893
000240 52 86 c7 3c 7a 4b 69 3d 38 dc 09 bd 74 c7 02 3d
       0.024356041 0.056956746 -0.033657283 0.031928495
000250 0a d4 95 3c 09 4f 06 3d 59 28 17 3d 8b d9 0f bd
       0.018289585 0.032790218 0.036903713 -0.035119575
000260 1d c4 07 3c 37 7b 63 bb 94 d1 21 bc a4 75 39 bd
       0.008286503 -0.0034710893 -0.0098766275 -0.045278206
000270 09 4f 95 bd c6 ff 2d 3d 87 2e 66 bc 1d 72 09 bd
       -0.072904654 0.042480253 -0.014049179 -0.033556093
000280 23 4b 5c 3c 96 ba 99 ba dc ae 26 3c 36 50 63 3d
       0.013445648 -0.001172858 0.010173526 0.055496417
000290 fe 72 7c 3d 1b 29 4f bc 96 f9 cf 3c b1 58 86 bd
       0.061633103 -0.012644078 0.025387567 -0.06559885
0002a0 e2 af 43 bd 11 42 b3 bd 8d 8c 18 bd 2f 15 37 3d
       -0.047775157 -0.087528355 -0.037243415 0.044697937
0002b0 10 73 4b 3d 0b 68 3f bd f5 4b 08 bd 13 05 1a 3c
       0.04967028 -0.046730082 -0.033275563 0.009400624
0002c0 ee 47 32 bd 0e 14 d5 bc 65 dd 0e bd 9a 99 82 bd
       -0.04352563 -0.02601054 -0.034879107 -0.063769534
0002d0 27 10 d9 3c 78 5f 69 3d f7 d6 03 bc 08 7a 19 3d
       0.02649696 0.05697581 -0.008046857 0.037469894
0002e0 f6 d1 35 bd d9 bc 94 bd 33 70 2c bc 85 ee 74 3d
       -0.044389687 -0.07262582 -0.010524797 0.059797782
0002f0 71 d8 32 bd d3 31 01 3d d2 be 24 3d c9 b0 0f 3d
       -0.043663446 0.031541657 0.040221043 0.035080705
000300 a2 8e 80 3c 36 d7 03 bd 5a b3 51 bd 31 1a 27 3d
       0.015693013 -0.032187663 -0.051196434 0.040796462
000310 60 77 2c 3d 49 99 c5 3c 1c 77 08 bd 35 c1 57 3d
       0.042106032 0.024120944 -0.033316717 0.05267449

hidden2_Y1.weight f4 [200, 200]
000000 3e 47 eb bd af 7d 2a bc 4c 45 02 3d 7a 73 56 3d
       -0.11488198 -0.010405942 0.031804368 0.05235622
000010 82 a3 78 3d 00 f3 c4 bd af 00 0f bc 6a 69 aa 3d
       0.06070281 -0.09616661 -0.00872819 0.083208874
000020 fa 73 9b 3d 04 88 21 3d 5b 0a 56 3c d6 ba 7c bc
       0.0759048 0.039436355 0.013063992 -0.0154254045
000030 30 8f d3 bd 10 c6 e5 bd 0a ac 4c bd 3b 97 43 bd
       -0.10330045 -0.11219418 -0.049968757 -0.047751646
000040 3e 56 e1 3d 2c 18 ec bd 3b da a7 3c 37 43 a8 bd
       0.110027775 -0.11528048 0.020489803 -0.08215945
000050 41 06 e6 3c 0b 92 88 3b 28 c9 83 3d 7c 39 8a bd
       0.028079154 0.0041678003 0.06434852 -0.067492455
000060 9f 67 b1 bd ba 6f 8e 3d fe e9 38 bc ba 18 a8 bc
       -0.08662342 0.06954904 -0.011286257 -0.020519603
000070 26 8d d5 3c 11 74 a9 3d 9e 6c fa bd e5 74 ed bd
       0.026068281 0.08274091 -0.12227748 -0.115945615
000080 17 03 e1 bd c7 c7 2e bc 85 46 96 bd f2 49 9f bd
       -0.109869175 -0.010667748 -0.07337669 -0.07777776
000090 af e7 f2 bd 21 86 84 bd 73 e2 b6 bd a2 17 a5 bd
       -0.118605964 -0.064708956 -0.089299105 -0.08061148
0000a0 d0 f5 9f bd 4c cd ca bc 77 f4 a6 bd b6 11 a0 3d
       -0.07810557 -0.024756096 -0.08152097 0.07815878
0000b0 c4 8f 87 bd b9 88 95 3d 5b eb 12 3d 9f 53 c4 3d
       -0.06619218 0.073014684 0.035868984 0.09586262
0000c0 7b bd 0f 3d 7b ca aa bd c8 95 9b bd 12 1a 2c 3c
       0.035092812 -0.08339401 -0.07596928 0.0105042625
0000d0 ff 9d dd bc 2a 15 16 bc d7 ad a5 bb 94 dc bf bd
       -0.027052877 -0.009160319 -0.0050561237 -0.09368244
0000e0 a2 2f d7 3d c6 09 d9 3c a5 ee 4c bd 76 8d 74 bd
       0.10507132 0.026493918 -0.050032277 -0.05970522
0000f0 78 90 4c bd 89 03 20 bd 79 a1 1e 3c b4 dc dc bd
       -0.049942464 -0.03906587 0.009682053 -0.10784283
000100 44 c8 ff bd da 2a 96 bd 98 d0 cd bd 3a 2a e5 bd
       -0.124893695 -0.07332392 -0.10049552 -0.11189695
000110 91 af 56 bc e7 fc 3d 3d 51 f0 93 bd 9b 22 08 bd
       -0.013103382 0.046383765 -0.07223571 -0.033236127
000120 f7 d0 52 3d 5a 2a ec 3d a2 b2 6e 3d 7c 88 6b bd
       0.051468816 0.115315154 0.058275826 -0.05750321
000130 3a 8d e1 bd c6 21 ad bd 84 a0 55 bd 46 08 39 3d
       -0.11013265 -0.084537074 -0.052155033 0.045173906
000140 8e 2c e1 bd e0 18 d2 bc e9 e1 af 3c 0a 71 c3 bc
       -0.10994826 -0.025646627 0.021470027 -0.023857612
000150 d5 1e 95 3d a6 52 8f bd 23 b1 53 3d 95 06 6b bd
       0.07281271 -0.06998186 0.051682603 -0.057379324
000160 7d 6f 94 bd 71 6d 1b bd 2b 64 15 3c 95 9a d4 3b
       -0.07247827 -0.03794617 0.00911812 0.006488154
000170 2b 23 f2 bd d2 01 a5 3d 6c bc 97 3d 15 6a 72 3d
       -0.11823114 0.08056988 0.074089855 0.0591832
000180 aa 5a 28 3d 74 55 a6 3d a2 97 e3 3d cb 75 e7 bd
       0.04110209 0.08121768 0.11112906 -0.11301764
000190 71 8d 73 3d 6a 02 0b 3d 6d ec a9 bc c6 ee a8 3a
       0.05946106 0.03393785 -0.02074262 0.0012888543
0001a0 bf c7 fc bc ca d7 0f 3d 15 0b 57 3b b6 1c 10 bc
       -0.030856965 0.0351179 0.0032813002 -0.008795908
0001b0 16 52 f3 bd 79 4e c2 3d 02 d6 8e bd d3 d8 cb 3d
       -0.11880891 0.09487624 -0.069744125 0.09953465
0001c0 7f 8b 6f bd 4b b8 b0 bd 59 9f 3a bd b0 e4 d7 39
       -0.058482643 -0.08628901 -0.045562122 0.0004117838
0001d0 bf 32 b2 3d aa 7b b2 3d 36 b6 cc bd 95 51 94 bc
       0.08701085 0.08714993 -0.099956915 -0.018105308
0001e0 f2 12 92 3d 87 e7 c9 bd 53 cc 34 3d c8 9e b8 3d
       0.0713252 -0.098586135 0.04414017 0.0901466
0001f0 e0 72 6c 3d fe 62 73 3d 14 f5 28 bd 42 66 b7 bd
       0.05772674 0.05942058 -0.04124935 -0.08955051
000200 24 e6 4d bc 24 a1 23 3d b8 db 0c 3c a1 86 9d bc
       -0.012567077 0.039948598 0.008597307 -0.019229235
000210 c8 33 c4 bc c6 16 09 3d 7c 53 d5 bd a9 ab 11 bd
       -0.023950472 0.033468984 -0.10416314 -0.0355641
000220 db a9 68 bd 7f ad 51 3d 10 c8 9f bc 87 f8 94 3d
       -0.05680261 0.05119085 -0.019504577 0.07273965
000230 a7 44 af bb f3 0e c5 bd 7e f4 e6 bc 59 e9 d9 3d
       -0.00534876 -0.09621992 -0.028192755 0.10640211
000240 43 19 a8 3c af 5d 0f bd 15 e7 00 be 96 2b 4d bd
       0.020519858 -0.035001453 -0.12588151 -0.050090395
000250 a0 9a 92 bd 95 1c 1d 3c 89 ff b5 bc 5e e3 c1 bc
       -0.07158399 0.009589334 -0.022216575 -0.023667987
000260 65 f9 ce bd 66 83 c3 3d 65 bb 9c 3d d0 44 32 3d
       -0.10106162 0.09546547 0.0765293 0.043522656
000270 a3 47 05 be 3e 1c 53 3d d5 42 32 3c ef cd 64 bc
       -0.13015608 0.051540606 0.010880192 -0.013965114
000280 c2 8e f5 bd 5d 88 86 bc 75 f4 29 3d c9 c7 77 bd
       -0.119901195 -0.016422445 0.041492898 -0.060493264
000290 64 a4 00 bb de ce a8 bc 61 4d c2 bd d4 41 96 3d
       -0.0019629234 -0.020606454 -0.09487415 0.073367745
0002a0 db dc b9 bd 74 c0 d4 3d d9 14 a5 3d 14 00 1c 3d
       -0.09075328 0.1038827 0.08060617 0.038086012
0002b0 33 a4 4f 3c 88 17 55 3d 69 79 54 3d 2e 0a d4 bc
       0.0126734255 0.052024394 0.0518736 -0.02588376
0002c0 9a a0 b7 3d b9 1f bc bd f6 91 b9 bd 9e 1a a6 3d
       0.08966179 -0.09185738 -0.09061043 0.081105456
0002d0 7e 36 de bd 6a 28 58 3d 14 ce cc 3c 65 32 a4 bc
       -0.10850237 0.052772917 0.02500061 -0.020043561
0002e0 c2 ab e1 3b b7 de c5 3d ce 79 35 bd c4 88 98 bd
       0.00688693 0.0966162 -0.044305615 -0.07447961
0002f0 55 34 89 bd f9 c2 74 3d 10 8f 44 bd 38 27 94 3c
       -0.06699435 0.059756253 -0.047987998 0.018085107
000300 c5 40 2b bd f9 1d e8 bd ca cb 3c 3c 58 92 fb bd
       -0.041809816 -0.11333842 0.0115231965 -0.12283772
000310 44 82 0c 3c 46 4d e2 bd ca b0 f9 bd 0d cd 8e bd
       0.00857598 -0.11049895 -0.12191923 -0.06972704
000320 8c 50 9e bc 98 92 05 3e ca 27 a3 bd 56 51 9c bc
       -0.019325517 0.13044202 -0.079665735 -0.019081753
000330 0e 3b 95 3d f1 ee 97 bd 2d 60 87 bc b3 02 83 3d
       0.072866544 -0.07418621 -0.016525352 0.06396999
000340 45 a0 ee 3d 52 96 5f bd ce 86 49 3d f9 10 05 bd
       0.11651663 -0.054586716 0.049200825 -0.03248689
000350 56 38 89 3c 18 74 a9 bd 7c b5 31 3d 58 51 9d bc
       0.016750496 -0.08274096 0.043385968 -0.019203827
000360 04 00 7c bd 6d 0b ee 3d 9e 43 e7 bd a0 d8 e3 3d
       -0.061523452 0.11623273 -0.11292194 0.11125302
000370 5f 3d fa 3c a6 cc b6 3d 81 83 cd bd 52 39 80 3c
       0.030546842 0.08925752 -0.10034848 0.015652332
000380 be 21 c5 bd a8 cc b1 3d b0 89 80 3b a2 f6 2d 3d
       -0.096255764 0.08681613 0.0039226636 0.042471536
000390 28 83 65 bd 10 18 8f 3b 0e c5 d6 3c 24 66 50 bc
       -0.056033283 0.004366882 0.02621701 -0.012719665
0003a0 1b 97 eb 3d ff 77 c6 3d 56 23 26 3d ae af b6 ba
       0.115034305 0.09690856 0.040561043 -0.0013937855
0003b0 02 09 e4 3d 2b da 0d 3e 86 9d 31 3d bf 66 0e 3d
       0.111345306 0.13852756 0.043363117 0.034765955
0003c0 8f 3b 0f 3c 7f 34 aa bc ac ff f2 bd fd 1b 49 3c
       0.008742227 -0.020776985 -0.11865172 0.012274739
0003d0 dc 1d 50 bb 9e 56 ab 3d 85 0b d2 bd fc 6c 24 bd
       -0.0031756079 0.0836613 -0.102561034 -0.040142998
0003e0 db 01 cd 3d 1b e8 5d bb d3 ee c1 bd e9 ef 06 3d
       0.100101195 -0.003386027 -0.0946938 0.03294364
0003f0 bf 35 8b bc c5 36 ff 3d 8e c3 47 bc 87 fb 92 bc
       -0.016993402 0.12461618 -0.01219262 -0.017942203
