Results/Models/SAE_E2E_DCN_model_iter_id_1_epoch_400_lr_0.0001_mmd.pth (torch, 828374 bytes, 16 tensors)

shared1.weight f4 [200, 17]
-0.040954765 -0.09098869 -0.063955046 0.1499264 0.00011344109 0.11165973 0.08301875 0.08423299
-0.013680018 0.039918534 -0.15199918 0.05332003 -0.07917872 -0.18222369 0.09402407 0.087997854
-0.16806406 -0.14250542 0.066667184 -0.16706094 -0.014248731 -0.12931542 -0.08520695 -0.06666277
0.081606366 0.09619638 0.07481888 -0.023962086 -0.039153986 -0.010714934 0.19311392 -0.13628702
-0.13802624 0.020058788 0.07849593 -0.06287819 0.090522446 0.08500863 0.16085455 -0.15221505
-0.13258007 -0.064381555 0.04654967 -0.07974504 -0.047316536 -0.13717435 0.15487857 0.048875537
-0.01143395 -0.0038524086 0.0023597071 -0.14599249 0.1843272 0.032016184 0.050161656 -0.09190454
-0.029808067 0.010588101 0.09891859 -0.07559217 -0.10731399 -0.05279532 0.012574379 0.020978333
-0.03176536 -0.11895577 0.050749905 0.10417175 -0.07096288 0.096624374 -0.10203217 0.02142626
-0.047916424 -0.115103856 -0.020405121 -0.07797286 -0.09561544 0.079835206 0.09199741 -0.08828383
-0.06103101 0.10864005 -0.0035304173 -0.15327904 -0.090998955 -0.18444355 -0.071528114 -0.033848364
0.18507951 0.1839777 -0.040438596 -0.07037891 0.15896678 0.035735972 -0.17090185 -0.0060615386
-0.01016151 0.09842937 -0.094713375 0.09388446 -0.09231531 0.022501329 0.030918162 -0.12155762
-0.055068303 0.009538451 -0.04088425 0.13213412 0.0658532 0.12709422 -0.18477854 0.021956071
-0.14837587 -0.063429974 -0.13224791 0.061441723 -0.07716658 0.16529603 0.02263267 -0.16006157
0.01514764 0.0011521402 0.07903727 -0.08879659 -0.1058593 0.15679494 -0.053763147 0.0014770473
-0.06667448 -0.045347977 0.026338141 -0.09040077 0.11862047 0.08287644 0.16067205 -0.09535839
-0.014146976 -0.16432422 0.11010482 0.057611413 0.03294099 -0.21362343 0.07727452 -0.019211445
-0.036887705 -0.0076024313 0.1031624 -0.12057121 0.008713278 -0.10196507 0.058994394 0.05275027
-0.15542026 -0.12355976 0.060252406 -0.107228205 -0.04641099 0.1589787 0.14266577 -0.06590235
0.18423028 0.11004758 0.023860808 -0.028303819 -0.013615815 0.12883665 0.16965398 0.07641798
0.005524924 -0.030866612 -0.01680394 0.107484676 0.084695876 0.23240034 -0.068606526 -0.09997445
-0.019968905 0.031126598 0.043060686 -0.0075150314 -0.008342132 0.058680154 -0.101100065 0.012031209
-0.07827241 0.11889702 0.15739837 -0.12473504 0.002730759 0.0068149855 0.105346754 0.19482738
0.01426908 0.0025016847 0.05724047 0.057556376 -0.026595466 -0.116794445 -0.04825007 0.07269934
-0.23383781 -0.045477316 0.038902637 -0.15244071 0.067767546 0.068545274 -0.043546584 0.19181482
0.03573349 -0.047883406 0.08059632 0.01942141 0.030720938 0.027056098 0.047301486 0.013718727
-0.114265926 -0.18177822 -0.32850212 0.009431842 0.12879561 -0.013783224 -0.0139868 0.038601134
0.15695013 0.094524674 -0.102450795 -0.10161908 -0.0017830449 0.08635962 -0.08767793 -0.026426842
0.16852932 0.11065979 0.0871178 -0.02130702 0.08454969 0.08804989 -0.05539557 0.03254993
0.007763858 -0.07197423 -0.18966469 -0.0014468952 0.14911613 0.12189775 0.10570162 0.10237846
-0.0695191 -0.15111247 -0.14674473 0.0587973 -0.15704423 0.12742034 -0.07017444 -0.0061980467
00000000: 2fc0 27bd 4758 babd ddfa 82bd 4e86 193e
00000010: 39e7 ed38 dbad e43d bc05 aa3d 5982 ac3d
00000020: 2722 60bc 9e81 233d aca5 1bbe 1b66 5a3d
00000030: 7428 a2bd d998 3abe b18f c03d 3838 b43d
00000040: fc18 2cbe f1ec 11be ce88 883d 0612 2bbe
00000050: 8273 69bc 436b 04be fb80 aebd 7e86 88bd
00000060: 3d21 a73d 9c02 c53d a43a 993d 234c c4bc
00000070: ee5f 20bd b18d 2fbc a8bf 453e d38e 0bbe
00000080: c056 0dbe 5452 a43c 79c2 a03d 48c6 80bd
00000090: d563 b93d 0119 ae3d 0eb7 243e 43de 1bbe
000000a0: 12c3 07be 7ada 83bd deaa 3e3d 5e51 a3bd
000000b0: fcce 41bd 6f77 0cbe 7d98 1e3e b731 483d
000000c0: 7655 3bbc b178 7cbb 51a5 1a3b 0e7f 15be
000000d0: 45c0 3c3e 6723 033d 4f76 4d3d 7338 bcbd
000000e0: 0c30 f4bc b779 2d3c d495 ca3d 11d0 9abd
000000f0: 70c7 dbbd e83f 58bd c504 4e3c c1da ab3c
00000100: 651c 02bd 159f f3bd 22df 4f3d 0058 d53d
00000110: fd54 91bd 00e3 c53d 3ef6 d0bd 2086 af3c
00000120: 0344 44bd 92bb ebbd a428 a7bc 3cb0 9fbd
00000130: 07d2 c3bd a480 a33d 2369 bc3d 27ce b4bd
00000140: a7fb 79bd ad7e de3d 935e 67bb 2ef5 1cbe
00000150: a95d babd c5de 3cbe 557d 92bd 95a4 0abd
00000160: 7c85 3d3e a664 3c3e f1a2 25bd d122 90bd
00000170: 30c8 223e e25f 123d e500 2fbe df9f c6bb
00000180: 767c 26bc 5695 c93d 16f9 c1bd 7f46 c03d
00000190: cf0f bdbd b554 b83c 1648 fd3c 34f3 f8bd
000001a0: 4d8f 61bd 2a47 1c3c 3e76 27bd 2b4e 073e
000001b0: 0bde 863d fd24 023e 9636 3dbe 38dd b33c
000001c0: d8ef 17be 93e7 81bd ff6b 07be 51aa 7b3d
000001d0: 8309 9ebd 5d43 293e 2668 b93c 2ee7 23be
000001e0: cf2d 783c 6903 973a 4bde a13d fdda b5bd
000001f0: c3cc d8bd da8e 203e bf36 5cbd 7c99 c13a
00000200: a18c 88bd cdbe 39bd 16c3 d73c 0a24 b9bd
00000210: 4aef f23d 1fbb a93d 3787 243e 424b c3bd
00000220: b8c8 67bc 9c44 28be a37e e13d f2f9 6b3d
00000230: 22ed 063d 1ac0 5abe 1b42 9e3d 5261 9dbc
00000240: 9017 17bd d11d f9bb cf46 d33d 0aee f6bd
00000250: 23c2 0e3c 10d3 d0bd 1ba4 713d ab10 583d
00000260: 7d26 1fbe e60c fdbd 3acb 763d 769a dbbd
00000270: 7319 3ebd 50cb 223e fa16 123e d0f7 86bd
00000280: dda6 3c3e a060 e13d be77 c33c 69dd e7bc
00000290: de14 5fbc c1ed 033e c6b9 2d3e 0881 9c3d
000002a0: 6c0a b53b fadb fcbc 6ba8 89bc ed20 dc3d
000002b0: 0875 ad3d 5bfa 6d3e 9481 8cbd 68bf ccbd
000002c0: d495 a3bc 35fd fe3c 6760 303d a740 f6bb
000002d0: 70ad 08bc 9a5a 703d 8d0d cfbd 8c1e 453c
000002e0: 494d a0bd 4880 f33d 0a2d 213e 1675 ffbd
000002f0: 89f6 323b 3e50 df3b 0ac0 d73d d480 473e
00000300: dcc8 693c 4ef3 233b fc74 6a3d 3cc0 6b3d
00000310: bcde d9bc ed31 efbd dea1 45bd 64e3 943d
00000320: 2e73 6fbe 6c46 3abd 5f58 1f3d 6b19 1cbe
00000330: b6c9 8a3d 7761 8c3d e75d 32bd 1b6b 443e
00000340: 485d 123d 6421 44bd af0f a53d a619 9f3c
00000350: 7aaa fb3c c0a4 dd3c 34bf 413d 83c4 603c
00000360: 4104 eabd 1224 3abe 6e31 a8be 0388 1a3c
00000370: ffe2 033e 08d3 61bc e428 65bc 391c 1e3d
00000380: 89b7 203e 2796 c13d b9d1 d1bd aa1d d0bd
00000390: 0fb5 e9ba 50dd b03d 7d90 b3bd 1b7d d8bc
000003a0: f392 2c3e 9aa1 e23d d16a b23d 0f8c aebc
000003b0: 6328 ad3d 8053 b43d 77e6 62bd 1353 053d
000003c0: f667 fe3b 3a67 93bd 7637 42be bfa5 bdba
000003d0: e6b1 183e 87a5 f93d 177a d83d ccab d13d
000003e0: 0860 8ebd 3abd 1abe 4044 16be 70d5 703d
000003f0: 34d0 20be 7a7a 023e 9eb7 8fbd fc18 cbbb

shared1.bias f4 [200]
-0.055691324 0.115298115 -0.24954776 -0.078509115 -0.2196064 -0.23621128 -0.021869645 0.06554816
0.006916815 -0.14280125 0.01926402 0.0399133 0.09912005 0.13680755 0.04090309 0.16345207
-0.065041505 -0.123652 0.072518066 -0.19228671 -0.00019970142 -0.08230998 0.048853014 0.09948714
-0.048687782 -0.106804825 0.13977015 -0.19955309 -0.16611724 0.13846073 0.19794692 0.1626256
0.07057073 -0.18315403 0.10105701 -0.1591367 -0.21995772 -0.13246232 -0.0008610207 -0.016715508
-0.24475598 -0.05172791 -0.165482 -0.22816432 -0.059815828 0.22297385 0.10009929 0.22484191
0.02886231 -0.081959635 -0.086675666 0.1451346 -0.07329367 0.0890727 -0.10179084 -0.08335028
-0.03661093 -0.136292 -0.06258096 -0.21765861 -0.060715113 -0.1259036 0.20913969 -0.23860179
0.057172388 -0.10055166 -0.24051672 0.12683024 -0.14402433 0.17539126 0.022458663 -0.05336057
-0.15895669 0.07792059 0.1632402 0.015171439 0.17957282 0.02685138 -0.11639767 -0.034076422
-0.23483536 -0.056737117 -0.21333267 -0.11431145 0.016053693 -0.17368032 0.1533156 -0.12436052
0.06639434 -0.02093028 0.02387877 -0.2481923 -0.23803192 0.023578618 0.18725824 0.034364004
-0.02059533 -0.05209302 0.12009156 -0.22228171 -0.14206663 -0.09582163 -0.22935747 -0.2702271
-0.14284927 -0.114010535 -0.13996306 -0.097612806 -0.0114971185 -0.12868144 -0.19176254 0.19073051
0.0699616 0.005626294 0.01051585 -0.037340112 -0.07990601 0.0041082916 -0.030746944 -0.14660035
0.078252465 -0.036184195 0.09758699 0.12736745 -0.05080189 -0.25333723 -0.16724841 0.06349519
0.011245131 -0.21573584 0.13711673 -0.23773809 0.12553775 -0.0113728335 -0.0914408 -0.17076808
-0.060736742 -0.028735247 0.19568297 0.0695308 -0.16006143 -0.22730407 -0.09338536 -0.12987752
-0.103779875 -0.2620659 -0.22015832 -0.029659962 -0.13235413 0.20195475 0.013074577 -0.19879128
-0.19634865 -0.12897934 -0.060362387 -0.24715151 -0.18454356 -0.22121778 0.16505143 -0.24191828
-0.31025094 0.11942136 -0.09098183 -0.02610553 0.11786562 -0.22359578 -0.0018207167 0.06603568
0.020516276 -0.07069981 0.1840957 -0.025148436 -0.226155 -0.22015285 0.020776527 -0.11385634
-0.20064284 0.20799784 0.06057592 -0.13658853 -0.17119679 -0.10105602 -0.15550175 0.07088287
0.05548955 -0.16570511 -0.009812339 0.06868467 0.12394145 0.13316557 -0.17012559 0.12903582
-0.0059544547 0.0142109785 -0.035645608 -0.05154971 0.1591014 -0.15394828 -0.05458988 -0.030294988
00000000: 961c 64bd 6b21 ec3d 7389 7fbe 63c9 a0bd
00000010: 80e0 60be 5fe1 71be f827 b3bc 1d3e 863d
00000020: 73a6 e23b 7e3a 12be 94cf 9d3c 217c 233d
00000030: 74ff ca3d 4717 0c3e 008a 273d fb5f 273e
00000040: 7b34 85bd 433d fdbd 5a84 943d cfe6 44be
00000050: f166 51b9 2392 a8bd 191a 483d eabf cb3d
00000060: d76c 47bd 7dbc dabd e81f 0f3e a557 4cbe
00000070: a31a 2abe a6c8 0d3e 99b2 4a3e 5387 263e
00000080: 6387 903d bb8c 3bbe faf6 ce3d bbf4 22be
00000090: 993c 61be 34a4 07be 1fb6 61ba f6ee 88bc
000000a0: 50a1 7abe a5e0 53bd 1d74 29be e8a3 69be
000000b0: 7101 75bd 4253 643e db00 cd3d f53c 663e
000000c0: a770 ec3c 74da a7bd 0383 b1bd 2a9e 143e
000000d0: fe1a 96bd bf6b b63d b777 d0bd 8db3 aabd
000000e0: 58f5 15bd 2190 0bbe 722a 80bd e6e1 5ebe
000000f0: 69b0 78bd e0ec 00be b728 563e 0754 74be
00000100: 982d 6a3d 07ee cdbd 044a 76be c9df 013e
00000110: 1d7b 13be c499 333e 3bfb b73c 9d90 5abd
00000120: 8bc5 22be d594 9f3d 7028 273e a191 783c
00000130: f0e1 373e 6df7 db3c e761 eebd b893 0bbd
00000140: ae78 70be 2e65 68bd e173 5abe 1f1c eabd
00000150: 0983 833c 41d9 31be c4fe 1c3e bab0 febd
00000160: c1f9 873d fb75 abbc 699d c33c 1f26 7ebe
00000170: a4be 73be f227 c13c a0c0 3f3e 45c1 0c3d
00000180: 8ab7 a8bc 7e5f 55bd 90f2 f53d d19d 63be
00000190: ea79 11be 213e c4bd afdc 6abe 355b 8abe
000001a0: 1447 12be 5b7e e9bd 7a52 0fbe 39e9 c7bd
000001b0: 695e 3cbc 11c5 03be 665d 44be dc4e 433e
000001c0: 0748 8f3d c65c b83b ac4a 2c3c f2f1 18bd
000001d0: c3a5 a3bd d99e 863b 04e1 fbbc 671e 16be
000001e0: d442 a03d e135 14bd b0db c73d 9d6c 023e
000001f0: a515 50bd 6bb5 81be 2b43 2bbe c409 823d
00000200: 7f3d 383c dbe9 5cbe 5468 0c3e 9d71 73be
00000210: f88c 003e 1f55 3abc 5045 bbbd d4dd 2ebe
00000220: 17c7 78bd 2e66 ebbc 1e61 483e 2a66 8e3d
00000230: 25e7 23be 66c2 68be d340 bfbd 9dfe 04be
00000240: 8b8a d4bd 802d 86be 2f71 61be 73f9 f2bc
00000250: d787 07be 3acd 4e3e c036 563c f18f 4bbe
00000260: 9f0f 49be 2913 04be 8d3e 77bd 4915 7dbe
00000270: fdf8 3cbe ea86 62be 3e03 293e 6db9 77be
00000280: 36d9 9ebe 3093 f43d af54 babd 44db d5bc
00000290: 8863 f13d 4bf6 64be 1da5 eeba b73d 873d
000002a0: c011 a83c 10cb 90bd 9583 3c3e 1804 cebc
000002b0: 2d95 67be c06f 61be 8933 aa3c 832d e9bd
000002c0: 5175 4dbe 63fd 543e 751e 783d dddd 0bbe
000002d0: 364e 2fbe 75f6 cebd da3b 1fbe 0a2b 913d
000002e0: 0349 633d 9aae 29be efc3 20bc 8caa 8c3d
000002f0: 04d5 fd3d 8e5c 083e 6735 2ebe f721 043e
00000300: 961d c3bb 2ad5 683c 2101 12bd ca25 53bd
00000310: 7aeb 223e 9ea4 1dbe a399 5fbd 322d f8bc

shared2.weight f4 [200, 200]
0.0025657539 -0.009788341 -0.04090086 0.121613264 -0.09514094 0.053188637 -0.08928645 0.08815953
0.14961652 -0.07759734 0.10602893 0.11752202 -0.003215753 0.034490056 0.028373215 -0.027873032
0.17995004 0.14811707 -0.051377017 0.0859157 -0.018808357 -0.1267085 0.0675856 0.020714844
-0.0396254 0.11330129 -0.0097566 -0.07620027 -0.05051471 -0.067123175 0.09565409 0.011812228
-0.08714017 0.21709208 0.07797161 0.0015811126 -0.13262492 0.010343836 -0.07940467 0.019331018
0.01613691 -0.09387567 -0.009136943 -0.033703152 0.009239885 0.025985705 0.084072016 -0.030601481
0.08818914 0.0032815184 -0.1647584 -0.10858195 0.08279369 0.028396402 -0.14202578 0.0712475
-0.1287664 0.20237298 0.17122889 0.018095214 -0.06897195 -0.062275846 -0.023090594 0.052502047
-0.057911124 0.028442996 -0.026325265 -0.001233139 0.08545352 0.04319908 -0.08451543 -0.0087623475
-0.027475383 0.10080649 0.021211505 -0.02568168 0.17236479 0.13505319 -0.018638857 -0.04377664
0.07483292 -0.092069894 0.0392039 0.049216494 0.12365041 -0.10431095 -0.15114744 0.06647554
0.093107164 0.1467524 0.084141605 0.0062669353 0.14431572 0.01861663 -0.077873215 0.16439265
0.09959705 -0.04538348 0.0842051 0.14445364 -0.05226037 0.056037944 0.06169798 0.031090636
-0.009691843 -0.041001935 -0.029828772 -0.10119323 0.04265025 0.088473395 -0.0027417606 0.008436956
0.07549343 0.12620686 -0.012440023 -0.03670775 -0.13257483 0.10947856 -0.08738583 0.028867776
-0.17543957 -0.05280501 0.006223282 -0.011178425 -0.04748696 -0.084069476 -0.08109747 0.05029285
-0.11737667 -0.05338549 -0.08081475 0.19905695 0.1182819 0.06271223 0.048949454 0.044611678
-0.10681557 -0.01791068 0.02349268 0.06660016 -0.060127895 0.05771185 -0.047569387 0.093456954
0.027030425 0.030624375 -0.04161247 -0.10247408 0.042785466 -0.054892663 -0.09666315 0.15996373
0.10958774 0.04383011 0.18676794 -0.05524104 0.0520369 -0.042149115 0.10754915 0.05991127
0.06901544 0.024314068 0.040195275 0.041260608 -0.03535015 0.07739338 -0.028916562 -0.012566467
0.14094423 -0.011888978 -0.06505062 -0.025428398 0.04762571 -0.062043104 0.037836354 -0.1961945
-0.048121434 0.05168519 0.032140873 -0.13835043 0.045252047 -0.005566848 0.09844125 -0.021399096
-0.013283003 -0.015114656 -0.090475425 0.14182281 0.075102955 0.026349613 0.005198388 -0.044453245
-0.029870322 0.010487355 0.072325155 -0.004571936 -0.04173899 -0.028621338 0.08225063 0.13027263
-0.09471617 -0.045694556 0.057312142 0.116017446 -0.13366722 0.09435948 0.047654603 0.05672355
0.121439986 -0.04140907 0.1042389 0.058252558 -0.044829264 0.12596714 -0.014562669 -0.017522462
0.009061362 0.072646484 -0.0022383002 0.06241786 0.10019337 -0.08549678 -0.06810668 -0.042229164
-0.13793655 0.05580128 0.11545159 -0.072626226 0.021763457 -0.12499874 0.10593139 0.08513086
0.07820773 -0.07203036 0.05879445 -0.060165215 -0.16401276 -0.050919175 -0.24299827 0.1065695
-0.022719441 0.02056616 0.047481738 -0.08459429 -0.13628301 0.1047842 0.01809266 0.0127626145
0.012394784 -0.075177595 -0.07230945 0.11483291 0.007335721 0.058275457 0.0023549686 0.11202379
00000000: 3526 283b 475f 20bc a987 27bd 6010 f93d
00000010: 41d9 c2bd 54dc 593d d0db b6bd fc8c b43d
00000020: 1335 193e 5beb 9ebd b225 d93d 63af f03d
00000030: 62bf 52bb 7245 0d3d f26e e83c fc55 e4bc
00000040: d344 383e 00ac 173e b570 52bd 92f4 af3d
00000050: fc13 9abc dfbf 01be 526a 8a3d 2db2 a93c
00000060: 3e4e 22bd 820a e83d 25da 1fbc e30e 9cbd
00000070: 83e8 4ebd e077 89bd 4be6 c33d 1388 413c
00000080: 8c76 b2bd 634d 5e3e 94af 9f3d 563d cf3a
00000090: d4ce 07be 3179 293c ea9e a2bd 155c 9e3c
000000a0: 8e31 843c e341 c0bd 1eb3 15bc 510c 0abd
000000b0: e362 173c f9df d43c f32d ac3d f5af fabc
000000c0: 829c b43d be0e 573b 6db6 28be 3760 debd
000000d0: bd8f a93d 929f e83c 356f 11be 36ea 913d
000000e0: 57db 03be dd3a 4f3e a056 2f3e 6a3c 943c
000000f0: 2a41 8dbd f514 7fbd 7c28 bdbc 630c 573d
00000100: 3734 6dbd 4901 e93c 15a8 d7bc 47a1 a1ba
00000110: 4102 af3d 85f1 303d 6d16 adbd f38f 0fbc
00000120: 0e14 e1bc a273 ce3d c0c3 ad3c 6362 d2bc
00000130: 6580 303e 624b 0a3e 84b0 98bc 224f 33bd
00000140: 0142 993d 248f bcbd 4594 203d 3c97 493d
00000150: 6d3c fd3d fba0 d5bd 65c6 1abe 5424 883d
00000160: f8ae be3d 4346 163e 6f52 ac3d dd5a cd3b
00000170: 80c7 133e e781 983c fe7b 9fbd 8c56 283e
00000180: 8af9 cb3d 07e4 39bd b973 ac3d a8eb 133e
00000190: f80e 56bd 0b88 653d 05b7 7c3d cab1 fe3c
000001a0: 89ca 1ebc a5f1 27bd 785b f4bc 653e cfbd
000001b0: 07b2 2e3d 8a31 b53d 1caf 33bb 293b 0a3c
000001c0: 4d9c 9a3d 5f3c 013e 3dd1 4bbc de5a 16bd
000001d0: b2c1 07be 4c36 e03d 58f7 b2bd 1d7c ec3c
000001e0: 6ea6 33be 114a 58bd acec cb3b b625 37bc
000001f0: b081 42bd 9e2c acbd 6e16 a6bd e0ff 4d3d
00000200: 2e63 f0bd beaa 5abd 3482 a5bd 96d5 4b3e
00000210: c83d f23d 456f 803d 397f 483d bcba 363d
00000220: 1fc2 dabd 6bb9 92bc b973 c03c aa65 883d
00000230: ab48 76bd 4363 6c3d 1ed8 42bd 5c66 bf3d
00000240: e96e dd3c f8df fa3c d671 2abd eedd d1bd
00000250: d03f 2f3d 21d7 60bd 54f7 c5bd 88cd 233e
00000260: 896f e03d 3487 333d 1840 3f3e 6e44 62bd
00000270: a524 553d 8da4 2cbd bb42 dc3d 8565 753d
00000280: f857 8d3d 4c2e c73c cda3 243d e200 293d
00000290: 52cb 10bd 6c80 9e3d 6de2 ecbc 95e3 4dbc
000002a0: af53 103e fdc9 42bc 4239 85bd 374f d0bc
000002b0: 2d13 433d e920 7ebd 4bfa 1a3d 36e7 48be
000002c0: fb1a 45bd dab3 533d 26a6 033d bcab 0dbe
000002d0: 365a 393d 1b6a b6bb 919b c93d 284d afbc
000002e0: f4a0 59bc 76a3 77bc 2e4b b9bd 003a 113e
000002f0: 94cf 993d 25db d73c 3d57 aa3b 9b14 36bd
00000300: 9bb2 f4bc 28d3 2b3c 361f 943d 2ed0 95bb
00000310: 81f6 2abd 4c77 eabc 0573 a83d 3066 053e
00000320: 8dfa c1bd 372a 3bbd 23c0 6a3d 8e9a ed3d
00000330: 0fe0 08be 8b3f c13d 7931 433d f456 683d
00000340: 87b5 f83d 8f9c 29bd 347b d53d 3c9a 6e3d
00000350: e49e 37bd 88fd 003e 4398 6ebc 448b 8fbc
00000360: 1b76 143c aec7 943d 72b0 12bb dfa9 7f3d
00000370: 2e32 cd3d f018 afbd 847b 8bbd 7df8 2cbd
00000380: 3d3f 0dbe e28f 643d e271 ec3d 0fbd 94bd
00000390: 4749 b23c 57ff ffbd 8ef2 d83d 1759 ae3d
000003a0: 602b a03d a784 93bd 73d2 703d cd6f 76bd
000003b0: f6f2 27be a090 50bd 8ad4 78be 1c41 da3d
000003c0: 1f1e babc 5d7a a83c 367c 423d c53f adbd
000003d0: c68d 0bbe 1999 d63d 0f37 943c 491a 513c
000003e0: 7e13 4b3c b6f6 99bd fa16 94bd 842d eb3d
000003f0: 7d60 f03b 3fb2 6e3d d155 1a3b bb6c e53d

shared2.bias f4 [200]
0.041535553 0.035780217 0.006737143 -0.051714208 0.037112582 -0.0021222571 0.013351699 -0.032968786
0.040394176 0.10550524 -0.06348926 -0.06972876 -0.0668025 0.016212523 -0.000507588 -0.025063336
-0.06990805 0.045047972 -0.013288701 -0.06907866 -0.005915667 -0.10093428 -0.10615746 0.016214233
-0.0351639 -0.013075742 -0.005977242 0.07678452 -0.08273119 -0.07452034 0.058747876 -0.028144391
0.027818343 -0.017096756 0.003502293 0.030901784 -0.03777527 -0.075576305 -0.06278789 0.052605107
-0.061608013 -0.09723839 0.016680168 -0.028291745 -0.012182432 -0.10129677 -0.028298682 -0.0102523435
-0.060545843 0.016749201 0.04174867 0.0015429853 -0.018762097 -0.0027574992 -0.02538662 -0.059864867
-0.083172604 0.011571715 -0.047775768 -0.043272294 -0.07031757 -0.064687885 -0.10559845 -0.00852202
-0.0674327 -0.10843445 -0.071044356 0.023972405 -0.110202864 -0.10271589 0.055024303 -0.030236717
0.034493633 -0.0019001064 -0.038141694 -0.00077829283 -0.013949122 -0.019887347 -0.072360754 0.04952744
0.03656439 -0.023721684 -0.0801127 -0.006114119 -0.0912618 -0.007555708 0.055384774 -0.0057538263
-0.0053836135 -0.02969035 0.010816442 -0.082566164 -0.04221293 -0.045474686 -0.042566 0.045620598
0.0415351 -0.062699966 0.012368813 -0.02682632 -0.09663611 -0.06508455 -0.006782732 0.02485351
0.089993685 -0.07750295 0.019181594 -0.07340247 -0.036300782 -0.046505112 -0.06046317 -0.042085454
0.025281481 -0.05976685 -0.035357997 -0.045716986 -0.07066528 -0.008875865 0.061886437 -0.009807662
-0.0797218 0.103304274 -0.024774674 -0.0018010024 0.017023077 0.025823122 -0.016455341 -0.0693086
-0.04978502 -0.081356004 -0.04328491 0.03658844 -0.026604448 0.059247 -0.011709173 -0.010402962
-0.08887227 -0.0070332163 -0.00034081686 0.014270316 0.0926851 0.008613489 -0.011435992 0.00082527124
0.058343425 0.02778492 0.05556558 -0.03928733 -0.029925121 0.0014999305 -0.028178869 -0.09276431
0.07702411 -0.053890068 -0.017229605 0.09222022 -0.006679067 -0.14232843 0.044651892 -0.062018134
-0.06410988 -0.062344473 0.035753336 -0.060856517 -0.049970265 0.0027926743 -0.04919664 -0.036992807
0.018573932 -0.023136135 -0.025610516 -0.08895469 0.030403825 -0.06900278 -0.011530751 -0.16877292
-0.008105133 -0.003541696 0.04255463 0.08696697 -0.025456857 -0.04479401 -0.01596734 -0.020403773
0.038143553 3.4062563e-05 -0.05528824 -0.0028763334 0.066197574 0.017597863 -0.069773935 -0.04378178
0.052649908 0.004420447 0.03482064 -0.016999645 -0.035921436 -0.010100444 -0.042246997 -0.047744364
00000000: 2f21 2a3d 478e 123d 40c3 dc3b 47d2 53bd
00000010: 5d03 183d 9115 0bbb 16c1 5a3c 470a 07bd
00000020: 5d74 253d 2213 d83d a806 82bd f4cd 8ebd
00000030: c0cf 88bd 20d0 843c a70f 05ba a051 cdbc
00000040: f42b 8fbd 3984 383d dab8 59bc 1d79 8dbd
00000050: 36d8 c1bb a2b6 cebd 1569 d9bd b6d3 843c
00000060: 0608 10bd a33b 56bc bddc c3bb 3441 9d3d
00000070: f86e a9bd 1f9e 98bd 9da1 703d 118f e6bc
00000080: 4be3 e33c 7f0e 8cbc ba86 653b bd25 fd3c
00000090: 3eba 1abd c0c7 9abd f096 80bd 7478 573d
000000a0: af58 7cbd ec24 c7bd d9a4 883c 17c4 e7bc
000000b0: d398 47bc ae74 cfbd a3d2 e7bc 72f9 27bc
000000c0: ebfe 77bd 9f35 893c a700 2b3d ff3d ca3a
000000d0: f8b2 99bc 29b7 34bb 9af7 cfbc dd34 75bd
000000e0: 6656 aabd 4a97 3d3c 86b0 43bd 4a3e 31bd
000000f0: a802 90bd 157b 84bd 0044 d8bd f19f 0bbc
00000100: 281a 8abd e212 debd b47f 91bd c761 c43c
00000110: 0ab2 e1bd b55c d2bd 2a61 613d feb2 f7bc
00000120: 3249 0d3d fe0c f9ba 773a 1cbd 5906 4cba
00000130: dc8a 64bc caea a2bc e031 94bd 49dd 4a3d
00000140: 8bc4 153d fa53 c2bc 2112 a4bd f358 c8bb
00000150: 77e7 babd df95 f7bb 25db 623d 988a bcbb
00000160: 0669 b0bb 2d39 f3bc 7237 313c 7318 a9bd
00000170: 77e7 2cbd aa43 3abd b059 2ebd aadc 3a3d
00000180: b620 2a3d d768 80bd 90a6 4a3c dfc2 dbbc
00000190: 27e9 c5bd 0c4b 85bd ae41 debb 9799 cb3c
000001a0: 9c4e b83d deb9 9ebd b822 9d3c 0954 96bd
000001b0: 21b0 14bd 257c 3ebd 3ba8 77bd cc61 2cbd
000001c0: 1c1b cf3c 16ce 74bd 8cd3 10bd bc41 3bbd
000001d0: f5b8 90bd 136c 11bc a27c 7d3d 51b0 20bc
000001e0: 2f45 a3bd 3191 d33d 42f4 cabc 9d0f ecba
000001f0: fb73 8b3c 038b d33c 5acd 86bc abf1 8dbd
00000200: 61eb 4bbd fa9d a6bd 854b 31bd c3dd 153d
00000210: 92f1 d9bc fbac 723d d5d7 3fbc 2f71 2abc
00000220: aa02 b6bd e576 e6bb aaaf b2b9 0bce 693c
00000230: b0d1 bd3d 971f 0d3c 075e 3bbc 0457 583a
00000240: 84f9 6e3d 339d e33c bc98 633d c0eb 20bd
00000250: 8725 f5bc 5199 c43a 5fd7 e6bc 37fb bdbd
00000260: d1be 9d3d d5bb 5cbd 1a25 8dbc f4dd bc3d
00000270: 13dc dabb 8bbe 11be e7e4 363d ba06 7ebd
00000280: 0a4c 83bd eb5c 7fbd 1772 123d af44 79bd
00000290: 9fad 4cbd 4d05 373b 6a82 49bd c585 17bd
000002a0: 5c28 983c fe87 bdbc 25cd d1bc e02d b6bd
000002b0: 7111 f93c 5451 8dbd 7aeb 3cbc cfd2 2cbe
000002c0: 64cb 04bc cc1b 68bb c44d 2e3d bd1b b23d
000002d0: e68a d0bc ed79 37bd f0cd 82bc d025 a7bc
000002e0: 6a3c 1c3d 66de 0e38 ec75 62bd de80 3cbb
000002f0: 9892 873d 6529 903c a3e5 8ebd 8654 33bd
00000300: 6ea7 573d 66d9 903b 16a0 0e3d d742 8bbc
00000310: 5b22 13bd 557c 25bc 300b 2dbd 988f 43bd

hidden1_Y1.weight f4 [200, 200]
0.00031371758 0.11101384 0.025383754 0.05306034 0.09193614 -0.08933587 0.10014514 -0.035769552
-0.052012105 0.030589862 0.004153037 -0.010816514 -0.039682996 0.028746774 0.0020926776 -0.037362285
-0.06290501 0.09866006 -0.009508665 0.0745752 0.11452755 -0.07728514 0.030650672 -0.024214875
0.10035883 -0.0052272356 0.048196044 -0.1117491 -0.08119857 0.002904673 -0.024417505 0.047643688
-0.08338424 0.034702715 0.11874734 0.07192806 -0.060294278 0.05634742 0.14614308 0.096373826
0.08606452 0.08110053 0.06986094 -0.07154492 -0.002802386 -0.0014861444 -0.032559447 -0.010293631
0.041357964 0.09851458 -0.07889091 0.08887251 0.08465349 0.051657036 0.0974806 -0.041528884
0.013268059 0.11762479 0.021729978 0.016048979 -0.10439095 -0.016646529 0.03860474 0.10470808
0.04731163 -0.022975788 -0.042496614 0.0073834 -0.0052639144 -0.10691254 -0.067000285 0.093096554
0.12495411 -0.05742922 -0.105490565 -0.061512932 -0.098513864 -0.08738262 0.08310159 0.07086302
-0.099691965 0.09606861 0.10903219 0.08993439 0.03470296 -0.046777222 -0.046482705 -0.057108257
0.11855138 -0.0807073 0.05666214 -0.007793637 0.043841828 0.10867705 -0.025968134 0.010019251
0.12369797 -0.058220036 -0.05693961 0.06067091 0.072945796 0.02512888 0.04979818 0.119148664
0.007388757 -0.04477472 0.07595212 -0.10975252 0.12141032 0.1385535 -0.018787788 -0.03051047
-0.01918268 0.10253043 -0.0017557472 0.057740714 0.064749435 0.08745153 0.07355084 0.121079154
0.07673535 0.05108026 -0.0034163692 0.11774487 -0.084403716 0.15362188 -0.11930409 -0.090027906
-0.0747876 0.04776787 0.057245214 0.0030747293 -0.083003886 0.08866069 -0.09381002 -0.03912921
0.076752685 0.104825266 0.103282236 -0.090616964 -0.07825865 0.11080088 -0.024805356 0.038758844
0.10117537 0.019003594 0.093558416 0.031463902 -0.03220337 -0.03343412 0.06945956 0.028435968
0.02505096 -0.044885673 -0.075182505 -0.07419742 0.0111412145 0.0026184556 -0.020833785 0.067611
0.08860852 0.038175497 0.0419332 0.0932308 -0.078725584 -0.070540614 0.13893978 -0.021977883
0.016765825 -0.027890895 -0.12399602 0.1279497 -0.06296643 -0.020758374 0.038095616 0.0645781
-0.08771722 0.08822449 0.028043024 -0.04160838 -0.036471196 0.12494244 0.13406502 0.013437984
0.05661586 0.06424937 -0.057126336 -0.04252556 0.024371872 -0.066591345 0.041588984 -0.028874537
0.07361668 0.051457286 0.018041765 0.07464245 -0.06247146 0.059158593 0.10283626 -0.09711004
0.08823603 0.029723303 -0.09087338 -0.014904464 -0.103922375 0.101880796 0.08987507 -0.10572294
-0.10269042 -0.045309156 0.12689322 -0.10378561 0.06766139 -0.10265359 0.016234389 -0.017718589
0.039153263 -0.021363616 -0.08414424 0.13034524 0.040284924 0.1066538 0.027143754 -0.079954214
0.108436756 0.09326052 -0.110074066 0.12460762 -0.021360738 -0.106743164 -0.008123449 0.05359031
0.097041726 -0.07534853 0.0014305176 0.10806243 -0.011249377 -0.013002258 0.051748924 0.018942563
0.03695895 0.040043827 -0.12085981 0.11679617 -0.07780339 0.0042921077 0.094660774 0.029719315
0.038165342 -0.09585139 -0.057031456 0.06383284 0.11547034 0.069601685 -0.068070896 0.004948169
00000000: 767a a439 395b e33d 97f1 cf3c cd55 593d
00000010: 0449 bc3d baf5 b6bd e518 cd3d 1883 12bd
00000020: a50a 55bd 9797 fa3c 3316 883b bf37 31bc
00000030: a38a 22bd 5b7e eb3c 4e25 093b 3209 19bd
00000040: 58d4 80bd 490e ca3d 3bca 1bbc e2ba 983d
00000050: 6c8d ea3d ac47 9ebd 1e17 fb3c 465e c6bc
00000060: ee88 cd3d 3b49 abbb 3769 453d b6dc e4bd
00000070: 704b a6bd 545c 3e3b 3807 c8bc 0726 433d
00000080: 5bc5 aabd 6f24 0e3d ce31 f33d 054f 933d
00000090: 22f7 76bd 8dcc 663d 88a6 153e a45f c53d
000000a0: 9842 b03d 0918 a63d 4113 8f3d 2586 92bd
000000b0: 3ca8 37bb bbca c2ba 0e5d 05bd 9ea6 28bc
000000c0: f866 293d 03c2 c93d 8f91 a1bd ca02 b63d
000000d0: cf5e ad3d 5496 533d e9a3 c73d 311a 2abd
000000e0: 4662 593c 44e5 f03d 1103 b23c 2679 833c
000000f0: ecca d5bd 4d5e 88bc 0120 1e3d 3171 d63d
00000100: d7c9 413d b837 bcbc ee10 2ebd 73f0 f13b
00000110: ea7c acbb f6f4 dabd 7237 89bd 68a9 be3d
00000120: f1e7 ff3d e73a 6bbd 700b d8bd fcf4 7bbd
00000130: a3c1 c9bd a9f5 b2bd 2b31 aa3d a220 913d
00000140: 4d2b ccbd 9fbf c43d 454c df3d 852f b83d
00000150: b124 0e3d 7999 3fbd a664 3ebd 59ea 69bd
00000160: 11cb f23d de49 a5bd 8f16 683d c461 ffbb
00000170: 7d93 333d 1392 de3d 20bb d4bc c927 243c
00000180: 5c55 fd3d 2278 6ebd 8239 69bd 0f82 783d
00000190: 9b64 953d 15db cd3c 2df9 4b3d 3704 f43d
000001a0: 631d f23b b265 37bd c98c 9b3d eec5 e0bd
000001b0: f9a5 f83d f8e0 0d3e d9e8 99bc 18f1 f9bc
000001c0: ff24 9dbc 79fb d13d 1a21 e6ba 8781 6c3d
000001d0: 5a9b 843d ca19 b33d d3a1 963d 59f8 f73d
000001e0: 6c27 9d3d 8939 513d 2ae5 5fbb 3924 f13d
000001f0: dbdb acbd 0e4f 1d3e b455 f4bd 8d60 b8bd
00000200: 3e2a 99bd 3ea8 433d f579 6a3d 6681 493b
00000210: f1fd a9bd bc93 b53d 781f c0bd f345 20bd
00000220: 8330 9d3d a1ae d63d a385 d33d 6395 b9bd
00000230: 1246 a0bd 92eb e23d 9a34 cbbc 98c1 1e3d
00000240: 0835 cf3d 6dad 9b3c 8e9b bf3d 4be0 003d
00000250: aee7 03bd 37f2 08bd d040 8e3d 8cf2 e83c
00000260: ac37 cd3c 0ada 37bd 49f9 99bd d1f4 97bd
00000270: a489 363c 659a 2b3b 9dab aabc a377 8a3d
00000280: 6278 b53d e95d 1c3d 26c2 2b3d caef be3d
00000290: e13a a1bd 9977 90bd 3b46 0e3e f60a b4bc
000002a0: 7c58 893c 727b e4bc a0f1 fdbd 3f05 033e
000002b0: 8bf4 80bd 770d aabc 260a 1c3d 8641 843d
000002c0: 16a5 b3bd 0baf b43d 7cba e53c 8c6d 2abd
000002d0: d262 15bd d2e1 ff3d 5748 093e fd2a 5c3c
000002e0: 08e6 673d 2c95 833d 4efd 69bd 482f 2ebd
000002f0: 85a7 c73c 0b61 88bd 3659 2a3d 4b8a ecbc
00000300: 58c4 963d e0c4 523d 53cc 933c 24de 983d
00000310: 13e2 7fbd 4850 723d d19b d23d a1e1 c6bd
00000320: 17b5 b43d 497e f33c d31b babd da31 74bc
00000330: 41d5 d4bd e1a6 d03d 6c10 b83d 4585 d8bd
00000340: 5b4f d2bd 1896 39bd 4cf0 013e 8d8d d4bd
00000350: 0e92 8a3d 0c3c d2bd fbfd 843c 9326 91bc
00000360: 2c5f 203d c002 afbc d153 acbd 3979 053e
00000370: ce01 253d 4f6d da3d 945c de3c 09bf a3bd
00000380: 1714 de3d 5fff be3d 836e e1bd 4832 ff3d
00000390: b7fc aebc 299c dabd 3718 05bc 8381 5b3d
000003a0: d0bd c63d 5550 9abd 3580 bb3a d64f dd3d
000003b0: 4f4f 38bc 6c07 55bc aef6 533d 6f2d 9b3c
000003c0: 4562 173d ff04 243d 5985 f7bd d532 ef3d
000003d0: 6257 9fbd cfa4 8c3b 82dd c13d ec75 f33c
000003e0: 4353 1c3d bc4d c4bd d199 69bd cbba 823d
000003f0: b77b ec3d 548b 8e3d c168 8bbd 4024 a23b

hidden1_Y1.bias f4 [200]
-0.003659979 0.020972699 -0.007921383 0.023456685 -0.0084491465 -0.06720029 0.056749597 -0.042601526
-0.04964285 0.0028090007 -0.021042079 0.041050423 0.003082389 0.07072816 -0.065425135 -0.056428574
0.047672242 0.031655673 -0.012660845 0.03273235 0.06680133 0.023278326 -0.07344901 -0.01898117
-0.004965827 -0.067517444 -0.061972048 0.024104837 -0.028064743 -0.015224723 -0.022653492 -0.007866667
0.013584012 -0.059544634 -0.03413401 0.06465666 -0.00909627 0.014315338 0.051923048 0.04073881
-0.015539544 0.05835677 -0.01743811 0.04282461 0.034124315 -0.016839175 -0.0147239985 0.036486115
0.062253363 -0.0038110015 -0.037520062 0.049526677 -0.040114075 0.006444188 0.039237924 -0.05038821
-0.05443313 -0.050504196 -0.058872998 0.04703658 -0.046541136 0.017493146 -0.031611092 -0.02174061
-0.03446812 -0.02265854 -0.014135314 -0.034555126 -0.029299486 -0.040059675 0.01976105 -0.044840697
0.0547632 -0.050497834 -0.039831743 0.010194648 -0.004497298 -0.049414534 0.05822723 -0.03246817
0.056653894 0.015220253 0.021742972 0.0051876404 0.066005245 -0.05662432 -0.049346052 0.07262972
0.0017478147 -0.0023776516 -0.033432607 0.004263173 -0.075836346 0.0031080437 0.08254883 0.014868917
0.076296635 -0.011936615 0.05365475 0.06019249 0.0046728384 -0.0031344178 -0.05124385 0.05867398
-0.017758124 -0.00661392 -0.048624992 0.0409279 -0.029058503 -0.045906935 0.03187183 0.056544922
0.06189658 0.016870463 -0.03878272 -0.02256932 -0.05673707 0.032824323 0.0034402162 0.036647074
-0.026808912 -0.0016581392 0.0014331068 0.02582931 -0.040049355 0.013055506 -0.026712527 0.018876826
-0.079788275 -0.06501448 0.011256161 -0.0049596825 0.0026418215 -0.019350046 0.054068405 0.046246927
-0.019740392 0.029950628 0.032664247 -0.0531318 -0.059546337 -0.05674339 0.0033439877 0.010421425
0.017715147 -0.050413076 -0.025710262 -0.016500065 -0.026278932 -0.038705405 0.03399982 0.06170061
0.009904328 -0.051077303 -0.006327783 0.032690864 0.0038744414 0.03727563 -0.051622268 -0.012617243
0.030011626 0.039906133 -0.010462944 0.021538302 0.05783368 0.059037816 0.034141317 0.04968099
0.05437225 0.010149937 -0.0109080635 -0.017958622 -0.06334508 0.039150186 -0.015498946 -0.0064155296
-0.032124043 -0.03529099 -0.010401904 0.06354381 -0.04630896 0.051384155 0.047317527 0.059969008
0.009951829 -0.013239316 -0.05035331 0.053164106 -0.051068068 -0.009343702 -0.017070077 0.01602246
-0.037816998 -0.040501013 0.007402505 0.07554447 -0.011886369 0.0552631 0.005109674 -0.025519026
00000000: 42dc 6fbb f0ce ab3c b0c8 01bc 3c28 c03c
00000010: 4a6e 0abc 4ea0 89bd 4472 683d f07e 2ebd
00000020: 4d56 4bbd 3617 383b 7060 acbc 7d24 283d
00000030: e801 4a3b edd9 903d 9dfd 85bd a621 67bd
00000040: f843 433d 61a9 013d 6f6f 4fbc 5b12 063d
00000050: 23cf 883d 30b2 be3c 6f6c 96bd 667e 9bbc
00000060: 60b8 a2bb 9646 8abd 67d6 7dbd 8277 c53c
00000070: 08e8 e5bc 1e71 79bc d193 b9bc 31e3 00bc
00000080: 7a8f 5e3c 13e5 73bd 1bd0 0bbd b66a 843d
00000090: 8608 15bc e18a 6a3c 43ad 543d bddd 263d
000000a0: 9299 7ebc 8207 6f3d 5eda 8ebc dc68 2f3d
000000b0: f0c5 0b3d 4ff2 89bc ed3c 71bc 7772 153d
000000c0: 62fd 7e3d ffc1 79bb a3ae 19bd 7cdc 4a3d
000000d0: a84e 24bd c429 d33b f2b7 203d de63 4ebd
000000e0: 46f5 5ebd 7ddd 4ebd d024 71bd 6ea9 403d
000000f0: eba1 3ebd c94d 8f3c a27a 01bd 5d19 b2bc
00000100: 722e 0dbd 679e b9bc ce97 67bc ad89 0dbd
00000110: 7a05 f0bc 9d15 24bd ede1 a13c e1aa 37bd
00000120: 614f 603d d1d6 4ebd 9c26 23bd 7407 273c
00000130: 125e 93bb e566 4abd ad7f 6e3d 58fd 04bd
00000140: ea0d 683d 5e5e 793c 511e b23c 15fd a93b
00000150: c22d 873d e7ee 67bd 161f 4abd e4be 943d
00000160: ee16 e53a 60d2 1bbb a1f0 08bd 16b2 8b3b
00000170: 1650 9bbd 52b0 4b3b 5c0f a93d c29c 733c
00000180: 6941 9c3d cb91 43bc 15c5 5b3d 678c 763d
00000190: 9c1e 993b ce6a 4dbb 12e5 51bd 2154 703d
000001a0: 7c79 91bc 95b9 d8bb 002b 47bd 03a4 273d
000001b0: 190c eebc e908 3cbd 098c 023d a69b 673d
000001c0: 4587 7d3d ed33 8a3c a1da 1ebd 4be3 b8bc
000001d0: 2165 68bd cc72 063d 4075 613b 3e1b 163d
000001e0: 5d9e dbbc eb55 d9ba 16d7 bb3a fd97 d33c
000001f0: cb0a 24bd c3e6 553c 3bd4 dabc 93a3 9a3c
00000200: 0968 a3bd 5026 85bd c36b 383c d584 a2bb
00000210: 6922 2d3b fd83 9ebc d576 5d3d 6b6d 3d3d
00000220: 9ab6 a1bc 055b f53c f2ca 053d bba0 59bd
00000230: dce6 73bd c26b 68bd ce26 5b3b a0be 2a3c
00000240: 5b1f 913c f17d 4ebd 549e d2bc 252b 87bc
00000250: ea46 d7bc 8f89 1ebd 6543 0b3d c7b9 7c3d
00000260: c345 223c 6f36 51bd 4b59 cfbb dbe6 053d
00000270: 57ea 7d3b 55ae 183d df71 53bd 8eb8 4ebc
00000280: f1da f53c 9d74 233d c56c 2bbc 1871 b03c
00000290: 02e3 6c3d a3d1 713d c4d7 0b3d 4b7e 4b3d
000002a0: 70b5 5e3d ec4b 263c bcb7 32bc f61d 93bc
000002b0: 11bb 81bd f25b 203d 4bef 7dbc 5d39 d2bb
000002c0: 8094 03bd 498d 10bd bf6c 2abc 4223 823d
000002d0: 77ae 3dbd 3178 523d 06d0 413d 10a2 753d
000002e0: ff0c 233c b7e9 58bc 463f 4ebd 9bc2 593d
000002f0: c02c 51bd 5416 19bc 8cd6 8bbc 8941 833c
00000300: ffe5 1abd 64e4 25bd b690 f23b 0fb7 9a3d
00000310: 0cbf 42bc 8f5b 623d 0d6f a73b 470d d1bc

hidden2_Y1.weight f4 [200, 200]
0.046383694 0.04676432 -0.02903629 -0.07728703 0.055567738 -0.017916802 -0.065012984 0.14600673
-0.03151466 -0.052669734 -0.03093119 0.017092591 -0.036718156 0.002713062 0.08139535 0.13496695
0.04734689 0.0841412 0.028183289 0.07640162 0.09252533 -0.0377408 -0.092765786 0.05078872
-0.107914224 -0.0036815305 0.037494138 -0.036640823 0.10191478 0.0046931407 -0.059326053 0.013673841
0.116685174 -0.07696483 -0.10448221 -0.01164617 0.015427392 0.12365006 -0.08355588 -0.028477717
0.024108475 0.08511675 -0.09342697 0.063219935 -0.026724443 0.03139827 0.014376644 0.06606804
0.06453565 0.10668416 -0.032044817 0.008139746 0.13155144 -0.043692768 -0.058321636 0.10566493
0.09420477 -0.04084963 0.020630632 -6.063617e-05 0.06549723 -0.112281874 -0.10705065 -0.018506974
0.09329398 -0.058307707 0.05971834 -0.08636092 -0.037701923 0.08864218 0.03234476 -0.017091522
-0.1190728 -0.0015546437 -0.014070893 0.1326569 0.053645216 -0.11421747 -0.019774014 0.07221372
0.030601736 0.14589544 0.12543915 0.047213823 -0.075756945 -0.09697282 0.074072555 0.047954656
0.09155373 -0.033970937 -0.026476463 -0.036670227 -0.03514641 0.06695961 -0.11959582 -0.06558372
0.056748476 0.028453333 0.0975774 0.14812277 0.043861978 -0.043680195 0.020179046 -0.05023559
-0.009713355 0.0854388 -0.06762507 0.015070369 -0.07183202 0.060382046 -0.029919405 0.044097025
-0.0680404 0.018839488 0.008490192 -9.740646e-05 0.0034628704 -0.078759566 -0.059735246 -0.0793081
0.043394793 -0.080256395 0.089412935 -0.046262488 -0.021970935 0.020065624 -0.05082372 0.11874335
0.1255068 0.12594685 0.0668573 0.074939564 0.06435619 0.11615505 0.07494803 0.05225941
-0.07519085 0.02618024 0.081574455 0.055095963 -0.057804413 0.13071986 0.04690462 0.11053893
-0.05267048 -0.09982583 -0.016182076 -0.06492751 0.013905019 0.05386932 -0.04984188 -0.104899585
-0.013007483 0.12877536 -0.058005128 0.032612734 0.10887487 -0.08627086 0.060490914 -0.06608885
0.03063163 0.09235267 0.06861989 -0.120768376 -0.071276866 0.09510581 0.10834949 0.038872056
0.11259861 -0.09327587 0.12577729 -0.08389373 0.0414671 -0.09089107 0.13246438 0.113813505
-0.03566726 0.10221931 0.076113544 0.109721795 0.10219572 -0.025189754 0.04614255 -0.100195326
0.105473906 0.13228545 -0.048654217 -0.006589105 0.04106729 0.08943213 0.013367455 0.05918799
-0.08886196 0.118754625 0.01621922 0.11042449 -0.09922842 -0.018715784 0.055407412 0.07476286
-0.046587233 -0.051859308 0.08975376 -0.090115085 -0.0045994404 0.022261893 0.0059019867 0.005860928
0.009596706 -0.01822371 -0.09887865 -0.078039646 -0.049627516 -0.060204796 0.06627451 0.08606877
-0.10607058 -0.10510072 -0.09522608 0.03298616 -0.09752932 0.09752764 -0.041927453 0.07315451
0.10918083 -0.08861055 0.047103476 -0.059293367 -0.021478506 0.008931931 0.050320048 1.9686742e-05
0.08088188 -0.08448097 -0.089010276 -0.022265285 -0.035738066 0.042849775 0.031936694 0.090817854
0.024695998 -0.09798776 -0.08392066 0.06895431 -0.068953894 0.06349803 0.11584713 -0.01835714
-0.10500412 0.111316204 -0.063819245 0.05662679 -0.052645 -0.06942789 0.09937509 0.0106665995
00000000: d4fc 3d3d f28b 3f3d 83dd edbc aa48 9ebd
00000010: ff9a 633d 42c6 92bc 8725 85bd ca82 153e
00000020: 8415 01bd 38bc 57bd 6863 fdbc c305 8c3c
00000030: c765 16bd a1cd 313b 9bb2 a63d c734 0a3e
00000040: d0ee 413d 3952 ac3d a4e0 e63c 7478 9c3d
00000050: ec7d bd3d 1996 1abd fdfb bdbd d507 503d
00000060: 2202 ddbd d545 71bb 7493 193d b014 16bd
00000070: b2b8 d03d ebc8 993b e0ff 72bd 3f08 603c
00000080: a3f8 ee3d bd9f 9dbd c5fa d5bd 94cf 3ebc
00000090: 2cc3 7c3c 3e3c fd3d 581f abbd 1a4a e9bc
000000a0: 237f c53c b151 ae3d a456 bfbd 7479 813d
000000b0: 38ed dabc 799b 003d 048c 6b3c ae4e 873d
000000c0: 442b 843d 3a7d da3d 6d41 03bd 925c 053c
000000d0: 6cb5 063e 30f7 32bd abe2 6ebd db66 d83d
000000e0: 6eee c03d f151 27bd 9201 a93c 9753 7eb8
000000f0: 6923 863d 0af4 e5bd 5f3d dbbd f09b 97bc
00000100: ea10 bf3d 10d4 6ebd 389b 743d fedd b0bd
00000110: 556d 1abd 088a b53d f07b 043d 8503 8cbc
00000120: 71dc f3bd 30c5 cbba 9a89 66bc 36d7 073e
00000130: 16bb 5b3d d9ea e9bd 1dfd a1bc c9e4 933d
00000140: 7eb0 fa3c 9d65 153e 1f73 003e 4863 413d
00000150: 7526 9bbd b099 c6bd 5ab3 973d 1a6c 443d
00000160: 8680 bb3d 1c25 0bbd 2be5 d8bc 8533 16bd
00000170: aff5 0fbd 1f22 893d a7ee f4bd c250 86bd
00000180: 1771 683d f716 e93c a9d6 c73d 7fad 173e
00000190: 9ea8 333d 01ea 32bd 874e a53c d6c3 4dbd
000001a0: c424 1fbc 8afa ae3d 037f 8abd b5e9 763c
000001b0: ab1c 93bd 2a53 773d 8a19 f5bc 159f 343d
000001c0: c458 8bbd 4555 9a3c 721a 0b3c b246 ccb8
000001d0: 53f1 623b b24c a1bd f2ac 74bd 496c a2bd
000001e0: bdbe 313d 775d a4bd 211e b73d bc7d 3dbd
000001f0: 64fc b3bc aa60 a43c 882c 50bd b72f f33d
00000200: db84 003e 36f8 003e 7bec 883d ea79 993d
00000210: 2ecd 833d b3e2 ed3d 5a7e 993d f70d 563d
00000220: a9fd 99bd f177 d63c 8210 a73d 4eac 613d
00000230: 52c4 6cbd 6ddb 053e 0f1f 403d 3c62 e23d
00000240: 00bd 57bd 7c71 ccbd 4690 84bc b7f8 84bd
00000250: e0d1 633c 13a6 5c3d 0027 4cbd 98d5 d6bd
00000260: 571d 55bc b0dd 033e c996 6dbd ee94 053d
00000270: caf9 de3d c7ae b0bd 52c5 773d 9759 87bd
00000280: 2fef fa3c 6623 bd3d 9688 8c3d 6955 f7bd
00000290: 9bf9 91bd d6c6 c23d 56e6 dd3d 4e38 1f3d
000002a0: 1a9a e63d 6b07 bfbd c3cb 003e 7ad0 abbd
000002b0: 68d9 293d 1925 babd bea4 073e 0e17 e93d
000002c0: d517 12bd 5c58 d13d 6be1 9b3d d2b5 e03d
000002d0: fd4b d13d be5a cebc f8ff 3c3d 3533 cdbd
000002e0: b402 d83d d675 073e a549 47bd 6be9 d7bb
000002f0: 2d36 283d 3128 b73d 2c03 5b3c 1b6f 723d
00000300: 42fd b5bd a035 f33d 2bde 843c 3c26 e23d
00000310: 4538 cbbd d851 99bc e2f2 623d 451d 993d
00000320: 41d2 3ebd 6d6a 54bd d2d0 b73d 428e b8bd
00000330: e7b6 96bb 935e b63c 7465 c13b 070d c03b
00000340: 813b 1d3c e449 95bc e480 cabd 40d3 9fbd
00000350: 3946 4bbd 4e99 76bd eeba 873d d344 b03d
00000360: 883b d9bd 0c3f d7bd e405 c3bd 7f1c 073d
00000370: 74bd c7bd 92bc c73d 1fbc 2bbd 08d2 953d
00000380: 339a df3d 7379 b5bd 93ef 403d 9add 72bd
00000390: b1f3 afbc 3c57 123c 651c 4e3d f524 a537
000003a0: 66a5 a53d 5c04 adbd 054b b6bd b065 b6bc
000003b0: 1462 12bd 3f83 2f3d 0dd0 023d b6fe b93d
000003c0: 434f ca3c cfad c8bd 98de abbd eb37 8d3d
000003d0: b337 8dbd 410b 823d 4341 ed3d b661 96bc
000003e0: 660c d7bd c0f9 e33d aab3 82bd 7ef1 673d
000003f0: 49a2 57bd 3630 8ebd 2b85 cb3d f6c2 2e3c

hidden2_Y1.bias f4 [200]
0.050400462 0.0304512 0.051170688 0.030344695 0.053912967 -0.021493843 -0.01435255 0.025606148
0.057743806 -0.03261727 -0.009319312 -0.024817681 0.0005466367 0.047687307 0.004297998 -0.023349347
-0.02943326 -0.08222985 0.01061312 0.0212385 -0.019386316 -0.015380137 0.055510093 -0.038231008
-0.06943819 0.04522006 0.018205022 -0.055149198 0.048203856 -0.07028138 -0.009855719 -0.045841552
-0.05915694 0.013597697 0.07124839 -0.07292323 0.06903938 -0.07461259 0.03837462 0.017527089
-0.030519223 0.05181945 0.05072243 0.029049937 -0.064941086 0.026880598 -0.014608038 0.04681759
0.007821009 0.01606507 0.0026898608 -0.053762827 -0.0426589 -0.02985147 -0.020427587 0.06143536
0.06648623 -0.0043044114 -0.028225716 -0.059528172 0.04781006 -0.06301092 -0.072528005 -0.0061283885
0.012557004 -0.017861396 -0.062084705 -0.06784736 -0.04164854 -0.042735633 0.04808709 0.0032956474
0.06457293 -0.02022764 -0.050202016 0.009378569 0.04092069 -0.026060278 -0.049189378 -0.033329934
0.01390954 0.038830817 0.0013297066 -0.005213571 -0.015401588 0.036209047 -0.040552802 -0.024062298
-0.060193237 -0.043561466 0.04060435 -0.013500051 0.009293721 -0.02993203 0.007864601 -0.032517217
-0.050830714 -0.0130183725 0.06455967 0.012314648 -0.035302937 0.04345222 -0.030962946 0.007968593
0.02705827 -0.046099663 -0.055911206 0.06379069 -0.07200725 -0.033282228 -0.036435306 -0.0065808245
-0.05712676 -0.0043201726 -0.041220117 0.052338384 0.045203056 0.060071506 -0.054864988 0.026226483
0.022848893 0.0060548047 0.035566438 0.032680742 -0.01892381 0.017213263 0.06063431 0.032049622
-0.023299124 0.062720716 0.0155891115 -0.024084909 0.062242642 0.04514435 -0.059983436 -0.020640241
-0.03536426 -0.038451508 0.052818887 0.0021912903 -0.067841575 -0.024356345 -0.058588147 8.376521e-05
0.06175017 0.04044536 0.02316226 0.033765145 0.058122832 -0.004632292 -0.05310398 0.017266436
0.024087328 0.02176337 0.035791833 -0.04318882 -0.018748257 0.02896072 -0.039148275 -0.058886915
-0.06906903 -0.038796205 -0.023733081 -0.047384392 -0.025595328 -0.00019670484 -0.021376682 0.052463517
0.069005474 -0.024043525 -0.044889428 -0.01198266 0.042113196 -0.043575574 0.008224268 -0.008076133
0.046667 -0.012321616 -0.05674293 0.031273987 -0.050697327 0.054594696 -0.010548062 -0.033667948
0.034965765 0.05897878 -0.04449889 -0.020308377 0.03331438 0.020742863 0.04713677 0.039903257
-0.062502846 0.01790471 0.03639476 -0.045183696 -0.052569978 0.012856415 0.045390632 -0.032843124
00000000: b770 4e3d cc74 f93c 5b98 513d 7095 f83c
00000010: d8d3 5c3d db13 b0bc f526 6bbc fcc3 d13c
00000020: c584 6c3d b099 05bd 07b0 18bc 734e cbbc
00000030: 2b4c 0f3a c453 433d 38d6 8c3b 2147 bfbc
00000040: 051e f1bc 2068 a8bd a7e2 2d3c 5dfc ad3c
00000050: 0dd0 9ebc f8fc 7bbc 8d5e 633d 1e98 1cbd
00000060: 9c35 8ebd ab38 393d b322 953c 20e4 61bd
00000070: 6871 453d afef 8fbd e279 21bc 5ac4 3bbd
00000080: 8c4e 72bd e0c8 5e3c adea 913d c658 95bd
00000090: 8564 8d3d 7cce 98bd b52e 1d3d f894 8f3c
000000a0: 7303 fabc a240 543d 53c2 4f3d 22fa ed3c
000000b0: d5ff 84bd b334 dc3c 8d56 6fbc cdc3 3f3d
000000c0: b023 003c e59a 833c 6048 303b 6936 5cbd
000000d0: 19bb 2ebd 128b f4bc c157 a7bc a5a3 7b3d
000000e0: ef29 883d 050c 8dbb 9e39 e7bc d0d3 73bd
000000f0: 7bd4 433d df0b 81bd 9089 94bd a6d0 c8bb
00000100: e4bb 4d3c 1052 92bc 884c 7ebd 8ff3 8abd
00000110: a997 2abd 8f0b 2fbd f8f6 443d cafb 573b
00000120: d03e 843d 70b4 a5bc a1a0 4dbd 92a8 193c
00000130: 749c 273d 5d7c d5bc cd7a 49bd f884 08bd
00000140: d7e4 633c 100d 1f3d 8d49 ae3a 9ad6 aabb
00000150: f156 7cbc f04f 143d b21a 26bd 4c1e c5bc
00000160: 2f8d 76bd 826d 32bd bf50 263d 512f 5dbc
00000170: b144 183c 0434 f5bc 87da 003c c630 05bd
00000180: de33 50bd 034b 55bc dc37 843d 61c3 493c
00000190: d099 10bd f4fa 313d 01a6 fdbc b48e 023c
000001a0: 4ea9 dd3c 00d3 3cbd 2603 65bd b1a4 823d
000001b0: 8978 93bd f252 08bd 303d 15bd f5a3 d7bb
000001c0: c0fd 69bd 3c90 8dbb 6dd6 28bd c660 563d
000001d0: d726 393d 8a0d 763d 1cba 60bd ecd8 d63c
000001e0: 9a2d bb3c 6267 c63b 1dae 113d 3edc 053d
000001f0: 1b06 9bbc d402 8d3c af5b 783d 7746 033d
00000200: cedd bebc b873 803d 7969 7f3c b74d c5bc
00000210: 24f2 7e3d 48e9 383d 31b1 75bd b915 a9bc
00000220: 1dda 10bd 547f 1dbd 9e58 583d c09b 0f3b
00000230: 86f0 8abd f586 c7bc 20fa 6fbd 1bab af38
00000240: bfed 7c3d 09aa 253d c8be bd3c 524d 0a3d
00000250: 3512 6e3d 7bca 97bb 8f83 59bd 5772 8d3c
00000260: ca52 c53c 1849 b23c 759a 123d c3e6 30bd
00000270: f295 99bc 083f ed3c f159 20bd 6833 71bd
00000280: 1074 8dbd c5e8 1ebd e16b c2bc 2316 42bd
00000290: 4bad d1bc 8e42 4eb9 271e afbc fce3 563d
000002a0: be52 8d3d edf6 c4bc fadd 37bd eb52 44bc
000002b0: e37e 2c3d 4d7c 32bd 15bf 063c c251 04bc
000002c0: e525 3f3d 9ae0 49bc 466b 68bd 2719 003d
000002d0: 00a8 4fbd b09e 5f3d c7d1 2cbc 67e7 09bd
000002e0: 4338 0f3d bc93 713d 7844 36bd c15d a6bc
000002f0: a974 083d f0ec a93c 7c12 413d 9971 233d
00000300: 7e01 80bd e6ac 923c ac12 153d 8a12 39bd
00000310: 9e53 57bd b6a3 523c 87eb 393d 8386 06bd
