Results/Models/SAE_E2E_DCN_model_iter_id_7_epoch_400_lr_0.0001.pth (torch, 828294 bytes, 16 tensors)

shared1.weight f4 [200, 17]
0	0xbd91247e	-0.070870385
1	0x3d47cd31	0.04877967
2	0x3cadda9e	0.021222409
3	0x3e3b210e	0.18274328
4	0x3da00081	0.07812596
5	0x3e3a12f8	0.18171299
6	0x3db261d8	0.087100685
7	0x3dec1136	0.1152672
8	0x3dd0923b	0.10184141
9	0x3dbdb27a	0.09262557
10	0x3dee2f26	0.116300866
11	0xbe2112bb	-0.15729801
12	0xbd039a8c	-0.03212981
13	0xbdac539c	-0.08414385
14	0xbe455663	-0.19271235
15	0xbb966d31	-0.0045906533
16	0x3d283092	0.041061945
17	0xbdfa0871	-0.12208641
18	0xbd865c81	-0.065606125
19	0x3cc0ebe3	0.02354998
20	0x3d2b786a	0.041862883
21	0xbe271c09	-0.16319288
22	0x3ab531ef	0.0013824085
23	0x3de9d26d	0.11417089
24	0x3df327cb	0.11872824
25	0x3df73594	0.12070766
26	0x3e01c44b	0.12672536
27	0xbdbb05f4	-0.09131995
28	0xbdb099e2	-0.08623101
29	0xbdd8ba7a	-0.105824426
30	0x3db52e05	0.08846668
31	0xbd69475f	-0.05695283
32	0x3ddad66d	0.1068543
33	0xbdebe41c	-0.11518118
34	0xbdb18173	-0.086672686
35	0xbe1ec2ec	-0.15504044
36	0xbdd39ab0	-0.10332239
37	0x3e1f0015	0.15527375
38	0x3df7ffee	0.121093616
39	0xbcff16e5	-0.031138847
40	0x3d3dd39b	0.04634438
41	0x3dab07a1	0.083510645
42	0xbd558910	-0.052132666
43	0xbdf8319a	-0.12118836
44	0x3e0acb0e	0.13554022
45	0xbd5737a5	-0.0525433
46	0x3ca56901	0.020191671
47	0xbd4d49d1	-0.050119225
48	0xbd177723	-0.036978852
49	0xbd8b583c	-0.06803939
50	0x3df2dfd0	0.11859095
51	0xbd03cbf8	-0.03217694
52	0xbe791829	-0.24325623
53	0x3818fdab	3.647587e-05
54	0xbe167ab2	-0.14695242
55	0xbe390049	-0.18066515
56	0xbd2101ce	-0.03930836
57	0x3e109014	0.14117461
58	0xbe1b1515	-0.15144761
59	0xbdc151fa	-0.09439464
60	0x3de50717	0.11182993
61	0xbdcf3337	-0.1011719
62	0x3dffce6f	0.12490546
63	0xbd6c2676	-0.057653867
64	0x3e18655b	0.14882414
65	0xbd509d01	-0.05093098
66	0xbe2e9aba	-0.17051211
67	0xbd3a5bc3	-0.045497667
68	0x3e160e87	0.14653979
69	0x3cdf3f57	0.027251882
70	0x3dbe2250	0.09283888
71	0xbd9bfc29	-0.07616455
72	0xbdb8d5de	-0.09025167
73	0xbe16ad08	-0.14714444
74	0x3dafdeda	0.085874274
75	0x3cfb2be0	0.03066057
76	0x3c969123	0.018379753
77	0xbdde8ff1	-0.108672984
78	0xbb876e72	-0.004133039
79	0x3cdbf4a7	0.026850058
80	0xbd228d23	-0.03968538
81	0xbe1d1122	-0.15338567
82	0xbd7c4a57	-0.061594333
83	0xbdc8e455	-0.09809176
84	0xbe133ebd	-0.14379402
85	0x3d12b732	0.03581924
86	0x3dd4d679	0.1039247
87	0x3e537fda	0.2065424
88	0x3e46433f	0.1936159
89	0xbe433995	-0.19064935
90	0xbd331a3d	-0.043726195
91	0x3e0ff6a3	0.14058928
92	0xbd4d7c59	-0.050167415
93	0xbd8b5805	-0.06803898
94	0xbcb71319	-0.022347974
95	0x3d731672	0.059347577
96	0xbc907e9c	-0.017638497
97	0x3dd6d17a	0.10489173
98	0xbc11d508	-0.008900888
99	0xbd13a073	-0.03604169
100	0xbe06eb3d	-0.13175674
101	0xbb1b039d	-0.0023653277
102	0xbd0fac73	-0.03507657
103	0x3d3d035c	0.046145782
104	0x3e870a5c	0.2637509
105	0x3de6b320	0.11264634
106	0x3e05c248	0.13062394
107	0x3d535ea7	0.05160394
108	0x3e0f5563	0.13997416
109	0x3d2040e0	0.03912437
110	0x3cc7f571	0.024409028
111	0xbda27a19	-0.079334445
112	0x3cf5f0fc	0.030022137
113	0x3d77dd02	0.060513504
114	0xbd9d4cbe	-0.07680653
115	0xbe36d78e	-0.17855665
116	0xbdb5f509	-0.08884627
117	0xbd9b4c2b	-0.07582887
118	0x3d2d2ed8	0.042281
119	0xbde4ac81	-0.11165715
120	0x3dbe7c4d	0.09301052
121	0x3dd4ee7a	0.10397048
122	0x3e4aefcb	0.19818036
123	0x3e3faa99	0.18717422
124	0xbe264c6a	-0.16240087
125	0x3da53c88	0.08068186
126	0xbbe3eed3	-0.0069559603
127	0x3e3b7699	0.1830696
128	0xbd73ed7f	-0.059552666
129	0xbc428e9e	-0.011874823
130	0xbd977fc2	-0.07397415
131	0xbd832b2a	-0.06404717
132	0xbdfc39e2	-0.12315728
133	0xbbe67c87	-0.007033888
134	0xbde11100	-0.109895706
135	0x3d41b6f5	0.047293622
136	0x3e10834f	0.1411259
137	0x3ddd4224	0.10803631
138	0xbe4aa1ac	-0.19788235
139	0x3db61981	0.08891583
140	0xbe10f21a	-0.14154854
141	0xbdc04497	-0.093880825
142	0xbd650d96	-0.05592116
143	0x3d53ecbb	0.051739436
144	0x3a5b301f	0.00083613576
145	0xbdf4d922	-0.11955477
146	0xbde19acc	-0.11015853
147	0x3d4a390a	0.049370803
148	0xbc17f2a2	-0.009274157
149	0x3dbd38ab	0.09239324
150	0xbda9926a	-0.082798794
151	0xbda625ed	-0.081127025
152	0x3e169c90	0.14708161
153	0x3d6731ed	0.056444097
154	0x3dc64ac0	0.09682226
155	0x3e2e9634	0.17049485
156	0x3e7c5653	0.24642305
157	0x3dbd14ab	0.09232458
158	0xbde35182	-0.11099531
159	0xbdc31b88	-0.095267355
160	0x3dc3a9af	0.09553849
161	0xbded0a51	-0.11574233
162	0xbc80f9a6	-0.015744042
163	0xbdba46c9	-0.090955324
164	0x3cc413d6	0.02393524
165	0xbd7a895b	-0.06116615
166	0xbdcc5c45	-0.099785365
167	0xbc3448a9	-0.011003652
168	0x3d4a1b59	0.049342487
169	0x3d8198d7	0.0632798
170	0xbdc3cfc2	-0.09561111
171	0xbc15e036	-0.009147694
172	0xbcad09d8	-0.021122858
173	0x3df44b6c	0.11928448
174	0xbd035efe	-0.032073013
175	0xbd913140	-0.07089472
176	0x3d92e1f3	0.07172003
177	0x3d9e77b3	0.077376746
178	0xbe0073e8	-0.12544215
179	0xbd94f75f	-0.07273745
180	0x3e03165b	0.12801497
181	0xbb82e977	-0.0039951163
182	0xbe1f6753	-0.15566759
183	0x3d421ba0	0.047389627
184	0x3dfa2aa7	0.122151665
185	0x3d38d48e	0.045124583
186	0x3e2fabf0	0.17155433
187	0xbd380ed8	-0.04493603
188	0x3cf04050	0.029327542
189	0xbdec9565	-0.11551932
190	0xbb709e42	-0.0036715423
191	0xbd0efd21	-0.03490937
192	0x3e11d46f	0.14241193
193	0x3d8ea2c1	0.069646366
194	0x3c180d01	0.009280444
195	0x3d7aafde	0.061202876
196	0x3badda78	0.0053055845
197	0xbd829245	-0.06375555
198	0xb99b51a7	-0.0002962474
199	0xbda1abcf	-0.07894098
200	0xbe5d3c1a	-0.21604958
201	0x3d60321b	0.054735284
202	0x3d8ea589	0.06965167
203	0x3d95a091	0.07306016
204	0xbda5ac44	-0.08089498
205	0x3e4aab9d	0.19792028
206	0x3e908d3c	0.28232753
207	0x3ed8d8b4	0.4235283
208	0xbdc39822	-0.095505014
209	0xbdd3d41e	-0.103431925
210	0x3d21e59f	0.039525624
211	0x3dc914d5	0.098184265
212	0xbd14a358	-0.03628859
213	0xbcf19add	-0.02949279
214	0xbc925fe6	-0.017867994
215	0xbdc48684	-0.09595969
216	0x3cac01dc	0.02099698
217	0xbceafde3	-0.028685516
218	0x3d41da75	0.047327477
219	0x3de08880	0.10963535
220	0x3e3bd8e4	0.18344456
221	0xbdf2c730	-0.11854398
222	0x3de2cb20	0.11073899
223	0x3d9f5504	0.07779887
224	0x3df616e1	0.120160826
225	0xbe095106	-0.13409814
226	0xbdcffeb2	-0.10156001
227	0xbd7683c7	-0.060184266
228	0x3e0b73f1	0.13618447
229	0xbd5f8eba	-0.054579474
230	0xbd34910d	-0.044083644
231	0xbdb235d3	-0.087016724
232	0x3d8007b6	0.06251471
233	0x3d9dc1d3	0.07702985
234	0x3ca373ec	0.019952737
235	0x3dc99878	0.09843534
236	0xbe0b9b98	-0.13633573
237	0x3aec8ba3	0.0018046986
238	0xbd8178d0	-0.06321871
239	0xbca13f3d	-0.019683475
240	0xbd8ab72c	-0.067732185
241	0xbc81e4a8	-0.015856102
242	0xbe67f842	-0.22653297
243	0xbc96411a	-0.01834159
244	0xbd3f8535	-0.046757895
245	0x3e103de6	0.14086112
246	0xbdaf6b0b	-0.08565339
247	0xbd818ac7	-0.06325298
248	0x3d9d4afb	0.07680317
249	0xba6868f6	-0.0008865738
250	0x3d48a885	0.048988838
251	0x3d897af4	0.067129046
252	0xbe1528e6	-0.14566383
253	0x3cbd0ba2	0.023076836
254	0x3dbf95e2	0.0935476
255	0x3c28a35b	0.010292853

shared1.bias f4 [200]
0	0xbe4ac411	-0.19801356
1	0xbe601cff	-0.21886061
2	0xbdd123bf	-0.10211896
3	0xbe60d97e	-0.21957967
4	0x3e1766b9	0.1478528
5	0x3e5fcfab	0.21856563
6	0xbe6d0df8	-0.2314986
7	0xbe536b4f	-0.20646404
8	0x3e0a4576	0.1350306
9	0xbd00d817	-0.03145608
10	0xbe4fcfa2	-0.2029405
11	0x3bf00f12	0.0073260153
12	0xbe2a27d2	-0.16616753
13	0xbcb5ee9a	-0.0222085
14	0x3d2ccb5f	0.042186137
15	0x3dee1a28	0.11626083
16	0x3d8e4644	0.06946996
17	0xbe0739fd	-0.13205715
18	0xbe3b687c	-0.18301576
19	0xbd4b7ca4	-0.049679413
20	0xbe4f350c	-0.2023508
21	0x3c5962e2	0.013268204
22	0x3d5450cc	0.051834866
23	0xbd152949	-0.036416326
24	0xbe200b19	-0.15629233
25	0x3e2ec682	0.17067912
26	0x3d92b2e4	0.07163027
27	0x3d8def66	0.06930427
28	0x3dc28711	0.09498418
29	0x3ce10a70	0.027470797
30	0xbe79809d	-0.24365468
31	0x3d7f613c	0.06234859
32	0x3e227013	0.15863065
33	0xbe386521	-0.18007328
34	0xbbb6b209	-0.0055754227
35	0x3c87afdf	0.016563354
36	0x3e410eae	0.18853256
37	0xbc5a4253	-0.013321477
38	0x3da61982	0.08110334
39	0xbdbceffc	-0.09225461
40	0xbdca9130	-0.098909736
41	0xbe56b3b0	-0.20966983
42	0x3e19a628	0.1500479
43	0xbe74d904	-0.2391091
44	0xbc8cacdf	-0.017172275
45	0x3e38ea8e	0.18058226
46	0x3da4459a	0.08021088
47	0xbd8b639e	-0.0680611
48	0xbe0ed740	-0.13949299
49	0x3cf45cdb	0.029829433
50	0xbe5b48a6	-0.21414432
51	0xbe1130aa	-0.1417872
52	0xbe19161a	-0.14949837
53	0x3cd5261b	0.026019147
54	0xbe141ddf	-0.1446452
55	0xbddb7502	-0.10715677
56	0xbe64ea55	-0.22355016
57	0xbdb14322	-0.08655383
58	0xbd36ee6c	-0.04466097
59	0xbe0c3cc5	-0.13695057
60	0x3dab962d	0.08378253
61	0x3cf08a60	0.029362857
62	0x3b493fc2	0.0030708169
63	0xbe3b6055	-0.18298467
64	0x3e7b4a9a	0.24540177
65	0xbe197c30	-0.1498878
66	0x3d85bf82	0.06530668
67	0x3d437bfa	0.047725655
68	0xbe310a6e	-0.17289135
69	0xbd49e416	-0.049289785
70	0xbde1cd65	-0.11025504
71	0x3d5ba9a6	0.053628586
72	0x3da7e392	0.081977025
73	0xbd5a6fc1	-0.053329233
74	0xbe50cec4	-0.20391375
75	0x3d0a5b64	0.033778563
76	0xbdaab596	-0.08335416
77	0x3dac3483	0.08408453
78	0x3e1385a1	0.14406444
79	0xbe30150d	-0.1719553
80	0x3e1b0dde	0.15142009
81	0x3d8d09ec	0.06886658
82	0xbc540060	-0.0129395425
83	0xbde5e101	-0.11224557
84	0x3e06dd79	0.13170423
85	0xbe6d126b	-0.23151557
86	0xbc42d9fd	-0.011892793
87	0xbe5043e8	-0.20338404
88	0x3e17c7b8	0.1482228
89	0xbe0c3aae	-0.1369426
90	0xbe45ba6a	-0.19309393
91	0xbddc558c	-0.10758504
92	0x3df52bf0	0.11971271
93	0xbbbfebf7	-0.0058569866
94	0x3ca3a39c	0.019975476
95	0xbe8f9ed0	-0.28050852
96	0x3bc75e3e	0.0060842326
97	0xbcd6ac6a	-0.02620526
98	0xbe08093f	-0.13284777
99	0xbd9bba15	-0.07603852
100	0xbcc2e257	-0.023789568
101	0x3e0367d6	0.12832579
102	0xbdf51255	-0.11966387
103	0xbd93e958	-0.07222241
104	0xbe31ce53	-0.17363863
105	0xbe0f81cc	-0.14014357
106	0xbe47cd47	-0.19511901
107	0x3dfa89b4	0.12233296
108	0xbd81b511	-0.06333364
109	0xbd14167d	-0.03615426
110	0xbe257c32	-0.16160658
111	0xbe2c4194	-0.16821891
112	0x3d9b4e24	0.075832635
113	0xbcd45d8b	-0.025923511
114	0xbd225aa9	-0.03963724
115	0xbde1b358	-0.11020535
116	0xbde113a9	-0.10990078
117	0xbdd34dd7	-0.10317581
118	0xbd2cc120	-0.042176366
119	0xbd95c0e3	-0.07312181
120	0x3d98489a	0.07435723
121	0x3dc7fb8c	0.09764776
122	0x3d61c3b3	0.055118274
123	0xbe8eacb4	-0.27866137
124	0xbc9c9323	-0.019113129
125	0xbe7f18ec	-0.2491185
126	0xbd2e5848	-0.04256466
127	0xbe70575e	-0.23470828
128	0x3e12e86f	0.14346479
129	0xbd8459f4	-0.0646247
130	0xbe83a131	-0.25708917
131	0xbafcf7dd	-0.0019299943
132	0xbdca2ad3	-0.09871449
133	0xbde94d69	-0.11391718
134	0xbdeb0f60	-0.11477542
135	0x3dc3c491	0.095589764
136	0x3dac0649	0.08399636
137	0xbdfd5b8b	-0.12370976
138	0xbdfd9f95	-0.123839535
139	0xbe7ab8c5	-0.24484546
140	0x3e31057b	0.17287247
141	0xbda59af6	-0.08086197
142	0x3e2f3c0d	0.17112751
143	0x3d620c22	0.055187352
144	0x3d78fd71	0.060788576
145	0xbe7fe60d	-0.24990101
146	0xbc438ba7	-0.011935151
147	0x3e412368	0.18861163
148	0xbe1e2315	-0.1544307
149	0xbd8902ae	-0.06689964
150	0xbe0b420a	-0.1359941
151	0x3d105114	0.035233572
152	0xbd81b385	-0.06333069
153	0xbe4af963	-0.19821696
154	0xbe8caecf	-0.27477118
155	0x3dd566f2	0.10420026
156	0x3e1b8e28	0.15190947
157	0x3d566283	0.05234004
158	0xbe0d31ec	-0.13788575
159	0xbdfd42a2	-0.12366225
160	0xbe37426f	-0.17896436
161	0x3d23b502	0.039967544
162	0x3dd3fe3f	0.10351228
163	0xbe4c1c8e	-0.19932768
164	0x3d877471	0.06614006
165	0x3de56474	0.112008005
166	0x3e0c132d	0.1367919
167	0xbdc5bde2	-0.09655358
168	0xbe9f4d51	-0.31113675
169	0xbddaf8dd	-0.10691998
170	0x3dcc0b64	0.0996311
171	0xbe06b722	-0.13155797
172	0xbd5cd7ca	-0.05391673
173	0x3dc4d670	0.09611213
174	0xbaa85eb0	-0.0012845602
175	0x3d54a413	0.051914286
176	0xbd01c949	-0.0316861
177	0xbe4e961c	-0.2017445
178	0x3de764b6	0.11298506
179	0x3e3a0a28	0.18167937
180	0xbd95fba6	-0.07323389
181	0xbcfbb702	-0.030726913
182	0x3db3ea94	0.087849766
183	0xbd2482ca	-0.040163793
184	0xbe361413	-0.17781095
185	0xbd4584a1	-0.048222188
186	0xbe67fe96	-0.2265571
187	0xbd30c1f6	-0.043153726
188	0x3e0c4314	0.13697463
189	0xbdaa02e2	-0.08301331
190	0x3cc4dffc	0.024032585
191	0x3e3c4f02	0.18389514
192	0x3e202836	0.1564034
193	0xbe26671e	-0.16250274
194	0xbd22700b	-0.039657634
195	0xbdc22464	-0.09479597
196	0xbe3386ff	-0.17531966
197	0xbe4828c7	-0.19546805
198	0x3e094d99	0.13408507
199	0xbe19859a	-0.14992371

shared2.weight f4 [200, 200]
0	0xbd21132b	-0.03932492
1	0x3e5846dd	0.21120782
2	0xbd69d0e2	-0.05708397
3	0xbdf2cfef	-0.118560664
4	0xbcde8e9c	-0.02716761
5	0xbd5d9b99	-0.054103468
6	0x3e165d14	0.14683944
7	0x3d88b098	0.066743076
8	0x3dca053d	0.098642804
9	0xbde3c6ad	-0.11121879
10	0xbc8fef41	-0.01757014
11	0xbd3332d5	-0.04374965
12	0xbd259e7b	-0.040434342
13	0x3df1c468	0.1180504
14	0x3e0a49be	0.13504693
15	0x3e3ce734	0.18447572
16	0x3d9078aa	0.07054265
17	0xbd9873e3	-0.07443979
18	0x3dadfd55	0.08495585
19	0x3e3cb7da	0.18429509
20	0xbddaa427	-0.10675841
21	0x3dc84d01	0.09780312
22	0x3d863bc9	0.06554372
23	0x3cb322e9	0.021867232
24	0xbd3ce627	-0.046117928
25	0x3da257cb	0.079269014
26	0xbd1069f8	-0.03525731
27	0x3df9dc9f	0.12200283
28	0x3d1e9e3c	0.038725123
29	0x3dd321b4	0.10309163
30	0xbd0cac74	-0.03434415
31	0x3db0d250	0.08633864
32	0x3dacc0d2	0.08435215
33	0xbcc6795d	-0.024227792
34	0x3db9fbc0	0.090812206
35	0xbd9215cc	-0.07133064
36	0x3e0fe80a	0.1405336
37	0xbaa9346b	-0.0012909299
38	0xbc891a30	-0.01673612
39	0x3e4aa352	0.19788864
40	0xbc325ad6	-0.010885915
41	0x3d5d740c	0.05406575
42	0xbcb6c7f0	-0.022312135
43	0xbbe91e0b	-0.007114177
44	0xbd1135ab	-0.035451572
45	0xbc8c01e8	-0.017090753
46	0x3d0c44f5	0.03424545
47	0x3d062ebf	0.032759424
48	0x3d8639b8	0.06553978
49	0x3d891d5e	0.066950545
50	0x3e530266	0.20606384
51	0x3df09f3e	0.11749123
52	0x3def1925	0.11674718
53	0x3c11fda5	0.008910571
54	0xbb86ac4f	-0.0041098963
55	0x3d362e48	0.04447773
56	0x3ba2035c	0.004944248
57	0xbde48e08	-0.11159903
58	0x3cf4a86a	0.029865462
59	0x3e0e4ffa	0.13897696
60	0x3d58b65a	0.05290828
61	0x3e14e54e	0.14540598
62	0x3d2513de	0.04030215
63	0xbe05b627	-0.13057767
64	0x3dc34ef4	0.095365435
65	0xbdf09843	-0.117477916
66	0xbba5baa6	-0.0050576506
67	0xbdf15357	-0.11783474
68	0x3e28eca2	0.16496518
69	0x3df6328e	0.12021361
70	0x3dbed18d	0.093173124
71	0x3d6b9cc6	0.057522558
72	0xbd02288d	-0.031776953
73	0xbd9946e0	-0.074842215
74	0x3c126dfd	0.008937356
75	0xbd8020e9	-0.06256277
76	0x3e18d39f	0.14924477
77	0xbc58208b	-0.013191353
78	0x3d0ee57d	0.034886826
79	0x3d869f93	0.06573405
80	0x3dd4be79	0.10387892
81	0xbe0b2082	-0.1358662
82	0x3d09eb80	0.033671856
83	0x3cd2bb27	0.025724007
84	0x3dc7c281	0.097538956
85	0x3d59331e	0.053027265
86	0x3bad494c	0.0052882787
87	0xbe31c097	-0.17358623
88	0xbdaa508d	-0.08316145
89	0x3dd321bb	0.10309168
90	0x3d1c4dee	0.038160257
91	0x3d26b131	0.040696327
92	0x3e05c27a	0.13062468
93	0x3df711e2	0.12063958
94	0xbdde1016	-0.10842912
95	0x3dd713c3	0.10501816
96	0x3dc8fe6e	0.098141536
97	0x3d27e716	0.040991865
98	0xbce1d0aa	-0.02756532
99	0xbd827174	-0.06369296
100	0xbdbccb1c	-0.092184275
101	0x3d994a44	0.07484868
102	0xbd946597	-0.07245939
103	0x3d78e5d3	0.060766052
104	0xbe2b9132	-0.16754606
105	0x3e055583	0.13020901
106	0x3db703c9	0.08936269
107	0xbdc1b11a	-0.094576076
108	0xbd19ff44	-0.037596956
109	0x3d86cba1	0.06581808
110	0x3e08b57e	0.13350484
111	0x3cb66040	0.022262692
112	0x3d947654	0.07249132
113	0xbdd780c0	-0.10522604
114	0x3d03854c	0.032109544
115	0xbd501c3a	-0.05080817
116	0xbcbe4103	-0.02322436
117	0x3e19a979	0.15006055
118	0xbddb94b6	-0.10721724
119	0xb8dac1de	-0.000104311606
120	0x3d2eb860	0.042656302
121	0xbdf62c13	-0.12020125
122	0xbe319e94	-0.17345649
123	0x3c28e7a7	0.0103091365
124	0x3c7ff227	0.015621698
125	0x3da65d08	0.08123213
126	0x3db13945	0.086535014
127	0xbd128dff	-0.03577995
128	0x3de53721	0.11192156
129	0xbc52e86e	-0.012872798
130	0x3db5251b	0.08844968
131	0x3df02be7	0.11727124
132	0x3acf86b5	0.0015832993
133	0x3d13039c	0.035892114
134	0xbd46ba5e	-0.048517577
135	0xbe270092	-0.16308811
136	0xbd0a02b7	-0.033693995
137	0xbda6e04f	-0.08148252
138	0xbd4a86ec	-0.049445078
139	0xbcea948d	-0.028635288
140	0x3dc2ca97	0.09511297
141	0xbd8cb417	-0.06870287
142	0x3d8ad7eb	0.06779464
143	0xbda1db11	-0.07903112
144	0x3dd4f240	0.10397768
145	0x3d99d497	0.075112514
146	0x3d890c49	0.06691796
147	0x3d97b78c	0.07408056
148	0x3e0da565	0.13832624
149	0x3df68f03	0.12038996
150	0x3d5e253b	0.054234724
151	0x3b2c2727	0.0026268454
152	0x3d8ea843	0.06965687
153	0x3de6c3e4	0.11267832
154	0x3ce7dcaf	0.028303472
155	0xbd9c0267	-0.07617646
156	0x3dd547ff	0.10414123
157	0x3d55afd5	0.05216964
158	0xbd1443b5	-0.036197383
159	0xbc763216	-0.01502659
160	0x3c8afa32	0.016965006
161	0x3c86f405	0.01647378
162	0x3e1a64dc	0.15077537
163	0xbdf334d2	-0.11875309
164	0xbc1b1231	-0.009464786
165	0x3df9617e	0.12176798
166	0x3d9e8d33	0.07741775
167	0x3cf6ebc1	0.030141713
168	0x3c0609d4	0.008181054
169	0xbdfb51a4	-0.12271431
170	0x3d8858bb	0.06657549
171	0x3d5c0216	0.053712927
172	0xbd9653dd	-0.073402144
173	0xbddb8fdf	-0.107208006
174	0xbcf40cd0	-0.029791266
175	0xbb597d9a	-0.0033186437
176	0xbdeb1d56	-0.11480205
177	0x3dd99042	0.10623218
178	0xbd01fbc3	-0.03173424
179	0x3d06ff8b	0.03295855
180	0x3df7f4e2	0.121072546
181	0xbde17be7	-0.110099606
182	0x3c3803b8	0.011231355
183	0x3d35303f	0.044235464
184	0x3d1786bf	0.03699374
185	0x3d0290c9	0.03187636
186	0xbd7b5ebf	-0.061369654
187	0x3dcfdf26	0.10149984
188	0x3d9e931d	0.077429034
189	0xbd75ad46	-0.0599797
190	0xbc8332a3	-0.016015356
191	0x3d8afd39	0.0678658
192	0x3d372d3c	0.044720873
193	0xbe32a962	-0.17447427
194	0xbda4146a	-0.08011706
195	0x3d196c36	0.037456714
196	0x3d46b213	0.04850967
197	0x3d7de1af	0.061982807
198	0xbd4418e2	-0.047875293
199	0x3e047da9	0.1293856
200	0xbcebab00	-0.028768063
201	0x3d4bf23e	0.049791567
202	0xbc4b38f1	-0.012403713
203	0xbe02d808	-0.12777722
204	0x3d8cc14e	0.068728074
205	0xbdb4e7cc	-0.08833274
206	0x3e108a98	0.1411537
207	0xbd3d9242	-0.04628206
208	0x3e213421	0.15742542
209	0x3cd9d39b	0.02659016
210	0x3e4898fe	0.19589612
211	0x3d0316c7	0.032004144
212	0x3de1a3b7	0.11017554
213	0xbc3fba7c	-0.011702176
214	0xbd96e7a4	-0.07368401
215	0x3d8522dc	0.065007895
216	0xbc7dcbf0	-0.015490517
217	0xbdf25710	-0.11833012
218	0x3d4a1179	0.04933307
219	0x3d549532	0.051900096
220	0x3d831175	0.06399814
221	0x3ddea1b3	0.108706854
222	0xbd91784e	-0.071030244
223	0x3e87cc94	0.26523268
224	0xbd673e1a	-0.05645571
225	0x3d247c31	0.0401575
226	0x3e09cbbf	0.13456629
227	0x3de37e3a	0.1110806
228	0x3d380b8c	0.044932887
229	0xbc386154	-0.011253674
230	0xbb7b3547	-0.0038331316
231	0x3d8b5992	0.068041936
232	0xbd585305	-0.05281355
233	0x3baba84a	0.0052385675
234	0xbde1d383	-0.11026671
235	0x3da3bd39	0.07995076
236	0x3d84c8d1	0.06483615
237	0xbc9657a9	-0.018352346
238	0xbe029bda	-0.12754765
239	0x3e1422f2	0.14466456
240	0x3d7fd1c8	0.062455922
241	0x3dc5e459	0.096626945
242	0xbc69f3f7	-0.014279357
243	0x3ddf667d	0.1090822
244	0xbd928695	-0.07154576
245	0x3dd45fbf	0.103698246
246	0x3db9aa79	0.09065718
247	0xbde8cead	-0.11367545
248	0x3a03c0b6	0.00050259696
249	0xbd800b4f	-0.06252157
250	0x3e90023d	0.28126708
251	0xbcdd87c2	-0.027042273
252	0x3d17268c	0.036901996
253	0x3de1fe9f	0.11034893
254	0x3be4e02c	0.006984731
255	0x3daa581b	0.08317586

shared2.bias f4 [200]
0	0xbcbdec08	-0.023183838
1	0x3d005c3b	0.031337958
2	0x3d35d2fe	0.04439067
3	0x3c62249f	0.013802676
4	0xbd8a6e4c	-0.06759319
5	0xba7d886f	-0.0009671514
6	0xbd4ea13b	-0.05044673
7	0x3d3613a5	0.04445233
8	0xbdd60955	-0.10450999
9	0xbd890075	-0.0668954
10	0x3cce098e	0.02515104
11	0xbd880a0b	-0.066425405
12	0xbdd34a92	-0.103169575
13	0x3d2bcdf3	0.041944455
14	0x3cb8b712	0.022548232
15	0x3c864f8b	0.01639535
16	0x3d02a507	0.031895664
17	0xbda24c85	-0.07924751
18	0xbd65d111	-0.056107584
19	0x3d94d74d	0.07267628
20	0x3d314cfa	0.0432863
21	0xbe0cc2fe	-0.13746259
22	0x3ccc37c1	0.02492893
23	0xbda1ffe5	-0.07910136
24	0xbd2e5d38	-0.04256937
25	0xbb7c17a4	-0.003846624
26	0xbcc0cc98	-0.023535058
27	0xbd894332	-0.067022696
28	0xbdbb987d	-0.09159944
29	0x3b4ba402	0.0031073098
30	0xbc9eb3c0	-0.01937282
31	0x3c5b86f7	0.013398877
32	0xbba2d40d	-0.004969126
33	0xbd8f9404	-0.070106536
34	0xbbf87c6d	-0.007583192
35	0x3d66097b	0.056161385
36	0xbbcd5067	-0.006265688
37	0x3cd5b861	0.026088895
38	0xbdbb3503	-0.091409706
39	0xbd32ff8a	-0.043700732
40	0xbb30be4a	-0.002696889
41	0xbe0223fc	-0.1270904
42	0x3d0e7d51	0.03478748
43	0x3ca96c22	0.020681445
44	0x3d039b9a	0.032130815
45	0xbd90fcd1	-0.07079471
46	0xbd8995fb	-0.0671806
47	0xbdcfb4a6	-0.10141878
48	0xbcdedacf	-0.027203945
49	0x3d18042a	0.037113346
50	0xbd213886	-0.039360546
51	0x3cb0b526	0.021570753
52	0xbcd8ac53	-0.026449358
53	0x3c68748e	0.014187945
54	0xbd05b464	-0.032642737
55	0x3c3f9fb6	0.011695793
56	0x3d3119d7	0.043237533
57	0x3d37a1be	0.044831984
58	0xbcbfc85b	-0.023410967
59	0x3b1b063e	0.0023654844
60	0xbcd03752	-0.025417004
61	0xbdd8f12e	-0.105928764
62	0xbd71e311	-0.059054438
63	0xbdbb0ef2	-0.0913371
64	0x3a7d1629	0.0009654486
65	0xbd50c249	-0.050966535
66	0x3cd2d0f9	0.025734412
67	0xbc588575	-0.013215412
68	0xbd9abaf7	-0.07555192
69	0xbd78aa09	-0.060709033
70	0xbcd1648a	-0.025560636
71	0x3c63e6ab	0.013909976
72	0xbce1dc3c	-0.027570836
73	0xbcd3448a	-0.025789518
74	0x3cbfd20c	0.023415588
75	0x3c944c17	0.018102689
76	0x3c248bd5	0.010043104
77	0x3c72f566	0.014829015
78	0x3d2e3246	0.042528413
79	0x3d19d917	0.03756055
80	0x3c08d145	0.008350675
81	0xbbdbba01	-0.006705523
82	0xbc447ab4	-0.011992145
83	0xbd68325e	-0.05668866
84	0x3cca0854	0.024662174
85	0x3c22cd66	0.009936666
86	0xbd55866a	-0.05213014
87	0xbdb9402e	-0.090454444
88	0x3c685803	0.01418114
89	0xbd19b886	-0.03752949
90	0xbc35a79c	-0.0110873245
91	0xbd163525	-0.036671776
92	0x3d42bfd0	0.047546208
93	0xbc63916a	-0.01388965
94	0x3cdb0ca5	0.026739428
95	0x3d3bdd5d	0.045865405
96	0xbc25732a	-0.010098258
97	0xbd3bd93d	-0.04586147
98	0x3d4d2ccb	0.050091546
99	0x3cb1e13e	0.02171385
100	0x3d7e923f	0.06215119
101	0xbd840c58	-0.06447667
102	0xbd467486	-0.04845097
103	0x3d36fdc0	0.04467559
104	0xbd3094fa	-0.043110825
105	0x3d4daa0e	0.050211005
106	0x3dacbb96	0.08434217
107	0xbd60a381	-0.05484343
108	0x3d1a57d8	0.03768143
109	0x3a3017ef	0.00067174336
110	0xbc7d4028	-0.015457191
111	0xbd25ee29	-0.04051033
112	0x3c9cb72d	0.019130314
113	0x3d152172	0.03640885
114	0x3c8134e0	0.015772283
115	0x3c82d205	0.015969286
116	0x3c396328	0.011315145
117	0xbd9466ac	-0.072461456
118	0xbc88cab8	-0.016698226
119	0x3c2bdaf6	0.010489216
120	0xbd8f83c9	-0.07007558
121	0xbc4d5625	-0.0125327455
122	0xbcb93fdc	-0.022613458
123	0xbd9128d1	-0.07087863
124	0xbd9b76bb	-0.075910054
125	0xbceed866	-0.029155921
126	0xbd2c0dd9	-0.042005394
127	0xbc84ada6	-0.016196083
128	0x3c5bff74	0.013427604
129	0x3d93bf87	0.07214265
130	0xbbe40f57	-0.0069598365
131	0x3bfe2b5f	0.007756635
132	0xbb8cd19c	-0.0042974483
133	0xbce4817e	-0.027893778
134	0x3d861e0d	0.065487005
135	0xbd30bfc3	-0.04315163
136	0xbcee906f	-0.029121606
137	0x3da023ba	0.07819314
138	0xbd4a5335	-0.04939576
139	0xbd49bab2	-0.049250312
140	0xbb8c67ba	-0.004284826
141	0x3d1fad5d	0.03898369
142	0xbe00b4fb	-0.12569039
143	0xbcd46f01	-0.025931837
144	0xbcdcd1c3	-0.026955491
145	0xbcd85044	-0.026405461
146	0xbcad2c6e	-0.02113935
147	0xbdd197d1	-0.10234035
148	0xbdebf755	-0.11521784
149	0xbc144a02	-0.009050848
150	0xbbddaa93	-0.006764719
151	0x3d2af864	0.04174079
152	0xbc97e6d7	-0.01854269
153	0x3c798d28	0.015231408
154	0x3a464dc8	0.0007564691
155	0xbd6665a9	-0.056249294
156	0xbd057d63	-0.03259028
157	0xbd630fa1	-0.055434827
158	0xbdac0450	-0.0839926
159	0xbc3299c7	-0.010900921
160	0xbc02375e	-0.007947771
161	0xbd290871	-0.041267816
162	0xbcf1bbf3	-0.029508566
163	0xbd93b81d	-0.07212851
164	0xbd1b19e4	-0.037866488
165	0xbbe3bd63	-0.006950067
166	0x3d68ea8f	0.056864318
167	0xbda3ee5a	-0.08004446
168	0x3c8c91e7	0.017159415
169	0xbd746173	-0.059663247
170	0xbd882fa2	-0.0664971
171	0xbe0e05cd	-0.138694
172	0x3cc13df5	0.023589114
173	0xbd235752	-0.039878197
174	0x3ccd3cfc	0.025053494
175	0xbbf3a193	-0.0074350326
176	0x3d21e81d	0.039528
177	0x3c0476b0	0.008084938
178	0x3d75186d	0.059837747
179	0x3a7e0606	0.00096902286
180	0xbd43ee31	-0.04783458
181	0x3c7acf24	0.015308175
182	0xbbce2a34	-0.006291652
183	0xbb8c66d4	-0.004284719
184	0xbbaad32e	-0.005213163
185	0x3cab1839	0.020885574
186	0xbda01e05	-0.07818226
187	0x3d6bb6f8	0.05754754
188	0xbe0eea6d	-0.13956614
189	0xbd8210c2	-0.063508525
190	0x3d73bfae	0.059508972
191	0xbd3642e5	-0.04449739
192	0xbd2126a2	-0.039343484
193	0xbd4cabb0	-0.04996842
194	0x3d25da06	0.040491126
195	0x3d4706d1	0.048590485
196	0x3cf3f21b	0.02977853
197	0xbd9632a5	-0.073338784
198	0xbe1a27e2	-0.15054277
199	0xbd052e2e	-0.032514744

hidden1_Y1.weight f4 [200, 200]
0	0x3db5fd89	0.088862486
1	0xbd6958e6	-0.056969546
2	0xbd796215	-0.060884554
3	0xbdc51508	-0.09623152
4	0xbda6bab9	-0.08141083
5	0x3dfadf0b	0.12249573
6	0xbdced257	-0.10098713
7	0x3dba8833	0.09108009
8	0xbe118dad	-0.14214201
9	0x3d7a4868	0.06110421
10	0x3dea8129	0.114504166
11	0x3deb61f1	0.1149329
12	0x3d5924f4	0.053013757
13	0x3c6f2dd5	0.01459833
14	0x3dc6d184	0.09707931
15	0x3d6f19d3	0.058374237
16	0xbc9da49b	-0.019243529
17	0xbd799acd	-0.060938645
18	0x3d385885	0.045006294
19	0xbd56a2cd	-0.052401353
20	0xbe014d4f	-0.12627147
21	0xbda5c9e9	-0.08095152
22	0xbd508e0d	-0.05091672
23	0xbd13da6a	-0.036096968
24	0xbda9df0b	-0.08294495
25	0x3d490406	0.049076103
26	0xbcd76b4c	-0.02629628
27	0xbc0d0f61	-0.008609624
28	0x3d9c19cd	0.076221086
29	0x3d88c487	0.066781096
30	0x3db4ec53	0.08834138
31	0x3d238940	0.039925814
32	0x3d932b83	0.071860336
33	0x3b8468aa	0.0040407972
34	0x3ba5daaa	0.005061467
35	0xbd10063a	-0.035162188
36	0x3dd6494d	0.104632
37	0xbca96e5a	-0.020682503
38	0xbd29c5f9	-0.041448567
39	0xbd187d71	-0.037229005
40	0x3db10ef6	0.08645432
41	0x3d735341	0.05940557
42	0xbd31718c	-0.043321177
43	0xbdd8fbc4	-0.105948955
44	0xbdf3f5b3	-0.11912098
45	0x3d30048c	0.042973086
46	0x3da15c85	0.07878975
47	0xbd3ba78e	-0.04581409
48	0x3db3e524	0.087839395
49	0x3d98ab0b	0.07454499
50	0xbcd1e5b7	-0.025622232
51	0xbdd56f0e	-0.104215726
52	0xbdae9782	-0.085249916
53	0xbc17b9c7	-0.009260601
54	0xbb9e095a	-0.004822892
55	0xbd21c647	-0.039495733
56	0x3ddff4c8	0.1093536
57	0xbcd7108a	-0.026253004
58	0xbbfa3f11	-0.0076369126
59	0xbd0384c4	-0.032109037
60	0x3dd36c3e	0.1032338
61	0x3c5406a7	0.012941039
62	0xbda31ba9	-0.0796426
63	0x3d8ea7c5	0.06965593
64	0xbd96fe0a	-0.07372673
65	0x3db2decc	0.087339014
66	0xbd6755ac	-0.056478187
67	0xbd5dcaae	-0.05414837
68	0x3d848850	0.06471312
69	0xbdaefccf	-0.08544313
70	0x3c7c01a8	0.015381254
71	0x3dae9956	0.0852534
72	0x3bbce3d6	0.005764465
73	0x3dca380a	0.0987397
74	0x3cbc9174	0.023018576
75	0xbd3203c5	-0.043460626
76	0x3da8a395	0.08234326
77	0x3d30ccda	0.04316411
78	0x3ccfa507	0.025347246
79	0xbdea7c8c	-0.11449537
80	0x3dd67f8e	0.10473548
81	0xbcc72547	-0.024309767
82	0x3c80b5fe	0.01571178
83	0x3d34a89e	0.04410612
84	0x3d2fb34c	0.0428956
85	0xbd9ed773	-0.077559374
86	0x3def7261	0.11691738
87	0xbd4abb04	-0.04949476
88	0x3d638095	0.055542547
89	0x3d221a70	0.039575994
90	0xbdcb2cef	-0.0992068
91	0xbdb606bc	-0.08888003
92	0x3d454413	0.048160624
93	0x3c3664e9	0.011132457
94	0x3cbde6c5	0.023181329
95	0xbd08a03e	-0.033355944
96	0xbdda3530	-0.10654676
97	0xbdae53e1	-0.085120924
98	0x3c8a8b74	0.0169122
99	0xbd08756a	-0.0333151
100	0xbd9d2af9	-0.07674212
101	0xbb1e53af	-0.0024158766
102	0xbd7c9e20	-0.061674237
103	0x3cde315d	0.027123148
104	0xbda0eaf9	-0.078573175
105	0xbd827a5b	-0.06370994
106	0x3b94009c	0.004516674
107	0x3e035aa0	0.1282754
108	0x3d742847	0.059608724
109	0x3de7e443	0.11322834
110	0x3ce1c80a	0.027561206
111	0xbda5c56d	-0.080942966
112	0x3d816d97	0.06319731
113	0xbdb2f75a	-0.08738585
114	0xbdd13d68	-0.102167904
115	0x3cd01e60	0.025405109
116	0xbdf20cd3	-0.11818852
117	0xbddd1131	-0.107942946
118	0x3d8aac57	0.067711525
119	0xbdeaa7c0	-0.11457777
120	0x3e065151	0.13116957
121	0xbdd8d9d1	-0.1058842
122	0xbd2ea80a	-0.042640723
123	0x3dcba9e9	0.09944517
124	0xbd33cd1c	-0.04389678
125	0x3d5cadbd	0.053876627
126	0x3d52b79c	0.051444635
127	0xbdb6803a	-0.08911176
128	0x3c5e44b6	0.013566187
129	0x3c4f5036	0.012653401
130	0x3bb49a60	0.005511567
131	0xbbeb19e2	-0.0071747163
132	0xbd39f8f4	-0.045403436
133	0x3d8a5b33	0.06755676
134	0x3cdcb982	0.026943926
135	0x3cf668e8	0.03007932
136	0x3daba299	0.083806224
137	0xbd94f408	-0.07273108
138	0xbd874578	-0.06605047
139	0x3dd2e63a	0.102978185
140	0x3d87eafd	0.06636617
141	0xbdbd087b	-0.09230133
142	0x3da560f0	0.0807513
143	0xbd3b5305	-0.04573347
144	0x3d035a30	0.03206843
145	0x3c923654	0.017848171
146	0x3cc09ae1	0.023511352
147	0x3af22683	0.0018474612
148	0xbdd445a0	-0.103648424
149	0xbcae7055	-0.021293798
150	0x3d3aa750	0.045569718
151	0xbde9d7fe	-0.1141815
152	0xbd6d8f64	-0.057998076
153	0x3dddf615	0.10837952
154	0xbd74d932	-0.059777446
155	0xbdc29328	-0.09500724
156	0xbcf750f3	-0.030189967
157	0x3db6616a	0.08905299
158	0xbdff71e7	-0.12472897
159	0xbd9259f4	-0.071460634
160	0xbd2632c5	-0.04057576
161	0xbda855fb	-0.082195245
162	0xbdfbe44c	-0.122994035
163	0x3dc694da	0.0969636
164	0x3dc3f5ce	0.09568368
165	0x3cb68037	0.022277934
166	0xbd722d70	-0.059125364
167	0xbc6bf31c	-0.0144012235
168	0x3dbc6ea4	0.092007905
169	0xbcfa0d7e	-0.030524012
170	0xbbffe2aa	-0.007809003
171	0xbdd200a9	-0.10254032
172	0xbd5d0691	-0.05396134
173	0xbccb086c	-0.02478429
174	0xbcdfff98	-0.027343556
175	0xbdda5b4f	-0.10661947
176	0xbd1b4055	-0.03790315
177	0x3df9c9b2	0.121966735
178	0x3bed4285	0.0072405958
179	0x3c82761b	0.015925458
180	0xba9fe2a2	-0.0012198279
181	0x3deab0ea	0.11459525
182	0x3dc757e3	0.0973356
183	0xbcd51ccd	-0.02601471
184	0xbd23576d	-0.039878298
185	0x3d8b7915	0.06810204
186	0x3ca2ba23	0.019864148
187	0xbc519321	-0.012791426
188	0xbb184841	-0.0023236426
189	0xbc862782	-0.01637626
190	0xbc98ffae	-0.018676605
191	0xbd01141e	-0.031513326
192	0x3de7382d	0.112900116
193	0x3db35653	0.087566994
194	0xbdd3c2ec	-0.10339913
195	0x3dd0116b	0.10159572
196	0x3c7f10a2	0.01556793
197	0x3cabe5c4	0.020983584
198	0xbd1fe208	-0.03903392
199	0xbd6aaf6b	-0.057296198
200	0x3d058352	0.03259594
201	0x3d168e5a	0.03675685
202	0x3dc9001f	0.09814476
203	0x3d2868be	0.041115515
204	0xbdefe481	-0.117135055
205	0x3deabd63	0.11461904
206	0x3d5c23ff	0.053745266
207	0xbda78367	-0.0817936
208	0xbce2fceb	-0.027708491
209	0x3e04cffc	0.12969965
210	0x3da38142	0.07983638
211	0xbdc80503	-0.09766581
212	0x3dc69870	0.09697044
213	0x3dc86aaa	0.097859696
214	0xbd39ec64	-0.045391455
215	0x3d5026f1	0.050818387
216	0xbdc17a08	-0.09447104
217	0x3de0092d	0.1093925
218	0xbd9aa0d3	-0.07550206
219	0xbd51f562	-0.051259406
220	0xbdc6bfd3	-0.09704556
221	0x3df3cdde	0.119045004
222	0x3c37630f	0.011193051
223	0xbb60d4e7	-0.0034306587
224	0x3de9ac13	0.11409774
225	0xbda0b0a6	-0.07846193
226	0x3d8afe16	0.06786744
227	0xbdd751ae	-0.10513626
228	0x3d1792da	0.037005283
229	0x3df55ab7	0.11980193
230	0xbde269ec	-0.11055359
231	0x3ac4b01e	0.00150061
232	0x3d58ab58	0.05289778
233	0x3dc1eef6	0.09469406
234	0xbc09510a	-0.008381138
235	0xbd3b2782	-0.045691974
236	0xbca374e4	-0.019953199
237	0xbd45fe33	-0.048338126
238	0x3d1af0f4	0.037827447
239	0x3ca79733	0.02045784
240	0xbd9489b5	-0.07252828
241	0xbda51849	-0.08061273
242	0x3cbe6ef0	0.023246258
243	0x3d8a26de	0.067456946
244	0xbdf1e160	-0.11810565
245	0xbd944240	-0.07239199
246	0xbdd6ede5	-0.104945935
247	0x3d84fcd5	0.064935364
248	0x3d1a9145	0.037736196
249	0x3bc4770c	0.005995637
250	0xbd8461a0	-0.06463933
251	0xbdb5c2c0	-0.08875036
252	0xba83906b	-0.0010037547
253	0xbdaf21dd	-0.08551381
254	0x3dd1196c	0.10209927
255	0x3d646f44	0.055770174

hidden1_Y1.bias f4 [200]
0	0x3d3f4b85	0.04670288
1	0x3d65f094	0.056137636
2	0xbcfbebf9	-0.030752169
3	0xbd067854	-0.032829598
4	0x3d4b44d5	0.04962619
5	0xbc814871	-0.015781613
6	0xbd32ce0d	-0.043653537
7	0xb9fbc0f1	-0.00048018203
8	0xbd865ee7	-0.0656107
9	0xbd30dfae	-0.043182068
10	0xbc5086bc	-0.012727436
11	0x3d238f1f	0.039931413
12	0xbd09798d	-0.033563185
13	0xbd292b07	-0.0413008
14	0xbd30f512	-0.043202467
15	0x3c879af7	0.016553385
16	0xbd0e3a26	-0.034723423
17	0x3d37ad10	0.04484278
18	0xbd5cd74c	-0.05391626
19	0x3acda49b	0.0015689315
20	0xbd761388	-0.06007722
21	0xbd2bf0fa	-0.04197786
22	0x3cbe87ff	0.023258207
23	0x3d4ab32f	0.04948729
24	0x3c634bdb	0.013873066
25	0xbd9a09f4	-0.0752143
26	0xbd46e9bf	-0.04856276
27	0x3b8cfe6c	0.0043027904
28	0xbd0c77bd	-0.03429388
29	0x3d8b550e	0.06803332
30	0xbced00fa	-0.02893113
31	0x3d90b390	0.07065499
32	0x3d527ed1	0.051390473
33	0xbd3c0d19	-0.04591093
34	0x3d04d94a	0.032433785
35	0x3b5dec3f	0.0033862737
36	0x3d4697eb	0.048484724
37	0xbd50e96e	-0.051003866
38	0x3c828745	0.015933642
39	0x3cf63b77	0.030057652
40	0xbd10c502	-0.03534413
41	0x3d7ae8ef	0.0612573
42	0xbce8707b	-0.028373947
43	0x3ccd7fd2	0.025085364
44	0x3d62a3f8	0.055332154
45	0x3d881dbf	0.066462986
46	0x3c1ad074	0.009449113
47	0xbad4e898	-0.0016243635
48	0xbd8b30da	-0.06796427
49	0x3d847700	0.0646801
50	0x3c8aabc5	0.01692761
51	0x3c849110	0.016182452
52	0x3cbb5bc6	0.02287091
53	0x3d02d353	0.031939816
54	0xbd138f39	-0.03602526
55	0x3b99eda9	0.0046975208
56	0xbd2ca3de	-0.042148463
57	0x3d6abc3e	0.057308428
58	0xbd172108	-0.036896735
59	0x3d50f0f7	0.051011052
60	0xbcbba745	-0.022906909
61	0xbc90da58	-0.01768224
62	0x3af5e91c	0.0018761489
63	0xbb609326	-0.0034267395
64	0xbd89bf8a	-0.06725986
65	0xbd8738be	-0.066026196
66	0x3d1b5434	0.0379221
67	0xbce113f0	-0.027475327
68	0xbc6b34a2	-0.01435581
69	0x3caf3790	0.021388799
70	0xbd142061	-0.03616369
71	0xbd11a3d2	-0.03555662
72	0xbd6a1371	-0.057147447
73	0x3cc5b3f2	0.024133656
74	0xbcb2540a	-0.021768589
75	0xbb8f14e7	-0.0043665054
76	0x3d2109cc	0.039315984
77	0xbd29ed17	-0.041485872
78	0xbd47a425	-0.048740525
79	0xbd364891	-0.0445028
80	0x3cefaee0	0.029258192
81	0x3c60c7f1	0.013719545
82	0x3d8ba4c4	0.06818536
83	0xbc204bf8	-0.009783737
84	0x3ce46897	0.027881904
85	0xbd752a5d	-0.059854854
86	0x3d35c5c4	0.044378057
87	0x3d842c74	0.06453791
88	0xbd64cadd	-0.055857528
89	0xbb5f8735	-0.003410769
90	0x3c933046	0.017967355
91	0x3bb36d6c	0.0054756906
92	0x3d865b1e	0.06560348
93	0xbce464bb	-0.027880063
94	0xbd7c71d5	-0.061631996
95	0x3d62596b	0.055261057
96	0x3d8afc68	0.06786424
97	0xbcd5add5	-0.026083866
98	0x3c8c2e16	0.01711182
99	0xbcb667fa	-0.022266377
100	0xbc524a97	-0.012835166
101	0x3b7a436c	0.003818716
102	0xbc2ac5a1	-0.010423095
103	0xbd883a5a	-0.06651755
104	0xbcac9258	-0.021065876
105	0xbd8d52b4	-0.0690054
106	0x3d009a9b	0.031397443
107	0xbd49b332	-0.04924316
108	0x3bdbf083	0.006712021
109	0xbd12e781	-0.03586531
110	0xbb2726e4	-0.0025505358
111	0xbd7572cf	-0.059923943
112	0x3d31158d	0.043233443
113	0xbd8c9628	-0.068645775
114	0xbca11351	-0.019662531
115	0xbd78b62a	-0.0607206
116	0xbd0bb841	-0.034111265
117	0xbd7eb511	-0.062184397
118	0x3d671a00	0.05642128
119	0xbce70ec1	-0.028205277
120	0x3c90a32b	0.01765593
121	0x3cc54d74	0.024084784
122	0xbd8e3b0d	-0.06944857
123	0x3d4c76a3	0.04991783
124	0xbd06a3de	-0.03287112
125	0xbd871895	-0.065964855
126	0xbcffbafd	-0.031217093
127	0xbc361638	-0.011113696
128	0x3d8c4e1f	0.06850838
129	0xbd9ebede	-0.07751249
130	0x3d863bda	0.065543845
131	0xbd6b8f5b	-0.05750976
132	0xbd9095f2	-0.0705985
133	0xbcb7256a	-0.022356708
134	0x3c8b2fc0	0.016990542
135	0xbc17b94b	-0.009260486
136	0xbd23bde9	-0.039976034
137	0xbd6618bd	-0.056175936
138	0xbaf7be6b	-0.0018901353
139	0xbd9bfd8d	-0.0761672
140	0x3bbb9840	0.0057249367
141	0x3d1b85d5	0.03796943
142	0x3ce62b53	0.02809683
143	0xbd828981	-0.06373883
144	0xbcae2617	-0.021258397
145	0x3c1993a4	0.009373579
146	0x3d720b3a	0.059092738
147	0x3d736fca	0.059432782
148	0xbcb3a3da	-0.021928716
149	0xbd8cc2aa	-0.06873067
150	0x3c99d8f7	0.018780215
151	0xbc8daca1	-0.01729423
152	0xbd856938	-0.065142095
153	0x3c6ade33	0.014335203
154	0xbca84159	-0.020538973
155	0x3d424c52	0.047436066
156	0x3c77a158	0.015114151
157	0x3d6927e0	0.056922793
158	0x3c4fe3c1	0.012688578
159	0xbd7dab04	-0.06193067
160	0xbc6f2351	-0.014595822
161	0x3bc042b5	0.005867327
162	0x3d0c9725	0.03432383
163	0x3d2a6379	0.04159877
164	0x3cf90820	0.030399382
165	0x3d57e36a	0.052707113
166	0xbd42a756	-0.047522865
167	0xbd777f16	-0.060423933
168	0xbc7c1c1f	-0.015387564
169	0xb9b63c92	-0.00034758874
170	0xbc1574d7	-0.009122095
171	0xbd422d98	-0.047406763
172	0x3d899d21	0.06719423
173	0xbd8f7334	-0.07004395
174	0x3d013a39	0.031549666
175	0x3d2637f1	0.040580694
176	0x3cc0f7b2	0.02355561
177	0xbc933996	-0.017971795
178	0x3d7d1b56	0.061793648
179	0x3c65d0cc	0.014026832
180	0x3d68a8ef	0.056801733
181	0x3d325867	0.04354134
182	0x3cf0bc23	0.029386586
183	0x3c07559f	0.00826016
184	0x3d50e6fe	0.05100154
185	0x3cbcd604	0.02305127
186	0xbd82c3cc	-0.063850015
187	0x3c97c41a	0.018526126
188	0xbd59bf1c	-0.05316077
189	0xbd5d2385	-0.053988952
190	0xbd7a6cec	-0.061139032
191	0xbd279340	-0.040911913
192	0xbd561d99	-0.05227432
193	0x3ce5a13d	0.028030986
194	0x3c204d7f	0.0097841015
195	0x3d71b35e	0.05900895
196	0x3cfaf557	0.030634565
197	0x3d43acf3	0.04777236
198	0xbd7a04ad	-0.061039615
199	0x3ccb175a	0.024791408

hidden2_Y1.weight f4 [200, 200]
0	0xbda8fd5b	-0.08251449
1	0xbe089d75	-0.13341315
2	0x3d5101ee	0.05102723
3	0x3abb0a07	0.0014269956
4	0x3c2343ac	0.009964865
5	0xbdd6509a	-0.10464592
6	0xbd51e081	-0.051239494
7	0xbd877fe8	-0.06616193
8	0xbdc668d6	-0.096879646
9	0x3d4a760f	0.049428996
10	0xbe08902f	-0.13336252
11	0xbd283323	-0.041064393
12	0x3dbc05b9	0.09180779
13	0x3d6a7d8b	0.057248633
14	0xbc988803	-0.018619543
15	0xbd91cf60	-0.07119632
16	0xbd114e99	-0.035475347
17	0xbcf5c77a	-0.030002344
18	0x3b39b258	0.002833506
19	0xbd5c9277	-0.053850617
20	0xbd7e9fd6	-0.06216415
21	0x3cefd173	0.029274678
22	0x3c54a9bb	0.01297992
23	0xbdc495e5	-0.095989026
24	0xbdc70d21	-0.09719301
25	0x3d9c8868	0.07643205
26	0xbdb5aad9	-0.08870477
27	0xbc5e5063	-0.01356897
28	0x3d69c6ba	0.057074286
29	0xbd1e4998	-0.038644403
30	0x3caacdd5	0.020850101
31	0xbd2948ad	-0.041329075
32	0xbb39f8c6	-0.002837704
33	0x3dbfc84a	0.09364374
34	0xbd8389d8	-0.06422776
35	0xbdfd20fa	-0.123598054
36	0x3d79c057	0.060974445
37	0xbe02ab7b	-0.12760727
38	0x3d367033	0.044540595
39	0xbdfbfb46	-0.12303786
40	0xbd29b555	-0.041432697
41	0xbdb40da6	-0.08791666
42	0x3d273337	0.040820327
43	0x3dc8269e	0.09772991
44	0x3af06ec7	0.0018343561
45	0x3c650dc9	0.013980337
46	0xbe07eac7	-0.13273154
47	0x3d80f4c1	0.06296683
48	0xbd9385ca	-0.072032526
49	0xbcdad136	-0.026711088
50	0xbe004e29	-0.12529816
51	0x3d93ac63	0.072106145
52	0xbcfeeba1	-0.031118216
53	0xbdbac856	-0.09120242
54	0x3cc99a7d	0.024609799
55	0xbd7c5c97	-0.061611738
56	0x3d73cd3c	0.0595219
57	0xbc3d47ec	-0.011552792
58	0x3d48e4ff	0.049046513
59	0xbdbae705	-0.09126095
60	0x3c012fda	0.007884944
61	0x3ccbf880	0.024898767
62	0x3d2bfc1b	0.041988473
63	0x3cd88345	0.026429782
64	0x3c5cf73a	0.013486678
65	0xbcfe0bd0	-0.031011492
66	0x3d98a9e3	0.07454278
67	0xbe05a61c	-0.13051647
68	0x3bca92aa	0.0061820345
69	0xbd0f1cab	-0.03493945
70	0xbd0b2dec	-0.03397934
71	0x3c0b1f4b	0.008491348
72	0xbd7f244c	-0.062290475
73	0xbd930f49	-0.0718065
74	0x3d6ecdb5	0.058301646
75	0xbde78ad2	-0.11305775
76	0xbda19519	-0.07889766
77	0x3d192c2f	0.037395652
78	0x3d510f47	0.05103996
79	0x3d9dd806	0.07707219
80	0x3dd5ff42	0.10449077
81	0x3d723fff	0.059143063
82	0x3d834e5e	0.06411432
83	0xbcd149fc	-0.025547974
84	0x3ddef5f1	0.10886753
85	0xbdd86004	-0.105651885
86	0x3db03ca0	0.08605313
87	0xbc8915a4	-0.016733952
88	0xbdbc4cd4	-0.09194341
89	0xbe095382	-0.13410762
90	0xbdd408f8	-0.10353273
91	0x3d1ee42d	0.038791824
92	0xbd38e976	-0.04514452
93	0xbd57f00f	-0.052719172
94	0x3d043770	0.03227943
95	0x3db5d891	0.088791974
96	0x3d2b1e21	0.04177678
97	0x3d64dba0	0.055873513
98	0xbdaf3369	-0.085547276
99	0x3d58aabe	0.052897207
100	0x3d2aff18	0.041747183
101	0xbdf513a2	-0.11966635
102	0xbde67530	-0.112528205
103	0xbd8d3f74	-0.06896868
104	0xbdffee1f	-0.1249659
105	0x3d8e42da	0.06946345
106	0xbd4b9689	-0.04970411
107	0xbd4ccc9c	-0.04999982
108	0x3d1419ad	0.0361573
109	0x3dcd1211	0.100132115
110	0xbdc14716	-0.09437387
111	0xbd8b8e96	-0.068143055
112	0xbd88f430	-0.066872
113	0xbd7c29b2	-0.0615632
114	0x3d8b90fb	0.06814762
115	0xbc8e08fc	-0.017338268
116	0xbdc1c1f6	-0.09460823
117	0x3d2a3863	0.04155768
118	0xbd9f3c9e	-0.07775234
119	0xbcd274d4	-0.025690474
120	0x3d93af08	0.07211119
121	0x3c7a9c82	0.015296103
122	0x3d841b39	0.06450505
123	0xbd1c3049	-0.038131986
124	0xbdd58896	-0.10426442
125	0x3d41e40c	0.047336623
126	0x3d28cf6c	0.041213438
127	0xbd939b03	-0.072073005
128	0xbe0fa810	-0.14028955
129	0xbdd918cd	-0.106004335
130	0x3d8c7194	0.06857601
131	0x3cb7c950	0.02243486
132	0xbdc3f660	-0.09568477
133	0xbccb27a7	-0.024799181
134	0xbcf2de21	-0.029646935
135	0xbdf4c9a7	-0.11952525
136	0xbd5ddf70	-0.054168165
137	0xbdbe0f5b	-0.092802726
138	0x3cb4f405	0.022089014
139	0xbdba86bc	-0.0910773
140	0xbd621ef2	-0.055205293
141	0x3da15990	0.07878411
142	0x3ca820c8	0.020523444
143	0x3c1c4abf	0.009539305
144	0x3bc4a6c6	0.0060013263
145	0x3d05351b	0.03252135
146	0xbd8ad26f	-0.06778418
147	0xbcd9336c	-0.026513778
148	0xbd95c06b	-0.073120914
149	0xbd8d105a	-0.068878844
150	0xbde1f205	-0.1103249
151	0xbd938815	-0.0720369
152	0x3d9c8b4e	0.07643758
153	0xbe02e695	-0.12783273
154	0xbd7e545a	-0.062092163
155	0x3dd196bf	0.10233831
156	0xbdb2d9b4	-0.0873293
157	0x3db401d3	0.087894104
158	0xbd53730f	-0.0516234
159	0x3dbc4b5f	0.091940634
160	0xbd2c9a3b	-0.042139273
161	0xbcf5c816	-0.030002635
162	0xbd650109	-0.05590919
163	0x3d037063	0.032089602
164	0x3daaf3f2	0.0834731
165	0xbc0eced2	-0.008716302
166	0xbe080c11	-0.13285853
167	0xbdeb26fc	-0.11482045
168	0xbd9272bf	-0.07150792
169	0xbd465cfa	-0.048428513
170	0xbdb07441	-0.08615924
171	0xbd7769d3	-0.060403656
172	0xbd566423	-0.05234159
173	0x3ce252f1	0.02762744
174	0x3d361e76	0.044462644
175	0xbd87c111	-0.06628621
176	0xbca40a4f	-0.020024447
177	0x3d94feef	0.07275187
178	0xbcebb532	-0.028772924
179	0x3d936b15	0.07198159
180	0x3d4f8eb8	0.050673217
181	0x3d8a2a11	0.06746305
182	0x3db31629	0.08744461
183	0x3cbcb7d3	0.023036873
184	0x3d8b886d	0.068131305
185	0xbc852dbd	-0.016257161
186	0xbd302faa	-0.043014206
187	0xbe006f06	-0.12542352
188	0x3d4c3ed2	0.049864598
189	0xbd8260d3	-0.06366124
190	0xbd6534c1	-0.055958513
191	0x3da2404b	0.07922419
192	0x3d99fbf2	0.07518758
193	0x3cd681f4	0.026185013
194	0xbda0bc07	-0.07848363
195	0xbd83db11	-0.06438268
196	0x3c8effbe	0.017455932
197	0x3d0e2af4	0.034708932
198	0xbda0085c	-0.078140944
199	0xbd52db89	-0.051478896
200	0x3cd44a1d	0.025914246
201	0xbd9578a8	-0.07298404
202	0xbc5620d2	-0.013069348
203	0x3bcfeed3	0.0063456087
204	0x3df7fc92	0.12108721
205	0xbdce0070	-0.10058677
206	0x3dd3202a	0.10308869
207	0xbd8a6ee2	-0.067594305
208	0xbdd07a0c	-0.101795286
209	0x3d639115	0.055558283
210	0x3d89a9ee	0.06721865
211	0xbda0dfc0	-0.07855177
212	0x3da8926a	0.08231051
213	0x3dc14b14	0.09438148
214	0xbd2a3fd7	-0.04156479
215	0x3ce041aa	0.027375061
216	0xbcb89590	-0.022532254
217	0x3c573eb0	0.013137504
218	0xbda9f71b	-0.08299085
219	0x3dd02abd	0.10164402
220	0xbd724f00	-0.05915737
221	0x3dca2ef8	0.0987224
222	0x3cebbe0e	0.028777149
223	0x3daa70b5	0.083222784
224	0x3daf849c	0.08570215
225	0x3dd06e08	0.10177237
226	0xbde6ace7	-0.11263447
227	0xbdb0f4fb	-0.08640476
228	0x3d0d4116	0.0344859
229	0x3d05d7c4	0.032676473
230	0xbe0267fc	-0.1273498
231	0x3b67d8e7	0.0035377087
232	0xbda281ce	-0.079349145
233	0x3cf7e007	0.030258192
234	0x3d5dc210	0.05414015
235	0xbd41b3df	-0.04729068
236	0x3dbde4e3	0.09272172
237	0xbcb98a76	-0.022649031
238	0x3d990e81	0.074734695
239	0xbdc453de	-0.09586309
240	0x3d85d623	0.06534984
241	0x3dd9d7a3	0.106368326
242	0xbd1bbeaf	-0.038023647
243	0xbca1ac9c	-0.019735627
244	0x3d727d46	0.0592015
245	0x3d8a7997	0.06761473
246	0xbd27a972	-0.04093308
247	0xbdee7a76	-0.11644451
248	0x3bbd2e57	0.0057733464
249	0x3d7021d7	0.058626022
250	0x3de85022	0.11343409
251	0xbdb4b8d4	-0.08824316
252	0x3df02759	0.11726255
253	0xbca0ee14	-0.019644774
254	0xbc1e4ef0	-0.009662375
255	0xbdbb7ee1	-0.091550596

hidden2_Y1.bias f4 [200]
0	0xbd475f50	-0.04867488
1	0xba76e129	-0.0009417707
2	0xbb3368a8	-0.0027375612
3	0xbd4d65a3	-0.050145756
4	0xbd019fee	-0.03164666
5	0xbda68de7	-0.081325345
6	0x3bc00361	0.005859778
7	0xbce8f23c	-0.028435819
8	0xbb529f03	-0.0032138235
9	0xbc8cca05	-0.017186174
10	0xbd40712a	-0.04698292
11	0x3d6190d4	0.05506976
12	0x3d903652	0.07041611
13	0x3d2068c1	0.0391624
14	0xbc33aef7	-0.010967008
15	0x3d8b3ce3	0.067987226
16	0x3bd8ff23	0.0066222115
17	0xbd822a30	-0.06355703
18	0x3d4b2c70	0.049602926
19	0x3d16f0cb	0.03685073
20	0xbd09aa9c	-0.03360997
21	0xbd806e69	-0.06271059
22	0xbceda6e6	-0.029010247
23	0x3d5d6b2d	0.05405729
24	0x3b66acd7	0.0035198235
25	0xbd7623c5	-0.060092706
26	0xbcc61f28	-0.024184778
27	0xbcc9f1a9	-0.024651365
28	0x3d4fc73b	0.05072711
29	0x3c915597	0.017741008
30	0x3d579dea	0.052640833
31	0x3caceafc	0.021108143
32	0x3d011072	0.031509824
33	0x3d07772c	0.033072636
34	0xbccc4628	-0.024935797
35	0x3c521a07	0.012823588
36	0x3d01ad48	0.031659395
37	0xbd055bed	-0.03255837
38	0xbd3e5ad9	-0.046473358
39	0x3c5cccb7	0.013476542
40	0xbb588a5e	-0.0033041458
41	0xbc16a071	-0.009193526
42	0x3d8263a5	0.06366662
43	0xbd81b463	-0.06333234
44	0xbc666c9d	-0.014063981
45	0x3d1335d9	0.035940025
46	0xbd265a3b	-0.040613394
47	0xbc51cba8	-0.012804903
48	0x3d1facd6	0.03898319
49	0x3d09a49d	0.033604253
50	0x3d30aafe	0.04313182
51	0x3d62d395	0.05537756
52	0xbd42c053	-0.047546696
53	0x3d746aac	0.059672043
54	0x3d22cfa5	0.039748807
55	0x3d7dd9ad	0.06197517
56	0xbceffe7f	-0.029296158
57	0x3c840b5d	0.0161187
58	0xbae7bc9b	-0.001768011
59	0x3d212c89	0.039349113
60	0x3d49e3d1	0.04928953
61	0xbd91e766	-0.07124214
62	0xbcafbb7f	-0.02145171
63	0x3ce10188	0.02746655
64	0xbd0803f7	-0.033206906
65	0xbd57f539	-0.052724097
66	0xbd8ef3b3	-0.06980076
67	0x3d6d6b1e	0.057963483
68	0x3b89110e	0.0041829413
69	0xbcba650a	-0.022753257
70	0xbac51f51	-0.001503924
71	0xbd603f11	-0.054747645
72	0xbd21263d	-0.039343107
73	0x3d7581c3	0.059938204
74	0xbd1a8ef8	-0.037734002
75	0xbd15bc79	-0.036556695
76	0xbcc42855	-0.023945013
77	0x3d932339	0.071844526
78	0xbd8f2c59	-0.069908805
79	0xbd377cc9	-0.04479674
80	0x3d0a18b7	0.033714976
81	0xbc6bbcf6	-0.0143883135
82	0x3d8267c7	0.0636745
83	0xbd92dd56	-0.07171123
84	0xbda05118	-0.078279674
85	0x3d9b167a	0.075726464
86	0xbc8a6c3a	-0.01689731
87	0x3d3665de	0.044530742
88	0xbd6b7963	-0.05748881
89	0xbd56f576	-0.052480184
90	0xbd3ae094	-0.04562433
91	0x3cca9e2c	0.024733625
92	0x3c40cf7c	0.011768218
93	0xbd06467f	-0.032782074
94	0x3d899b2b	0.06719049
95	0x3ca0426a	0.019562919
96	0x3c8763a3	0.016527003
97	0x3d86473d	0.065565564
98	0x3d8b5413	0.06803145
99	0xbcf5f594	-0.030024327
100	0xbd8ba949	-0.06819398
101	0xbd8f87f3	-0.07008352
102	0x3d5ff914	0.0546809
103	0xbc8d0116	-0.017212432
104	0xbd4251d2	-0.04744131
105	0xbd84d0c6	-0.06485133
106	0xbd62bb42	-0.055354364
107	0xbcd0f403	-0.025506979
108	0xbd4af66d	-0.049551416
109	0xbd803a38	-0.06261104
110	0xbd5b5f09	-0.05355743
111	0xbd2f809c	-0.04284726
112	0xbd19928e	-0.03749328
113	0xbce0b4ae	-0.027429905
114	0xbb815d24	-0.003947871
115	0xbbbf6468	-0.005840827
116	0xbd06a2dd	-0.032870162
117	0x3d179899	0.037010763
118	0x3c1ce573	0.009576189
119	0xbd83624c	-0.06415233
120	0x3cce2077	0.025161965
121	0x3cc3ff81	0.023925545
122	0xbc4e12b7	-0.012577704
123	0xbb705271	-0.0036670233
124	0xbcf7ff63	-0.030273145
125	0xbbfb5d70	-0.0076710507
126	0x3d2a9d46	0.041653894
127	0x3d073359	0.033007953
128	0xbce95d67	-0.02848692
129	0x3c86bb1e	0.016446646
130	0xbda7e6ea	-0.0819834
131	0x3bf03fa9	0.0073318076
132	0x3af48d7c	0.0018657888
133	0xbd40df86	-0.04708817
134	0x3d2cd9de	0.04219996
135	0xbd23962a	-0.03993813
136	0xbd09efbc	-0.033675894
137	0xbd18c640	-0.03729844
138	0xbd62f218	-0.05540666
139	0x3c564929	0.013078966
140	0xbd9407dc	-0.072280616
141	0x3aebdf7d	0.0017995682
142	0xbcce31bd	-0.025170201
143	0xbd802ead	-0.06258903
144	0xbbdd0a46	-0.0067456095
145	0xbd88fa57	-0.066883735
146	0x3c5ceaa8	0.013483681
147	0xbcac2632	-0.021014307
148	0xbd87f9d0	-0.06639445
149	0x3d5e15d3	0.054220032
150	0xbd2ab07a	-0.041672207
151	0x3d39747b	0.0452771
152	0x3d3d6f20	0.046248555
153	0xbd4f5e7b	-0.050627213
154	0xbd2e03a6	-0.04248395
155	0x3ca0c926	0.019627165
156	0xb96d1b3c	-0.00022612227
157	0xbd4ad11b	-0.049515825
158	0xbd44615f	-0.047944423
159	0x3d0c5757	0.03426298
160	0x3c9addfc	0.018904679
161	0x3baf638b	0.0053524426
162	0xbd3c5b92	-0.045985766
163	0xbd351099	-0.044205282
164	0xbd86100c	-0.065460294
165	0x3d4fba61	0.050714854
166	0xbd46ea4b	-0.048563283
167	0xbbced8bb	-0.0063124574
168	0xbd99ce97	-0.07510107
169	0xbcb3566f	-0.0218918
170	0xbcd50ff6	-0.026008587
171	0xbc26c02b	-0.010177652
172	0x3d031e52	0.032011338
173	0x3d82f429	0.06394226
174	0x3cb91d7c	0.022597067
175	0xbcb1452d	-0.02163943
176	0xbb8168aa	-0.0039492445
177	0x3cc6b3f2	0.024255726
178	0xbd99a797	-0.07502668
179	0x3d91c084	0.071167976
180	0x3c4e1d65	0.01258025
181	0x3d2b5b7f	0.041835304
182	0x3d4d4bb5	0.050121028
183	0x3da0ac32	0.07845344
184	0x3d4bced2	0.049757786
185	0xbc9404fe	-0.018068787
186	0xbd5af32d	-0.053454567
187	0x3d12f5ae	0.03587883
188	0xbd70f737	-0.058829512
189	0xbd1b2891	-0.037880484
190	0x3cfb5101	0.030678274
191	0xbb7cb3b9	-0.0038559271
192	0xbd1c1bb7	-0.03811237
193	0x3c4d81f4	0.01254319
194	0xbd6ada6e	-0.057337217
195	0x3c6e256a	0.014535287
196	0xbcbdc764	-0.023166366
197	0xbcd76930	-0.026295274
198	0x3b85244e	0.0040631657
199	0xbd022b2d	-0.031779457
