Results/Models/SAE_stacked_all_DCN_model_iter_id_5_epoch_400_lr_0.0001_mmd.pth (torch, 828598 bytes, 16 tensors)

shared1.weight f4 [200, 17]
00000000: 2950 ccbc 00b1 bdbd 4d79 bc3d 37a5 e53d
00000010: e2c0 06be 620d 4dbe e7c6 39bd 79c8 333d
00000020: 524e 013e c1f0 02be 94d0 ca3d bbf4 95bd
00000030: c8c0 0c3e cb1e aabc 4e1a 44bd 127e 8bbd
00000040: 8fb9 9ebd f3f4 39be 62b9 aebd 1639 95bc
00000050: 349a 303e 3c39 2ebd 17d8 263d 4520 f43d
00000060: 3b7e a23d 7d6c 683d a7a3 34be 9642 6d3d
00000070: 51ba 8639 7dc6 84bc 5ef6 c63d 24c0 19bd
00000080: e9bc b83d a285 17be 57ce 0ebe 5680 f93b
00000090: faa2 4bbe 1ce3 05be 5d08 e13c 983e 243d
000000a0: e593 a73d e18f e03d ef7c 073e 2b84 e0bb
000000b0: a52b bc3d dad4 cb3d 380f b9bd 02cc c83d
000000c0: 4e27 333e 69fd 69bd da32 8d3c a7aa 8bbd
000000d0: 20c4 f2bd 7147 60bd 0c5c dcbc 8c56 babd
000000e0: 6ac8 92bc 744b 723d 57c5 91bd eaef 7cbd
000000f0: 726e cabd 4674 d1bd 14bd fc3d 33f8 e1bc
00000100: 348b 08be ef69 01be 4282 f239 70f9 29be
00000110: 1df9 333e 452a 07bd faac 35bd 2640 1f3e
00000120: 54cd b6bd 2084 473e e835 6b3d 250c da3c
00000130: ffe0 c63b 6a9e 82bd 7955 e83d 83d2 8ebc
00000140: 0772 96bd d367 a7bd cb5a 65bd 9718 16bd
00000150: cf11 3dbe 075c 36be 8d76 afbd 209a 74bc
00000160: 906a a43d b234 2d3d ee1a 1bbd eb3f 87bd
00000170: 4f7c 20be a707 413d 81dd 123e 471f 403d
00000180: 597b 9dbd 05f9 3f3d 4377 aa3d ec98 703d
00000190: 10be 6cbc cd33 8d3d a76f 08be bae6 e0bd
000001a0: 7823 ca3d faed 2d3e 1fc9 93bc ccbd bfbd
000001b0: 9d0c 44bd a4cb 2d3e 3b01 21bd 89d2 f73d
000001c0: 1ff8 fa3d 1506 913c b3e3 d6bd 7aef 473d
000001d0: f230 893d 69e9 2b3c 4c7d e5bd 299e 633d
000001e0: 28e6 363e 1bdc 2d3e daf2 b5bd fdca 14be
000001f0: 9bca a33d 6a01 a7bc 1878 153d 43bc 76bd
00000200: a57a fbbc 7bc0 d8bc 7a4e d8bd 5892 e8bd
00000210: 7a6d 16be 6d6a 223e 14f8 15be 75df 1fbe
00000220: 03fe b13d fe93 4ebd 8bad 0f3e ddeb 913e
00000230: d334 04be 704a 82be 086d 903d d05a 80bd
00000240: 0b10 d4bd cd44 14be c13e fe3d 2d0c 54bd
00000250: 58c8 e23d 7d6e 433d 301e 1fbe 4d8a ab3c
00000260: 1402 1d3d 72b9 17be b3b4 b53d 14b1 89bc
00000270: 77c4 d33c 1e7a ce3d d1b4 ccbc 3b0f 073e
00000280: b9ec f13d 3c59 c1bd 43cb b9bd 2594 31be
00000290: 17fb 24be 9980 27be 3dc7 32be 2096 ea3d
000002a0: c9ad 24bd 21f4 2c3e 17f7 c6bd 3ffc 743d
000002b0: d3ae 913c eb03 1b3e 3188 06be 9beb 14bd
000002c0: 959a d93c be16 34bb 3c05 ea3d ce06 dd3d
000002d0: ccdf 383d ae62 fd3d 7c02 c9bd b64f f43d
000002e0: 65ca b33d 8a25 033e e31f 9fbd bb44 a33d
000002f0: 2023 61bd 3bb5 a0bd 3d50 183e d715 c53c
00000300: cd12 b03c 91a8 7fbd 29f7 db3d 49fb 323d
00000310: 9b89 d13d ff8f ce3d bb39 2fbd db8e 2b3d
00000320: 26dc f1bb 5cc3 12be 35b9 b8bd 1237 133e
00000330: d248 77bd 800e cabd 1f97 d43d 10d3 453e
00000340: 0adc 4c3d 5b70 52be c66c 04be 43ea 5c3e
00000350: 0974 153e 7868 1dbe d223 d4bd c73c e9bc
00000360: 20ec 2dbd 57e7 f2bb 7bef 2dbe de5d 5abd
00000370: ba81 3c3d 046b 523d 2f83 a03d 5bd2 25be
00000380: 6cbc 723d 27b7 7a3d cffe e9bd bec1 fd3d
00000390: 5b5e 28be 737b 313d 6e6a 0abe 9027 9dbd
000003a0: 436f aabd c4f6 4e3c 4d3d b73d a816 c03c
000003b0: f6a5 11bd 10fe c43d 2d10 a9bd 9041 b23c
000003c0: 0545 2b3e aabf ee3c 8a44 9d3d 7b96 873d
000003d0: e2e5 7dbc fd2c 273d 52c4 8f3d e054 d9bd
000003e0: 10ad 0f3e 1b48 0bbd 889d c43d 093f 82bd
000003f0: 4edf 27be f64b adbd 5c10 1a3e 0f47 12be
-0.024940567 -0.09262276 0.09202824 0.11213153 -0.13159516 -0.20024636 -0.045355704 0.043892357
0.12627533 -0.12787153 0.09903064 -0.07322069 0.13745415 -0.020766636 -0.04787665 -0.068111554
-0.07750236 -0.18159847 -0.08531453 -0.018215697 0.17246324 -0.04253505 0.040733423 0.119202174
0.07934233 0.056744087 -0.17640553 0.05792483 0.00025697288 -0.016207928 0.097149596 -0.037536755
0.09020407 -0.1479707 -0.139459 0.007614176 -0.1988639 -0.13074917 0.027469808 0.040098757
0.081825055 0.10964943 0.13231252 -0.006851693 0.09188012 0.099527076 -0.09036106 0.098045364
0.17495462 -0.057126436 0.017236162 -0.06819659 -0.11853814 -0.05475563 -0.02689936 -0.09098539
-0.01791783 0.05915399 -0.07117718 -0.061752237 -0.09884347 -0.102272555 0.12340751 -0.02758417
-0.13334352 -0.12638067 0.00046254887 -0.16599059 0.17575498 -0.032999296 -0.044354416 0.15551814
-0.08925882 0.19483995 0.057424456 0.02661712 0.006069302 -0.06377871 0.113444276 -0.017434364
-0.07345968 -0.081741 -0.05599479 -0.036644544 -0.18463825 -0.17808543 -0.08567534 -0.014929324
0.08028138 0.042286582 -0.03786748 -0.06603988 -0.1567242 0.04712644 0.1434231 0.04690483
-0.07689542 0.046868343 0.083235286 0.058739588 -0.014449611 0.06894646 -0.13323842 -0.109815076
0.098700464 0.16985312 -0.018040238 -0.09362373 -0.04786359 0.16972214 -0.039307814 0.12100703
0.122543566 0.017703095 -0.10492649 0.048812367 0.06698789 0.010492661 -0.11205539 0.055570755
0.17861235 0.16978495 -0.08884211 -0.14530559 0.07997628 -0.020386416 0.036491483 -0.060238134
-0.03069813 -0.02645897 -0.10561843 -0.11356038 -0.146902 0.1586091 -0.14645416 -0.15612586
0.08691027 -0.050434105 0.14031045 0.28500262 -0.12910776 -0.25447416 0.07052046 -0.06267321
-0.103546225 -0.1447937 0.12414313 -0.051769424 0.11073369 0.04771279 -0.1553886 0.02093997
0.03833206 -0.14816836 0.08872356 -0.01680807 0.025850518 0.10081886 -0.024988564 0.13189404
0.118127294 -0.09440848 -0.09071972 -0.17341669 -0.16111408 -0.1635765 -0.17458816 0.11454415
-0.040204797 0.16890003 -0.097150974 0.059810873 0.017783558 0.15138213 -0.1313789 -0.036357503
0.026562968 -0.0027479376 0.1142678 0.107923135 0.045135304 0.12372337 -0.09814927 0.11929266
0.08778838 0.12807289 -0.07769754 0.07972094 -0.05496514 -0.07847067 0.14874358 0.024058266
0.02149334 -0.062416617 0.107405014 0.043696675 0.10231324 0.10086059 -0.042779665 0.041884284
-0.00738098 -0.14332336 -0.090197004 0.14376476 -0.06037218 -0.09866047 0.103803866 0.19318795
0.050014533 -0.20550673 -0.12932119 0.21573739 0.14595045 -0.15371883 -0.10358395 -0.028471364
-0.042461514 -0.0074128318 -0.16985886 -0.053312175 0.046022154 0.05137159 0.07837521 -0.16193525
0.059261724 0.061209824 -0.11425554 0.12390469 -0.16442244 0.04333062 -0.13517162 -0.076735616
-0.08322003 0.012632076 0.08947239 0.023448303 -0.035558663 0.09618771 -0.082550384 0.021759778
0.16725548 0.029144127 0.076790884 0.06620499 -0.015496703 0.04081439 0.07019867 -0.10611892
0.14030862 -0.034004312 0.09600359 -0.06359679 -0.16393778 -0.08461754 0.15045303 -0.14284919

shared1.bias f4 [200]
00000000: a6e3 123e 19ff 2ebe 17ae d53a 518c df3d
00000010: 4a1b 043e 94f9 81be b1b5 85bc 4769 18be
00000020: 9fec ec3c 394e 42bd cbe7 b33d 79db 79be
00000030: 0147 30bb afaa 13be 7ddf 7fbe 97f0 47be
00000040: 0efe 273e e0be e7bd 1a7a 85be f7b9 163e
00000050: 966d 563e 5f5b 1e3e ac91 ef3c 5bad fd3d
00000060: d875 23be 79b2 8abe 596a 8bbe 73a3 24be
00000070: 2117 8a3d fee5 d8bd 2e72 013e f838 943d
00000080: e9aa 8fbe abc4 4cbe 1d68 0b3e 1a07 323e
00000090: 49a6 debd 74a0 843d 02c1 2d3e b5bb 6ebe
000000a0: fcc7 3b3d c7f0 2c3d 671d ca3d 95d8 bf3d
000000b0: b91c 4abd f724 f83d 1d18 a63d 1a2c 293e
000000c0: c602 7fbe 2567 ce3d d3f0 993c 225d 6fbe
000000d0: f641 073d 2a09 823d b125 2fbe ae6a 163c
000000e0: 15cd 63be ce08 003e a687 c0bd acda b53d
000000f0: 5393 90bd 2a4b c83b 21f2 8fbd 26d8 6bbe
00000100: b7ab 243d 955d a63d 3fac 28be bc46 1bbe
00000110: 0a17 25be ff76 b43d dc7f 42be eb06 e9bd
00000120: 0c1c 413d eb2a 6abe 0d39 1b3c bc8c 57be
00000130: 11ce 24bd 82fd ee3d de60 febd a16d 7f3e
00000140: b764 33be d63c 5fba 7754 ca3d 983d ea3c
00000150: 624f 1e3e 971d 0abd 0acf 31be a30e 18ba
00000160: 495a 263e 70c5 debd 6517 d13d 4a74 d93d
00000170: 0f6b 08be 9bf3 cb3d 5788 63be 03c5 96bd
00000180: e5c9 32be 0367 8dbe 6b8e 18be eaf9 043e
00000190: bb97 13be 9e31 db3d 0506 f6bd 27ca 4d3d
000001a0: c3ef 1b3e 5d3a 103e 1203 2abe 8633 67bd
000001b0: dc72 4c3e 677b 1bbe 2061 4cbe 153e 203e
000001c0: 0b95 ce3d a3df 883d 143a c73d 3146 49be
000001d0: ec93 c3bd 8c14 29be ad76 bc3d e88a a3bd
000001e0: 90b6 ab3d e65b 143e 0633 78be ddf9 1b3e
000001f0: 299f 3d3e 4936 eb3c a83c 27be 1fcb 68bd
00000200: 231f d3bd ae26 d43d 111e cebd 4fcc bdbd
00000210: 92ca 07be dbb1 283e b3a6 56be b570 64be
00000220: 314d 89be 8a1b 553d e06c c1bc 90de d5bd
00000230: d35e c63d 52c9 79be 34a9 503d d925 83be
00000240: 7b47 2fbe 9e4a 0abe 836f 49be 9051 1abd
00000250: 3c02 27be 1900 d5bd a2df 4b3e 6c48 973c
00000260: fecb 36be 4ba4 0bbe b6e0 183d f174 3e3d
00000270: 5311 adbd a190 52be 8de3 43bd d889 73be
00000280: f909 023e 1cf2 8d3d 3296 b53d 4f82 063d
00000290: 9916 0abe 2b45 1fbe 8825 67be 0444 f7bd
000002a0: 2233 88be 04ce 84be b413 e7ba 01d0 133c
000002b0: c7ff 013e 69bb 16bd f3bd 66be 4928 26be
000002c0: eca1 923b c7fa 0abd f502 39be 0e13 53be
000002d0: b0a5 e1bd 414a 6bbe ade7 853d 7cd0 c4bc
000002e0: 2da2 f2bc 143f 5cbd b130 513e c86a 003e
000002f0: 959f 66bd 7619 2a3d 25d0 76be a689 f5bd
00000300: b5bf f6bd b739 953d 5faa c03d 6531 323e
00000310: 66fc 61be f7b6 2c3e ba1f 0e3e 1640 26bd
0.14344653 -0.170895 0.0016302493 0.10915435 0.12901035 -0.25385725 -0.016321989 -0.1488391
0.028921423 -0.04743788 0.087844454 -0.24400128 -0.002689779 -0.1442058 -0.24987598 -0.19525371
0.16405508 -0.113157034 -0.2606972 0.14719377 0.20940241 0.15464543 0.029244266 0.123865806
-0.15962923 -0.2708929 -0.27229574 -0.16077976 0.06742693 -0.105907425 0.12641212 0.072374284
-0.28060082 -0.19996898 0.13613935 0.17385522 -0.1087156 0.064759165 0.16968158 -0.23313792
0.045845017 0.04222181 0.09868889 0.093674816 -0.0493438 0.121164255 0.08110068 0.1652073
-0.24903402 0.10078267 0.018791592 -0.23375371 0.03302189 0.06349404 -0.17104222 0.009180708
-0.22246201 0.12503359 -0.09400873 0.08879599 -0.0705935 0.006112476 -0.07028604 -0.23031673
0.040202823 0.08123318 -0.16471957 -0.15163702 -0.1612207 0.08811759 -0.18994087 -0.113782726
0.04714589 -0.22867934 0.009474051 -0.2104978 -0.040235583 0.116694465 -0.1242082 0.24944164
-0.17518888 -0.000851584 0.09879392 0.028593823 0.1545997 -0.033719625 -0.17364135 -0.0005800521
0.16245379 -0.10877502 0.1020954 0.106178835 -0.1332209 0.099585734 -0.22219978 -0.07361796
-0.17459829 -0.27617654 -0.14898078 0.1298596 -0.1441335 0.10702823 -0.12012867 0.050241616
0.1522818 0.14084764 -0.16602734 -0.05644562 0.1996569 -0.15183793 -0.19958925 0.15648682
0.100870214 0.0668328 0.097278744 -0.19655682 -0.09549698 -0.16511744 0.09202323 -0.07985479
0.083844304 0.14488181 -0.24238214 0.15232034 0.18517746 0.028712409 -0.16331732 -0.056834336
-0.10308673 0.1035894 -0.100643285 -0.092674844 -0.13260868 0.16474096 -0.20962028 -0.2230862
-0.26816705 0.052028216 -0.023611486 -0.10442841 0.09686055 -0.24393204 0.050942615 -0.25614813
-0.17117111 -0.13505027 -0.19671445 -0.03767544 -0.16309446 -0.10400409 0.19909528 0.01846715
-0.17851254 -0.13636892 0.037323676 0.046498243 -0.0845057 -0.20562984 -0.04782443 -0.23783052
0.12699117 0.06930944 0.08866538 0.032839116 -0.13485183 -0.15553729 -0.22572911 -0.1207352
-0.2660151 -0.25938427 -0.0017629773 0.00902176 0.12695228 -0.036799822 -0.22533397 -0.16226305
0.004474869 -0.033930566 -0.18067534 -0.20612738 -0.110179305 -0.22977544 0.06538329 -0.024025194
-0.029618347 -0.053771093 0.2042873 0.12540734 -0.056304533 0.041528188 -0.24102838 -0.11989145
-0.12048284 0.07286399 0.09407496 0.17401655 -0.22068939 0.1686667 0.1387929 -0.04058846

shared2.weight f4 [200, 200]
00000000: d31c ce3c 2cb1 50bd 1b15 f93b 0b50 eb3d
00000010: ffa1 1dbd e5fb c8bd 13f1 10bd 0b2d 5d3d
00000020: 5aca af3c 9f40 17be d7e9 eb3d 1466 ab3d
00000030: 8726 023d f13d 4c3d fd2c de3d e4e3 1c3d
00000040: 299f 1a3d 1b76 083e 6151 c53d 47c6 7abd
00000050: b44d 69bd 97fc 5e3b 5a06 043e 1823 703d
00000060: eceb 2e3d d45e d3bc 855e 2abe f3d9 cd3d
00000070: 344f a5bd 1d30 95bd 735d 87bd 4302 67bd
00000080: 2467 bcbd 433e c8bd 604d ef3d 03e5 d4bd
00000090: bc96 8f3d 70e5 2f3d 19c0 1fb8 1d6e 3e3d
000000a0: 2161 af3d ac63 743d 4152 10bd 777e 533d
000000b0: 173c 6b3e 3e13 8abc 650f 9dbc 6af8 a33d
000000c0: 874e 1c3d 04b9 1c3d 2dc8 39bd 665a 80bd
000000d0: 5324 d9ba e08b b4bd 07bc ae3d 2e66 f63d
000000e0: 03e7 ea3d fdae cc3d 0fe6 333d 5377 cd3d
000000f0: eb72 fc3d 241d 443e ef54 69bd 29a1 1e3e
00000100: e191 e1bd 2553 6a3c 22ed f53d bada 83bd
00000110: a2e4 77bd a305 efbd f36e da3c 9536 c9bd
00000120: 927d a53c 978a 2e3e 7b66 c03d d544 4d3d
00000130: 4a76 78bc ef64 13bd 8b3e 073e f808 8dbd
00000140: 3d3d 4b3d f8c5 10bb 30f0 013e 14c2 a93a
00000150: 735a 913c cbe7 f13d cc18 c83d 0306 6bbd
00000160: ebf2 303d 52c7 1b3e 14e4 00bd f72c c9bb
00000170: 7aa5 f03b 87fd 883b 4b8d 493c 3fff 2e3d
00000180: 7d68 683d df62 773d 778e 173d 4905 9c3c
00000190: 8be5 363d 2a0d d7bc 375a d23d 5d54 e13d
000001a0: d76a b23d 3db0 35bd 2126 073e a237 663d
000001b0: 4752 88bc ba93 c5bb e9cf 7fbc afbf 033d
000001c0: f5e7 873d 370e 86bd f3e6 353d d168 1dbe
000001d0: 5b7c 323e f0f0 dfbc e2e5 37bd 738b 233e
000001e0: 5157 76bd 729e 8a3d 604c 27be bda3 7b3d
000001f0: 0e88 26bb e211 12bd de1e 45bc 90d4 03be
00000200: 7317 2fbe 4f91 3ebd 4b4d 013e f43d 0cbd
00000210: e169 ec3b 231e 553d d5aa 5dbd 2414 323e
00000220: 2d3e 51bd 94a6 eabb 8c71 b3bd 83ad f93d
00000230: 9c3f cf3c b22d 6e3d 335a a3bd b6b4 b739
00000240: 21cf 5bbb 6a35 a8ba 7eda 44bd 93a3 f5bd
00000250: 6b79 c43d 4d55 9dbc 95bf 733d a258 d1bc
00000260: 67ff ba3d 48fc ce3d 9fd5 cd3b a899 56bd
00000270: 26b0 debb b7a3 663e 9895 70bc 2c7b 46bd
00000280: 7957 8bbd 3068 ce3d e018 043d 269d cdbc
00000290: 6b5e 193d a473 76bd e1e2 9b3c 3824 9dbc
000002a0: 394b 13bd ffce f33c ef08 c5bd bf63 ef3d
000002b0: c632 cfbd b185 2fbd cdc5 293e 00e4 9e3d
000002c0: 72ab f63c ff75 23bc 732f f0bd 9b1e aabd
000002d0: f736 643d 57bb 113d bf64 21bd 2378 893d
000002e0: 0443 9dbd 2327 813d 6392 f5bd 181a 383d
000002f0: 7f48 fe3d 7766 fbbd 2381 6ebd 52d8 853d
00000300: ed0d b23c 3039 953c b3a7 723d 974b 8cbd
00000310: 64ef 85bd a72d 9f3d 3b23 093e 9241 513d
00000320: a716 a83c c557 feba a1e8 c13b 346e 67bd
00000330: 2ca6 023d 60a7 0ebd f50c 8ebd a516 19be
00000340: bbbc 173e 7bef 133e 0f3d 303d 3e40 9c3d
00000350: 3f0e fa3d d027 e8bd c97f fe3d 4879 4c3d
00000360: 3d73 cc3d d761 813d a0c2 453e c579 073c
00000370: 225d ac3b dfa7 e53d b2fa cfbb e86c 08be
00000380: 5750 723c d113 813d 08a5 1bbe cebd 933d
00000390: 729c 223e 0704 423d e723 6f3d c8a3 ea3d
000003a0: 692d d5bd 8e7b 7a3c 720c 463d 8621 7ebc
000003b0: 45f0 653d 59f1 0a3d 58c2 b03c 1056 4dbd
000003c0: b229 ffbd cafc 613d b0f2 1b3d cd48 ecbc
000003d0: 1710 523e 3dc0 cbbd 0ff1 c2bc 1e04 0abc
000003e0: 8286 82bd 8154 fabc bc08 84bc e02e 46bd
000003f0: 3a93 8e3c 9f2e bc3d 13b5 8cbc cdea 2cbd
0.025160229 -0.050950214 0.007601393 0.11489876 -0.03848457 -0.0981367 -0.035386156 0.053998034
0.021458793 -0.14770745 0.11519211 0.08369079 0.031775024 0.04986376 0.108484246 0.03830327
0.037749443 0.13326304 0.096346624 -0.06122425 -0.05695887 0.0034025067 0.12893048 0.058627218
0.04270546 -0.025802054 -0.16637619 0.10051336 -0.080717474 -0.072845675 -0.06609621 -0.05639864
-0.0919936 -0.097775005 0.1168468 -0.10395243 0.07011172 0.042943418 -3.808746e-05 0.04649173
0.08563448 0.059665367 -0.035234693 0.05163428 0.22972141 -0.016854879 -0.01917238 0.080063656
0.038160827 0.038262382 -0.045356918 -0.06267242 -0.0016566612 -0.088157415 0.08531957 0.12031208
0.11469843 0.09994314 0.043920573 0.10032525 0.12326606 0.19151741 -0.056965765 0.15491165
-0.11014152 0.01430205 0.1200812 -0.06438203 -0.060520776 -0.11670997 0.026664233 -0.09824864
0.020201478 0.17045055 0.093945466 0.05011447 -0.015164921 -0.03598493 0.13207452 -0.06886476
0.04961895 -0.0022090655 0.1268928 0.0012951517 0.017743325 0.11811789 0.09770355 -0.05737878
0.043200415 0.15212753 -0.031467512 -0.0061393934 0.007343945 0.0041806134 0.012301753 0.04272389
0.056740273 0.060397025 0.0370011 0.019045489 0.044652503 -0.026251394 0.10271113 0.11002419
0.08711784 -0.044357527 0.13198139 0.0562054 -0.016640795 -0.0060295733 -0.0156135345 0.032165226
0.06636039 -0.0654568 0.044409703 -0.15372016 0.1743025 -0.027336568 -0.044896968 0.15971164
-0.060141865 0.06768502 -0.16337729 0.06143545 -0.0025410685 -0.035661586 -0.012031285 -0.12874055
-0.17098789 -0.046525296 0.12627141 -0.03423877 0.00721477 0.052030694 -0.054117996 0.17390496
-0.051084686 -0.007160971 -0.08761892 0.12191298 0.025298886 0.058149047 -0.079761885 0.0003503912
-0.0033540206 -0.0012833301 -0.048059933 -0.1199409 0.09593471 -0.019205714 0.05950888 -0.025554959
0.091307454 0.101067126 0.006281569 -0.05239263 -0.006795901 0.2252339 -0.014684103 -0.04845731
-0.068037935 0.10078466 0.032250285 -0.025099348 0.03744356 -0.060168877 0.019029083 -0.01918231
-0.03596041 0.02976179 -0.096208446 0.11688947 -0.10117106 -0.042852107 0.16579361 0.07758331
0.030111048 -0.009976863 -0.117278 -0.08306619 0.05571648 0.03557905 -0.03940272 0.067123674
-0.07678798 0.06306293 -0.11990812 0.04494676 0.12416171 -0.12275403 -0.058228623 0.065354005
0.021735156 0.018215746 0.05924196 -0.06850355 -0.06539801 0.07772379 0.13392346 0.051087923
0.020518614 -0.001940482 0.005917624 -0.056501582 0.031896755 -0.03482759 -0.06936065 -0.14950044
0.14818089 0.14446823 0.04302698 0.07629441 0.122097485 -0.11335719 0.12426717 0.04992035
0.099829175 0.063174896 0.19312525 0.008268778 0.0052601257 0.112136595 -0.006347024 -0.13322794
0.014789662 0.06302608 -0.15199673 0.07213937 0.15879992 0.047367122 0.05838385 0.1145702
-0.10409052 0.015288247 0.048351713 -0.015510922 0.056137342 0.033921573 0.021577045 -0.050130904
-0.124591246 0.05517272 0.03807324 -0.028843308 0.2051395 -0.09948776 -0.023796586 -0.008423833
-0.063733116 -0.030557873 -0.016117446 -0.048384547 0.017404187 0.0918858 -0.017176187 -0.04221611

shared2.bias f4 [200]
00000000: 3aec 68bd df3a a23d cf9f 88bc 7043 3abc
00000010: ad51 09bd d9f9 bc3b 4858 ae3b 1848 64bd
00000020: a23a 21bc e010 773d 139e f8bc d40b 1f3d
00000030: eec1 1abd 1ac3 78bd 0206 a03c 19bf 06bc
00000040: 47da d23c aceb 29bd 5915 aebd 8d50 06bc
00000050: beb3 723d d18f c9bd b714 90bc 34d1 01bd
00000060: fd7c 96bd 9f9f 31bc 2d57 96bd 0d1d 03bd
00000070: 5f44 c2bc 2183 b9bc 69c9 53bd 1f33 a43c
00000080: 7264 183d 5ed2 23bd cc32 bcbd 0e7a abbd
00000090: 019d f7bc b229 ab3c e8ca 3dbb ce71 f03c
000000a0: 290a f8bd 3ed3 27bc 0bdd ad3b ce27 c8bd
000000b0: d727 97bd 6658 32bc 1f3c cb3c ad14 95bd
000000c0: 9043 d1bd 4753 aa3c 6f48 9cbd 3d55 5fbc
000000d0: 0808 163d ce70 d5bd bc38 74bd e8e0 afbb
000000e0: bc19 a43c aa85 0abb 724e 183b 3b79 17bd
000000f0: a117 85bd 1a6f 29bd f45e 4c3d a96f aebd
00000100: 7df4 89bc 7cc1 a9bd 62de a13c 2980 ccbd
00000110: 40f9 453c c1a5 283d b585 8bbd 7578 b4bd
00000120: 077d d1bc f205 433b 2b7f 88bd 72f8 743d
00000130: f149 403d 0ab9 98bd cefc 91bd ce6d a4bd
00000140: a7e2 d5bb 88b8 96bd fb48 c4bd e430 853d
00000150: d747 bdbb 8683 903d 8b86 d83b 0607 14bc
00000160: 05df 94bd f15e 3abc 3e72 fdbd 703c bc3c
00000170: c7a3 85bc 9a97 543d d20e 8fbd 06a0 853d
00000180: bf71 41bc 6533 6c3c 4f3b 52bd 175b 4ebc
00000190: e083 83bd a5c3 5abd 54b4 afbd f377 7abd
000001a0: 1007 95bd fa57 9dbc 8e08 21bd bcc2 85bd
000001b0: ad55 793b 698a 36bd 5058 3cbc f8a0 31bd
000001c0: 1fb4 e93c ad8f d6bc 2ca7 02bd 799a 48bd
000001d0: 13f7 93bd 669f aa39 43ee 3abc cc21 11bd
000001e0: ea3b a43d aae8 833d cb62 05be e483 34bd
000001f0: 786a f4bc 6d0d 7e3d e694 49bd c544 73bd
00000200: 7612 f0bc 2cf8 9bbd 9efa 933c 376a 80bd
00000210: c9dc b5bc 9e69 123d 18da febc 29c0 46bd
00000220: 36a7 a4bc 34cb ed3b f741 0e3d 841d 053d
00000230: bd0f d3bc 7203 10bd 9128 56bd c4f3 713d
00000240: 3255 c8bd d1b2 253d 9b60 683d 8b3d 98bc
00000250: c040 53bd 6c7e 9dbd 1865 56bd 355d 3dbd
00000260: 38c8 cfbd 341f a53d 010d 303d 8ba0 f5bd
00000270: 4a61 2abd 6aab 98bd 0e3d 103d b44c 343d
00000280: 40e2 15be 44ae 533d dc5a 19bd 848f 59bc
00000290: 1113 e0bc 5a05 04bd b70a a0bd 13b0 f4bd
000002a0: 591a 67bc f627 393c 0284 8bbd e9c9 e6bc
000002b0: 97f7 1bbc fe69 4ebd 32d2 babd 80df 6dbd
000002c0: e7f9 b7bc b3b5 7ebd 23f7 27bd 343d 913c
000002d0: 9e39 0e3d f659 de3a 9a5e bcbd 2e75 8abd
000002e0: 297d 6ebc 81f4 8cbc 3478 98bd 2050 57bd
000002f0: f277 c0bd 3538 cabc ca20 e8bc e131 303d
00000300: f091 0cbe b19a ebb9 6b27 c2bd 58b4 25bd
00000310: 8639 fb3b 0437 a4bd 2524 a2bd 1434 c53c
-0.05686591 0.07921385 -0.016677765 -0.011368617 -0.033525158 0.005767089 0.0053205825 -0.055732816
-0.009840639 0.060318828 -0.030348813 0.03882964 -0.037782602 -0.06073294 0.019534115 -0.008224272
0.025738848 -0.04148452 -0.085001655 -0.008197916 0.059253447 -0.09841884 -0.017588003 -0.031693652
-0.073480584 -0.010841279 -0.07340846 -0.032010127 -0.023714243 -0.022645535 -0.05170575 0.020043908
0.037205167 -0.039995544 -0.09189376 -0.083728895 -0.030226232 0.020893905 -0.0028960053 0.029351141
-0.12111313 -0.010243235 0.0053058914 -0.09773217 -0.07380646 -0.010885334 0.024808941 -0.07279334
-0.10217965 0.020791663 -0.07631003 -0.013631162 0.036628753 -0.104219064 -0.05962442 -0.005367387
0.020031802 -0.00211368 0.0023240116 -0.03698085 -0.064986475 -0.04136572 0.04989524 -0.08517391
-0.016840214 -0.08288857 0.01975936 -0.09985382 0.012083352 0.0411737 -0.06812612 -0.08812038
-0.025572313 0.0029758182 -0.0666488 0.05980725 0.046945516 -0.074571684 -0.07128297 -0.08028756
-0.006527263 -0.07359415 -0.095842324 0.06503466 -0.0057763862 0.07056336 0.0066078356 -0.009034878
-0.072691 -0.011375175 -0.123753056 0.022978038 -0.016313447 0.05190239 -0.069852486 0.06524663
-0.011806904 0.01441655 -0.051326092 -0.01259496 -0.064216375 -0.053409237 -0.08579317 -0.06114955
-0.07276738 -0.01920699 -0.0393148 -0.06531283 0.0038045452 -0.044565592 -0.011495665 -0.043366402
0.028528271 -0.026191557 -0.03189771 -0.04897544 -0.0722486 0.00032543688 -0.011409345 -0.03543262
0.0801924 0.064408615 -0.13025968 -0.044071093 -0.029835925 0.062024523 -0.049214266 -0.059391756
-0.029305678 -0.076156944 0.01806384 -0.06270259 -0.022200005 0.035745256 -0.031109855 -0.048523102
-0.020099264 0.0072568897 0.034730878 0.03249885 -0.02576434 -0.035159536 -0.05228478 0.059070364
-0.09781875 0.040453736 0.056732755 -0.018584033 -0.051575422 -0.07690129 -0.052342504 -0.046231467
-0.101456106 0.08062592 0.04298115 -0.11993512 -0.04159669 -0.0745457 0.035214476 0.044018462
-0.14637089 0.051679865 -0.037440166 -0.013278846 -0.027352842 -0.032231666 -0.07814544 -0.11947646
-0.014105403 0.011301031 -0.06812288 -0.02817245 -0.009519479 -0.05039405 -0.09122123 -0.058074474
-0.02245803 -0.062185 -0.041007172 0.01772938 0.034722917 0.0016964066 -0.09197731 -0.067606315
-0.014556208 -0.017206432 -0.07444802 -0.052566648 -0.09397878 -0.024685005 -0.028335948 0.04301632
-0.13727546 -0.00044937947 -0.09480175 -0.040455192 0.0076667694 -0.08018306 -0.0791705 0.024072684

hidden1_Y1.weight f4 [200, 200]
00000000: 9335 163d 567b 863d 9918 a13d 8b2c afbd
00000010: e2f8 a1bd 4eb9 b03d 63ad afbd 40fd cbbd
00000020: bd50 bf3d 91dd c83d ddda 593d 26ac a53d
00000030: ba3f c43d 5741 d2bd 6eb1 093d d7f6 eb3d
00000040: cac0 7b3c bc64 1ebd 1856 c83d 174a 283d
00000050: a2c3 cabc f34a 843d 7426 93bd c2c5 a3bd
00000060: 0e09 3d3d 91dc 16bc 03e4 733c 0bf7 b8bb
00000070: 117b 59bd 082d 17bd ba7b cbbd 5c6d ccbc
00000080: d26c a53c 22f0 cfbd 6a98 d5bd 50ae 9dbd
00000090: 7b9d 6c3d af6c 753c b258 af3c 32c0 623d
000000a0: 468b 39bd bb4e 7c3d bc90 db3c 491d 963d
000000b0: cb25 143d 1032 6cbc cd85 a83d de38 d1bd
000000c0: 995c a6bd b1ee b7bd 634b 343d 727d aabc
000000d0: cd6a a7bd 350f af3d e3c2 8a3c 0400 4ebd
000000e0: 3fe3 86bd df6c be3c 8a5d b2bd 745c dd3c
000000f0: a512 babd 8670 d43d 3e6e 823d 4447 c4bd
00000100: 1990 8d3d f18a fbbd 23cb 9b3b da87 2ebd
00000110: f456 48bd 76a8 c23d 85e0 9b3d 3731 b4bd
00000120: 0c10 ecbd fc1f f33d c6e6 b33d c47b 8a3d
00000130: 71a1 abbd aa2c b33b a3e9 0c3d 4987 c3bd
00000140: b94b e4bd b256 83bd c7bc ea3c fed1 ef3d
00000150: 0a9a 503d 7f74 bf3d 9fff 853d fa9b bfbd
00000160: 2740 ecbd 5103 56bb 80b4 d4bd eed4 41bb
00000170: 5b98 3abd 86ed 97bd a488 25bd db9e 69bc
00000180: dd36 513d 4c83 afbd ca1c 94bd 8603 763d
00000190: c9ff d33d 508e a0bd 18ff 8a3c 7d81 92bc
000001a0: adf2 bcbc e764 673d 431b e83d 6674 e4bd
000001b0: e502 cbbd f660 c1bb e2d4 9fba 68d4 c9bd
000001c0: b671 8abd 317c 153d d2f5 4dbc 6fd6 74ba
000001d0: 4223 c53d 64d1 62bc 333d e73b f95c 933d
000001e0: 84dd fcbb e9cc a63d f351 53bd b58b 8c3d
000001f0: 2bcc cbbd 41c5 223c cc65 f0bd 2367 853d
00000200: 8b86 0cbd e567 01bd 9573 e53d 858d dcbd
00000210: c0d2 fdbd 8c11 803d 6204 343d e116 cfbd
00000220: c1e4 a03d 3e3c 12bd d1cc c8bc e932 c43d
00000230: dc8a e83d 02c1 c33d eff6 9ebd 5112 843d
00000240: be50 b03d 3d42 f9bd da46 efbd 73b0 c73d
00000250: 1d0e 83bd e39c b23d 921b 89bd fd2d 573d
00000260: b6e3 ad3d 8f03 753d d283 d33d b186 a2bd
00000270: 1c77 e13d ba67 b3bd ed9f 80bc 7067 fa3d
00000280: 6eb3 92bd 546a cbbb 1067 e0bb 6a82 91bd
00000290: eea8 383d b65b a7bd 66cc 8eba cb47 cb39
000002a0: 894a efbc 2750 fb3b ef03 81bc f64c e2bc
000002b0: cdb1 f93d 8dd6 013c d019 733d 838e f93b
000002c0: 06f6 973d 20aa b7bd 0b14 af3c 4fd4 6bbd
000002d0: 3dc2 f3bd 00ac db3d 19c4 09be 6cde fabd
000002e0: dc76 a63b b1e2 7b3d 9ca8 7c3c 2a76 c53d
000002f0: 2114 093d 00b7 5c3c aeb4 843d 299f d2bd
00000300: 5bfc abbd 66a7 a5bd 5387 7f3d 2990 e5bd
00000310: 249b bcbd 85cb e73c 0608 8c3d 4201 55bd
00000320: 75d3 9c3b 29be bdbd 25cd d83d 700e c73d
00000330: b054 ef3d 15f9 b3bc 8584 f23d b0c3 c73c
00000340: c34e 56bd 2500 c53c 4ad2 d83c 582f e13d
00000350: 0e52 e73c 6cfe 9fbd 0135 9f3d 0271 81bc
00000360: 5374 c93d f88c 63bd 0c24 d3bd 1e69 813d
00000370: cfd8 9d3d 259d 233c 457d e7bd c052 a6bc
00000380: 63b3 11bd 19ff aa3d 868c de3d aa9c ddbd
00000390: 3c23 05be d826 a73d a51a 3fbd 9682 8e3d
000003a0: 3fce 7bbd 3bd1 e4bd 3d09 70bb cf64 a8bb
000003b0: b4a0 29bd 0ba5 40bb f5ea 95bd b793 3e3d
000003c0: d458 61bc 1319 b13d 1927 9abd 9191 31bb
000003d0: e049 db3d e0dd eb3c b7e4 9dbd a692 ac3d
000003e0: a98f e03d d3d6 f0bc e6c9 4e3d a9b2 9c3c
000003f0: 4b21 3dbd d37f 8f3d 0557 1fbd 3659 f8bd
0.036672186 0.06566493 0.0786602 -0.08553418 -0.07908799 0.08629094 -0.08577993 -0.09960413
0.093415715 0.098078854 0.05318724 0.08089475 0.095824674 -0.10266369 0.033616476 0.1152169
0.015365789 -0.038670287 0.09782046 0.041086283 -0.024751488 0.06459608 -0.07185069 -0.07996704
0.046151213 -0.009207861 0.014885905 -0.005644684 -0.05309588 -0.03690818 -0.09935708 -0.02495449
0.020193491 -0.101532236 -0.10429461 -0.07699263 0.057767373 0.0149795255 0.021404598 0.055359073
-0.045298837 0.06159852 0.026802413 0.073298045 0.036168855 -0.014416233 0.082286455 -0.10215925
-0.0812313 -0.08981074 0.044017207 -0.02081177 -0.081746675 0.085478224 0.016938632 -0.050292984
-0.065863125 0.023245273 -0.087092474 0.027021624 -0.090855874 0.10373025 0.06368683 -0.09583905
0.0691225 -0.1228236 0.0047544404 -0.042610027 -0.04891105 0.095047876 0.07611183 -0.087984495
-0.11526498 0.11871335 0.08784251 0.06761888 -0.08380402 0.005467971 0.0344025 -0.09547288
-0.111472555 -0.0641302 0.02865447 0.11709975 0.050928153 0.09348392 0.065428965 -0.09355922
-0.115356736 -0.0032655785 -0.1038599 -0.002957638 -0.045555454 -0.07418351 -0.040413514 -0.0142590655
0.051077712 -0.08569965 -0.072320536 0.060061954 0.103515215 -0.07839644 0.016967341 -0.01788401
-0.023064936 0.056492712 0.11333325 -0.11155014 -0.099126615 -0.005901451 -0.0012194181 -0.098549664
-0.0675997 0.03649539 -0.012570815 -0.00093398144 0.096258655 -0.013843868 0.007056856 0.071954675
-0.0077168364 0.08144552 -0.051591825 0.068625845 -0.09951051 0.009934724 -0.11738166 0.065138124
-0.034307998 -0.031593222 0.11203686 -0.1076918 -0.12393713 0.06253347 0.043949492 -0.10111786
0.07856131 -0.035701983 -0.024511727 0.09580023 0.1135461 0.09558298 -0.077619426 0.06448806
0.0860915 -0.12170837 -0.11683436 0.09750452 -0.06399176 0.0872133 -0.06694712 0.052534092
0.08490698 0.059817847 0.10327877 -0.079358466 0.110090464 -0.08760019 -0.015701259 0.122267604
-0.0716313 -0.0062077437 -0.0068482235 -0.07104953 0.04508298 -0.08171789 -0.0010894656 0.00038772667
-0.029210346 0.007669467 -0.015748946 -0.027624588 0.12192116 0.007924688 0.05935079 0.0076158657
0.07419972 -0.08967996 0.021371862 -0.05757552 -0.119022824 0.10726166 -0.13453712 -0.12249455
0.005080087 0.061495487 0.015421059 0.09641679 0.033466462 0.013471365 0.064797744 -0.10284264
-0.08397742 -0.08088569 0.062384915 -0.11209137 -0.09209278 0.028295288 0.06837468 -0.052003153
0.00478595 -0.09264786 0.10586003 0.097195506 0.11686075 -0.021969358 0.11841682 0.024385303
-0.052321207 0.02404792 0.026467461 0.10995358 0.028237369 -0.07812199 0.077737816 -0.015800957
0.0983664 -0.05555436 -0.1030961 0.06318878 0.077073686 0.009986197 -0.1130319 -0.02030313
-0.035571467 0.08349437 0.108666465 -0.10820897 -0.13001722 0.08161706 -0.04665627 0.06958501
-0.06147599 -0.1117272 -0.00366266 -0.0051389704 -0.041413024 -0.0029395248 -0.07320205 0.04652759
-0.013754088 0.08647361 -0.075269885 -0.002709482 0.1070745 0.028792322 -0.077096395 0.084264085
0.10964901 -0.029399311 0.050485514 0.01912816 -0.04617433 0.070068024 -0.038901348 -0.12126391

hidden1_Y1.bias f4 [200]
00000000: 3e75 c6bc 7857 8abc 1e6d fcbb cbcd 1a3d
00000010: a193 54b9 c09f 24bd 4bde 623d 41d5 843c
00000020: 3a54 8d3d 56f3 4d3d 046a 173d cd18 643d
00000030: 42de 3a3d f1a5 3c3d a4f9 3abd e5f6 0dbd
00000040: 8b20 493d a88b 903d 2588 563d 3887 59bd
00000050: 46af 7cbc e6d9 f43c a4dd 43bc 58c4 843c
00000060: 14e6 94bd cdf7 993c 0c74 9f3c 94c5 29bd
00000070: 25bb 843d 904e 48bd 1b86 3c3d eb8c 22bd
00000080: c451 5eba 5c3a 22bd 0033 283d f7e5 423d
00000090: 183f e4ba 57a1 1cbd 63e8 63bd f1c6 35bd
000000a0: aa93 163d 81b0 6ebd d228 893c a995 3fbd
000000b0: 3a33 3b3d 1b98 053b 366a 34bd 1f46 3c3c
000000c0: 0fa8 0b3c 5242 a43c c14d 86bd df7a 28bd
000000d0: ec5f 33bd 0bee 16bd 6853 663d ea1a 1fbd
000000e0: 8289 81bb a1b6 17bd 2fad 4a3c 5c8a 55bd
000000f0: bc03 e33c 1868 2bbd bc1b 3f3a 893b 85bd
00000100: fd9e 9f3c 6d62 903c ed3f 283c 49f4 9a3d
00000110: 0f03 6b3d a3e8 0a3c 97e7 8cbc 930f 24bd
00000120: ac63 5cbd 560f 613d 24b3 81bb f225 86bd
00000130: e182 68bd 00f1 593c 38f4 aabc 60fc bbbb
00000140: fabf 08bd 7ef7 95bc 5a77 15bd 3083 f73b
00000150: 4801 963c f272 7ebd a2f9 3a3d 490e 8a3c
00000160: 7061 33bc 2987 b03c abc9 5fbd 510b 763c
00000170: 2814 7b3d fffb 4e3d 01fc 12bd 33fa 68bd
00000180: ee8b 2c3d 433b 54bd dab4 d3bc 52a6 c1bc
00000190: 0c41 a6bd 3cf4 6bbd a532 8a3d e037 423d
000001a0: 6554 683d e218 4bbc d333 563c 7d98 24bd
000001b0: 3855 3c3d 425c 633d 4457 8abd 70c5 483c
000001c0: ebe5 9e3d fce6 52bc fe43 8dbc d634 8b3d
000001d0: 08d8 87bc c7d4 ad3b 8d86 58bd 4e42 703d
000001e0: 44ee 93bc 6257 1bbd 9e4a 87ba 8746 a43d
000001f0: f58d 87bd a952 5cba 7f6d 86bd dfef 1dbd
00000200: 720d 00bc 4002 e43c 9656 413d 0a95 89bc
00000210: d415 233d f3d4 713c 8fd8 66bd 56d9 1b3d
00000220: 0b1c 613d 59be 663d 8d36 f7bc d39d 4c3d
00000230: 33b5 bb3c 692c 0a3d d582 013c b4ce 80bd
00000240: 1b71 773c 2ae0 2d3c f6c9 be3c b60b 553d
00000250: 708f 583d 689a 25bc a249 99bc a54e b7bc
00000260: 85bf 83bd 9d75 39bd 24eb b43c 4e25 50bd
00000270: 939f b83c 9fa0 6a3a 0068 1dbd cd06 8abd
00000280: 0c4d b23c 5ca5 6bbd ffbc 81bc 6501 38bd
00000290: 3ced 36bd 6c1d 653d db1c 48bd 67ee 533d
000002a0: b1ee aabc f533 7d3d 0bfd 03bd 855b 7a3d
000002b0: 47bc 243d fdad 263d 3b3b 103d 73d0 403d
000002c0: e29f 113d 5542 4abc 230d 473d 96ad 863d
000002d0: 7408 433d 22f4 4abd cefd 693d 5428 47bd
000002e0: 2445 47bd 7eb1 7bbd 2b2f 443c 9212 113d
000002f0: 6cb4 25bd 5609 31bd a48c 63bc b8e1 18bd
00000300: 1f6a cc3b f46c 11bd 30f4 0a3d 4efa cfbc
00000310: 156b 1abd b7e2 223d 3264 c7bb 0ed2 59bd
-0.024225827 -0.016887411 -0.0077034375 0.037793916 -0.00020272892 -0.040191412 0.055387776 0.016214969
0.069008306 0.05028089 0.03696634 0.055687714 0.045622118 0.04605669 -0.045648232 -0.034659285
0.0491033 0.07057887 0.05237593 -0.05310747 -0.015422648 0.029889058 -0.011954699 0.016206905
-0.072704464 0.018794918 0.019464515 -0.04144819 0.064810075 -0.048903048 0.04602633 -0.03968517
-0.0008480812 -0.039606437 0.041064262 0.047582593 -0.0017413823 -0.038239803 -0.055641543 -0.04437918
0.036761917 -0.058273796 0.016743097 -0.046773586 0.04570315 0.0020384851 -0.044046603 0.011491328
0.008523955 0.020051155 -0.06557799 -0.041132804 -0.04379265 -0.03684811 0.056231886 -0.038844027
-0.00395316 -0.037039403 0.012370392 -0.052133903 0.027711742 -0.04184732 0.00072902045 -0.06505496
0.019484991 0.017625058 0.010269147 0.07566125 0.057375964 0.0084783165 -0.017200274 -0.040053915
-0.053805992 0.054946266 -0.003958123 -0.06550206 -0.05676544 0.013302088 -0.020868406 -0.0057368726
-0.033386208 -0.01830649 -0.036490776 0.0075534806 0.018311158 -0.06212134 0.045648225 0.016852515
-0.010948524 0.021548824 -0.054635685 0.0150173465 0.06129852 0.05053329 -0.03588486 -0.056879234
0.042125635 -0.05181433 -0.025843073 -0.023638878 -0.081178755 -0.057605967 0.06747941 0.047416568
0.05672111 -0.012396069 0.013073879 -0.040184487 0.04597971 0.055507906 -0.06754926 0.012254104
0.07758697 -0.012872454 -0.017244335 0.06797187 -0.016582504 0.005304906 -0.052862693 0.058656983
-0.01805795 -0.03792513 -0.001032192 0.080212645 -0.06618873 -0.00084046513 -0.065638535 -0.038558837
-0.007815706 0.027833104 0.047201715 -0.0167947 0.03981574 0.014760244 -0.05635887 0.038049065
0.054958384 0.056333873 -0.030177379 0.0499552 0.022913551 0.03373376 0.007904728 -0.062894255
0.01510265 0.010612527 0.023289662 0.05201312 0.052871168 -0.010107614 -0.018711869 -0.022376368
-0.06433014 -0.04527818 0.02208478 -0.050816827 0.022537028 0.0008950326 -0.03842926 -0.067395784
0.021765254 -0.057530746 -0.01583719 -0.044923205 -0.044659838 0.055936262 -0.048855644 0.05174103
-0.02086577 0.06181713 -0.032223742 0.061122436 0.040218618 0.040693272 0.035212737 0.047073793
0.035552867 -0.012344916 0.048596513 0.06576078 0.047615483 -0.04954923 0.057126813 -0.048622444
-0.048649922 -0.061448567 0.011974136 0.0354181 -0.040455267 -0.043221794 -0.013888512 -0.037324637
0.0062382366 -0.035504296 0.03392428 -0.02538791 -0.037699778 0.039766993 -0.0060849423 -0.05317884

hidden2_Y1.weight f4 [200, 200]
00000000: 2412 d8bc b2b7 ffbd bfe0 ffbd 4414 953d
00000010: 77af e9bd 1666 9ebd 7f54 c73c 6c3e c1bd
00000020: bdd4 acbd 60f3 853d c66c 063a 33de d83c
00000030: 505b cd3d 3121 6ebc c480 edbd 01a9 16bd
00000040: 1d2f 5fbd 25c5 7e3d 11c0 dd3d bb26 92bd
00000050: 6298 853d 6c84 ee3d ca23 3bbd bac1 ecbd
00000060: c5fe 343d dc5d 333d 4648 b93c 31c8 98bd
00000070: f087 e73c 9f97 d0bd a99b d93d 2e26 08bd
00000080: 61ca 34bd 97da 00be b851 b6bd 31c1 e5bd
00000090: 0270 7e3d 1ccf 9dbd 799b 31bd eaeb b33d
000000a0: b4da f33c 6f00 3e3d 5d71 b8bd 1c2a 99bd
000000b0: 5655 b2bd d9d3 c0bd 2958 12bc 7e66 72bb
000000c0: 1ace 2d3c 7e1a ce3d 2486 72bd e99c 413d
000000d0: 62af 6d3d 806a 34bd d066 503d 1022 f73c
000000e0: 4944 d6bd c0dc c0bd 88de 9b3d bddd a8bd
000000f0: 27ee 363d c8de d93d 7b96 34bd 8c2c d13d
00000100: eb3b 07bd bf40 25bc ecde 013b f6ea dfbd
00000110: 490d b4bc fd06 e0bd 9f14 b1bd 2e44 3abc
00000120: f3f4 f8bd 5528 913c 4032 71bd 4b6c ab3d
00000130: e85f d6bd 22d8 7a3c 5c5c 963d a37a 963d
00000140: 87f9 ca3d edb9 b5bb b50b b33d dc80 7ebd
00000150: 7797 023d 952b b5bd de99 ed3c 9de1 df3d
00000160: 7385 1b3d 0591 c9bd c4b3 903d 8edc 8ebd
00000170: 2072 303c e2ee 58b9 07c8 9ebc de69 7a3d
00000180: 27fc debd c767 c43d d69c 0bbe d02c a23d
00000190: 6a45 fc3d 1cfa e03d 9d75 5c3d 521e b13c
000001a0: 5a1e babd ab91 02bd 0841 c23d 7690 af3c
000001b0: 457e 593b fdee f83d c3d8 eabd 6ffc 66bd
000001c0: 2a05 b0bd eb69 54bc 9caf 973c 6d08 94bd
000001d0: d8cf 813c 2e72 5e3d 5cc8 46bd 4354 a7bc
000001e0: 7a19 b0bd 8f6d ebbd 7077 46bd 2a0d 403d
000001f0: 5d9d ec38 fc55 83bd 841f b5bd 285c 06be
00000200: 304f a5bd 3525 0fbd 6b48 c73d 3670 b63d
00000210: 5d2f e73d 82ad 403d fa92 833d 7a8f ab3d
00000220: 75fa d83c 9d9d da3d a2a8 6ebd bc57 4cbd
00000230: 62f0 3ebd 834f 183d 5701 483d 381f 55bd
00000240: 8e4b 42bc f641 ebbc f435 fe3d 8ba0 c03d
00000250: 98a2 e83d 2296 773d ed75 d8bc d0cd 2c3d
00000260: 74ea 91bd 197f 4c3d 0ff5 b63d e286 4bbd
00000270: 4672 dc3d f9a3 4bbd 086d ee3c cb0f c6bd
00000280: 9139 923b 145f 9ebd 7313 e93d 3ace cbbd
00000290: 7e44 8ebc b353 afbd 5fe7 5d3d 06fa 28bd
000002a0: 957c 173d bb70 763d 1501 1a3d c5f1 b7bd
000002b0: c999 d1bd 18b9 9c3d 2858 d5bd 2113 86bd
000002c0: 893b a93c c8e4 1b3c 876f c5bc b8bd 633d
000002d0: 34b1 193b 14d5 5c3d 9b8f adbd 6dd4 0fbd
000002e0: 7827 6bbd c808 b33d 5d10 dc3d 5704 cb3d
000002f0: 5d45 82bd 0788 f8bd c4d7 c3bd b914 fa3d
00000300: 7aaa cc3c 1257 74bd 00be a33d be97 523c
00000310: f59e 0b3d 679e edbd 899f debd 4f5c 913d
00000320: 570e a53d a374 a6bd e94e f7bb 3493 5d3d
00000330: 6e2f 1bbd 0b6e 8d3d 00eb d3bd 857d b83d
00000340: 34e3 1ebc bb25 d1bd 0a06 c63c c341 913d
00000350: 5fcf cdbc 5659 9cbd 144f ab3d d99b ecbd
00000360: f65a d4bd 23bd dcbd 047a a2bd 2809 273d
00000370: efd1 5fbd cacf 453d 7690 ae3d f16a bebd
00000380: 117b 5f3d 7c3a 3e3c 4db5 0a3d 5337 16bd
00000390: 022c dd3d b8f4 803d d7fd 863c c542 c93c
000003a0: 95f6 ffbc ab7d c6bd 78a1 adbd 8a4c a9bc
000003b0: 537e abbd f563 14bc 4a4d 94bd 563a 953d
000003c0: b871 943d f031 bcbc 9cf8 79bb 153a a43d
000003d0: 6e64 aa3c 7851 74bd ae3e d03d 906c 5b3d
000003e0: caf7 a73d 3a1c 66bd 8507 0f3e 5a19 443d
000003f0: bb37 d6bd b1d8 71bd 4988 d53d fcee 083e
-0.026375838 -0.12486209 -0.12494039 0.07279256 -0.114104204 -0.07734315 0.024332283 -0.09435734
-0.08439014 0.06540561 0.0005127903 0.02647314 0.10027182 -0.014534281 -0.11596826 -0.03678227
-0.05448829 0.06219973 0.108276494 -0.071362935 0.06523205 0.11646351 -0.045688428 -0.11560388
0.04418828 0.043790683 0.02261747 -0.074600585 0.028263062 -0.101851694 0.10625393 -0.033239536
-0.044138316 -0.12583385 -0.08902305 -0.11218489 0.062118538 -0.077055186 -0.04336116 0.087852314
0.029767372 0.046387132 -0.09005997 -0.07478735 -0.08707683 -0.09415407 -0.008932152 -0.003698736
0.0106082205 0.10063647 -0.059209958 0.04726878 0.058028586 -0.04404688 0.0508793 0.03016761
-0.10462243 -0.09417105 0.07610804 -0.08245418 0.044660714 0.10638195 -0.04408882 0.10213575
-0.033016127 -0.010086237 0.001981671 -0.10933487 -0.021978991 -0.10938833 -0.08646511 -0.011368794
-0.12156095 0.017719427 -0.058885813 0.083702646 -0.104675114 0.015310319 0.07341835 0.0734761
0.09910875 -0.0055458457 0.08742467 -0.06213461 0.03188273 -0.08846203 0.029004034 0.10931704
0.037969064 -0.098421134 0.070655376 -0.06975661 0.010769397 -0.00020688356 -0.01938249 0.06113612
-0.10887938 0.095901065 -0.13634047 0.079187036 0.12317927 0.109852046 0.053823102 0.021620903
-0.0908782 -0.0318772 0.0948506 0.021431189 0.0033186835 0.121549584 -0.11467125 -0.056393083
-0.08594735 -0.012964706 0.018516354 -0.072281696 0.015846178 0.05430811 -0.04853092 -0.020425921
-0.08598609 -0.11495506 -0.04845375 0.046887554 0.00011282668 -0.064128846 -0.08843902 -0.13121092
-0.080717444 -0.034947593 0.097306095 0.08908121 0.11288331 0.04704047 0.06424518 0.08376975
0.026486615 0.106745936 -0.05826629 -0.049888358 -0.046615966 0.037185203 0.048829403 -0.052031726
-0.011858834 -0.028717976 0.124126345 0.09405621 0.11359137 0.060445912 -0.026423419 0.042188466
-0.071247965 0.049925897 0.0893346 -0.04968918 0.107639834 -0.049716923 0.029104725 -0.09670981
0.004462429 -0.077329785 0.11380663 -0.09951444 -0.017366644 -0.08560886 0.05417573 -0.041254066
0.036984045 0.060166102 0.03759869 -0.08981661 -0.1023441 0.07652491 -0.10417205 -0.06546617
0.020658271 0.009514995 -0.024101032 0.05560085 0.0023451569 0.053914145 -0.08474656 -0.035114694
-0.057410687 0.08741909 0.107453085 0.09912937 -0.06360886 -0.1213532 -0.095626384 0.12210984
0.024983633 -0.05965335 0.07995224 0.012853561 0.03408714 -0.116024785 -0.10870273 0.070976846
0.08059376 -0.081277154 -0.0075472486 0.054095462 -0.03788703 0.06905755 -0.10347557 0.09008316
-0.009697724 -0.10212275 0.024172802 0.07092621 -0.025123296 -0.07634227 0.08364692 -0.11553163
-0.10368912 -0.107782625 -0.07933429 0.040780216 -0.054643568 0.048293866 0.085236475 -0.09297741
0.054560725 0.011610623 0.03386431 -0.036673855 0.107994094 0.062966764 0.016478462 0.024567971
-0.03124551 -0.09691938 -0.08478063 -0.02066638 -0.08373704 -0.009057035 -0.07241304 0.07286517
0.07248253 -0.02297303 -0.0038142568 0.08018891 0.020799842 -0.059648007 0.10168205 0.05357033
0.08201559 -0.056179263 0.13967712 0.04787574 -0.104598485 -0.059044544 0.10426385 0.13372415

hidden2_Y1.bias f4 [200]
00000000: 0f8e 7f3d fa41 a43a a7fd 6abc c614 443d
00000010: 3cac 5c3c b69d db3b facd 8bbd 0c57 e4bc
00000020: df83 2cbc 0e83 563d 57fa 3dbc a4a8 50bd
00000030: 289c 9f3d 43f1 ec3c 2b11 c73c 1099 e03c
00000040: 01be 683d 7b01 55bd e8aa e63a cbe8 29bb
00000050: 7bc7 8ebd 3d65 853c 55fd 0ebd 4823 023d
00000060: 91c7 9bbd b7b8 55bd 2467 13bc 30a4 69bd
00000070: 8ecb 39bd 5a36 2ebd d1db 5c3d a19b 0a3c
00000080: f02c d3bb dbf8 4d3d 5fb6 3fbc 3243 cf3c
00000090: 42b4 b7bc a2b6 84bd b4d4 a83d 4000 b43c
000000a0: 888f 17bd 37fb 8cbb 5b2b 0f39 ed08 643d
000000b0: 188b b5bc f3c4 8dbc 8a21 e0ba ce66 053d
000000c0: aecd 31bd 0ecb 15bc e460 38bd 8ea2 213d
000000d0: d9be 3a3d 6209 b1bd c685 c03c 1d99 e4ba
000000e0: f927 1dbd f5fe 403d a111 573d 9b90 81bd
000000f0: f9e3 70bd c775 803b 8f40 1fbd 1b5c 55bd
00000100: 43ee 37bc 551b d9bc 3888 6d3c 1967 543d
00000110: 9992 fcbc 4263 2cbd bddc 48bd fef1 3f3d
00000120: 3902 883d fe00 72bd 741a 0d3d 2a0d b6bc
00000130: 4202 0dbc 7b33 983c 8da3 93bd 259a 703d
00000140: cf0a 03bd ab16 8339 c9d6 febc ac95 9ebd
00000150: 9467 773d 7803 5abc 6a78 37bb 03b8 34bd
00000160: 8dfb 633d fc06 883d 9214 17bd a34f 1ebd
00000170: 4369 e9bc d759 64bd 18ce bcbc 2bd9 c7bc
00000180: 031d 1cbd 177a 373b a162 0a3d 2f10 4abc
00000190: d673 44bd bf26 813c 21f2 59bb c7c4 453d
000001a0: 4fac 81bd 002a 463d bd33 d43c 5810 033d
000001b0: e8a3 543d 4e79 81bd 13fa 82bd 762d 00bd
000001c0: c6c0 633d 0943 4ebd b4b9 abbd 9624 4fbd
000001d0: 47c4 3d3d 557c a13c 022c 30bd 915e 55bd
000001e0: 681f 2bbd 70c0 ebbc 7b34 8f3b 6422 8dbd
000001f0: bb8b 5abd e09b 483d c364 c33b 7e4b 9cbc
00000200: f20c 87bd 61ee b13d ecdd bcbc ca83 d5bc
00000210: b6f0 843d 60c9 80bc 35f1 593d 79aa 23bc
00000220: c0db febc 0921 f6bc b9d2 d3bc 4337 d93c
00000230: 03c9 6ebd 8fa5 123b a405 603d f4e2 0abd
00000240: 35c7 7ebd 1a51 893c 1e70 a9bc 7654 59bd
00000250: e528 adbd 65e3 b3bd 0490 4ebd d271 a53b
00000260: 84f9 84bc 2a4d 98bd a0e5 bebc 6839 783c
00000270: 8366 19bd 19d3 fe3b 69f2 8a3d 0880 44bd
00000280: 98ef 723d 7e02 b5bd 8e47 fb3a 3f6e 7abb
00000290: cad6 bfbc d410 83bc 3e02 653d 44e6 99bc
000002a0: 5ea7 d43c d563 923c 20e3 513c 61b8 1dbc
000002b0: 6486 a2bc 7551 623d eb74 023d c535 973d
000002c0: 5c4c 84bd 2250 683d e56b 42bd 79dd 90bb
000002d0: 2cc9 5bbd 92f1 94bc 8df6 153d a767 df3b
000002e0: d667 263c 1ff7 6fbd 76d1 64bd b4b7 d63b
000002f0: a851 803c 83c9 2abd 33e7 7bbd 2c6e c3bd
00000300: 6319 88bd d1f1 223c 8fbb b0bd 7164 653d
00000310: c559 3fbd 7b01 50bd c71f 90bc 0366 01bc
0.062391337 0.001253187 -0.014342702 0.047871374 0.013468798 0.00670215 -0.06826396 -0.027873538
-0.010529487 0.052371077 -0.01159533 -0.05094208 0.07793456 0.028923636 0.024300179 0.027416736
0.056821827 -0.052003365 0.0017598541 -0.002592611 -0.06971642 0.016283626 -0.034909565 0.031771928
-0.07606424 -0.05217811 -0.008996759 -0.057041347 -0.04536014 -0.042532302 0.05392057 0.008459956
-0.006444566 0.050286155 -0.0117011955 0.025300596 -0.02242482 -0.06480147 0.08243695 0.021972775
-0.037002116 -0.004302408 0.00013653694 0.055672575 -0.022161052 -0.017305827 -0.0017099839 0.032568745
-0.043409042 -0.00914265 -0.045014277 0.039461665 0.045592163 -0.08644368 0.023501288 -0.0017440651
-0.0383682 0.047118146 0.052507047 -0.063264094 -0.05881116 0.00392029 -0.038879927 -0.05208979
-0.01122624 -0.02650229 0.014497809 0.051856134 -0.030831622 -0.042086847 -0.049038637 0.04686164
0.06641049 -0.059082977 0.034449056 -0.022223074 -0.008606495 0.018579235 -0.07208929 0.058740754
-0.03199273 0.00025003156 -0.031108277 -0.077433914 0.060401514 -0.013306491 -0.0027995356 -0.0441208
0.05565982 0.06641957 -0.03688485 -0.038650166 -0.028492576 -0.05574974 -0.023047492 -0.024395546
-0.038113605 0.0027996355 0.033785466 -0.01233296 -0.047962032 0.015765546 -0.0033255892 0.048283365
-0.063316934 0.048379898 0.025903577 0.03199801 0.051914126 -0.06321965 -0.06395354 -0.031293355
0.055603765 -0.0503569 -0.083850294 -0.050572 0.046329763 0.019712606 -0.04301072 -0.05209214
-0.041778 -0.028778285 0.00437027 -0.06891325 -0.053355914 0.04897678 0.0059629395 -0.019078966
-0.06594266 0.08688045 -0.02305504 -0.026063818 0.064912245 -0.015721023 0.05320855 -0.009989374
-0.031110644 -0.03004505 -0.025857316 0.026515609 -0.05829717 0.0022376513 0.05469288 -0.033907846
-0.062201697 0.016762305 -0.020683344 -0.053059064 -0.08455066 -0.087836064 -0.050430313 0.005048969
-0.01623226 -0.07436593 -0.023302853 0.0151504055 -0.03745128 0.0077766296 0.06784517 -0.047973663
0.059310526 -0.08838366 0.0019171105 -0.0038212684 -0.02341785 -0.015999235 0.05591034 -0.018786557
0.025958713 0.01786987 0.0128104985 -0.009626479 -0.019839473 0.055253465 0.031849783 0.073833026
-0.06459877 0.056717046 -0.047466177 -0.004420933 -0.05365865 -0.018181596 0.036612082 0.0068177762
0.010156592 -0.058585282 -0.05586382 0.006552661 0.015663937 -0.041696083 -0.061499786 -0.09542498
-0.06645467 0.009945349 -0.08629524 0.05600399 -0.04671647 -0.050782662 -0.017593278 -0.007897857
