Results/Models/SAE_stacked_all_DCN_model_iter_id_8_epoch_400_lr_0.0001_mmd.pth (torch, 828598 bytes, 16 tensors)

shared1.weight f4 [200, 17]
00000000: a711 23be 900f de3b 1550 92be fb64 a83d
00000010: 09f4 823c 3077 03be bd4c 0ebe f698 dabd
00000020: e03e fcbd c64b 51bd 6f7f 5abd 658a d73d
00000030: 5c63 4fbd 5fe4 90bc 5329 c2bd b632 993b
00000040: 62eb e53d d3d9 a03d 6e44 413d b88e ed3d
00000050: 286a 083e 47a9 e83d 29f7 7ebd de52 663d
00000060: f27c b43d 1349 91bd fd5f 253d 111b 03be
00000070: 4704 ff3d d6a4 65bd db83 53bc 5d3a a0be
00000080: 3ea3 b8bd 5dd8 433c 23bb 2b3d b251 b1bd
00000090: 2d3d 21be d1d8 8d3d 8c7a 8a3c 2140 4a3d
000000a0: 202f e9bd 836a 863d df7e cb3c 7687 eabd
000000b0: 9c7c ea3b ef3e 28bc 4f3c 05bb 74c2 653d
000000c0: 4ec2 84bc 3d8b cf3d 1d3a 863e ebac 23be
000000d0: 6550 b2bd ddb4 23be 12cd 43be b231 4cbe
000000e0: fdea f8bc 74f2 233d ed55 b4bd edde b33d
000000f0: b888 58bd 4388 c2bd 21f7 babd 58dd 77bd
00000100: c53e 5cbe c0d4 553d 79e7 40bd dafc cfbd
00000110: 0e1d d2bd 1c08 963c d08e a33d 47ef bcbd
00000120: 3103 cebd a928 f8bd adb2 f1bd 8317 da3c
00000130: 07a3 9e3d f0e0 98bd c0d7 c73c e130 d83c
00000140: c826 943d e426 ad3c 1ee4 19bd 1d28 ed3c
00000150: 7d11 3c3e 1e46 f3bd 043f eb3d 8642 163e
00000160: 472a a33d fdcd ab3d ad47 043b 9525 1eba
00000170: 108a 0f3e 3b4b 60bc ae65 503d 599b 34bd
00000180: 221f 8ebd 7274 28be 47f7 c0bd bd91 323e
00000190: 0fda e33b 32cd ae3d 162a 01be ef4f ee3d
000001a0: 5eea 0fbe 262a e83c 5e26 3b3c 7cb3 f5bd
000001b0: f8f2 c8bd 0bee 44bd 451d ab3b bcdd 1c3e
000001c0: cdfe 0bbe e97e 31bd 1cde b73d 9cad bc3d
000001d0: 0b4c dd3d 09a1 7dbd 3421 8a3d 6cd7 b93d
000001e0: dc61 e8bd 25cc aa3b 07f6 bcbb f393 fb3d
000001f0: baff cd3c 4af3 883d 0946 903d 9a10 0dbe
00000200: 77f7 d7bc 9cc8 f8ba c43c 0c3e 4524 763d
00000210: 0e10 a33c 6a05 153e 07fc bcbd 3909 9bbd
00000220: 2e4d 7cbd a7cd b33d a5a0 19be 248f 99bd
00000230: 8095 c43d a0f4 e03d 3722 6d3c 8d00 883d
00000240: b7c1 ad3d 9104 c9bc 10a4 ccbd 527d 27be
00000250: f32e c73d e91e a9bc f01e 34be 582d 7c3d
00000260: 4692 c3bd 89d7 773d f0ed 2d3d f7f2 e9bc
00000270: 4a43 0d3d 4d1e ea3d e6c3 a43d 8d9f e4bd
00000280: 282f 993d 41eb a93d c527 39be a9fd 10be
00000290: bf9e 393e 31d4 1fbe ee37 193e eead 3abd
000002a0: fef8 38bd 4888 443e 886f 18bd 9a18 1bbe
000002b0: 74e5 743d bcf5 103e c783 dfbd 9c57 b73d
000002c0: 53b8 03bd ecec 83be 5771 2d3e f595 a2bd
000002d0: 7716 2b3e 789a e43b 5262 793d 1df6 09bd
000002e0: 3f82 03bd e275 24be 250d a7bd 4a9a 6b3d
000002f0: 47d3 1abe 01a7 4b3c 5d06 70bc b581 0cbe
00000300: 6be4 0dbe 34cc 673d eb92 183e 4e73 edbd
00000310: 16b6 983d 9a4f 20be 5bc7 8cbd f976 9fbd
00000320: db26 e43d 4b20 15be 3dec bb3d be78 043e
00000330: 3135 76bd 8cfb e43d 109e 3bbd b68a dfbd
00000340: eb92 a83d 1508 f4bc 0ff9 923d 4558 e03d
00000350: 245f b3bd 1700 fbbd de98 b53d 15a8 e73d
00000360: 9cbe 0b3d a334 25be 2631 9a3d 0ae1 1bbe
00000370: d897 00be 65bf f7bc 1510 8ebd 4dd3 b83d
00000380: 8c63 f33c a70b 26bd 9265 9cbc 3526 6d3d
00000390: 60c5 edbd c267 af3d bb3f 8bbc 2a22 493d
000003a0: 244b d6bd f0e8 b9bd ac6c 1f3e 0d1a 4abc
000003b0: 48a9 d7bd 1e50 743d c380 48bd 5de8 be3d
000003c0: 702a 513e df36 053e 53e4 063e 207c 3c3d
000003d0: 33fb 0ebd 31f4 f23d bb6f d53d 75e7 0abe
000003e0: ff46 a0bb bbca 03be 5ade 50bc 86bf 1e3e
000003f0: d047 afbd 6adb 643c 0c27 e13d 246a 08be
-0.15924703 0.0067767575 -0.28576723 0.082223855 0.015985506 -0.12838435 -0.13896461 -0.10673706
-0.1231668 -0.051097654 -0.053344186 0.105244435 -0.050631866 -0.01768702 -0.09480538 0.0046752347
0.11226536 0.07854047 0.0471844 0.11599487 0.13321745 0.11360412 -0.06224743 0.056231372
0.08812894 -0.07094016 0.040374745 -0.12803294 0.12451988 -0.056065403 -0.012909855 -0.31294528
-0.09015511 0.0119534405 0.041926514 -0.0865816 -0.15745993 0.0692612 0.016904138 0.049377564
-0.113859415 0.06563284 0.02484077 -0.114516184 0.007155968 -0.010268911 -0.0020330136 0.056093648
-0.016205933 0.101339795 0.26216212 -0.15983932 -0.0870674 -0.15986963 -0.19121197 -0.19940832
-0.030385489 0.040026143 -0.088054515 0.08782754 -0.05286476 -0.09498646 -0.09129167 -0.060513824
-0.2150832 0.052204847 -0.04709575 -0.101556495 -0.10259448 0.018314414 0.07986224 -0.09225326
-0.100592025 -0.1211713 -0.11801658 0.02662254 0.07745939 -0.074647784 0.02439487 0.026390495
0.072339594 0.021136709 -0.037571065 0.028949792 0.18366046 -0.11878608 0.11486629 0.14673814
0.07967048 0.083888985 0.0020184324 -0.0006032822 0.1401751 -0.013689811 0.05087822 -0.044093464
-0.06939532 -0.1645067 -0.094221644 0.17438407 0.006953485 0.08535232 -0.12613711 0.1163634
-0.14054248 0.02834041 0.011422722 -0.119971246 -0.098119676 -0.048078578 0.005221995 0.1531896
-0.13671418 -0.04333392 0.08977911 0.09212801 0.1080552 -0.061921153 0.06744614 0.090742916
-0.1134679 0.005212324 -0.0057666334 0.122840784 0.025146354 0.06687029 0.07044608 -0.13775864
-0.026363118 -0.0018980685 0.13695055 0.060093183 0.019905116 0.14552847 -0.09227758 -0.075701185
-0.06159704 0.087794594 -0.15002687 -0.07498005 0.09598827 0.109841585 0.0144734895 0.0664073
0.08484214 -0.02453831 -0.0999223 -0.163564 0.09725752 -0.020644622 -0.17589927 0.06156668
-0.09549384 0.060508285 0.042463243 -0.028558237 0.034488 0.11431561 0.08045177 -0.111632444
0.074796975 0.08296824 -0.18081577 -0.14159264 0.18126963 -0.15608288 0.14962742 -0.04557603
-0.045159332 0.19192612 -0.03721574 -0.15146104 0.059789136 0.1415624 -0.109138064 0.08952257
-0.032158207 -0.25766695 0.16937767 -0.07938758 0.16707788 0.006976422 0.06088478 -0.033681978
-0.032106634 -0.16060594 -0.08156804 0.05752019 -0.15119658 0.012429954 -0.014649955 -0.13721354
-0.13856666 0.056591228 0.14899795 -0.11594258 0.07456605 -0.15655366 -0.068739615 -0.07786364
0.111402236 -0.145631 0.09175918 0.12936684 -0.06010932 0.11180791 -0.045805037 -0.10915129
0.082311474 -0.02978901 0.071764104 0.10954336 -0.08758381 -0.122558765 0.08867048 0.11311356
0.034117326 -0.1613336 0.075289056 -0.15222564 -0.12557924 -0.030242631 -0.06936661 0.090246774
0.029710554 -0.040538456 -0.019091401 0.057897765 -0.11609912 0.08564712 -0.016998162 0.049104847
-0.10463551 -0.090776324 0.15568799 -0.012335313 -0.10530335 0.05964672 -0.04895092 0.093216635
0.20426345 0.13009213 0.13173036 0.046016812 -0.03490753 0.11862982 0.104217015 -0.13564856
-0.004891276 -0.12870304 -0.012748325 0.15502748 -0.08558619 0.013968328 0.10993776 -0.1332174

shared1.bias f4 [200]
00000000: a058 74be 11be 97bd 4616 bb3d 66d8 143e
00000010: bd76 e83c bdc7 debd f943 83be 230c 063d
00000020: ec9f 133e f78c 62be eb7d dfbd 4520 4fbe
00000030: a233 f13d bc10 54be cd1e 75be 5cf9 003e
00000040: 67f0 47be ea7b d73b 7391 b03d 151f 41be
00000050: 7317 7bbe ac5e 1b3d 9a98 e43d 40aa 39be
00000060: 06c4 033e 3fbd c4bc aa55 c53d 1293 163e
00000070: 3dff 16be bb19 c73d 4499 223e 5a62 9c3d
00000080: c634 0d3e 189d 04bd 6239 583e 5451 f43c
00000090: 364e 02be fe6f ca3d 267c 28bb 6096 c03b
000000a0: 224a f2bb c7ea f9bd 5ab3 b0bd d32b 033e
000000b0: 33e4 843d 688f 82be d734 693b 9ac8 683c
000000c0: 1c7d 50be 7fa8 c2bd e062 313d 3522 9abe
000000d0: a87c 2fbe 3c77 0e3e d41a 323e 03d3 83bd
000000e0: 991e 103e 6064 073e 552d b6bd b7ca 083e
000000f0: 1c7c f23d 06c1 7fbd 7b01 1c3e cfd1 283e
00000100: c56c d33c c039 88bd 02e0 bd3c 4426 f6bd
00000110: d5c8 0fbe 12bf 2abe fd11 10be 6347 82be
00000120: eba4 7fbe 9cae 503e 733c 9fbc e249 813e
00000130: 2836 013d b507 92bc 57d2 0ebe 7106 fe3d
00000140: 4111 80be 577f 2dbd 1faa 52bd e29e b4bc
00000150: 110d bcbd 7e7a dd3d b233 f73d 9717 0c3e
00000160: 50e4 c4bd faa5 443d 5b3a debd 5f9c 2cbc
00000170: c406 143e d80c dd3d 98e0 5abd 10a0 0ebe
00000180: 3a5e a23b b6f9 903d 61a2 c0bd 43f8 21be
00000190: 26be 9abd 35db 80bd 5991 1ebe 1278 0a3e
000001a0: 802f 01be ac6e b1bd 1f52 183c 8a97 3b3e
000001b0: 34ff 3e3d 4f48 6c3d cef7 c4bd 1191 a63d
000001c0: 654e e93d e0a3 343e fd4c 5dbe 80e3 a937
000001d0: f4f1 ba3d 43d2 0b3e dc78 93bd 4218 a93d
000001e0: fb2b 27be 090c d63d c50c 08be f8dc 61bd
000001f0: dd37 0a3d cbc6 79be 9910 5dbe 622b ec3c
00000200: 7962 85bd becb 8a3d 59d0 c83c e828 b13d
00000210: 9a79 dc3d 63cf 1ebe 5bc7 88be ab7f 4abe
00000220: e018 1b3d 5e47 923d 4bea 22bd e1a5 9dbb
00000230: bc0d 223e 2487 8cbe eac2 89be e40e e3bd
00000240: 2196 67be 5faf e33d 3d1f d43d 750b dc3d
00000250: 7c88 0f3d 81c6 44bc 7a9d 48be 5871 80be
00000260: 4fba ca3d f6d1 b3bc 1a61 b7bd 57b9 7bbe
00000270: 6c03 53be c01d 8c3d f8f2 ccbd 9d0d cbbd
00000280: a2cf 2c3e b49c 02be d768 2fbe 8041 7bbe
00000290: d627 1b3e 1023 d23d 8b38 83be bd98 40bc
000002a0: cf77 e63c 88d1 53bd fa1d 51bb ea82 91bc
000002b0: 06e2 063e e132 423e 5a89 80be 527a 65bd
000002c0: aa49 b93d 09fe 103e 28a9 e03c 55e0 093e
000002d0: d82a 15be 7b61 98bd 6819 75be 8829 84be
000002e0: affb 7dbe fc24 05bc d4c6 47be 10ec 0b3b
000002f0: 64c2 4abe fb6c f1bd 998d 0e3e b5f3 a53d
00000300: fc6c 23bd 258c 18be 0798 2fbe f07f 133e
00000310: 8ac9 a53c 5cf5 033e cf41 cf3d c6af 21be
-0.23861933 -0.07409299 0.09135108 0.14535674 0.028376931 -0.10877941 -0.25637797 0.03272642
0.14416474 -0.22124086 -0.10912689 -0.20227154 0.11777426 -0.20709509 -0.23937531 0.12595123
-0.195253 0.006576051 0.08621492 -0.18859513 -0.24520664 0.037932083 0.11161919 -0.18131351
0.12867746 -0.02401602 0.0963548 0.1470454 -0.14745803 0.097217046 0.15878779 0.076359466
0.13789663 -0.03237638 0.2111564 0.029823937 -0.12725148 0.09884642 -0.0025708764 0.005877301
-0.007394091 -0.12202983 -0.086279586 0.12809686 0.06488838 -0.25500035 0.0035584474 0.014207983
-0.20360225 -0.09504794 0.043307185 -0.30104223 -0.17137396 0.13912672 0.17393047 -0.06436732
0.14074172 0.13221884 -0.08895365 0.1335858 0.11840078 -0.06243994 0.1523494 0.16486286
0.025808701 -0.0665164 0.023178104 -0.12019017 -0.14041455 -0.1667445 -0.14069362 -0.2544509
-0.24965255 0.20379108 -0.019438004 0.2525168 0.031545788 -0.01782594 -0.13947426 0.12403572
-0.25013164 -0.04235777 -0.05143177 -0.022048417 -0.0918218 0.10814379 0.12070407 0.13680874
-0.0961386 0.04800985 -0.10850974 -0.010535329 0.14455706 0.107934654 -0.053436846 -0.13928246
0.0049550803 0.070788786 -0.09405971 -0.1581736 -0.07555799 -0.062918104 -0.15485133 0.13522366
-0.12615776 -0.08663687 0.009296923 0.18319526 0.0466301 0.057686146 -0.096175775 0.08133138
0.11391906 0.17640638 -0.216114 2.0252308e-05 0.0912818 0.13654427 -0.072007865 0.0825658
-0.16325371 0.10451514 -0.13286121 -0.055142373 0.03374468 -0.2439224 -0.21588363 0.02882928
-0.06512923 0.06777142 0.02451341 0.086503804 0.10765381 -0.15508799 -0.26714596 -0.19775264
0.03786552 0.071425185 -0.03977422 -0.004811034 0.15825552 -0.27446854 -0.2690652 -0.110868245
-0.22615863 0.11117434 0.10357521 0.10744373 0.03504227 -0.012010218 -0.19591323 -0.25086474
0.09898817 -0.021950703 -0.089540675 -0.2458242 -0.20606774 0.06841612 -0.1000728 -0.09914706
0.1687608 -0.1275509 -0.17129837 -0.24536705 0.15151915 0.10260594 -0.25629076 -0.011755166
0.028133301 -0.051713496 -0.0031908737 -0.01776262 0.13172159 0.18964721 -0.2510479 -0.056024857
0.090472534 0.14159407 0.02742441 0.13464482 -0.14567125 -0.07440468 -0.23935473 -0.25812936
-0.24803041 -0.008126494 -0.1950944 0.002135042 -0.19800717 -0.117883645 0.13921203 0.08103124
-0.039898857 -0.14897211 -0.17147838 0.14404273 0.020237703 0.12886566 0.10119974 -0.15789708

shared2.weight f4 [200, 200]
00000000: edf4 6f3b 8bcb 863d 2802 5b3d a133 16bd
00000010: 5e48 1ebd 6416 f33d 35b8 f93b fd0f 1c3c
00000020: 6c38 123e 95b5 a83d 9343 acbd 2658 3f3e
00000030: 8a69 423d faa8 f4bd 52ed 3e3e 587b 7e3d
00000040: 52f0 033d 1fc1 743d 3ed4 a23d 7d60 a93d
00000050: 6dad 653e 273c b3bd 508d c1bc 330b 2d3d
00000060: a090 0a3e 4a61 973d 213c ac3d f474 bf3d
00000070: d87e 8d3d ffeb 883d e270 91bd 7f73 b73d
00000080: b7ff 133c 4d5e 833d 238d f53c 890c 463a
00000090: f838 21bd ae87 193d 5e6d 4b3d a022 9cbd
000000a0: e41f 5bbc 886f a8bc d9e9 aa3d 0d4d d53d
000000b0: 59f2 c23d 578f 013e 20df 873d 4666 86bd
000000c0: d73c c33d d06e 93bd b5f8 70bc 583f 6cbc
000000d0: e0e5 50bd 4de6 14be 20ca 9d3d b1d3 e1bd
000000e0: 450b ec3d 1a35 01bd 4840 ddbd c1b7 143e
000000f0: 9238 333e 8857 4fbd 05d6 623c 002b 883d
00000100: 2e33 a13d 3a53 303a bdc8 7a3e 6813 353e
00000110: d517 6abd 4555 8f3d 1e9b e43c 0f78 843e
00000120: 44f4 f83d af58 1a3e 0b2b 1d3b 56da df3d
00000130: d0b7 053e 7724 b9bd 530c b73c dd08 17bd
00000140: 6006 783d e73f 313e 83ad 173e 785a 3b3c
00000150: 4e26 9e3d 2135 adbd ad61 a03d 55c4 653d
00000160: 97ce 2abd 98ce 333e 55e9 223e 25f7 363d
00000170: 79be 4f3c dd23 573d 470c 4e3d 12a7 eebd
00000180: 7b46 a93d 45dd bf3d b007 91bd da24 94bc
00000190: b849 fc3d bfaa 943c 7068 9dbb ab68 8bbd
000001a0: ab34 eb3d c11d debd 27ad 9bbd 6140 033d
000001b0: 109d 93bd 8f12 243d 933b 01be 3484 513e
000001c0: fb9e c33d a344 153d 10e6 41bd 0a45 813d
000001d0: 3670 1e3e 0702 433d bf59 823d 97b4 2a3e
000001e0: 90cd 18bb c93d 9a3d 811c 89bd 481a b53d
000001f0: 6a21 ea3d 68c1 8bbd 1026 0fbd 0544 793c
00000200: d93b 633d 3d0f 66bc d25c 0e3e 0d92 c1bd
00000210: ff2b b3bd dafa 2c3d 9b81 353d 6fb5 13bd
00000220: 8cc3 9bbd 6562 163d 31b1 73bd ab6a 8c3c
00000230: aa3a 8fbd 1d09 fdbc 02b3 743d 9579 d8bc
00000240: 7e0e acbc 4163 453d bcd5 eabd 27a9 223b
00000250: 091a 8f3d 92a2 0bbc 9f68 b13d ac59 b3bc
00000260: 5e52 19bd 4189 c63c 4cce b43d d415 e73d
00000270: 7cca 493d 62da 9c3d e11f 063e 1135 56bd
00000280: 155a e53c 73b2 093e 3325 ad3d e009 5f3c
00000290: 20e2 6ebc 5dbb 3c3e bed0 6b3d bc75 233e
000002a0: dbb1 75bd 0b2b 1fbd 2c54 d0bd 20d6 85bd
000002b0: 5323 f43d a3a2 7e3d 46b6 5e3e 6e94 193e
000002c0: ad6c 183d 3384 4d3d 2291 f7bd ee22 8cbd
000002d0: 75fc 7bbd accd e53d 00e1 c23d 8d75 d83b
000002e0: 1c60 91bd bfa0 113e f978 143d aa2d 243d
000002f0: 7f2e c63d 2140 943d e3df 013e 4baa b73d
00000300: 3797 a03c 444e 81bd 8400 f8bc cb31 5a3e
00000310: ff2c d5bd 8089 d4bd 8f80 0c3d d213 e13d
00000320: 280b e2bd b9bb a43d c08d 3cbd d249 0b3e
00000330: fc09 823d 200f dd3c 6b79 3e3e e8e7 033d
00000340: bdad 1a3d 4721 343e a3e6 bdbd b49c 023d
00000350: 1619 a4bd cd34 44bd 7171 9bbc 5aae b5bd
00000360: 4d50 d6bd 1105 e0bd 2075 f23d cc5f 1c3e
00000370: cd9b be3d cc26 e0bd e0cf 51bd 7297 d73d
00000380: 47b4 e5bd ad56 393d 568f a23d ab21 e23a
00000390: 16a2 ffbd a1bd f83c a5c0 a0ba a0ed 87bd
000003a0: 4e32 43bd 3a60 813d a5bd 8b3d fb29 8fbb
000003b0: 4d3d e7bc b838 1dbe 212d 973d 9cdf f13d
000003c0: 89fb 453d 68d3 91bd 1d60 e13d ec69 2a3d
000003d0: 6f6e d43c ede8 263e c83b 5dbd f6c3 b93d
000003e0: dcdb e2bc 6cc1 993d 06eb f53c ea2d acbd
000003f0: c52f 883d 83db 833d 3fc3 153c e8fe dc3c
0.0036614493 0.065817915 0.053468853 -0.03667033 -0.038643233 0.11869505 0.007620836 0.009525296
0.14279336 0.08237759 -0.08411326 0.1868597 0.04746393 -0.11946292 0.18645218 0.06212935
0.03221161 0.059754487 0.07950638 0.08270357 0.22429438 -0.087517075 -0.023626953 0.04224701
0.13531733 0.07391603 0.08409906 0.09348479 0.06908959 0.06685638 -0.07101609 0.08957576
0.009033135 0.06414471 0.029974526 0.00075549685 -0.03936097 0.03748291 0.049664848 -0.07623792
-0.013374303 -0.020560995 0.08345384 0.10415087 0.095188804 0.12652336 0.066343546 -0.06562476
0.09533089 -0.0719887 -0.014707734 -0.014419399 -0.051000476 -0.14540978 0.07704568 -0.11026705
0.11525587 -0.031544782 -0.10803276 0.14523222 0.17502049 -0.050620586 0.013844972 0.066488266
0.0787109 0.0006726269 0.24490638 0.17683184 -0.057151634 0.06998686 0.027905997 0.25872847
0.12155965 0.15072893 0.0023981954 0.10930316 0.130584 -0.09040158 0.022344744 -0.036873687
0.060552955 0.17309533 0.14812283 0.011435144 0.0772215 -0.08457399 0.0783113 0.05609544
-0.041700926 0.17559278 0.15909322 0.04466929 0.01267969 0.052524436 0.050304677 -0.1165296
0.08265396 0.09368376 -0.070815444 -0.018083978 0.12318748 0.018147824 -0.0048037097 -0.06807073
0.11484655 -0.10845519 -0.076013856 0.03204382 -0.07207692 0.04005676 -0.12620382 0.20460588
0.095518075 0.03644241 -0.047338545 0.06311996 0.15472493 0.047609355 0.06364774 0.16670452
-0.0023315884 0.07531316 -0.0669489 0.088429034 0.114321545 -0.06823999 -0.03494841 0.015213971
0.055476997 -0.014041719 0.13902596 -0.09451685 -0.08748626 0.04223142 0.044313055 -0.0360617
-0.07605657 0.03671493 -0.059495155 0.017140707 -0.06993611 -0.030888135 0.059741028 -0.026425162
-0.021003004 0.04819036 -0.11466548 0.002482006 0.06987388 -0.0085226465 0.08662533 -0.021893345
-0.037432067 0.02423537 0.088284105 0.1128346 0.04926537 0.07658841 0.13098098 -0.0522967
0.027997056 0.13446979 0.08454361 0.013613194 -0.01458028 0.18430848 0.05757212 0.15962881
-0.05998407 -0.03885941 -0.101723045 -0.06534982 0.119208 0.06216682 0.2174922 0.14998028
0.037213016 0.050174903 -0.12088229 -0.068426 -0.06152006 0.112208694 0.095155716 0.00660581
-0.070984095 0.14221476 0.03624818 0.04008261 0.09676837 0.07238794 0.12683062 0.08968028
0.019603355 -0.06313756 -0.030273683 0.21308057 -0.10408973 -0.103777885 0.03430229 0.109901085
-0.11037284 0.08043618 -0.04603362 0.13602379 0.063495606 0.026984751 0.18601005 0.032203585
0.037763346 0.1759082 -0.09272506 0.031887725 -0.08012597 -0.047901917 -0.018974992 -0.088711455
-0.10464535 -0.10938466 0.11838746 0.15270919 0.093070604 -0.109449 -0.051223636 0.10526933
-0.11216026 0.045248676 0.079374954 0.0017252465 -0.12482087 0.03036386 -0.0012264444 -0.0663712
-0.047655396 0.06317182 0.06823281 -0.004369018 -0.028227473 -0.15353668 0.073816545 0.11810228
0.048335586 -0.07120401 0.1100466 0.04160492 0.025931565 0.16299792 -0.05401209 0.0907058
-0.027692728 0.075075954 0.030019294 -0.08407195 0.06649736 0.06438353 0.009140789 0.026977018

shared2.bias f4 [200]
00000000: 9c0a b13c ad82 b9bd c49c 73bc 9cba 97bd
00000010: 875a 13bd 51e3 21bd c576 84bd bd1d 1d39
00000020: b292 eebc 319c 65bd 0816 ccbc a24a f5ba
00000030: c829 b0bd 2e19 df3c 3947 4bbd 1877 633c
00000040: 4b0c a33c 0459 11bd 3c00 fabc 071c f1bc
00000050: 22e0 213d 95da 56bd 15dc 8e3c d7e8 223c
00000060: fa32 fcbb 286d 6a3c 639b 28bc e8c9 15bd
00000070: 1b1b b13c 9a26 debc 96bf 9a3b 9401 c8ba
00000080: 8878 88bd e3f5 d43c 93f6 3c3c 284a b73c
00000090: 6dbf 5b3d 8c85 36bd ac49 65bd f4c5 48bd
000000a0: 90e9 1bbc aa44 02bd 4b51 063d f90d bd3c
000000b0: d515 883c 767b 9dbc c831 edbd 7cfb 04be
000000c0: 2c40 81bc 3888 5ebd e81d 55bd d1cf 453b
000000d0: 29f3 ffbb d566 c23d 1a6a fdbb d563 e0bc
000000e0: 1b09 163d a79a 59bd c2ba 80bd 5b22 71bc
000000f0: 93c3 cbbd 0a50 06bd 4daf 0ebc 27d5 06bc
00000100: e66b 1e3d 818b cdbd d0a1 c63c 1162 5f3c
00000110: 02ec 6abd c8e9 90bd a1bf d3bc 722c 91bc
00000120: 4e6c 3cbd 9516 0abd 9dce 9f3a f95e f93c
00000130: f936 62bd e12f 173d 4f0a 0bbc 1f32 603d
00000140: 4458 5f3c a036 92bb ed7b 50bc 9504 d33c
00000150: f91a 89bc 8335 fcbc ae18 b1bd a529 8dbd
00000160: fde8 cdbd 619b 95bd c45f 153d 04f8 4a3c
00000170: a8ee c6bc 15d3 16bd df9d e03b b6e0 323c
00000180: f9ad 9ebc a40e c9bc 5374 d53c d3ea 5fbc
00000190: fcbe 493c 22ed c4bc 3798 5ebd 8348 41bd
000001a0: 8b3a 31bd a2fa ebbc 4160 17bd 3695 643c
000001b0: 0bd3 a2bd 4ec9 263d 5452 593a 294c 85bd
000001c0: 546b 2abd c4de afbd 0a38 88bd 2fd9 d5bd
000001d0: 38a4 8bbc b661 5abd 16c8 ebbc 97bf 40bd
000001e0: 6207 15bd 20a9 9c3a bc33 e8bd 043b 7c3d
000001f0: d831 87bd 00d2 f93c 306a c4bd 1b2f 20bd
00000200: cb58 923d 9c2f f63c afef e8bd a096 1dbd
00000210: c144 423d 3cc9 98bd 99ad 473b 89a2 a13a
00000220: fbad 6b3d 5f9a 91bc 66b5 71bd 0479 f6bc
00000230: cde9 1c3c 1770 d9bd 8ff4 99bd 00ce 073b
00000240: 826e d2bd 9484 0b3c 26fe 873b 31af 07bd
00000250: 6242 443c 9cde 5a3c 43e8 debd ef5a ddbc
00000260: b59b 153d 2083 a3bd bb71 86bd 8567 94bc
00000270: e918 f6bd 3f4e 53bc 427f 29bd 5eaf 30bd
00000280: 97cb 0fbd 05d0 273d 55ef 16bc 601c 69bd
00000290: 8301 80bd 7452 6ebd d73c e53c f84d d1bd
000002a0: 2d03 d0bd 9a76 66bd 85ec 1d3d 23e7 47bd
000002b0: 6f2d 8abc fb07 403c f17a 35bd 15e4 c13c
000002c0: 45f4 8abd 5dc1 18be 7161 a1bd 193a 88bc
000002d0: 7f5a 94bc e764 9b3c 2415 20bc 9ad6 06bc
000002e0: 1253 a93c aafb 48bd 880d bebd b600 8cbd
000002f0: f66a a1bc f45c ccbc 23ce 743d d609 d23c
00000300: 761f 673d 9409 aebd b38c bdbc eca6 05bd
00000310: 85d9 9f3d 8e8f 1c3b 90af adba 6161 60bd
0.021611504 -0.090581276 -0.014868919 -0.0740864 -0.035975005 -0.039523426 -0.06467966 0.00014983765
-0.029122684 -0.05605716 -0.024912849 -0.0018714259 -0.08601719 0.027233686 -0.04962847 0.013883375
0.019903323 -0.035485283 -0.03051769 -0.02943231 0.03952039 -0.05245455 0.017438928 0.009943209
-0.0076965066 0.014308251 -0.010290953 -0.036569506 0.02161937 -0.027118016 0.004722546 -0.0015259259
-0.066636145 0.025996154 0.011533397 0.022374228 0.053649355 -0.044560954 -0.055978462 -0.049016908
-0.009516135 -0.031803764 0.03279237 0.023077952 0.016611973 -0.01922391 -0.11581761 -0.12986559
-0.01577767 -0.054329127 -0.052030474 0.0030183683 -0.0078109694 0.0949227 -0.0077335956 -0.027391354
0.036629777 -0.053126004 -0.06285621 -0.014717664 -0.09949412 -0.032791175 -0.008708787 -0.00822953
0.03867712 -0.10036374 0.02424708 0.013634221 -0.05735398 -0.0707584 -0.025848212 -0.017721388
-0.046001725 -0.033712942 0.0012192313 0.030440794 -0.055228207 0.036910895 -0.0084863445 0.0547353
0.013631884 -0.004462078 -0.012724859 0.02575902 -0.016736494 -0.030787235 -0.086472854 -0.06892709
-0.100542046 -0.07305027 0.036468282 0.012388233 -0.024283722 -0.036822397 0.006854757 0.010917833
-0.019370066 -0.024543114 0.026056444 -0.013666826 0.012313601 -0.024038855 -0.054344382 -0.047188293
-0.04326872 -0.028806034 -0.03695703 0.01395159 -0.079504095 0.040719323 0.0008290161 -0.06508667
-0.041606262 -0.08587411 -0.066513136 -0.10441815 -0.017046079 -0.05331584 -0.028781932 -0.047057714
-0.036383994 0.0011952259 -0.113379925 0.06157972 -0.06601304 0.030495644 -0.09590566 -0.039107423
0.07145842 0.030051999 -0.11373841 -0.038473725 0.04742885 -0.074602574 0.0030468463 0.0012331764
0.057538968 -0.017773805 -0.059010886 -0.030087002 0.009577227 -0.106170826 -0.07517349 0.002072215
-0.10274984 0.008515496 0.00415017 -0.03312606 0.0119787175 0.013358738 -0.10884144 -0.0270209
0.036525447 -0.079839945 -0.06564661 -0.018115768 -0.1201647 -0.012897073 -0.041381128 -0.043135993
-0.035106268 0.040969867 -0.009212335 -0.056911826 -0.06250288 -0.058184102 0.027983112 -0.102199495
-0.10156856 -0.05626545 0.03855564 -0.048804414 -0.016867368 0.011720653 -0.0443067 0.023668328
-0.06784872 -0.14917512 -0.078799136 -0.016629266 -0.018109558 0.018969012 -0.009770665 -0.008229876
0.020669494 -0.04906813 -0.09279925 -0.06836073 -0.019704323 -0.024946667 0.0597669 0.025639456
0.056426488 -0.08497921 -0.02313838 -0.032629892 0.078051604 0.0023889276 -0.0013251174 -0.054780368

hidden1_Y1.weight f4 [200, 200]
00000000: 8eab dc3c d50b dd3d 45e9 8e3d 4398 e4bd
00000010: da7c f5bc 65c3 28bd fd75 40bd 1ad5 fcbd
00000020: 3ea7 573d 6afd bebd 3832 c63d cd9d cf3d
00000030: 66b5 bfbd 4cce d4bc e6a5 07bd 4d6c a13d
00000040: 9b8d f73d c9b1 8abd a6e1 dc3d 0c82 fcbd
00000050: 4a10 e63d df35 abbd a5f3 133d 5524 a8bc
00000060: 3e91 d93d 731e cebd 2270 fabd faf7 bc3d
00000070: 0685 0abd b79f 2abd 4091 4c3d 3308 69bc
00000080: 6661 a83d 57b7 183d 62fe 513d 04f8 b03d
00000090: 83fc 1c3d 76cb c43d b176 02bd 6e27 c63d
000000a0: 7b1b 0c3d f198 95bd 82d9 513d bac3 0dbc
000000b0: a301 743d 3caa f83c 2c4c 0b3e 8c76 653b
000000c0: 12dd 983d 05b0 963d b20a 53bc 9a35 37bd
000000d0: 92d9 64bd 6883 d03d e632 993d 6820 c4bd
000000e0: 98f2 183c 6e11 afbd 22df 97bd 4778 643c
000000f0: 4300 e1bd 99c9 4cbd 702e b9bd 5c8b b53d
00000100: cc01 f73d afde d8bc c4b7 8dbd a8b5 633d
00000110: c7fb dfba 1f8d b23d 8f69 e6bb 1a59 ee3d
00000120: cee0 bfbd 1c3b 21bc 58fa cabc 0e49 0ebd
00000130: 90ae 8bbd 06d6 f8bd f26a acbd 1064 70bb
00000140: a6d1 e1bd cc18 fa3a c4a3 23bd 7169 523d
00000150: f4a7 90bd 3e32 df3c 7390 66bd 0941 b0bd
00000160: b1b7 b93d b50e 97bc 6c4b a73c ad82 ecbc
00000170: f34c debc 9f42 fcbc a2ed d53d a52e 3d3c
00000180: 8a8d 3e3d 2bd0 c8bd f743 d43d af93 ca3d
00000190: becb 9e3c cf31 903d 4258 8e3d 6d6f 7cbd
000001a0: 2b95 fdbb c169 743d 8cdd 65bd 7754 3d3d
000001b0: 0d90 973d b0f4 04bd c5fe 91bb 8bdd 613c
000001c0: 4d21 813d a546 babd 2497 a63d ef30 da3c
000001d0: ef16 36bd 305f d2bd 9a33 dfbd 8777 ae3d
000001e0: 7bb6 933d f4f1 b9bd 8b0f 5d3c 74cb 873d
000001f0: d840 be3d 79ab b63d 3728 f33c 486f bdbd
00000200: c06f c5bd 40a3 233d 5656 94bd ace3 fcbc
00000210: 18b7 96bd decd f23d 4b9e 53bd 0571 683d
00000220: c592 7b3d 5b73 c0bd c236 893d 7178 ce3c
00000230: ec61 213c 26fc 2f3d 159e e2bd dcaf b43c
00000240: 04ce cebd 4627 733d b3e8 9bbd 4a4c d1bd
00000250: 9246 0b3d da0d d23c eb7a 8cbd bce1 923d
00000260: 84cb adbd 77c3 2a3d eaeb 2ebd c51a 9bbc
00000270: 877f ec3d d620 6a3b cbe0 e83c 055f e03d
00000280: 9380 57bd c3a3 873d 42b3 9dbd 7491 923c
00000290: a366 763d eea6 babc 67ed 8c3c 1e11 c3bd
000002a0: b146 87bd f0c8 b5bd 574c 4ebd 0bec 83bd
000002b0: fb12 35bc 7d31 c4bd 946c a03d aa58 123d
000002c0: 0d23 983d 880e db3c db03 c2bd 378a a5bd
000002d0: 82fb ac3d ab11 30bd 64e9 343d c62a 88bd
000002e0: ceeb 693c dfff ce3d 1d43 94bd 943d 453d
000002f0: 703b ba3d 87ce c93d 59f7 24bd d00f c5bd
00000300: 7a0e 3cbd dbe7 c4bd e190 04bd 8d3b 2cbc
00000310: 13d5 69bc d176 f63d c46f e03b f15f 043e
00000320: 24a6 a6bc bf4d c83d d6ef 92bd 281b a4bc
00000330: 96bd 4e3d f3e8 903b d758 24bd f037 9cbd
00000340: e78a ce3d 7de5 9bbd 7fd5 6cbc 03fe edbd
00000350: 9b30 02be 2421 543d 3d10 7cbc 5296 dbbc
00000360: 7756 1bbd f68e 573d 80e6 cfbc 6264 3d3c
00000370: 0548 a0bd fbd9 c33d d55c febd 906d 1dba
00000380: cd26 c33c d8c6 eabb 2ec5 a1bd 842f d6bd
00000390: 369f 323d 5e41 cf3d 7bb8 a73d b54f b0bc
000003a0: b90e cd3c e205 5bbd fc67 8d3d ff44 8abd
000003b0: 328a 06bd c233 24bc 00dd e3bc 64d2 073d
000003c0: c8bf b9bd 436a ab3d 720c 3bbd 1fa9 00be
000003d0: a5cf 3ebd 1e03 5ebd fe5b 0a3d 9d16 30bd
000003e0: 42c1 903d a283 bf3b b0bf 38bc 2a13 0cbd
000003f0: e8c1 7fbd b27b efbd 1790 b13d 0194 45bd
0.026937272 0.107932724 0.069780864 -0.11161854 -0.02996676 -0.041201968 -0.046987522 -0.123453334
0.05264973 -0.09325679 0.09677547 0.1013752 -0.09360771 -0.025977276 -0.033117197 0.07881985
0.12087556 -0.06772191 0.107852265 -0.12329492 0.11233576 -0.083598845 0.03612103 -0.020525137
0.10623406 -0.100644015 -0.12228419 0.09226985 -0.033818267 -0.041656222 0.04994321 -0.014223146
0.08221702 0.03728422 0.05126799 0.08641055 0.03832675 0.096091196 -0.031851474 0.09675489
0.034205895 -0.07304562 0.051232822 -0.008652622 0.059571873 0.030354612 0.13603276 0.0035013286
0.07464041 0.07357792 -0.012880968 -0.044728853 -0.055871554 0.10181314 0.07480411 -0.095764935
0.009335183 -0.08548246 -0.07415606 0.013944692 -0.10986378 -0.049996946 -0.090420604 0.08864471
0.120608896 -0.026473371 -0.06919816 0.055593163 -0.0017088585 0.08718323 -0.0070316265 0.116380885
-0.0936905 -0.009840753 -0.024777576 -0.03473764 -0.068204045 -0.12150197 -0.08418836 -0.0036680736
-0.110263154 0.0019080876 -0.0399511 0.051370088 -0.070632845 0.027245637 -0.0562901 -0.086061545
0.090682395 -0.01843963 0.020421706 -0.028870905 -0.027136302 -0.030793486 0.104457155 0.011546765
0.0465217 -0.0980533 0.10364526 0.0989145 0.019384261 0.0704075 0.069504276 -0.0616297
-0.0077387295 0.059671167 -0.056119487 0.04622313 0.074005224 -0.032459915 -0.0044554197 0.01378573
0.0630518 -0.090955056 0.081342965 0.026634661 -0.044455465 -0.10272062 -0.10898514 0.08518892
0.0721254 -0.09079352 0.013492475 0.066306025 0.09289712 0.089194246 0.029682262 -0.09249741
-0.09640455 0.03995061 -0.0724303 -0.030870281 -0.07359141 0.11855672 -0.05166463 0.05674841
0.061419267 -0.09397002 0.06699897 0.025203915 0.009850007 0.042965077 -0.11065308 0.022056513
-0.10097888 0.059363626 -0.07612743 -0.10219629 0.034002848 0.02564137 -0.06859382 0.07171962
-0.08486083 0.041690316 -0.042705454 -0.018933663 0.115477614 0.0035725138 0.028427502 0.109556235
-0.052612852 0.06623032 -0.07700206 0.017891623 0.060156476 -0.022784676 0.017203046 -0.09524749
-0.0660528 -0.088762164 -0.050365772 -0.06441506 -0.011051889 -0.09579752 0.0783321 0.035729088
0.074285604 0.026740327 -0.094733916 -0.08083003 0.08446409 -0.0429856 0.04416789 -0.066487834
0.014277412 0.10107397 -0.07239363 0.04815443 0.09093368 0.09853845 -0.04027495 -0.096221566
-0.045912243 -0.096145354 -0.03236473 -0.010512245 -0.014271992 0.12034381 0.006849261 0.12927224
-0.020342894 0.09780454 -0.07174651 -0.02003248 0.050473772 0.004422301 -0.040123787 -0.07627857
0.10085087 -0.07612131 -0.014455198 -0.116207145 -0.12713854 0.051789418 -0.015384731 -0.026805077
-0.037924256 0.052626573 -0.025378466 0.011559578 -0.07826237 0.09563061 -0.1242005 -0.0006005401
0.023822213 -0.0071648173 -0.07898937 -0.10458282 0.043608867 0.1011989 0.08189484 -0.021522382
0.025031434 -0.053472407 0.06904599 -0.06751441 -0.032846637 -0.010022106 -0.027815342 0.03315963
-0.090697825 0.08369877 -0.045666166 -0.12564515 -0.046584744 -0.05420219 0.033779137 -0.042990316
0.07068111 0.0058445493 -0.011276171 -0.034197964 -0.062440783 -0.11693515 0.08670061 -0.04823685

hidden1_Y1.bias f4 [200]
00000000: 6a2d 4dbd 84f8 22bd 6eb2 97bb 798f e6bc
00000010: 49f1 2b3d e702 3f3d f494 54ba b852 293d
00000020: 9c89 6ebd f746 07bb b0fe c2bc 19a9 793d
00000030: dd44 65bd 5bb2 643d 2ecb 10bd 704d ed3c
00000040: e9d1 973d 66c2 aebb fa21 fa3b 8b27 153d
00000050: 9131 3a3d 4153 45bd ba46 4a3d d57a 01bd
00000060: 9cc9 fb3b 3828 123d 1cd7 32bc a03d 9f3b
00000070: 0048 0dbd c38a 3e3d ff4e 583c 25c4 673d
00000080: 72cd 7bbd 378f 5bbd 5b8d 50bc f22c 4cbc
00000090: 1d28 8ebd dfc2 8c3d b9a8 c3bc a410 c33c
000000a0: 6083 11bc 5e92 54bd 2326 e0bc fef0 a23c
000000b0: c4f9 97bd 4983 0a3d 188c 143d e6c2 96ba
000000c0: 7651 673d 47d8 23ba 1c8e f23c 7a55 263d
000000d0: aec9 65bd 2ff2 23bd edce 17bd 77d6 193d
000000e0: 152c 3b3d 010d 353d 634d 833c d497 40bc
000000f0: 5577 00bb d43a e6bc 28c2 a9bd f6d8 96bd
00000100: fa76 84bd 01b9 75bb 6a43 fabc 8b9c 693d
00000110: 1051 883c 6f8b 29bd a23f 093d 526d 0cbd
00000120: c321 aebc a4e2 59bd affa b5bb 60b0 a63c
00000130: e2ca 91bc 27b2 1b3c ff5d dd3c 63fd e93b
00000140: 6bbb 5f3d a77a 383d 6365 7b3d 589a fc3c
00000150: 4b0c 83bb ed91 40bd 6aaf 60bc a520 283d
00000160: ed9c 1b3d 0d93 c53c 8e79 e8bc 5b64 38bd
00000170: 34d3 1c3d 6a35 60bc 2b32 d5bc c0c4 f6bc
00000180: e146 54bd 409a 853b ca97 14bd b0c6 2c3d
00000190: dd29 24bd 6e03 723d 8b32 2ebd db10 aa3b
000001a0: 3203 0d3d a83f 623d 1d78 393d fcd9 013d
000001b0: 3e10 40bd b651 01bd 9406 523d 6163 9a3c
000001c0: d4ea a1bd 1e46 8dbb 5d0a 843d 9fe7 d33c
000001d0: a029 4a3d 9ee5 3bbd b79f 5f3d dac9 533d
000001e0: 0711 8738 d110 903d 4ef7 94bd b333 a3bc
000001f0: 2d92 773d 7e4a 7fbd 0b21 7bbc ef5a 393d
00000200: 7db9 65bd 729b 20bc f693 333d 5bad b13b
00000210: a6c5 e3bc b952 43bd 3f0c 373b 6e1d 083d
00000220: 4a34 453d d674 56bd 589d 1b3d 4ac5 91bd
00000230: fbcc 6bbd 55c4 87bd 0766 183d 49d8 373d
00000240: fc00 b53b b7ac d53c 349b 143d b9d4 033d
00000250: 574a ea3c 5cfb e6bc 8392 11bc 7c04 103d
00000260: e0e6 143d d6a0 72bd fd8d 68bd 7401 79bd
00000270: 2089 71bd 68c5 0fbd 2141 553d 1ac6 b53c
00000280: 6307 6c3d 474a c03b aa25 7ebd 1bf2 8a3d
00000290: 466a 56bd 9000 583c 68e6 8f3b f5e8 7e3d
000002a0: a528 82bd c69b 273d ab29 08bd 2089 fb3b
000002b0: cc46 d9bb eff5 18bd 4ad8 793d 1895 483d
000002c0: 225c 36bd 360a 493c 59ae 42bd 04ef 2e3d
000002d0: 87c6 b43c 84ba 5abd 8f1d 25bd 2d2a b23c
000002e0: 78b0 5e3d 4bc9 453d 06fe 08bc 2faa 94bc
000002f0: 05db 813d f85a cebc cda3 bfbc bcab 163b
00000300: 9fea 3dbc 5c11 023d 2052 e9bc 98ec 14bd
00000310: bd1e d2bc 0288 db3c e90c 233d c2f0 dc3b
-0.05009214 -0.039787784 -0.004629425 -0.028144585 0.041978154 0.046633627 -0.0008109354 0.041338652
-0.058236703 -0.0020641664 -0.023803085 0.06095228 -0.055973876 0.055834156 -0.035350017 0.02896759
0.07413084 -0.0053332327 0.007633445 0.036414664 0.045457426 -0.0481751 0.049383856 -0.031611282
0.007683946 0.035682887 -0.010915544 0.004859641 -0.034492493 0.046519052 0.013202428 0.056583542
-0.061475225 -0.053603377 -0.012729014 -0.012461888 -0.06941245 0.06873106 -0.023884164 0.023811646
-0.00888142 -0.0518974 -0.027361935 0.019890305 -0.07420686 0.03381661 0.036266416 -0.0011502176
0.05647417 -0.00062501844 0.029608779 0.04060886 -0.05610054 -0.040025886 -0.037062574 0.037558045
0.045696337 0.044201855 0.016028112 -0.011754949 -0.0019602377 -0.028104223 -0.082889855 -0.07365601
-0.064680055 -0.0037494304 -0.030549724 0.057034057 0.016640216 -0.04139274 0.03350795 -0.034283943
-0.021256333 -0.053194657 -0.0055535655 0.020347774 -0.017796937 0.009502924 0.02702236 0.0071408018
0.054622095 0.045038845 0.061375987 0.030835316 -0.003999268 -0.047014166 -0.013713697 0.041046757
0.037991453 0.02411797 -0.028378274 -0.04501758 0.038287356 -0.01368461 -0.026024899 -0.030123115
-0.051825408 0.004077226 -0.03627757 0.04218167 -0.040078986 0.059085302 -0.04252867 0.0051899976
0.034426875 0.05523649 0.045280565 0.031702027 -0.04689049 -0.031572066 0.051275805 0.018846216
-0.07906118 -0.004311337 0.06447289 0.025867281 0.049356103 -0.045873277 0.054595675 0.051706173
6.440473e-05 0.070344575 -0.07273732 -0.019922113 0.06044214 -0.0623269 -0.015327702 0.045252737
-0.0560851 -0.009802686 0.04384228 0.005422277 -0.027804207 -0.047686312 0.0027930883 0.03323119
0.04814557 -0.052357517 0.03799185 -0.07117708 -0.05756853 -0.06629244 0.037206676 0.044884
0.005523799 0.026083333 0.036280826 0.03218529 0.028599901 -0.02819603 -0.008885029 0.035160527
0.036352992 -0.059235416 -0.056776036 -0.0607924 -0.058968663 -0.03510037 0.052064065 0.022189189
0.057624232 0.0058682295 -0.062047638 0.06784459 -0.052347444 0.013183728 0.0043914802 0.062233884
-0.063554086 0.04092004 -0.033242863 0.0076762587 -0.006630754 -0.037343916 0.060997285 0.048970312
-0.04452146 0.012270501 -0.047529552 0.04270841 0.022067321 -0.05340053 -0.040311392 0.021748627
0.054367512 0.04828767 -0.008361345 -0.018147556 0.06340603 -0.025189862 -0.023393536 0.0022990545
-0.011591583 0.031754836 -0.028481543 -0.036358446 -0.025649423 0.026798252 0.039807234 0.0067425678

hidden2_Y1.weight f4 [200, 200]
00000000: 2110 b0bd f8cd 15bd 99f5 a4bd 6608 c6bd
00000010: 2515 d7bd 1719 c23c e79a 9d3d 577d 123d
00000020: 6db0 db3d 7efb f33d d16a 62bd 8f31 84bd
00000030: 1e6c bfbd 5247 0c3d 511f f4bd 9c16 bfbd
00000040: 8fde 0e3b d366 4c3c 1c47 213d 4978 eabc
00000050: b925 8fbd 59b9 293d ccb5 e43c 9519 f43d
00000060: 1c41 38bd 8834 d8bc c7aa 5bbd 1741 203d
00000070: 6f65 c73d 3dc8 883b 5dfd df3c a28a d8bd
00000080: 0eda 3dbd 72be d73d f6d6 68bc 9230 af3d
00000090: 49ed ca3d 4b4f a9bd 13d2 9dbd b93e af3d
000000a0: 668e 7cbd 68b4 c5bd f2ff 5ebd 079f 99bd
000000b0: 6894 033e 2704 043e d44e af3b 48a4 c3bc
000000c0: a12e 573c 7587 29bd 177d 013e e275 b93c
000000d0: 7d06 983c 3393 a93d 1050 ccbd bc23 d3bd
000000e0: 4721 eebc e01d bf3c 4b9d ba3d 15d6 e0bd
000000f0: 8fb6 733d 9922 0cbd fdda 6dbd 87be c9bd
00000100: 4f51 c8bd 3bc6 3a3c 8657 ce3d 1936 05be
00000110: f805 dfbd e1e6 7abd cc7f cdbd a724 973d
00000120: 5d7e 553d 6683 e1bd 095e abbb 2db8 c53d
00000130: f831 2ebc 92db 01bd c939 f7bc 957f b43d
00000140: 0b43 37bd a359 25bc e226 253c b7fd 3cbb
00000150: 1f13 823d 28ed 81bd f5bf cdbd aee2 7d3c
00000160: 2864 a0bd 2fbc 07bb 1b32 8f3d fc56 e13d
00000170: b102 7abd dbf9 5e3c 60eb 683d 1be6 523d
00000180: 1242 0bbd 7d7e 9abc 463e 63bd 8fd1 69bd
00000190: 563e 163d ceb5 c63d 747e 93bd bfbb af3d
000001a0: 63da a2bc 1df0 3ebd ce2b 61bd 6033 fa3d
000001b0: bace b7bd f3a5 863d 0f68 87bc f730 9d3d
000001c0: 34eb 993d 0a35 17bd c1f2 4b3d 8f59 c73b
000001d0: ee43 383c 1d0e fa3d 65a0 04bd 4972 813d
000001e0: 6421 cbbd 9d1b b4bd 56be 9b3d 191f f43b
000001f0: c17f 2b3d 8607 34bd bb84 a5bc 59c5 c23d
00000200: c881 7c3d 7b4f febd cc39 b13c 9f62 8fbc
00000210: b1f5 403c 9248 763d b487 0bbd 149e eabd
00000220: f5fc 85bd 0da2 413d 0fd3 9b3d 0c6b b0bc
00000230: f20e d63c 18fc 5fbd 5cfe b8bd 403e 313b
00000240: 028a d4bd 70d0 72bc 3766 2ebc 9f1d 853d
00000250: 9bf1 c9bd 32fd 8c3d be9b 813d fb61 d73d
00000260: 4ae8 98bd b0d2 bb3d 5d5a 4f3c 7793 cbbd
00000270: aea4 6fba 2167 b13d a5dd cfbd 3b7e dfbd
00000280: e424 c2bd 497d d43c 453c 91bc 15cf 983d
00000290: a918 ef3d 7d5a a23d 14a5 473d 94c7 9b3d
000002a0: 6d78 55bd 3526 0a3e 48f2 35bd 3066 393c
000002b0: e7b1 f2bd 10ca 953b fe01 f0bd c0b8 dd3d
000002c0: 03c0 d0bc 86f9 fe3c 276b e9bc fe75 073d
000002d0: fe28 083e 20ec 2dbd f67b 8f3d dce5 e73d
000002e0: b0ae 5fbd 9854 af3d 5a51 87bd 8d28 803d
000002f0: 7cf8 5bbd 4b28 d23c 990c 8abd edff eebc
00000300: d30e 0cbd d6ae de3d d5c1 1fbd a143 eebd
00000310: 3565 e33d 02a8 cbbc 9e63 083e e365 f23d
00000320: 024b c2bc 472b 0c3d 4f78 7c3c 38a3 84bd
00000330: 9aee 9fba 9129 21bd c9e2 dabd 38e4 1fbd
00000340: 27bc d43d c963 2c3d f099 e03d 116e 8cbd
00000350: 264f af3d 369e f13d 7b0f 26bd cd13 843d
00000360: 728f 4d3d 612b e5bd a43f 8bbd a8c4 d8bd
00000370: cce7 cbbd 5c80 3fbd bd50 063d 0c72 1ebd
00000380: c8e9 a3bd 2572 7b3c 555d 85bd 9adf 2e3d
00000390: 2424 6abd 47a0 42bc e044 143c 60fe d6bd
000003a0: 4069 d1bd 9ff8 86bd 6025 f33d 2d1a c2bd
000003b0: 2bac 5bbd e0da 28bd 1b15 9cbd 8979 ce3d
000003c0: a15a 793d 0fbc 083e 84cb 123d c60f 493d
000003d0: 44d5 3b3c b3fe e23d 4031 f93d 3cb2 b13d
000003e0: 94ca a73d b355 db3d f2c3 90bd 8e86 4a3d
000003f0: ce59 f83d 3496 a8bd 15e1 40bd 7713 c23c
-0.08596826 -0.03657338 -0.080546565 -0.096695706 -0.1050208 0.023693604 0.07695561 0.035764065
0.1072701 0.11913203 -0.05527765 -0.06454765 -0.093467936 0.034247704 -0.11920036 -0.09330484
0.0021800136 0.012475687 0.039374456 -0.02862181 -0.06989617 0.041436527 0.027918719 0.11918942
-0.04498397 -0.026392236 -0.053629663 0.039124575 0.09736144 0.004174261 0.027342493 -0.10573317
-0.04635053 0.105343714 -0.014211407 0.08554186 0.0990854 -0.08267077 -0.07706084 0.08556885
-0.06165924 -0.096535504 -0.054443307 -0.07501035 0.12849581 0.12892209 0.005349973 -0.023882046
0.013133676 -0.041388948 0.12645374 0.022639219 0.018557781 0.08280029 -0.09976208 -0.1030955
-0.029068602 0.023329675 0.091120325 -0.10978333 0.059500273 -0.034212682 -0.05807017 -0.09850793
-0.097811334 0.011399801 0.100752875 -0.13008918 -0.1088981 -0.06125534 -0.10034141 0.07380038
0.052122463 -0.110113904 -0.0052297157 0.09654269 -0.010632031 -0.03170354 -0.030178921 0.08813397
-0.04474167 -0.010092172 0.010080071 -0.002883775 0.06351303 -0.06344062 -0.100463785 0.015495939
-0.07831603 -0.0020711531 0.06991979 0.11002919 -0.061037723 0.013609375 0.056865096 0.051488977
-0.033998556 -0.018859142 -0.05547931 -0.057084616 0.036680542 0.09702645 -0.072018534 0.085807316
-0.019879526 -0.04661571 -0.054973416 0.1221683 -0.08974977 0.06574621 -0.016529111 0.07675355
0.075155646 -0.036915816 0.049792055 0.0060836743 0.011246664 0.12209723 -0.032379527 0.06320626
-0.09918478 -0.08794329 0.07604663 0.007449996 0.041869882 -0.043952487 -0.020204892 0.09510297
0.061647207 -0.124175034 0.021634005 -0.01750308 0.011777327 0.060127802 -0.034064963 -0.11455932
-0.06542388 0.047273684 0.076086156 -0.021535419 0.026130173 -0.054683775 -0.0903289 0.002704516
-0.103778854 -0.014820203 -0.010644487 0.064997904 -0.09860536 0.06884231 0.063285336 0.10516735
-0.074661806 0.09171045 0.012655822 -0.09940236 -0.00091416657 0.086622484 -0.10149697 -0.109127484
-0.094796926 0.025938647 -0.017728934 0.07461373 0.116746254 0.079274155 0.048741415 0.07606426
-0.0521168 0.13491137 -0.04442051 0.011315867 -0.118503384 0.004571207 -0.1171913 0.10826254
-0.025482183 0.031124841 -0.028493477 0.03307151 0.13296887 -0.042461514 0.070060655 0.11323139
-0.054609954 0.08561057 -0.066073135 0.062577344 -0.05370377 0.025653979 -0.06740684 -0.02917477
-0.034193825 0.10873191 -0.039003212 -0.11633993 0.11103288 -0.024860386 0.13319251 0.118358396
-0.023717407 0.03422096 0.015409543 -0.06476444 -0.0012201846 -0.03934628 -0.10687787 -0.039036006
0.1038745 0.04208735 0.10966861 -0.06856931 0.08560018 0.117977545 -0.040542107 0.06449089
0.05018563 -0.111899145 -0.06799248 -0.10584384 -0.09956321 -0.046753272 0.03279184 -0.038682982
-0.080035746 0.015347038 -0.06511942 0.04269371 -0.057163373 -0.011879033 0.009049624 -0.10497737
-0.10225153 -0.065903895 0.11872363 -0.09477649 -0.05363099 -0.04122436 -0.07621213 0.10081775
0.060877446 0.13352989 0.03583862 0.04908731 0.011464421 0.11083736 0.12167597 0.08676574
0.081929356 0.10709705 -0.070686236 0.049444728 0.12126504 -0.08231774 -0.047089655 0.023690922

hidden2_Y1.bias f4 [200]
00000000: cef6 743d c844 823c 5120 1b3d a134 97bd
00000010: aaf5 a8bd 075f 833d 5351 593d 648f ccbb
00000020: 2eb9 0d3d 256a 48bd 9a73 033d e7cd d43c
00000030: 75c5 123d ed64 38bd c565 4c3d c69e 8ebd
00000040: 062f 8fbc 0e1a 01bc e2d5 ec3c 149f 793c
00000050: ea70 943d f129 13bd fdcd 4a3d 52a1 b8bb
00000060: 8488 f7bc 1fc1 5abc b1d7 adbc f5a2 0c3d
00000070: 4eb8 15bc d9ea 61bd 4413 64bd 990a 2bbc
00000080: 2817 823d cf44 543d 4927 26bd 4968 f6bc
00000090: 6b3c acbc 1aff c8bb 8a1c fabb c1ed 52bc
000000a0: 8b8f 503d 374f 8a3d 30e3 0a3d 3a31 91bd
000000b0: dd7d 91bc 954d 963c 29e6 95bd 41d0 2dbd
000000c0: 1b9d 0bbd 3971 023d 95b9 713c be48 24bd
000000d0: 40fe 43bc bc3b 433d e40e eebc d338 97bd
000000e0: f444 a53a 1a91 7f3d 3434 78bd f1ac 2fbd
000000f0: 2dfa a0bd 61cb 4a3d db3d 3a3d 0e40 983c
00000100: 7646 8cbd 7074 a03c a19a 013c e1cd 46bc
00000110: f789 b03b 30c6 ca3c 1892 97bc 493b a73a
00000120: 1023 0cbd 448e 35bd 1d95 7a3c 4806 403b
00000130: 9f04 783d dbc7 843b 49e7 0e3d e1cf 4e3d
00000140: 1556 e3bc 5d74 553c c883 8b3d 6bf3 a03b
00000150: 9d91 603d d8b3 80bd 1248 2a3d eb09 70bd
00000160: 7e35 dfbb bccb 2b3d aa72 c83c 840e 9fbd
00000170: 26d2 f93c 4150 80bd 911c 713d 5793 16bd
00000180: 639d ab3c a637 29bd ebc7 e03b 34fa f53c
00000190: 8ec4 8fbc 30f3 a13b 4c34 0fbd 7b39 703d
000001a0: e86e 8ebd db54 c6bc 0a9d f0bb 64e7 5bbb
000001b0: 72fc 90bb 10b1 e23c 9355 9dbc 80be 24bd
000001c0: 6fbf 84bc e19d 27bd a60e 5f3d 403e 9abc
000001d0: 5234 c33c 7148 14bd b7e5 323d f685 30bd
000001e0: e258 883d 6fd1 2f3d bce5 80bd 7d19 70bb
000001f0: 05b2 263c 0c4d 893d 725b 923c 49fe 4a3d
00000200: 0ede ab3c 9887 473d 5e71 bcbc f527 753d
00000210: e13f 2fbd 240b 5abd b13f 083d 5cd5 633d
00000220: bf37 7cbc 71bc adbc a0ab fc3c 71b0 043d
00000230: a789 093d 446b 853c e27b 51bd 5ca5 4cbd
00000240: 3f4d 9fbc 93b3 81bd a1d5 4b3d 64d8 78bd
00000250: 4ac9 d43c ecb8 66bd dceb 31bd d2f8 51bc
00000260: 17ad 0b3d 1164 0cbd 580c 85bd 039d c63c
00000270: 0c9e 173d 2c12 e63c 35f6 003d b9c6 cabc
00000280: 693b 383d f9ae db3b 40a5 553d 0e6d a63c
00000290: cc31 d5bc 8e9a 573c 0754 13bc 320b fa3b
000002a0: 7a66 883d 6a5c 3bbc d185 28bd a853 5c3d
000002b0: 59a7 233c eea3 513d 1f38 9ebd 0890 263d
000002c0: 9869 5ebd da87 763d 378a a9bd b0fb 9b3c
000002d0: 9cec debc 79f6 423c cf0b b13c 29ff 91bd
000002e0: 35be e7bc 8196 25bd ac35 df3b 45d4 733d
000002f0: e9e1 063d 2aad 7e3d 3b3d aebc 58a6 15bc
00000300: 8333 923c 5a13 b33b 46a6 043d 54f5 2dba
00000310: fc1a 553d 8b3c 4a3d f55b efbc a400 f0bc
0.059805684 0.015901938 0.037872616 -0.07383085 -0.08249982 0.064146094 0.053056072 -0.0062426794
0.03460043 -0.048929352 0.032092668 0.025977088 0.03583284 -0.045018125 0.049901742 -0.069638774
-0.017478477 -0.007879747 0.028910581 0.015235681 0.07248099 -0.03592867 0.049512852 -0.0056344653
-0.030216463 -0.013351708 -0.021221014 0.034335095 -0.00913818 -0.05515561 -0.055682436 -0.010439538
0.06352073 0.051823433 -0.04056481 -0.030079024 -0.021024903 -0.006133926 -0.0076327967 -0.012874068
0.050918143 0.0675339 0.03390807 -0.07089467 -0.017760212 0.01834754 -0.0731929 -0.042434935
-0.034085374 0.03184626 0.014753719 -0.040108435 -0.011962473 0.04766439 -0.029059835 -0.07383885
0.0012609051 0.06239424 -0.06059666 -0.04288954 -0.07860217 0.049510363 0.045469146 0.018585231
-0.06849377 0.019586772 0.007910402 -0.012134046 0.0053875404 0.024752706 -0.01850228 0.0012758757
-0.034213126 -0.04432513 0.01529434 0.002930062 0.060551282 0.004052145 0.03488854 0.050491218
-0.027751008 0.013028231 0.06812245 0.00491183 0.054826368 -0.062843025 0.041572638 -0.05860321
-0.0068117967 0.041942343 0.024468739 -0.077664405 0.030495714 -0.06265307 0.058865134 -0.036761608
0.020949071 -0.041312836 0.0068597696 0.030026533 -0.01754978 0.0049423203 -0.034961984 0.058648568
-0.069547474 -0.024210384 -0.0073429393 -0.0033554668 -0.004424625 0.02767232 -0.019205844 -0.040220737
-0.016204564 -0.04092205 0.05445733 -0.018828511 0.02382866 -0.036201898 0.043676104 -0.043096505
0.06657578 0.04292434 -0.06293818 -0.0036636286 0.010174279 0.06704149 0.01786587 0.04955891
0.020979907 0.048713297 -0.023003276 0.05985256 -0.04278553 -0.05323328 0.033263866 0.055623397
-0.01539415 -0.02120802 0.030843556 0.03239483 0.03357854 0.0162865 -0.051143534 -0.049962386
-0.019446013 -0.06333079 0.04976428 -0.06075324 0.025974888 -0.0563287 -0.043437824 -0.012815671
0.03410062 -0.03427512 -0.06496495 0.02424479 0.03701596 0.028084837 0.0314848 -0.024752961
0.044978533 0.006704208 0.052159548 0.020315673 -0.026024722 0.013159407 -0.008992202 0.007630729
0.06660171 -0.011435607 -0.041143242 0.05379072 0.009988629 0.051181726 -0.07725548 0.040664703
-0.05429992 0.060188152 -0.082783155 0.019040912 -0.027212434 0.011899584 0.021612076 -0.07128746
-0.02828894 -0.040426735 0.006811818 0.059528608 0.03293029 0.06217686 -0.021269431 -0.009133898
0.017846828 0.0054649534 0.032385133 -0.0006635983 0.052027687 0.049374145 -0.029218653 -0.02929718
